model/cnn/9x9/1pc/5000play/9.pt (torch_old, 526869 bytes, 15 tensors)

conv1.weight f4 [32, 4, 3, 3]
000000 b7 85 31 be 47 0a 9b 3e 3d fa 42 3d 79 4c a3 be
       -0.17336164 0.30281278 0.047601927 -0.31894282
000010 eb 8b 53 3e e7 ed 8f be 38 4a 99 3c 00 f5 2f 3f
       0.20658843 -0.28111193 0.018712148 0.68733215
000020 b3 ca d0 3b db 0d 22 be a6 61 19 bf 02 2f 83 be
       0.00637182 -0.15825598 -0.59914625 -0.25621802
000030 c8 a3 8c bd a6 bf f9 be 34 b7 09 be e1 8b 4c be
       -0.06867176 -0.4877903 -0.13448793 -0.19975235
000040 4e c0 9f be 26 35 a4 bd 88 44 ee bd 5e 03 5e be
       -0.31201404 -0.0801795 -0.11634165 -0.21680972
000050 ed b2 86 be 80 6d 97 3c 90 3e 96 be 19 b7 3b bd
       -0.26308385 0.01848483 -0.29344606 -0.045828912
000060 71 4f d3 3c 9f 7d 07 be 4d 95 c7 bd 1a 58 e8 bc
       0.025794717 -0.13231514 -0.09745274 -0.028362323
000070 53 ec a0 3c a6 c2 39 bd f3 b2 30 be 72 a7 e7 3c
       0.019643938 -0.045351647 -0.17255764 0.028278086
000080 25 5d 2f 3d 67 61 05 be 3e ee 24 3e 7e eb 17 3e
       0.04281344 -0.13025437 0.16106507 0.14835927
000090 81 76 78 3e 22 d4 57 3e f1 92 2c 3f 9a 6b 26 3c
       0.24263956 0.21077016 0.67411715 0.01015749
0000a0 cc e9 1e 3e 0a c8 ee 3c e7 9b 21 3e fb 47 1a bd
       0.15518874 0.02914812 0.15782128 -0.037666302
0000b0 90 b8 84 3e 31 89 6c be cb c7 58 be 7a 62 40 be
       0.2592206 -0.2309921 -0.21169965 -0.18787566
0000c0 bd 60 16 be 0b 84 d6 bc 54 59 97 bd 66 c9 95 bc
       -0.1468534 -0.02618601 -0.07390085 -0.01828451
0000d0 1a b7 f0 3c a4 f0 7b bd 25 b7 e2 3d c8 30 53 3e
       0.029384185 -0.06150879 0.11070088 0.20624077
0000e0 de f6 24 3d ba 7e a5 3d 34 c2 09 be 0e aa 99 3d
       0.040274493 0.08080812 -0.13452989 0.075031385
0000f0 0a d8 a6 3c fb ac 39 3c 23 6b 89 bc 3e 1a 73 bb
       0.020366687 0.011332746 -0.01677472 -0.00370945
000100 84 da 9e 3c 63 e0 d7 bd 59 bf b9 3c 23 fc 62 be
       0.019391306 -0.10540845 0.02267425 -0.22166495
000110 07 db 21 be 45 0b c6 bc c3 75 89 bc 93 13 8a be
       -0.15806209 -0.024175296 -0.016779786 -0.2696806
000120 4b 17 07 be 37 a7 68 bd 3a 85 7e bd ab f8 4c be
       -0.1319248 -0.056800094 -0.062138774 -0.20016734
000130 8a cb 2a 3d c6 34 b5 3c d2 ea a5 3d 4a dd fd bd
       0.041698016 0.02211989 0.08101429 -0.12395723
000140 72 d8 70 3d c9 9e a6 bc 8c d8 cd bd 83 46 c2 bc
       0.05880017 -0.020339387 -0.10051069 -0.023715263
000150 13 e6 d4 bd 1e 86 a9 3d 01 c1 2d be 34 2a 19 be
       -0.10395446 0.08277534 -0.16968156 -0.14957505
000160 61 62 88 3f e9 98 a3 bd 16 78 56 bd 3c 2f f8 3d
       1.0655023 -0.0798815 -0.052360617 0.12118384
000170 91 76 9d bc db 1c 10 bc 99 a1 bb 3d 3f 6b 6d be
       -0.019221576 -0.008795942 0.09161682 -0.23185442
000180 ef 65 58 3d 29 d7 22 3d 0f 63 c6 3c 54 59 9d bd
       0.052831586 0.039755974 0.024217157 -0.076830536
000190 e7 a2 b2 3c 67 35 9e 3d ae 56 47 bd e5 cc 1b 3d
       0.021806194 0.077250294 -0.04866665 0.0380372
0001a0 cb 97 e1 bd 1e 0e 11 3e 0b ec 10 3e 1b 9c dd bd
       -0.1101528 0.14165542 0.14152543 -0.108207904
0001b0 20 c1 07 3f 66 2c 1e 3d d2 a4 59 3f fd 3c 94 3e
       0.5302906 0.03861656 0.8501712 0.2895278
0001c0 a4 b0 85 3e fd 8b 26 3d 03 46 f1 3e e1 68 98 3e
       0.2611133 0.040660847 0.47123727 0.29767516
0001d0 ba 9c 4a 3e f2 2d ad be 93 1a dd bc af b4 89 be
       0.19786349 -0.33824116 -0.02699021 -0.26895663
0001e0 95 5b 03 be a8 df c4 3d e8 d9 10 ba 09 e7 81 be
       -0.12827905 0.096129715 -0.00055256346 -0.25371578
0001f0 8d 0b eb 3c f9 e2 c2 be 0c a5 1b bd 1a c2 3a 3d
       0.028692031 -0.3806379 -0.037999198 0.045595266
000200 89 7d 58 bb b3 fb ac 3d 1a 5e 22 3d 05 7f 44 3d
       -0.003303381 0.08446445 0.039640523 0.047972698
000210 8d 35 30 bd db 7e 3f 3d 2a 67 78 bd 5e ba b8 3b
       -0.04301982 0.04675184 -0.06064526 0.005637451
000220 7d b6 aa bb 15 25 1c bd 70 06 c0 bd d7 bd b1 bd
       -0.0052097426 -0.0381213 -0.09376228 -0.08678787
000230 cf 02 be bc 5b f8 d8 3d 9e e5 17 3e eb 82 6b 3d
       -0.023194699 0.10594245 0.14833686 0.0574979
000240 8a 55 a0 3e bc b4 e9 bd 6a 25 99 bd e6 8f c6 bd
       0.3131526 -0.114114255 -0.07477839 -0.09695415
000250 6c 4b df 3d 36 f7 1a be a4 4f 3f 3f 17 17 b5 3e
       0.109030575 -0.15133366 0.74730897 0.3536918
000260 5c 13 d3 3e 87 6f 4c 3e c4 2c 15 3e 49 8d ae 3d
       0.41225708 0.1996442 0.14567858 0.08523042
000270 78 81 fe 3c 0a 5f 47 3d 00 89 82 3d dd 08 3a bf
       0.031067595 0.04867462 0.06373787 -0.72669774
000280 b9 81 d3 be 21 23 23 bf 25 2d ee bd 56 c3 c3 3c
       -0.41309908 -0.6372548 -0.116297044 0.023896854
000290 67 94 f1 3d 99 a1 75 3d d7 2b 10 be 46 a9 99 bd
       0.117958836 0.059968565 -0.14079224 -0.075029895
0002a0 e6 30 9a 3c 3d 2b d9 bd 8d 53 35 be 74 da 19 3e
       0.018822145 -0.1060395 -0.17707653 0.1502474
0002b0 2c f4 c1 bc 37 01 ac 3d 81 7e 13 3e f2 32 e2 ba
       -0.023676 0.08398669 0.14403726 -0.0017257615
0002c0 c0 9b 30 3e d1 52 50 be 83 02 60 be 65 7a 06 be
       0.17246914 -0.20344092 -0.21875958 -0.13132627
0002d0 60 44 06 be a5 2d 43 be 13 1a e9 3d 43 63 70 be
       -0.1311202 -0.19060381 0.113819264 -0.23475365
0002e0 2a 45 81 be 73 7f 0c be 69 d2 98 be 05 43 ab be
       -0.2524808 -0.13720493 -0.2984803 -0.3344957
0002f0 e7 e3 b6 be 5d 6f c2 bd d6 a9 8c bb 59 4e 87 be
       -0.3572075 -0.09493897 -0.004292707 -0.26426962
000300 f0 47 84 3e a3 0e b7 3e dc 0f 36 3d 3e 45 60 3f
       0.25836134 0.35753354 0.04444872 0.87605655
000310 ac 7f 92 3e 13 a6 53 3d e7 5b 45 3e dd 54 1a be
       0.2861303 0.051672053 0.19273339 -0.15071435
000320 4b f8 1a bd a8 9d 3c bd c3 3f ff 3d 5b 37 8e bd
       -0.037834447 -0.04604879 0.124633335 -0.06944152
000330 b0 24 d8 bd ad b7 1a be 84 dc b1 bd 39 73 ab 3b
       -0.105538726 -0.15109129 -0.08684638 0.0052322415
000340 6c 09 f9 3d dd 40 1b be 0a 5c 50 3e 5a fb 8b bd
       0.1216 -0.15161462 0.2034761 -0.06835051
000350 bc 41 ba 3d 54 b3 f1 bc 4a 74 a1 3d cf 8e 19 3e
       0.09094569 -0.029504456 0.078835085 0.14995883
000360 65 f1 0c be 02 37 bd bd 53 cf b3 be fe 5a 37 3d
       -0.1376396 -0.092390075 -0.35119113 0.04476451
000370 fb 1f 57 be 8a 88 83 39 b5 c6 6b be ac 05 a4 bc
       -0.21008293 0.00025087997 -0.2302502 -0.020022236
000380 aa 56 68 be 75 6b 58 3e bf 1f 24 3e 26 95 fb 3e
       -0.2268931 0.21134742 0.16027735 0.4913723
000390 62 a6 3c 3e 86 db 4f 3e 53 7d ad 3e 4e 37 0e 3f
       0.18422845 0.20298585 0.33884677 0.5555314
0003a0 d8 46 e2 3d 6d f3 1a 3e 64 3c 7c be c8 38 42 3d
       0.110486686 0.15131922 -0.24632412 0.047417432
0003b0 2f 49 cf bd 2e 5f 80 bd e2 3a 36 3d c6 f7 56 be
       -0.101213805 -0.06268154 0.04448975 -0.20992956
0003c0 e9 bb e4 be 8b 0d 95 be f8 bd 05 be f9 d0 1a be
       -0.44674614 -0.29111895 -0.13060749 -0.15118779
0003d0 22 5b 54 be 63 6d dd bd 9e a9 a6 bd 88 8a 07 be
       -0.2073789 -0.108118795 -0.08137821 -0.13236439
0003e0 72 11 fa bc 0b 04 31 bd 68 9d d4 bd 31 48 00 3c
       -0.030525897 -0.043216746 -0.10381585 0.007829712
0003f0 5b ae 9c be 9a 12 3d be 3a 2b 9f be a1 d3 02 be
       -0.30601773 -0.18464127 -0.31087667 -0.12776043

conv1.bias f4 [32]
000000 d4 16 eb bc 9e 0f 16 3e b6 30 53 be c5 58 75 be
       -0.028697409 0.14654395 -0.2062405 -0.23959644
000010 de 04 2d be e1 ab 90 bd c4 3a 1e be a9 76 8d 3e
       -0.16896388 -0.07064033 -0.15452105 0.27629593
000020 6f 79 89 be 01 59 0c bd d0 ae 83 be f6 8c 4b be
       -0.2685046 -0.03426457 -0.2571931 -0.19877991
000030 26 30 2a be 43 67 3c be be e6 03 be 75 ef 3b bd
       -0.1661993 -0.18398766 -0.1288099 -0.04588266
000040 43 43 63 be 33 98 be be 52 6e 02 3e 17 01 d1 be
       -0.22193627 -0.37225494 0.12737396 -0.40821144
000050 39 89 30 bd 7a b7 b7 bc 23 1a 2e 3e 16 91 23 be
       -0.043099616 -0.022426356 0.17002158 -0.15973315
000060 87 6e 47 bd a4 05 db bd 20 36 81 be 8b e2 52 be
       -0.04868939 -0.10694435 -0.25236607 -0.20594232
000070 ac 3e 8c 3e 9a 8f 17 be d5 96 1d be 67 23 03 be
       0.27391565 -0.14800873 -0.15389569 -0.12806474

conv2.weight f4 [64, 32, 3, 3]
000000 98 ff d6 bd 15 38 8b be a6 49 0a be dd 71 11 be
       -0.104979694 -0.27191225 -0.13504657 -0.14203592
000010 85 a8 2f bd 41 b2 25 be 3b 1e 21 be ac 57 cc bd
       -0.042885322 -0.1618128 -0.15734188 -0.099776596
000020 98 03 af 3d 4a 7d 3c be 91 02 b0 bd 63 f6 92 bd
       0.08545607 -0.18407169 -0.085942395 -0.07175901
000030 b7 a2 a3 be da 6a 8e be 17 89 29 be 1b 6c 0b be
       -0.3196008 -0.27815896 -0.16556202 -0.13615458
000040 d2 ed 0f be c5 9d 29 be 44 91 4c 3e 21 2b 2d be
       -0.14055565 -0.1656409 0.1997729 -0.16910984
000050 45 8d 95 3e 19 18 18 3d 86 59 28 be 61 ee 8e bd
       0.29209343 0.037132356 -0.164404 -0.06979061
000060 a2 a5 6e 3e 50 e3 81 be 08 ee 4f be ec d6 26 3e
       0.23305371 -0.25368738 -0.20305645 0.16292924
000070 e0 e9 c2 be e3 16 b8 3d ce a1 fc 3d 18 2f a1 bd
       -0.38069057 0.0898874 0.12335549 -0.078703105
000080 d2 d0 db bd 5b bb 4b bd fe cc 0e be f1 79 d6 3c
       -0.10733189 -0.049739223 -0.13945386 0.026181193
000090 eb 61 ab 3d f8 5a 48 be 64 a6 fc ba c0 d0 27 3e
       0.08368286 -0.19565952 -0.0019275662 0.16388226
0000a0 7e 25 4f be 5c af 04 be 0b 6f 38 be f7 09 15 be
       -0.20229146 -0.1295752 -0.1801111 -0.14554583
0000b0 03 5c 8b bd 80 30 a4 3c 34 92 c5 3d 20 76 a5 3d
       -0.06804659 0.020042658 0.09647027 0.08079171
0000c0 9a cb 59 3d 44 00 43 3d 66 b3 d7 bc e6 18 95 bc
       0.053172685 0.047607675 -0.026330661 -0.018200349
0000d0 8f 6c 61 3d f6 ab 32 be e2 30 86 bd 5b ab 2c be
       0.05503517 -0.1744841 -0.065522924 -0.16862242
0000e0 80 31 2f bd 3f e3 79 bd 9f 69 a7 bc 76 98 48 be
       -0.042771816 -0.061007734 -0.020436106 -0.19589409
0000f0 ad ca 73 bd cf 81 e0 bd 0d 56 20 bd 8a 1a 44 be
       -0.05951946 -0.10962259 -0.039144564 -0.19150749
000100 31 eb f2 bd a2 8a 2a be 7e 74 01 bc 6b 6c e4 bd
       -0.118612655 -0.16654447 -0.007901309 -0.111534916
000110 4d 61 30 bd 5d 1e 87 be f4 4a 31 3d 3c 68 26 be
       -0.043061543 -0.26390353 0.04328437 -0.162507
000120 01 a3 03 3e 3f cd 7d 3e 54 51 53 be 34 9d 61 bd
       0.1285515 0.24785326 -0.20636493 -0.05508156
000130 41 65 5e be c3 99 35 be ad 09 b7 bd ee 87 80 3e
       -0.21718313 -0.17734437 -0.089373924 0.25103706
000140 4b 47 c5 3d 1e da 46 be af 51 19 3d 7a 05 0a bd
       0.09632739 -0.19419143 0.037431415 -0.03369663
000150 d8 15 da 3d 0f 12 80 be d8 ca 02 3e 18 4c 6b bd
       0.106486976 -0.25013778 0.12772691 -0.057445616
000160 df f0 13 be 62 8b f3 bc 67 d7 1e be be 9d bd bd
       -0.14447354 -0.029729549 -0.15511857 -0.092586026
000170 b3 de 46 3b 5f fd a7 bb 45 e1 90 bd fc 50 62 3e
       0.0030345141 -0.0051266397 -0.07074217 0.22101206
000180 c9 11 38 3e 88 9c 8d bc 41 d0 3e 3e f8 ed c9 3d
       0.17975534 -0.017286554 0.1863413 0.09859842
000190 c7 5f 90 3c b2 5b 13 3b 35 7d 2c be e0 dd bd 3b
       0.017623795 0.0022485075 -0.16844638 0.005794272
0001a0 6d 9c a2 bc 2d 00 28 3d 59 e0 48 bd 09 b8 2e be
       -0.01984998 0.041015793 -0.04904208 -0.17062391
0001b0 19 7b 4c 3e ac 90 16 3e fd f5 c7 3d dc 8f 02 3e
       0.19968833 0.14703625 0.097637154 0.1275019
0001c0 a3 9e 8f be 54 ad 0c be 91 9c 19 be 12 4d 0e 3f
       -0.28050718 -0.13737994 -0.15001132 0.5558635
0001d0 52 c6 98 be 45 7c 8f bd c7 85 9e 3e 8a aa bb bd
       -0.29838806 -0.070061244 0.3096144 -0.09163387
0001e0 17 24 2b be a4 fe b4 be 0d a1 3a 3e 03 37 9c be
       -0.16712986 -0.35350525 0.18225498 -0.3051072
0001f0 fd 38 0e be 60 61 a9 bd 51 6e 11 be 89 a4 58 be
       -0.13888927 -0.08270526 -0.14202239 -0.21156515
000200 d5 d3 a2 bb 5b e4 2c bd e5 c9 29 be 12 7d c6 bd
       -0.0049691 -0.042209964 -0.16580923 -0.09691824
000210 38 ad 54 be 78 85 75 3d 26 c0 81 be b2 ec 0a 3e
       -0.20769203 0.05994174 -0.2534191 0.13566855
000220 1f fd f6 bd 7d ae 63 3c 78 d9 50 bd d3 e5 b7 bd
       -0.12059998 0.013896582 -0.050988644 -0.08979382
000230 b3 58 f5 bd 93 a0 04 be cc 16 ed 3c 20 10 c0 be
       -0.11979809 -0.12951879 0.028941534 -0.37512302
000240 09 ca 55 3d c7 bf a0 3c 4c cc 94 bd e3 d6 24 3d
       0.05219463 0.019622697 -0.07265529 0.040243994
000250 ed 3e 27 3d 2f 0e ea 3c 87 6f 07 be 90 d9 9a 3d
       0.040831495 0.028571216 -0.13226138 0.07561028
000260 5d 6d ff bc f4 5a 7e bd 21 74 0e bd 34 26 b8 bd
       -0.031180078 -0.06209846 -0.034778718 -0.08991662
000270 52 36 ca 3d d2 2e 12 be 72 66 ae bd 01 f1 71 be
       0.09873642 -0.14275673 -0.08515634 -0.23627092
000280 94 0c bc bd 71 f5 b4 bd 82 26 a5 bd 16 bd 82 3d
       -0.091820866 -0.08835877 -0.080639854 0.063837215
000290 ff 58 55 be d0 4b 45 be d7 fa e8 bd 33 03 17 be
       -0.2083473 -0.19267201 -0.11375969 -0.14747314
0002a0 f6 b6 f1 bc 3f f8 9d 3b 86 a2 89 bd 6a 1d 2b 3e
       -0.029506188 0.004820853 -0.06720452 0.1671044
0002b0 9c 0f 6f bd 15 b2 f5 3d 6a e5 b7 3d 50 17 27 be
       -0.058364496 0.11996857 0.08979304 -0.16317487
0002c0 56 a0 3b bd ee 45 75 bd 7b 59 98 3e 76 ac f8 bd
       -0.045807205 -0.059881143 0.29755768 -0.12142269
0002d0 94 e8 c0 3c b1 89 99 3d fc d7 14 3d df 1c 1e 3e
       0.023548402 0.07496966 0.03633879 0.15440701
0002e0 b2 c8 cf bd 00 19 07 3e 7c a3 91 3e 98 3f 93 3e
       -0.101457015 0.1319313 0.2844504 0.28759456
0002f0 c1 bf 94 3d 4e ca 98 be 06 8d 2a be dd d5 06 3b
       0.07263137 -0.29841846 -0.16655359 0.002057425
000300 11 1c 3d be c2 1d 04 be c1 67 5f ba 25 0b c1 3c
       -0.18467738 -0.12901977 -0.00085222354 0.023564884
000310 aa b0 63 be f0 74 36 be f0 6b 7b be b2 d4 90 3e
       -0.2223536 -0.17818046 -0.24552894 0.28287274
000320 65 82 87 be c1 07 af be f4 bf b5 3d e4 31 f0 bd
       -0.2646667 -0.34185603 0.08874503 -0.11728266
000330 ef 7a 8a be 5a 5a 7d 3c 1c b5 88 be 60 ff a2 be
       -0.27046916 0.015463436 -0.26700675 -0.3183546
000340 31 aa 45 3e f9 11 9c bd e9 cf 85 3e 17 cf 84 3d
       0.19303204 -0.076206155 0.26135185 0.06484812
000350 e2 65 d0 bd 7d c1 c2 be 80 f2 6b 3e e3 a4 0f be
       -0.101756826 -0.38038245 0.23041725 -0.14027743
000360 e2 1e 49 be 40 c9 42 3d bf 62 14 bd 48 a4 31 bb
       -0.19640687 0.04755521 -0.036226984 -0.0027105976
000370 e4 fe de bc 9a 31 5d be 19 26 d4 bd dc 59 3c 3e
       -0.02722115 -0.21600953 -0.10358829 0.18393654
000380 e6 a1 d9 3c 2e d0 23 be 2b a7 6c 3e c1 e9 45 3d
       0.026566457 -0.15997383 0.23110645 0.04831863
000390 92 39 8a be a3 26 df bd 70 f6 64 bd 23 3f 4d be
       -0.26997048 -0.10896041 -0.055899084 -0.20043616
0003a0 ef f0 6c bb 9f a8 75 be 84 e2 d8 3d 81 67 89 bd
       -0.003615435 -0.23990105 0.105900794 -0.06709195
0003b0 e8 af 47 3c c8 2e 13 bd ee 3c 96 bd 93 6d 81 3e
       0.012187935 -0.035933286 -0.0733584 0.2527891
0003c0 03 df e0 3b b5 11 e3 bd 07 b3 c8 bd c2 98 c0 3d
       0.0068625226 -0.11087362 -0.09799772 0.09404136
0003d0 39 21 b6 3e 74 77 59 bd 51 3e 18 3d c3 ce 1c be
       0.35572222 -0.053092435 0.037168805 -0.15313248
0003e0 e6 cf 35 be 73 96 bf be c8 47 19 3e ca ea 39 be
       -0.17755088 -0.3741947 0.14968789 -0.18155971
0003f0 12 ae f4 bd f9 9b 71 3d 31 36 4e be 79 2a 90 bd
       -0.11947264 0.058986638 -0.2013786 -0.07039351

conv2.bias f4 [64]
000000 4a 00 3c bd 6d df 94 be 2a bc a1 bd e9 0b 9d bc
       -0.045898713 -0.2907671 -0.078972176 -0.019170718
000010 80 7d 51 be 0b 9e b9 bd 79 17 b3 be ea f4 80 3e
       -0.2045803 -0.090633474 -0.34978846 0.25186855
000020 08 d4 2f 3e b8 f7 b4 be c8 93 49 bd bb 13 01 3d
       0.17170727 -0.35345244 -0.0492132 0.031512957
000030 51 24 52 be 12 a2 cd bd 7a 25 39 be f8 bf c8 bd
       -0.20521666 -0.10040678 -0.18080702 -0.0980224
000040 1d 9d 84 bd 14 1c 91 3a 79 3f db be fa 7d 0f be
       -0.064752795 0.001107099 -0.42821863 -0.140129
000050 b4 34 98 bc 16 dd 54 be ec 90 fc bd 7b 91 89 be
       -0.018579818 -0.20787463 -0.12332329 -0.26868805
000060 43 2c 1a 3d 65 db e3 bd 5b 23 d3 bd d1 89 89 3d
       0.037639868 -0.111258306 -0.10309478 0.067157395
000070 fa 12 ba bd e5 e1 4f be 20 1c 3e be 05 da ba be
       -0.09085651 -0.20301016 -0.18565416 -0.3649446
000080 e4 b5 34 be af 9f 4b be b8 6d a3 be cc 83 0f be
       -0.17647511 -0.19885133 -0.31919646 -0.1401512
000090 22 92 54 be 1e 1f 03 bf 3f a9 3e be 98 1e d4 be
       -0.2075887 -0.51219356 -0.1861925 -0.4142959
0000a0 09 7e 82 bd 8a ab 57 3c 6e 83 a4 be 28 98 5a be
       -0.063716955 0.013163457 -0.32131523 -0.21347106
0000b0 18 7f 55 be 92 0d 46 be fa 24 d7 3c 18 3e 1e be
       -0.20849264 -0.19341114 0.026262749 -0.15453374
0000c0 30 0b 6a be 18 99 c7 ba f7 d9 84 be b4 eb 6b be
       -0.2285583 -0.0015228121 -0.25947544 -0.23039132
0000d0 0a 9f 78 be 1c 00 53 be 87 7e 6e be 91 95 b3 bd
       -0.24279419 -0.2060551 -0.23290454 -0.08768762
0000e0 81 27 85 be c7 73 15 bf dc ae be bd 82 a0 96 bd
       -0.26006702 -0.5837979 -0.093106955 -0.07354833
0000f0 1e 2c be bd f3 39 a1 bd 8b 95 54 be 2f a8 1b be
       -0.092857584 -0.07872381 -0.20760171 -0.15200876

conv3.weight f4 [128, 64, 3, 3]
000000 3f 1a 05 3e b2 90 9f bd b8 4b d6 bc e4 48 88 bc
       0.12998293 -0.0779127 -0.026159152 -0.01663632
000010 f6 ca 03 3e 69 d6 13 be 9b 3b cc bc ab 7e c2 3e
       0.12870392 -0.1443726 -0.024930766 0.37987265
000020 5c 57 bf bd 80 89 84 bd 54 38 bd bc 17 22 11 3e
       -0.09342834 -0.064715385 -0.023098148 0.1417316
000030 df 78 9e bd b8 95 12 3e e3 43 09 be 44 d5 27 3d
       -0.07737898 0.14314926 -0.13404803 0.04097487
000040 f3 ce ad bc 1c 17 03 3e c8 44 e4 3b 16 b9 67 3e
       -0.021216845 0.12801784 0.006966207 0.22629198
000050 e1 20 48 be fa d7 16 bc 05 f1 ba bd 52 36 38 3e
       -0.19543792 -0.009206766 -0.09128002 0.17989472
000060 bb 33 01 be 0c 2a 66 bd 0c 93 4d be 2c 0d 9a 3d
       -0.1261739 -0.056192443 -0.20075625 0.075220436
000070 b8 21 b7 3e 87 37 7c 3e 76 e4 eb 3d 1c 4b 82 bd
       0.35767913 0.24630557 0.11518185 -0.06361982
000080 3d dc b1 bd 50 6f b0 3d d8 0e 56 3c b3 89 1e be
       -0.08684585 0.08614981 0.013065062 -0.15482216
000090 8a c3 d6 bc f9 2c 1f be c6 34 65 be 5a b7 33 3e
       -0.026216287 -0.155445 -0.22383413 0.17550412
0000a0 c1 78 9a 3c 90 3a 5a be dd d2 83 bc a9 44 06 be
       0.018856408 -0.21311402 -0.016091758 -0.1311213
0000b0 d7 b7 0b be 69 85 07 3e 8d 87 ca 3d 96 2f 64 be
       -0.13644348 0.13234486 0.098891355 -0.22283778
0000c0 70 c7 22 bd 65 f9 d7 3d 37 aa 8c bd 60 92 6d bc
       -0.03974098 0.10545615 -0.068684034 -0.014500231
0000d0 de 24 b1 3e b2 93 4c 3e db 72 3a be 50 47 30 3d
       0.3459844 0.19978216 -0.18207876 0.04303676
0000e0 36 f2 00 bd ff a8 eb bd 7c 8d 5d be cb 9b af 3e
       -0.03148099 -0.11506843 -0.21636003 0.34298548
0000f0 89 55 76 bc e2 9b 01 3e 2a b9 ab be 36 d1 87 be
       -0.015035042 0.12657121 -0.33539706 -0.26526803
000100 02 f7 07 3e 58 ed 8a bc 85 fc 95 bd 9e 3e 34 be
       0.1327782 -0.016958877 -0.07323555 -0.17602012
000110 24 fd cf 3d a2 1e 26 be f4 c9 a5 3d d7 d4 8c bd
       0.101557046 -0.16222623 0.0809516 -0.068765335
000120 b9 83 21 3e 78 bf 4d be 27 33 81 3d 0d 89 0c 3e
       0.15772904 -0.20092571 0.06308585 0.13724156
000130 5d e3 03 be 2a dd be bd 2b 87 b0 3c d1 54 ae be
       -0.12879701 -0.093195274 0.021548828 -0.34049085
000140 6d ed 79 be 03 4a 8f bd 89 1f 00 be 5b 79 f1 3d
       -0.24406977 -0.069965385 -0.1251203 0.11790725
000150 fc 8f 3f bd ea 8c d6 3d 14 36 25 be ce 39 11 be
       -0.046768174 0.10476096 -0.1613391 -0.14182207
000160 80 87 b0 3e 3e 00 a6 3e 17 75 ea 3d 80 9c c8 bc
       0.34478378 0.3242206 0.11448114 -0.024488688
000170 9b 96 dc 3e be f0 6e be 4f 06 23 be 38 49 4d 3d
       0.43083653 -0.23334023 -0.15920375 0.050118655
000180 31 ca 36 bc cf c6 39 be 9c 8f 0c 3e 08 ae 28 3e
       -0.011156605 -0.18142246 0.13726658 0.16472638
000190 94 cb 96 bd 5b f3 2a 3e 5f 4c 93 3d cd a7 10 be
       -0.07363048 0.16694395 0.07192301 -0.14126511
0001a0 ac b2 5b bd 7f 9a 0c bd cb d6 82 bd bf 57 fd bd
       -0.05363719 -0.034327026 -0.06388625 -0.12370252
0001b0 2a 1c 18 be d5 dd c9 bd a0 fe e2 3c e1 d3 8f bd
       -0.14854494 -0.09856764 0.027709305 -0.070228346
0001c0 16 ca cb bc 60 dc 3d bd ed af 80 bd 58 e1 d0 3c
       -0.024876636 -0.046352744 -0.06283555 0.025498077
0001d0 a5 61 8a bb 4a c0 01 3d cd 02 b0 bd 68 3f 73 bb
       -0.004223066 0.03167752 -0.08594284 -0.003711665
0001e0 64 30 ef bd 34 c0 e5 bd 1d 0f 82 3b de 2f e0 3d
       -0.11679152 -0.112183005 0.003969087 0.1094663
0001f0 bb cf a0 3e 3a 75 f4 bd 46 7d 34 be 64 22 a3 bd
       0.31408486 -0.11936422 -0.17625913 -0.07965544
000200 29 05 96 be d6 bc 3f be 2e cd d2 bd c9 3d 75 be
       -0.29300812 -0.18724379 -0.10293041 -0.2394935
000210 f5 72 04 3e e9 1e 90 3d 26 61 85 bd 3b f1 dc bd
       0.12934478 0.07037146 -0.0651267 -0.107881986
000220 23 70 2e be e0 f7 d7 3c bf b8 4b 3e 24 cb ba bd
       -0.17034964 0.026363313 0.19894694 -0.09120777
000230 71 d2 71 3d 75 e7 48 bd 75 7a 2b be 59 e6 32 3e
       0.059038583 -0.04904886 -0.16745932 0.17470683
000240 d7 a9 f5 3d 8e 81 93 bd 70 03 91 3d 5f 1e f5 bc
       0.11995285 -0.07202445 0.07080734 -0.029921709
000250 b0 08 5e bd bb e8 07 3d 67 92 dd bd fb 1a 44 3e
       -0.054207504 0.033180933 -0.1081894 0.19150917
000260 43 7a f1 bd b8 3f 91 bd 74 76 61 bd 24 65 a1 3d
       -0.11790898 -0.070922315 -0.055044606 0.07880619
000270 a6 4b 59 3e fe ab 18 3e 9c 21 49 3d 72 be a9 3e
       0.21220264 0.1490936 0.049104318 0.3315311
000280 0e 29 ad bc 98 c2 27 3d 26 60 c3 bc 94 80 9c 3d
       -0.02113774 0.040957063 -0.023849558 0.07641712
000290 4d 55 76 bd b4 5c d3 3d 32 cc 76 3d a4 41 1d 3e
       -0.060139943 0.10320416 0.06025333 0.15357071
0002a0 62 60 2d 3e cc c8 6e bb 65 0d 19 bc 6a 20 29 be
       0.16931298 -0.0036435602 -0.009341572 -0.16516271
0002b0 1e ab d3 3d b4 1a 41 3e b0 8e 4a be 03 75 ba bb
       0.103353724 0.18857843 -0.19780993 -0.0056902184
0002c0 ab ca e8 3d cf 04 ab 3c c3 2b 5a 3e 78 0e 1d be
       0.11366781 0.020876316 0.21305756 -0.1533755
0002d0 4c ed 2d be f7 90 00 be 25 8b db 3d 5b 25 e9 bd
       -0.16985053 -0.125553 0.10719899 -0.11384078
0002e0 fc e6 48 bb 81 c9 18 3b 78 03 5b bc 41 d4 8c bd
       -0.0030655256 0.0023313465 -0.013367526 -0.06876422
0002f0 67 04 b5 bc 7a 47 67 be aa 04 25 3e b1 5d 81 bd
       -0.022096826 -0.2258586 0.1611506 -0.06316698
000300 c6 13 6f bd d4 05 8e be d1 a5 a2 bd 6a 99 ac bd
       -0.058368467 -0.27738822 -0.07941783 -0.08427699
000310 aa f6 04 3e 3e 53 35 3e 27 0d 9c 3d 2d df ad 3e
       0.1298472 0.17707536 0.07619696 0.33959332
000320 a0 7d 03 3e 05 00 f5 bd a9 ac 18 3e bb 81 f4 bd
       0.12840891 -0.11962894 0.14909615 -0.119388066
000330 b2 1c 10 3e 84 d6 a3 bc 91 c6 ce bd 68 82 92 be
       0.14073446 -0.01999975 -0.10096467 -0.28615117
000340 0c 22 0a 3d 03 5b 60 3e 1b 94 79 bc 9f 89 95 bc
       0.033723876 0.21909718 -0.015233065 -0.0182541
000350 61 61 81 be 47 e0 1a bc 41 df 0a 3e 8e 9e 7c bd
       -0.25269607 -0.009452886 0.13561727 -0.061674647
000360 b5 23 5c bc 68 e1 4c bd 66 c2 01 bd 0c 8c 7c bd
       -0.013436248 -0.05001965 -0.031679533 -0.061656997
000370 a8 ce 36 bd ba d8 f9 3b ad fb ab 3d 11 d7 17 be
       -0.044630677 0.007624713 0.08397613 -0.14828135
000380 51 53 5e be c2 92 fb 3d f0 bc 2a bb fa 61 2c be
       -0.2171147 0.12283851 -0.0026052557 -0.1683425
000390 a3 7b 88 be 87 eb 61 bc 84 a5 4e be 68 f8 57 3b
       -0.26656827 -0.013789064 -0.20180327 0.0032954458
0003a0 f9 dd 18 bc 88 7a 03 be 40 42 95 ba 59 6b eb 3c
       -0.009330266 -0.1283971 -0.0011387542 0.02873771
0003b0 3c 2a 96 bd 7a 1a da 3d 12 15 32 bd 88 2c 54 be
       -0.07332274 0.10649581 -0.043477125 -0.20720112
0003c0 b3 6d de bb 6a a1 29 bd da 8b 37 bd 02 0d 1c be
       -0.0067879795 -0.041413702 -0.044811107 -0.15239337
0003d0 25 27 20 3e 08 d5 6f 3e 91 d6 00 bd 70 6b 70 bd
       0.15639932 0.23421109 -0.031454626 -0.05869621
0003e0 ed 81 4a bd 0e 5a b1 3d bb d1 8e 3e 89 6d a1 3d
       -0.049440313 0.08659755 0.27894387 0.0788222
0003f0 6f 53 88 3e 36 10 90 3c f0 7f 92 3e c6 1d ab be
       0.26626155 0.017585855 0.28613234 -0.33421153

conv3.bias f4 [128]
000000 53 61 a4 be d9 c6 ab bd 19 2e 88 bd af 8b be bd
       -0.32105502 -0.083875366 -0.066494174 -0.09303986
000010 39 64 08 be 5e 5b 99 be 93 93 24 be bc 80 dd be
       -0.13319482 -0.2995252 -0.1607192 -0.4326228
000020 5f 2e 8e 3e df 63 63 be 92 00 7b be 96 8a 47 be
       0.27769753 -0.22206067 -0.24511936 -0.1948646
000030 bf d9 b0 3d 91 40 9a 3d 8b b3 81 be c5 94 88 be
       0.08635282 0.07531846 -0.25332293 -0.26676002
000040 97 d7 17 be b3 9c 9b be 0b bf db be 8f 62 20 3d
       -0.14828335 -0.3039299 -0.42919192 0.039156493
000050 fa 44 c5 bd 96 2e 46 be 3d 97 20 be 4f 52 a1 bc
       -0.09632297 -0.19353709 -0.15682693 -0.019692568
000060 29 ad 7b be 12 25 a1 be f9 00 68 be 37 9c 80 be
       -0.24577774 -0.31473595 -0.22656621 -0.25119182
000070 d4 ac 29 be cb f1 ff bd 01 bb 7f be c4 86 5f be
       -0.16569835 -0.1249729 -0.2497368 -0.21828753
000080 70 7e 92 bb d2 1b 7a be b1 26 71 be e4 97 b5 be
       -0.004470639 -0.24424675 -0.23549916 -0.35467446
000090 76 29 e4 bd 3e 98 e9 bd 80 4c 61 be 7e 52 89 be
       -0.111407205 -0.11405991 -0.22001839 -0.2682075
0000a0 6e 53 3b be 97 45 53 be e1 28 0e be d9 ed 76 be
       -0.18293545 -0.20632015 -0.13882782 -0.24114169
0000b0 c2 db 41 be 24 ea 80 bd 9d 5b 89 be 84 01 af be
       -0.18931487 -0.06294659 -0.26827708 -0.34180844
0000c0 d1 f0 06 3d 80 69 c9 be a2 51 87 be 2d f4 35 be
       0.032944504 -0.39338303 -0.26429468 -0.17768927
0000d0 db 17 38 be 81 9c c5 3b 87 97 8c be 87 d7 ab be
       -0.1797785 0.0060306196 -0.27459356 -0.33562872
0000e0 52 94 00 be fc 4c 0c be 2a a2 ac bd 17 a1 98 be
       -0.1255658 -0.13701242 -0.08429368 -0.29810402
0000f0 d2 2c 85 be ed 94 51 3d fe a3 a0 be d9 57 3f be
       -0.26010758 0.051167417 -0.31375116 -0.18685855
000100 86 61 3c be 6c 2e b3 bd 32 c6 3b be c0 63 46 be
       -0.18396577 -0.08749089 -0.18337324 -0.19373989
000110 31 1c ab bd dd 48 83 be f6 2d 16 bd 00 54 67 be
       -0.083549865 -0.25641528 -0.036664926 -0.22590637
000120 da d6 52 be ae 66 6b bd b3 03 7a be 9d ca e9 bd
       -0.20589772 -0.05747097 -0.24415474 -0.114155985
000130 d6 1e 76 be b4 1c 87 be eb 0b 7d bc 4f 67 3c bd
       -0.240352 -0.26389086 -0.015444736 -0.04599696
000140 f9 86 cf bc ce af 4f bd b8 31 12 be 18 17 3a be
       -0.025332915 -0.05070477 -0.14276779 -0.18172872
000150 19 e1 8f bd 94 fe e0 bd 70 ff c9 bd 3c 0c cf 3c
       -0.07025356 -0.10986057 -0.09863174 0.025274388
000160 00 33 1a be 79 eb 13 be 41 cb a8 be 9e 18 07 be
       -0.15058517 -0.14445294 -0.3296757 -0.13192984
000170 c1 04 f7 bd da d1 e4 be b7 e7 4e 3d 0a b1 98 be
       -0.120614536 -0.44691354 0.05051395 -0.2982257
000180 1d 6b ac bd 93 b7 fd bd 8e 7c 32 be d7 5d b1 be
       -0.08418868 -0.1238853 -0.17430326 -0.34641907
000190 1f ff b4 be 7f 2f 2d be cd 44 8b be c9 75 34 bd
       -0.35350892 -0.1691265 -0.27200928 -0.04405764
0001a0 15 bb ec be fc 7e 95 be 41 19 9a be c6 f3 19 be
       -0.46236482 -0.29198444 -0.30097392 -0.15034398
0001b0 f1 6f 4f be a8 07 bd be 8c 49 8b be e1 e9 14 bc
       -0.20257546 -0.36919904 -0.2720455 -0.009088964
0001c0 db 7e c1 be 39 91 53 be 6e bb 50 be 4e b1 b2 be
       -0.37792096 -0.20660867 -0.20383999 -0.34900898
0001d0 a1 e6 c0 be 62 c6 43 be 39 a0 62 be 7d 73 03 be
       -0.37675956 -0.19118646 -0.22131433 -0.12837024
0001e0 cb 4f d8 bd 53 9b cd be bb 75 a8 3d 86 79 87 bd
       -0.10562094 -0.40157565 0.0822558 -0.06614976
0001f0 ff ea 90 bd 6e 80 7d be 3a 1c 85 be 1f 63 10 be
       -0.07076072 -0.24756023 -0.25998098 -0.14100312

p_conv1.weight f4 [4, 128, 1, 1]
000000 54 ec 9f bc 52 f4 91 bd 61 3f 47 bd 04 19 67 3d
       -0.01952187 -0.071266785 -0.048644427 0.05642034
000010 76 2e 9e bc 35 24 5c bb ab d4 eb bc 45 cc 94 be
       -0.019309264 -0.0033590917 -0.028787931 -0.29062095
000020 b9 b1 01 be 60 3f f1 3e f5 77 38 3c d9 81 92 bc
       -0.12665452 0.47118664 0.011259069 -0.017884182
000030 c8 3f 19 be 34 24 17 3d 0e be 13 3d b7 67 ab bc
       -0.14965737 0.03689976 0.036069922 -0.020923479
000040 43 4e cb 3c f5 5d dd 3d d1 37 3c 3d a4 5a 04 3b
       0.024817592 0.108089365 0.04595167 0.0020195628
000050 c1 50 19 bd 22 95 fd bc ca cb be 3c 51 f4 d1 3d
       -0.03743053 -0.030954901 0.023290534 0.10251678
000060 03 12 0c 3c 6e 02 0d bd ab 67 bf 3d ee 5c 62 bd
       0.008549216 -0.034426145 0.09345945 -0.055264406
000070 8e 10 22 bc 8d 2d 55 bd 81 ed 2f 3d 7a a4 b0 3d
       -0.009891642 -0.052045394 0.04295111 0.086251214
000080 1b 07 df 3d 70 c6 7a bd a6 a4 42 3c ba e8 a6 bd
       0.10890027 -0.0612244 0.011880076 -0.08149858
000090 6a 05 3f bc 18 94 28 3d 54 f7 2a bc 2c 87 2c bc
       -0.011659006 0.04115686 -0.010434944 -0.010530274
0000a0 6d 1d 0c 3d 15 09 3c bc 02 e6 1a bc a2 1e 00 3d
       0.03420775 -0.011476775 -0.009454252 0.031279214
0000b0 af b3 86 3d e3 56 16 bd fb 4a 99 3d 49 59 30 bc
       0.06577241 -0.036703955 0.074850045 -0.010763475
0000c0 d5 45 26 bd 16 99 d4 bd ee 8b 67 3c 83 3b 99 3b
       -0.04059394 -0.10380761 0.014132483 0.004676284
0000d0 f5 0a 04 bd 1d 56 e0 bc 3c 8e f0 3b 94 a7 3e bc
       -0.032237012 -0.027384812 0.0073411744 -0.011636633
0000e0 7a e6 17 bd 6e e2 1e 3b ae 36 cd bc cf fa 90 bc
       -0.037085034 0.002424385 -0.025050487 -0.01769772
0000f0 d9 49 06 bd 42 54 02 be c4 4a 5f 3d 79 15 aa 3c
       -0.03278527 -0.12727454 0.05451466 0.020762192
000100 bf b5 d4 3a d0 50 c0 3c e4 aa 3a bc cb cf 39 3d
       0.0016228481 0.023476034 -0.011393283 0.045364182
000110 e9 a4 8f 3e a6 0c b3 3e 02 d4 a9 3c a5 e5 2a bd
       0.28055504 0.34970587 0.020730976 -0.041722912
000120 51 b5 58 bd fd 37 ca bd 29 2b d5 3e 72 77 19 bc
       -0.05290729 -0.0987396 0.4163449 -0.009366857
000130 04 53 eb bb 20 b0 a1 bc 9d c6 5d 3d b0 32 3e bd
       -0.007181527 -0.019737303 0.05414449 -0.046435058
000140 2d 7b 8d bd 2c 6e 7f bc d8 63 41 3c 56 16 83 3c
       -0.069082595 -0.015590232 0.01180359 0.016001862
000150 19 f5 cf bc d2 8a cf bc f3 f6 ed 3c 03 2a c8 3e
       -0.025385426 -0.02533475 0.029048419 0.39094552
000160 28 de 77 3c 83 5b 2c 3d da 2a c5 3c 98 58 ab bb
       0.01512865 0.04207946 0.024068285 -0.005229067
000170 f8 d3 fd bc 34 93 fb 3b 5e 9f 81 3d 1f 30 a5 3d
       -0.030984864 0.00767746 0.06329225 0.08065819
000180 40 1a e7 bd e8 77 fe 3d b2 e1 e8 bb a2 c6 0f bd
       -0.11284304 0.12425214 -0.007106983 -0.03510154
000190 48 41 24 3d 78 10 cd bb ea c8 ce bc e9 dd 68 3c
       0.04010132 -0.0062580667 -0.025242288 0.014213064
0001a0 9c 9d 57 bd af 3b f8 3c 55 4c 4f 3c 68 3a a9 bd
       -0.052640542 0.030301897 0.012652476 -0.08263093
0001b0 0b a9 e1 3d a2 1d 06 3d b0 a0 5b 3d 2a 0b d3 bc
       0.110185705 0.032743104 0.05362004 -0.02576216
0001c0 20 77 cd 3e 59 85 4c 3e 11 c9 d4 3c ca 5b 85 bb
       0.40129948 0.19972743 0.025974782 -0.00406978
0001d0 c1 6a 26 3d 29 40 8d 3c 20 ca a8 3d db 61 81 bc
       0.040629152 0.017242508 0.08241677 -0.015793731
0001e0 31 dd d7 3c 2f cc 56 bb 0c 32 81 3d d5 1d fa 3c
       0.02635059 -0.0032775511 0.06308374 0.030531803
0001f0 a7 47 15 3d a8 b4 f3 3c 92 7f d3 3b 3f 6b 3b bd
       0.036445286 0.02974923 0.0064544166 -0.045756575
000200 5a 0a 14 39 e5 32 66 3d d9 cc f5 3c 4a 29 90 bc
       0.00014118236 0.05620088 0.030004906 -0.017597813
000210 24 98 84 3d 98 14 04 3c d8 2e 80 3c a0 5e 77 3e
       0.06474331 0.008061551 0.015647337 0.2415719
000220 2d 37 bb bc f6 12 c8 bd e0 25 bb bc c7 49 9f bb
       -0.022853458 -0.097692415 -0.022845209 -0.00486109
000230 fe e7 76 3c a8 5b a9 3e 69 01 f7 bb 43 05 08 3e
       0.01506996 0.3307774 -0.00753801 0.13283257
000240 e6 87 17 3d 1a 01 5a 3c 0e 22 09 bd a8 7c 8f bc
       0.036994837 0.013305927 -0.033479743 -0.017515495
000250 4b f3 8f ba 05 b2 0c bd c9 2d 8f bc 51 64 29 3d
       -0.0010982541 -0.03434946 -0.017477887 0.041355435
000260 15 44 b1 bc 6a f1 0a bd 52 a6 92 3c 6d d7 5b b9
       -0.02163891 -0.033921637 0.017901573 -0.0002096572
000270 05 58 15 bd ec 0d dd 3c 86 04 8a 3d 36 2b 9f 3c
       -0.036460895 0.026984178 0.06739144 0.019429784
000280 cd 58 b1 bc a8 55 3a be 72 84 00 bc 9d 4f 89 3d
       -0.021648789 -0.18196738 -0.007844077 0.06704638
000290 6f 83 79 bd 72 3a 43 3c b7 8f 44 bd 40 6f 85 3c
       -0.06091636 0.01191579 -0.04798862 0.0162884
0002a0 fc 83 1a bb 82 88 ab bb bc 80 24 bd 40 14 c7 bb
       -0.0023577204 -0.005234779 -0.040161833 -0.006075412
0002b0 b6 ce 24 bd 71 10 70 3c f5 01 84 bd 0e 45 1e bd
       -0.040236197 0.014652357 -0.06445686 -0.038640074
0002c0 60 83 86 bd 0f 54 d9 bc 4b 63 b1 3c fb c5 6a 3d
       -0.065680265 -0.02652934 0.021653792 0.057317715
0002d0 d3 63 21 bd 4a 87 54 bd d5 c6 cb 3c ed 35 c5 bc
       -0.03940184 -0.051886834 0.024875084 -0.024073565
0002e0 5b 70 ba bc d0 25 09 bb 5c 34 1a 3d f2 dc 84 bd
       -0.022758653 -0.002092708 0.03764759 -0.064874545
0002f0 62 a9 45 bc 1b 4a 25 3d 0f 5e bf 3c 01 62 fd 3b
       -0.01206431 0.040353876 0.02336028 0.0077326302
000300 c3 dd 81 bd c6 bd 1a bd 4a 68 f6 3c 87 a1 91 bc
       -0.06341126 -0.03777864 0.030079026 -0.017777218
000310 ea 2c 0d bc 60 89 9a 3d ac 28 31 3c dd 70 53 bd
       -0.008616665 0.075457335 0.01081292 -0.051621307
000320 08 71 1c bc 46 b5 44 bd d9 97 5a bd 91 0a 01 bc
       -0.009548433 -0.04802444 -0.05336747 -0.007876054
000330 8d 5c b9 bb 56 c5 17 bd 6d 05 1f 3c 6f 5d 96 bd
       -0.005656785 -0.03705343 0.009705883 -0.0734204
000340 87 d8 3d 3d 23 b8 4c bd c6 49 95 bd 63 4a 24 3d
       0.046349075 -0.049980294 -0.07289462 0.040110003
000350 0e 83 ed 3c fc 4c 26 3c e9 26 33 bd 84 9c 54 3f
       0.028993156 0.01015019 -0.04373828 0.83051324
000360 83 1c 2e bd 5e 50 82 3c 03 77 97 bc 45 e8 b2 bc
       -0.04250766 0.015907463 -0.018489366 -0.02183927
000370 d8 de 4e 3c 8d f5 a7 bd 53 4a 62 bd 2f 89 0d bd
       0.012626372 -0.08201132 -0.055246662 -0.034554657
000380 54 30 97 3c 49 81 8a bd 7b 45 0c 3d 73 51 64 bb
       0.018455662 -0.067629404 0.03424595 -0.0034838587
000390 7e 9b 1e bd 5b 21 15 bc 58 fd 03 3d 43 1b 76 bc
       -0.038722508 -0.009102191 0.03222403 -0.015021148
0003a0 3e 3f 60 3d 8e 7b 8f 3c 39 93 60 3c 8f 54 85 bd
       0.054747812 0.01751497 0.013706976 -0.06510269
0003b0 7c db 29 3d 33 f1 34 bd 27 b4 ad 39 49 25 e6 bc
       0.041469082 -0.044175338 0.00033131355 -0.02809395
0003c0 7a cc 2d 3d 11 ff 6e 3f 98 37 cf 3b 25 26 05 3d
       0.042431332 0.9335795 0.006323766 0.03250708
0003d0 48 52 f0 3d ce 39 11 3d 91 4c 53 bd f5 20 26 3c
       0.11734444 0.035455517 -0.05158669 0.0101396935
0003e0 ff e0 02 bd a2 fe a3 3b 9d 6d 25 bc 88 a3 10 3c
       -0.031952854 0.00500472 -0.010096935 0.008828051
0003f0 e8 02 f5 ba 7c 68 86 bd 48 ba fa bc 07 27 06 3d
       -0.0018692883 -0.065628976 -0.030606404 0.032752063

p_conv1.bias f4 [4]
000000 d7 b7 69 be 87 27 76 3e a4 ea b4 bd 45 2e 9e bd
       -0.22824036 0.24038516 -0.08833817 -0.07723669

p_fc1.weight f4 [81, 324]
000000 27 07 17 bd ad 62 7a 3c a1 c4 27 3d b4 d2 a6 bc
       -0.036872055 0.015282315 0.040959004 -0.020364143
000010 81 2e 77 3c a0 4b f7 3c 85 19 43 3d 58 ad 09 bc
       0.015086771 0.030187428 0.04763176 -0.008403145
000020 5b 08 0c 3d 6a fe 5c 3c cd 0f 4a bc 76 4b 2c 3d
       0.034187656 0.013488391 -0.012332869 0.042064153
000030 5d d8 81 3d 3c 72 14 3c 10 11 40 3d 47 81 16 bd
       0.06340096 0.009060439 0.046891272 -0.036744382
000040 07 87 a2 3b ad e8 00 bc c8 b2 f4 3c b1 8d 46 3c
       0.004959944 -0.007867974 0.029870406 0.012118743
000050 c1 63 1a 3d 35 4f 5b 3d 98 37 9f 3d e7 1f 9d 3d
       0.03769279 0.053542335 0.077742755 0.076721005
000060 95 f8 79 3d 0d 2f 34 3c 1b 27 3d 3d 93 20 68 3d
       0.061028082 0.010997546 0.046179872 0.05667169
000070 f5 95 d8 3c e2 00 1a 3d f5 6f a5 3d 75 5e ab 3d
       0.026438693 0.0375985 0.08077995 0.083676256
000080 91 ce 5b 3d 4e 6c 6a 3c 58 29 06 3d b2 d3 34 3c
       0.053663794 0.014308048 0.032754272 0.0110368
000090 3f 17 f5 3b a8 79 1b 3d 7d c4 c5 3c c0 48 bc 3d
       0.007479578 0.037957817 0.024141544 0.091935635
0000a0 f4 fe 99 3d 8d 5e c3 3c 35 05 dc 3d 78 c7 02 3d
       0.075193316 0.023848796 0.10743181 0.03192851
0000b0 56 b2 8e 3d bd 49 d0 3c ae 0c 2c 3d 6f 78 7b bc
       0.06967609 0.025425786 0.04200428 -0.015348538
0000c0 0e fe 87 3d ea d2 1e bd 56 a9 a5 3d 2c 09 5d 3d
       0.06640254 -0.038775362 0.08088939 0.053963825
0000d0 16 61 ca 3d 71 9f 67 3c 86 38 5f bc fb 76 3f bd
       0.09881799 0.014137135 -0.013624316 -0.046744328
0000e0 72 55 c2 3d 15 a3 51 3e 77 c8 47 3d e7 07 a8 3d
       0.09488954 0.20472367 0.048775163 0.08204632
0000f0 bc b5 ed 3b 14 10 f3 3c 42 c8 9b bc 39 84 12 bd
       0.0072543304 0.029670753 -0.019016389 -0.03577063
000100 51 ff 11 3e b4 b6 a5 3e d8 a8 13 bd 56 d0 bc 3d
       0.14257552 0.32365954 -0.036049694 0.092194244
000110 84 de 83 3d 92 2a c4 3c 15 2c e1 bb b8 af 08 bb
       0.06438926 0.02394608 -0.00687171 -0.002085669
000120 a6 d2 3f 3e c6 50 48 3e b3 46 63 3c 34 11 ee 3c
       0.187327 0.19562063 0.0138718365 0.029060937
000130 e5 ad 8c 3d ec eb 5d 3d 49 04 84 3c 87 93 84 3d
       0.06869105 0.05418007 0.016115325 0.06473451
000140 87 1c f1 3c cf 71 16 bd 99 be f5 bc c6 bb ad 3a
       0.029432548 -0.03672963 -0.02999811 0.0013254813
000150 f2 8d 90 bd 85 cf 5c bc d5 24 86 bd 0e b1 a5 bc
       -0.07058324 -0.013477211 -0.06549994 -0.020226028
000160 e7 af 3c 3c 9e 69 29 3d 20 fb 4d bd 43 e8 4e bd
       0.011516548 0.04136049 -0.05028832 -0.05051447
000170 37 44 5d bd e7 1a a0 bd 0d 3e 7a bd 52 22 72 bd
       -0.054020133 -0.07817631 -0.061094332 -0.05911476
000180 41 3d e3 bd a8 f4 ca bc f5 34 8b bd 9c a9 41 bd
       -0.11095668 -0.024774864 -0.0679721 -0.047280893
000190 79 4a 70 bd 7f 2b 41 bd 36 bb ba bd e1 aa f2 bd
       -0.058664773 -0.04716062 -0.09117739 -0.11848999
0001a0 76 9c f3 bc 01 8c 17 bd 83 b6 97 bd 1f e3 bb bb
       -0.029737692 -0.036998753 -0.07407858 -0.005733862
0001b0 dd 65 33 bc bd 3e 27 bd ca bb bb bd 10 2a a1 bd
       -0.010949579 -0.040831316 -0.09166677 -0.07869351
0001c0 ca cc eb bd 26 d2 82 bd 3c c3 5b bd c4 7d 9f bc
       -0.1151367 -0.06387739 -0.053652987 -0.01946915
0001d0 44 59 d1 bc 38 0d c8 bc 4b c4 6b bd 79 bd cf bd
       -0.02555526 -0.024420366 -0.057560246 -0.10143561
0001e0 35 8c da bd c8 db 85 bd d1 ec d5 bd 59 ae 3d bd
       -0.106712736 -0.065360606 -0.1044556 -0.04630885
0001f0 11 9e a9 bd 00 76 c3 bc b6 94 11 3d 06 b7 8f bd
       -0.08282102 -0.023859978 0.035542212 -0.07017331
000200 eb 13 e4 3c f9 41 e7 bd c2 f7 94 bd 86 ef a1 bd
       0.027841529 -0.1129188 -0.072738186 -0.079070136
000210 38 76 b0 bd 90 a3 44 bd 51 f1 fc bc aa 41 e9 bc
       -0.086162984 -0.048007548 -0.030876787 -0.028473694
000220 a7 fa f1 3d 8b ff b5 bd 57 0f 9d bd 79 70 3a bd
       0.11815386 -0.088866316 -0.076689415 -0.04551742
000230 26 ae 8f bd 7e 34 ad bd ff d4 1f bd b8 28 e8 3c
       -0.07015638 -0.08457278 -0.03902149 0.028339729
000240 ca 54 f2 be e6 7a b3 bd e3 7b 04 bd 25 3c 78 bd
       -0.47330314 -0.087636754 -0.03234471 -0.060604233
000250 68 20 78 3b fb 48 75 bd 13 e0 21 bd 48 e0 02 bd
       0.0037861113 -0.059884053 -0.039520334 -0.031952173
000260 8f aa 04 bd 94 70 0f 3d ed cb 22 3c d6 6d b1 3c
       -0.03238922 0.035019472 0.009936315 0.02165882
000270 84 54 6a bd ac 83 0e bd f0 17 01 bd 69 4f bc bc
       -0.057209507 -0.03479354 -0.03151697 -0.022987084
000280 92 86 de bc ad eb 7b bd 89 02 f5 3c c3 68 3a bd
       -0.027163778 -0.061504055 0.029908435 -0.045510065
000290 25 d8 8d bd ba da 8e bc 8f 94 7e bd 8d 46 b7 3c
       -0.06925992 -0.017438281 -0.062153395 0.022372508
0002a0 23 cc 15 3d 5e 9d e3 bc cd 12 5b 3c d7 91 c1 3b
       0.036571633 -0.027785 0.013371182 0.005907278
0002b0 82 34 49 3d 24 61 a4 bc d7 3c 36 3c a1 34 16 3b
       0.04912234 -0.020065852 0.011122904 0.0022919553
0002c0 5d 09 c3 bc 0c 2b 97 3d 7c 9d 8a ba 66 dd 50 bd
       -0.023808176 0.073812574 -0.0010575498 -0.050992392
0002d0 24 b2 f9 bc 7f c6 3e bd e1 2a 9a 3d fd 4f 09 3c
       -0.030480452 -0.04657602 0.0752771 0.008380887
0002e0 8d 5a ef 3c 3e 3f 28 bd d3 53 36 3c 3d 38 33 bd
       0.029217983 -0.041075937 0.011128384 -0.043754805
0002f0 c6 5b 55 bd a7 27 1c bd 3b c6 59 bd 60 c1 9b 3d
       -0.052089475 -0.038123753 -0.053167563 0.07605243
000300 62 9f 5d 3d 46 fc 1a b8 eb 93 0f bd c9 64 32 bc
       0.054107077 -3.695141e-05 -0.035053175 -0.010888287
000310 16 45 a5 bc 0e f1 0c bd ab 54 17 bd 9e d5 62 bd
       -0.020174544 -0.034409575 -0.03694598 -0.055379502
000320 41 7b 38 3d 5d ae 20 bd b2 a4 6c 3c a1 7d 12 3d
       0.04503942 -0.039228786 0.014443563 0.03576434
000330 a7 42 37 bd 17 f5 15 bd 15 d3 0c bd 71 0e 46 bd
       -0.0447413 -0.03661069 -0.03438099 -0.048353616
000340 44 09 46 bd 35 94 5d 3e 75 ce ef 3c 5c 3e 27 3d
       -0.04834868 0.21638568 0.029273251 0.040830955
000350 d8 40 8f bc 10 1b e6 bb 8b 93 0b bd 28 80 a2 3c
       -0.017486975 -0.007022269 -0.034076255 0.0198365
000360 1c 43 f4 bd e5 2a bd 3e 05 a2 9f bc 97 fe 60 bd
       -0.119268626 0.36946788 -0.019486437 -0.054930296
000370 19 92 b8 bd 37 8b 08 bd 4d 3d 1c 3d eb e2 fc bc
       -0.09012241 -0.03333589 0.0381444 -0.030869922
000380 36 fb bd 3b 17 81 da bd 1c 1a 64 bd 9e 36 34 bd
       0.005797769 -0.10669153 -0.055688962 -0.0439974
000390 aa a6 c7 bd 69 ac 38 bd f1 7a e7 bd 3e c6 bd 3c
       -0.097485855 -0.0450863 -0.11302746 0.023165818
0003a0 a8 3e a2 3b c9 3e 3c bd 0d ef 10 3d 39 56 a1 bd
       0.004951317 -0.045958314 0.035384227 -0.07877774
0003b0 11 7b 30 bd 40 50 1f bd 5c 94 9c bb 2f 69 c1 bb
       -0.043086115 -0.03889489 -0.004778428 -0.0059024314
0003c0 7f bc 53 bd 61 14 3c 3b ec f6 43 3d e1 3a 35 3d
       -0.051693436 0.002869867 0.047842905 0.044245604
0003d0 74 df 4a bc d2 b4 0d bd c3 42 11 bc e9 90 d4 ba
       -0.012382377 -0.03459627 -0.008866015 -0.0016217503
0003e0 9e b5 38 3d fe b4 87 bd 7a 6b 8b bc e1 f4 42 3d
       0.04509508 -0.066263184 -0.017019022 0.047596816
0003f0 9f 13 81 ba 9b ad f3 3b 34 60 7d bd b8 3e 1b bd
       -0.0009847766 0.007436467 -0.061859325 -0.03790161

p_fc1.bias f4 [81]
000000 d0 a4 ee bd 4f c7 25 3d 14 d9 b1 bd 08 fd b8 bd
       -0.11652529 0.04047328 -0.086839825 -0.09032637
000010 aa c6 48 be ec c2 ae bd 3a 83 e3 bd c6 90 91 3b
       -0.19607034 -0.08533272 -0.11109014 0.004442307
000020 c6 fc f5 bd 87 62 e0 3c cf 7c 33 bd 2d 7d 5c bd
       -0.12011103 0.027390731 -0.0438202 -0.053830314
000030 90 37 0a bd 43 51 9e 3d 26 ff 84 bd ff e4 25 bd
       -0.033744395 0.07730343 -0.06493978 -0.04050159
000040 44 35 64 bd ff 95 93 bc 3b 98 6e bd 3f 6c be bd
       -0.05571486 -0.01801586 -0.058250647 -0.0929799
000050 9b 6d 62 3d a4 d7 e2 3d e2 21 54 3e d3 b5 d4 3d
       0.05528031 0.110762864 0.2071605 0.10386243
000060 13 a5 24 3d 57 fc 81 bd 7a ce a2 bd 90 29 a7 bc
       0.04019649 -0.06346958 -0.079495385 -0.02040556
000070 e2 d4 8b bd 87 92 42 3d 0f e8 57 3e a3 57 63 3e
       -0.068277135 0.04750302 0.21084617 0.222014
000080 16 ff 59 3e fb 76 a9 3d ca 83 a8 bd eb db 92 bd
       0.21288714 0.08274647 -0.08228262 -0.07170852
000090 2c e3 03 be 1d cf 2b bc bf 0e 04 3e 6a 3c 26 3e
       -0.12879628 -0.010486391 0.1289625 0.16233984
0000a0 78 a6 98 3e 05 76 52 3e af 06 27 3e 49 e8 73 3d
       0.29814506 0.20552833 0.16311143 0.059547696
0000b0 15 e9 16 be 86 0d 1d bd 92 2a db bd 88 db 69 3c
       -0.14737351 -0.038342975 -0.10701479 0.014273532
0000c0 a2 23 17 3e 73 6d 53 3e 93 4f 18 3e ef 79 2d 3d
       0.14759687 0.2064722 0.14874105 0.042352613
0000d0 36 e4 a1 bd 5d 8c 68 bd d9 64 64 bd 44 b1 fa bd
       -0.07904856 -0.056774486 -0.05576024 -0.12240842
0000e0 1a 3a 16 3c 22 98 d0 3c 83 c4 24 3e c8 34 51 3d
       0.009169126 0.025463168 0.16090588 0.051075727
0000f0 e6 e2 e6 3c 20 ed a2 bd ee 42 6a bd ae 59 39 3d
       0.028184365 -0.07955384 -0.057192735 0.04525154
000100 2b d6 dc bc be 22 73 bd 8f a9 df bd 44 48 a8 bd
       -0.026957592 -0.059359305 -0.109210126 -0.082169086
000110 ea cd 08 be bd 4f ea bc 06 28 aa bb ad 7e 67 3c
       -0.133598 -0.028602475 -0.0051927594 0.014129323
000120 1e 0a e2 bd 94 00 7f bc 4e 0f ed bd 40 63 9f bd
       -0.11037086 -0.015564103 -0.11575185 -0.07782602
000130 7c 76 14 be d4 d4 af bd 51 a5 cd bd 67 31 11 bb
       -0.14498323 -0.085855156 -0.10041297 -0.002215469
000140 2f 4f e7 bd
       -0.112944
