model/cnn/9x9/1pc/5000play/_9.pt (torch_old, 526869 bytes, 15 tensors)

conv1.weight f4 [32, 4, 3, 3]
-0.20924582 0.31927946 0.042097647 -0.1847995 0.23995228 -0.30184206 -0.021614337 0.67770314
0.11103487 -0.07263121 -0.577625 -0.17135003 -0.12911366 -0.46498755 -0.20919447 -0.14822772
-0.30956048 -0.04715012 -0.12866391 -0.009804963 -0.16892837 -0.07813994 -0.27989402 -0.08446553
-0.015424121 -0.19666311 0.030496273 -0.036081407 -0.038553014 -0.116022296 -0.14943701 -5.7576217e-05
0.0046209474 -0.1156179 0.13373743 0.11102994 0.21246493 0.17584702 0.6486244 0.043935735
0.13937339 0.045979105 0.21363352 -0.039768085 0.33823255 -0.27435482 -0.18461424 -0.26505297
-0.035804313 -0.035068728 -0.06802751 -0.051336113 -0.11887645 -0.18821928 0.056370523 0.18342166
0.09896525 0.17965424 -0.08869806 0.11435623 0.06196191 0.14643797 0.025276735 -0.038269933
0.014419213 -0.15231085 -0.010831663 -0.23403786 -0.20781861 -0.070245124 -0.033410862 -0.32544044
-0.059472445 -0.09385737 0.005947338 -0.09884139 0.06337386 0.08053017 0.08286745 -0.20886648
0.07230766 -0.030067625 -0.0810228 -0.03824269 -0.18656991 0.12815301 -0.13841826 -0.097000375
1.0707405 -0.028514422 -0.14256738 0.060942743 0.011461539 -0.08053133 0.18932608 -0.13369504
0.13087325 0.03709133 0.027442103 -0.10499433 -0.035980698 0.05262465 -0.061376523 -0.005106463
-0.110037 0.13158982 0.09943028 -0.108408734 0.5104037 -0.003241621 0.8461012 0.30367333
0.24252602 0.0063702627 0.49097306 0.36274695 0.1293037 -0.2512443 -0.04298132 -0.2420017
-0.0775277 0.09537663 0.014927017 -0.25856975 0.12053355 -0.33431894 0.012280539 0.01056092
0.055577435 0.12199475 0.0007653287 -0.123913504 0.05366012 0.12143298 0.057131536 0.020844543
0.0034980115 -0.04297606 -0.081404775 -0.08064593 -0.029896464 0.12823476 0.16576453 0.061616812
0.3396987 -0.16741185 0.0012888912 -0.10868936 0.117360026 -0.09930881 0.7103976 0.3483404
0.3977111 0.23580402 0.14183503 0.08536634 -0.07238189 0.0026368839 0.085167006 -0.6711431
-0.42362297 -0.5276257 -0.049612936 -0.00013969492 0.06768869 -0.07560562 -0.14988911 -0.051408272
0.04805555 -0.16936506 -0.004976861 0.16470699 -0.012263136 0.08370834 0.14217174 -0.0065652304
0.15441796 -0.1992026 -0.20508085 -0.12016792 -0.09066557 -0.11716463 0.15745516 -0.2036004
-0.25535443 -0.32119966 -0.2575483 -0.34788758 -0.32992417 -0.1805467 0.03905961 -0.24077073
0.28028592 0.348958 -0.0009503085 0.8557336 0.2675805 0.04019604 0.13607383 -0.07317037
0.10362498 -0.10514704 0.21447584 -0.053787604 0.039711025 -0.13897766 -0.024198629 0.013301807
0.10219124 -0.17709321 0.20701309 -0.08990473 0.07345617 -0.03433035 0.049781334 0.13370161
-0.24550419 -0.075843535 -0.37385932 0.13196528 -0.18053497 -0.010930633 -0.40691173 0.06294076
-0.33804065 0.20684889 0.068041734 0.42849812 0.15367305 0.17630707 0.24624047 0.5494719
0.13717788 0.16177373 -0.09447541 -0.06437147 -0.09100129 -0.18638371 0.07175716 -0.24051766
-0.36069807 -0.28332993 -0.16270202 -0.116589956 -0.16493016 -0.06663547 -0.062689744 -0.105572306
-0.0057275393 -0.02678468 -0.077199414 0.032821283 -0.22379936 -0.2730928 -0.2960248 -0.095247075
00000000: 8944 56be 9978 a33e 956e 2c3d 153c 3dbe
00000010: 0db6 753e 0b8b 9abe 8d10 b1bc f47d 2d3f
00000020: 4066 e33d acbf 94bd 3bdf 13bf 6276 2fbe
00000030: 5f36 04be d912 eebe 1337 56be 02c9 17be
00000040: b67e 9ebe 7c20 41bd 79c0 03be ffa4 20bc
00000050: 8ffb 2cbe d507 a0bd 454e 8fbe 44fc acbd
00000060: 74b5 7cbc 0e62 49be 52d3 f93c 19ca 13bd
00000070: c4e9 1dbd 199d edbd 0406 19be fe7d 71b8
00000080: 516b 973b 14c9 ecbd 77f2 083e aa63 e33d
00000090: 6890 593e 3e11 343e 400c 263f f5f5 333d
000000a0: e6b7 0e3e 9654 3c3d bfc2 5a3e dce3 22bd
000000b0: d12c ad3e 3c78 8cbe 840b 3dbe 06b5 87be
000000c0: 8ba7 12bd 3aa4 0fbd 0252 8bbd d145 52bd
000000d0: 7f75 f3bd 8ebc 40be c7e4 663d e3d2 3b3e
000000e0: 4bae ca3d 48f7 373e 54a7 b5bd 9933 ea3d
000000f0: c6cb 7d3d d6f3 153e 2811 cf3c efc0 1cbd
00000100: 903e 6c3c 60f7 1bbe 4a77 31bc 9fa7 6fbe
00000110: 67ce 54be addc 8fbd d4d9 08bd 21a0 a6be
00000120: 6199 73bd 4b38 c0bd e3e1 c23b 5b6d cabd
00000130: 28ca 813d 00ed a43d 69b6 a93d 18e1 55be
00000140: 0a16 943d 6150 f6bc 48ef a5bd 5ea4 1cbd
00000150: 2f0c 3fbe 8b3a 033e 84bd 0dbe 22a8 c6bd
00000160: 060e 893f 1497 e9bc 2ffd 11be 199f 793d
00000170: 2ec9 3b3c 9ced a4bd b2de 413e 5ae7 08be
00000180: a303 063e 14ed 173d 43ce e03c 4407 d7bd
00000190: 7f60 13bd f28c 573d f365 7bbd 1e54 a7bb
000001a0: 145b e1bd 7bbf 063e 1aa2 cb3d 6605 debd
000001b0: d1a9 023f 6071 54bb 179a 583f 127b 9b3e
000001c0: be58 783e a3bd d03b d260 fb3e f8b9 b93e
000001d0: 3068 043e 18a3 80be 2e0d 30bd 4bcf 77be
000001e0: d8c6 9ebd d354 c33d 7290 743c 4163 84be
000001f0: 4bda f63d da2b abbe 5034 493c b607 2d3c
00000200: 2aa5 633d 62d8 f93d 57a0 483a 5dc6 fdbd
00000210: b7ca 5b3d dbb1 f83d c202 6a3d 2dc2 aa3c
00000220: e53e 653b aa07 30bd 8cb7 a6bd b129 a5bd
00000230: 6ee9 f4bc f94f 033e 2dbe 293e e961 7c3d
00000240: fdec ad3e 036e 2bbe 03f0 a83a 8798 debd
00000250: 745a f03d 6b62 cbbd 9edc 353f ac59 b23e
00000260: caa0 cb3e 9c76 713e 343d 113e 8cd4 ae3d
00000270: f53c 94bd 92cf 2c3b 0a6c ae3d 09d0 2bbf
00000280: 1ce5 d8be 7a12 07bf ef36 4bbd 127b 12b9
00000290: 5ea0 8a3d 1fd7 9abd 887c 19be 7b91 52bd
000002a0: e5d5 443d 096e 2dbe f014 a3bb f3a8 283e
000002b0: 52eb 48bc 476f ab3d 7895 113e 2521 d7bb
000002c0: be1f 1e3e c4fb 4bbe b700 52be 991a f6bd
000002d0: dfae b9bd 02f4 efbd ed3b 213e a07c 50be
000002e0: d1bd 82be 4874 a4be 5fdd 83be 521e b2be
000002f0: d2eb a8be 3ce1 38be f8fc 1f3d 9a8c 76be
00000300: a381 8f3e 9faa b23e 201e 79ba 5b11 5b3f
00000310: 5000 893e 9aa4 243d f056 0b3e 59da 95bd
00000320: 5539 d43d 5557 d7bd 8e9f 5b3e 6450 5cbd
00000330: 07a8 223d 2950 0ebe 343c c6bc d3ef 593c
00000340: a449 d13d ec57 35be 3dfb 533e f91f b8bd
00000350: 3070 963d fb9d 0cbd 83e7 4b3d 13e9 083e
00000360: 7365 7bbe db53 9bbd 7d6a bfbe e821 073e
00000370: 29de 38be 6616 33bc bc56 d0be 16e7 803d
00000380: aa13 adbe 32d0 533e 7759 8b3d 1b64 db3e
00000390: 785c 1d3e d789 343e 7626 7c3e 31aa 0c3f
000003a0: 5c78 0c3e 03a8 253e 537c c1bd 30d5 83bd
000003b0: e25e babd 5fdb 3ebe 6bf5 923d 434a 76be
000003c0: 6bad b8be 9f10 91be 5c9b 26be b7c6 eebd
000003d0: 74e3 28be 2d78 88bd 7b63 80bd 4b36 d8bd
000003e0: 15ae bbbb 8c6b dbbc ba1a 9ebd 9c6f 063d
000003f0: a92b 65be d2d2 8bbe 9090 97be e610 c3bd

conv1.bias f4 [32]
-0.010108589 0.1257942 -0.1778399 -0.207653 -0.18990913 -0.042024575 -0.14489742 0.26440313
-0.27004743 0.001504735 -0.28008568 -0.16538945 -0.11661056 -0.12947108 -0.10434396 -0.08407447
-0.29991114 -0.32883066 0.15169226 -0.3073633 -0.021266578 -0.038027175 0.1791964 -0.123508066
-0.039572496 -0.15513779 -0.34560975 -0.20220025 0.2617059 -0.16533683 -0.16800296 -0.13764334
00000000: 7f9e 25bc 32d0 003e aa1b 36be fda2 54be
00000010: 8a77 42be f621 2cbd fd5f 14be d95f 873e
00000020: a843 8abe 873a c53a 6467 8fbe da5b 29be
00000030: 84d1 eebd 1194 04be 49b2 d5bd 3c2f acbd
00000040: f48d 99be 7e5c a8be 3755 1b3e b95e 9dbe
00000050: 3f37 aebc 62c2 1bbd 437f 373e ccf1 fcbd
00000060: c516 22bd 71dc 1ebe c3f3 b0be 950d 4fbe
00000070: 51fe 853e 0f4e 29be f808 2cbe 60f2 0cbe

conv2.weight f4 [64, 32, 3, 3]
-0.17064978 -0.13452977 0.05678634 -0.023115998 -0.029521387 -0.17414095 -0.11425337 -0.019476155
0.036027167 -0.23096932 -0.022949245 0.0077421837 -0.2512978 -0.28327814 -0.24659222 -0.04687766
0.029920852 -0.24613585 0.1847763 -0.11198709 0.28009373 -0.059125725 -0.09483425 -0.29133937
0.24498129 -0.30581346 -0.05536012 0.15580495 -0.3175074 0.19516397 0.16058502 -0.058384888
-0.1764588 0.02556295 -0.09899639 -0.055978555 0.17815982 -0.25588748 -0.09800367 0.1418979
-0.22762966 -0.17605737 -0.04447493 -0.12395409 -0.016265692 0.013791266 0.096679375 0.081281856
0.03877886 0.013670994 -0.0728666 -0.00454118 -0.0025263014 -0.2055136 -0.0747556 -0.245252
-0.11588352 0.025026768 -0.091389105 -0.24035686 0.070696294 -0.062145982 -0.17144826 -0.08888903
-0.11724949 -0.25052142 0.101807214 -0.018641824 0.061209746 -0.28603858 0.0093049845 -0.22650331
0.14233087 0.16795893 -0.32646888 0.014102227 -0.2484733 -0.066367626 -0.06602894 0.3033583
0.14993538 0.012087058 0.056332935 0.010330454 0.04461298 -0.25087497 0.11210435 0.08071762
-0.06939188 -0.0040906006 -0.07689998 -0.07085575 -0.019230355 -0.05078484 -0.08254484 0.1900242
0.20371842 -0.0578574 0.22686484 -0.037137102 -0.009035559 -0.05406351 -0.15571871 -0.060941834
0.024613064 -0.01434728 0.01631813 -0.15859047 0.14620787 -0.0011162004 0.11314715 0.15497573
-0.32136858 -0.04789455 -0.085969836 0.5239033 -0.35262343 -0.030479139 0.2901286 -0.16711365
-0.15608673 -0.46587634 0.22254363 -0.344707 -0.01947416 0.027638411 -0.11491954 -0.2964122
-0.04471751 -0.0048769694 -0.2332183 -0.04564447 -0.058950055 0.060416892 -0.24956863 0.13153563
-0.1904628 -0.023934143 -0.00078554085 -0.11904922 -0.14094497 0.024426254 0.08019258 -0.3546299
0.081400484 -0.040681954 -0.025176575 -0.01985358 0.019787598 -0.004401122 -0.06812117 0.046345934
-0.020963492 -0.0147553785 -0.04449868 0.06056917 0.06679226 -0.18124296 -0.09120835 -0.17465144
-0.0031030294 -0.0502968 -0.11031319 0.02517038 -0.26145983 -0.08822185 0.03632986 -0.056469064
-0.02888951 0.057711612 -0.123455815 0.14210452 -0.20100747 0.14054798 0.0672924 -0.22504692
-0.010280861 0.008419904 0.30046836 -0.2219008 0.032844856 0.13781591 0.015392954 0.16126417
-0.012044838 0.158942 0.29465148 0.3235362 0.088994496 -0.26975483 -0.23221028 -0.071247876
-0.14560297 0.009355619 0.030147688 0.04276219 -0.24452002 -0.21993311 -0.19772466 0.30063167
-0.31032932 -0.45112216 0.092307046 -0.10401843 -0.15215023 0.08963273 -0.15259649 -0.23352219
0.15839306 -0.08183935 0.25396934 0.056197915 -0.0769574 -0.31032476 0.2261822 -0.16018033
-0.18054971 0.109533705 -0.04313563 0.032434344 0.02920909 -0.14706215 -0.023519674 0.16436602
0.17583635 -0.15259738 0.27041563 0.06499298 -0.31512496 -0.18064496 -0.10544393 -0.067796335
0.056662496 -0.29099652 0.116431154 -0.16537388 -0.009800425 -0.07529931 -0.07349653 0.18603574
0.06734111 -0.11733367 -0.09255622 0.061773952 0.333295 -0.014699432 0.01545163 -0.2513838
-0.16755044 -0.17491847 0.17022969 -0.19369121 -0.066488616 0.1318299 -0.103050224 -0.0054859216
00000000: d1be 2ebe 2cc2 09be cb98 683d c35d bdbc
00000010: d6d6 f1bc 0152 32be acfd e9bd 758c 9fbc
00000020: 3991 133d 3983 6cbe 0e00 bcbc 25b2 fd3b
00000030: 1baa 80be d509 91be ac82 7cbe ca02 40bd
00000040: 931c f53c 090b 7cbe 0036 3d3e 7d59 e5bd
00000050: 7268 8f3e d12d 72bd 7638 c2bd 6f2a 95be
00000060: 60dc 7a3e 9593 9cbe 4bc1 62bd 558b 1f3e
00000070: 5490 a2be 10d9 473e 6670 243e fe24 6fbd
00000080: 9eb1 34be 6469 d13c 9fbe cabd c549 65bd
00000090: 876f 363e af03 83be 26b6 c8bd af4d 113e
000000a0: c017 69be 6248 34be 582b 36bd a4db fdbd
000000b0: a13f 85bc c3f4 613c d6ff c53d 1a77 a63d
000000c0: 95d6 1e3d 4efc 5f3c 153b 95bd 2ece 94bb
000000d0: 4e90 25bb 2872 52be 7719 99bd 5723 7bbe
000000e0: 5754 edbd f004 cd3c 362a bbbd 1c20 76be
000000f0: 38c9 903d c98c 7ebd 2290 2fbe 740b b6bd
00000100: 8020 f0bd 5844 80be 4d80 d03d bdb6 98bc
00000110: 12b7 7a3d a673 92be ef73 183c 7cf0 67be
00000120: 2fbf 113e 6dfd 2b3e ee26 a7be 070d 673c
00000130: c96f 7ebe c0eb 87bd 2e3a 87bd c751 9b3e
00000140: a988 193e cc08 463c 5dbd 663d 1141 293c
00000150: 1abc 363d af72 80be f796 e53d 484f a53d
00000160: 541d 8ebd 720a 86bb bd7d 9dbd d21c 91bd
00000170: fa88 9dbc c403 50bd 450d a9bd b495 423e
00000180: 909b 503e e2fb 6cbd 424f 683e 131d 18bd
00000190: e209 14bc b371 5dbd ba74 1fbe 259e 79bd
000001a0: 56a1 c93c db10 6bbc 99ad 853c 8a65 22be
000001b0: 84b7 153e 784d 92ba b1b9 e73d f5b1 1e3e
000001c0: 6c8a a4be 132d 44bd f410 b0bd 871e 063f
000001d0: 0f8b b4be 63af f9bc bc8b 943e d71f 2bbe
000001e0: 33d5 1fbe 5887 eebe 7ae2 633e 707d b0be
000001f0: 4688 9fbc f369 e23c f05a ebbd 57c3 97be
00000200: b529 37bd fcce 9fbb c7d0 6ebe b2f5 3abd
00000210: 9d75 71bd b477 773d eb8e 7fbe 47b1 063e
00000220: ae08 43be 8911 c4bc c1ec 4dba 14d0 f3bd
00000230: e153 10be 9119 c83c 023c a43d 0d92 b5be
00000240: 4cb5 a63d 1fa2 26bd 1b3f cebc faa3 a2bc
00000250: 9a19 a23c 4a37 90bb 1d83 8bbd 3cd5 3d3d
00000260: a1bb abbc 8bc0 71bc 3f44 36bd 6117 783d
00000270: 61ca 883d c197 39be 72cb babd d4d7 32be
00000280: 325c 4bbb 0404 4ebd e2eb e1bd 1d32 ce3c
00000290: 10de 85be a8ad b4bd 9fce 143d 1b4c 67bd
000002a0: b2a9 ecbc 0363 6c3d 67d6 fcbd d983 113e
000002b0: e7d4 4dbe cfeb 0f3e 99d0 893d b372 66be
000002c0: 0e71 28bc a3f3 093c fdd6 993e f739 63be
000002d0: 5488 063d 9d1f 0d3e bb32 7c3c 6f22 253e
000002e0: b657 45bc b1c1 223e 8fdc 963e 89a6 a53e
000002f0: bf42 b63d 4e1d 8abe 88c8 6dbe 68ea 91bd
00000300: f218 15be 4f48 193c 49f8 f63c 6827 2f3d
00000310: 7563 7abe 2536 61be 5578 4abe 65ec 993e
00000320: 7ce3 9ebe 7cf9 e6be 7a0b bd3d 9d07 d5bd
00000330: 45cd 1bbe 5d91 b73d 4142 1cbe 7120 6fbe
00000340: ca31 223e 649b a7bd 4508 823e c92f 663d
00000350: d79b 9dbd e3e2 9ebe 4e9c 673e 5006 24be
00000360: 06e2 38be 3553 e03d fdae 30bd e0d9 043d
00000370: e747 ef3c 7697 16be 55ac c0bc 914f 283e
00000380: 720e 343e 7d42 1cbe eb73 8a3e 0a1b 853d
00000390: 0f58 a1be fefa 38be fdf2 d7bd ced8 8abd
000003a0: ef16 683d 7ffd 94be 7573 ee3d c557 29be
000003b0: f691 20bc 8636 9abd 5985 96bd 2780 3e3e
000003c0: 23ea 893d a34c f0bd 1e8e bdbd af06 7d3d
000003d0: a4a5 aa3e e3d5 70bc d528 7d3c 61b5 80be
000003e0: 5892 2bbe d41d 33be b150 2e3e fd56 46be
000003f0: 2f2b 88bd 6bfe 063e ff0b d3bd 3fc3 b3bb

conv2.bias f4 [64]
0.013920034 -0.26381072 -0.09184957 -0.04899676 -0.21531416 -0.07643231 -0.31916404 0.27970093
0.17987727 -0.30219522 -0.011448065 0.098799445 -0.14654231 -0.10558522 -0.14046466 -0.09076445
-0.065560676 -0.0036635706 -0.37534776 -0.14883246 -0.061030712 -0.22406799 -0.13240485 -0.2930889
0.065389045 -0.078223586 -0.0764699 0.059794474 -0.088318765 -0.1908044 -0.15481173 -0.3513924
-0.14287594 -0.2397899 -0.27946803 0.005024851 -0.23635814 -0.47206694 -0.20833558 -0.3907302
-0.10118082 0.006174118 -0.36996588 -0.2557806 -0.18372735 -0.14604266 0.050552126 -0.16737121
-0.22345002 0.0025910565 -0.23825647 -0.22556497 -0.2068911 -0.14998254 -0.24602172 -0.10562059
-0.30654103 -0.52951705 -0.10891369 -0.019766755 -0.040982645 -0.09778465 -0.20543405 -0.14745905
00000000: db10 643c 3312 87be a11b bcbd d4b0 48bd
00000010: 517b 5cbe 8b88 9cbd 7869 a3be f634 8f3e
00000020: bf31 383e 55b9 9abe aa90 3bbc 5d57 ca3d
00000030: 300f 16be 103d d8bd f8d5 0fbe b6e2 b9bd
00000040: ad44 86bd 8418 70bb 952d c0be 8967 18be
00000050: 57fb 79bd 1472 65be 2395 07be c00f 96be
00000060: b1ea 853d b033 a0bd 409c 9cbd 0deb 743d
00000070: 78e0 b4bd 3b62 43be f786 1ebe b4e9 b3be
00000080: 124e 12be 7c8b 75be 6f16 8fbe 81a7 a43b
00000090: de07 72be c2b2 f1be ec55 55be ca0d c8be
000000a0: e437 cfbd 4150 ca3b 2b6c bdbe adf5 82be
000000b0: 0623 3cbe 358c 15be bf0f 4f3d 5c63 2bbe
000000c0: 15d0 64be b7ce 293b 81f9 73be 81fa 66be
000000d0: 43db 53be 0695 19be 1eed 7bbe 9c4f d8bd
000000e0: f2f2 9cbe 6e8e 07bf 240e dfbd e4ed a1bc
000000f0: 6bdd 27bd 5243 c8bd 4e5d 52be 81ff 16be

conv3.weight f4 [128, 64, 3, 3]
0.13574667 -0.15052475 0.100133136 0.001057972 -0.08369184 -0.11394823 -0.06871841 0.1866458
-0.09199983 -0.07747384 -0.023266247 0.13113564 0.041889273 0.1804071 -0.09125209 0.033289872
0.039259158 0.1810729 0.0079703815 0.08292961 -0.1296609 -0.04602968 -0.04677102 0.15248185
-0.043348256 -0.091934405 -0.0233516 0.10644249 0.38744485 0.33412984 0.08388395 -0.073813654
-0.15684173 0.095722996 -0.01124859 -0.16808718 0.035516795 -0.21853961 -0.23716396 -0.0070393323
-0.016763542 -0.1442838 0.1056734 -0.17088264 -0.06905949 0.027370488 -0.0048221834 -0.2126336
-0.014691097 -0.14281917 -0.12185509 0.123978645 0.15060653 0.065586254 -0.08833602 -0.02960282
-0.13975748 -0.2119856 -0.1161402 0.13231857 -0.11328308 -0.089499794 0.008276515 -0.21396671
0.25610676 0.0031840412 -0.1255863 -0.023142323 0.124042824 -0.1431275 0.0928571 0.036623415
0.14397822 -0.19305111 0.010801651 0.14232773 -0.20011191 -0.06317972 0.050133385 -0.36490998
-0.15624622 0.023374112 -0.10578128 0.19701381 0.10502857 0.28072906 -0.011002897 -0.18360357
0.285827 0.18469311 0.09780497 0.12567368 0.43313044 -0.18596436 -0.20371158 -0.027768733
-0.088931516 -0.16686516 0.10305486 0.106951006 -0.04427153 0.087456346 0.11779998 -0.07744901
-0.12472916 0.049667038 0.030371651 -0.08434195 -0.11588452 -0.0072737113 -0.10541457 -0.03250461
-0.06175105 -0.058502622 -0.0438343 0.07181738 -0.07220441 -0.12359163 0.00704889 0.070251696
-0.16554433 -0.16300322 -0.068278655 -0.07237133 0.1976421 -0.056570854 -0.107384175 0.0071294997
-0.17197327 -0.17915241 -0.06969892 -0.20582826 0.09622376 0.21157628 0.0054570273 -0.014254057
-0.18461572 -0.010685031 0.14697108 -0.07079104 0.07501857 -0.0323676 -0.24434744 0.11022404
0.14042956 -0.05363914 0.0865132 -0.028908433 -0.22695774 0.16235775 -0.16264899 0.17021616
0.07214023 -0.07424622 -0.057463635 0.004835269 -0.012488768 0.12904252 -0.029340059 0.18416625
-0.04217932 -0.12492407 -0.041227933 0.08573556 0.049448986 0.004120533 0.10961825 -0.055147085
0.031559378 0.04647494 -0.11005407 -0.18204726 -0.025130803 0.27119178 -0.29766175 -0.013719902
0.10842475 -0.09569476 0.15424791 -0.0067256256 -0.20597397 -0.0752522 0.03489323 0.019670842
-0.074312486 -0.17520267 -0.0095222145 -0.090805784 0.09994987 -0.046988964 0.09588447 -0.026659368
-0.07109243 -0.055481497 -0.14384168 0.038901225 0.081468955 0.052342568 -0.037604902 0.2816919
0.11375043 -0.02920106 0.19388065 -0.13890065 0.086660504 -0.057015967 0.08957081 -0.105530284
0.09319145 0.077438444 0.09387629 -0.07996155 -0.043374367 -0.0029417656 0.1914499 0.01845874
0.06896265 -0.012046638 -0.0058680694 -0.013402871 -0.010729124 -0.007918906 0.06035166 -0.18435596
-0.03580921 0.026310084 -0.055579446 -0.072154716 -0.3076535 0.020436754 -0.10453227 0.07865605
-0.10011038 -0.18220976 -0.07356606 0.12398744 0.057647668 0.12452039 -0.019487722 -0.15007168
-0.1492164 0.010942963 0.07067482 -0.012465996 0.09071651 0.27498809 0.038837865 -0.082345866
0.04401623 0.07065154 0.27299616 0.13674414 0.19544446 0.028934244 0.05507364 -0.30843803
00000000: 2d01 0b3e 2923 1abe 9a12 cd3d a6ab 8a3a
00000010: a166 abbd b15d e9bd 3dbc 8cbd 1420 3f3e
00000020: 686a bcbd 9baa 9ebd db98 bebc 6c48 063e
00000030: 1694 2b3d a4bc 383e 60e2 babd f65a 083d
00000040: 36ce 203d 2d6b 393e 3496 023c 00d7 a93d
00000050: d4c5 04be 9e89 3cbd f892 3fbd 3424 1c3e
00000060: f18d 31bd 1b48 bcbd db4b bfbc 85fe d93d
00000070: 2c5f c63e 1113 ab3e 59cb ab3d 9d2b 97bd
00000080: 1e9b 20be 6b0a c43d 024c 38bc 0c1f 2cbe
00000090: 0f7a 113d d9c8 5fbe 1cdb 72be 33aa e6bb
000000a0: b253 89bc 22bf 13be 4c6b d83d dcfb 2ebe
000000b0: 106f 8dbd 1338 e03c 6803 9ebb 9fbc 59be
000000c0: edb2 70bc 303f 12be 298f f9bd 84e8 fd3d
000000d0: 9938 1a3e 1652 863d 84e9 b4bd 9d81 f2bc
000000e0: 961c 0fbe c112 59be eada edbd 857e 073e
000000f0: f600 e8bd ab4b b7bd 389a 073c 171a 5bbe
00000100: 6d20 833e 59ab 503b b299 00be f894 bdbc
00000110: 2a0a fe3d 0490 12be dd2b be3d 6f02 163d
00000120: 076f 133e 31af 45be 68f9 303c 5cbe 113e
00000130: 23ea 4cbe 5e64 81bd aa58 4d3d 7bd5 babe
00000140: 02ff 1fbe 117b bf3c dba3 d8bd fdbd 493e
00000150: 3819 d73d b8bb 8f3e 7f45 34bc 9302 3cbe
00000160: eb57 923e 3120 3d3e f94d c83d 9ab0 003e
00000170: 46c3 dd3e 716d 3ebe c599 50be 417b e3bc
00000180: ba21 b6bd b3de 2abe 6d0e d33d 2109 db3d
00000190: 1056 35bd 501c b33d 1e41 f13d 969d 9ebd
000001a0: 0072 ffbd aa6f 4b3d f8cd f83c 79bb acbd
000001b0: dd54 edbd 5058 eebb 98e3 d7bd 8e23 05bd
000001c0: abee 7cbd 72a0 6fbd 988b 33bd fe14 933d
000001d0: e8df 93bd 9c1d fdbd 60fa e63b 1fe0 8f3d
000001e0: 7484 29be 51ea 26be aed5 8bbd 6b37 94bd
000001f0: b162 4a3e d7b6 67bd 3cec dbbd 949e e93b
00000200: c319 30be bb73 37be 4fbe 8ebd a5c4 52be
00000210: f610 c53d 74a7 583e ddd0 b23b d989 69bc
00000220: e70b 3dbe 4510 2fbc 967f 163e e5fa 90bd
00000230: 56a3 993d e393 04bd 3736 7abe 24bd e13d
00000240: c4cc 0f3e b7b4 5bbd d52d b13d 61d1 ecbc
00000250: 9c67 68be 1c41 263e 758d 26be 254d 2e3e
00000260: 42be 933d 670e 98bd fd5e 6bbd 2d71 9e3b
00000270: b19d 4cbc b923 043e 905a f0bc 1496 3c3e
00000280: 39c4 2cbd 31d8 ffbd 9fde 28bd 2096 af3d
00000290: 058b 4a3d 8905 873b 887f e03d e9e1 61bd
000002a0: 6844 013d 825c 3e3d 0764 e1bd 996a 3abe
000002b0: 1ddf cdbc a6d9 8a3e 1f67 98be 71c9 60bc
000002c0: cc0d de3d 9dfb c3bd 2af3 1d3e a362 dcbb
000002d0: d7ea 52be d31d 9abd 34ec 0e3d bf24 a13c
000002e0: 2531 98bd 5468 33be 1003 1cbc 62f8 b9bd
000002f0: 84b2 cc3d 8077 40bd 145f c43d bf64 dabc
00000300: e898 91bd 9140 63bd 3c4b 13be e456 1f3d
00000310: 32d9 a63d 2965 563d 9907 1abd ec39 903e
00000320: fcf5 e83d 1037 efbc a688 463e f93b 0ebe
00000330: 107b b13d 9389 69bd e770 b73d 4320 d8bd
00000340: 29db be3d 0c98 9e3d 3642 c03d e2c2 a3bd
00000350: 52a9 31bd a3ca 40bb 710b 443e c936 973c
00000360: 4a3c 8d3d 435f 45bc ef48 c0bb b797 5bbc
00000370: 35c9 2fbc 4dbe 01bc 4d33 773d cfc7 3cbe
00000380: aeac 12bd 3f88 d73c 46a7 63bd dac5 93bd
00000390: c284 9dbe fb6a a73c 0415 d6bd 6c16 a13d
000003a0: ac06 cdbd 3295 3abe cda9 96bd 20ed fd3d
000003b0: f61f 6c3d 8c04 ff3d b7a4 9fbc 64ac 19be
000003c0: 2fcc 18be 1d4a 333c f6bd 903d 2d3e 4cbc
000003d0: 94c9 b93d 3dcb 8c3e 7414 1f3d f3a4 a8bd
000003e0: 5d4a 343d c1b1 903d 27c6 8b3e a806 0c3e
000003f0: 9822 483e 8207 ed3c e694 613d 97eb 9dbe

conv3.bias f4 [128]
-0.28264105 -0.036391422 -0.07407669 -0.14142509 -0.15125352 -0.25054225 -0.21576501 -0.43598095
0.227799 -0.21277863 -0.17858927 -0.20486142 0.030398082 0.09277832 -0.2675597 -0.2737789
-0.11279939 -0.33790222 -0.3835217 0.07007903 -0.025829826 -0.21798772 -0.124190204 -0.02297835
-0.28452444 -0.32233942 -0.24128398 -0.26227647 -0.19969139 -0.0693161 -0.20735644 -0.2265406
0.038395006 -0.24668854 -0.27890298 -0.3078102 -0.08602501 -0.054236818 -0.25919446 -0.3205219
-0.17687039 -0.21225354 -0.21234202 -0.29607606 -0.17522399 -0.04317206 -0.31313145 -0.32673734
-0.004109743 -0.4303761 -0.25811774 -0.21425216 -0.20921105 0.0027671007 -0.2916179 -0.30850503
-0.11487615 -0.1493675 -0.04501053 -0.3136269 -0.22847968 0.07597251 -0.16248778 -0.15584418
-0.15438983 -0.088517606 -0.13001822 -0.1704045 -0.09561211 -0.19610015 -0.033448625 -0.20243913
-0.14995769 -0.0844256 -0.24631067 -0.0629132 -0.2156055 -0.26168957 0.010883925 0.024265103
-0.029683892 -0.029304428 -0.14943653 -0.24871452 -0.055216637 -0.038964387 -0.087665394 0.04418381
-0.101497315 -0.16235092 -0.32886449 -0.1200131 -0.099284254 -0.40789863 0.053586353 -0.33528534
-0.10995425 -0.15544942 -0.13373117 -0.32087508 -0.37985626 -0.15354581 -0.21308048 -0.060905818
-0.38690487 -0.25565413 -0.31779814 -0.16068727 -0.1936428 -0.38504228 -0.20921275 -0.035728235
-0.37419716 -0.20973395 -0.17528482 -0.34338853 -0.24978006 -0.23344648 -0.20964156 -0.060025457
-0.036844324 -0.41246927 0.08130524 -0.0923741 -0.011285283 -0.25065583 -0.32163173 -0.16698836
00000000: 54b6 90be 2c0f 15bd 85b5 97bd bdd1 10be
00000010: 34e2 1abe 1347 80be 81f1 5cbe e538 dfbe
00000020: 2444 693e a4e2 59be 1be0 36be 31c7 51be
00000030: 6605 f93c 8f02 be3d 96fd 88be bf2c 8cbe
00000040: 5e03 e7bd 8501 adbe f55c c4be 9885 8f3d
00000050: 1299 d3bc 2c38 5fbe 6f57 febd 183d bcbc
00000060: 30ad 91be ac09 a5be 2613 77be 1a49 86be
00000070: e67b 4cbe 99f5 8dbd 3f55 54be 42fa 67be
00000080: 1544 1d3d ec9b 7cbe 5fcc 8ebe 4c99 9dbe
00000090: e12d b0bd 6d27 5ebd 23b5 84be 721b a4be
000000a0: 831d 35be fe58 59be 3070 59be 4897 97be
000000b0: eb6d 33be 30d5 30bd c452 a0be 1e4a a7be
000000c0: 06ab 86bb 425a dcbe 0228 84be eb64 5bbe
000000d0: 6c3b 56be 3f58 353b f14e 95be 5ff4 9dbe
000000e0: 3044 ebbd cbf3 18be f65c 38bd b493 a0be
000000f0: 94f6 69be 7a97 9b3d 3263 26be 9e95 1fbe
00000100: 5e18 1ebe b848 b5bd 7f23 05be 847e 2ebe
00000110: 48d0 c3bd 7ace 48be 6d01 09bd 344c 4fbe
00000120: 828e 19be 54e7 acbd dd38 7cbe a3d8 80bd
00000130: b0c7 5cbe 2dfc 85be 7d52 323c 9cc7 c63c
00000140: a22b f3bc d70f f0bc e405 19be 05af 7ebe
00000150: d72a 62bd 1f99 1fbd ea89 b3bd 15fa 343d
00000160: d3dd cfbd 523f 26be ed60 a8be 6ec9 f5bd
00000170: 8b55 cbbd 17d8 d0be 5d7d 5b3d 85aa abbe
00000180: b22f e1bd 222e 1fbe d3f0 08be bd49 a4be
00000190: 857c c2be 1d3b 1dbe c531 5abe 6178 79bd
000001a0: 6518 c6be 19e5 82be 70b6 a2be 348b 24be
000001b0: 4c4a 46be 4324 c5be de3b 56be c557 12bd
000001c0: c596 bfbe 7fc4 56be dd7d 33be 9fd0 afbe
000001d0: 58c6 7fbe 980c 6fbe 47ac 56be 41dd 75bd
000001e0: 13ea 16bd 2c2f d3be 5d83 a63d a22e bdbd
000001f0: e8e5 38bc f655 80be eaac a4be fffe 2abe

p_conv1.weight f4 [4, 128, 1, 1]
-0.0015727859 -0.11668176 0.0075478237 0.063139826 0.022550657 0.04991936 0.027087023 -0.2144767
-0.056432396 0.45923588 0.02777175 -0.014500644 -0.19082998 -0.0013169136 -0.008441567 -0.0112640895
0.0069635483 0.12525678 0.083579406 0.052675575 0.011447645 -0.016541395 -0.028304748 0.08861036
-0.0015767883 -0.119826056 -0.0010699874 -0.021220848 -0.022619294 -0.012175861 0.054532327 0.059375137
0.13990709 -0.077758014 0.014119345 -0.019947968 0.06671384 -0.0028243302 0.021846032 -0.03500299
0.025884947 0.013325447 0.02115684 -0.023405913 0.029211847 -0.03727837 0.010553556 -0.06247585
-0.02818137 -0.011098617 0.0012342875 0.011340391 0.015220204 -0.017066268 0.013957495 0.009151313
0.044975676 0.014718081 -0.017048439 0.034115568 -0.02920815 -0.17288823 0.03038633 0.03357634
0.039946597 0.02733973 -0.033198893 0.059117243 0.28395593 0.3377652 -0.016298182 -0.008924623
-0.032685585 -0.10688193 0.41859484 0.009482855 -0.029334543 0.007035667 0.005201859 -0.04480479
0.11282205 0.018029582 0.00746397 -0.022505682 -0.013025582 -0.06099533 -0.0036670926 0.30416766
0.010618485 -0.032701388 0.0027886434 0.007859115 0.0039277757 0.0043646144 0.03162603 0.0033973344
-0.073626734 0.17566325 0.05460121 -0.014909095 0.028932987 -0.0042073242 0.060318727 0.023685975
-0.03501099 0.03346717 -0.006898563 -0.043453474 0.08913978 -0.08263562 0.014916869 -0.08069451
0.34785926 0.19163689 -0.027530277 -0.057456672 0.0025993716 0.051653437 0.05711444 -0.0340156
0.057409607 -0.04569681 0.0652576 -0.061686598 -0.005300282 0.0589495 0.014217349 -0.06806249
0.0053730067 -0.01503361 0.021646498 0.057282567 0.033475224 -0.05474675 0.022368448 0.2510074
0.01605738 -0.06423147 0.042792313 0.01848067 -0.011780757 0.29622594 0.006629357 0.012138104
-0.0105469255 0.031125912 -0.043591022 0.072845444 -0.039154638 -0.061749477 -0.03964237 0.024878608
0.09106301 -0.04239715 0.014328219 -0.024982909 0.0059862365 0.019349629 -0.021312213 -0.02609068
0.018629076 -0.10818992 -0.013397003 0.037763976 -0.00096351036 -0.0018136073 -0.075005494 -0.010080812
0.04748304 -0.023863202 0.043144785 -0.05351108 -0.07170107 -0.031663377 0.029064631 0.004907797
-0.067250796 -0.06982847 -0.07749192 -0.023548853 0.07579375 -0.037229296 0.009890084 -0.025107427
-0.028515616 0.025010612 -0.04312199 0.01778148 -0.0036232797 -0.0011944469 -0.0466112 0.015267054
-0.026861262 -0.09645263 -0.008614072 -0.024409536 0.032986823 0.083850585 -0.037058797 -0.039793
-0.11900456 -0.047319498 -0.08017053 0.001716504 0.008789438 -0.05924296 0.05773602 -0.011213088
0.03412415 -0.0006556824 -0.06211931 -0.020762995 -0.034560326 0.16758409 -0.13030407 0.85036826
0.014833302 0.020322092 0.028633717 -0.09013261 -0.059266876 0.00026511517 -0.05756287 0.0057250173
0.024049232 -0.09684737 -0.0149088595 -0.0441272 -0.016020097 -0.015327418 -0.011352553 0.011979027
0.12054376 -0.06045453 0.0036355613 -0.053248953 0.010240402 -0.05785073 3.7054437e-05 0.05834402
0.032409202 0.96078295 0.01682027 0.06931171 0.11700056 -0.016653037 -0.059914514 -0.07745025
-0.015958467 0.07705384 -0.01978231 -0.027739525 0.024809053 -0.08944031 -0.014565351 -0.0070631374
00000000: f025 ceba d9f6 eebd bc53 f73b 744f 813d
00000010: 28bc b83c 3e78 4c3d 9be5 dd3c c89f 5bbe
00000020: a825 67bd f720 eb3e 9581 e33c 1c94 6dbc
00000030: ef68 43be 4a9c acba 804e 0abc 048d 38bc
00000040: 7a2e e43b 5043 003e ae2b ab3d 58c2 573d
00000050: e78e 3b3c d281 87bc 5cdf e7bc 5979 b53d
00000060: 3cac ceba 5d67 f5bd d23e 8cba 58d7 adbc
00000070: 194c b9bc 437d 47bc 4a5d 5f3d 5833 733d
00000080: ce43 0f3e 983f 9fbd d354 673c ec69 a3bc
00000090: 44a1 883d 6618 39bb 73f6 b23c 4c5f 0fbd
000000a0: ab0c d43c fa52 5a3c 1c51 ad3c c2bd bfbc
000000b0: af4d ef3c 34b1 18bd d2e8 2c3c ade6 7fbd
000000c0: 9edc e6bc f9d6 35bc d1c7 a13a 0ccd 393c
000000d0: 2a5e 793c 8fce 8bbc faad 643c 64ef 153c
000000e0: 6a38 383d 1b24 713c 2ba9 8bbc c4bc 0b3d
000000f0: ee45 efbc 9d09 31be c1ec f83c 5887 093d
00000100: 0b9f 233d 92f7 df3c 90fb 07bd ec24 723d
00000110: ac62 913e 8fef ac3e c483 85bc 9538 12bc
00000120: 52e1 05bd eae4 dabd 1052 d63e fa5d 1b3c
00000130: ff4e f0bc 748b e63b 5b74 aa3b 3a85 37bd
00000140: 3f0f e73d c6b2 933c 5294 f43b d65d b8bc
00000150: 4069 55bc 3dd6 79bd 9b53 70bb ddbb 9b3e
00000160: 27f9 2d3c e4f1 05bd acc1 363b 84c3 003c
00000170: 92b4 803b 0a05 8f3b 4c8a 013d d0a5 5e3b
00000180: 9dc9 96bd 11e1 333e 85a5 5f3d 4745 74bc
00000190: df04 ed3c 98dd 89bb c510 773d 1709 c23c
000001a0: af67 0fbd df14 093d 570d e2bb 45fc 31bd
000001b0: eb8e b63d dd3c a9bd e265 743c 2a43 a5bd
000001c0: 9c1a b23e 763c 443e 2d87 e1bc b057 6bbd
000001d0: 385a 2a3b 8e92 533d d5f0 693d f153 0bbd
000001e0: 5626 6b3d 942c 3bbd c7a5 853d 16ab 7cbd
000001f0: fdad adbb 0875 713d e2ef 683c 5964 8bbd
00000200: 0c10 b03b 884f 76bc ff53 b13c 20a1 6a3d
00000210: 511d 093d 213e 60bd 093e b73c 0b84 803e
00000220: c48a 833c ca8b 83bd fe46 2f3d c664 973c
00000230: 1404 41bc edaa 973e 143b d93b e6de 463c
00000240: 03cd 2cbc c5fb fe3c 808c 32bd fe2f 953d
00000250: 9d60 20bd 05ed 7cbd 0a60 22bd 39ce cb3c
00000260: 3e7f ba3d a2a8 2dbd e8c0 6a3c f5a8 ccbc
00000270: 3128 c43b 1d83 9e3c f396 aebc 1fbc d5bc
00000280: 019c 983c ad92 ddbd 1a7f 5bbc 66ae 1a3d
00000290: 1694 7cba 90b6 edba 7b9c 99bd fd29 25bc
000002a0: 937d 423d c37c c3bc 96b8 303d 6f2e 5bbd
000002b0: 03d8 92bd 75b1 01bd f318 ee3c 96d1 a03b
000002c0: c9ba 89bd 3b02 8fbd 15b4 9ebd 86e9 c0bc
000002d0: c139 9b3d bf7d 18bd 050a 223c 17ae cdbc
000002e0: 9599 e9bc 0ee3 cc3c afa0 30bd 77aa 913c
000002f0: 8c74 6dbb fd8e 9cba 63eb 3ebd aa22 7a3c
00000300: 260c dcbc f588 c5bd 0922 0dbc 82f6 c7bc
00000310: 311d 073d dbb9 ab3d f7ca 17bd fcfd 22bd
00000320: aab8 f3bd 17d2 41bd 7230 a4bd 51fc e03a
00000330: 9301 103c bfa8 72bd 9b7c 6c3d 1ab7 37bc
00000340: c4c5 0b3d 1ae2 2bba d170 7ebd 2817 aabc
00000350: 218f 0dbd 2a9b 2b3e 6e6e 05be bcb1 593f
00000360: 6107 733c 847a a63c 4291 ea3c 7297 b8bd
00000370: d3c1 72bd 28ff 8a39 0bc7 6bbd ed98 bb3b
00000380: e502 c53c ea57 c6bd 4a44 74bc b9be 34bd
00000390: 943c 83bc da1f 7bbc 0f00 3abc ae43 443c
000003a0: a6df f63d 2b9f 77bd 9942 6e3b 931b 5abd
000003b0: 5cc7 273c e3f4 6cbd e66a 1b38 24fa 6e3d
000003c0: 83bf 043d dff5 753f aaca 893c 4cf3 8d3d
000003d0: fd9d ef3d f36b 88bc ec68 75bd 3d9e 9ebd
000003e0: 55bb 82bc 67ce 9d3d 830e a2bc 003e e3bc
000003f0: 5b3c cb3c 7b2c b7bd 83a3 6ebc e471 e7bb

p_conv1.bias f4 [4]
-0.23069589 0.24262963 -0.05667024 -0.01710361
00000000: 8b3b 6cbe e773 783e 0e1f 68bd df1c 8cbc

p_fc1.weight f4 [81, 324]
-0.013730808 -0.0084472215 -0.014741277 0.0047642817 -0.04617895 -0.015642742 0.0019095707 -0.0026154527
-0.03380501 -0.006365184 0.023726704 0.0071616643 0.046877116 0.10265353 0.047858402 -0.045027565
0.011388654 -0.00133404 -0.0009214572 0.0061029512 0.051735546 -0.00027852497 0.055730384 0.106673084
0.03249295 0.06718346 0.057779666 0.050522737 0.019451356 0.060036276 0.09949872 0.052305326
0.038929418 0.07746244 0.013539292 -0.0061843717 -0.032622065 0.11574075 0.048664432 0.077726774
0.06315249 -0.0030781936 0.0801041 0.030284626 0.0074796705 -0.043041397 0.002053348 -0.03703894
0.07071215 0.0014011406 0.09752405 0.0728389 0.117682345 0.04355359 -0.020591585 -0.10519019
0.11059229 0.20560321 0.0689233 0.0991608 0.07916754 0.006108557 -0.03908762 -0.042203926
0.07705389 0.26567775 0.038434546 0.08027199 0.022169946 0.007115388 0.043221895 -0.052480564
0.085196145 0.15247086 0.058883645 -0.017201984 -0.04177406 0.006272434 0.064743966 -0.000679013
0.011991064 -0.055570494 -0.01932365 -0.09649229 -0.08471168 -0.05549831 -0.042508893 -0.07402655
-0.045071363 -0.04296659 -0.034319136 -0.09407568 -0.08364806 -0.080270946 -0.036425907 -0.035730753
-0.13555971 -0.077449605 -0.07388314 -0.050886676 -0.058988158 -0.09247694 -0.089395046 -0.09124323
-0.029759133 -0.041049697 -0.08589444 -0.13176505 -0.12289876 -0.001891543 -0.06270488 -0.072431214
-0.07553343 -0.03415116 0.0020815223 -0.050312202 -0.076399855 0.0038153874 -0.07297887 -0.07468686
-0.09308501 -0.058037795 -0.08286323 -0.08844328 -0.08305404 -0.06287195 -0.0124189425 -0.10635149
0.0122845555 -0.024291733 -0.05395442 -0.07769047 -0.07209028 -0.10803889 -0.05448681 -0.065367095
0.11448298 -0.09869078 -0.13114503 -0.00018902842 -0.083950564 -0.08555777 -0.077187575 -0.07466374
-0.43468806 -0.09553966 -0.06915581 -0.021415327 -0.11939375 -0.056305956 -0.055456404 -0.09765881
-0.07764237 -0.04807417 -0.037467666 -0.027338896 -0.09202826 -0.027422834 -0.07655586 -0.022321897
-0.023058327 -0.061705153 -0.027909795 -0.059273403 -0.06202705 0.0118224425 -0.046749618 0.0008154167
-0.022558875 -0.047667127 -0.02971485 0.02326968 0.04077858 -0.01021805 -0.032612596 -0.032127894
0.009404247 0.018676732 -0.09576835 0.05291162 0.0066276733 -0.051561214 0.02585071 0.009943913
-0.024875404 -0.023490094 0.038544 -0.079222314 -0.08588696 -0.06907773 -0.07353025 0.0429268
0.07111428 -0.027869325 -0.053995565 0.016629094 0.02896065 -0.10392363 -0.082362 -0.026495362
0.0064403806 0.016245132 0.0027275614 0.021061894 0.015079422 0.01913939 -0.06035127 -0.052349932
-0.048046496 0.22538936 0.05370219 0.00076352124 -0.016084528 0.05996946 -0.035173446 -0.026973834
-0.094946854 0.32373512 -0.022372458 -0.08024632 -0.08558047 -0.039933342 -0.018010357 -0.017104328
-0.055151206 -0.049467318 -0.09963873 -0.03332703 -0.099549785 -0.0030110308 -0.06999622 -0.0011027276
-0.037741967 -0.061014857 0.0050068214 -0.02792514 -0.059667338 -0.022475239 0.02642246 -0.08297497
-0.046520762 -0.0582395 -0.040563013 -0.0383822 -0.04359737 -0.07583447 -0.06472075 -0.051986236
-0.019578712 -0.052639857 -0.040756118 0.0016895449 -0.02697833 -0.03071784 -0.055588383 -0.06862037
00000000: 2ff7 60bc 3766 0abc 6685 71bc b11d 9c3b
00000010: 2426 3dbd 3525 80bc 8f4a fa3a 0468 2bbb
00000020: 1f77 0abd 0993 d0bb 815e c23c 65ac ea3b
00000030: 3802 403d 043c d23d 2c07 443d d36e 38bd
00000040: 7a97 3a3c f4da aeba f28d 71ba 44fb c73b
00000050: a7e8 533d fd06 92b9 8b45 643d 6b77 da3d
00000060: 5417 053d 7b97 893d 5faa 6c3d eef0 4e3d
00000070: 7358 9f3c 99e8 753d fcc5 cb3d 1c3e 563d
00000080: 7474 1f3d a1a4 9e3d e8d3 5d3c 45a6 cabb
00000090: b79e 05bd 7d09 ed3d 5b54 473d 372f 9f3d
000000a0: 1856 813d 85bb 49bb 9e0d a43d 7717 f83c
000000b0: 0618 f53b 2d4c 30bd 7791 063b 25b6 17bd
000000c0: 88d1 903d 7aa6 b73a b0ba c73d 902c 953d
000000d0: 7103 f13d 4065 323d afaf a8bc f46d d7bd
000000e0: 367e e23d a689 523e a927 8d3d d114 cb3d
000000f0: 9722 a23d 4a2a c83b 571a 20bd 06de 2cbd
00000100: 6ece 9d3d ea06 883e 8b6d 1d3d a465 a43d
00000110: bf9d b53c 3328 e93b 7109 313d dcf5 56bd
00000120: 517b ae3d 5221 1c3e fa2f 713d 2deb 8cbc
00000130: 471b 2bbd fd88 cd3b 7c98 843d cbff 31ba
00000140: 2b76 443c e39d 63bd a24c 9ebc c09d c5bd
00000150: 517d adbd 3252 63bd ce1d 2ebd 3b9b 97bd
00000160: c09c 38bd bcfd 2fbd 3992 0cbd c0aa c0bd
00000170: ad4f abbd 1865 a4bd 5533 15bd 695a 12bd
00000180: 2ad0 0abe e69d 9ebd 0b50 97bd 8c6e 50bd
00000190: 919d 71bd 8d64 bdbd c014 b7bd bbdd babd
000001a0: 6dc9 f3bc ba23 28bd 6de9 afbd 6bed 06be
000001b0: 58b2 fbbd a7ed f7ba 6b6b 80bd d156 94bd
000001c0: 45b1 9abd 16e2 0bbd 266a 083b 2b14 4ebd
000001d0: 8777 9cbd 940b 7a3b f275 95bd 6df5 98bd
000001e0: 5ba3 bebd 0ab9 6dbd 32b4 a9bd c021 b5bd
000001f0: 3d18 aabd 02c3 80bd d278 4bbc cfce d9bd
00000200: 2945 493c 75ff c6bc 4fff 5cbd 2e1c 9fbd
00000210: 12a4 93bd 7e43 ddbd 902d 5fbd 2fdf 85bd
00000220: 0d76 ea3d 641e cabd e24a 06be ee35 46b9
00000230: 46ee abbd ea38 afbd 8514 9ebd 4ee9 98bd
00000240: 6f8f debe 4caa c3bd 90a1 8dbd 326f afbc
00000250: b684 f4bd 13a1 66bd 4126 63bd 5801 c8bd
00000260: f602 9fbd 6ce9 44bd b277 19bd d2f5 dfbc
00000270: 5079 bcbd daa5 e0bc 52c9 9cbd 69dc b6bc
00000280: d1e4 bcbc 8bbe 7cbd 15a3 e4bc abc8 72bd
00000290: 1310 7ebd ebb2 413c 877c 3fbd b0c1 553a
000002a0: 64cd b8bc 9b3e 43bd 8f6c f3bc 0ea0 be3c
000002b0: 7107 273d 9c69 27bc c994 05bd 8a98 03bd
000002c0: 4514 1a3c f2ff 983c 3222 c4bd dbb9 583d
000002d0: f42c d93b da31 53bd dec4 d33c cbeb 223c
000002e0: 81c7 cbbc 4c6e c0bc 50e0 1d3d 4f3f a2bd
000002f0: 81e5 afbd a078 8dbd 0797 96bd 03d4 2f3d
00000300: 5da4 913d 364e e4bc 742a 5dbd bd39 883c
00000310: e33e ed3c ead5 d4bd 69ad a8bd cd0c d9bc
00000320: d409 d33b 8314 853c e3c0 323b fe89 ac3c
00000330: ae0f 773c 36ca 9c3c e532 77bd e26c 56bd
00000340: 67cc 44bd 78cc 663e d4f6 5b3d 0b27 483a
00000350: b3c3 83bc 89a2 753d 0812 10bd 3bf8 dcbc
00000360: 7f73 c2bd 9cc0 a53e 7246 b7bc 2f58 a4bd
00000370: d044 afbd 2591 23bd 758a 93bc 601e 8cbc
00000380: 3be6 61bd 3e9e 4abd 640f ccbd ec81 08bd
00000390: c2e0 cbbd b754 45bb 2e5a 8fbd 6689 90ba
000003a0: 5297 1abd b7ea 79bd 4310 a43b 43c3 e4bc
000003b0: bd65 74bd fe1d b8bc ea73 d83c c8ee a9bd
000003c0: 8e8c 3ebd 8b8c 6ebd 6725 26bd a736 1dbd
000003d0: 2893 32bd 1a4f 9bbd 508c 84bd 85ef 54bd
000003e0: 8963 a0bc e49c 57bd e3ef 26bd b873 dd3a
000003f0: a901 ddbc fba3 fbbc a5b0 63bd d688 8cbd

p_fc1.bias f4 [81]
-0.109984495 -0.045756567 -0.07231026 -0.1006401 -0.122856356 -0.07638704 -0.100264974 -0.071019106
-0.11772285 -0.04653582 -0.08194005 -0.022271765 -0.043319315 0.0046053333 -0.05935583 -0.0056142695
-0.056447666 -0.084840216 -0.03401731 -0.050142545 0.084451936 0.11263677 0.23772904 0.11977339
0.07745509 -0.010499383 -0.069310665 -0.02942569 -0.069057904 0.063866355 0.17014056 0.18436143
0.17099723 0.09391353 -0.080754 -0.07686779 -0.081022345 -0.07248829 0.16375598 0.13055594
0.25630206 0.15401866 0.1865322 0.0283857 -0.09522845 -0.045361217 -0.09865277 0.01077929
0.13616934 0.18471389 0.12091284 0.02708198 -0.076061144 -0.05648197 -0.039759126 -0.07135676
0.050828613 0.009076761 0.19150345 0.025990054 0.061754156 -0.03059727 -0.03848165 -0.035967898
-0.07805813 -0.019277498 -0.10666519 -0.13281825 -0.124807976 0.0134557355 -0.060867403 -0.06947019
-0.119434424 -0.09747426 -0.10955838 -0.09167665 -0.12326608 -0.09298334 -0.0738808 -0.099204965
-0.114627704
00000000: 8d3f e1bd 3d6b 3bbd 6717 94bd 661c cebd
00000010: 1d9c fbbd cf70 9cbd b957 cdbd 7772 91bd
00000020: ad18 f1bd 589c 3ebd 2fd0 a7bd 4773 b6bc
00000030: 986f 31bd 56e8 963b 191f 73bd e8f7 b7bb
00000040: ab35 67bd b5c0 adbd bc55 0bbd 4562 4dbd
00000050: 23f5 ac3d 1bae e63d 3e6f 733e c04b f53d
00000060: c6a0 9e3d 9b05 2cbc c0f2 8dbd 250e f1bc
00000070: 3b6e 8dbd 5dcc 823d 5439 2e3e 3ec9 3c3e
00000080: e619 2f3e bd55 c03d 5a62 a5bd dc6c 9dbd
00000090: 0bef a5bd be74 94bd a6af 273e 75b0 053e
000000a0: 063a 833e 11b7 1d3e 4c02 3f3e 2189 e83c
000000b0: 2207 c3bd afcc 39bd 770a cabd 9f9b 303c
000000c0: fa6f 0b3e a325 3d3e 27a1 f73d 07db dd3c
000000d0: f2c5 9bbd a359 67bd 77da 22bd 7e23 92bd
000000e0: aa31 503d b2b6 143c 7b19 443e 18e9 d43c
000000f0: edf1 7c3d 20a7 fabc ef9e 1dbd 1353 13bd
00000100: f1dc 9fbd d8eb 9dbc 4773 dabd 8201 08be
00000110: 539b ffbd 7275 5c3c 1950 79bd 6346 8ebd
00000120: 099a f4bd 96a0 c7bd 2560 e0bd f8c0 bbbd
00000130: ed72 fcbd 0d6e bebd d14e 97bd f92b cbbd
00000140: eec1 eabd

value_conv1.weight f4 [2, 128, 1, 1]
0.30954453 0.3162904 0.37097675 -0.59603643 0.26462263 0.27154922 -0.52311134 0.10936495
0.11145596 -0.10650491 -0.7331169 0.2518228 0.18688162 0.035397634 0.077695735 -0.27272683
-0.21830475 -0.35997337 -0.049235377 -0.4662064 -0.70909005 -0.70389533 0.02699839 -0.7947911
0.28564638 -0.26346323 0.106751345 -0.5678532 -0.20419902 -0.7487074 0.16003813 0.25028506
-0.5131727 0.037099894 0.1646936 0.26161322 -0.006319368 -0.2748868 -0.43695247 0.20491856
0.1962587 0.29314932 -0.69352496 -0.05674213 -0.7433028 -0.6015019 -0.22778888 0.2834131
-0.017569833 0.33402488 0.27084735 0.2537126 0.31152785 0.12724195 -0.48471153 -0.56791115
-0.5812983 -0.0052127307 0.1603082 -0.40176502 0.31888995 0.21804316 0.09145212 -0.07032054
0.17479843 0.026015008 -0.19269636 0.11395801 -0.02780466 0.059813235 -0.024072312 -0.068642855
0.033192027 0.09938507 0.0895019 -0.51603496 0.1220646 0.29797658 -0.8321459 -0.7251256
-0.322025 -0.2777031 0.23152493 0.37464455 -0.5548939 0.14899717 -0.036503185 0.06649636
0.037488155 -0.5561487 0.335154 0.18674326 0.28598812 0.3520402 -0.13515659 0.38619846
-0.56462955 -0.6949115 -0.6230501 -0.45773074 0.094237305 -0.6632898 0.30727267 -0.2594771
0.46936333 -0.028160185 -0.48570865 0.14943103 -0.20852102 0.47880566 -0.64560056 -0.014710974
0.32258192 -0.11468719 0.41716668 0.14558552 0.42950895 -0.5031678 0.2124688 -0.06168177
0.08860358 0.30638364 -0.4460543 -0.81282914 -0.855181 -0.6320366 0.3067545 -0.6987297
0.23360142 0.33939806 -0.7299394 0.07554249 -0.72377354 0.12070448 -0.063064866 -0.054065727
0.10860302 0.053854134 0.12870874 0.15905978 0.10772064 -0.030533738 -0.7937063 -0.8191751
-0.6777747 -0.07885507 -0.681474 -0.31839374 -0.34657064 0.22208194 -0.7085255 0.049718063
0.24511361 0.539076 -0.71433955 -0.003773914 -0.7828948 0.1794469 0.15573834 0.22491275
0.0067492956 0.15775412 -0.39470088 0.27892667 -0.53470874 -0.61177915 -0.14980249 0.25542533
-0.81010175 0.1868561 0.068178974 -0.5714731 -0.6048793 -0.1832584 -0.46837926 -0.54557407
0.06998449 -0.48484638 0.22906835 0.22016023 -0.37315556 -0.9921037 0.23614943 0.29278362
0.17550088 -0.8069778 -0.5186778 0.31587875 -1.0484145 0.22734746 -0.41715422 -0.5154313
-0.6885216 -0.040434103 -0.5599698 -0.65584326 0.09115773 0.11336335 -0.48884484 -0.5684277
-0.8971922 0.1420718 0.10917516 0.1823394 -0.73374474 0.55434686 -0.0034522864 -0.034221362
-0.30295128 -0.5973477 0.20125552 0.30829757 0.22874777 0.20884825 -1.069197 -0.3344407
-0.8168772 0.1722228 -0.1583305 -0.7148684 -0.18656223 0.31613442 -0.026713802 -0.25516897
0.016452964 0.2521993 -0.10595397 0.13759558 0.362901 0.09487399 -0.49697334 -0.570355
0.5024567 -0.6728982 0.39750332 0.1671314 -0.30581173 0.17250007 0.03528188 -0.730178
0.22040936 -0.0015713773 -0.6403906 0.41548216 -0.5323266 0.12965961 -0.7636414 -0.64493316
-0.39399904 -0.6133793 0.03544667 0.09422977 -0.009593839 0.16292582 -0.6195938 0.056655426
00000000: 9f7c 9e3e d1f0 a13e aaf0 bd3e d895 18bf
00000010: 9e7c 873e 8008 8b3e a0ea 05bf bbfa df3d
00000020: 0643 e43d 3f1f dabd 8dad 3bbf ebee 803e
00000030: e55d 3f3e 1cfd 103d f11e 9f3d daa2 8bbe
00000040: 488b 5fbe 6e4e b8be 09ab 49bd 9bb2 eebe
00000050: ed86 35bf 7c32 34bf ba2b dd3c 6e77 4bbf
00000060: 3e40 923e a7e4 86be 73a0 da3d d45e 11bf
00000070: 8c19 51be 4aab 3fbf 09e1 233e 5d25 803e
00000080: 495f 03bf 0ff6 173d 70a5 283e 2bf2 853e
00000090: b312 cfbb f6bd 8cbe 3cb8 dfbe 2cd6 513e
000000a0: 0af8 483e ab17 963e da8a 31bf 706a 68bd
000000b0: 1849 3ebf 07fc 19bf 7d41 69be 861b 913e
000000c0: 9cee 8fbc 4f05 ab3e 81ac 8a3e 9ee6 813e
000000d0: 9480 9f3e b74b 023e 1c2c f8be a062 11bf
000000e0: f7cf 14bf 8ecf aabb d527 243e 25b4 cdbe
000000f0: 8b45 a33e b546 5f3e 404b bb3d 3704 90bd
00000100: 5cfe 323e 6d1d d53c 3252 45be d162 e93d
00000110: 99c6 e3bc b9fe 743d 4c33 c5bc a094 8cbd
00000120: 5df4 073d 668a cb3d c64c b73d de1a 04bf
00000130: 01fd f93d 6390 983e 8407 55bf d5a1 39bf
00000140: 76e0 a4be 1a2f 8ebe df14 6d3e 69d1 bf3e
00000150: 870d 0ebf b792 183e 5d84 15bd 3e2f 883d
00000160: 2e8d 193d c35f 0ebf 4e99 ab3e a039 3f3e
00000170: 096d 923e 9d3e b43e 7d66 0abe cebb c53e
00000180: 908b 10bf b8e5 31bf 3680 1fbf af5b eabe
00000190: 7dff c03d 5ccd 29bf d852 9d3e 2fda 84be
000001a0: 6450 f03e 30b0 e6bc ceae f8be 7304 193e
000001b0: 8986 55be 0426 f53e 1446 25bf 4c06 71bc
000001c0: 7529 a53e 1ee1 eabd df96 d53e 5f14 153e
000001d0: 99e8 db3e 9bcf 00bf 6c91 593e 06a6 7cbd
000001e0: cb75 b53d 51de 9c3e 3b61 e4be 9215 50bf
000001f0: 24ed 5abf 27cd 21bf ed0e 9d3e f3df 32bf
00000200: 3635 6f3e 95c5 ad3e 4fdd 3abf 05b6 9a3d
00000210: 3949 39bf e933 f73d 2728 81bd 0674 5dbd
00000220: 436b de3d 2796 5c3d 39cc 033e 91e0 223e
00000230: a49c dc3d e421 fabc 5630 4bbf 76b5 51bf
00000240: a582 2dbf c47e a1bd 1475 2ebf 8104 a3be
00000250: b571 b1be 7369 633e ed61 35bf 2ba5 4b3d
00000260: 10ff 7a3e e200 0a3f f5de 36bf c553 77bb
00000270: cb6b 48bf eec0 373e df79 1f3e 874f 663e
00000280: 3229 dd3b 4c8a 213e 3c16 cabe 7acf 8e3e
00000290: ace2 08bf 8f9d 1cbf d365 19be 1cc7 823e
000002a0: d462 4fbf 3557 3f3e 6ba1 8b3d 104c 12bf
000002b0: 5fd9 1abf 17a8 3bbe 68cf efbe beaa 0bbf
000002c0: 0754 8f3d c93d f8be e590 6a3e af71 613e
000002d0: 3f0e bfbe 82fa 7dbf 28d1 713e bce7 953e
000002e0: 81b6 333e 1996 4ebf 11c8 04bf dcba a13e
000002f0: 7232 86bf c6cd 683e 3d95 d5be 4ef3 03bf
00000300: f442 30bf 3b9e 25bd 2e5a 0fbf 58e5 27bf
00000310: e7b0 ba3d 0b2b e83d df49 fabe 7a84 11bf
00000320: 63ae 65bf 457b 113e 3a97 df3d 2eb7 3a3e
00000330: b2d6 3bbf ade9 0d3f c13f 62bb b32b 0cbd
00000340: 6e1c 9bbe c7eb 18bf ed15 4e3e 2ed9 9d3e
00000350: db3c 6a3e 51dc 553e 73db 88bf d03b abbe
00000360: dd1e 51bf 2c5b 303e 6421 22be 9e01 37bf
00000370: 2b0a 3fbe 5fdc a13e e7d6 dabc 82a5 82be
00000380: 5ec8 863c 4420 813e 65fe d8bd dbe5 0c3e
00000390: 29ce b93e 4b4d c23d 4a73 febe c902 12bf
000003a0: 01a1 003f 0e43 2cbf 8e85 cb3e 7e24 2b3e
000003b0: 5b93 9cbe dca3 303e bc83 103d f2ec 3abf
000003c0: feb2 613e acf6 cdba a3f0 23bf 14ba d43e
000003d0: 8e46 08bf 7dc5 043e 017e 43bf 571a 25bf
000003e0: 3eba c9be 6d06 1dbf 8730 113d 8afb c03d
000003f0: 7a2f 1dbc 07d6 263e b39d 1ebf 850f 683d

value_conv1.bias f4 [2]
0.09656025 0.20268063
00000000: 61c1 c53d 838b 4f3e
