model/cnn/8x8/4aw/8.pt (torch_old, 478657 bytes, 15 tensors)

conv1.weight f4 [32, 4, 3, 3]
-0.06467945 -0.07605486 -0.066926554 0.43088403 -0.045633134 -0.4742623 -0.007488718 0.010531088
0.08434246 -0.18501577 -0.034733064 -0.0011634647 0.4126924 0.0970959 -0.46578494 -0.09616782
0.12276965 0.19839443 -0.00025468273 0.0053165946 -0.0071828715 0.0038885965 0.09024184 0.050386097
-0.07780579 0.17611146 0.15670608 -0.21755044 -0.26216727 -0.16914974 0.0061728116 -0.016250353
0.16815943 -0.018483954 -0.03499709 0.11038002 0.9116483 0.017324526 0.043066457 -0.022178665
0.103259 -0.04686613 0.01221209 -0.11551728 -0.09660444 -0.37574616 0.18354513 -0.14294198
0.0844531 0.34917828 0.014366813 0.08442871 0.024447922 0.16248131 -0.040136524 -0.054431587
-0.09839069 -0.0757364 -0.042573944 0.012754678 -0.062042557 0.08221421 0.08837583 -0.046787042
0.0066100108 0.06149242 -0.089117914 0.05655057 -0.0299559 -0.011869555 0.049011603 0.072907
-0.027975362 0.59274745 -0.0024383683 -0.12191844 -0.2470379 -0.08158974 0.034557145 0.27233458
0.083804935 -0.22405855 0.06902818 -0.19893296 0.37412322 0.056105852 0.3574294 -0.17458193
-0.05726947 -0.08065547 0.03888368 0.120356634 0.121871375 0.41168153 0.12978737 0.18040973
0.104813516 0.07692346 0.016325485 -0.08793801 0.14503299 -0.13284814 0.08918389 0.10823578
-0.16787714 -0.04601569 0.06555413 -0.085238144 -0.0030521057 0.10078697 0.027593711 0.15126331
0.9126385 -0.022949187 0.51874113 0.35096464 0.095387205 0.12256841 0.09618209 0.052207813
0.00331223 0.1749256 0.023552977 -0.20414811 0.04560048 0.16001585 0.05890273 -0.084264204
0.19220556 -0.06953813 -0.11010713 0.007665759 0.05110238 -0.10065357 -0.07431016 -0.009731264
-0.060563713 -0.1328089 0.07260443 0.097374715 0.102980524 0.007999494 0.064997815 -0.00790169
-0.09114068 -0.10888825 -0.05845131 -0.07924653 -0.069593914 -0.092470616 -0.12499337 0.45735416
-0.2453957 0.030626953 -0.05187293 -0.014231947 0.029602228 0.07710866 0.050072465 0.049235284
-0.0055162795 0.0070100534 0.1542821 0.021826353 -0.04743496 -0.03889863 -0.00019428 -0.058327556
-0.087398686 -0.11608019 -0.017383855 -0.2460179 0.1241703 0.18443222 -0.35965833 0.08223596
0.09191951 -0.26440957 0.13350579 0.07147534 0.17116798 -0.09804548 0.013754739 -0.08186721
0.14985171 -0.043364625 0.021828292 0.036412332 -0.054760948 -0.10916707 -0.1376076 0.008395566
-0.16497889 0.1629209 -0.17506726 0.043851525 0.04542001 0.46879646 -0.23759054 0.019394519
-0.17218222 -0.08623746 -0.16958985 -0.06348055 -0.17712107 0.012581063 -0.29074603 -0.26361135
-0.29159576 -0.52351475 0.31706536 0.19501282 -0.14385362 0.2889416 0.20573296 -0.007937203
-0.23523138 -0.17150298 -0.004973775 0.011022863 0.19011098 -0.17297521 0.003983618 -0.03410133
0.064327 -0.11599985 -0.06162466 -0.07889827 0.43499628 -0.040990237 -0.1441194 -0.057657942
-0.106570765 -0.10502281 0.027698873 -0.06226563 0.012121975 -0.12152578 0.083185464 0.03898275
-0.0046594543 -0.011209898 0.0019991798 0.017564978 0.07768186 0.08359074 -0.041343853 -0.045690164
0.061347846 -0.014960511 0.0030120765 0.04011259 0.15328982 -0.053141985 0.43845108 -0.0086495895
00000000: a976 84bd a7c2 9bbd ca10 89bd d59c dc3e
00000010: cfe9 3abd 82d2 f2be eb63 f5bb 968a 2c3c
00000020: bdbb ac3d c674 3dbe 4244 0ebd 667f 98ba
00000030: 6b4c d33e 37da c63d 5d7b eebe a2f3 c4bd
00000040: a76e fb3d e927 4b3e f086 85b9 d436 ae3b
00000050: 4b5e ebbb d3d7 7e3b b7d0 b83d a761 4e3d
00000060: a458 9fbd 9056 343e 8f77 203e 8bc5 5ebe
00000070: ca3a 86be 9735 2dbe 4c45 ca3b 761f 85bc
00000080: fc31 2c3e a96b 97bc 1c59 0fbd ec0e e23d
00000090: c861 693f 2aec 8d3c 7466 303d 08b0 b5bc
000000a0: 7479 d33d b3f6 3fbd 3815 483c 5394 ecbd
000000b0: 8cd8 c5bd cd61 c0be 41f3 3b3e 625f 12be
000000c0: bff5 ac3d 7fc7 b23e c862 6b3c f6e8 ac3d
000000d0: 0247 c83c 8061 263e 3266 24bd a8f3 5ebd
000000e0: 0f81 c9bd b01b 9bbd 0462 2ebd fff8 503c
000000f0: 5620 7ebd ec5f a83d 63fe b43d c5a3 3fbd
00000100: ca98 d83b 7adf 7b3d 7483 b6bd 92a1 673d
00000110: 1366 f5bc 8678 42bc 64c0 483d 4450 953d
00000120: 962c e5bc 4cbe 173f 08cd 1fbb 60b0 f9bd
00000130: 81f7 7cbe 8618 a7bd cb8b 0d3d 706f 8b3e
00000140: eca1 ab3d 9b6f 65be a55e 8d3d 15b5 4bbe
00000150: 148d bf3e 40cf 653d fc00 b73e 9bc5 32be
00000160: 6493 6abd b22e a5bd 7e44 1f3d 8a7d f63d
00000170: b397 f93d ecc7 d23e fbe6 043e 54bd 383e
00000180: 78a8 d63d 0c8a 9d3d 06bd 853c d818 b4bd
00000190: 8783 143e 5809 08be 0ba6 b63d b8aa dd3d
000001a0: fce7 2bbe f37a 3cbd 3e41 863d 5691 aebd
000001b0: d605 48bb 6669 ce3d 350c e23c c5e4 1a3e
000001c0: ada2 693f efff bbbc 38cc 043f a3b1 b33e
000001d0: 5e5a c33d 2605 fb3d 1efb c43d dcd7 553d
000001e0: 0012 593b b21f 333e 2cf2 c03c 340c 51be
000001f0: 92c7 3a3d 32db 233e fd43 713d b692 acbd
00000200: 89d1 443e 026a 8ebd d97f e1bd 0c31 fb3b
00000210: bb50 513d 7523 cebd ed2f 98bd e16f 1fbc
00000220: a811 78bd 0eff 07be a2b1 943d 656c c73d
00000230: 74e7 d23d 4f10 033c 931d 853d 1776 01bc
00000240: f7a7 babd ce00 dfbd a46a 6fbd 014c a2bd
00000250: 4187 8ebd 3c61 bdbd 86fc ffbd 532a ea3e
00000260: 0349 7bbe 60e5 fa3c b678 54bd 1d2d 69bc
00000270: 5f80 f23c 25eb 9d3d c918 4d3d f0aa 493d
00000280: e8c1 b4bb 97b4 e53b 20fc 1d3e 2ecd b23c
00000290: 294b 42bd 2b54 1fbd a4b7 4bb9 e0e8 6ebd
000002a0: 15fe b2bd 73bb edbd 9668 8ebc 1eec 7bbe
000002b0: 004d fe3d cddb 3c3e 2325 b8be 546b a83d
000002c0: 4c40 bc3d b160 87be beb5 083e aa61 923d
000002d0: a946 2f3e 12cc c8bd 8f5b 613c ffa9 a7bd
000002e0: ba72 193e 1b9f 31bd 3fd1 b23c 1925 153d
000002f0: 044d 60bd fc92 dfbd 02e9 0cbe 8e8d 093c
00000300: 3af0 28be bdd4 263e d544 33be a89d 333d
00000310: 550a 3a3d 1706 f03e ef4a 73be 41e1 9e3c
00000320: 8950 30be 449d b0bd f6a8 2dbe 1702 82bd
00000330: 3a5f 35be ce20 4e3c aadc 94be 11f8 86be
00000340: 0a4c 95be 1005 06bf 6456 a23e 71b1 473e
00000350: 5d4e 13be 27f0 933e a9ab 523e 0b0b 02bc
00000360: 7fe0 70be 7a9e 2fbe 0cfb a2bb 3d99 343c
00000370: 74ac 423e 6a20 31be 0389 823b d6ad 0bbd
00000380: e0bd 833d 5491 edbd 246a 7cbd 6b95 a1bd
00000390: d5b7 de3e 61e5 27bd 0994 13be bc2a 6cbd
000003a0: c641 dabd 3316 d7bd bfe8 e23c 3f0a 7fbd
000003b0: 409b 463c 82e2 f8bd 245d aa3d 60ac 1f3d
000003c0: 56ae 98bb b8a9 37bc ac04 033b 6ee4 8f3c
000003d0: ab17 9f3d 9f31 ab3d 2c58 29bd 9c25 3bbd
000003e0: e147 7b3d ee1c 75bc 4266 453b 194d 243d
000003f0: 02f8 1c3e 69ab 59bd a97c e03e 02b7 0dbc

conv1.bias f4 [32]
-0.007634773 -0.14079808 -0.22040044 -0.24578999 0.024281697 0.07459115 -0.28195348 -0.07459767
0.012681385 0.1999561 -0.11219151 -0.27694553 -0.29974037 -0.40994486 -0.1128183 -0.18732737
-0.043198947 -0.1136122 -0.052546483 0.15226488 0.017868347 0.6741882 -0.21984662 -0.3390921
0.07103966 -0.10045171 -0.14210567 -0.2539647 -0.06785838 -0.1437392 -0.13853756 -0.12702972
00000000: 1e2d fabb 5f2d 10be a7b0 61be 5fb0 7bbe
00000010: 69ea c63c 3fc3 983d 355c 90be aac6 98bd
00000020: 95c5 4f3c 4bc1 4c3e aac4 e5bd cecb 8dbe
00000030: 9277 99be 4be4 d1be 480d e7bd bfd2 3fbe
00000040: 61f1 30bd 83ad e8bd fb3a 57bd 53eb 1b3e
00000050: a460 923c 9997 2c3f 791f 61be 7b9d adbe
00000060: 3e7d 913d a0b9 cdbd 2684 11be a907 82be
00000070: 56f9 8abd 5e30 13be cadc 0dbe 1414 02be

conv2.weight f4 [64, 32, 3, 3]
-0.09750049 0.027034875 -0.030244742 0.019458419 -0.033882186 -0.016993133 -0.027485924 -0.021875784
0.047101956 -0.016263654 -0.11343717 0.08766583 0.016326956 -0.090776935 0.009232506 0.022033626
-0.062374108 -0.047952898 -0.07598814 0.03990475 0.011900942 -0.016998736 -0.07350107 0.029074056
-0.018127942 0.0035528268 -0.112095825 -0.020950306 -0.018855236 0.011055616 -0.051030885 -0.04623053
-0.08013546 -0.075377785 0.00036515426 -0.055367734 -0.008208523 -0.0033115346 -0.057630107 -0.044172708
-0.030392155 -0.045425035 0.024855847 -0.015062212 -0.01143251 0.022416381 -0.10146511 0.01878626
-0.059575226 -0.038197994 -0.07065964 0.05316102 -0.04063333 0.060081225 0.018570913 0.06231587
0.017821185 0.04259715 0.027295364 -0.015480142 0.08832058 -0.005012966 0.05249148 0.13337545
-0.06802726 -0.030795243 -0.021171771 -0.029572543 -0.025480598 -0.025163047 -0.029024106 -0.09511762
-0.0051143826 -0.03205176 -0.03661837 0.018399393 -0.039675504 0.05440484 0.022602158 0.017043594
-0.0015222956 0.037379928 -0.056304004 0.07491426 0.020093886 0.0077131568 -0.055982705 -0.0023207602
-0.056694437 -0.039385483 -0.05877609 0.14593968 0.021673728 -0.047126263 0.03721716 0.083610795
-0.04068543 0.054093264 -0.06003685 0.029835239 -0.09712025 -0.12264295 -0.09619127 0.008849958
-0.017081438 0.055369694 -0.027115127 0.00739664 -0.046543967 -0.051365677 0.010318429 0.08540844
-0.07010695 -0.018387657 -0.032702908 -0.046533078 -0.069169015 -0.00943993 -0.026717853 0.03389361
0.04488704 -0.04878133 0.024072811 0.02857007 -0.0068250187 -0.035479866 0.061310202 -0.0706921
0.023539437 -0.031387076 0.049734995 -0.04070876 -0.032213844 -0.100501545 -0.065514825 -0.0834953
-0.033949725 0.023618022 0.026981525 -0.05549753 -0.036969613 0.027701724 0.09700792 0.13226199
0.07934385 -0.08254295 -0.13593577 -0.08825369 -0.029107599 -0.04259429 0.040405497 -0.062890545
0.014623196 0.028325032 -0.12706433 -0.049639706 -0.07806681 0.004584402 -0.05891286 0.036916405
0.01952185 0.014938712 -0.04050894 -0.116500996 -0.017787743 -0.13812327 -0.05362332 -0.094951026
-0.10414393 -0.13171323 -0.1271305 0.08855084 -0.05590679 -0.041897546 -0.03851172 0.07114458
-0.06957162 0.026983969 0.008205374 0.017669758 -0.08524753 0.05683623 -0.010784266 -0.02682414
-0.13254313 0.020998366 0.01723528 -0.022591218 -0.038919277 0.08184604 0.00821649 -0.026487425
0.021430783 0.012666013 -0.059193183 0.07703209 0.017066434 -0.036783192 -0.055544037 -0.053142358
-0.030760061 -0.10000987 -0.082594104 -0.037521586 -0.026330668 -0.040448423 0.0033972245 0.10322989
-0.066342995 -0.0013850376 -0.036085278 0.022580868 -0.06476702 0.010523214 -0.0889652 -0.02970558
-0.053605497 0.12014056 -0.016745595 0.034803502 -0.087748535 -0.026585996 -0.06967541 -0.0135453325
-0.043411575 0.096186206 -0.045065455 -0.028352605 -0.049031693 0.031335752 -0.083882734 0.012723464
-0.024821172 0.046346948 -0.01776905 -0.061575986 -0.06035879 -0.07124153 -0.031655535 -0.13935253
-0.035501346 -0.06268655 0.03148037 -0.03129398 -0.07069457 0.2141178 0.047947858 -0.037592083
0.009141296 0.037346356 -0.034984488 0.016671207 -0.11023791 0.07271829 -0.03241153 -0.046831585
00000000: 56ae c7bd 3e78 dd3c d2c3 f7bc 4367 9f3c
00000010: 0cc8 0abd 2f35 8bbc 292a e1bc d834 b3bc
00000020: fbed 403d 5b3b 85bc bf51 e8bd 258a b33d
00000030: 1cc0 853c 42e9 b9bd f043 173c dd7f b43c
00000040: fe7b 7fbd 426a 44bd ac9f 9bbd 2a73 233d
00000050: 2bfc 423c ef40 8bbc bb87 96bd b72c ee3c
00000060: 0d81 94bc 8bd6 683b 7f92 e5bd fa9f abbc
00000070: 4c76 9abc 9d22 353c c305 51bd 395c 3dbd
00000080: 0f1e a4bd ab5f 9abd 2d72 bf39 47c9 62bd
00000090: 0a7d 06bc 5506 59bb 8c0d 6cbd 71ee 34bd
000000a0: f8f8 f8bc 9a0f 3abd 7d9e cb3c 7fc7 76bc
000000b0: 6c4f 3bbc 8fa2 b73c f1cc cfbd a5e5 993c
000000c0: 2705 74bd 8075 1cbd 00b6 90bd 5fbf 593d
000000d0: 226f 26bd bb17 763d 0722 983c ed3e 7f3d
000000e0: bcfd 913c 597a 2e3d 879a df3c 6ca0 7dbc
000000f0: 6ce1 b43d cf43 a4bb 4e01 573d 9393 083e
00000100: e051 8bbd 4e46 fcbc 6c70 adbc 1e42 f2bc
00000110: b0bc d0bc bc22 cebc f6c3 edbc 07cd c2bd
00000120: 8d96 a7bb b548 03bd 25fd 15bd 53ba 963c
00000130: c882 22bd 9cd7 5e3d 2928 b93c 029f 8b3c
00000140: c487 c7ba b21b 193d 079f 66bd a66c 993d
00000150: ef9b a43c a6be fc3b 1f4e 65bd e517 18bb
00000160: 6d38 68bd ac52 21bd 33bf 70bd 3671 153e
00000170: 1a8d b13c 7807 41bd 0571 183d 233c ab3d
00000180: c4a5 26bd e690 5d3d 33e9 75bd 0869 f43c
00000190: fbe6 c6bd 3a2c fbbd eeff c4bd 6aff 103c
000001a0: 5fee 8bbc 55cb 623d 8b20 debc 835f f23b
000001b0: e3a4 3ebd d164 52bd a10e 293c 9fea ae3d
000001c0: 3c94 8fbd b6a1 96bc 7cf3 05bd 7899 3ebd
000001d0: 7ca8 8dbd f0a9 1abc 66df dabc 07d4 0a3d
000001e0: 79db 373d efce 47bd 5834 c53c c80b ea3c
000001f0: 68a4 dfbb 5653 11bd 6820 7b3d 05c7 90bd
00000200: c7d5 c03c bc8f 00bd ecb6 4b3d 3bbe 26bd
00000210: aaf2 03bd c1d3 cdbd a32c 86bd 95ff aabd
00000220: de0e 0bbd 957a c13c 5c08 dd3c 6151 63bd
00000230: 736d 17bd baee e23c 17ac c63d b06f 073e
00000240: 077f a23d 470c a9bd bf32 0bbe 5abe b4bd
00000250: 0f73 eebc 5a77 2ebd 3c80 253d c2cc 80bd
00000260: 2196 6f3c e609 e83c 271d 02be 0153 4bbd
00000270: 7ee1 9fbd c038 963b 9c4e 71bd a835 173d
00000280: 49ec 9f3c 80c1 743c b4ec 25bd 1398 eebd
00000290: 9ab7 91bc 3070 0dbe 20a4 5bbd af75 c2bd
000002a0: 6a49 d5bd d5df 06be 7f2e 02be 255a b53d
000002b0: 85fe 64bd c39c 2bbd 77be 1dbd 40b4 913d
000002c0: 917b 8ebd 7c0d dd3c d56f 063c 2bc0 903c
000002d0: 4296 aebd 1bcd 683d 7db0 30bc 4dbe dbbc
000002e0: 63b9 07be c404 ac3c 0031 8d3c 3811 b9bc
000002f0: d269 1fbd e69e a73d 759e 063c 28fc d8bc
00000300: 9c8f af3c 1c85 4f3c 8d74 72bd 00c3 9d3d
00000310: e8ce 8b3c f9a9 16bd 2582 63bd cdab 59bd
00000320: 86fc fbbc fad1 ccbd 1927 a9bd 3cb0 19bd
00000330: 6ab3 d7bc 3fad 25bd f8a3 5e3b 316a d33d
00000340: d6de 87bd 268a b5ba 28ce 13bd 83fb b83c
00000350: 92a4 84bd 8f69 2c3c 6333 b6bd 1e59 f3bc
00000360: 7091 5bbd 410c f63d 0f2e 89bc 1e8e 0e3d
00000370: 81b5 b3bd e0ca d9bc fbb1 8ebd 3eed 5dbc
00000380: 56d0 31bd 46fd c43d 8e96 38bd b943 e8bc
00000390: 75d5 48bd eb59 003d b6ca abbd 1376 503c
000003a0: c555 cbbc 4cd6 3d3d 6690 91bc 1a37 7cbd
000003b0: c73a 77bd 14e7 91bd 3ca9 01bd 6eb2 0ebe
000003c0: dc69 11bd ce61 80bd 8ff1 003d 1e2e 00bd
000003d0: 51c8 90bd b241 5b3e f964 443d 28fa 19bd
000003e0: 60c5 153c 7ef8 183d e54b 0fbd 0e92 883c
000003f0: 6ac4 e1bd 54ed 943d f4c1 04bd 7ad2 3fbd

conv2.bias f4 [64]
-0.097395636 -0.0007781845 -0.07257515 -0.11757821 -0.40896207 -0.08672684 -0.028853597 -0.0015882599
-0.15744287 -0.08628692 -0.114823066 -0.26465037 -0.2820395 -0.1450024 -0.06337145 -0.12190258
-0.7265928 0.037667066 -0.10949972 -0.15211575 0.002556867 -0.0019484196 -0.33219716 0.06754849
0.0016056736 -0.14006747 -0.1519059 -0.028975898 -0.055689745 -0.11504758 -0.029045831 -0.44265625
-0.1152488 -0.06511297 -0.027002947 -0.082695924 -0.6759318 -0.6701336 -0.046849106 -0.014524063
-0.44607875 -0.62516737 -0.009051855 -0.072589785 -0.1834725 -0.08137342 -0.035604514 -0.6393511
-0.06406524 -0.09161827 -0.18784858 -0.0034197308 -0.10064583 -0.06568758 -0.10077641 -0.030784067
-0.38199073 -0.0735794 -0.09187302 -0.10274101 -0.63002336 -0.08055334 -0.17539656 -0.0930904
00000000: 5d77 c7bd 14ff 4bba 48a2 94bd d8cc f0bd
00000010: 7a63 d1be d79d b1bd 615e ecbc 292d d0ba
00000020: b438 21be 32b7 b0bd 5b28 ebbd 4180 87be
00000030: 7b67 90be 827b 14be e4c8 81bd 0fa8 f9bd
00000040: fc01 3abf c848 1a3d 6441 e0bd 3bc4 1bbe
00000050: 1c91 273b 1d62 ffba bf15 aabe dd56 8a3d
00000060: 7775 d23a d96d 0fbe 388d 1bbe dd5e edbc
00000070: ee1a 64bd 119e ebbd 86f1 edbc d7a3 e2be
00000080: 9007 ecbd f359 85bd 4935 ddbc 7b5c a9bd
00000090: de09 2dbf e08d 2bbf d9e4 3fbd 56f6 6dbc
000000a0: 6f64 e4be f80a 20bf 3b4e 14bc f4a9 94bd
000000b0: 37e0 3bbe 1ca7 a6bd 0ad6 11bd 84ac 23bf
000000c0: a334 83bd 5ca2 bbbd 615b 40be 901d 60bb
000000d0: 671f cebd 3687 86bd dd63 cebd de2e fcbc
000000e0: 4a94 c3be ccb0 96bd ec27 bcbd e169 d2bd
000000f0: 3649 21bf 26f9 a4bd 289b 33be 2ea6 bebd

conv3.weight f4 [128, 64, 3, 3]
-0.042632114 -0.013735222 0.018419672 -0.01245776 0.03521729 0.015357327 -0.021499421 0.066051185
0.019825073 0.016437888 0.035279274 -0.03318933 0.030363899 0.019727338 -0.05569791 0.04720246
0.06182783 -0.009770133 -0.0025002477 0.051773127 0.017953405 -0.065075375 0.0004985358 -0.01765836
-0.04773235 0.024971575 0.02298284 0.028745433 -0.0071679507 -0.025940955 0.027460959 -0.0075556347
0.010075708 0.012751432 0.004143877 -0.029558584 -0.024417274 0.024264859 -0.036154788 -0.113070704
0.055372283 -0.059611388 -0.06238994 0.07592716 -0.06457205 0.0067936922 -0.052481007 -0.009391727
-0.035542373 -0.029323861 -0.09388891 0.06743125 -0.062578656 -0.06574653 -0.011118518 0.04800074
-0.019637108 0.021146758 0.051839974 0.005235989 0.00051908125 0.056032043 0.01149467 0.028684806
0.015375098 0.0054046223 0.021419011 0.019908423 0.02053475 -0.018798152 -0.006002681 -0.023003947
0.033255946 -0.11543551 -0.067789614 0.03793626 -0.050100055 -0.12669994 0.059553333 -0.06300954
-0.06647379 0.055443928 0.02635768 0.01653528 0.047346953 0.04946973 -0.0039176876 -0.021030802
0.056196652 -0.077337496 0.025573123 -0.016018169 0.03970103 0.0043426347 -0.00970549 0.008932316
-0.04696032 -0.015914708 -0.020530473 -0.00086753874 0.033673383 -0.030608585 -0.044404466 0.011404587
-0.027023047 -0.043759014 0.009885013 -0.07150242 0.120415084 -0.06281713 -0.033955112 -0.06504586
0.025800161 -0.046405014 -0.013624686 -0.045237448 0.09006919 -0.0392511 0.063125044 -0.027112162
0.0070828316 -0.044777587 0.065022856 0.023545578 -0.024632355 -0.03890921 -1.6971013e-12 -9.453817e-12
2.6977582e-12 -8.604685e-12 -7.917705e-12 -1.7836317e-11 -1.0102687e-12 -2.1354214e-11 8.898224e-12 0.019760014
0.021250237 -0.02864514 0.03666891 0.033312745 -0.0035434105 0.029854618 -0.047187645 -0.0011605461
-0.033683073 0.12784062 -0.06413307 -0.056880478 0.04451423 0.07426769 -0.061157174 0.053995445
0.0039181914 0.00057703326 -0.01639176 -0.060282446 0.001790197 -0.054072533 -0.044687666 -0.03284186
-0.01992489 -0.084587604 -0.059471603 0.017909875 0.010522869 0.067654386 0.02043503 -0.022838354
-0.07382989 -0.011593593 -0.05583114 0.029859016 -0.011620494 0.01833478 -0.068079785 0.075351186
-0.024730729 -0.015093187 0.0330662 -0.026354793 -0.0012155207 0.09848247 -0.027419155 0.023351364
0.0022833575 -0.06370433 -0.041738942 -0.058335777 -0.06389056 -0.025543427 -0.044146694 -0.005095194
0.006118294 0.0706384 0.047463913 -0.023751093 0.05440262 -0.07587275 0.027336102 0.0449417
0.09271411 -0.08607703 -0.0655127 -0.059667543 -0.013539191 0.037349254 -0.0355442 -0.04099667
-0.033040896 -0.002396763 -0.011844338 -0.02960692 -0.018371383 0.047927596 0.06454153 -0.028982824
0.0057554254 0.032176815 -0.039198205 -0.03801205 0.02945053 -0.00082885067 -0.07579188 -0.0018994228
-0.018334053 0.039208416 -0.060162917 -0.016188249 -0.06686546 0.0026197492 0.06688168 0.04924933
0.046977714 -0.04004395 0.09442317 0.07334296 0.07953374 0.028976014 0.057788994 0.029517343
0.03641464 0.026646385 0.018334562 -0.005039722 0.0001786775 -0.03832497 -0.046858586 0.019451924
0.003130292 0.011240504 0.05873129 0.0047359844 -0.03942144 0.050132815 0.010025075 -0.020730915
00000000: 039f 2ebd b209 61bc dae4 963c a21b 4cbc
00000010: 0140 103d 4c9d 7b3c 8e1f b0bc d845 873d
00000020: 3168 a23c c0a8 863c 0081 103d 89f1 07bd
00000030: b6bd f83c 3a9b a13c 7e23 64bd 5e57 413d
00000040: 2e3f 7d3d e812 20bc 32db 23bb 0f10 543d
00000050: 0513 933c 3d46 85bd 2cb0 023a 44a8 90bc
00000060: ff82 43bd 3091 cc3c 8246 bc3c 8b7b eb3c
00000070: 21e1 eabb 2082 d4bc cef5 e03c 4295 f7bb
00000080: 9514 253c 62eb 503c 5cc9 873b d824 f2bc
00000090: bc06 c8bc 19c7 c63c 0b17 14bd 9d91 e7bd
000000a0: 0cce 623d 122b 74bd 988c 7fbd b37f 9b3d
000000b0: 5a3e 84bd 9f9d de3b 53f6 56bd c2df 19bc
000000c0: e194 11bd 9838 f0bc d448 c0bd 6519 8a3d
000000d0: 3d29 80bd 1ea6 86bd 722a 36bc 6d9c 443d
000000e0: 00de a0bc f73b ad3c 2756 543d a992 ab3b
000000f0: f412 083a db81 653d 2454 3c3c 66fc ea3c
00000100: d6e7 7b3c 4219 b13b ec76 af3c fd16 a33c
00000110: 7e38 a83c 95fe 99bc 23b2 c4bb c672 bcbc
00000120: 6337 083d 7469 ecbd 48d5 8abd 0d63 1b3d
00000130: b735 4dbd a1bd 01be 32ee 733d 250b 81bd
00000140: 6923 88bd 2c19 633d 10ec d73c ff74 873c
00000150: e1ee 413d c6a0 4a3d f25f 80bb ca48 acbc
00000160: 762e 663d 1f63 9ebd ba7e d13c 8938 83bc
00000170: 8c9d 223d a94c 8e3b c703 1fbc d958 123c
00000180: 7759 40bd 905f 82bc 862f a8bc 8a6b 63ba
00000190: 1aed 093d dbbe fabc 75e1 35bd 4eda 3a3c
000001a0: 705f ddbc a73c 33bd c0f4 213c dc6f 92bd
000001b0: 2f9c f63d 44a6 80bd 8414 0bbd c436 85bd
000001c0: dc5a d33c 2f13 3ebd 133a 5fbc e74a 39bd
000001d0: 3276 b83d c3c5 20bd b447 813d 531a debc
000001e0: 1917 e83b b468 37bd b42a 853d a8e2 c03c
000001f0: cbc9 c9bc 445f 1fbd 85d8 eeab 3550 26ad
00000200: 7ed6 3d2c 0e60 17ad 2c4a 0bad d1e3 9cad
00000210: c42e 8eab 6ad5 bbad 0a8a 1c2d c1df a13c
00000220: fa14 ae3c 36a9 eabc 2432 163d f272 083d
00000230: 9038 68bb ac91 f43c d547 41bd 771d 98ba
00000240: 43f7 09bd a7e8 023e 3358 83bd 81fb 68bd
00000250: 8e54 363d a919 983d f27f 7abd 542a 5d3d
00000260: 2c64 803b 0c44 173a 0348 86bc baea 76bd
00000270: 0ba5 ea3a 297b 5dbd 6a0a 37bd 3085 06bd
00000280: 8639 a3bc 443c adbd 7f98 73bd bbb7 923c
00000290: 1d68 2c3c 628e 8a3d 5d67 a73c 8017 bbbc
000002a0: 2034 97bd 0ef3 3dbc 32af 64bd e59a f43c
000002b0: e263 3ebc d232 963c 6a6d 8bbd b951 9a3d
000002c0: 1998 cabc 6a49 77bc 6c70 073d 02e6 d7bc
000002d0: 1b52 9fba 2db1 c93d 239e e0bc 5c4b bf3c
000002e0: 62a4 153b 6a77 82bd 74f6 2abd 7ff1 6ebd
000002f0: 0ed9 82bd 7340 d1bc 2ad3 34bd 96f5 a6bb
00000300: f87b c83b deaa 903d 8569 423d a791 c2bc
00000310: 48d5 5e3d 2c63 9bbd f6ef df3c ca14 383d
00000320: e5e0 bd3d 2749 b0bd 862b 86bd f465 74bd
00000330: 7cd3 5dbc 88fb 183d cc96 11bd 20ec 27bd
00000340: e455 07bd 0313 1dbb c10e 42bc 368a f2bc
00000350: 957f 96bc ba4f 443d 5a2e 843d 636d edbc
00000360: 0298 bc3b d6cb 033d 4c8e 20bd 86b2 1bbd
00000370: 3d42 f13c 3a47 59ba c638 9bbd 0ef6 f8ba
00000380: 4c31 96bc 0199 203d 646d 76bd 389d 84bc
00000390: c2f0 88bd 19b0 2b3b 43f9 883d aab9 493d
000003a0: b46b 403d 2005 24bd ef60 c13d d534 963d
000003b0: 96e2 a23d 1b5f ed3c 27b4 6c3d 5bce f13c
000003c0: 8427 153d 8549 da3c 5d32 963c 4124 a5bb
000003d0: 605b 3b39 a5fa 1cbd caee 3fbd a459 9f3c
000003e0: 9625 4d3b 172a 383c 3990 703d 5130 9b3b
000003f0: 6078 21bd 1158 4d3d 3640 243c e1d3 a9bc

conv3.bias f4 [128]
-0.0838608 0.0067915088 -0.61524236 -0.32992712 -0.12201774 -0.11264972 -0.06685037 -0.4057883
-0.32078445 -0.11846715 -0.070895426 -0.073785834 -0.098052025 -0.20873812 -0.10688063 0.06583193
-0.044773914 -0.15257637 -0.05574771 -0.07726679 -0.12730332 -0.14207232 -0.023089183 -0.00018840929
-0.048605654 -0.1446153 -0.07514025 -0.02867046 -0.07802399 -0.110995576 -0.031852122 -0.25115788
-0.28224313 -0.29795086 -0.3152894 -0.12155324 -0.13083243 -0.08106653 -0.39437413 -0.022412863
-0.40306908 -0.061539043 -0.14485069 -0.24955787 -0.10370309 -0.24284458 -0.36302957 -0.06650768
-0.114635214 -0.37753892 -0.11544586 -0.056853693 -0.11628976 -0.10287757 -0.11019005 -0.086954966
-0.032882437 -0.18633786 0.030446954 -0.018654816 -0.23867364 -0.13238327 -0.34417218 -0.24791372
0.2074916 0.33888122 -0.1327505 -0.03140771 -0.13917065 -0.113678366 0.24350643 -0.09850265
-0.2227214 -0.20095985 -0.1749533 -0.024719175 -0.019685227 -0.10841867 -0.17018239 -0.14388418
-0.11835632 -0.30004877 -0.019844035 -0.19296749 -0.006120423 -0.49821433 -0.03246952 -0.2229081
-0.093038544 0.17649567 -0.083294265 0.25506708 0.0054820916 -0.0566348 -0.17028017 -0.08436249
-0.13528702 -0.09183996 -0.109045826 -0.18523881 -0.39237666 -0.053033523 -0.10259031 -0.094715476
-0.099658385 -0.11600561 -0.13639301 -0.092656925 -0.061917454 -0.041938297 -0.07255657 -0.062027875
0.017697114 -0.2440642 -0.012939381 -0.1573066 -0.12278886 -0.05358121 -0.26180026 -0.7697083
-0.22441757 -0.07861037 -0.014423141 -0.14101525 -0.4716329 -0.08449788 -0.5832444 -0.23404624
00000000: 36bf abbd 4e8b de3b 8680 1dbf 35ec a8be
00000010: 70e4 f9bd e5b4 e6bd d9e8 88bd 7cc3 cfbe
00000020: dc3d a4be e89e f2bd 9f31 91bd 071d 97bd
00000030: 80cf c8bd 72bf 55be 3be4 dabd e4d2 863d
00000040: da64 37bd fb3c 1cbe b657 64bd 0d3e 9ebd
00000050: cd5b 02be 687b 11be 8725 bdbc bc8f 45b9
00000060: b916 47bd 0916 14be 22e3 99bd 50de eabc
00000070: 0bcb 9fbd a651 e3bd 5f77 02bd c497 80be
00000080: 2c82 90be 048d 98be 9d6d a1be e8f0 f8bd
00000090: f0f8 05be 3506 a6bd 68eb c9be 2e9b b7bc
000000a0: 125f cebe 5d10 7cbd bd53 14be 198c 7fbe
000000b0: 4962 d4bd 40ac 78be 03df b9be 2e35 88bd
000000c0: dec5 eabd c84c c1be e16e ecbd 6bdf 68bd
000000d0: 5329 eebd 7ab1 d2bd 52ab e1bd 7215 b2bd
000000e0: bcaf 06bd 5acf 3ebe e46b f93c fcd1 98bc
000000f0: dd66 74be 7b8f 07be 5637 b0be 18dd 7dbe
00000100: ae78 543e d781 ad3e bfef 07be 5fa5 00bd
00000110: c082 0ebe 34d0 e8bd c059 793e c2bb c9bd
00000120: 1411 64be 6bc8 4dbe f526 33be de7f cabc
00000130: ea42 a1bc 9c0a debd 4b44 2ebe 6056 13be
00000140: cc64 f2bd fe9f 99be f58f a2bc 4599 45be
00000150: d48d c8bb f315 ffbe c2fe 04bd 0542 64be
00000160: fe8a bebd 48bb 343e 2f96 aabd 2798 823e
00000170: 1ea3 b33b e4f9 67bd ed5d 2ebe 3ec6 acbd
00000180: ae88 0abe 9716 bcbd 6b53 dfbd 3eaf 3dbe
00000190: 98e5 c8be ae39 59bd de1a d2bd 30fa c1bd
000001a0: b219 ccbd 5994 edbd 9caa 0bbe eac2 bdbd
000001b0: 289d 7dbd 7ec7 2bbd 8a98 94bd f110 7ebd
000001c0: 8af9 903c f7eb 79be b3ff 53bc fb14 21be
000001d0: ba78 fbbd f977 5bbd af0a 86be 9a0b 45bf
000001e0: b8cd 65be 79fe a0bd 0a4f 6cbc 4d66 10be
000001f0: de79 f1be 390d adbd 814f 15bf d1a9 6fbe

p_conv1.weight f4 [4, 128, 1, 1]
0.13905106 0.008143569 -0.308289 0.22536753 0.14493573 0.09545234 0.25782293 -0.031463962
-0.071926855 0.09991439 -0.13782068 0.08066319 -0.050348967 -0.009367669 -0.06933649 0.10398248
0.043310918 0.040642988 -0.009416916 0.06858131 -0.0737359 -0.021746915 0.109177195 0.019574631
0.024474215 -0.06938873 -0.020405762 -0.12406398 -0.1109094 -0.07753289 0.10105918 0.025726384
0.04445422 -0.089094944 -0.024755899 -0.0017298749 0.108016364 0.07493139 0.0920766 0.04736539
-0.13528733 0.0338971 0.01895202 -0.14861362 -0.10115288 -0.063335724 -0.07489082 0.0462521
-0.057169367 -0.031274933 0.005623747 -0.024521103 0.03904943 -0.1197007 -0.022913724 0.046777193
-0.010533257 -0.13475074 -0.04326643 -0.09099214 0.013580653 -0.036808427 0.02334492 -0.0066248127
-1.2727853 -0.025166323 -0.12340021 -0.008224453 0.020947658 -0.08809783 0.112535745 0.026178645
0.00871464 -0.04446746 -0.03907493 -0.044318903 -0.07574355 -0.13928351 0.4388388 0.11224508
0.08052579 0.044178046 0.013151603 -0.06280153 -0.100220315 0.2595031 0.08290107 -0.031143226
-0.2385601 0.21808532 -0.14735854 0.017310055 0.008151813 -0.009029059 0.24298692 -0.018080873
-0.11136876 -0.11706858 0.093603015 0.008788325 0.96504706 -0.002818707 -0.07933482 0.037716918
0.12237043 0.06077453 0.03624062 0.02833034 -0.062089898 -0.02023366 0.035303764 0.10035798
0.07541654 -0.008263367 0.104628325 -0.25762317 0.00096290145 -0.061609223 0.0064976243 -0.06772315
-0.20106705 0.07969577 0.043108113 -0.05812286 -0.068068095 -0.0043851677 0.032517992 0.21491358
-0.06652877 -0.03885842 -0.36404988 0.29675728 0.099720284 0.14480378 -0.15605676 -0.049121704
-0.16787776 -0.090724945 -0.12533243 -0.07367032 0.053908736 -0.055106528 -0.03826793 0.091796465
-0.14651395 -0.038259506 0.045585793 -0.008501976 -0.0777705 0.017293744 0.006090748 -0.008677015
-0.07094132 -0.027996423 0.03477122 -0.027442968 -0.054057576 -0.037297644 -0.019619979 0.0859271
0.02660129 0.09547856 0.030904442 -0.11523926 -0.009190512 -0.049589954 0.12625411 -0.006610437
-0.13960336 0.005230677 0.011328332 -0.1099454 -0.20626362 -0.02850977 -0.053077925 -0.0041594226
-0.084757425 -0.031687025 0.07703329 -0.007064864 0.113428935 -0.022801602 0.0015327991 -0.1101806
0.05313934 -0.027775947 0.033439152 0.038490515 0.07716722 0.045452487 0.08300351 0.072178274
0.33157873 -0.11204844 -0.07954639 -0.042687535 -0.05317276 -0.12690064 0.5117789 0.0178343
0.31183162 -0.25818086 -0.111928016 -0.024686018 -0.025925118 0.0029268293 0.17953727 0.043683413
-0.0908157 -0.058738384 0.0093316445 -0.0668097 -0.011251942 0.016004741 -0.040117618 0.021294745
-0.18946286 0.0015978415 -0.08000672 0.085982725 -0.03787402 -0.07306133 0.19084845 -0.0018038466
0.21928921 -0.1834761 0.11989427 -0.03360235 -0.07518056 0.048970338 -0.058621008 -0.03155382
0.012753877 -0.11359458 0.11825657 0.14594209 -0.020664716 0.071752384 -0.028463896 -0.030157533
0.12128124 -0.009285137 0.020959662 -0.29890308 -0.006932834 -0.19013248 0.0062781996 -0.001950679
-0.13807537 0.039961725 -0.0051470697 -0.023035912 0.040881943 0.050973132 0.63880324 -0.04867228
00000000: 6763 0e3e 9b6c 053c 0ed8 9dbe bfc6 663e
00000010: 086a 143e 847c c33d 5e01 843e 5be0 00bd
00000020: 634e 93bd ea9f cc3d dd20 0dbe be32 a53d
00000030: b83a 4ebd da7a 19bc 4a00 8ebd c4f4 d43d
00000040: ca66 313d 4379 263d 6949 1abc 5c74 8c3d
00000050: d902 97bd 9626 b2bc 4b98 df3d fa5a a03c
00000060: 267e c83c ae1b 8ebd fc29 a7bc 4215 febd
00000070: 7824 e3bd 90c9 9ebd 1ef8 ce3d 23c0 d23c
00000080: a115 363d 6977 b6bd e2cc cabc f8bc e2ba
00000090: af37 dd3d a175 993d a892 bc3d 3602 423d
000000a0: c388 0abe afd7 0a3d 4441 9b3c 2b2e 18be
000000b0: 3e29 cfbd 29b6 81bd 5c60 99bd d872 3d3d
000000c0: 6d2a 6abd 251a 00bd 6947 b83b 7be0 c8bc
000000d0: 4cf2 1f3d a425 f5bd 90b5 bbbc 7199 3f3d
000000e0: af93 2cbc 19fc 09be 2438 31bd 165a babd
000000f0: 6381 5e3c 6fc4 16bd d83d bf3c f514 d9bb
00000100: a1ea a2bf 9b29 cebc 40b9 fcbd dbbf 06bc
00000110: 6c9a ab3c a36c b4bd 2479 e63d 9974 d63c
00000120: d9c7 0e3c 8323 36bd 090d 20bd bd87 35bd
00000130: 6f1f 9bbd 56a0 0ebe 7baf e03e c0e0 e53d
00000140: b5ea a43d 0af4 343d d279 573c 179e 80bd
00000150: 4f40 cdbd 97dd 843e 09c8 a93d 1420 ffbc
00000160: 1949 74be c251 5f3e 28e5 16be d1cd 8d3c
00000170: 2f8f 053c 9eee 13bc 90d1 783e 571e 94bc
00000180: 4e15 e4bd a7c1 efbd f0b2 bf3d e8fc 0f3c
00000190: 530d 773f 0eba 38bb 4b7a a2bd 0e7d 1a3d
000001a0: 599d fa3d b7ee 783d 0b71 143d 0715 e83c
000001b0: fa51 7ebd 0fc1 a5bc ae9a 103d 7c88 cd3d
000001c0: fd73 9a3d 1363 07bc 6047 d63d 2fe7 83be
000001d0: 396b 7c3a f459 7cbd 06ea d43b 6fb2 8abd
000001e0: 85e4 4dbe 8937 a33d 2292 303d 3c12 6ebd
000001f0: 4967 8bbd 74b1 8fbb 9631 053d 4e12 5c3e
00000200: 3c40 88bd 022a 1fbd bf64 babe 92f0 973e
00000210: 263a cc3d 7147 143e 58cd 1fbe d733 49bd
00000220: 26e8 2bbe 00ce b9bd 2557 00be 77e0 96bd
00000230: 68cf 5c3d 62b7 61bd d5be 1cbd c9ff bb3d
00000240: c107 16be 00b6 1cbd 2bb8 3a3d df4b 0bbc
00000250: 2446 9fbd 9cab 8d3c e694 c73b 0a2a 0ebc
00000260: af49 91bd c158 e5bc 446c 0e3d 13d0 e0bc
00000270: 7a6b 5dbd 6ac5 18bd 14ba a0bc 8cfa af3d
00000280: f3ea d93c 438a c33d 502b fd3c 9002 ecbd
00000290: cd93 16bc d61e 4bbd c248 013e 5d9c d8bb
000002a0: 2ff4 0ebe 1966 ab3b 789a 393c 0e2b e1bd
000002b0: c536 53be 528d e9bc 3d68 59bd c44b 88bb
000002c0: 4d95 adbd 41ca 01bd a1c3 9d3d 6080 e7bb
000002d0: 6e4d e83d 6dca babc 34e8 c83a 5ea6 e1bd
000002e0: a3a8 593d 628a e3bc 7ef7 083d 3ba8 1d3d
000002f0: d909 9e3d 632c 3a3d bffd a93d 34d2 933d
00000300: b0c4 a93e a779 e5bd 38e9 a2bd 20d9 2ebd
00000310: aecb 59bd 3ef2 01be f103 033f 3d19 923c
00000320: 65a8 9f3e 4830 84be 843a e5bd 553a cabc
00000330: ea60 d4bc 0cd0 3f3b 9ed8 373e 61ed 323d
00000340: 95fd b9bd a997 70bd c1e3 183c 86d3 88bd
00000350: 115a 38bc 601c 833c 5f52 24bd 5172 ae3c
00000360: 8d02 42be aa6e d13a 90da a3bd b617 b03d
00000370: ca21 1bbd 2ea1 95bd c76d 433e 0c6f ecba
00000380: 5a8d 603e 29e1 3bbe 218b f53d 9ea2 09bd
00000390: 44f8 99bd 1f95 483d 951c 70bd 943e 01bd
000003a0: a3f5 503c 46a4 e8bd 8030 f23d d871 153e
000003b0: 0d49 a9bc eaf2 923d 1e2d e9bc ee0c f7bc
000003c0: 4c62 f83d b020 18bc 99b3 ab3c d309 99be
000003d0: d42c e3bb 17b2 42be 5bb9 cd3b edad ffba
000003e0: a163 0dbe e8ae 233d c0a8 a8bb cfb5 bcbc
000003f0: d373 273d 34c9 503d 9c88 233f 965c 47bd

p_conv1.bias f4 [4]
0.35678342 0.13193184 -0.031029925 0.15256238
00000000: 51ac b63e 2419 073e 7832 febc 5039 1c3e

p_fc1.weight f4 [64, 256]
0.037631612 0.033984404 0.0119085405 -0.025724584 -0.004309553 4.872665e-06 0.032995585 0.0438778
0.092306 -0.01958924 0.04621178 -0.0020621747 0.05111157 0.16160716 0.009725289 0.02725747
0.04532153 0.005974745 0.027128305 0.02631164 -0.041226756 0.044627998 0.0022175864 0.05080558
0.055335935 0.023727003 0.028433667 0.00460239 0.015912265 0.002089729 -0.01767516 0.017666327
0.057151984 -0.050042484 0.20116399 0.002944735 0.048897207 0.033506133 0.0161363 0.004829308
0.09848469 0.2636636 -0.033989012 0.019840237 1.1908429e-05 -0.02896556 0.04245427 0.06510136
-1.4202136 0.029836336 0.04977194 0.0741345 0.03804814 0.08234922 0.049479067 -0.014104675
0.033877525 0.041492186 0.035685487 0.011105505 0.06602399 0.03199899 0.0153951775 0.03414171
-0.016734373 0.017385028 0.0134733375 0.034075074 0.011755338 0.054740474 0.01707343 -0.000101866084
0.03522208 0.0028374912 0.0141922785 -0.016573275 -0.012409119 -0.035094626 -0.02656691 -0.025214195
0.005364044 -0.037668526 -0.038466144 -0.10422774 -0.07201828 0.02139904 -0.020191375 -0.017692572
-0.020341773 -0.034709096 -0.08369703 -0.11206352 -0.01002356 0.014901345 -0.06684795 -0.08420206
0.022806562 -0.027110513 -0.086167514 -0.1643287 -0.07591328 -0.06455715 -0.012464524 -0.057583746
0.041433256 0.026001632 -0.20961493 -0.15445392 -0.08750925 0.020976396 -0.0413167 -0.059785742
0.38407835 -0.22738649 -0.1030126 0.08244559 -0.0147621045 -0.05025376 -0.045048915 -0.0032770468
-0.1816402 -0.2581012 -0.07953365 -0.01622884 0.053102855 0.03072283 6.555708e-05 0.0082310075
-0.031680956 0.017252749 0.030659381 0.033260718 0.034393843 0.04030878 0.021630295 0.0281037
-0.0129052615 0.0066380543 -0.010211298 -0.062820226 0.0047847643 0.021354204 0.0046403557 -0.0095044505
-0.054905433 -0.017122297 0.018921718 0.05773831 0.033598155 0.005734437 0.044758093 -0.018750269
-0.016855646 0.013931522 0.029266637 0.0835235 0.011364446 0.031897396 0.04993893 -0.010286574
-0.014332185 -0.08481197 0.053857256 0.0643636 0.04673722 0.10616929 0.01999647 -0.013471322
-0.03216749 0.06522589 0.06023685 0.18474111 0.029889131 0.04922363 0.0327763 -0.06586376
0.15869507 0.2673003 0.2492477 -0.06319712 0.024791399 -0.03462204 0.019805536 -0.0135551235
0.20390296 0.19985309 0.053574223 -0.023068648 -0.032217156 -0.0031923472 -0.029365469 -0.037953235
-0.014646482 0.066468164 -0.026064588 -0.028305573 -0.0014009529 -0.008961874 0.0115068555 -0.0072146035
-0.0009602855 -0.021844888 -0.05992972 -0.025383418 -0.042417478 -0.08080647 -0.03962292 -0.042034283
0.025639666 -0.057783704 0.024230886 -0.064625815 -0.05631953 0.047279358 -0.07090293 0.03284568
0.049698275 -0.011599502 -0.07408315 -0.09024548 0.012441768 -0.12212226 -0.016513143 -0.016280776
-0.0076674665 0.00010630148 -0.03915159 -0.15654476 -0.08128366 -0.067875914 -0.014551662 -0.022020277
-0.064793326 0.037376016 -0.21542183 0.026246069 -0.12187797 -0.0059866724 -0.030558499 -0.0023612054
-0.22677128 -0.23692675 0.027158001 -0.002777709 -0.004635169 -0.038911548 0.0067853294 -0.041264746
-0.22411981 0.347029 0.0966605 -0.0018770032 -0.08024485 -0.01932418 0.043077704 0.0059715156
00000000: 9b23 1a3d 3b33 0b3d 0a1c 433c 5dbc d2bc
00000010: 2737 8dbb e07f a336 6126 073d 35b9 333d
00000020: ee0a bd3d 9d79 a0bc 9048 3d3d 8d25 07bb
00000030: 5e5a 513d 597c 253e d256 1f3c 0f4b df3c
00000040: 12a3 393d cbc7 c33b 2e3c de3c 828b d73c
00000050: 63dd 28bd d9cb 363d ed54 113b 8319 503d
00000060: efa7 623d 225f c23c b9ed e83c a5cf 963b
00000070: 705a 823c d6f3 083b 7fcb 90bc f9b8 903c
00000080: 3318 6a3d 59f9 4cbd effd 4d3e 75fc 403b
00000090: 7048 483d ba3d 093d 4630 843c 2c3f 9e3b
000000a0: 57b2 c93d eafe 863e 1038 0bbd fe87 a23c
000000b0: 50ca 4737 2f49 edbc 87e4 2d3d dd53 853d
000000c0: 8fc9 b5bf 556b f43c a9dd 4b3d d4d3 973d
000000d0: 5ed8 1b3d b5a6 a83d 90aa 4a3d 4b17 67bc
000000e0: 29c3 0a3d b6f3 293d f22a 123d ddf3 353c
000000f0: 9637 873d 5f11 033d 0e3c 7c3c 2dd8 0b3d
00000100: 8616 89bc 0c6b 8e3c 46bf 5c3c 4e92 0b3d
00000110: 7699 403c 8c37 603d 94dd 8b3c f0a0 d5b8
00000120: 0745 103d 34f5 393b bb86 683c adc4 87bc
00000130: 9e4f 4bbc 62bf 0fbd d9a2 d9bc 008e cebc
00000140: ddc4 af3b 504a 1abd ad8e 1dbd 5a75 d5bd
00000150: 527e 93bd 0a4d af3c 6268 a5bc 03f0 90bc
00000160: caa3 a6bc 202b 0ebd 5969 abbd 8f81 e5bd
00000170: dc39 24bc c524 743c 94e7 88bd 2172 acbd
00000180: d4d4 ba3c de16 debc 9878 b0bd c845 28be
00000190: 6c78 9bbd 8a36 84bd 0138 4cbc efdc 6bbd
000001a0: ebb5 293d 6001 d53c 4ca5 56be 2b29 1ebe
000001b0: 0d38 b3bd b1d6 ab3c b33b 29bd e5e1 74bd
000001c0: eba5 c43e 01d8 68be 45f8 d2bd 3cd9 a83d
000001d0: c1dc 71bc e3d6 4dbd 3685 38bd b9c3 56bb
000001e0: e3ff 39be d725 84be 8ae2 a2bd 58f2 84bc
000001f0: 6182 593d 72ae fb3c b07b 8938 59db 063c
00000200: e4c3 01bd a355 8d3c 6229 fb3c 643c 083d
00000210: 8fe0 0c3d d21a 253d 0432 b13c bb39 e63c
00000220: 9770 53bc 0984 d93b 4a4d 27bc e4a7 80bd
00000230: 83c9 9c3b 03ef ae3c 200e 983b 8eb8 1bbc
00000240: 85e4 60bd 0f44 8cbc b801 9b3c 027f 6c3d
00000250: 389e 093d f2e7 bb3b 4354 373d 2a9a 99bc
00000260: da14 8abc 0a41 643c 96c0 ef3c 5e0e ab3d
00000270: f131 3a3c d8a6 023d c38c 4c3d 0589 28bc
00000280: 8ad1 6abc e6b1 adbd 6d99 5c3d 10d1 833d
00000290: 876f 3f3d 496f d93d a3cf a33c d2b6 5cbc
000002a0: 0fc2 03bd 2795 853d eaba 763d c62c 3d3e
000002b0: 0dda f43c b89e 493d 7140 063d 94e3 86bd
000002c0: f680 223e 96db 883e ca3a 7f3e 7e6d 81bd
000002d0: 5517 cb3c d7cf 0dbd 383f a23c 4f16 5ebc
000002e0: f0cb 503e 4aa6 4c3e a570 5b3d 76fa bcbc
000002f0: 23f6 03bd b336 51bb da8f f0bc da74 1bbd
00000300: ccf7 6fbc 7620 883d 6785 d5bc 17e1 e7bc
00000310: 2ea0 b7ba d3d4 12bc 4087 3c3c 7b68 ecbb
00000320: abbb 7bba 0df4 b2bc de78 75bd e3f0 cfbc
00000330: f3bd 2dbd dd7d a5bd a54b 22bd 242c 2cbd
00000340: 470a d23c 9bae 6cbd da7f c63c 8a5a 84bd
00000350: 4faf 66bd 00a8 413d 8e35 91bd 3189 063d
00000360: 6b90 4b3d d60b 3ebc e8b8 97bd 9fd2 b8bd
00000370: 8fd8 4b3c 3c1b fabd 9246 87bc 435f 85bc
00000380: 5f3f fbbb 2cee de38 6b5d 20bd 454d 20be
00000390: 0c78 a6bd 8702 8bbd 186a 6ebc de63 b4bc
000003a0: 5db2 84bd 9817 193d 8a97 5cbe ff01 d73c
000003b0: 289b f9bd d92b c4bb d155 fabc 74be 1abb
000003c0: bb36 68be ed9c 72be 757a de3c 390a 36bb
000003d0: 9ee2 97bb b761 1fbd 7857 de3b 3905 29bd
000003e0: aa7f 65be c9ad b13e f1f5 c53d c705 f6ba
000003f0: 6957 a4bd be4d 9ebc 3f72 303d b4ac c33b

p_fc1.bias f4 [64]
-0.034403715 -0.018571042 -0.050897636 -0.11542672 -0.118434004 -0.05057761 -0.034130935 -0.04401367
-0.0063271187 -0.058221027 0.047768947 0.000824103 -0.031428147 -0.03111927 -0.081421584 -0.00034800154
-0.03431384 -0.010745827 0.08200036 0.07094239 0.08017094 0.047732152 -0.03204899 -0.005374903
-0.061474774 -0.0066507184 0.09382092 0.16367295 0.16683479 0.0601335 -0.040068224 -0.009697411
-0.08431509 -0.02062212 0.103708625 0.1849394 0.17528005 0.1106235 0.010095946 -0.020595375
-0.046397045 -0.0017499846 0.07294264 0.07980071 0.07099155 0.11967386 0.06218407 0.019884847
-0.031114602 -0.07480616 -0.0023572007 0.021456957 -0.01296626 0.014146224 -0.08302033 0.0125615755
-0.051965132 -0.050541047 -0.02639694 -0.10201798 -0.10278451 -0.041663494 -0.010243159 0.043721512
00000000: e9ea 0cbd 4c22 98bc 0a7a 50bd d864 ecbd
00000010: 878d f2bd 782a 4fbd e1cc 0bbd ae47 34bd
00000020: b853 cfbb 2c79 6ebd 5fa9 433d 9e08 583a
00000030: cdba 00bd d7ed febc 5cc0 a6bd fa73 b6b9
00000040: ab8c 0cbd 440f 30bc ceef a73d 3e4a 913d
00000050: a930 a43d ca82 433d cd45 03bd f41f b0bb
00000060: f9cc 7bbd 45ee d9bb 2f25 c03d e299 273e
00000070: bdd6 2a3e 8b4e 763d 941e 24bd e4e1 1ebc
00000080: 64ad acbd b8ef a8bc 3065 d43d c160 3d3e
00000090: 9d7c 333e 938e e23d 7769 253c a2b7 a8bc
000000a0: d40a 3ebd bd5f e5ba f362 953d 8e6e a33d
000000b0: 0564 913d 9217 f53d b9b4 7e3d 8ce5 a23c
000000c0: 0de4 febc f933 99bd 447b 1abb 80c6 af3c
000000d0: 7070 54bc 90c5 673c 9006 aabd 11cf 4d3c
000000e0: 64d9 54bd 2104 4fbd 653e d8bc cdee d0bd
000000f0: af80 d2bd 57a7 2abd ecd2 27bc 5415 333d

value_conv1.weight f4 [2, 128, 1, 1]
0.06506633 0.05647762 0.09332977 0.077344075 -0.11709977 -0.100367 -0.17187688 0.02217903
0.14072098 -0.10463665 -0.26326272 -0.0026690988 0.10838926 0.079871684 0.09932776 0.023073943
-0.010134915 0.06917554 -0.013530948 0.0009449789 -0.13393445 0.0879145 -0.20329091 -0.23508945
0.0888489 -0.2022036 0.06446048 -0.08871919 0.06307057 -0.189433 0.017559864 -0.022921065
-0.11261168 -0.008803703 -0.021725334 0.027277132 0.022192419 0.070922315 0.18916696 -0.08162006
0.11962666 -0.31166297 0.030084008 0.027324935 0.03888169 0.24746889 0.16098991 -0.20133933
0.073432945 0.18111876 -0.13227588 0.040272046 -0.018887563 0.04567755 -0.34540778 0.10389356
-0.10199626 -0.038850084 0.043099653 -0.10903859 0.20379773 -0.014581823 0.1136382 -0.11700354
0.042806555 0.092739806 -0.16831161 -0.13336226 -0.10254631 0.09933143 0.017153008 -0.38229653
0.13075846 -0.043293253 0.0112619605 -0.21676682 0.019112801 -0.13516721 -0.0035223332 0.17193773
-0.12016351 -0.061985508 -0.18941732 0.026655538 -0.08216199 0.028100224 0.008305328 -0.034051847
-0.10382605 -0.05558545 0.027404219 0.06095014 -0.16904868 0.019205535 0.051725652 -0.114383556
-0.10941831 0.0063632377 0.04073605 -0.32574144 -0.0130161345 -0.120854646 -0.0059171556 0.10462925
0.00094056776 0.127071 0.1988044 0.018225998 -0.18347621 -0.12150969 -0.25706547 0.12436546
0.10148178 -0.23092085 -0.10514007 0.008375129 -0.23904598 -0.028792497 0.013767786 0.110646024
0.053516395 -0.005437805 -0.17855807 0.07161711 0.08687021 -0.28479937 0.038761374 0.09666273
0.022009514 0.013581775 0.6565884 0.19185105 -0.25568175 0.0050119357 -0.080935836 0.15535638
0.27969912 -0.10151202 0.061751407 -0.20154941 -0.16063687 -0.21719182 -0.37944585 -0.3296108
-0.036970377 0.08921582 -0.26186064 -0.06346217 0.10630958 -0.4400024 -0.17260836 0.08795314
-0.13726757 0.17807218 -0.21901229 0.07537281 -0.25353256 -0.08192665 -0.32385734 0.14243597
-0.14391084 -0.14325243 0.22108214 0.16331041 -0.46814153 -0.32537308 0.09879726 -0.31652164
-0.20069282 -0.15405881 0.042807948 0.14077882 -0.052630533 -0.11471039 0.22466421 0.017753784
-0.14106482 0.038282137 0.13364239 -0.31898588 -0.043729823 0.14067155 0.05200689 -0.038409006
-0.36242592 0.1204134 -0.20901734 -0.014268066 0.12006001 0.15198748 0.22827433 0.16306297
-0.10316644 -0.06892508 -0.16901506 0.11233291 -0.010719516 0.04007013 -0.026795069 -0.013172591
0.13349855 -0.08566237 0.26240328 0.024396416 -0.38287795 -0.0069433176 -0.056705024 -0.10523767
-0.103885725 0.19875538 -0.17426156 0.22804274 -0.38976848 0.27340952 -0.34062102 0.03601555
0.040510748 -0.15900293 -0.25040078 0.023596039 -0.1920459 0.021330941 0.022679996 -0.3380245
0.018957013 0.07518743 -0.19613056 -0.2547937 0.059147794 -0.014288746 0.100792915 0.017627278
-0.18492313 -0.18578668 -0.0169524 0.08393029 0.08782138 -0.09016691 -0.07352536 -0.10869701
-0.33122644 -0.25067163 -0.32751042 0.019253222 -0.17136736 0.066536 0.09836024 0.55092216
0.1039534 0.0064844172 -0.38083246 -0.0054213204 0.57258666 -0.06685839 0.12564425 0.11822691
00000000: 7f41 853d 1455 673d ae23 bf3d 9266 9e3d
00000010: 01d2 efbd 378d cdbd 7e00 30be ccb0 b53c
00000020: 2919 103e bd4b d6bd 5fca 86be 0cec 2ebb
00000030: 30fb dd3d c493 a33d 5a6c cb3d 9105 bd3c
00000040: ea0c 26bc e8ab 8d3d e9b0 5dbc 76b8 773a
00000050: 1d26 09be 840c b43d 7e2b 50be 4abb 70be
00000060: 69f6 b53d 760e 4fbe db03 843d 68b2 b5bd
00000070: 252b 813d b9fa 41be b4d9 8f3c f5c4 bbbc
00000080: f4a0 e6bd 683d 10bc 54f9 b1bc 4b74 df3c
00000090: e0cc b53c b83f 913d fcb4 413e 6b28 a7bd
000000a0: d3fe f43d 4a92 9fbe bd72 f63c 8bd8 df3c
000000b0: 6842 1f3d 7c68 7d3e 8ada 243e e62b 4ebe
000000c0: 0364 963d 3277 393e 5473 07be 4df4 243d
000000d0: 17ba 9abc 6218 3b3d 4ad9 b0be 26c6 d43d
000000e0: 6ae3 d0bd 4421 1fbd 4389 303d a04f dfbd
000000f0: 5ab0 503e 99e8 6ebc 25bb e83d 8d9f efbd
00000100: ed55 2f3d 5eee bd3d e159 2cbe 1e90 08be
00000110: cd03 d2bd 476e cb3d 7784 8c3c 5fbc c3be
00000120: 8ce5 053e 4454 31bd 1684 383c 1ff8 5dbe
00000130: 7392 9c3c 4669 0abe f2d6 66bb 7210 303e
00000140: 4918 f6bd 84e4 7dbd 9df6 41be b75c da3c
00000150: 8c44 a8bd 7132 e63c 1213 083c f379 0bbd
00000160: c1a2 d4bd 92ad 63bd d07e e03c dba6 793d
00000170: 191b 2dbe ed54 9d3c 47de 533d ed41 eabd
00000180: b516 e0bd b582 d03b d8da 263d 95c7 a6be
00000190: a041 55bc a482 f7bd b3e4 c1bb dc47 d63d
000001a0: 6f90 763a e61e 023e 6193 4b3e b04e 953c
000001b0: 30e1 3bbe 13da f8bd 169e 83be 51b3 fe3d
000001c0: aed5 cf3d 8476 6cbe ad53 d7bd d637 093c
000001d0: 78c8 74be 3ede ebbc 4892 613c 629a e23d
000001e0: 0234 5b3d 9d2f b2bb edd7 36be feab 923d
000001f0: 02e9 b13d 39d1 91be 3fc4 1e3d 1cf7 c53d
00000200: 4c4d b43c 1886 5e3c 2d16 283f 9a74 443e
00000210: b8e8 82be 2a3b a43b b0c1 a5bd be15 1f3e
00000220: b934 8f3e 89e5 cfbd 0bef 7c3d f862 4ebe
00000230: fe7d 24be 8867 5ebe ba46 c2be bfc2 a8be
00000240: 406e 17bd c9b6 b63d 9912 86be 74f8 81bd
00000250: d6b8 d93d ff47 e1be 3fc0 30be c720 b43d
00000260: df8f 0cbe 8e58 363e c244 60be 0f5d 9a3d
00000270: 05cf 81be 29c9 a7bd a1d0 a5be bcda 113e
00000280: 5d5d 13be c4b0 12be 5b63 623e d83a 273e
00000290: 3fb0 efbe 4d97 a6be 3856 ca3d 200f a2be
000002a0: 6b82 4dbe 98c1 1dbe 6357 2f3d 5328 103e
000002b0: 1d93 57bd 48ed eabd 600e 663e 6270 913c
000002c0: 4c73 10be bbcd 1c3d 8dd9 083e 1e52 a3be
000002d0: 0b1e 33bd 340c 103e 2d05 553d c352 1dbd
000002e0: e48f b9be 4d9b f63d a408 56be 9bc4 69bc
000002f0: 06e2 f53d 9ba2 1b3e bfc0 693e fbf9 263e
00000300: ed48 d3bd 9828 8dbd 4912 2dbe cc0e e63d
00000310: e9a0 2fbc 9420 243d 5581 dbbc dad1 57bc
00000320: d8b3 083e c16f afbd b959 863e feda c73c
00000330: 9408 c4be c584 e3bb 8743 68bd d986 d7bd
00000340: 0ac2 d4bd 8886 4b3e 9f71 32be 0984 693e
00000350: bc8f c7be 55fc 8b3e e165 aebe 0b85 133d
00000360: 99ee 253d aad1 22be 8834 80be 7b4c c13c
00000370: aea7 44be 3abe ae3c 66cb b93c 8c11 adbe
00000380: bd4b 9b3c defb 993d 73d6 48be 5274 82be
00000390: f544 723d 581b 6abc 846c ce3d 1567 903c
000003a0: 7d5c 3dbe dd3e 3ebe c2df 8abc a5e3 ab3d
000003b0: b2db b33d 6ea9 b8bd 7794 96bd 8a9c debd
000003c0: 8396 a9be 0858 80be 72af a7be efb8 9d3c
000003d0: ed7a 2fbe 0744 883d 1871 c93d 3c09 0d3f
000003e0: 85e5 d43d 3c7b d43b 79fc c2be 55a5 b1bb
000003f0: 0a95 123f 0ded 88bd e3a8 003e f320 f23d

value_conv1.bias f4 [2]
0.15956062 0.09122724
00000000: dc63 233e 59d5 ba3d
