model/cnn/8x8/4aw/8_test.pt (torch_old, 478657 bytes, 15 tensors)

conv1.weight f4 [32, 4, 3, 3]
000000 5e 63 1b 3e bb d8 e8 bd c8 b8 da be 2a 7c 75 3d
       0.15174624 -0.11369463 -0.42719102 0.059932865
000010 2a e6 39 be fb c9 07 bd 52 bb bf 3e a2 f2 1c 3e
       -0.18154207 -0.033151608 0.37447602 0.15326932
000020 32 d8 c9 3e a6 14 55 3e 65 c5 f9 3d 45 8a 47 3c
       0.39422756 0.20808658 0.12195853 0.012178962
000030 ea 9b 8f 3d c6 d5 c5 bd 77 c5 99 3c fc 5a 11 bf
       0.0701216 -0.09659915 0.018770916 -0.56779456
000040 5b 8f 8d be b9 da 8e be fe 2c 6d 3c 08 56 0a be
       -0.27648434 -0.27901247 0.014476059 -0.13509381
000050 d6 e5 0f 3e d4 46 74 3d 7a 7b 33 3d 70 1f c1 bc
       0.14052519 0.05963786 0.04381893 -0.02357456
000060 52 55 86 39 40 62 a0 bc c5 55 52 be ce 4c 42 bd
       0.0002562204 -0.0195781 -0.20540531 -0.047436528
000070 17 c8 5b bc 24 17 16 bd 0a 8f 1f 3e 0a 95 d3 bd
       -0.013414404 -0.036643162 0.15581909 -0.10331161
000080 37 e3 de 3d e1 31 69 3d 14 aa 0a be 01 45 fd bc
       0.108831815 0.056932334 -0.13541442 -0.030916693
000090 5f 38 91 3c f3 0d 93 3d 5d 2f 42 3d 97 f8 b8 bc
       0.017727075 0.07180395 0.04740845 -0.022579474
0000a0 1d 5d c8 ba 3e 7b 69 3d 38 f6 f6 bc a1 2c ec bc
       -0.0015286539 0.0570023 -0.030146703 -0.028829874
0000b0 50 dd 21 bd 6a 72 da be 9e 69 7f 3e 73 82 e9 3e
       -0.0395177 -0.42665416 0.24942634 0.45607337
0000c0 aa b1 d2 bb 0c 9f 20 3e a0 c3 3e 3b 55 1c 98 be
       -0.0064298706 0.15685672 0.00291083 -0.29709116
0000d0 d3 da 35 3e 02 47 d5 3e c1 b3 96 be 20 cc 2f 3c
       0.17759256 0.41655737 -0.29434016 0.01072982
0000e0 cd b1 13 3d 1c 25 91 bd c3 c0 44 3e 86 0d 93 3d
       0.036058236 -0.07087156 0.19214158 0.07180314
0000f0 13 e5 83 bd af 7e 39 3d de 20 31 3e 58 1c 87 bd
       -0.06440177 0.04528683 0.17297694 -0.06597203
000100 8e 2c f4 bd e5 58 4e 3d 05 50 e5 bd 43 06 b3 3c
       -0.11922561 0.050377745 -0.11196903 0.021853572
000110 59 82 62 bc 36 fc 4c bc 77 f8 08 3e d5 60 eb 3d
       -0.013825023 -0.012511304 0.13376032 0.114930786
000120 5b 28 bf 3e 3b 3b b7 bd 82 1a 1e bc f5 4a 72 3e
       0.37335476 -0.08946844 -0.009649875 0.23661406
000130 a7 cf bd 3d e6 e1 f6 bd ea 06 e1 be 40 8a 5d bc
       0.09268122 -0.120548055 -0.43950588 -0.013521731
000140 85 b3 a4 3e 7e e5 bf bd c8 12 ab bc 3f 4a f5 3d
       0.32168213 -0.09369944 -0.020882979 0.11977052
000150 c5 05 a9 3e 12 69 89 be 6e f5 1a 3d 70 af 30 3e
       0.33012214 -0.26837975 0.037831716 0.17254424
000160 04 88 cd 3d 4c d4 7d be 58 e9 26 be e0 c6 0f be
       0.100357085 -0.24788016 -0.16299951 -0.14040709
000170 b3 e3 ff bc 50 52 d5 3d a4 07 97 3d f0 50 83 3d
       -0.031236505 0.104160905 0.07374504 0.06411922
000180 cb 74 91 bd d4 32 6d ba ae 9a 8f bd e9 f2 c5 bd
       -0.071023546 -0.00090484065 -0.07011925 -0.09665472
000190 31 2d c2 bc 3a 75 00 be c6 01 1f 3e a8 67 a8 3d
       -0.02370319 -0.12544718 0.1552802 0.08222896
0001a0 db 44 ea 3d 72 54 69 3d cd 29 0e bd 40 60 10 3c
       0.114389144 0.0569653 -0.034707833 0.00881201
0001b0 ea 18 a5 3e b2 f9 a7 3e eb ec 89 be d0 ea e8 3e
       0.3224557 0.3280769 -0.26938567 0.45491648
0001c0 ce b6 40 3e 00 1b a2 3e a6 a7 a4 bc f7 2c 38 3e
       0.18819734 0.31661224 -0.020099472 0.17985903
0001d0 3c c4 8c bd e3 e8 61 be 72 9f 0c 3d 55 94 88 bd
       -0.06873366 -0.22061495 0.034331746 -0.06668917
0001e0 8b ae b9 be 96 42 1c 3d 31 48 c4 be f9 fb 1f be
       -0.36265978 0.03814944 -0.38336328 -0.15623464
0001f0 83 05 9d be a8 fe f2 3d ba 40 07 3e 06 bf ed 3c
       -0.30668268 0.11864978 0.13208285 0.029021751
000200 6e f8 03 3e 0f 74 b6 3d df f1 4b bd 9e 6c 4b 3e
       0.12887737 0.08908855 -0.049791213 0.19865653
000210 2b ab 15 3e c8 48 d3 3d d0 d9 c1 bd 8d f7 7e 3b
       0.14616077 0.10316616 -0.094653726 0.0038904876
000220 dc f0 ab bd 5c ed b9 3d 3f c9 07 bd bf ab df bd
       -0.0839555 0.09078476 -0.033150908 -0.1092143
000230 2b f6 e2 3c 45 09 e7 bb 54 e6 59 3d 30 9d 68 3c
       0.027705273 -0.0070506656 0.053198174 0.014197633
000240 78 77 71 be db 28 65 3d 51 f7 af be fa 75 fe bc
       -0.2358073 0.055947166 -0.34368375 -0.031062115
000250 00 a8 9d be b6 44 8e be c3 09 ba 3e 60 96 1b 3e
       -0.30792236 -0.27786797 0.36335573 0.15194082
000260 a7 9f a0 3e 35 f3 2d bc 5f 22 02 be 53 8d ae 3e
       0.31371805 -0.010617067 -0.12708424 0.34092197
000270 ec 4d c1 bd 6c d6 64 3b 07 6a 76 be 75 11 db bc
       -0.094386905 0.0034917844 -0.24063884 -0.026741723
000280 af 41 be be e8 28 fc 3c 19 42 a9 3d 11 a0 9a bd
       -0.37159488 0.030781224 0.0826456 -0.075500615
000290 23 7d b9 ba a8 72 3a 3b 0a 06 08 3d eb 6b b0 3c
       -0.0014151674 0.0028449688 0.033208884 0.021535834
0002a0 a0 30 fb bc ba 40 a6 bd d7 71 8b 3e 9a 3e 66 bd
       -0.030662835 -0.08117814 0.2723529 -0.056212045
0002b0 d0 c1 15 be 00 be 75 3d ca 94 97 bc 09 c4 be 3d
       -0.14624715 0.05999565 -0.018503565 0.093147345
0002c0 1a 0b cf bd 99 dc bf 3d 07 1b 8f 3d 86 26 9f 3d
       -0.10109539 0.093682475 0.06987577 0.0777102
0002d0 87 d2 a6 bc 1c 80 10 3e 24 c6 7e bd 1b 63 b4 be
       -0.02036406 0.1411137 -0.06220068 -0.3523186
0002e0 43 7f 69 3c bf 98 62 3e 1f b7 0c be c2 68 a3 3e
       0.014251533 0.2212858 -0.1374173 0.3191586
0002f0 5c 63 0c bf d3 a0 9c 3d e5 57 de be 1a 7e 69 be
       -0.5483911 0.07647862 -0.43426433 -0.2280201
000300 da 89 8f 3e ff 9c 52 be e3 95 c0 be 22 56 7b be
       0.2803486 -0.20567702 -0.37614354 -0.24544576
000310 12 eb 31 be c7 58 98 3c 7c f0 2f be c2 da fc bd
       -0.17374828 0.01859702 -0.17181581 -0.12346412
000320 ce 62 79 3d 51 d2 56 bb 0e b4 3a 3e c4 d4 02 bc
       0.060885243 -0.0032779167 0.18232748 -0.007985298
000330 3d 97 a2 3d 36 65 e6 39 e3 b1 27 be 42 e6 24 be
       0.07939003 0.00043944427 -0.16376452 -0.16103461
000340 fe 29 0a be bf ed f1 bc ee 53 81 be fd 5f 23 be
       -0.13492581 -0.029532311 -0.25259346 -0.15954585
000350 e9 9d 35 bd ac cb 6f be 68 ac 3e 3d 97 c5 bc bd
       -0.044340048 -0.23417538 0.04655114 -0.09217375
000360 0e bd 48 3b ba 96 6c 3d ed dc 60 be 78 28 33 be
       0.0030630263 0.05776093 -0.21959276 -0.17495906
000370 df 0b 8f 3b 77 67 44 be 2b 1a 9b bd b6 b4 08 be
       0.004365429 -0.19180094 -0.075733505 -0.13350186
000380 9e 93 3c 3e 63 9c 0d be 64 34 9d bd 6c 97 45 3c
       0.18415686 -0.13829188 -0.07676008 0.012060028
000390 3c 7d 22 3e 4d 77 12 be d6 a0 27 3e 55 20 1e 3d
       0.15868086 -0.14303322 0.16369948 0.038605053
0003a0 bd 85 0a 3f cb c5 05 be 73 ab 8d 3c 6e 42 01 3d
       0.5411032 -0.13063733 0.017293667 0.031557493
0003b0 0b 9a ce bd ef 9c 79 3d 89 1e df 3d ee 87 8b 3e
       -0.10087975 0.06094068 0.10894496 0.27252144
0003c0 97 4a d7 bd de 46 a3 3e 8e 5a 5c 3c 50 dc 76 bd
       -0.10512274 0.31890005 0.013449324 -0.0602687
0003d0 65 11 3c 3d e5 73 43 be 7a 05 60 3d e9 6c 81 bc
       0.045915026 -0.19087179 0.054692723 -0.015799003
0003e0 14 c0 59 be 7a 0f 03 bd f8 3b 76 3c 0f 41 86 be
       -0.21264678 -0.03199718 0.015028946 -0.2622151
0003f0 3f da 4e be 7a 8c 0f 3e dd 28 e7 3d d6 fe 18 be
       -0.20200442 0.14018431 0.11287091 -0.14940962

conv1.bias f4 [32]
000000 55 d3 09 be 2f 19 7f be 34 f7 10 be 34 a6 a3 3c
       -0.13459523 -0.2491195 -0.141568 0.019976713
000010 5e 3d e7 bd 02 46 e3 3d 34 c1 09 be 0b 98 18 be
       -0.11291002 0.11097337 -0.13452607 -0.1490175
000020 b3 5f 56 be 32 71 b0 bd 97 f5 d3 3d 5a 07 06 3d
       -0.20934944 -0.0861534 0.10349577 0.032721855
000030 9a 4b 11 be cc 33 09 bd 2f ee 81 be fc a3 c5 bd
       -0.14188996 -0.033496663 -0.25377032 -0.09650418
000040 71 ee d7 bd 81 07 97 bd 10 e3 40 bd 58 04 45 be
       -0.10543526 -0.07374478 -0.047091544 -0.19239938
000050 65 c9 98 3d 85 32 2a bd e9 13 81 be cf c1 94 bc
       0.07460288 -0.041552085 -0.25210503 -0.018158821
000060 aa 08 23 bd 59 05 a1 3d ca 35 19 be 3f 24 8d bd
       -0.039803185 0.07862348 -0.14961925 -0.06891679
000070 c1 1b 8e bd 79 b2 21 3e 41 21 eb 3a 83 b5 44 be
       -0.069388874 0.15790738 0.0017938988 -0.19209866

conv2.weight f4 [64, 32, 3, 3]
000000 8e a0 ed 3b 02 e0 0a 3c 2a 10 39 3e da 8e 01 3d
       0.0072518056 0.008476259 0.18072572 0.031630374
000010 af e1 80 be d4 a0 3a 3d db e9 e5 3d ed d2 44 3e
       -0.25172183 0.045563534 0.11226245 0.19221087
000020 0b 67 7a bd 1a f5 94 3d dc 84 b1 bc 80 b7 fb 3d
       -0.061133426 0.07273312 -0.021669798 0.12290859
000030 45 a5 85 3d 55 89 6e 3d 76 11 ec 3e fa 79 2b 3b
       0.06525663 0.05823644 0.46107072 0.0026165233
000040 78 33 de 3d 4e 15 e6 3d a8 3b b7 bd e9 3d 15 3a
       0.10849661 0.11234532 -0.089469254 0.0005693124
000050 38 a2 ad 3c 3e 5f 2d 3d fa cb 4c bd de e3 b6 bd
       0.021195516 0.04232716 -0.049999215 -0.08930181
000060 d3 6d 85 bd 63 78 b6 bc 9d 6b f2 3d 02 b3 c9 bd
       -0.06515088 -0.022274202 0.11836932 -0.09848596
000070 f0 6f 82 bc 81 84 95 be 1b 06 4e 3c 5a ef 1e bd
       -0.015922517 -0.29202655 0.012574698 -0.038802482
000080 3c 38 a5 3d d8 e0 85 3e 54 28 02 be ed d3 48 bd
       0.080673665 0.26148105 -0.12710696 -0.049030233
000090 1e f0 bd 3d dc c4 18 3d c4 8c f2 bd f5 33 70 3e
       0.09274314 0.037297115 -0.11843255 0.2345732
0000a0 cb 8a ee 3c 57 49 ee 3d ec 7a 16 3e 0c fc 80 3d
       0.029118916 0.11635082 0.14695328 0.06298074
0000b0 19 ce b9 bd 82 3d 35 bd 21 b2 80 bd 73 ef 84 bd
       -0.09072513 -0.04424811 -0.062839754 -0.06490984
0000c0 bb 9e 63 3d 02 7f 6a bd 46 ba 0a be e4 f0 33 be
       0.0555713 -0.05725003 -0.1354762 -0.17572361
0000d0 4b 3b b5 3d d3 60 36 3d 69 39 c2 bd 9b 0a 94 bd
       0.088492 0.044525933 -0.09483606 -0.07228585
0000e0 c3 e9 d3 bc e8 ee da 3b c7 e9 37 3e ad 40 ba 3d
       -0.025868302 0.006681312 0.17960273 0.09094367
0000f0 30 b1 36 be c2 2c 8e 3c 1f 63 ca 3c 52 62 f6 3d
       -0.17841029 0.017355327 0.024705468 0.12030472
000100 d6 e3 a9 bd 72 5b 67 3d bb 42 44 be b5 c8 1f bd
       -0.082954094 0.056483693 -0.1916608 -0.03900977
000110 ac 71 f1 bd c0 0e f3 bd 91 0a 25 3d b5 41 96 3d
       -0.11789259 -0.11868048 0.04029328 0.07336751
000120 68 7b 21 3d 39 ba 6f 3e d3 df 02 3e 7b e3 1e 3e
       0.03942433 0.23410882 0.12780695 0.15516464
000130 bd 66 c5 3c fc e2 89 3d 41 3c bf 3d 8d 04 8b 3e
       0.024096841 0.06732747 0.093376644 0.2715191
000140 30 b3 b3 bd 19 17 6e bd 85 66 c6 3d 28 84 03 3b
       -0.08774412 -0.058127496 0.09687523 0.0020067785
000150 66 80 c7 3d f4 75 e9 bb bc e4 89 3c fd 77 29 3e
       0.09741287 -0.007124657 0.016832702 0.16549678
000160 f8 76 27 3d d5 b9 1c 3d e1 a5 8e 3d b8 c6 d9 bd
       0.04088494 0.03826316 0.06965233 -0.10633606
000170 52 23 a2 3c bb 66 b0 bc 7e 94 83 bd e4 e6 33 be
       0.019792233 -0.02153336 -0.06424807 -0.17568547
000180 8e 33 cd bc ca d8 64 bc 53 00 cf bd 10 79 8d bd
       -0.025048997 -0.013967702 -0.10107484 -0.069078565
000190 af 3a ad 3d b5 1e 9d 3d 6a ce 95 bc 1c de 3e bd
       0.08458459 0.076718725 -0.018286902 -0.04659854
0001a0 ab 57 a2 3d 44 f7 0e bd 85 bd 20 bc b5 c1 92 3c
       0.079268776 -0.03490378 -0.00981081 0.017914632
0001b0 7b bb 38 3e 69 b7 d6 bc ab ea 16 3d 45 48 cc bd
       0.18040268 -0.026210504 0.03684489 -0.09974722
0001c0 52 a0 42 3c da 50 bb 3d e4 46 b7 3d 27 8b 08 3e
       0.011879044 0.091462806 0.08949068 0.13334332
0001d0 b8 40 d3 3b b1 4a 6f bd b9 43 fb bd 96 7e 43 3e
       0.006446924 -0.05842084 -0.122687764 0.19091257
0001e0 66 ad cb 3d b4 21 ed bc 97 f2 9c 3d c3 6a 19 3d
       0.099451825 -0.028946735 0.07663458 0.03745533
0001f0 00 f5 1c 3d db 08 94 be 1f b8 cc bd 60 d8 49 bc
       0.038319588 -0.28913006 -0.09996056 -0.012319654
000200 88 e6 de 3d 6c e4 04 3e 9e 58 dd bc af 3f 88 3e
       0.10883814 0.12977761 -0.027019795 0.26611087
000210 6e f0 08 be 69 42 dc 3d 59 e5 b9 3d ef 0e 0f be
       -0.13372967 0.10754854 0.09076948 -0.1397054
000220 0d 49 b9 be 59 2c 4f 3d d6 b3 b7 3d f1 51 c7 3d
       -0.36188546 0.050579403 0.08969848 0.09732426
000230 bf 86 c5 3d 50 31 ed 3c 06 2c c0 3d 17 c5 5a 3c
       0.096448414 0.028954178 0.09383397 0.013352654
000240 e8 5d 11 3d 7b 63 f4 bd 8d a3 7f bd 07 fe 12 bd
       0.035489947 -0.11933037 -0.062411834 -0.03588679
000250 d2 47 c9 3c d9 7f ab bd 1e 43 ba 3d 43 a1 58 bd
       0.02457038 -0.083739944 0.09094833 -0.052888166
000260 4b df 7b 3d 4e 5d 82 bd 66 36 14 bd ec f3 8d bd
       0.061492246 -0.06365453 -0.03618469 -0.0693129
000270 89 8d e2 bc 32 b4 bb 3d dd 71 e1 bd e8 42 b3 bd
       -0.02765538 0.09165229 -0.11008046 -0.08752996
000280 55 62 f5 3d 9b 77 1c 3e c5 0b 50 bc 02 79 5d 3d
       0.11981646 0.15280001 -0.012698119 0.05407048
000290 b2 64 3f be 03 21 be 3d 28 80 d5 3c 47 e5 99 3e
       -0.18690756 0.0928364 0.026062086 0.30057737
0002a0 dc d6 e0 3d e2 30 b7 3d 3f bc 50 3e 9f b1 39 3d
       0.10978481 0.089448705 0.2038431 0.04533541
0002b0 32 73 bb bd 95 53 46 be 49 e5 1f bd 41 62 5a 3c
       -0.09152831 -0.19367822 -0.039037023 0.01332909
0002c0 b7 2d a3 bd 76 a0 0a 3e 7d 0b 00 3e 2b ea ec 3d
       -0.07967704 0.13537773 0.12504382 0.115681015
0002d0 f4 c6 05 bd 0d dc ba bc f2 7a 33 3b ba f7 d2 3d
       -0.03266044 -0.022810007 0.0027386514 0.10301156
0002e0 bd a6 ac bc 3e 97 c2 bd 61 ef a7 3d 66 8b 40 bd
       -0.0210756 -0.095015034 0.08199955 -0.04700794
0002f0 3d 38 2e be 97 9c 9b 3d 5a 2c 01 bd c6 da 56 3d
       -0.1701364 0.075982265 -0.031536438 0.052454732
000300 4e 68 32 bd 1e 58 31 3d 25 de ee 3d 0a c2 b2 3c
       -0.043556504 0.043296926 0.116634645 0.02182104
000310 27 9c 06 be d6 c4 97 bd 44 60 00 bd 47 bd 8b 3b
       -0.13145505 -0.0741059 -0.031341806 0.004264507
000320 1b aa 65 3d 12 a6 3f be e4 ed ad 3d e9 2b ec 3c
       0.05607043 -0.18715695 0.0849264 0.028829532
000330 65 a6 05 bd 23 67 85 bd bd 37 3c 3c c4 94 3d 3d
       -0.03262939 -0.065138124 0.011487898 0.046284452
000340 77 f5 17 be 3c c6 b2 3d ef 80 a3 3d 5f e5 11 3e
       -0.14839731 0.087292165 0.079835765 0.14247654
000350 c4 44 48 3c c2 e4 e7 3b bd 7f e2 bd f9 8d 8d bd
       0.012223426 0.0070768306 -0.110595204 -0.06911845
000360 38 45 86 3d 80 7c d1 3d 99 02 03 bf a0 d0 84 3d
       0.06556171 0.102288246 -0.5117584 0.064851046
000370 24 86 7d bd d6 c6 29 3d c6 7d 8b 3d 87 0c 03 be
       -0.061895505 0.04144939 0.06811099 -0.12797748
000380 90 58 b4 bd 8c 73 86 bd 8c 6c 85 3d ab f1 18 bd
       -0.088059545 -0.065650076 0.06514844 -0.037339848
000390 82 12 25 be 42 96 77 bd 6a 4e ab bd 92 a4 b2 bd
       -0.16120341 -0.06044603 -0.08364566 -0.087227955
0003a0 25 f1 35 be b9 a0 8c bd b4 56 16 3e 42 2f 67 3c
       -0.1776777 -0.06866593 0.14681512 0.014110388
0003b0 e9 36 0f bb 53 88 69 be df 1d 0d 3c 92 6e 1c 3e
       -0.0021852797 -0.2280591 0.008613079 0.15276554
0003c0 7e ad 94 bc 1c ac 70 bc e8 33 79 3d 6a fa 4d be
       -0.018149134 -0.014689472 0.060840517 -0.20115057
0003d0 32 93 97 bd 02 d4 36 3e bb 5f c0 3d 00 c7 f8 3c
       -0.07401122 0.17854312 0.09393259 0.030368328
0003e0 ac 28 69 3e 5b da d2 3d f7 8f 4d 3e 79 98 2e 3d
       0.22769421 0.10295554 0.2007445 0.042625878
0003f0 66 5b 7b bd 02 12 fe bd c1 45 96 3d 02 1e 86 be
       -0.06136646 -0.124057785 0.07337523 -0.2619477

conv2.bias f4 [64]
000000 73 64 d7 bd c9 85 ac bd 76 63 e8 bd e6 79 c4 bc
       -0.10517206 -0.08423955 -0.11347096 -0.023983907
000010 26 8c 46 bd 22 72 14 3c c3 cc 86 3c 64 ad d4 bd
       -0.0484735 0.0090604145 0.01645506 -0.10384634
000020 08 89 7c bc 85 a3 f5 bd f7 82 97 3d c6 93 f1 3d
       -0.01541353 -0.119940795 0.073980264 0.11795764
000030 8a eb 0c 3b d9 c9 c8 bc 0a cb 95 bc f2 02 43 3d
       0.0021502697 -0.024510311 -0.018285293 0.04761023
000040 89 01 b4 bc 94 30 f0 bc 25 52 a0 3b 3e e9 d4 bd
       -0.021973388 -0.029320039 0.004892605 -0.1039605
000050 70 94 4d bd 39 0f 0d 3c 85 10 14 be 04 d3 77 bd
       -0.05019039 0.008609586 -0.14459427 -0.060503975
000060 e9 d2 6d bd bd 35 d5 3c dc 7f 99 3d 73 da 95 bd
       -0.058062468 0.026026601 0.0749509 -0.073170565
000070 48 ef d8 bd db a1 a6 bc 9e e5 90 3c 2a 44 94 bc
       -0.10592514 -0.02034085 0.017687615 -0.01809891
000080 3c 15 ef bc f6 af 97 3c 01 d9 49 bd 9c 4f be bd
       -0.02918493 0.018516522 -0.049279217 -0.09292528
000090 d4 2d 06 be 24 30 56 bd 22 72 00 be b0 fb e0 3b
       -0.1310342 -0.052292004 -0.12543538 0.006865941
0000a0 0f ce d1 bd c9 83 31 bd 9a 0a 9b bd 6d af 6a bd
       -0.10244381 -0.04333857 -0.075703815 -0.057296205
0000b0 c7 85 c2 bd 6d 1c fe 3c 96 a3 39 bd 2f 2f 64 3d
       -0.09498172 0.031019414 -0.045322023 0.05570906
0000c0 fe 10 22 bb 69 5b f4 3c 97 ce 82 bc 37 9d 7b bc
       -0.0024729366 0.029828744 -0.01596765 -0.015357307
0000d0 49 67 7f bd 60 21 58 bd 24 2c b1 3d 69 f3 e8 bc
       -0.06235436 -0.052766204 0.08650997 -0.02843638
0000e0 74 90 98 bd 40 d3 02 3e 83 a5 39 bd 3d 4c 91 3c
       -0.07449427 0.12775898 -0.04532386 0.017736549
0000f0 95 82 ef bc 7e bb 9f bd e8 c1 79 bd c5 c5 0c bd
       -0.029237071 -0.07799433 -0.06097594 -0.034368295

conv3.weight f4 [128, 64, 3, 3]
000000 e9 d1 15 be 1c b3 db bd e2 d3 8f be 98 2b c3 3d
       -0.14630856 -0.10727522 -0.2809134 0.09529799
000010 7e 2a 82 3d 95 76 ae bd 1f ea 2e 3e e4 83 8e 3e
       0.06355761 -0.085187115 0.17081498 0.27835
000020 e8 76 72 be 60 75 b3 bc 64 95 bd 3c 59 7a e8 bc
       -0.23678172 -0.021906555 0.023142524 -0.028378652
000030 b7 1c bc bd 82 f7 ab 3d 30 4d 88 bd a6 f4 1e bd
       -0.091851644 0.08396818 -0.06655347 -0.038807534
000040 aa c2 07 bc 6f ab c6 be 79 de 8c 3d c7 89 bb bd
       -0.008286158 -0.38802668 0.06878371 -0.09157138
000050 98 2f c0 3d d5 00 8b be dd b3 45 3e 31 32 08 3e
       0.09384078 -0.27149072 0.19306894 0.13300397
000060 86 ed 53 bd da a7 95 3d c8 a7 c4 3d 00 f8 92 bd
       -0.051740192 0.07307406 0.09602314 -0.071762085
000070 d2 2d ed 3c 04 56 2f bd c6 3b 05 be 43 76 f0 bd
       0.028952513 -0.04280664 -0.13011083 -0.11741307
000080 b6 1e d5 3d d3 ca 5a 3c 2a 01 7f 3d ea 92 dd 3d
       0.10406248 0.013354021 0.06225697 0.10819037
000090 a8 eb 7a 3d dc 88 31 bc 1b f1 81 be 44 c8 e9 bd
       0.061259896 -0.0108358525 -0.2537926 -0.11415151
0000a0 ca 48 d2 3d 8f 50 36 be 95 80 26 3e 72 bb b0 3d
       0.1026779 -0.17804168 0.16259988 0.08629502
0000b0 40 2f 85 be 6d 23 48 3d ce 96 2d bd 05 c7 ca bb
       -0.2601261 0.04886191 -0.042380147 -0.0061882758
0000c0 bb 6d 58 3d 5c 11 c9 bd f8 cb 5e bb 7b 74 28 3d
       0.052839022 -0.09817764 -0.0033996087 0.04112671
0000d0 6c 04 f0 3d 21 80 a7 bc b7 39 c8 bd d1 fa b9 3c
       0.117195934 -0.020446839 -0.09776633 0.022702606
0000e0 23 94 8f bd f0 5b 62 be cc 3c 9a 3d 08 88 50 3c
       -0.07010677 -0.22105384 0.07531127 0.012727745
0000f0 66 d1 36 be 91 7d 80 3e f7 27 99 ba 6d 50 08 bd
       -0.17853317 0.250958 -0.0011684884 -0.033279825
000100 07 7e 46 bd 0b 9e 29 3e b3 5f 5e 3c 15 a0 77 3e
       -0.048460033 0.16564195 0.013572621 0.2418216
000110 20 f2 46 3e 11 84 28 be 91 48 cf 3d da 70 04 3e
       0.19428301 -0.1645663 0.10121263 0.12933674
000120 67 08 30 be b1 ea 03 bd f2 10 83 bd 73 d4 42 3b
       -0.17190705 -0.03220624 -0.063997164 0.002972868
000130 55 e0 f3 bd f1 2b be bd 63 e5 a9 bc 21 be 9a be
       -0.11908022 -0.09285725 -0.020739263 -0.30223182
000140 df 7a 9b bd 8a 02 b2 bd b0 88 6c be 70 7f 07 be
       -0.07591795 -0.086918905 -0.23099017 -0.13232207
000150 03 3a 18 3d 9a 8e d9 3d 16 c7 33 bc 42 c0 10 3d
       0.0371647 0.10622902 -0.010972759 0.0353396
000160 91 4f 6b bb 10 0a e0 3d c4 5c 54 bd 63 6f 31 bc
       -0.003590558 0.10939419 -0.05184628 -0.010829779
000170 d3 c1 5a be 10 ca 44 be e2 ad 3f be 02 44 5a 3d
       -0.21363 -0.19217706 -0.18718675 0.053287514
000180 a5 4e 00 3e 3d cf 3c bd 01 6a c5 bb 01 bd e3 bd
       0.1253 -0.046096075 -0.0060245995 -0.11120034
000190 6e bc f6 bd 29 19 26 3c 65 0e fa bd 1b 2d 47 be
       -0.12047659 0.010137835 -0.12209777 -0.194508
0001a0 fd 6c c5 3d 8d f9 05 3c 4a 87 25 be 51 29 a6 3d
       0.096399285 0.008177173 -0.1616489 0.08113349
0001b0 6c 84 96 3c 07 6f d7 bd 86 e8 92 bc 3c 53 91 3c
       0.01837369 -0.10519224 -0.017933141 0.017739885
0001c0 d1 23 33 3d 51 29 93 bb ff 3b 5c be 63 f4 81 be
       0.04373533 -0.0044910093 -0.21507262 -0.25381765
0001d0 75 dd d9 bd b4 7b 12 be b8 34 ff 3d 60 6f 37 3d
       -0.10637943 -0.14305001 0.12461227 0.04478395
0001e0 f8 2c 34 be a4 77 ec 3c a1 48 7d 3e af 60 66 bd
       -0.17595279 0.028865643 0.24734737 -0.05624455
0001f0 e2 6a c9 3c 9b 48 0b 3e a0 c4 f2 bc bd 36 5d be
       0.024587099 0.13601916 -0.029634774 -0.21602912
000200 1e c1 86 be 36 c7 d4 3d 45 c9 8c 3d a5 eb 4b 3e
       -0.26319212 0.10389559 0.068743266 0.1991411
000210 90 4c b0 bd 0c 77 25 3c 43 2c 63 bd d5 3a 9d bd
       -0.08608353 0.010099184 -0.055462133 -0.07677237
000220 93 a7 59 bb 4f 0f b0 3c 0d 36 13 3e e7 37 31 3e
       -0.0033211454 0.021491675 0.14376087 0.17306481
000230 da 64 f3 ba 9f fd 00 3e ec 2e 0b 3e 3c de 09 be
       -0.0018569485 0.12596749 0.13592118 -0.13463682
000240 a6 88 7e bd 71 15 d7 3d 1e 55 70 bc 69 98 7f bd
       -0.062142037 0.105021365 -0.014668731 -0.06240121
000250 b1 f4 2c bd 03 94 f8 bd b5 9d 52 bd bf 03 10 be
       -0.042225543 -0.12137606 -0.051419932 -0.14063929
000260 7b 36 af bc d3 88 eb bb 27 40 6d bd cc c9 19 bd
       -0.021388283 -0.0071879416 -0.05792251 -0.037545964
000270 cc 9c 63 3d bc c0 c9 3d c9 c3 93 ba cd 4f 0a 3e
       0.055569455 0.09851214 -0.0011273558 0.13507004
000280 40 3d 9d 3d 43 7e e0 bd 62 a8 07 bd 7f 17 0b be
       0.07677698 -0.109615825 -0.033119567 -0.13583182
000290 e7 d3 97 3d f5 10 05 3d 18 ea c3 bd fa ea b1 3d
       0.07413464 0.032486875 -0.09566134 0.08687396
0002a0 48 7c 1c 3d b0 3b 7c 3d 16 73 03 3e 8f 7b 72 3c
       0.03820446 0.06158036 0.1283687 0.0147999665
0002b0 d7 a6 96 3d 43 a1 f5 3d 6c 7f 46 be e1 bb 7b bc
       0.07356041 0.11993649 -0.19384545 -0.015364618
0002c0 c7 a1 4c 3e 6a b6 79 3d 84 55 5d bd 70 fd 79 3e
       0.19983588 0.06096498 -0.054036632 0.24413085
0002d0 be 41 d0 bc 65 82 20 be fb 34 af 3d c9 50 83 be
       -0.025421973 -0.15674742 0.08555027 -0.25647572
0002e0 d5 52 a3 3b 9c 52 d0 3d c4 f0 ef bd 54 ee 06 be
       0.0049842396 0.101720065 -0.11715844 -0.13176852
0002f0 2e 50 1a 3e e5 64 1d 3c 5f c6 6d bd a4 83 62 3d
       0.15069649 0.009606575 -0.05805051 0.055301324
000300 99 df 8b bc f5 8c 79 bd de 72 6a 3d c3 75 06 3e
       -0.017074393 -0.060925443 0.057238452 0.1313086
000310 84 bb d9 bd 44 51 c6 3a fa 3a a8 bd 4c ad 17 3b
       -0.10631469 0.001513042 -0.08214374 0.0023144064
000320 95 0d 41 be 17 44 76 3d 67 9a cb 3d 84 a7 30 be
       -0.18852837 0.06012353 0.09941559 -0.17251402
000330 75 fe 82 3d 3c 5d 17 bd ac a3 0d 3e 8a c1 0b 3e
       0.0639619 -0.03695415 0.13831967 0.13648048
000340 48 ca 08 3e 78 30 9b bd 68 9f 15 3e f3 0c 45 3e
       0.13358414 -0.07577604 0.1461159 0.19243221
000350 ec 3f c6 3a c1 43 c2 3c a5 4e fe 3d f5 25 a0 3d
       0.0015125251 0.023713948 0.12417344 0.0781974
000360 86 bd 92 bd c6 0c 53 3c 1b 66 99 bd 70 4c 05 3e
       -0.07165055 0.012881463 -0.07490178 0.1301744
000370 a9 bc c7 3e 8b d2 81 3c 97 bd 07 3d 5d b4 b4 bd
       0.39011124 0.015847465 0.03313979 -0.08823464
000380 5f c7 13 bd d2 f4 a0 be ef 20 13 be 84 3f 3b be
       -0.036078807 -0.31436783 -0.14368032 -0.18285948
000390 13 0e 54 bd 3e ca b5 3d 7d 8a 64 3c 39 ee e8 bd
       -0.051771235 0.08876465 0.013949034 -0.11373562
0003a0 be a9 92 be 94 88 cd 3b d9 86 17 3d c7 d1 51 bc
       -0.28645128 0.006272385 0.036993835 -0.0128063625
0003b0 de 98 9a bd 01 12 dd bc df fd c3 3d a4 72 4c be
       -0.07548688 -0.026986124 0.095699064 -0.19965607
0003c0 67 72 f8 3c cb 6e 5a bd f8 74 6d ba a9 d0 c8 3b
       0.030327989 -0.053328317 -0.0009058262 0.00612839
0003d0 a0 0f 3c 3e e8 7d 2c 3d f8 5a 2f be c5 ec 1c bd
       0.18365335 0.04211226 -0.17124546 -0.03831174
0003e0 69 69 52 be 98 02 8e bc 20 98 0b 3e c5 2a 63 3d
       -0.20548023 -0.017335221 0.1363225 0.05546071
0003f0 51 d8 ed bb 62 0b c2 bd 40 a2 f3 bd 16 52 03 3e
       -0.007258453 -0.09474827 -0.11896181 0.12824282

conv3.bias f4 [128]
000000 c1 56 d4 3c 7e cf a6 bc e0 2b c3 bc 57 ba 03 3c
       0.025920274 -0.020362612 -0.023824632 0.008040032
000010 32 87 ca 3d 45 3c 1f bd 36 b5 7a 3d 4c 55 a4 3c
       0.09889068 -0.038875837 0.061207972 0.020060204
000020 01 86 68 3d 19 e8 15 bd 0e 6f b1 bc e7 8d 84 bc
       0.05676842 -0.0365983 -0.0216594 -0.016180946
000030 75 03 f6 bc 31 a1 e4 3c ab c2 f2 3d cc d2 0f 3e
       -0.030030945 0.027908893 0.11853536 0.14045256
000040 c9 fe fa bc 03 81 74 bd 36 1d f8 bc a2 92 4f bc
       -0.03063907 -0.059693348 -0.030287366 -0.012669237
000050 29 f1 73 bc 36 7a 86 bc b5 fe 53 bb 33 c6 b9 bd
       -0.01488904 -0.016415697 -0.0032347862 -0.090710066
000060 49 a0 29 be 51 7f 7c 3e 49 1c 83 3d ad bc 35 3d
       -0.1656505 0.24657942 0.06401879 0.04436939
000070 13 23 ae 3e 6f 4e 67 3e 16 e6 3d 3c 1a 27 bf bd
       0.34011135 0.22588514 0.011590501 -0.0933363
000080 76 f0 a3 bd 65 66 48 bd 67 48 27 bd 11 51 2f 3e
       -0.08004849 -0.048925776 -0.040840533 0.17120768
000090 08 d2 23 bd 07 0a c8 3d ac b5 e0 3b 0a a9 5c 3d
       -0.039995223 0.097675376 0.0068575945 0.053872146
0000a0 81 be 45 bd fc 18 0b be b8 53 c3 bc 0f 1e 31 be
       -0.04827738 -0.1358375 -0.023843631 -0.17296623
0000b0 8d 39 2e 3c 0d f5 c9 bd 38 58 81 bd 93 54 6c 3d
       0.010633838 -0.09861193 -0.063156545 0.057697844
0000c0 8f 7e 95 3d f8 4d 02 be f3 e1 92 bd 69 5d 14 bd
       0.0729953 -0.12725055 -0.07172003 -0.036221895
0000d0 01 70 69 bd 15 67 a9 bd 28 03 dc bd 53 63 26 3d
       -0.05699158 -0.082716145 -0.107427895 0.040622067
0000e0 23 bd 78 3e 32 2d 27 bc c7 cc a4 3d 9f cf bf 3d
       0.242909 -0.0102036465 0.08046871 0.093657725
0000f0 21 79 97 bd d0 2b b9 bd a1 c8 26 bd b3 c6 92 bd
       -0.073961504 -0.0904156 -0.04071868 -0.07166805
000100 89 45 a7 bb b0 76 ae bb b4 81 06 be e6 6b db 3d
       -0.005104725 -0.0053242072 -0.13135415 0.10713939
000110 e5 0f e3 bc e0 73 fa 3d 21 53 62 bc bd e2 4f 3d
       -0.02771754 0.12229133 -0.013813765 0.050753344
000120 52 33 9f 3d 90 33 99 3d 6f ac 0b bd 39 7c b4 3d
       0.077734604 0.07480538 -0.034099992 0.08812756
000130 d7 0f 1d 3d 55 43 a2 bc 6a e9 95 3e 67 da b9 3d
       0.038345184 -0.019807497 0.29279643 0.0907486
000140 d7 56 b7 bb ef 5e 9a bd 8b 69 aa bd 9d 9d e4 bc
       -0.005595069 -0.075376384 -0.08320912 -0.027907187
000150 8c 00 f1 bd be 6c dd bc da 31 dc 3c 02 7f 73 b9
       -0.117676824 -0.027029391 0.02687924 -0.000232216
000160 5e 44 bb bc d7 eb 4a bd 5a bf ab bc 12 31 09 3e
       -0.022859748 -0.04954132 -0.020965267 0.13397625
000170 85 a5 fa bd af 8b 9d 3c 49 0d 6c 3d 27 97 8d bd
       -0.122386016 0.019231645 0.057629857 -0.06913596
000180 48 8a 83 3d 14 7a 74 bd c6 38 44 3b 0c 9a 0c 3e
       0.064228594 -0.059686735 0.0029941066 0.13730639
000190 6b f2 28 bd e2 97 b6 3d 2b 7c 0d 3b 00 3a ed bd
       -0.041246813 0.08915688 0.0021588902 -0.11583328
0001a0 cc 93 29 be f5 de 1f bd 5e a8 66 bc ae 47 8d bd
       -0.16560286 -0.039030988 -0.014078228 -0.068984374
0001b0 27 05 4a 3c c9 25 08 3e 1e 4d e8 bd 06 81 6d bd
       0.01233033 0.13295664 -0.11342834 -0.057984374
0001c0 fe c2 c5 bd 12 fb f0 3c 25 61 22 bd a9 e1 4e bb
       -0.096563324 0.029416595 -0.039643425 -0.003156761
0001d0 a0 89 23 3d c5 b9 cc bd 92 8a e6 bc 95 8c 50 bd
       0.03992617 -0.0999637 -0.028142247 -0.05091532
0001e0 d6 71 14 3e e8 f8 84 3d 35 dc 9a 3e 43 33 a7 bd
       0.1449655 0.064927876 0.3024613 -0.08164074
0001f0 1d ee ce bc f6 55 49 bc c4 6a 6f bc 83 0e 99 bd
       -0.025260026 -0.012288561 -0.014612857 -0.07473471

p_conv1.weight f4 [4, 128, 1, 1]
000000 b9 e2 3a bc 6b e2 86 bc 0c 4d 0f bc cb 0c b9 bb
       -0.011406594 -0.016465386 -0.008746397 -0.005647277
000010 c2 66 29 bc 21 3d da bb 15 1c 2c bc 73 cc 0c bc
       -0.010339441 -0.006660119 -0.010504742 -0.008593666
000020 d5 97 b9 bb 1b 9c e1 bb 12 64 44 bc ef 6e 10 bc
       -0.0056638517 -0.0068850643 -0.011986749 -0.008815511
000030 e5 3c 3b bc 60 d0 28 bc d0 df b9 bb 68 66 49 bc
       -0.011428093 -0.010303587 -0.0056724325 -0.012292482
000040 ba 8b 93 bb 04 73 35 bc dd f7 00 bc cf 0c dd bb
       -0.0045027407 -0.011074785 -0.007871595 -0.0067459117
000050 47 6d 61 bc f2 ad ac bc 4a 5f 4a bc df c6 24 bc
       -0.013758964 -0.021079037 -0.01235182 -0.01005718
000060 59 24 02 bc 88 25 1f bc f6 9e 3e bc 6f c7 41 bc
       -0.007943236 -0.009713538 -0.011634579 -0.011827334
000070 f0 b8 36 bc 77 1d 72 bc ce 10 36 bc 13 f3 46 bc
       -0.011152491 -0.014777533 -0.011112405 -0.012142914
000080 15 18 19 bc 94 6d fc bb 9e 81 0e bc 37 bb 81 bc
       -0.0093441205 -0.0077034924 -0.008697895 -0.015836341
000090 d4 8d 06 bc 84 8c 4b bc 16 da ea bb 49 ad a7 bc
       -0.008212525 -0.012423638 -0.007167111 -0.020468371
0000a0 10 ee a0 bb 6c 48 1a bc 67 ef 3a bc 8d 85 4f bc
       -0.0049111918 -0.009416681 -0.011409617 -0.012666118
0000b0 07 77 0f bc f9 e1 17 bc 7f ff 32 bc 89 35 82 bc
       -0.008756406 -0.009270185 -0.010925173 -0.015894668
0000c0 97 3b 44 bc 07 f7 02 bc a6 79 0b bc 7a 14 f6 bb
       -0.011977098 -0.007993466 -0.00851289 -0.007509765
0000d0 f8 3d 20 bc 50 d9 ad bb f1 ab f8 bb e4 8b d4 bc
       -0.0097803995 -0.0053054467 -0.0075888564 -0.025945611
0000e0 31 67 19 bc 17 84 a8 bc c9 25 74 bc b8 fa b5 bc
       -0.009362982 -0.020570798 -0.014901587 -0.022214279
0000f0 02 3f a9 bb 2e ff fd bb cc 47 9a bb a9 f7 3c bc
       -0.005164982 -0.007751367 -0.004708266 -0.011533656
000100 3f 68 e8 bb 21 52 07 bc a9 89 05 bc b1 45 d4 bb
       -0.007092505 -0.008259327 -0.0081504965 -0.0064780344
000110 cc c4 53 bc 4f 13 7f bc c6 54 b0 bb 20 49 ab bb
       -0.012925338 -0.015568568 -0.0053811995 -0.005227223
000120 98 e9 3b bc a6 07 f9 bb fe a4 4b bc 44 e4 23 bc
       -0.011469267 -0.0075997887 -0.012429474 -0.010003153
000130 62 aa 2c bc 71 19 6b bb 2a 22 1d bc a0 f5 0d bc
       -0.010538669 -0.0035873319 -0.009590665 -0.008664519
000140 a6 4f 63 bc e2 dc 3e bb b6 55 b4 bb 76 12 21 bc
       -0.01387397 -0.0029123356 -0.0055033816 -0.009831062
000150 d2 1c 43 bc da 76 f0 bb 7a d8 e7 bb ed 27 0f bc
       -0.011908727 -0.007338387 -0.0070753666 -0.008737546
000160 0a de 14 bc 0c 68 14 bc 24 42 fb bb a6 88 0d bc
       -0.009086141 -0.00905801 -0.0076677967 -0.008638537
000170 cf d8 05 bc 63 5f 05 bc eb ac 9a bc d9 ac 49 bc
       -0.008169367 -0.008140418 -0.018881282 -0.0123092765
000180 ab 95 53 bc df 22 05 bc 36 62 33 ba a8 34 42 bc
       -0.012914102 -0.00812599 -0.00068429427 -0.011853375
000190 a2 21 9c bb d1 bf df bb aa 23 34 bc 83 b0 b3 bb
       -0.0047647515 -0.006828286 -0.010994831 -0.0054836883
0001a0 72 03 1a bc 1c d7 8a bb 96 26 21 bc 5a 6f c3 bb
       -0.0094002355 -0.004237069 -0.00983586 -0.005964202
0001b0 6b ce 0f bc 19 6e a1 bc 5a 39 1d bc c1 f2 e5 bb
       -0.008777241 -0.019705819 -0.009596193 -0.007017464
0001c0 3b 9e b4 bb c5 e0 04 bc 9b fe 20 bc c7 6e a1 bb
       -0.0055120266 -0.00811023 -0.009826328 -0.0049265358
0001d0 06 a0 56 bc 24 15 3c bc 54 3a 2d bc 0f 7f 14 bc
       -0.013099676 -0.01147965 -0.010572989 -0.009063496
0001e0 c5 88 0b bc fa b2 02 bc 4d 41 2c bc 5b 70 49 bc
       -0.008516495 -0.007977242 -0.010513616 -0.012294854
0001f0 2b c9 45 bc 71 68 aa bb 66 e3 f0 bb 8d 12 13 bc
       -0.012071888 -0.0052004387 -0.0073513268 -0.008976591
000200 20 1a d3 bd b2 ef 0d 3f 9e e7 4e 3d 05 2f 94 3d
       -0.10307717 0.5544387 0.050513856 0.07235531
000210 4c 2c 1a be f3 35 4f 3e 2b 80 6c bc 9f 57 18 3e
       -0.1505596 0.20235424 -0.0144348545 0.14877175
000220 5d ee a0 3e 7a c0 bd 3c 92 e7 9e 3e e4 82 64 3d
       0.31431857 0.023163069 0.3103605 0.05578889
000230 8d 11 95 bd 1f b9 5b 3e de 3a db bc c2 a2 7a 3d
       -0.07278738 0.21457337 -0.026761468 0.061190374
000240 ba 24 74 3e 65 09 87 bd db 96 24 3e 30 8c af 3e
       0.23842135 -0.06593589 0.16073172 0.34286642
000250 2c 86 f2 bd f6 c3 0c bd e6 93 89 be 56 a1 09 3e
       -0.118419975 -0.03436657 -0.2687065 0.13440451
000260 f9 f7 d1 be 58 8c ad 3d fa ad 16 3e ab 43 29 bd
       -0.410095 0.08474034 0.14714804 -0.0413243
000270 c3 9f 35 3e 4f f5 fd 3d b5 21 60 3d 40 3d 0e be
       0.17736726 0.124003045 0.054719646 -0.13890553
000280 2b 4a af 3c 5e 08 75 3e 2b 8f c4 bc 8c 1d 0a bc
       0.02139767 0.23928973 -0.023994049 -0.008429896
000290 a4 4d b3 3d 76 30 73 bd f0 5f 07 3e 32 89 5e be
       0.08755043 -0.059372388 0.13220191 -0.21732023
0002a0 ca 70 78 bd a7 dc ec 3d 4a 71 01 bd 10 9a c7 bd
       -0.06065444 0.115655236 -0.03160218 -0.09746182
0002b0 ee f7 19 bb 79 f1 00 3e fc 90 5d be e3 c3 e5 be
       -0.0023493725 0.12592115 -0.21637338 -0.44876012
0002c0 d6 bd e7 3c 1f d0 23 3c 35 da df bd 52 cb 66 3e
       0.028288763 0.00999835 -0.109302916 0.22538498
0002d0 bc 8e 8f bd 77 93 77 3e 97 12 23 3d 37 af 87 be
       -0.07009646 0.24177347 0.03981265 -0.26500866
0002e0 7a 39 d3 3d 51 6b ee 3b 9e 3a 4c bd 18 b2 be bd
       0.10313697 0.0072759767 -0.04986059 -0.093113124
0002f0 c5 e5 6d 3d 77 5d 9d 3d 52 b8 6f 3e 58 a6 a7 be
       0.058080453 0.07683843 0.23410156 -0.32744098
000300 8d 15 57 bd c4 2e 9e 3c 9c e3 8c 3e 6b 26 a7 3e
       -0.052510787 0.019309409 0.27517402 0.32646498
000310 1a 90 2c 3d b9 37 a2 be 7c 99 9c 3e 86 01 0e bd
       0.042129613 -0.31683138 0.3058585 -0.03466942
000320 f1 00 f5 3d 9b e0 9d 3e 28 64 6c 3c 7e 7b 2e be
       0.1196307 0.30835423 0.014428176 -0.17039296
000330 57 3e 03 3f fb 23 f2 3d 04 50 3f 3e 19 b1 3f be
       0.51267 0.11823269 0.18682867 -0.18719901
000340 12 82 11 3e 79 c7 4f 3e de f6 0e 3e 46 96 96 be
       0.14209774 0.20290937 0.1396136 -0.29411525
000350 56 9f f2 3d 68 26 02 3d 0f 6d 70 bc d3 d0 22 bf
       0.11846797 0.03177491 -0.014674439 -0.6359989
000360 69 bf 62 3e 21 cd ae bd 48 7e 39 3e 50 24 1a 3e
       0.2214333 -0.08535219 0.18114579 0.15052915
000370 d1 35 83 3d 17 5b 23 be ec 0b c7 bd 17 45 40 3e
       0.06406749 -0.15952717 -0.09719071 0.18776356
000380 50 1c bd bd 7f ae ec bd eb df c5 3a 9a 1a 94 3d
       -0.09233916 -0.1155672 0.001509664 0.07231636
000390 02 9c 79 3c eb b7 05 3f 52 d4 65 3d a0 8f 34 bc
       0.015234949 0.5223376 0.056110688 -0.011020571
0003a0 31 b8 8e 3d 80 cc 0d bd 9d b9 25 bd 5e 32 05 3e
       0.069687255 -0.034618855 -0.040460218 0.13007495
0003b0 9d bb 7b 3d 16 59 d7 3c e3 1d 16 be 24 f1 14 be
       0.06145822 0.026287597 -0.14659838 -0.14545113
0003c0 53 ae 27 3e 40 66 ae be 78 20 83 bd ea b1 d3 3e
       0.16375093 -0.34062386 -0.06402677 0.41346675
0003d0 5f 14 a5 be 12 86 63 3c 8a d5 88 3d 1e 7f 51 3e
       -0.32242104 0.013886945 0.06681354 0.20458648
0003e0 eb c6 3d 3e 74 82 82 be db 4d 47 3e 6e 57 86 be
       0.18532912 -0.25490153 0.19463293 -0.2623858
0003f0 59 66 6f bd a7 16 87 be 20 ad 99 bc 0c 60 4f 3d
       -0.058447216 -0.2638447 -0.01875931 0.050628707

p_conv1.bias f4 [4]
000000 e3 73 e3 bc 54 9a 9c 3d 60 fe 69 3e 76 d6 46 bc
       -0.02776522 0.07646623 0.22850943 -0.012136092

p_fc1.weight f4 [64, 256]
000000 d8 26 91 bb aa 58 a2 ba 83 fc b8 ba 6b bb 1d bb
       -0.0044296794 -0.0012386043 -0.001411334 -0.0024068009
000010 67 51 f9 ba 71 54 12 bb 58 a7 2a bb 6b 73 15 bc
       -0.0019021452 -0.0022328163 -0.0026039686 -0.009121756
000020 36 c7 ac bb 81 fd 91 bb bd 2c d8 ba 95 e9 6e bb
       -0.005272771 -0.004455269 -0.0016492825 -0.0036455144
000030 e9 90 64 ba 59 78 d8 bb d8 c8 94 bb b3 da 10 bc
       -0.0008719103 -0.0066061434 -0.004540544 -0.008841204
000040 c5 d2 59 bb a7 d6 89 bb 8c 67 95 bb e1 bf 95 bb
       -0.00332372 -0.0042064968 -0.004559463 -0.004569993
000050 ad 83 a1 bb 98 7b 9d bb bb 4f ca bb f1 0e 0f bb
       -0.004929027 -0.0048059933 -0.0061740554 -0.0021828974
000060 8c 89 eb bb 88 a6 b4 bb 81 24 a7 bb 29 ae 6b bb
       -0.0071880277 -0.005513016 -0.005100787 -0.0035961962
000070 d9 86 95 bb fa 96 9e bb 6d ae 95 bb 89 72 7e bb
       -0.0045631942 -0.004839775 -0.0045679123 -0.0038825592
000080 ae bf 59 ba 25 ed 80 bb 66 66 ea bb 0d 9d 07 bc
       -0.00083064556 -0.00393452 -0.00715332 -0.00827719
000090 72 7b 93 bb 4b e8 76 bb 18 32 34 bb 3a af 0f bb
       -0.0045008 -0.0037675078 -0.0027495679 -0.0021924512
0000a0 1d 8c 8a bb 20 b5 97 bb 6d 07 b2 bb 17 8f ed bb
       -0.0042281286 -0.004629746 -0.005433014 -0.0072497237
0000b0 dd b2 ad bb cb 96 a8 bb df 71 c3 bb e5 ae 12 bb
       -0.005300863 -0.005144929 -0.005964502 -0.0022382077
0000c0 0d 75 04 bc 99 03 92 bb 31 99 82 bb 08 f2 c7 bb
       -0.008084548 -0.0044559953 -0.003985547 -0.0061018504
0000d0 ec 72 a5 bb 63 61 78 bb 81 21 70 bb 59 b2 9b bb
       -0.0050491 -0.0037899844 -0.0036641064 -0.0047514853
0000e0 98 cf 8b bb 2d fd 4c bc 4e b4 61 bb b8 31 17 bc
       -0.0042666905 -0.012511534 -0.0034439745 -0.0092281625
0000f0 b6 22 e9 bb 11 92 c2 bb 44 96 b8 bb 7b 64 d3 bb
       -0.0071147336 -0.0059378226 -0.0056331474 -0.006451187
000100 da a8 a5 3c 44 3e 12 3d e8 1c c4 bc f7 50 4f 3d
       0.020222116 0.035703912 -0.023939565 0.050614323
000110 9c 75 35 bb ae f2 b0 3d 24 98 61 3c 50 01 9d 3d
       -0.002768851 0.086400375 0.013769183 0.07666266
000120 e3 10 0b bc d1 a0 17 3d 1c a3 94 bd eb b5 96 3c
       -0.008487913 0.0370186 -0.07257673 0.018397292
000130 32 ef e9 3c b6 84 01 3e ba 6b 80 bd 1c 8e a1 bd
       0.02855644 0.12648281 -0.06270547 -0.07888433
000140 da 0e 54 bc 45 3b 6a 3d 44 ef 38 ba 9a 66 61 bd
       -0.012942994 0.05718543 -0.00070546963 -0.05502949
000150 a0 ff c8 3b 6b f7 29 bd 76 66 09 3d 24 56 ce 3b
       0.0061339885 -0.04149572 0.03354498 0.00629689
000160 2a f0 75 3d 39 a7 8f bc 44 4d 16 bd 22 96 13 3d
       0.06004349 -0.017535793 -0.03669478 0.03603185
000170 d3 48 7f bc c0 c3 1b ba 0f 5b 5b 3d b4 94 0c 3d
       -0.0155813275 -0.000594195 0.053553637 0.0343215
000180 97 69 00 be ff d9 de 3c 4c 64 4a bc b9 f4 c4 3c
       -0.1254028 0.027203558 -0.012353014 0.024042474
000190 91 9f 81 ba 9b 05 22 3d 26 76 cd 3c 1e 75 0c 3d
       -0.0009889473 0.039556127 0.025080752 0.03429138
0001a0 b2 d9 33 3d 12 b4 5e 3e 51 b9 55 3e 16 6d 9d 3c
       0.043908782 0.21748379 0.20871474 0.019217055
0001b0 0f 32 b1 3c ce 58 76 bc 1f bf 6f bb d4 1b 57 bd
       0.021630315 -0.015035821 -0.0036582423 -0.052516773
0001c0 f8 b7 10 bf 7b 90 4c bd 8f 68 13 3e 12 a1 ea 3d
       -0.56530714 -0.049942475 0.14395355 0.11456503
0001d0 f2 d0 90 bd 83 a6 96 3c 12 f2 ad bc d2 c7 47 bd
       -0.07071103 0.018389946 -0.021233592 -0.048774548
0001e0 ac 58 1f 3f 99 3a 06 bf b0 3d d3 3d ad 9d e7 3c
       0.6224468 -0.5243316 0.103145 0.028273428
0001f0 57 5d 7c 3d 14 68 06 bd ab 55 a5 3d 92 b8 71 3d
       0.061612453 -0.0328141 0.080729805 0.05901391
000200 6e 09 28 bd 78 7e 55 3c 39 d0 46 3d ad 7b b8 3c
       -0.041024618 0.013030641 0.04853842 0.02251991
000210 03 10 7b bc 49 d2 63 bc 7c 27 66 3d b8 72 1a 3d
       -0.015323642 -0.013905116 0.05619 0.03770706
000220 04 5d 0e be 4a 2a 11 3c bb 81 ec bc b5 68 ce bc
       -0.1390267 0.00886018 -0.028870454 -0.025196413
000230 89 36 b1 bd eb 88 0c bd f5 e2 52 3d 8c 66 3e bd
       -0.0865298 -0.034310263 0.051485974 -0.046484515
000240 01 15 66 bd b7 ee c1 3c cb aa 48 bd 57 a9 ca bc
       -0.056172375 0.023673398 -0.048991006 -0.02473895
000250 f5 00 05 bd fd 07 d3 bb 8e 58 5f bd a3 84 ff bd
       -0.032471616 -0.0064401613 -0.05452781 -0.1247647
000260 85 ba d2 bc ef 41 52 bd 8c c4 71 3d d7 6e 1f 3b
       -0.025723705 -0.05133241 0.059025332 0.002432754
000270 84 a6 1f bd 43 94 60 3c 36 ea 8c 3d 04 56 4b be
       -0.03897716 0.013707223 0.0688061 -0.19857031
000280 eb cd 2b bd 66 90 80 3c 83 e0 96 bb 82 ac 3c bd
       -0.041944426 0.015693855 -0.0046044006 -0.046062954
000290 a7 2d 9e bd 07 78 ac bc 79 35 5f 3c 7a 13 cd bd
       -0.07723551 -0.021053327 0.013623589 -0.100134805
0002a0 3a 4a af 3d 67 77 ac bd 0e aa 70 bc b9 da 97 bd
       0.085590795 -0.08421212 -0.014688982 -0.07414765
0002b0 32 38 a0 bd 6c 60 f0 3c a9 92 7e 3d 53 de 94 bc
       -0.078232184 0.029342853 0.062151585 -0.018172419
0002c0 75 39 9a 3e ed 11 08 3e 96 d7 3e be 11 07 bd bd
       0.3012196 0.13288088 -0.18636927 -0.092298634
0002d0 95 04 a9 3c bb 70 da bd dd e3 a3 bc ee 19 38 bd
       0.020632068 -0.10666033 -0.020006115 -0.044946603
0002e0 b2 d6 52 be 91 5a 9a 3d ad 4c 2b bd c5 f6 c6 bd
       -0.20589712 0.075368054 -0.04182117 -0.09715036
0002f0 4d aa eb bc 0a d3 f3 bb 29 47 38 bc a9 fe a9 bd
       -0.02876773 -0.0074409293 -0.011247435 -0.08300526
000300 9a 72 9d 3c d6 a5 c5 3c 9f 4f ac 3c 80 5a a0 3c
       0.019219685 0.024126928 0.02103406 0.019574404
000310 7f a6 8a 3c c0 d2 a0 3c 4f 44 96 3c bd 46 76 3c
       0.016925095 0.019631743 0.018343119 0.015031514
000320 b2 e3 94 3c 5c f1 a7 3c 53 cd a1 3c 0a 2b a4 3c
       0.01817498 0.020500831 0.019751227 0.020040054
000330 77 5c b0 3c af e7 9b 3c 29 ea 8d 3c 07 aa 97 3c
       0.021528466 0.019031374 0.01732357 0.018513693
000340 52 f8 89 3c 44 67 b0 3c e8 dc 9c 3c 64 d5 bd 3c
       0.016842041 0.021533616 0.019148305 0.023173042
000350 d8 f9 b7 3c c3 43 a4 3c 9a 9b 9c 3c e9 db 8d 3c
       0.022458002 0.020051843 0.019117165 0.017316775
000360 11 f3 91 3c d3 6a 9b 3c cc 35 c4 3c 36 13 c0 3c
       0.017816098 0.018971836 0.023951434 0.02344666
000370 4d 66 bb 3c 35 88 9a 3c 42 99 9d 3c 8b 1f 8d 3c
       0.02287593 0.018863777 0.019238118 0.017226955
000380 d1 92 a0 3c cf 3f a5 3c 80 9d b6 3c 0d 14 b9 3c
       0.019601258 0.020172028 0.022291899 0.022592569
000390 d7 b4 bd 3c 7e 05 98 3c 61 f2 97 3c cc 1a 88 3c
       0.02315752 0.018557306 0.018548192 0.01661434
0003a0 a5 ad 96 3c 66 2f a9 3c 6a e0 a7 3c 6f 06 bf 3c
       0.018393347 0.020652484 0.020492751 0.023318497
0003b0 25 91 a8 3c 3a 6e 9e 3c bf cf b4 3c 7d 81 9f 3c
       0.020577023 0.01933967 0.022071717 0.019470925
0003c0 ed f7 b1 3c 51 e0 af 3c 58 ed b7 3c e9 f2 9b 3c
       0.021724666 0.021469267 0.022452042 0.019036727
0003d0 5f cf 9c 3c 50 ee 97 3c 91 21 9f 3c c7 0f 8a 3c
       0.019141851 0.018546253 0.019425185 0.016853226
0003e0 bd d5 80 3c ad f3 80 3c 90 25 a2 3c a4 fb b5 3c
       0.015726918 0.015741194 0.019793302 0.022214718
0003f0 5e fd 8e 3c 14 c7 9d 3c a4 0b 90 3c ef 3c 9c 3c
       0.0174548 0.019259967 0.017583676 0.019072024

p_fc1.bias f4 [64]
000000 69 0a 1a bd fe 8b 39 bd ea 97 85 bd 5f be 9a bd
       -0.037607584 -0.045299523 -0.06523116 -0.07555842
000010 63 a3 29 bd a3 09 13 bd 9e c8 8e bd da 38 bd bc
       -0.041415583 -0.035897862 -0.069718584 -0.023098398
000020 61 13 d7 bd ff 73 d8 bc bb cb de 3c fc 88 32 3d
       -0.10501743 -0.026422499 0.027196756 0.04358767
000030 df 2e 80 3d c8 e4 fc 3c fd 3a b2 bd 7a 1c 69 bd
       0.0625894 0.03087081 -0.08702657 -0.056911923
000040 50 51 3e bd 9e 46 7c 3d 97 39 a5 bd ff 73 ed 3d
       -0.046464264 0.061590783 -0.08067625 0.1159439
000050 c4 9b 9b 3d a3 b3 a7 bd cc 9f bb 3c 76 c5 3d bd
       0.07598069 -0.0818856 0.022903346 -0.04633089
000060 84 c5 d2 bd 95 e9 c8 3d 46 3d 9b 3d 31 51 1c 3e
       -0.10291579 0.09810177 0.07580046 0.15265347
000070 49 7a 27 3e 56 33 15 3e 41 47 c8 3d f6 7a d8 bd
       0.16355242 0.14570364 0.097792156 -0.10570328
000080 84 c9 03 be f9 a2 9b 3d 7b 54 ed 3d a0 fb f8 3d
       -0.12869841 0.07599444 0.11588379 0.12157369
000090 75 53 11 3e f7 3e cb 3d 5d 74 9e 3d 83 69 02 be
       0.14191993 0.09924119 0.07737038 -0.12735562
0000a0 16 78 d7 bd 8f c0 7a 3c 02 92 17 be a1 73 55 3d
       -0.105209514 0.015304699 -0.14801791 0.052112225
0000b0 12 a5 d0 3d 64 4d ac bd 24 c9 be 3c 5d ee b2 bd
       0.10187735 -0.084131986 0.02328927 -0.087368704
0000c0 a1 56 0f be 00 c1 f4 bb 12 00 a6 3d cb d3 30 3d
       -0.1399789 -0.0074692965 0.08105482 0.04317073
0000d0 0a a7 14 3d 34 35 aa bc 51 d4 a4 bd 22 cd 9e bd
       0.036292113 -0.020777322 -0.08048309 -0.0775397
0000e0 db 06 96 bd b4 50 86 bd 1f 22 bb bd 72 22 da bd
       -0.07325526 -0.06558362 -0.091373675 -0.10651101
0000f0 55 cb e9 bd 5f 07 c1 bd 82 e8 9c bd d9 61 89 bd
       -0.11415736 -0.09425234 -0.07661535 -0.06708116
