model/cnn/8x8/4aw/8_ttest.pt (torch_old, 478657 bytes, 15 tensors)

conv1.weight f4 [32, 4, 3, 3]
0	0x3e540c00	0.20707703
1	0x3e7a937f	0.24470328
2	0x3e2161e8	0.15760005
3	0x3e9633f5	0.29336515
4	0x3e96734b	0.29384837
5	0xbe869ddb	-0.2629231
6	0xbdfcbd48	-0.1234079
7	0xbe46f866	-0.19430694
8	0xbd659fa5	-0.056060452
9	0xbe238774	-0.1596964
10	0xbe8e7129	-0.2782071
11	0xbe58248f	-0.21107696
12	0x3d9eef87	0.0776053
13	0x3ddc67d8	0.10761994
14	0xbe1a5d07	-0.1507455
15	0x3e038f2b	0.12847583
16	0xbd269a21	-0.040674333
17	0x3e198d5f	0.14995335
18	0xbe153996	-0.14572749
19	0xbdb46b6a	-0.0880955
20	0x3d77ac07	0.060466792
21	0xbcb3d4e3	-0.021952098
22	0xbe3e3865	-0.185762
23	0xbc25f18b	-0.010128389
24	0xbd0773b1	-0.033069316
25	0x3dac3a1c	0.08409521
26	0xbd9b8910	-0.07594502
27	0x3e27d4ba	0.16389742
28	0x3d78adb1	0.06071252
29	0xbdbe6b7c	-0.09297845
30	0xbd7db9fc	-0.061944947
31	0x3afc57c2	0.0019252228
32	0xbe2afc78	-0.16697872
33	0x3c77a01f	0.015113859
34	0x3e584d10	0.21123147
35	0xbe70d39a	-0.2351822
36	0x3e8de236	0.27711648
37	0xbcd24dca	-0.025671858
38	0xbbd0ca94	-0.0063718054
39	0xbe9014f8	-0.28140998
40	0x3dbc1496	0.09183614
41	0x3d8507f1	0.06495655
42	0x3eb888a7	0.36041757
43	0xbe0c3e7b	-0.1369571
44	0x3dd359da	0.10319872
45	0xbe0b297e	-0.13590047
46	0xbebd46fc	-0.3696822
47	0xbd9ffa36	-0.07811396
48	0x3d1bbb23	0.038020264
49	0x3eb05a37	0.34443828
50	0x3c619be6	0.013770079
51	0xbee534dc	-0.4476689
52	0x3e8d3da4	0.2758609
53	0xbdeda49a	-0.11603661
54	0xbe5143eb	-0.20436065
55	0xbd413026	-0.04716506
56	0xbe16da32	-0.14731672
57	0xbd5b3e5f	-0.05352628
58	0xbdc1f293	-0.094700955
59	0xbdd76d52	-0.10518898
60	0xbe418dc5	-0.18901737
61	0xbe089fc3	-0.13342194
62	0xbed89836	-0.42303628
63	0xbced2338	-0.028947458
64	0x3dfd707e	0.12374972
65	0xbe018f56	-0.12652335
66	0x3d9c0122	0.076174036
67	0x3d1b2801	0.037879948
68	0xbda9a2e8	-0.08283025
69	0x3b56270b	0.003267708
70	0x3d997203	0.07492449
71	0x3d549608	0.051900893
72	0x3ece39bc	0.40278423
73	0x3eddf525	0.43351093
74	0xbd6a99fd	-0.05727576
75	0x3eabea90	0.33577394
76	0xbddb12eb	-0.10696968
77	0x3bc56c6a	0.006024887
78	0x3e5e8a54	0.21732455
79	0x3ce286b5	0.027652124
80	0x3e26bc8f	0.16282867
81	0xbe7e32f4	-0.24824125
82	0x3ca0cba3	0.019628352
83	0x3ebef29d	0.37294474
84	0xbd9f6f08	-0.077848494
85	0xbdc6df34	-0.09710541
86	0x3ef358dc	0.47528732
87	0xbcb1b5c4	-0.021693118
88	0x39ead6bf	0.00044791956
89	0x3dc71f25	0.09722737
90	0xbdab8aa6	-0.083760545
91	0xbdc0672c	-0.093946785
92	0xbd04ae29	-0.032392655
93	0x3d92200b	0.07135018
94	0xbb3190c4	-0.0027094344
95	0x3d4e0daa	0.050306
96	0xbda903fb	-0.08252712
97	0xbd125abe	-0.03573107
98	0x3c35e36d	0.011101586
99	0xbd85af7d	-0.06527612
100	0xbd18c0a6	-0.0372931
101	0x3d1dca46	0.03852298
102	0x3d46132b	0.048358124
103	0xbd9cc368	-0.07654458
104	0x3d356a13	0.044290613
105	0x3c3c5a36	0.011496117
106	0xbd31f3c8	-0.04344538
107	0x3e075288	0.13215077
108	0x3dbde908	0.09272963
109	0x3ebac415	0.36477724
110	0x3d626f90	0.055282176
111	0xbdbf8921	-0.09352327
112	0x3d68ac90	0.056805193
113	0x3ca1487a	0.01968788
114	0x3ea1ec21	0.31625465
115	0xbe2d545b	-0.1692671
116	0x3eae07e1	0.33990386
117	0xbda5ccbd	-0.08095691
118	0xbb706ccf	-0.0036685949
119	0xbeab1e8e	-0.3342175
120	0x3e005533	0.12532501
121	0x3d3bd053	0.04585297
122	0x3d815d96	0.06316678
123	0x3d2280c7	0.039673593
124	0xbe43a5ba	-0.19106188
125	0xbda0acc9	-0.07845456
126	0xbd06189a	-0.032738306
127	0x3cb1ac2d	0.021688545
128	0x3d2846e7	0.041083243
129	0xbdad4a77	-0.08461469
130	0xbcacaf08	-0.021079555
131	0x3d5f2329	0.05447689
132	0xbc2098cf	-0.009802057
133	0x3cb5cd21	0.02219254
134	0xbc3e90a3	-0.011631164
135	0xbdca73a0	-0.09885335
136	0xbdcec19a	-0.1009552
137	0xbd65647a	-0.056004025
138	0xbdd52871	-0.10408104
139	0xbccec7fb	-0.025241842
140	0xbe264bda	-0.16239873
141	0xbdbec6b8	-0.09315246
142	0xbe35d78a	-0.17758003
143	0xbe9899a6	-0.29804724
144	0xbea6e8a0	-0.32599354
145	0x3ddfbdba	0.10924859
146	0x3dec6359	0.115423866
147	0x3e082f80	0.1329937
148	0x3dd10fda	0.102081016
149	0x3ed82283	0.4221383
150	0xbd939325	-0.072058
151	0xbd96fd8d	-0.0737258
152	0xbe058225	-0.13037927
153	0x3eef9e03	0.4680024
154	0xbd990e5c	-0.07473442
155	0x3e2333a0	0.15937662
156	0x3e325d90	0.17418504
157	0xbe61a805	-0.2203675
158	0xbea21826	-0.3165905
159	0x3e77a57c	0.24184221
160	0xbc9ce406	-0.019151699
161	0x3eaa72d6	0.33290738
162	0x3dfcc3a2	0.123420015
163	0xbd381550	-0.0449422
164	0x3dcca598	0.09992522
165	0x3da25356	0.07926051
166	0x3c8afd09	0.01696636
167	0xbd8f7921	-0.070055254
168	0x3dd051d1	0.10171855
169	0xbd5b317f	-0.053514
170	0x3cf08820	0.029361784
171	0x3cb9a32d	0.022660816
172	0xbd4fa27d	-0.05069207
173	0xbd47741e	-0.048694722
174	0x3dde6413	0.108589314
175	0x3e154410	0.14576745
176	0xbdd075ef	-0.10178744
177	0x3d7a9836	0.061180316
178	0x3c39048a	0.011292586
179	0x3dc73f3d	0.097288586
180	0x3d554183	0.05206443
181	0x3edc08e7	0.42975542
182	0x3e99bd27	0.30027124
183	0xbdde6900	-0.10859871
184	0x3e636304	0.2220574
185	0xbdb2c934	-0.08729783
186	0xbd0d77b8	-0.034538
187	0x3dbe41c8	0.092898905
188	0xbd47102e	-0.048599415
189	0x3e1e8705	0.15481193
190	0x3e114dd7	0.1418985
191	0x3e3ca5ac	0.18422574
192	0xbdbdfdf7	-0.092769556
193	0x3e93d0f2	0.2887035
194	0x3e1521e6	0.14563712
195	0xb9f62774	-0.0004695017
196	0x3cbc06be	0.022952434
197	0x3e06bd1b	0.13158076
198	0xbc676c95	-0.014125009
199	0x3dc2119d	0.09476016
200	0x3dc902b4	0.09814969
201	0xbd5c4a5f	-0.053781863
202	0x3d55e228	0.052217633
203	0x3d9bda75	0.07610027
204	0xbdb56c76	-0.08858578
205	0xbcdcd265	-0.026955793
206	0xbddd1add	-0.107961394
207	0x3d697eda	0.05700574
208	0xbde4753c	-0.11155173
209	0xbe2bd688	-0.16781056
210	0xbdd12c6f	-0.10213553
211	0x3e437b2e	0.19089958
212	0xbdb7b087	-0.08969217
213	0x3caa6ae8	0.02080293
214	0xbd144c14	-0.036205366
215	0x3d46215f	0.04837167
216	0xbe205439	-0.15657128
217	0xbe26bff5	-0.16284163
218	0xbe5cfec3	-0.21581559
219	0xbdcbf702	-0.099592224
220	0x3bedfe9e	0.0072630187
221	0xbe4b0bd4	-0.19828731
222	0x3dc96a60	0.098347425
223	0xbe11609b	-0.14197008
224	0xbee2977d	-0.442562
225	0x3d0a1484	0.03371097
226	0x3e160891	0.14651705
227	0x3dc59f40	0.09649515
228	0xbec39cc7	-0.3820555
229	0x3ecfe2ea	0.4060281
230	0x3ed4cebd	0.4156398
231	0xbdc6534c	-0.09683856
232	0x3db57a5d	0.088612296
233	0x3cd6f246	0.026238572
234	0x3ba70a4e	0.005097664
235	0x3d0ea188	0.034822017
236	0x3cfd67cc	0.030933283
237	0xbe1417c3	-0.1446219
238	0xbd291a63	-0.04128493
239	0x3d360846	0.044441484
240	0xbc8810e1	-0.016609611
241	0xbe1060c3	-0.14099412
242	0x3d9b3e61	0.07580257
243	0xbd861c54	-0.06548372
244	0x3d16eecb	0.036848824
245	0xbcc84567	-0.024447156
246	0x3e41b234	0.18915635
247	0x3dcc6ecd	0.09982071
248	0x3d7a4d85	0.061109085
249	0xbd4c5bd0	-0.049892247
250	0xbdc75b53	-0.097342156
251	0xbd80369b	-0.06260415
252	0x3d1a7d30	0.037717044
253	0xbc3ee205	-0.011650567
254	0x3e8fc7d4	0.28082144
255	0xbe8866d5	-0.26640955

conv1.bias f4 [32]
0	0x3df22cbc	0.11824939
1	0x3d7dfc41	0.062008146
2	0xbd845cc2	-0.06463005
3	0x3d8318d3	0.06401219
4	0xbb81b2ce	-0.0039580828
5	0xbe2cd7b3	-0.16879158
6	0x3d644b50	0.055735886
7	0x37e008fb	2.6707063e-05
8	0xbd0b9810	-0.034080565
9	0x3e4d34c8	0.20039666
10	0xbc65af0a	-0.014018783
11	0xbd8bcd08	-0.06826216
12	0xbcb22d8d	-0.021750236
13	0xbe508d50	-0.20366406
14	0x3c28d6bb	0.010305102
15	0x3cf00802	0.029300693
16	0xbd60f7ac	-0.0549237
17	0x3e895490	0.2682233
18	0xbd5c7ee5	-0.053831954
19	0xbe2ae1aa	-0.16687647
20	0xbd7314a6	-0.059345864
21	0x3de41a01	0.11137772
22	0x3d46449a	0.048405267
23	0xbc3d6599	-0.011559867
24	0xbc875087	-0.01651789
25	0x3d89f51d	0.06736205
26	0x3d318b81	0.043345932
27	0x3d091063	0.033462893
28	0xbcb2b57c	-0.021815054
29	0xbdac9e29	-0.08428604
30	0x3d13daea	0.036097445
31	0x3d25b738	0.040457934

conv2.weight f4 [64, 32, 3, 3]
0	0xbdc58578	-0.09644598
1	0x3e081e85	0.13292892
2	0xbddc8b56	-0.10768764
3	0x3d304167	0.043031123
4	0x3e4d3838	0.20040977
5	0x3df5fddd	0.12011311
6	0xbe2e6767	-0.17031632
7	0xbdc709b1	-0.09718645
8	0xbe0ea96d	-0.13931818
9	0x3d461adf	0.04836547
10	0xbe0c833b	-0.13721935
11	0xbcd33927	-0.025784088
12	0x3c0770bd	0.008266625
13	0x3de775cf	0.11301767
14	0x3c996a5a	0.01872747
15	0xbe1cd105	-0.1531411
16	0x3b395476	0.0028279102
17	0x3dd6facf	0.10497057
18	0xbe87e5f5	-0.2654263
19	0x3ca672bc	0.020318381
20	0x3d188fe7	0.03724661
21	0xbe60e842	-0.219636
22	0xbd078849	-0.033088956
23	0xbbe400d7	-0.006958108
24	0x3cc29f02	0.023757461
25	0x3bb2daa8	0.0054581948
26	0xbe12541d	-0.14289899
27	0x3cec8194	0.028870381
28	0xbb6bc123	-0.0035973273
29	0xbcfa5451	-0.030557783
30	0xbb047748	-0.0020212699
31	0x3e2adde9	0.16686215
32	0xbd7c3c53	-0.061580967
33	0xbc9de28d	-0.019273067
34	0x3a44056d	0.0007477615
35	0x3ca3761b	0.019953778
36	0x3d89ef2d	0.06735072
37	0x3dec3f92	0.115355626
38	0x3cbb4daa	0.022864182
39	0x3e2dc43a	0.16969386
40	0x3cab24f2	0.02089164
41	0xbcc92673	-0.024554467
42	0xbea0a1f9	-0.31373575
43	0x3e1558bf	0.14584635
44	0x3ce2a5c4	0.027666934
45	0x3bc3ca9f	0.005975082
46	0x3caff41c	0.021478705
47	0x3de86136	0.113466665
48	0x3df546c1	0.11976386
49	0x3e1f3455	0.15547307
50	0x3d2d8371	0.04236168
51	0xbcf5a90c	-0.029987834
52	0xbcd5b593	-0.026087558
53	0xbdc35cc0	-0.09539175
54	0x3d5a4f10	0.053298056
55	0x3da16995	0.07881466
56	0x3e0aef63	0.13567881
57	0x3d83e0b9	0.06439347
58	0x3bf1376d	0.0073613436
59	0xbdd39d2f	-0.10332715
60	0x3dff0a54	0.12453142
61	0xbcccc2ec	-0.02499529
62	0xbd8389bc	-0.06422755
63	0x3b056c92	0.0020358902
64	0xbd2ab058	-0.04167208
65	0xbb47e822	-0.0030503352
66	0xbcc70f56	-0.024299305
67	0x3da0e559	0.078562446
68	0xbd84e60b	-0.0648919
69	0x3d1ce692	0.038305826
70	0xbda26579	-0.079295106
71	0xbda18b65	-0.078879155
72	0xbdd614bc	-0.104531735
73	0x3d449889	0.04799703
74	0x3dd1fcbf	0.102532856
75	0xba6b72e6	-0.000898166
76	0xbd90f1c1	-0.07077361
77	0x3d66bf1b	0.056334596
78	0xbc830254	-0.015992321
79	0xbc8aa168	-0.016922668
80	0xbe00b673	-0.12569599
81	0xbe0106e2	-0.12600282
82	0xbdbcf3d5	-0.09226195
83	0x3dcf46ae	0.10120903
84	0x3dbae71e	0.09126113
85	0x3dc862ed	0.097844936
86	0x3e9d0519	0.30667952
87	0x3e1bc8f5	0.15213378
88	0x3d43b886	0.047783397
89	0xbde579ea	-0.11204894
90	0x3d9fbd44	0.077997714
91	0x3db46f49	0.088102885
92	0x3d3f781d	0.04674541
93	0xbc0d3de7	-0.008620716
94	0xbce7c735	-0.028293232
95	0xbcb24009	-0.02175905
96	0xbdad96f0	-0.08476055
97	0xbdcd937f	-0.10037898
98	0xbe233b85	-0.15940674
99	0x3ddc2f32	0.10751189
100	0x3ccf362a	0.025294382
101	0xbdafbe6c	-0.08581242
102	0xbc05fb75	-0.008177628
103	0xbd2c0e18	-0.04200563
104	0xbdb3473e	-0.08753823
105	0xbdaef6fd	-0.08543203
106	0x3c8a89da	0.016911436
107	0xbb6dad41	-0.0036266597
108	0x3c5c2e64	0.013438795
109	0xbe196d65	-0.14983137
110	0x3d4ffbdc	0.0507773
111	0xbea0d39c	-0.31411445
112	0xbe25e6fc	-0.16201395
113	0xbea124e0	-0.31473446
114	0x3e6da21c	0.23206371
115	0xbe262abe	-0.16227242
116	0x3d193cf7	0.037411656
117	0xbdd5ce20	-0.10439706
118	0x3daf1bdc	0.08550236
119	0xbd10b819	-0.03533182
120	0xbe00bec2	-0.12572768
121	0x3db6a7a4	0.08918694
122	0x3cbe1244	0.02320207
123	0xbd81a184	-0.06329635
124	0xbd9f83a9	-0.07788784
125	0xbe17cd71	-0.14824463
126	0x3a179d60	0.00057836436
127	0xbc9a3007	-0.01882173
128	0xba22294b	-0.00061859627
129	0x3e0066e2	0.12539247
130	0x3e7c758d	0.24654217
131	0xbd06d95e	-0.03292214
132	0xbe199713	-0.14999036
133	0xbca15fe3	-0.019699043
134	0xbcb3f739	-0.02196847
135	0x3d010ee3	0.031508338
136	0x3d0215d7	0.03175911
137	0x3c633bd6	0.0138692465
138	0xbe1976b5	-0.1498669
139	0x3d219c2e	0.039455585
140	0x3dcfb02b	0.10141023
141	0xbe08cadc	-0.13358635
142	0xbd79f95c	-0.061028823
143	0xbdd98087	-0.10620218
144	0x3e3acf90	0.18243241
145	0xbdf6342d	-0.120216705
146	0xbd67dd29	-0.0566074
147	0xbd961aef	-0.07329356
148	0xbdf2db07	-0.118581824
149	0xbe01ec95	-0.12687905
150	0xbe0d55d3	-0.1380227
151	0xbe18315e	-0.14862582
152	0x3d147569	0.036244784
153	0x3dc93e62	0.09826352
154	0x3c90c7b9	0.01767336
155	0x3e040151	0.12891127
156	0xbb0d2974	-0.00215396
157	0x3d22320a	0.039598502
158	0x3da50d59	0.080591865
159	0x3d9c897d	0.07643411
160	0xbdbec293	-0.09314456
161	0xbdd19cfa	-0.10235019
162	0x3d5e2f96	0.0542446
163	0x3d7ed28d	0.062212516
164	0x3d344313	0.04400928
165	0xbe327d3b	-0.17430584
166	0xbc9c3063	-0.019066041
167	0x3def8f01	0.11697198
168	0x3db0ce17	0.086330585
169	0xbd166e34	-0.03672619
170	0xbca633d7	-0.020288391
171	0xbc2b4d59	-0.010455453
172	0x3d832667	0.06403809
173	0x3a8c795b	0.0010717319
174	0xbdaa10fc	-0.08304021
175	0x3d863561	0.0655315
176	0xbc198820	-0.009370834
177	0xbe1bb540	-0.1520586
178	0xbd402a40	-0.046915293
179	0xbdbc7a68	-0.09203035
180	0x3bc3c4a3	0.0059743687
181	0xbc2415fd	-0.010015008
182	0xbdc3e322	-0.095648065
183	0xbe2a8bac	-0.16654843
184	0x3deae162	0.114687696
185	0x3d4a0b43	0.049327146
186	0xbdadc2c0	-0.08484411
187	0x3da8cd42	0.08242275
188	0x3e70ea28	0.23526824
189	0x3ad67cef	0.0016364137
190	0xbc3f9080	-0.011692166
191	0xbd698777	-0.057013955
192	0xbbba0b52	-0.005677619
193	0xbbf76bd9	-0.0075506982
194	0xbd916a3b	-0.0710034
195	0x3b9ffdc3	0.0048825457
196	0xbd69e32b	-0.05710141
197	0x3e33c5b8	0.17555892
198	0xbd6ad6f8	-0.057333916
199	0x3d2facb7	0.042889323
200	0x3d086ad7	0.033305015
201	0xbdc10ad8	-0.094258964
202	0xbe11f701	-0.14254381
203	0x3d2e7d77	0.04260012
204	0x3d446d7c	0.047955975
205	0x3e365a89	0.17807974
206	0xbd747c67	-0.05968895
207	0xbdbbaa18	-0.09163302
208	0x3de8fcb1	0.11376322
209	0xbdeaf93d	-0.1147332
210	0xbe16f6a6	-0.14742526
211	0x3d83be49	0.064327784
212	0x3ddc9ffd	0.10772703
213	0xbe0e1b39	-0.13877572
214	0xba6cd1b5	-0.00090339343
215	0x3d9a855f	0.0754497
216	0x3d534e6a	0.051588453
217	0xbd01679b	-0.031592946
218	0xbdfe6483	-0.12421515
219	0xbe3a9a99	-0.18223037
220	0x3c9d42b8	0.019196853
221	0x3dc25c9b	0.09490319
222	0xbd51a2dd	-0.05118071
223	0x3db2e383	0.08734801
224	0xbe1b70c6	-0.15179738
225	0xbd6533aa	-0.055957474
226	0xbdd40a5b	-0.10353538
227	0xbd9a6b01	-0.075399406
228	0xbe5dc50d	-0.216572
229	0xbdb060da	-0.08612223
230	0xb9e71595	-0.00044075833
231	0xbdfef14a	-0.12448366
232	0xbc9ddb3f	-0.019269584
233	0x3d2f6ad8	0.042826504
234	0x3c81c0b6	0.015838962
235	0x3cdbb130	0.026817888
236	0x3ce9784e	0.028499749
237	0x3d8baf56	0.06820552
238	0xba9de4ca	-0.0012046334
239	0x3cb4daf6	0.022077065
240	0xbd4a5988	-0.04940179
241	0x3d5a2fe8	0.053268343
242	0x3d8cbec3	0.068723224
243	0xbca8e7d7	-0.020618362
244	0xbaa0cf76	-0.001226886
245	0xbe24cc36	-0.16093525
246	0xbd93aab5	-0.07210294
247	0x3c85cbda	0.016332556
248	0x3c2cb75e	0.010541765
249	0x3e3ef219	0.1864704
250	0xbd3a15a8	-0.04543081
251	0x3e2a0240	0.16602421
252	0xbdd7c589	-0.10535724
253	0xbc72c1d0	-0.014816716
254	0xbb603f13	-0.0034217283
255	0x3e0ef942	0.13962272

conv2.bias f4 [64]
0	0x3d030bd9	0.03199372
1	0xbd41e936	-0.047341548
2	0xbd856207	-0.06512838
3	0x3c9959cb	0.018719574
4	0xbdba787a	-0.0910501
5	0xbb7d945c	-0.0038693165
6	0xbda06bdb	-0.07833072
7	0x3b472aaa	0.003039042
8	0xbbb4ae25	-0.0055139237
9	0xbd2019fd	-0.039087284
10	0xbcfdb007	-0.030967725
11	0xbcc51019	-0.024055528
12	0xbbcc9e08	-0.0062444247
13	0x3d9a9d92	0.075495854
14	0xbd302ee3	-0.043013465
15	0xbd799032	-0.06092853
16	0xbbb4f0da	-0.005521876
17	0xbca26e94	-0.019828118
18	0x3d5d67e0	0.05405414
19	0xbbcfe71e	-0.00634469
20	0xbdafec67	-0.08590012
21	0xbdf62cbc	-0.12020251
22	0xbc0c081a	-0.008546853
23	0x3cc173ed	0.023614848
24	0xbcc24433	-0.02371416
25	0xbd1867a5	-0.037208218
26	0x3db8692f	0.09004437
27	0xbc47243a	-0.012154633
28	0xbbec0fea	-0.0072040455
29	0xbd77ac31	-0.06046695
30	0xbd9b8529	-0.07593758
31	0xbd784852	-0.060615845
32	0x3cc48195	0.02398757
33	0x3dcd81a2	0.10034491
34	0x3c82a87c	0.01594948
35	0xbd82c386	-0.063849494
36	0xbcca76c8	-0.024714842
37	0xbc3d1d91	-0.011542694
38	0xbde2afb6	-0.110686705
39	0xbd2fe984	-0.042947307
40	0xbdcb418a	-0.0992461
41	0xbd5b9d56	-0.053616844
42	0xbcf591fe	-0.029976841
43	0xbd01849e	-0.031620614
44	0xbd6fcd03	-0.058545124
45	0xbcf3886d	-0.029728139
46	0xbda6f890	-0.08152878
47	0xbdee80c6	-0.11645655
48	0xbcdfd34f	-0.02732244
49	0x3c0a27e3	0.008432361
50	0x3b373c53	0.002795954
51	0xbdc9668b	-0.09834012
52	0xbd491125	-0.049088616
53	0xbd41b981	-0.04729605
54	0xbdd2ab2a	-0.10286553
55	0xbd2a49cb	-0.04157428
56	0xbd456d00	-0.048199654
57	0xbce98e77	-0.028510315
58	0xbd8b95f7	-0.06815713
59	0xbdb5f435	-0.088844694
60	0xbcae0593	-0.021242892
61	0xbb1f7162	-0.0024329056
62	0xbd05194c	-0.032494828
63	0x3d1d2d90	0.03837353

conv3.weight f4 [128, 64, 3, 3]
0	0x3d9f95c7	0.0779224
1	0x3e1bb4e0	0.15205717
2	0x3d600da8	0.054700524
3	0x3dc2ea0c	0.09517297
4	0x3e235d89	0.1595365
5	0x3d049884	0.032372013
6	0x3c1d000b	0.00958253
7	0xbd479ccc	-0.048733518
8	0xbc988eb2	-0.01862273
9	0xbda47e8e	-0.08031951
10	0x3d388464	0.045048133
11	0x3d14ed98	0.0363594
12	0x3dceee2b	0.10104021
13	0x3d2bbcc4	0.041928068
14	0xbdac9b46	-0.084280536
15	0xbcde5596	-0.02714042
16	0xbd72f389	-0.059314284
17	0xbd55f31b	-0.052233797
18	0x3de37927	0.11107092
19	0x3db7eb08	0.089803755
20	0x3c859c81	0.016309978
21	0xbd85d86c	-0.0653542
22	0xbda40b79	-0.08010001
23	0x3dafa15d	0.085756995
24	0x3d920ce4	0.07131365
25	0xbc68fccf	-0.0142204305
26	0xbca35ceb	-0.019941768
27	0x3cb2661f	0.02177721
28	0xbcb3ea13	-0.021962201
29	0xbcf68bcd	-0.03009596
30	0xbd442e72	-0.047895856
31	0xbd80674d	-0.06269703
32	0xbd854a21	-0.065082796
33	0xbbff7101	-0.0077954535
34	0xbd72396d	-0.059136797
35	0x3cbb6214	0.022873916
36	0x3d7dfcdf	0.062008735
37	0x3d3ae248	0.045625955
38	0xbd96ae52	-0.07357468
39	0xbc31fa80	-0.0108629465
40	0xbd3f62b1	-0.04672498
41	0xbdc3902e	-0.095489845
42	0xbe081f9b	-0.13293307
43	0xbd032ea0	-0.032026887
44	0xbd9d099b	-0.07667848
45	0x3cbda2b3	0.02314887
46	0x3cd5cea4	0.02609951
47	0x3c49db2f	0.012320324
48	0x3d849f4b	0.06475695
49	0x3dd13761	0.10215641
50	0x3d49bde8	0.049253374
51	0xbdc69d14	-0.09697929
52	0x3dba94f8	0.09110445
53	0x3c8c3468	0.017114833
54	0xbccd0056	-0.025024574
55	0xbd3fa7ea	-0.046790995
56	0x3c4f9fa6	0.0126723405
57	0x3d175d70	0.036954343
58	0xbdcf25d8	-0.1011464
59	0xbdca510b	-0.09878739
60	0xbcd0a483	-0.02546907
61	0xbd47f062	-0.04881323
62	0x3da830f7	0.08212464
63	0x3d1dbe57	0.0385116
64	0x3e7381d3	0.23779993
65	0x3c09070e	0.008363498
66	0x3dfb8417	0.122810535
67	0x3e151d7e	0.14562032
68	0x3d4f9297	0.05067691
69	0xbd585dc1	-0.052823786
70	0x3d786a1c	0.06064807
71	0x3d1af7ef	0.037834104
72	0x3d4e427d	0.050356377
73	0x3e220d85	0.1582547
74	0x3bc20c68	0.005921889
75	0x3dfd34f3	0.12363615
76	0x3b29f8b4	0.0025935592
77	0x3d7cc4c8	0.061711103
78	0xbde27564	-0.11057547
79	0x3b1cc810	0.0023922957
80	0xbdc57f26	-0.09643392
81	0x3d9a9ba4	0.07549217
82	0x3df9cf1e	0.121977076
83	0xbd8a1908	-0.067430556
84	0xbccb0092	-0.024780545
85	0xbc4465bd	-0.011987147
86	0x3e0104ea	0.12599531
87	0xbd0a0bd6	-0.033702694
88	0x3d2dafec	0.0424041
89	0xbc7bb09b	-0.01536193
90	0x3d180409	0.037113223
91	0xbdeabb7f	-0.11461543
92	0xbd03f7f7	-0.0322189
93	0xbcc44d2a	-0.023962576
94	0xbdaf7673	-0.08567514
95	0x3cd703cb	0.026246926
96	0xbb8d9040	-0.0043201745
97	0xbd81ff94	-0.06347576
98	0x3d92dba8	0.07170802
99	0x3db6cf51	0.08926261
100	0x399ab12d	0.00029505175
101	0xbda66a29	-0.08125717
102	0x3cdd0cbf	0.026983617
103	0x3cc0d688	0.023539796
104	0x3c4acb65	0.012377595
105	0xbd7524ed	-0.05984967
106	0xbdcd61a9	-0.10028393
107	0xbd8cea36	-0.0688061
108	0x3dc3146d	0.0952538
109	0x3c8e4ff7	0.017372115
110	0xbc752a0b	-0.014963637
111	0x3ca32df5	0.019919375
112	0xbe00f8bb	-0.12594883
113	0x3b3c0a06	0.0028692498
114	0x3a0ee987	0.00054516684
115	0xbd97a59d	-0.07404635
116	0xbbe80a5f	-0.0070813145
117	0x3dc7051e	0.09717773
118	0x3e00538b	0.12531869
119	0xbcee3ddd	-0.029082233
120	0x3d178c0c	0.036998793
121	0x3db83333	0.089941405
122	0x3d888ebb	0.06667849
123	0x3c528da4	0.012851153
124	0xbd5903a5	-0.05298199
125	0x3d4fbbaa	0.05071608
126	0x3dd92328	0.10602409
127	0x3e2b0056	0.16699347
128	0xbdde6719	-0.10859508
129	0x3d005c17	0.031337824
130	0xbd8e0503	-0.0693455
131	0x3d909c6a	0.070610836
132	0xbbec74d3	-0.007216075
133	0xbb0f6996	-0.0021883002
134	0x3da63eeb	0.081174694
135	0xbd4e2c3c	-0.050335154
136	0xbc809dfd	-0.015700335
137	0xbd308279	-0.04309318
138	0xbcecabc5	-0.0288905
139	0xbd284dcf	-0.04108983
140	0x3ca69537	0.020334823
141	0xbd37bd5f	-0.044858333
142	0xbdf55084	-0.11978248
143	0x3da7291c	0.08162138
144	0xbd470232	-0.048586078
145	0xbc86c3b0	-0.016450733
146	0xbdad59b5	-0.08464376
147	0xbe02a37e	-0.1275768
148	0x3a1b7633	0.0005930394
149	0x3d7d7b8c	0.0618854
150	0xbe01ab01	-0.12662889
151	0xbd85d87b	-0.06535431
152	0xbdee15f7	-0.11625283
153	0xbcdc233d	-0.026872272
154	0xbc798a48	-0.015230723
155	0xbd9ad2c1	-0.07559729
156	0xbd5f3599	-0.054494474
157	0x3d572aee	0.052531175
158	0x3cf8fa54	0.030392803
159	0x3c32aa27	0.010904825
160	0x3d29fa2f	0.04149836
161	0xbd3d5865	-0.046226878
162	0xbc87c3ef	-0.01657292
163	0x3cd80aab	0.026372274
164	0xbd8cbf63	-0.068724416
165	0x3df67b34	0.12035218
166	0x3ce9b661	0.028529348
167	0xbca2aacb	-0.019856831
168	0xbd9078fd	-0.07054327
169	0xbd7c1abf	-0.061548945
170	0xbc869588	-0.016428724
171	0x3e4dbeb4	0.20092279
172	0xbcc95d46	-0.024580609
173	0x3d2decc2	0.042462118
174	0x3e25b2b6	0.16181454
175	0x3dc214ad	0.094766
176	0x3d0de1fb	0.03463934
177	0xbd022a82	-0.03177882
178	0xbbe43fdd	-0.006965621
179	0x3d09b5d5	0.033620674
180	0x3ce8ab76	0.028402071
181	0x3bd1c995	0.0064022043
182	0x3d89cfb5	0.0672907
183	0x3d00a164	0.031403914
184	0xbc8f758d	-0.017512107
185	0x3c8d1b9c	0.01722508
186	0xbd8b93ca	-0.06815298
187	0xbd8766f9	-0.06611437
188	0x3d86d2c6	0.065831706
189	0xbd1d3420	-0.03837979
190	0xbd8a1c11	-0.067436345
191	0x3d00d4b3	0.031452846
192	0xbe1c1154	-0.15240985
193	0xbdfd385c	-0.12364265
194	0xbdbfcbb5	-0.09365026
195	0xbd5f7096	-0.05455073
196	0xbdbf8201	-0.09350968
197	0xbe298d50	-0.16557813
198	0xbd2a51f0	-0.041582048
199	0x3db3c809	0.08778388
200	0xbd6aa220	-0.05728352
201	0xbcec2573	-0.02882645
202	0xbc483ffc	-0.012222286
203	0x3d8d94c4	0.069131404
204	0x3da0c48a	0.07849987
205	0xbd630ec0	-0.05543399
206	0xbca88697	-0.02057199
207	0x3d91c36c	0.07117352
208	0xbbd6d88e	-0.006556577
209	0xbca47e66	-0.020079803
210	0xbccc7773	-0.024959302
211	0xbd7877cd	-0.060661126
212	0x3d320244	0.043459192
213	0x3d50014d	0.05078249
214	0xbdb466f8	-0.08808702
215	0xbe3e5b3c	-0.1858949
216	0x3dbac4d9	0.09119577
217	0xbcd94e56	-0.026526611
218	0xbdfc6aca	-0.12325056
219	0xbd626b97	-0.055278387
220	0x3e005d08	0.12535489
221	0x3d1c5f41	0.03817678
222	0xbddc9045	-0.10769705
223	0x3d962279	0.07330794
224	0xbcf1fafb	-0.029538622
225	0x3da854bf	0.08219289
226	0x3cee30ea	0.029076058
227	0xbdaaa0f7	-0.08331483
228	0x3e06b51a	0.13155022
229	0xbc453a7b	-0.012037869
230	0x3ba5d2e1	0.005060539
231	0x3b845c5d	0.004039331
232	0x3d14528f	0.036211547
233	0xbcc31960	-0.02381581
234	0xbdaff1c6	-0.085910365
235	0xbd936872	-0.07197656
236	0xbd301827	-0.042991783
237	0xbcab9c4a	-0.020948548
238	0xbd552759	-0.052039478
239	0x3d7277bb	0.059196215
240	0xbbcd8696	-0.0062721474
241	0xbd8e9ff5	-0.06964103
242	0x3c61e6cd	0.013787937
243	0xbd49bfb5	-0.04925509
244	0x3d63ef36	0.05564805
245	0xbd5d5635	-0.05403729
246	0xbd67449b	-0.05646191
247	0x3c2fcc55	0.010729869
248	0xba7ca45f	-0.00096375303
249	0xbd920efb	-0.071317635
250	0x3d06153a	0.032735087
251	0xbd13b4a5	-0.036060948
252	0xbd1bb38a	-0.03801302
253	0x396a2112	0.00022328299
254	0xbd720a00	-0.059091568
255	0xbbd8e947	-0.0066196057

conv3.bias f4 [128]
0	0xbd338a2c	-0.043832943
1	0x3bf214c3	0.007387729
2	0xbd265ce2	-0.040615924
3	0xbe024a20	-0.12723589
4	0xbde9a6db	-0.11408778
5	0xbd09627c	-0.033541188
6	0xbdcc1ca3	-0.099663995
7	0xbd332ea6	-0.04374566
8	0xbdc0b99c	-0.09410402
9	0xbd2375fb	-0.039907437
10	0x3da59d78	0.080866754
11	0x3d2aba6f	0.041681703
12	0xbd6f1f31	-0.058379356
13	0x3d899471	0.06717766
14	0xbdc72235	-0.09723321
15	0xbcfac0af	-0.030609457
16	0xbd7add2a	-0.061246075
17	0xbd1a357e	-0.03764867
18	0xbd49a032	-0.04922504
19	0xbdb04a37	-0.08607905
20	0x3d12d7ff	0.03585052
21	0xbb98d631	-0.0046642055
22	0xbdd9a2e0	-0.10626769
23	0xbd9e9eb5	-0.07745115
24	0xbc1f15ec	-0.009709816
25	0xbc2bb169	-0.01047931
26	0xbc9064fa	-0.017626274
27	0x3e00a08f	0.12561248
28	0x3d1aeb14	0.037821844
29	0xbe641745	-0.22274502
30	0xbd869776	-0.06571858
31	0x3ddfb249	0.10922677
32	0xbd422541	-0.04739881
33	0x3cdf2817	0.027240796
34	0x3c8d0745	0.01721538
35	0xbd91ec10	-0.071251035
36	0x3d93a65a	0.072094634
37	0x3c6a532f	0.014302059
38	0xbc9120de	-0.017715868
39	0x3d99c395	0.075080074
40	0xbd978bb4	-0.07399693
41	0xbd01db01	-0.031703
42	0xbd84ff8c	-0.06494054
43	0xbe2f4f1c	-0.17120022
44	0xbd9ea8cf	-0.077470414
45	0x3dad03d2	0.08447994
46	0xbdc95c76	-0.09832089
47	0xbdd2fc9d	-0.103020884
48	0xbd94b51e	-0.07261108
49	0x3d0a6848	0.033790857
50	0xbd0083e8	-0.031375796
51	0xbde6a46a	-0.11261828
52	0x3cd3bb43	0.02584613
53	0xbbdb46a0	-0.0066917688
54	0x3c031759	0.008001172
55	0x3d602578	0.054723233
56	0xbc2e5fef	-0.01064299
57	0x3d3c6eae	0.04600399
58	0xbd61b435	-0.0551035
59	0xbd1355d4	-0.035970524
60	0x3b9ffc7f	0.004882395
61	0xbe05d963	-0.13071208
62	0xbddc34e7	-0.10752278
63	0xbd41fb53	-0.047358822
64	0x3c8241e9	0.015900569
65	0xbcc37857	-0.023861093
66	0x3d3e5a9a	0.046473123
67	0x3d8028cb	0.06257781
68	0xbdc74357	-0.09729641
69	0x3d9e870f	0.07740604
70	0xbc8fa602	-0.017535213
71	0x3cbf700f	0.023368863
72	0xbcf75764	-0.030193038
73	0x3cc195c7	0.02363099
74	0x3d1dce03	0.038526546
75	0x3c84d8ad	0.0162166
76	0x3c1ff608	0.009763248
77	0x3cc13ff8	0.023590073
78	0xbd0b1d03	-0.033963215
79	0xbda7c092	-0.08191027
80	0xbd0659ab	-0.032800358
81	0xbe067036	-0.13128743
82	0xbd24af53	-0.040206265
83	0xbc41e5a2	-0.011834534
84	0x3d8975e2	0.067119375
85	0xbcc65bd0	-0.024213701
86	0xbe16249e	-0.14662406
87	0x3b3f6658	0.0029205289
88	0xbd9dce8f	-0.077054136
89	0xbd8106f7	-0.063001566
90	0x3c5c7d52	0.013457613
91	0xbdb98ec2	-0.09060432
92	0xbba97e37	-0.0051725167
93	0xbd48b082	-0.048996456
94	0xbd8cacad	-0.06868873
95	0xbda62fc3	-0.081145786
96	0xbdc3a9bb	-0.09553858
97	0xbd8b327d	-0.06796739
98	0xbda3c308	-0.07996184
99	0xbcc7f9d7	-0.024411125
100	0xbb536178	-0.003225414
101	0xbc86708a	-0.016411085
102	0xbd992b54	-0.07478967
103	0x3ccd8756	0.025088947
104	0x3de6d1ea	0.11270507
105	0xbd77a9f3	-0.06046481
106	0xbcaf099b	-0.021366885
107	0x3cc3a52c	0.023882471
108	0x3c25f187	0.010128385
109	0xbbd71fcc	-0.00656507
110	0x3d361e0b	0.044462245
111	0xbdea331d	-0.1143553
112	0x3d057ee6	0.032591723
113	0xbd7598da	-0.059960224
114	0xbc9d2fd6	-0.019187849
115	0x3de3c251	0.11121047
116	0xbc3f6501	-0.011681796
117	0xbe4db24d	-0.20087548
118	0xbdd63c58	-0.104607284
119	0xbc7e6b8d	-0.015528572
120	0xbdb54699	-0.08851356
121	0x3d8f51b8	0.069980085
122	0x3d2b1e11	0.04177672
123	0xbceab746	-0.028651845
124	0xbdc924bc	-0.0982146
125	0xbcdbfd67	-0.02685423
126	0x3d58b5fc	0.05290793
127	0x3d4b638f	0.049655493

p_conv1.weight f4 [4, 128, 1, 1]
0	0x3d394f4d	0.045241643
1	0xbaf8f992	-0.0018995276
2	0x3e65917f	0.22418784
3	0xbd03c663	-0.03217162
4	0x3dd95e52	0.10613693
5	0xbd73e059	-0.059540126
6	0x3e52d7aa	0.20590082
7	0x3d5010ed	0.05079739
8	0xbd8c5ac1	-0.068532474
9	0xbdbe8948	-0.09303528
10	0x3e0c0893	0.13675146
11	0x3d349e03	0.044096004
12	0xbe8805ac	-0.26566827
13	0xbcb01ece	-0.021499064
14	0xbdc99261	-0.09842373
15	0xbcc8a477	-0.024492485
16	0xbccfa0c2	-0.02534521
17	0x3d936e0a	0.07198723
18	0xbc3ab960	-0.011396736
19	0xbe3f8675	-0.18703635
20	0x3d353ed1	0.04424936
21	0xbe4ce5de	-0.20009562
22	0x3e1584df	0.14601468
23	0xbd079bbb	-0.0331075
24	0x3e1d08cc	0.15335387
25	0x3c0c99d0	0.008581594
26	0xbcec0aa2	-0.028813664
27	0xbc19ba0e	-0.009382738
28	0x3d5429c0	0.05179763
29	0x3da4e5c2	0.08051635
30	0x3d0540f1	0.032532636
31	0xbc4037b9	-0.011732035
32	0xbc7f6cae	-0.015589876
33	0xbe371d5b	-0.17882292
34	0xbd144f53	-0.036208462
35	0xbdbb13ec	-0.09134659
36	0x3c7fb2c6	0.015606588
37	0x3cdfad2a	0.02730425
38	0x3c4abf46	0.012374705
39	0x3e06b01e	0.13153121
40	0x3d3f7019	0.046737764
41	0xbd056a16	-0.032571875
42	0xbdf36fe5	-0.118865766
43	0xbdb7da32	-0.08977164
44	0x3dbcdd21	0.092218645
45	0x3e079514	0.13240463
46	0xbb0f3f3f	-0.0021857766
47	0xbe1bbade	-0.15208003
48	0x3c4ea01e	0.012611417
49	0x3e263b28	0.16233504
50	0xbc9acc0c	-0.018896125
51	0x3ccd63f2	0.025072072
52	0x3dfa90a0	0.12234616
53	0x3b6fe0ed	0.0036602572
54	0xbdbb6add	-0.09151242
55	0x3de477f1	0.111556895
56	0xbdb3aa48	-0.08772713
57	0x3d67efe9	0.05662528
58	0xbd00c2ef	-0.031435903
59	0xbca42493	-0.020036971
60	0xbde39952	-0.11113228
61	0x3c355bcb	0.011069248
62	0x3d785553	0.060628247
63	0xbdb0f027	-0.086395554
64	0x3dd539b9	0.104114
65	0xbd248432	-0.040165134
66	0x3e1ce144	0.15320307
67	0xbb197990	-0.0023418404
68	0xbde891a4	-0.11355904
69	0x3e07ea16	0.1327289
70	0x3d80c679	0.06287856
71	0xbd688653	-0.056768727
72	0xbde8114e	-0.113314256
73	0xbd5b7496	-0.053577982
74	0x3ea2df9a	0.3181122
75	0x3e01735e	0.12641665
76	0x3da54341	0.08069468
77	0xbdf08fd6	-0.117461845
78	0xbdf9cfaa	-0.12197812
79	0xbca0a32f	-0.019609062
80	0xbd506b54	-0.050883606
81	0xbaaf60ab	-0.001338025
82	0x3e9c95ec	0.3058313
83	0x3b80ff75	0.003936703
84	0x3d75a0fa	0.059967972
85	0xbd9f1be3	-0.07768991
86	0x3e431bf8	0.19053638
87	0xbd8a5963	-0.067553304
88	0xbda185f8	-0.07886881
89	0x3d491e4e	0.049101166
90	0xbdd3e12d	-0.10345683
91	0xbe084673	-0.13308124
92	0x3d824ba9	0.06362087
93	0x3e94032e	0.28908676
94	0xbe0eb8c4	-0.1393767
95	0xbd366dca	-0.044538297
96	0xbd9c2e31	-0.07625998
97	0xbcea6b75	-0.028615693
98	0xb90436ca	-0.00012608911
99	0xbcf0f407	-0.029413236
100	0x3d4851ac	0.048906013
101	0x3d9ad93a	0.07560964
102	0xbc18d224	-0.009327445
103	0xbc0ffdc4	-0.00878853
104	0x3da08db8	0.07839531
105	0xbdc77555	-0.09739176
106	0x3c0823b1	0.008309291
107	0x3c649ea6	0.01395384
108	0x3d29f6c5	0.041495103
109	0xbd934699	-0.071912
110	0x3c7d0af8	0.01544451
111	0xbc572c37	-0.0131331
112	0x3d9a0bd8	0.0752179
113	0xbce92a9b	-0.028462699
114	0x3da2dca7	0.07952242
115	0x3dd27a5e	0.10277246
116	0xbdc06c0b	-0.093956076
117	0x3da0bc9a	0.07848473
118	0x3d8863c0	0.06659651
119	0x3d0d3077	0.034470048
120	0x3d1ea915	0.038735468
121	0x3e043eb3	0.12914543
122	0x3e070140	0.1318407
123	0x3df1494b	0.11781558
124	0x3e00349a	0.12520066
125	0xbdd6ea16	-0.10493867
126	0xbd0d9935	-0.034569938
127	0x3b71969a	0.0036863447
128	0x3c49eb80	0.012324214
129	0x3d084f0f	0.03327852
130	0x3db16560	0.08661914
131	0xbd292a09	-0.041299853
132	0xbd75d3a1	-0.06001628
133	0x3e60febe	0.21972176
134	0xbc21e0a3	-0.009880218
135	0x3e9cdcd5	0.3063723
136	0xbd158a4a	-0.036508836
137	0xbe0cf9f7	-0.13767229
138	0x3e738347	0.23780547
139	0x3e55bb70	0.20872283
140	0x3d11dfb6	0.035613738
141	0x3f22ddb4	0.6361954
142	0x3b8ae4c6	0.0042386977
143	0xbe1dfdb5	-0.15428813
144	0x3dce68c6	0.10078578
145	0x3c3d5497	0.011555812
146	0xbd36d765	-0.04463901
147	0x3e34d595	0.176596
148	0xbd28fa52	-0.04125435
149	0x3d73d4a5	0.059528966
150	0xbdddb186	-0.108248755
151	0x3d8a0a1a	0.06740208
152	0x3c7976f1	0.015226112
153	0x3c949249	0.01813616
154	0x3d1255aa	0.035726227
155	0xbf929371	-1.1451246
156	0x3e784b80	0.24247551
157	0x3e23da6b	0.16001289
158	0x3d9fadda	0.077968314
159	0xbd03d13e	-0.03218197
160	0xbd3a058f	-0.045415457
161	0x3dc7d89f	0.09758114
162	0x3ce01a17	0.02735619
163	0xbc2a0468	-0.010377027
164	0xbd88de98	-0.066830814
165	0xbd1304b7	-0.03589317
166	0x3dec941d	0.11551688
167	0xbee72e67	-0.4515259
168	0x3ddc3b0b	0.10753449
169	0xbc3f5348	-0.011677571
170	0xbe2d5fdb	-0.16931097
171	0x3d5ff21d	0.054674257
172	0x3d52fa46	0.05150821
173	0x3da95e77	0.08269971
174	0xbe1b3e15	-0.15160401
175	0x3d99b45c	0.07505104
176	0x3de6d8df	0.11271834
177	0x3e8fdcf8	0.28098273
178	0xbd083b96	-0.03325995
179	0xbd379d6b	-0.04482786
180	0x3cb2b600	0.0218153
181	0xbe9cf6b4	-0.3065697
182	0x3c4df708	0.012571104
183	0x3d3c51b8	0.04597637
184	0x3d825462	0.06363751
185	0xbbf4abbd	-0.007466762
186	0xbe2d6638	-0.16933525
187	0xbd47775a	-0.048697807
188	0xbd3b8a18	-0.045785993
189	0x3dd6a96b	0.10481533
190	0x3e18b039	0.14910974
191	0xbdba4fdf	-0.090972655
192	0x3da18221	0.07886148
193	0x3c964fad	0.01834854
194	0xbc928e51	-0.017890127
195	0x3db056e9	0.08610327
196	0x3e43d237	0.1912316
197	0x3c34570d	0.011007083
198	0x3e8922a4	0.2678424
199	0x3c807d36	0.015684705
200	0x3e3f585a	0.18686047
201	0x3aacffa5	0.0013198747
202	0x3e5f5d30	0.21812892
203	0x3da37f62	0.07983281
204	0x3d8a8350	0.06763327
205	0x3d06ef6a	0.032943167
206	0xbd113aba	-0.035456397
207	0x3cae6218	0.02128701
208	0xbceb390d	-0.028713727
209	0xbcc16338	-0.023606881
210	0x3d696a59	0.056986187
211	0xbde45b38	-0.11150211
212	0x3e88fd11	0.26755574
213	0x3d0a5381	0.03377104
214	0xbde265b7	-0.11054557
215	0x3dfb3b51	0.12267173
216	0x3d8a9718	0.067671
217	0x3befbe45	0.007316383
218	0xbdb3775e	-0.08763002
219	0x3e1f668e	0.15566465
220	0x3e2f9ee1	0.17150451
221	0x3ce3e91b	0.027821114
222	0xbe1a1882	-0.15048411
223	0x3d514c37	0.051098075
224	0x3e53c01e	0.20678756
225	0xbddab0b8	-0.10678238
226	0x3e837b6d	0.25680104
227	0xbc68bab5	-0.014204671
228	0xbd4a37cf	-0.04936963
229	0x3ad1c2f3	0.0016003534
230	0xbdd2344e	-0.102638826
231	0xbd89afb9	-0.067229696
232	0xbf653a6f	-0.8954229
233	0x3e1aecc8	0.15129387
234	0x3edbcb24	0.42928421
235	0x3c3f3fda	0.011672938
236	0xbbe2c590	-0.006920524
237	0x3d0c86e8	0.034308344
238	0xbe5952c3	-0.21222977
239	0xbbe950cb	-0.007120227
240	0x3c4bfeb2	0.012450861
241	0xbdafb54b	-0.08579501
242	0xbdbcde4c	-0.09222087
243	0x3e8e106c	0.27746904
244	0x3cac588e	0.02103832
245	0x3db62927	0.08894568
246	0x3ceeabf7	0.029134734
247	0x3d3676ff	0.044547077
248	0xbd9a436b	-0.0753239
249	0xbd5e0c6d	-0.05421107
250	0x3da0fa9f	0.07860302
251	0xbced04ca	-0.028932948
252	0x3c87d623	0.0165816
253	0xbba53ab2	-0.0050423974
254	0x3d45d764	0.048301116
255	0x3c9ae89a	0.018909741

p_conv1.bias f4 [4]
0	0x3e30bfa3	0.17260604
1	0x3e981b7b	0.29708466
2	0xbc5bd052	-0.013416367
3	0x3ca3ba9c	0.019986443

p_fc1.weight f4 [64, 256]
0	0x3d9fd5c2	0.07804443
1	0x3debba05	0.1151009
2	0x3cb0e73e	0.02159464
3	0x3ca85824	0.020549841
4	0x3ccc19c0	0.024914622
5	0xbd1ed3f5	-0.038776357
6	0x3d953d26	0.07287054
7	0xbb091e07	-0.0020922439
8	0x3c68f77c	0.014219161
9	0x3d2e2e63	0.042524707
10	0xbd55c868	-0.052193075
11	0xbc19fff6	-0.009399405
12	0xbe2a2a96	-0.16617808
13	0xbe0297cb	-0.12753217
14	0xbe02e2e2	-0.12781861
15	0x3d3cf420	0.046131253
16	0xbd4bdf78	-0.049773663
17	0xbd75be70	-0.05999607
18	0xbd0994bc	-0.03358911
19	0xbdff1e54	-0.124569565
20	0xbcc519eb	-0.02406021
21	0xbdb40a59	-0.08791036
22	0xbd0247c5	-0.031806726
23	0xbd17e2fd	-0.037081707
24	0xbc6fde03	-0.014640334
25	0xbdd14cd6	-0.102197334
26	0x3c1effa5	0.009704505
27	0xbcc36b68	-0.023854926
28	0xbdb7834f	-0.08960592
29	0xbdcbd09b	-0.09951898
30	0xbddeb9ae	-0.10875259
31	0xbd2cbb13	-0.042170595
32	0xbcc5d4f3	-0.024149394
33	0xbc9a5648	-0.01883997
34	0xbe0302c2	-0.12794021
35	0x3d8bc14d	0.068239786
36	0xbcced08c	-0.025245927
37	0xbd9fc2b9	-0.07800812
38	0xbc4ca6dd	-0.012490955
39	0xbce53418	-0.027978942
40	0x3df447da	0.11927767
41	0xbe0b384c	-0.13595694
42	0xbdd07cdd	-0.10180066
43	0xbe06f44d	-0.13179131
44	0xbd67a635	-0.05655499
45	0xbc4e8574	-0.01260506
46	0xbd889876	-0.066697046
47	0x3cc0ab6b	0.023519238
48	0x3d9dd691	0.07706941
49	0x3d3296c8	0.043600827
50	0xbe5a74eb	-0.21333663
51	0xbd90b44d	-0.0706564
52	0xbdd96219	-0.10614414
53	0xbdb89749	-0.0901323
54	0x3da72385	0.08161072
55	0x3c0690e6	0.008213257
56	0x3d4f6250	0.050630867
57	0x3cddc122	0.027069632
58	0x3da2dc35	0.079521574
59	0xbd4b4b03	-0.049632084
60	0xbcb8d37f	-0.022561787
61	0xbb6d2952	-0.003618796
62	0x3d6207e3	0.055183303
63	0x3d07651a	0.033055402
64	0xbd7c1794	-0.061545923
65	0xbc5cf930	-0.013487145
66	0x3c89245b	0.016740968
67	0x3ddcb6cb	0.107770525
68	0xbab92490	-0.0014125276
69	0xbd286f0a	-0.04112152
70	0xbd00aee9	-0.031416807
71	0x3d2fa130	0.04287833
72	0xbc910492	-0.017702375
73	0x3c5011de	0.012699572
74	0xbcd60d4b	-0.026129385
75	0xbd083651	-0.033254925
76	0xbd92c963	-0.07167318
77	0x3c4a7dca	0.012359092
78	0xbc525c0f	-0.012839331
79	0xbd229320	-0.03969109
80	0xbd4abb54	-0.049495056
81	0xbd6aecfc	-0.057354912
82	0xbc9f7c88	-0.01946856
83	0xbb834621	-0.0040061628
84	0x3d50128c	0.050798938
85	0xbd16a822	-0.036781438
86	0x3c4b758d	0.012418163
87	0xbdb8e261	-0.09027553
88	0x3cebca6a	0.028783042
89	0xbdcb3e31	-0.099239714
90	0xbcaf44c0	-0.021395087
91	0x3d2aea72	0.04172749
92	0xbab5476c	-0.001383049
93	0xbd011d38	-0.031522006
94	0x3dbd3f61	0.09240604
95	0xbd47a71e	-0.04874336
96	0xbd754e86	-0.05988934
97	0xbce630ba	-0.028099407
98	0x3c42c161	0.011886925
99	0x3a77e6d2	0.0009456697
100	0xbcce3422	-0.025171343
101	0xbcea49de	-0.028599676
102	0x3d258a0e	0.040414862
103	0xbdb2d2d5	-0.08731619
104	0x3bb8ed4c	0.0056435224
105	0x3e08aa72	0.1334627
106	0xbd572e35	-0.0525343
107	0xbd9f34fe	-0.07773779
108	0xbd7e5100	-0.062088966
109	0x3cbffe12	0.02343658
110	0x3c5e02b6	0.013550451
111	0xbbc1c3ae	-0.0059132194
112	0x3d37dde0	0.04488933
113	0xbd3da3e1	-0.046298865
114	0xbcf80cfb	-0.030279627
115	0x3c9876fa	0.01861142
116	0x3aa34862	0.0012457485
117	0xbb6e3b13	-0.003635113
118	0x3ca5e3d5	0.02025024
119	0xbdb51881	-0.088425644
120	0x3d46154c	0.048360154
121	0xbc6907d0	-0.014223054
122	0x3d90f669	0.07078249
123	0x3d0032d3	0.03129847
124	0x3d433c95	0.047665197
125	0xbd9090c8	-0.07058865
126	0xbd22c7fb	-0.039741497
127	0xbc78ba02	-0.0151810665
128	0x3ddf01f6	0.10889046
129	0xbb37d726	-0.0028051822
130	0xbcca451b	-0.024691155
131	0xbcd0cbbf	-0.025487779
132	0x3b0443e6	0.0020182072
133	0xbcfbfbe9	-0.030759769
134	0x3d884b96	0.06655042
135	0x3d939034	0.07205239
136	0xbc7f103b	-0.0155678345
137	0x3d58cd63	0.052930247
138	0xbcb7a956	-0.022419613
139	0x3b0330c8	0.002001809
140	0xbcce01d4	-0.025147356
141	0xbcc4f251	-0.024041327
142	0xbc8a1d19	-0.016859578
143	0x3e0c1906	0.1368142
144	0x3c82896a	0.015934665
145	0xbca12261	-0.019669713
146	0xbc9d6d1e	-0.01921707
147	0x3cd94fdd	0.02652734
148	0xbd12cda9	-0.035840664
149	0x3d391b93	0.045192312
150	0xbd3f96c2	-0.046774633
151	0xbd5a72c7	-0.053332116
152	0x3d73b5dc	0.059499606
153	0xbd215ef3	-0.03939719
154	0xbd65874c	-0.056037232
155	0x3a1b3544	0.0005920718
156	0xbc6060a5	-0.013694917
157	0x3db66f5d	0.089079596
158	0xbd2f1c92	-0.042751856
159	0x3d473a86	0.048639797
160	0x3db611f6	0.088901445
161	0xbba5147d	-0.005037843
162	0xbe16093a	-0.14651957
163	0x3c1a557f	0.009419798
164	0x3d7e1c05	0.06203844
165	0x3d1e319b	0.038621526
166	0xbce24a5a	-0.027623344
167	0x3b2824ba	0.0025656656
168	0xbde6bd20	-0.112665415
169	0xbdc9d3e6	-0.098548695
170	0xbbfb3289	-0.0076659364
171	0xbdacdbed	-0.08440385
172	0xbd624fb5	-0.055251796
173	0xbca67004	-0.020317085
174	0xbd35f2a2	-0.044420846
175	0x3cf88ab3	0.030339574
176	0x3f29a42c	0.6626613
177	0xbd70efaa	-0.05882231
178	0xbd8682dd	-0.06567929
179	0xbce4caa4	-0.027928658
180	0xbd4b326b	-0.04960863
181	0xbbf1c856	-0.0073786182
182	0x3c41845b	0.011811341
183	0x3d27678c	0.040870234
184	0xbe02f29c	-0.1278786
185	0x3e96c65b	0.29448208
186	0x3df298d8	0.11845559
187	0xbc259fd4	-0.010108907
188	0x3dc6bb51	0.097036965
189	0xbd2d4544	-0.042302385
190	0x3d9707a2	0.07374503
191	0x3d9b5d08	0.07586104
192	0x3ccd1cc4	0.02503813
193	0xbda86369	-0.08222086
194	0xbd5803b1	-0.052737895
195	0xbbd7b031	-0.006582283
196	0x3c9475f1	0.018122645
197	0xbcdabd3d	-0.026701564
198	0x3bab926a	0.00523596
199	0xbd6e87b3	-0.05823488
200	0xbd92f7e5	-0.071761884
201	0xbd40d05e	-0.047073714
202	0x3c0714c4	0.008244697
203	0x3db2ccb9	0.08730454
204	0x3db90194	0.09033504
205	0x3dd4f0da	0.10397501
206	0x3dd6ae60	0.10482478
207	0x3d2fbca3	0.042904507
208	0xbda21c4b	-0.07915553
209	0x3ae03e56	0.0017108421
210	0x3dbb00ed	0.09131036
211	0xbcce7293	-0.025201118
212	0xbddc5143	-0.10757687
213	0xbd8acee7	-0.06777745
214	0x3cedd421	0.029031815
215	0xbd6fc8ca	-0.058541097
216	0xbca81ff7	-0.020523055
217	0x3d33fb3b	0.043940764
218	0xbc43440b	-0.011918078
219	0x3d28d0dd	0.041214813
220	0xbdc9b0f5	-0.09848205
221	0xbde96c5b	-0.1139762
222	0x3d20405d	0.03912388
223	0x3a9d711e	0.0012011861
224	0xbdc556a5	-0.09635667
225	0x3d8c7d96	0.06859891
226	0x3c1f2aed	0.009714824
227	0xbe017b2b	-0.12644641
228	0x3ca917ca	0.020641226
229	0xbd548be6	-0.05189123
230	0xbdf45cd5	-0.11931769
231	0xbd62871a	-0.055304624
232	0xbddac1b2	-0.10681476
233	0xbd3ce600	-0.046117783
234	0xbd23d2e6	-0.03999605
235	0x3c455551	0.012044267
236	0x3ba783a5	0.005112129
237	0xbc64ebe2	-0.0139722545
238	0xbd80d762	-0.06291081
239	0xbd78bf74	-0.06072946
240	0x3e308cf9	0.17241277
241	0x3ea2ea3a	0.31819326
242	0xbdb1f6e2	-0.08689667
243	0x3cbca09c	0.023025803
244	0xbda0dc5a	-0.07854529
245	0xbdccd040	-0.10000658
246	0xbd46ae1e	-0.048505895
247	0xbdb103ef	-0.086433284
248	0xbe388c1f	-0.18022202
249	0xbf047a44	-0.5174906
250	0xbe423759	-0.18966426
251	0x3ddf450b	0.10901841
252	0xbcd3c15d	-0.025849039
253	0xbd33a7d8	-0.04386124
254	0x3ccc3d3e	0.024931546
255	0x3d704fe2	0.058669932

p_fc1.bias f4 [64]
0	0x3da890ab	0.08230718
1	0x3b5aa115	0.0033360173
2	0xbd610996	-0.054940782
3	0xbe042ec7	-0.12908469
4	0xbde94d9e	-0.113917574
5	0xbd7d8c24	-0.061901227
6	0xbd139390	-0.0360294
7	0x3dcbdf6c	0.09954724
8	0xbca97952	-0.020687733
9	0xbd42edf7	-0.047590222
10	0xbd8a7ef2	-0.06762494
11	0x3d8f6954	0.070025116
12	0x3da44a0e	0.08021937
13	0xbce13912	-0.027493034
14	0xbd285b4e	-0.0411027
15	0xbce76114	-0.028244533
16	0xbd506086	-0.050873302
17	0xbda35808	-0.07975775
18	0xbd1e32d4	-0.038622692
19	0xbb96f080	-0.0046063066
20	0x3cd05ff0	0.025436372
21	0xbd86a037	-0.06573527
22	0xbd6865b1	-0.056737605
23	0xbc651e63	-0.013984296
24	0xbdc6152c	-0.09672007
25	0x3d57353d	0.052541006
26	0xbb69d34d	-0.0035678924
27	0x3e362450	0.1778729
28	0x3e174cce	0.14775392
29	0x3b62fd4e	0.0034635845
30	0x3d652877	0.055946793
31	0xbdbfc696	-0.09364049
32	0xbdb4a88a	-0.08821209
33	0x3d548dc9	0.05189303
34	0xbcc7918c	-0.024361394
35	0x3e043dd7	0.12914215
36	0x3e11e415	0.14247163
37	0xbd1cca72	-0.038279004
38	0x3d806695	0.06269566
39	0xbddf54b8	-0.10904831
40	0xbdc275b7	-0.094951086
41	0xbda641b0	-0.08117998
42	0xbc1ba0f2	-0.009498822
43	0xbc869482	-0.016428236
44	0x3ccf59d1	0.025311382
45	0xbd430034	-0.047607616
46	0xbcaf5464	-0.021402545
47	0xbd9aa2ed	-0.07550607
48	0xbbfb07e0	-0.007660851
49	0xbc6caa90	-0.014444962
50	0xbda71f41	-0.08160258
51	0x3d9c9f0c	0.07647523
52	0x3db7b599	0.08970184
53	0xbd57abaa	-0.052653946
54	0x3bed1fc3	0.0072364523
55	0xbcbab869	-0.022793012
56	0x3ddf622f	0.10907399
57	0x3c5ff82f	0.013670011
58	0xbcc0d41c	-0.023538642
59	0xbd9e8edd	-0.07742093
60	0xbdd8854e	-0.10572301
61	0xbcf8d59a	-0.03037529
62	0xba43d066	-0.00074697135
63	0x3e064b4a	0.13114658

value_conv1.weight f4 [2, 128, 1, 1]
0	0x3e81521f	0.25257966
1	0xbeb4914e	-0.3526711
2	0xbe8993bc	-0.26870525
3	0xbe05e2aa	-0.13074747
4	0xbe136428	-0.14393675
5	0xbe76ee52	-0.2411435
6	0x3e4f4ccd	0.20244141
7	0xbd62879b	-0.055305105
8	0xbc0de7c9	-0.008661219
9	0x3d76740c	0.060169265
10	0x3de85714	0.11344734
11	0x3b6cf5fe	0.0036157365
12	0xbd05d5b3	-0.032674503
13	0x3d986423	0.074409746
14	0x3d4bbac2	0.049738653
15	0xbdbc8372	-0.09204759
16	0x3c5977bb	0.013273175
17	0x3e89ed49	0.26938847
18	0xbebcce13	-0.36875972
19	0xbe8179e9	-0.25288323
20	0xbdc78634	-0.09742394
21	0x3da6acc3	0.081384204
22	0xbe369bfd	-0.17832942
23	0xbed9dd38	-0.4255159
24	0xbdb49cf0	-0.08818996
25	0x3cf1a26f	0.0294964
26	0x3e1a83ac	0.15089291
27	0xba853942	-0.0010164159
28	0xbd4ea553	-0.050450634
29	0xbe331719	-0.1748928
30	0xbecd6bdf	-0.40121362
31	0x3ebfc7ac	0.37457025
32	0x3e501bd5	0.20323117
33	0x3d148560	0.03626001
34	0xbc80fbc9	-0.01574506
35	0xbd725265	-0.05916061
36	0x3dbf6559	0.093455024
37	0xbeebfc6d	-0.46091023
38	0x3debcfe3	0.115142606
39	0xbd4571a9	-0.048204098
40	0xbe2d40b3	-0.16919212
41	0xbe2ecae1	-0.1706958
42	0xbe13dd8d	-0.14439984
43	0xbd7f2df2	-0.062299676
44	0x3eb06e2c	0.34459054
45	0xbdce835c	-0.100836486
46	0xbe8d054c	-0.27543104
47	0x3db8eb97	0.0902931
48	0xbe953d15	-0.29148164
49	0xbd8210ab	-0.063508354
50	0xbe11f145	-0.14252193
51	0xbeda85c0	-0.42680168
52	0xbd8bff5b	-0.068358146
53	0x3da52899	0.08064384
54	0xbdd6acc8	-0.10482174
55	0xbce4a629	-0.027911263
56	0xbe95eeea	-0.2928384
57	0x3ee447dd	0.44586077
58	0xbe414ad8	-0.18876207
59	0x3e800403	0.2500306
60	0xbd45bf55	-0.04827817
61	0xbea9a302	-0.33132178
62	0x3e700046	0.23437604
63	0xbc80e3b0	-0.01573357
64	0x3c5690f9	0.013096088
65	0x3e1caa33	0.15299301
66	0x3da512e1	0.080602415
67	0x3e967fbd	0.29394332
68	0xbe2e90a0	-0.17047358
69	0x3db2d027	0.08731108
70	0x3cd32040	0.025772214
71	0xbe706399	-0.23475493
72	0x3d080dac	0.033216164
73	0x3ef66035	0.48120275
74	0xbe16dc99	-0.14732589
75	0xbdbef6f5	-0.09324447
76	0x3d832972	0.064043894
77	0x3c8ad67d	0.01694798
78	0xbe28b977	-0.16476999
79	0xbd8c8a26	-0.06862287
80	0xbe711f99	-0.2354721
81	0x3e4bc2f4	0.19898587
82	0xbd9abac1	-0.07555152
83	0x3e15d08b	0.14630334
84	0xbd9b387a	-0.075791314
85	0xbdda7d32	-0.1066841
86	0x3dbe06e2	0.092786565
87	0xbe588c24	-0.2114721
88	0x3e921246	0.28529567
89	0x3d580659	0.05274043
90	0xbd5aa7f1	-0.053382818
91	0xbe112fae	-0.14178345
92	0xbd9d7e5b	-0.07690116
93	0xbd5c70ce	-0.053818516
94	0x3da7cbf0	0.08193195
95	0x3e52120b	0.20514695
96	0x3e854cfd	0.260353
97	0x3e9ce998	0.30646968
98	0xbd94c00e	-0.07263194
99	0x3e1b3556	0.15157065
100	0x3e80554f	0.25065085
101	0xbdefc10c	-0.11706743
102	0x3dd66275	0.10467998
103	0xbeb9c7e1	-0.36285308
104	0x3b28f5d3	0.0025781288
105	0x3d09ec1f	0.03367245
106	0x3c266003	0.010154727
107	0x3de7afad	0.11312804
108	0x3e3791b6	0.17926678
109	0x3dec3a60	0.11534572
110	0xbd19f8c2	-0.03759075
111	0x3db6a405	0.08918003
112	0xbe7b113b	-0.24518292
113	0xbdf3ed10	-0.119104505
114	0xbe788aec	-0.24271744
115	0x3c2c3d7c	0.010512706
116	0x3e02c49f	0.12770317
117	0x3ec38ebc	0.38194835
118	0x3e234dcb	0.15947644
119	0x3e339603	0.17537694
120	0xbe2fe134	-0.17175752
121	0xbe6b2785	-0.22964294
122	0x3e3b5b64	0.18296582
123	0x3d522439	0.051304076
124	0x3e6cbe1a	0.23119393
125	0x3c8ede14	0.01743988
126	0x3e8c74b3	0.27432784
127	0xbebb9281	-0.3663521
128	0xbe872fe8	-0.26403737
129	0xbe91104f	-0.28332755
130	0x3d039e76	0.032133542
131	0xbe7f6b82	-0.24943355
132	0x3e3c3a06	0.18381509
133	0xbd3b4ce9	-0.045727644
134	0x3ef5365a	0.4789303
135	0x3dae22c9	0.085027285
136	0x3bfdcd22	0.007745401
137	0x3e5b9fa0	0.21447611
138	0x3ba6b8be	0.005087941
139	0x3d165e19	0.036710832
140	0xbda324fa	-0.07966037
141	0x3d81fa72	0.06346597
142	0xbdaa17c4	-0.08305314
143	0x3dc8dd5b	0.09807845
144	0x3dc3ca43	0.09560063
145	0xbe8c6eb5	-0.27428213
146	0xbdf7575c	-0.12077209
147	0x3bcdb33a	0.006277469
148	0xba6a08fe	-0.00089277315
149	0xbd96e913	-0.07368674
150	0xbd6b9909	-0.057518993
151	0x3e4480a4	0.19189698
152	0x3e7bd200	0.24591827
153	0xbeb7a34d	-0.35866776
154	0x3e42f001	0.19036867
155	0xbd03d912	-0.032189436
156	0x3defbb79	0.117056794
157	0xbcc2e107	-0.023788942
158	0x3e82c685	0.25542083
159	0xbedbba08	-0.42915368
160	0xbee1e877	-0.4412267
161	0x3da2e0d2	0.07953037
162	0x3ccf7da1	0.02532846
163	0x3e914c0b	0.2837833
164	0x3e02e218	0.1278156
165	0x3d2586e2	0.040411837
166	0x3d98652f	0.07441174
167	0x3d3ec571	0.046575014
168	0xbd0e01f7	-0.034669843
169	0xbe92b8ba	-0.2865656
170	0xbe35843d	-0.17726226
171	0xbe7cd4df	-0.24690579
172	0x3d952966	0.07283287
173	0x3cf7db11	0.030255826
174	0xbdb3935d	-0.08768342
175	0x3e133877	0.14377008
176	0xbe59c616	-0.2126697
177	0xbe0b7cc3	-0.13621812
178	0x3e186bbd	0.14884849
179	0x3eac7098	0.33679652
180	0xbedc105c	-0.4298123
181	0x3e1a2222	0.15052083
182	0xbea3f88d	-0.32025567
183	0x3d3bb2dc	0.04582487
184	0x3e1ceda5	0.15325029
185	0xbe34612a	-0.1761519
186	0x3e2ac5a0	0.1667695
187	0xbe3bc0d2	-0.18335274
188	0x3de94f28	0.11392051
189	0xbe66440a	-0.22486892
190	0x3d1971cf	0.037462052
191	0x3d24b4f1	0.04021162
192	0x3d1f1df7	0.038846936
193	0x3e2321f8	0.15930927
194	0x3d63bb96	0.055598818
195	0xbe6ca092	-0.23108128
196	0xbdc4c673	-0.09608164
197	0xbe546df9	-0.20745076
198	0x3e374aeb	0.17899673
199	0x3e6ce251	0.23133208
200	0x3d578bd3	0.05262358
201	0xbe2f8315	-0.17139848
202	0xbde4dbbe	-0.11174725
203	0x3ea2aa45	0.3177053
204	0xbd8c9067	-0.0686348
205	0x3d2d898c	0.042367503
206	0x3da617a2	0.08109976
207	0x3e5bd23f	0.21466921
208	0x3b986f2f	0.004651926
209	0x3e8e7161	0.27820876
210	0xbd699b1b	-0.057032686
211	0x3e0e531d	0.13898893
212	0xbd0d8014	-0.034545973
213	0xbdb88171	-0.09009064
214	0x3e27ddec	0.1639325
215	0xbe755935	-0.23959811
216	0x3e8bc0ad	0.27295437
217	0x3e49a7b9	0.19692887
218	0x3dbd42c3	0.092412494
219	0xbd20cf1b	-0.03926001
220	0x3d3f2a13	0.046670984
221	0x3ebc73c2	0.36807066
222	0x3dd3fae3	0.10350587
223	0x3ea9900d	0.33117715
224	0x3e806a21	0.2508097
225	0x3cecf302	0.028924469
226	0x3bbcad8b	0.0057579926
227	0xbece6473	-0.40311012
228	0xbce5d675	-0.028056363
229	0x3d8f3f64	0.06994513
230	0x3d88de4e	0.06683026
231	0x3d45d4b2	0.048298545
232	0x3cf78e37	0.03021918
233	0x3de7726c	0.11301121
234	0x3dc8a10b	0.097963415
235	0xbeedd790	-0.46453524
236	0x3e339541	0.17537405
237	0xbecea76d	-0.4036211
238	0x3d337ba5	0.04381909
239	0x3e89dd30	0.26926565
240	0x3e575dd1	0.21031882
241	0x3e1e24ac	0.15443677
242	0xbbad28fe	-0.0052844277
243	0xbc36ec04	-0.011164669
244	0xbe09e4c1	-0.13466169
245	0x3e008167	0.12549363
246	0x3cf8335d	0.03029793
247	0x3e740973	0.2383173
248	0x3de0b227	0.1097148
249	0x3e1f7323	0.15571265
250	0xbdd91b87	-0.106009535
251	0xbe026381	-0.1273327
252	0x3ddb2e23	0.10702159
253	0xbd78c715	-0.060736734
254	0xbeb845eb	-0.35990843
255	0x3e522ffd	0.20526119

value_conv1.bias f4 [2]
0	0x3d88fb76	0.06688587
1	0x3d52086d	0.051277567
