model/cnn/8x8/4aw/_8.pt (torch_old, 478657 bytes, 15 tensors)

conv1.weight f4 [32, 4, 3, 3]
00000000: bcbf 9fbd 8516 9dbd c9b0 c0bd f52a d83e
00000010: 617b e2bd 3d59 e2be 8487 45bb f824 f0bb
00000020: 8711 1b3e 673d 39be e82b 48bd af67 f9bc
00000030: 8924 d53e 763c 443d 2d52 fdbe 84f9 8abd
00000040: 99ab 0f3e 36cb 4c3e 0b20 e5bc 825f 34bd
00000050: ae8b c1bb 5bcd b23b 35c9 99bb bd20 a7bb
00000060: df56 90bd 253b 1e3e f5f4 033e 8240 56be
00000070: a5b0 7ebe d22d 28be 316e 1a3d cdb3 ab3c
00000080: 5107 4b3e e9a4 683c de79 5e3b a4ea 103e
00000090: 8726 723f 20ee 1a3d cb71 813d 58b9 3cbc
000000a0: bd08 ca3d 3dd2 c4bd 6b34 973b 1c1b 0dbe
000000b0: 729f 04be a041 c2be 51da 153e 4456 1bbe
000000c0: 93a7 d33d 1b70 bf3e 6783 213d 06dc 9c3d
000000d0: f234 f83c c139 273e 5d0a 90bd 47cd c83c
000000e0: 0d17 93bd 35ec 8cbd 9bdd de3c 6c34 57bc
000000f0: 91ac dabd 19eb b33d ddda a73d 8760 08bd
00000100: 9615 693c 7f96 8e3d 8b89 9ebd 25cf 813d
00000110: 9188 bcbc c281 3c3c 427c 8a3d 3315 af3d
00000120: a465 1bbc 0985 1b3f 96cc 10bd 0ecd 12be
00000130: 0b6e 75be bf20 55bd 8f62 3e3d a322 a13e
00000140: 6485 c53d eb45 74be 1e69 373d cd26 33be
00000150: e198 c63e 1f97 463d 8e1a b13e 2eb4 07be
00000160: 28c4 a4bd c0ce 0cbd f487 f13c 5f98 a93c
00000170: 9321 a73d a65a d73e 4d61 1b3e e25c 2f3e
00000180: 48cd b93d 1e31 98bc 4909 cc3c c49b a0bd
00000190: 142e 173e 6a2c 07be 6750 c93d d39a e03d
000001a0: 2bfc 2cbe 78da 34bd 9921 773d 897f bbbd
000001b0: 752b 3d3d f437 f03d 5b79 0e3b 1e1b 0b3e
000001c0: cbea 6b3f 0c1c 0dbc 6229 0a3f e14c bd3e
000001d0: 032e ee3d 2ff5 d93d 4fe9 e03d 5662 a43d
000001e0: fb14 d73c 2b48 373e 4791 dd3c f147 5cbe
000001f0: a10f 843d 5e38 323e 927d d23c 02fe 80bd
00000200: 0624 343e fc2a a3bd 8bc0 1ebe 01e4 023d
00000210: 22f0 5fbd afc7 adbd b6c5 2dbd 49b2 72bc
00000220: 13d2 90bd 0c24 0dbe eda9 8c3d fd92 b33d
00000230: 0f2f c93d 4883 1eba 3304 583d 0a91 69bc
00000240: 18cb 93bd 41f2 7ebd 2dda c2bd 3773 8abd
00000250: 5215 fcbd dffb 04be de5c cdbd 35c8 e13e
00000260: 1e72 68be 781f 903d c40c 05bd b015 dbbc
00000270: 28de 28bb 7f44 893d 8c81 613d e5ee 003d
00000280: d4b9 9b3c ca27 34bc 0ba5 8f3e e58a 2fbd
00000290: e5f0 3dbd 7281 82bd f3a7 2cbc deb2 bcbd
000002a0: 1439 d4bd dfcf dcbd a91a ecbb 3366 8dbe
000002b0: 3935 f03d a729 373e d41a c1be 18a5 b33d
000002c0: 0327 ca3d 7cdf 8cbe af46 113e a5b5 a33d
000002d0: 2f45 113e c26c 07be 0565 eb3b 139c a2bd
000002e0: 6a64 223e 0bf1 46bd bc8d 0c3c 4e5b d83b
000002f0: 697f 36bd 467e 00be ebb8 17be 3ab0 ddbd
00000300: 690c 2abe 4ff6 183e d79b 1ebe 114c e43c
00000310: 5953 ba3d a74d eb3e 8810 75be 0c6c 3bba
00000320: 812e 6bbe 9d1f e6bc 1aa1 1cbe 568c 89bd
00000330: 672b 58be d09c 4b3c 5e20 93be b306 88be
00000340: fe5e 96be d0cf 02bf cdd1 a63e 7c71 4a3e
00000350: 5748 01be 2a12 9b3e a25a 5b3e 5a9f 393c
00000360: 1863 85be 8c0d e8bd c8d6 0f3d f176 c7bc
00000370: dbf2 483e 5ebb b8bd 0eab 94bd 61a6 a9bc
00000380: e4e9 113e 4485 39be 418e 01be 6dc2 aabd
00000390: ef7e d83e 1fd4 33ba cbed 6bbe 339d 8ebd
000003a0: 8ed1 e3bd 4d80 b0bd b58b 4fbd da42 ac3a
000003b0: 2b79 6f3d f588 42be 5078 72bc d8f9 c1bc
000003c0: 6d39 813c 462c 81bc bea9 8ebd 471d 4e3c
000003d0: bf4c a93d 09ea ac3d b3cf 3abd 5483 30bd
000003e0: 5bfe 803d aa58 7fbb 86e7 b93c af4b 613d
000003f0: 7618 3a3e de5e 5bbd 3b62 e13e 01f1 d33b
-0.07800242 -0.07670311 -0.09408719 0.42220274 -0.11058689 -0.44208708 -0.0030140588 -0.007328626
0.15143405 -0.1808983 -0.048869997 -0.030444948 0.41629437 0.047909223 -0.49476758 -0.067858726
0.14030303 0.19999394 -0.02796938 -0.044036396 -0.0059065437 0.005456609 -0.004693175 -0.0051003383
-0.07047819 0.1545225 0.12886412 -0.20923045 -0.24872072 -0.16423729 0.037702743 0.02095976
0.1982701 0.014199474 0.003394715 0.14152008 0.9459004 0.03782475 0.063205324 -0.011518799
0.09864948 -0.09610412 0.004614403 -0.13779873 -0.12951449 -0.37940693 0.14634062 -0.15169626
0.103346966 0.37390217 0.039431956 0.07659154 0.030298684 0.16330625 -0.07033227 0.024511946
-0.07182131 -0.068809904 0.02720528 -0.013135057 -0.10677446 0.08785076 0.08196042 -0.03329518
0.014226338 0.069622986 -0.07741078 0.06338338 -0.023014339 0.011505546 0.067619815 0.08548965
-0.009484682 0.6074987 -0.03535136 -0.14336035 -0.2396776 -0.052033182 0.04648071 0.31471738
0.09644583 -0.23854797 0.044777982 -0.1749527 0.38788512 0.048483964 0.34590572 -0.13252327
-0.08045226 -0.03437686 0.029483773 0.020702539 0.08160701 0.42061347 0.15173836 0.17125276
0.090723574 -0.018578108 0.024906771 -0.0784221 0.14763671 -0.13200536 0.09829789 0.109670304
-0.1689307 -0.04415366 0.060334776 -0.09155185 0.046184022 0.11729422 0.0021739814 0.13584563
0.9215514 -0.008612644 0.53969395 0.36972716 0.1162987 0.10642468 0.10982 0.080265686
0.026255121 0.17898624 0.027046813 -0.21511818 0.064482935 0.17404315 0.025694642 -0.06298448
0.17591867 -0.07967183 -0.15503137 0.031955723 -0.054672368 -0.08485352 -0.04242488 -0.014813014
-0.070713185 -0.13783282 0.06868348 0.0876827 0.09823429 -0.0006046784 0.05273838 -0.014255771
-0.072164714 -0.06224275 -0.0951427 -0.06760257 -0.12308754 -0.12986706 -0.10027479 0.44098058
-0.22699782 0.07037252 -0.032482877 -0.02674374 -0.002576718 0.06702518 0.055055186 0.031477828
0.019009508 -0.010995815 0.28055605 -0.04285707 -0.046372313 -0.06372346 -0.010538089 -0.09213804
-0.10362449 -0.10781836 -0.0072053266 -0.27617034 0.117289014 0.17886983 -0.3771578 0.087717235
0.09870722 -0.27514255 0.1418712 0.0799363 0.14186548 -0.13225082 0.0071836733 -0.07939925
0.15858617 -0.04856972 0.008578714 0.0066026812 -0.0445551 -0.1254817 -0.14816634 -0.10824628
-0.16606297 0.1493771 -0.15489136 0.027868303 0.090979286 0.45957682 -0.23932087 -0.0007149584
-0.22966959 -0.028091246 -0.1529583 -0.0671622 -0.21110307 0.012427524 -0.28735632 -0.2656761
-0.29369348 -0.51098347 0.3258194 0.19769853 -0.12625252 0.30287296 0.21421292 0.011329496
-0.26052165 -0.11330709 0.03511694 -0.024348708 0.19623892 -0.090201125 -0.072591886 -0.020709218
0.14249378 -0.18117243 -0.12651922 -0.08337865 0.42284343 -0.00068599166 -0.2303993 -0.06963577
-0.11123954 -0.086182214 -0.050670344 0.0013142482 0.058465164 -0.18997557 -0.014799193 -0.023678705
0.015774453 -0.015768182 -0.069659695 0.012580222 0.08266591 0.08443076 -0.045608234 -0.043093994
0.062985145 -0.003896276 0.022693407 0.055003818 0.18173394 -0.05355727 0.44020256 0.006467939

conv1.bias f4 [32]
00000000: 5450 b0bb 47be d3bd 4fb8 43be 8a1a 74be
00000010: 1db8 593d 5d66 c13d e2ff 8bbe c4e2 2abd
00000020: 6eb9 d7bb e96d 483e f431 d2bd 401f 8cbe
00000030: ebcb 9abe 33da c6be 6967 e9bd 0ef3 26be
00000040: 8ca3 55bd 0e59 fbbd 050b 85bd 7145 263e
00000050: f8c5 093c d055 323f 09d2 5dbe ec03 96be
00000060: ea2a a93d 34bd c2bd c627 1dbe 2439 7abe
00000070: 8daf 90bd 29f7 15be 5e2f ebbd b1e5 0fbe
-0.0053806696 -0.10339027 -0.19113277 -0.23838249 0.0531541 0.09443352 -0.2734366 -0.041720167
-0.0065833842 0.19573177 -0.10263434 -0.27367592 -0.30233702 -0.38838348 -0.11396677 -0.16303656
-0.052157924 -0.12272845 -0.064962424 0.16237427 0.008409016 0.6966219 -0.21662153 -0.29299867
0.08260138 -0.09508744 -0.15347204 -0.2443586 -0.07064734 -0.14645065 -0.11483644 -0.14052464

conv2.weight f4 [64, 32, 3, 3]
00000000: 7439 f1bc 846e 453d 99a9 a63c be71 273d
00000010: 1c38 e4bb 5850 6c3c 5e30 20bd edbe 14bd
00000020: 7459 7fbd cfdc 5fbd 035e 72bd 170f c13c
00000030: b799 f9bc f0ff aabd eb58 f13c 8f6b 693d
00000040: 9609 b5bc 5156 28bd 3784 91bd 108e d5bc
00000050: b249 bd3b a79f a4bd bb37 19bc 2874 be3d
00000060: 352d 0dbd 7a99 66bd 03ee 3bbd 3aa4 013c
00000070: 1e07 80ba c0f6 dc3c f796 213b 87f4 36bd
00000080: 76e9 c8bb e2fb d3bc b32c 69bd 02d5 3d3b
00000090: b1ab 04bd a0bb f1bc 4adb 153d 8639 b5bd
000000a0: 5fa5 75bd 153d 883c ef3a c2bc 7e66 c0bc
000000b0: 7596 cebb 15b0 9a3d bd41 cebc 1298 883c
000000c0: a07d 1fbd 11e3 42bd c6c0 b8bc a3f8 3e3d
000000d0: 4003 0abc 341c 833d 6f69 26bd 06be 2e3c
000000e0: 6120 dfbc d48e b2bc b59b 7cbc ecf7 133b
000000f0: 74b7 de3b 540b 443c 54ba c5bc 6bfb ec3d
00000100: b0c3 25bc 4576 68bc 4506 e83c 4cff 063d
00000110: 2535 39bd 10db 113d bcb5 be3b c004 d2bd
00000120: ec8e afbc c539 85bd 81ab d63b 292e c3bc
00000130: 5048 0c3d a424 333d e465 a73c 9fd7 54bd
00000140: 035e 5a3d 1b0e 953c 5237 2dbd e454 7a3d
00000150: a7f7 393d 9331 0f3d 806d b7bc 9a6c 163d
00000160: f7af e6bc 6072 3f3c 09f9 d53a 83cf c13d
00000170: 90be 563b 638d e7ba cafc fb3c 2735 0c3e
00000180: 69c3 913c 19ff 133c e71b b83c e1ad 613d
00000190: 8b0c c5bd 5789 8abd e822 80bd 5148 303b
000001a0: 3d8e 80bd d703 bdbc 55a0 793b 8d3c 0abd
000001b0: 2428 b8bd a9d2 4c3b 6c6f 863d cacf 483d
000001c0: e217 25bd 50a8 5f3c 21b4 d9bc b12e 35bd
000001d0: 7b3c 3cbd 31d8 14bd 49b7 0f3c ad97 c5bc
000001e0: f911 0ebd 280b 45bd 5cec 4e3d 6502 833d
000001f0: 38e4 84bc 1c0a 9bbc 8f65 c1bc 8689 e7bd
00000200: 872e 463d afde aeba 4791 323d 264a 3a3b
00000210: ae80 8abc 161c 18bd aa25 3ebd 196b 66bc
00000220: 6856 873c ed52 573d 6f13 833d d944 8ebc
00000230: 0a5a e6bc fa85 38bd 7ea8 4bbd 93d5 663c
00000240: 5629 913d 8e23 d1bd 23aa d2bc 4f34 57bd
00000250: c6da fcbb d9b8 8ebd 61ef 38bd 94b7 73bd
00000260: 6eab 2bbd 3a92 e0ba 706f afbd ffc3 2abd
00000270: 3e9a b6bd 221c 9e3b 3a5b 8eba 46e4 c7bd
00000280: 2980 11bd 2288 2ebb ad5c 65bd 9cee f6bd
00000290: e899 993b 78a2 bfbd 577f f7bc fd97 49bd
000002a0: 72d7 03be 6f34 08be 5de6 a7bd d3f1 913d
000002b0: bef2 31bd a7ea 21bd 6927 93bb 6da2 873d
000002c0: a3cc 2cbd d38a cfbb 9624 a5ba 64df ef3c
000002d0: bec0 83bd 1907 c73d c245 76bd 21ae dcbc
000002e0: e2d9 04bd 2f59 923c e61f 2bbb 71ea d9bb
000002f0: 8b61 efbc 7bda c03d 7f05 a83c 48ae 32bd
00000300: 9588 003d 059e df3c 88ab 90bd 467e b23d
00000310: d035 ce3c 4858 46bd f4b5 95bb c174 95bc
00000320: e9de 92bc 420c b8bd e1a2 39bd bb1e 77bd
00000330: 0baa 4fbd a22e 24bd ab3f 08bd 29dd 433d
00000340: be70 d6bd 5096 593d d10f 9bbc b15c 1f3d
00000350: a5f3 4fbc dc7c 2e39 0d1c 55bc 522f a0bc
00000360: f28b 83bc 93a8 dc3d 9acf 663c 8546 543d
00000370: 2343 f3bc bcc0 513c 1f47 2bbd 2611 553d
00000380: df6f c93c c623 293d e654 90bd d117 1ebb
00000390: c463 26bb 4fad d03c d388 b3bc 5adc aeba
000003a0: 390e 0c3d b2a4 db3c 01b8 2dbd c3f5 4abd
000003b0: cd95 85ba f742 afbd 3c92 08bd b037 93bd
000003c0: 6d5f 3cbd 21c8 98bd 4a72 9cbd f6c9 933b
000003d0: fcd6 1ebc 153a 0e3e 9ffe 5dbc f645 1c3c
000003e0: 65a2 0e3d ef8d 9c3d ab44 1d3b 67ac b43c
000003f0: bf84 8cbd 50e8 cd3d 98e2 acbd b0e4 5ebd
-0.029446341 0.0482011 0.020344542 0.040879957 -0.0069646966 0.014423452 -0.039108627 -0.036314894
-0.06234117 -0.05465394 -0.059171688 0.023566766 -0.030468805 -0.083495975 0.029461345 0.05698734
-0.022099297 -0.041097943 -0.07105296 -0.026068717 0.0057766074 -0.08038264 -0.009351666 0.09299499
-0.03446694 -0.05629871 -0.045881283 0.00791269 -0.0009767746 0.026973128 0.0024656632 -0.044666793
-0.0061313463 -0.025876943 -0.056927394 0.0028966074 -0.0323903 -0.029508412 0.036586083 -0.08848862
-0.059972163 0.016630689 -0.023709742 -0.023486372 -0.006304557 0.07553116 -0.02517783 0.016674075
-0.038938165 -0.04757983 -0.022552859 0.046623837 -0.008423626 0.06401864 -0.040627893 0.010665422
-0.02723712 -0.021796621 -0.015417983 0.0022578193 0.0067967717 0.011965591 -0.0241367 0.11571392
-0.010117456 -0.014188354 0.028323302 0.032958314 -0.0452167 0.035609305 0.0058200043 -0.10254812
-0.021430455 -0.06505159 0.0065512066 -0.023825722 0.03424865 0.043736115 0.020434327 -0.051963445
0.053312313 0.018195203 -0.042289086 0.061116114 0.045402195 0.034959387 -0.02239108 0.036724664
-0.028160078 0.011684984 0.0016324829 0.09463408 0.0032767393 -0.0017666038 0.030760188 0.13692151
0.017793374 0.009032988 0.022474242 0.055097464 -0.09621533 -0.06764477 -0.06256658 0.0026898573
-0.0627713 -0.02307312 0.003808995 -0.033749152 -0.08992031 0.0031253493 0.06564221 0.049026288
-0.04030598 0.013650969 -0.02657515 -0.04423398 -0.045956116 -0.03633899 0.008771726 -0.024120176
-0.03468511 -0.048106343 0.05051838 0.06396941 -0.016222104 -0.018925719 -0.023607997 -0.113055274
0.048384216 -0.0013341511 0.04359558 0.0028425544 -0.016907062 -0.03713616 -0.046422638 -0.01406362
0.016520694 0.05256932 0.06400191 -0.017366813 -0.028119106 -0.045049645 -0.049721234 0.014089006
0.07087962 -0.1021186 -0.025715893 -0.05254012 -0.0077165095 -0.06968851 -0.045150165 -0.059501246
-0.041911535 -0.0017133423 -0.08566177 -0.041690823 -0.08916138 0.004825131 -0.0010860928 -0.097603366
-0.035522614 -0.0026631434 -0.055996586 -0.1205723 0.0046875365 -0.0935716 -0.030212088 -0.049217213
-0.12875155 -0.13301252 -0.08198235 0.071262024 -0.043444388 -0.039530423 -0.004490782 0.06622777
-0.042187344 -0.006333688 -0.0012599404 0.029281326 -0.06433247 0.09718151 -0.06012512 -0.0269385
-0.03243435 0.017864792 -0.0026111542 -0.006650262 -0.029221317 0.09416672 0.020510433 -0.04362324
0.031380255 0.02729703 -0.07063967 0.08715491 0.025172144 -0.048424035 -0.0045688096 -0.01824415
-0.017928557 -0.08986713 -0.04532135 -0.06033204 -0.050699275 -0.040083535 -0.033263844 0.047818337
-0.104707226 0.053121865 -0.01892844 0.038906757 -0.012692367 0.00016640447 -0.013007176 -0.019553814
-0.016057942 0.107743405 0.014087582 0.051825065 -0.0296951 0.012802299 -0.041815873 0.052018307
0.024589477 0.04129388 -0.07047443 -0.0024123082 -0.0025389055 0.025473265 -0.021915829 -0.0013340816
0.03419325 0.026811931 -0.042411808 -0.049550783 -0.0010191739 -0.085576944 -0.033342585 -0.07188356
-0.045989443 -0.074600466 -0.076389864 0.0045101596 -0.009694811 0.13889344 -0.013549476 0.009538164
0.03482284 0.07644259 0.0023997228 0.022054864 -0.06861257 0.10054076 -0.08441657 -0.054417312

conv2.bias f4 [64]
00000000: faef aabd c883 1e3b 0506 b7bd dc62 f6bd
00000010: 5a1d cabe 4340 bbbd cb8b b0bc 6378 733c
00000020: 8268 25be de0a d3bd ea2d 9fbd 74a7 89be
00000030: b658 89be b8ff cdbd 9ff9 d2bd 9ccb babd
00000040: 8e97 38bf 77a0 833d 6151 97bd d80c cdbd
00000050: 21c8 8e3c ce36 143c 8e69 a7be c6a4 5f3d
00000060: c8d9 01bd c1e6 e5bd 4f26 24be fed9 c63a
00000070: 51c0 2bbd 003a 9ebd ce81 ad3c 42c4 dbbe
00000080: bdd3 f2bd 02e7 90bd a9f9 ea3a d1ea 3abd
00000090: e445 2abf ca75 29bf d664 b63b 12b3 49bd
000000a0: d875 e6be a5b0 1abf 5680 adbd dfc0 dcbd
000000b0: 92e8 28be f898 99bd 3336 97bd fd60 23bf
000000c0: 6884 b1bd 18eb adbd ab41 37be de0c b83b
000000d0: 7b9c dbbd 7bb5 afbd 9242 d3bd a433 16bd
000000e0: 503a cbbe b711 c0bd 667f a2bd d1de bbbd
000000f0: 7d33 1dbf 301e 50bd 1bb3 36be 9ac9 c5bd
-0.08346553 0.0024187434 -0.08936695 -0.12030575 -0.39475518 -0.09143116 -0.021551033 0.014860245
-0.16153148 -0.10304807 -0.07772429 -0.2688557 -0.26825494 -0.1005854 -0.10301518 -0.09120867
-0.72106254 0.064270906 -0.07388569 -0.100122154 0.017429413 0.00904627 -0.3269772 0.0546005
-0.031701833 -0.112256534 -0.16030239 0.0015171168 -0.041931454 -0.07725906 0.02118006 -0.4292317
-0.11856792 -0.07075311 0.0017927188 -0.045634095 -0.66512895 -0.66195357 0.00556622 -0.04924304
-0.45011783 -0.6042579 -0.08471744 -0.10778975 -0.16494969 -0.074998796 -0.073833846 -0.6381987
-0.086678326 -0.08492106 -0.17896144 0.0056167683 -0.10723206 -0.085795365 -0.10315432 -0.036670342
-0.39692926 -0.09378379 -0.079344556 -0.09173358 -0.6140669 -0.05081004 -0.17841761 -0.09657593

conv3.weight f4 [128, 64, 3, 3]
00000000: 6874 1c3d 3379 713d 61ad 8f3b 049e 1dbc
00000010: 55d8 11bc 0532 b03d ad88 f7bb 8835 563d
00000020: 924a a13c e2d8 0a3d 1b76 0e3b e6f4 0ebd
00000030: b316 1a3d 1794 a13b 56ef 9a3c 144f 583d
00000040: 2026 aa3c 0330 803c 456e d63c 6c32 2a3d
00000050: 9097 0b3c d607 0bbd 018c 0a3d 5665 d7bc
00000060: 48df e8bc a537 fc3c 88aa 813a 646f 473d
00000070: 3040 733c c688 493c 0eff 32bd c90e 21bc
00000080: e90d db3c 14b6 b0ba e164 943c 063f dcbc
00000090: 0480 313c 928a 383c 75d2 26bc 9822 21bd
000000a0: bfa4 a83c 4a2e 86bc 2087 86bd 82d3 ce3c
000000b0: aa4b eebb 5f35 c9bb df9c 0dbd e8bd c5b8
000000c0: d3b6 0fbd 9640 c639 de17 1cbd 1521 033d
000000d0: a220 4fbd c188 0fbd 1d0a 84bc e7f4 51bc
000000e0: b43e dfbc f44e 263c dbde d9bb 4cdd 9fbb
000000f0: 89e1 cdbc 1ff3 2ebc e729 003d bb5b 1f3c
00000100: ca60 f53b b85c 7f3b fa12 0e3c c065 bf3b
00000110: 8c33 f4bb 5efa 083c 2bdb 70ba 5be6 81bc
00000120: 1d48 3f3d 313a 99bd 5b9c 53bd 3d3b 393c
00000130: e24b c7bc 232b adbc 6806 213d 0cdf 2fbc
00000140: 0d13 e7bc 2def 1e3d 25af a03d aeca a33b
00000150: 81ab d83b 617f a83d c0c6 11bd ccef 313a
00000160: 7df5 8c3d 9dab 14bd 1ccb 98bc e4a1 4a3c
00000170: f3bb 043d 2625 653c b216 57bc 1709 853c
00000180: a8af 79bc eece 493c f14e bdbc daf4 533c
00000190: e074 c4bc 5ae5 b03b dad8 b9bb dd8e b1bc
000001a0: 66d5 493b c8ce 78bd a285 aa3b c3b2 c9bc
000001b0: 4404 8c3b a8ff 3c3c 9386 b0bb 48aa 0d3c
000001c0: 7ec3 833c 9aa9 6c3b bfd9 d33c 6b43 d8bb
000001d0: a71f 333b 7fdf d9bc 0234 ec3c c5b2 26bc
000001e0: 63e2 b7bb 2cfa 343c e602 63bc b9e4 dd3c
000001f0: 3c0e d7bc 3bca 8bbd 72a7 ffba 5c30 b73a
00000200: 3a43 9ab9 9133 ed39 70d8 f939 c1f8 553a
00000210: b9fe 9a38 4ca0 533a 00f9 e6b6 380b a03b
00000220: 280f 07bd 8954 5cbc 5326 9bbc eb23 fa3c
00000230: d8eb 663c da9c 6d3b 4580 36bc f7da a13c
00000240: a0cc 2c3c 9cba b73d e758 6bbd b03e 25bd
00000250: 18e7 26bd 3089 74bc 6920 b9bb d052 c3bc
00000260: fe89 a23c 1b15 62bc 2232 d5bb edfa 50bd
00000270: e446 3f3c 02c5 253b c142 db3c 086d fc3b
00000280: fe23 ae3c fce1 31ba 6c18 93bc 0cbf dc3b
00000290: 4efd f53a b5b6 bcbc 4ed5 98bc 3822 e2bc
000002a0: 3298 153b dede bf3b 798c 933c 5f56 a43b
000002b0: f667 cf3c 990d aa3c cddc 2a3c f821 823c
000002c0: de82 37bc b747 a7bc 260a a13c 4b96 6cbc
000002d0: 9bb7 5fbc c67d c63d 927d 48bd 91a1 3d3d
000002e0: 43a9 7c3c 1378 c5bc 842b 2d3c d8be 0e3d
000002f0: 28a8 7ebc edfc 09bd 1bf9 983c 3800 90bc
00000300: 605b cab9 6407 c03c fec3 9c3d 564f 5cbc
00000310: 86ab df3d 0277 19bc 7c50 893d cdd8 793d
00000320: 483b 9f3d 1157 bfbd ccb1 73bd c734 e9bc
00000330: 7671 24ba 8869 023c c9af 8fbc b778 02bd
00000340: a31a 4abb fc1b eaba 78c1 cdbb 3aaf d1bc
00000350: 32c1 a439 71fc a63d 5708 3f3d 01a7 dabb
00000360: 8eb4 913c 22a7 fe3a 9674 913c 1c1b 64bc
00000370: fb0a 023d d4fd 84ba 0202 67bc 2cea 60bc
00000380: 18c5 f23c e2a7 863b 45af 4c3b 47fe 88bc
00000390: 98ca dfba 3ced 873d 2129 6bbc 6b70 6e3c
000003a0: 970d 913c 23c2 293c 37d9 bcbb 87ab 463c
000003b0: d010 863c 3f30 4a3c 8aae 803c 8bfb 333b
000003c0: 1253 5e3c e20b ceba 6e2b a63c c6e6 c73c
000003d0: 2a45 803c d45e 17bc bb4a 00bd 1b09 5aba
000003e0: b429 27bd 0050 823c 3dfd 113c ade8 97bb
000003f0: 3930 09bd c651 cf3c 0866 653c b656 c0bc
0.03819695 0.058953475 0.004384682 -0.009620193 -0.008901675 0.086032905 -0.007554135 0.052297145
0.019688878 0.03389824 0.0021737877 -0.034901522 0.037619304 0.0049309838 0.018912952 0.05280979
0.020770133 0.015647894 0.026175627 0.041551992 0.008520022 -0.03394302 0.033824924 -0.026293438
-0.028426781 0.030788252 0.0009892741 0.048690215 0.014846846 0.012300676 -0.04370027 -0.009830185
0.026740031 -0.0013481998 0.018114509 -0.02688552 0.010833744 0.0112635065 -0.010182013 -0.03933963
0.02058637 -0.016379494 -0.06568742 0.02524734 -0.0072722035 -0.0061403955 -0.034573432 -9.429065e-05
-0.035086464 0.00037813623 -0.0381087 0.03201397 -0.05056823 -0.035042528 -0.016118104 -0.012814737
-0.027251579 0.01015066 -0.006648881 -0.0048786756 -0.025131958 -0.010678082 0.03128996 0.00972646
0.007488345 0.0038965177 0.008671517 0.005840987 -0.007452434 0.008360473 -0.0009187932 -0.015856912
0.046699632 -0.07481802 -0.051662784 0.011305627 -0.024328176 -0.021138733 0.03931275 -0.010734331
-0.028207326 0.038802315 0.07845906 0.0049985265 0.0066122417 0.082274206 -0.035589933 0.00067877467
0.06882761 -0.036296476 -0.018651538 0.012367699 0.032405805 0.013985908 -0.01312797 0.016239686
-0.015239634 0.012317402 -0.023108931 0.012936795 -0.023981512 0.0053984346 -0.0056716027 -0.021674568
0.0030797361 -0.060744077 0.0052039186 -0.024621373 0.0042729694 0.011535563 -0.0053871362 0.008646555
0.016084429 0.0036111833 0.025860665 -0.0065998337 0.0027332099 -0.026595829 0.028833393 -0.010174458
-0.005611704 0.011045974 -0.0138556715 0.027086603 -0.026251905 -0.06825682 -0.0019504859 0.0013976204
-0.00029423257 0.00045242583 0.0004765424 0.00081623724 7.390738e-05 0.00080728973 -6.8835216e-06 0.00488415
-0.03297344 -0.013447889 -0.018939173 0.030534705 0.0140943155 0.003625682 -0.01113898 0.01975773
0.010546833 0.0897114 -0.05745783 -0.040342987 -0.040747732 -0.014925286 -0.0056496155 -0.023843199
0.01984119 -0.013798977 -0.0065062204 -0.05102055 0.0116746165 0.0025294428 0.02676523 0.007703427
0.021257397 -0.00067856885 -0.017955981 0.0067366417 0.0018767507 -0.02303634 -0.0186564 -0.027604207
0.0022826311 0.0058554253 0.018011319 0.005015179 0.025318127 0.020758437 0.01042862 0.015885338
-0.011200635 -0.020419938 0.01965816 -0.0144401295 -0.013654615 0.09691958 -0.04894788 0.04629666
0.0154212145 -0.024105107 0.010569457 0.03484997 -0.015543021 -0.033688474 0.01867347 -0.01757823
-0.00038596522 0.023441024 0.0765457 -0.01344665 0.109213874 -0.009366753 0.06704804 0.060997773
0.07774979 -0.093427785 -0.059495732 -0.028467549 -0.00062730105 0.007959731 -0.017539876 -0.031853404
-0.003083863 -0.0017861123 -0.006279167 -0.02559625 0.0003142446 0.08153618 0.046638813 -0.0066727404
0.01778629 0.0019428472 0.017755788 -0.013922479 0.031748753 -0.0010146447 -0.0140996 -0.013727706
0.029634997 0.0041093687 0.0031232398 -0.016722811 -0.0017073927 0.06637046 -0.014353068 0.01455317
0.017706675 0.010361227 -0.0057631987 0.012125856 0.016365439 0.012340604 0.015708227 0.0027463164
0.01356961 -0.0015720094 0.02028438 0.024402034 0.01565798 -0.009238917 -0.03132127 -0.0008317397
-0.040811256 0.015907288 0.008910474 -0.0046358914 -0.033493254 0.025307547 0.014001377 -0.023478847

conv3.bias f4 [128]
00000000: 79d9 ecbd 7945 c3bc 0710 1bbf b854 9fbe
00000010: b99c bbbd e551 dabd b1e4 babd 0849 d4be
00000020: cb74 a0be 21c6 13be 4829 95bd 38e1 7ebd
00000030: 24ee 8fbd e225 48be fa1d dcbd 53bc 983d
00000040: 9e61 90bd e912 1ebe e447 86bd d6a7 a4bd
00000050: 6c61 02be 8164 25be e385 c33c b4d2 203d
00000060: 077c 97bd 4d9a 1dbe 1c03 76bd 9485 1cbd
00000070: 50f1 85bd c372 0ebe 0ec9 e4bc 08de 9cbe
00000080: e2cc 80be 5e40 8abe 55d7 95be e474 0cbe
00000090: f4e0 fcbd 7255 90bd 58e6 aebe 3b77 82bc
000000a0: b8e0 b0be 4a18 ffbc fb6b dcbd 2fc3 80be
000000b0: be02 05be 5141 68be be02 b0be c2e5 a3bd
000000c0: a728 e2bd e2f1 b0be 9a78 14be 0913 22bd
000000d0: f7fa adbd fcf4 f0bd 95a7 97bd e9db a1bd
000000e0: 11d5 a4bc 1cdc 55be 0f91 4f3d bcdf ce3a
000000f0: 6a3e 56be 4dd8 32be 4bf9 acbe 02aa 72be
00000100: f0e5 763e 8527 ac3e a96a fbbd e5dd bbbc
00000110: 2309 25be cfbd 06be c0e5 863e c30a 64bd
00000120: d028 61be 1cfa 54be 41d9 5dbe c3ae 44bc
00000130: 3979 2dbd df93 26be 2ea4 1ebe 77d5 2bbe
00000140: 799c d4bd 580a 8fbe 1a62 91bc 5193 69be
00000150: 90d4 093c 74bb fcbe 73cf babd 7eb4 53be
00000160: 7272 abbd b5a7 613e 9741 abbd 2d1a 893e
00000170: a8a7 903d bb1f 86bd 4a9c 34be 3000 bebd
00000180: 3a1c 29be 0e46 dbbd 2c80 edbd ee1c 2cbe
00000190: 6650 d4be 4229 84bd 676c f2bd 6a6b c9bd
000001a0: 9997 adbd f674 abbd d5e8 f5bd dd86 febd
000001b0: 8f3a a0bd aef4 55bd 7f68 12bd 2ef0 4fbd
000001c0: 2b5b 173d 7b60 68be c91d 6cbc cb23 2fbe
000001d0: 18b1 e7bd cbb2 88bd 4d99 75be c67d 48bf
000001e0: 35ad 60be e692 67bd b37f 9abc e4e9 07be
000001f0: f9b3 e8be 8ceb 4fbd bc63 0fbf befd 4dbe
-0.11564917 -0.023836838 -0.6057133 -0.31119323 -0.09160752 -0.106601514 -0.09125651 -0.41461968
-0.31339106 -0.14431049 -0.072832644 -0.062226504 -0.070278436 -0.19545701 -0.10747905 0.07457795
-0.07049869 -0.15436901 -0.06556681 -0.08039825 -0.12732476 -0.1615162 0.023867553 0.039263442
-0.07396703 -0.15390892 -0.06006156 -0.038213328 -0.06540167 -0.13910966 -0.027927902 -0.30638146
-0.25156313 -0.27002233 -0.29265848 -0.13716465 -0.12347594 -0.070475474 -0.34160113 -0.015925994
-0.34546447 -0.031139512 -0.10762783 -0.25148913 -0.12989327 -0.22681166 -0.34377092 -0.08002807
-0.1104291 -0.34559542 -0.14499131 -0.039568935 -0.08495133 -0.11765477 -0.074050106 -0.07903273
-0.02012113 -0.20884746 0.050675448 0.0015783231 -0.20922247 -0.17465325 -0.33783945 -0.23697665
0.24111152 0.336239 -0.12276203 -0.022932956 -0.16116767 -0.13158344 0.2634716 -0.055674326
-0.21988225 -0.20798534 -0.21664907 -0.012004557 -0.042351935 -0.16267346 -0.15492317 -0.16780649
-0.10381407 -0.2793758 -0.017746974 -0.22810103 0.008412495 -0.49361765 -0.09121599 -0.20674321
-0.08371438 0.22036631 -0.0836212 0.26777783 0.07063228 -0.06549021 -0.17637745 -0.092773795
-0.16514674 -0.10706721 -0.115967125 -0.16807911 -0.4146759 -0.06453182 -0.11837082 -0.09834941
-0.084761806 -0.08371918 -0.120073 -0.12428067 -0.07823669 -0.052235298 -0.035744186 -0.050766163
0.03695218 -0.22693054 -0.014411398 -0.17103498 -0.11313075 -0.06674727 -0.23984261 -0.78316915
-0.21941073 -0.056536578 -0.01885972 -0.13272816 -0.45449808 -0.050761744 -0.5601156 -0.20116326

p_conv1.weight f4 [4, 128, 1, 1]
00000000: cb20 233e 20e9 64bb 533f aebe 6f42 6c3e
00000010: 695a 333e c7ab ea3d f8c0 683e 0705 f4bc
00000020: 5645 16be 4193 193e af7c 02be 9402 c03d
00000030: 10f0 a7bc 500e 46bd e2ff 77bd 0985 d73d
00000040: 7ca3 d13c 30b5 2c3d 8b65 513c 349e 433d
00000050: 56fb 673a 1d19 90bc 1b73 d63d fbdf ad3b
00000060: c79f 45bc 0260 0dbc 050a 4bbc 803b 57bc
00000070: a7fb b8bd 1825 aabc 6304 0f3e 705c 183d
00000080: eb2b 9b3d de5d 98bd b20d bdb9 d92a 213d
00000090: cc47 853d 2336 083e 4291 9d3d f84b 863d
000000a0: 946a d5bd fb69 c03c 4df0 2b3c 371f 0cbe
000000b0: dc53 d0bd ded5 60bd ab96 12bd 2cc3 a53c
000000c0: fb13 15bd bc60 32bc a777 02bd 2b74 113c
000000d0: 4ba7 a03c 79de 61bd ced7 be3c 3269 6a3d
000000e0: 73e8 1abc 847d e5bd 112d 1dbd fb63 0ebe
000000f0: 3782 8c3d 109a c93b d643 163d c9e8 8abc
00000100: 15d0 9cbf 200c d8bc da22 9fbd 4408 6f3d
00000110: a427 ea3a 2475 7dbd 6ffc ca3d 85a6 7cbc
00000120: 76a7 783c 9e4e 91bd 15d6 87bd a140 12bd
00000130: eec0 bbbc 3b34 72bc cdaa 013f 8ef0 dc3d
00000140: dadd db3d f8b7 603c 59dd 71bb fc50 4c3b
00000150: c5ee 62bc 3304 c63e 3958 b13d e562 85bd
00000160: 9c57 5ebd d60a 673e 1a10 e6bd bdf3 263c
00000170: 1a8e 0b3b 7976 aa3c 7695 1f3e 145f 83bb
00000180: 16c4 79bd 88bd aebd 0550 cd3d 97a0 ae3b
00000190: 946f 763f 86aa 693c 22c1 3abd 30aa 58bb
000001a0: 2189 0c3e 4941 8f3d 7484 b23d 57b6 9f3d
000001b0: 1c14 5e3b d59c 03bb 9ec8 813c 2db1 593d
000001c0: 5208 ce3d 70a7 19bb 6365 e23d b300 85be
000001d0: 16c1 95bc f29a 3bbd c9d5 213d 1326 4cbd
000001e0: 3c5c babd b57c 3a3b 92e5 bc3c f0f5 31bd
000001f0: 4ed0 9abd d556 44bc e2f8 b63c c748 653e
00000200: cab3 19bd e06c 9f3a ba7f ccbe 8219 993e
00000210: 8d97 a63d 04d5 203e 9ca2 e7bd 23a0 4bbd
00000220: 0a46 28be 1dab fcbd 8c43 21be 6bc1 b9bd
00000230: b57a ac3c 89e7 eebd b055 37bd e4f7 bc3d
00000240: b4b4 05be 2b7f 8abd 92c0 d639 b469 47bc
00000250: cb15 eabd ce78 723b 3a74 83b9 600d 263b
00000260: d027 11bd 121e bcbd 9bf5 603c 0343 143c
00000270: 992d 3bbd c31b 51bd 15ac 92bb b00c 9c3d
00000280: 433a 0d3d 63e6 533d 7b2a 4d3d 240e 00be
00000290: f5cd 003c 2056 da3b 5634 053e fcc7 afbc
000002a0: 44cb 42be 9e50 6b39 dddc 9fbc 7da8 d5bd
000002b0: 9ee0 38be 50b1 9ebd 2396 dfbd c790 7c3c
000002c0: 00bd b0bd 313e b4bd 1510 9ebb 5957 c8bc
000002d0: 3618 e03d 5fda 12bd d810 27bd 0af3 e6bd
000002e0: 04ba 503d 9705 fcbc bb5b 103d 637e 7b3c
000002f0: 067a d63d 37cf d1bb c809 843d 929c 9e3d
00000300: 5b8f bf3e 0e05 e2bd 4110 65bd 8877 22bd
00000310: 241a ccbd a968 04be e605 063f 6034 b33a
00000320: 1d18 973e 4c63 68be 35db 2cbe 48d2 a4bb
00000330: d16a d6bb 9fc9 89bd 5218 483e 4029 ae3d
00000340: 9948 e4bd 578f 71bd fb1e a73c e3ec d1bd
00000350: 75a1 f3bc 04c9 a43c cdb0 63bc 995b 883c
00000360: e519 3abe e012 af3c 7b9f 82bd 14af b53d
00000370: 29ec 14bd 274f 51bd fd5a 8f3d 72f9 28bc
00000380: a0c8 3c3e f5b6 20be 1b95 e53d 0170 00bd
00000390: 81c4 92bd f817 0e3d 770c 8ebd 13dc dfbb
000003a0: 1ab3 063d 8f4f 14be 7388 2b3e 631a 213e
000003b0: a525 f9bc 6e46 fd3d 5d7b 1abd d958 7ebd
000003c0: 9b66 f83d c63d 22bc 3df7 d4bc 51eb a1be
000003d0: 207d 04bd be29 16be 28d3 a7ba a4fc 383c
000003e0: 362f 12be 10f5 d6bb 39bc 72bb 2388 cabb
000003f0: c03f ba3c a433 f73c 563b 1a3f 4cb0 8ebd
0.15930478 -0.0034928992 -0.34032688 0.23072217 0.17514957 0.11458545 0.22729862 -0.029787553
-0.14674887 0.14997579 -0.12742876 0.09375492 -0.020500213 -0.048353493 -0.060546763 0.10523421
0.02559065 0.04216498 0.012780557 0.047758296 0.00088494027 -0.0175901 0.104711734 0.0053062416
-0.01206202 -0.008628847 -0.012392526 -0.0131367445 -0.09032374 -0.02076964 0.13966517 0.03719753
0.07576736 -0.07439779 -0.00036059093 0.039347503 0.06507835 0.13301902 0.07693721 0.06557459
-0.10420719 0.023488035 0.010494304 -0.13683783 -0.10172245 -0.05489146 -0.03578822 0.020234667
-0.036396008 -0.010887321 -0.03185239 0.008877794 0.019611022 -0.055143807 0.023296263 0.05722923
-0.009454834 -0.11205581 -0.038373057 -0.13905327 0.06860774 0.006152399 0.036685787 -0.016956704
-1.2251002 -0.02637297 -0.07770319 0.058357492 0.0017864597 -0.061879292 0.09911429 -0.015420561
0.015176645 -0.07095073 -0.0663263 -0.035706166 -0.022919144 -0.0147829605 0.50651246 0.1078807
0.10735674 0.013715737 -0.0036905615 0.00311762 -0.013850872 0.3867508 0.08659405 -0.06513003
-0.05428277 0.22562727 -0.1123354 0.010189948 0.0021294416 0.020808445 0.15584359 -0.004009137
-0.060978018 -0.08532244 0.10025028 0.0053292024 0.96264005 0.014261847 -0.045594342 -0.0033060424
0.13724186 0.06994874 0.0871667 0.077984504 0.0033886498 -0.0020082493 0.015842732 0.053147484
0.10060181 -0.0023445748 0.11054494 -0.25977096 -0.018280547 -0.045802064 0.039510522 -0.049840998
-0.090996236 0.002845568 0.023058686 -0.043447435 -0.07559262 -0.011983593 0.022335473 0.22391044
-0.037524976 0.0012163185 -0.39941198 0.29902273 0.08134375 0.15706259 -0.11310312 -0.049713265
-0.16432968 -0.12337325 -0.15748423 -0.09070095 0.021054605 -0.116652556 -0.044759452 0.09226969
-0.13057214 -0.067625366 0.00040960737 -0.012171198 -0.11429938 0.0036998275 -0.00025072863 0.0025337562
-0.03543836 -0.09185423 0.013730432 0.00904918 -0.045697782 -0.051051866 -0.00447608 0.076196074
0.03447939 0.051733386 0.05008934 -0.12505394 0.007861604 0.006663099 0.13008246 -0.021457665
-0.19022852 0.00022441379 -0.019514496 -0.10432527 -0.18054435 -0.077486634 -0.10917308 0.015415377
-0.08629799 -0.088009246 -0.0048236945 -0.024455713 0.10942118 -0.035852786 -0.040787548 -0.11276825
0.05095865 -0.030764384 0.03524373 0.015349957 0.10472493 -0.0064028758 0.06447178 0.07744707
0.3741406 -0.1103612 -0.055923704 -0.039664775 -0.099659234 -0.1293055 0.5235275 0.0013672225
0.29510584 -0.22694129 -0.16880496 -0.0050299503 -0.006543495 -0.06727909 0.19540527 0.085039616
-0.111466594 -0.05897459 0.020400515 -0.10250261 -0.029740075 0.020115383 -0.013897133 0.01664524
-0.1817394 0.021371305 -0.06378075 0.08871284 -0.036358032 -0.051100876 0.069997765 -0.010313379
0.18435907 -0.15694793 0.1121008 -0.031356815 -0.071663864 0.034690827 -0.06935971 -0.006831655
0.03288565 -0.14483474 0.1675127 0.15732722 -0.030413458 0.12366949 -0.037715305 -0.06209645
0.121289454 -0.009902423 -0.025996799 -0.31624845 -0.03234589 -0.14664361 -0.0012804018 0.011290703
-0.14275822 -0.0065599754 -0.003703846 -0.0061807795 0.022735476 0.030175991 0.6024679 -0.0696722

p_conv1.bias f4 [4]
00000000: 631f a83e 9fa5 233e b380 ecbc dd59 303e
0.32836446 0.15981148 -0.028869962 0.1722178

p_fc1.weight f4 [64, 256]
00000000: a161 083d 61ae d23c b9ff cb3b 044a febc
00000010: b8fc 33bc 495c 043c aa99 053d 056a 4f3d
00000020: 9649 ae3d 666f 49bc 1814 743d fa1f 273b
00000030: 9264 473d 3e64 053e 96eb 953c 63d5 823c
00000040: f1c8 5c3d cb91 313b 3b3a 313d 60d9 d73c
00000050: 34f3 1dbd 849b 103d 27d1 b1bb 5e0e 6f3d
00000060: 1418 543d f631 123d fb2e b23c 30e8 4dbb
00000070: 0db3 693c 7be2 1a3c 3d4c dbbc 2cd0 553c
00000080: d2bc 813d cd27 34bd f2f1 523e 8a42 28bc
00000090: 121d 7a3d 7200 0b3d cd16 dd3c c9d3 583c
000000a0: 7921 d03d e1ff 863e ba3a 31bd 5dd5 923c
000000b0: ef4d 903a a5d8 80bc adfb 0f3d fb8e 4f3d
000000c0: b4a8 9fbf de45 063d 9ab3 583d f593 983d
000000d0: 2403 6f3d 3b43 9e3d 7abc 153d 5dc0 95bc
000000e0: fc5c 683c e287 723c ff0a ddbb 660c 15bc
000000f0: 7521 c53c 62d2 253c 8008 0b3b 1084 5cbb
00000100: a5d1 c2bc 622c 6e3c 5e12 8a3c 7a2e 133d
00000110: 7a8a bd3c 0e8e 693d cfa2 fb3c aff0 993b
00000120: 733c ec3c 7e36 9aba 4fca 893b c48e 86bc
00000130: ee5b a0bc 6dd3 f6bc 456c 22bd aa21 9cbc
00000140: d5be 0ebd aa41 8abd c427 5abd d197 d1bd
00000150: 9fc1 6ebd e971 41bc 5824 97bc 5816 86bc
00000160: 7921 2fbd 6481 61bc 00ff cdbd 61e8 03be
00000170: cbc7 f2bc fa8a 70bc 3eb4 46bd eaa9 91bd
00000180: 7cfc eb3c ee8f fdbc c32f dbbd a0ea 38be
00000190: 911f d4bd 626b 92bd 559b 6bbc 0e3f 99bd
000001a0: 92cc 443d 593f ac3c 613e 6cbe eb0b 31be
000001b0: c93e c2bd caad 9f3c e542 03bd 6131 85bd
000001c0: e65a d53e 496b 85be ce76 eebd 0a14 543d
000001d0: c98b 22bd ff75 3dbd fb06 47bd 1738 243c
000001e0: 0ab6 52be b1d9 8dbe 553e c6bd 9e3a f4bc
000001f0: 89eb 1e3d be7c cf3c a60b f63a d842 3a3b
00000200: 4e79 cabc 02bd 853c a791 a63c 75fe ff3c
00000210: d6f0 013d ffa9 473d cd7e 133c c2c1 293d
00000220: 366f a5bc 0fd9 063d ad4e 8dbc 1d6a 9cbd
00000230: 02ed 40bd f654 c2bc b242 12ba 410b 72bc
00000240: 8295 1ebd 1fe9 24bc 8989 3b3d 8ad1 713d
00000250: c0ee 203d f33c 06bd 27c3 8b3c b890 3dbd
00000260: d104 1cbc af5b 393d 2948 813c a25c f03d
00000270: b524 9b3d 985f 3e3d ac55 913c d442 f5bb
00000280: bd7e 99bb c042 87bd 69b4 8e3d f55b ec3d
00000290: 7251 9a3d 3f8e e13d 0038 ee3c fbda 8abc
000002a0: ad22 5b39 6da1 933d e9d0 4b3d 7219 573e
000002b0: 5925 7c3c 9b8d 493d b0dc ed3c 4fe6 a4bd
000002c0: 3755 453e 446e 913e b946 823e b9c5 95bb
000002d0: 4c19 4a3d 880e e0bc 609d 7e3d 9195 9ebc
000002e0: f33b 5c3e 8b6f 5e3e 3c19 0b3d ab31 51bd
000002f0: f30d 97bd 1c29 013d 8423 a1bc 5d53 10bc
00000300: d2db e1bc cadf 4e3d 2694 e9bc dad2 4dbd
00000310: 94c6 a93b 9bc4 51bc 57f5 1c3c a2cb b4bb
00000320: 907f dcbb 006b 2abd 476f 93bd 022b 81bc
00000330: fdbd 56bd 9813 83bd 4e1a 65bd 1f93 e7bc
00000340: 2466 123d b696 50bd 88a2 cd3c 3b58 a0bd
00000350: d8c9 95bd e2a7 c93c 1c92 42bd d372 ad3c
00000360: 5201 473d 2627 f8bc 1c54 65bd 4f11 06be
00000370: b6cc 6abb 3617 dfbd 02f3 3abd 7d3a b7bc
00000380: 27c1 c4bc a31f 123b 07de 70bd 8954 3cbe
00000390: 6bd2 a1bd d9af 92bd dbb2 67bc f2ab b3bc
000003a0: b234 b7bd 4173 2d3d c05c 7bbe 3539 383c
000003b0: e923 f2bd 16de c9bc a9e9 e4bc 9082 e63a
000003c0: f4f8 6cbe 5228 8fbe 7ef3 cabb 60cc 9ebc
000003d0: 9b12 9cbb dde8 6fbd 7939 07b9 8bf3 3dbd
000003e0: 49f9 7abe c8d3 ba3e 0765 c63d 7065 393c
000003f0: d7c1 debd a25e 58bd b631 b43c b4ec 2c3a
0.03329623 0.025717916 0.006225553 -0.031041153 -0.010985546 0.008078643 0.03261725 0.050638217
0.08510129 -0.012294626 0.059589475 0.0025501237 0.048679896 0.1302652 0.018300813 0.015970891
0.05390257 0.0027094956 0.043268424 0.02634877 -0.038562015 0.03530456 -0.005426544 0.05836331
0.051780775 0.035692178 0.021750918 -0.0031418912 0.01426388 0.009453411 -0.026769752 0.01305012
0.06334843 -0.04398327 0.20600107 -0.01026977 0.06106288 0.03393597 0.026988411 0.013234087
0.101626344 0.26367095 -0.043268897 0.017924005 0.0011009554 -0.015728304 0.035152126 0.050673466
-1.2473359 0.032781474 0.052905656 0.074500956 0.058352605 0.07727667 0.0365567 -0.018280203
0.014182325 0.014802905 -0.0067456956 -0.009097194 0.024063805 0.01012096 0.0021214783 -0.0033648051
-0.023781607 0.014536949 0.016854461 0.035932995 0.02313732 0.05702024 0.030717282 0.004697881
0.028837418 -0.0011765508 0.0042050253 -0.016425498 -0.019575085 -0.030130113 -0.039654035 -0.019059021
-0.03484996 -0.06750806 -0.05326058 -0.10234035 -0.05829012 -0.011806943 -0.018449947 -0.016368076
-0.04275653 -0.013763759 -0.10058403 -0.12881614 -0.029636284 -0.014681572 -0.048511736 -0.07112487
0.028806917 -0.03095242 -0.10702469 -0.18058252 -0.10357583 -0.07149388 -0.014380296 -0.0748273
0.048046656 0.0210263 -0.2307067 -0.17289703 -0.094846316 0.019492049 -0.032046217 -0.06503559
0.41670913 -0.26058415 -0.11643754 0.051776923 -0.03968409 -0.046255108 -0.04859064 0.0100231385
-0.20577255 -0.27705148 -0.09679858 -0.029813107 0.038798843 0.025328036 0.0018771782 0.002842119
-0.024716046 0.016325478 0.020333124 0.031249264 0.03172382 0.048746105 0.0090024 0.041444547
-0.020194631 0.032921847 -0.01724943 -0.07637427 -0.04710103 -0.023722153 -0.00055793964 -0.014773191
-0.0387168 -0.010065346 0.04578546 0.059037723 0.03929019 -0.03277297 0.01706083 -0.046280593
-0.009522633 0.045253452 0.015781479 0.11736418 0.07575361 0.046477884 0.017741047 -0.007484773
-0.004684298 -0.066045284 0.06968004 0.11540977 0.07535066 0.110134594 0.029079437 -0.016950121
0.00020898385 0.07208524 0.04975978 0.210058 0.015389764 0.04920731 0.029035896 -0.080517404
0.19270788 0.28404438 0.25444582 -0.0045706895 0.04934053 -0.027350679 0.062161803 -0.019358428
0.21507244 0.21722238 0.033959612 -0.051072758 -0.073757075 0.031533346 -0.019670255 -0.008808938
-0.027570639 0.05050639 -0.028513025 -0.05024991 0.005181143 -0.012803222 0.009579978 -0.005517439
-0.006729074 -0.04160595 -0.07198959 -0.015767578 -0.05242728 -0.064002216 -0.05593329 -0.028268395
0.03574194 -0.05092498 0.025101915 -0.078293286 -0.07313889 0.024616186 -0.047502622 0.021172917
0.048585244 -0.030292105 -0.055988416 -0.1309254 -0.0035827584 -0.10893099 -0.045641907 -0.022366757
-0.024017883 0.002229669 -0.05880549 -0.18391623 -0.07901462 -0.071624465 -0.014141764 -0.021932576
-0.08945598 0.042346243 -0.245471 0.011244108 -0.118232556 -0.024642032 -0.02794345 0.0017586518
-0.23141843 -0.2796045 -0.0061935773 -0.019384563 -0.00476296 -0.058571685 -0.00012896014 -0.04637484
-0.24509157 0.364897 0.09687238 0.0113156885 -0.10876816 -0.052824624 0.02199636 0.0006596551

p_fc1.bias f4 [64]
00000000: af08 5bbd ba9a 1dbd b924 80bd c95a 03be
00000010: 10fd 00be bca8 81bd 8795 57bd d2a6 75bd
00000020: 9c1b eebc d80e 75bd 2502 623d 9746 533b
00000030: 0729 f2bc 15b9 ebbc 2bb2 a6bd 1e5a 99bc
00000040: ae51 26bd d20b b53a abbc a03d 80c8 aa3d
00000050: 5e00 b83d 9c8f 2b3d 3b74 eebc b305 2cbc
00000060: 0070 92bd 2f0f 663a ab9f d93d 29c9 1e3e
00000070: 7bbf 223e a8e0 833d 5699 27bd 0cc8 76bc
00000080: 9699 c3bd 6c8a d1bc d7a2 f33d 2c2a 383e
00000090: 6545 2d3e b4fd ff3d 7cad e93b 1372 c9bc
000000a0: 81cd 6cbd 8aad 8d3b e10d 893d 1ed7 a43d
000000b0: b962 9f3d 82b4 f53d 9aff 9a3d 2544 a83c
000000c0: 88ff 2dbd e350 92bd 446c 773c d35c f13c
000000d0: b15e 32bc f8f8 c23c 5105 a6bd a108 3eb9
000000e0: ffdc 52bd 8678 79bd b4a5 cbbc 8a5e c1bd
000000f0: 2608 c7bd 4bd8 0cbd b96b dbbc d85e 0f3d
-0.05347508 -0.038477637 -0.06257004 -0.128276 -0.12596536 -0.06331012 -0.052632835 -0.059973545
-0.0290659 -0.05982861 0.055177826 0.003223812 -0.029560579 -0.028774777 -0.081394516 -0.018719729
-0.04060524 0.0013812727 0.078484856 0.083390236 0.08984445 0.041885003 -0.029108157 -0.010499406
-0.071502686 0.0008776066 0.106261574 0.15506424 0.15893357 0.06439334 -0.040917717 -0.015062343
-0.095507786 -0.0255787 0.118962936 0.17984837 0.16921003 0.12499562 0.0071312767 -0.024590528
-0.05781317 0.004323666 0.066921 0.08048843 0.07782502 0.1199732 0.075682834 0.020540306
-0.04248002 -0.07144334 0.015101496 0.029463207 -0.010886834 0.023800358 -0.08106483 -0.00018123027
-0.05148029 -0.060905956 -0.024859287 -0.0944186 -0.09718351 -0.03438596 -0.026784765 0.03500256

value_conv1.weight f4 [2, 128, 1, 1]
00000000: 6f37 623d 91b8 0abc ff97 bf3d e641 323d
00000010: dcf3 afbd 34ab 01be 56bc 23be 3b21 423d
00000020: 3ea9 9e3d a635 d9bd fcdf 61be ef51 e13b
00000030: 26a9 b93d f4ed 913d 492e bb3d 856d 963c
00000040: e0fb d63b 6abd 183d 4a41 9b3c 753d dcbc
00000050: 28c7 99bd 2999 cf3d e2e1 7fbe 4980 80be
00000060: ca79 473c af7a 34be e1c0 cf3d 7fb7 62bd
00000070: 840e 7a3d 710f 18be 17df 393d 956d 63bd
00000080: d423 abbc 5164 20bc b42e 83bd c3b8 203d
00000090: 0740 68bc bbc8 6d3d a198 293e 691a 10bd
000000a0: 28e9 193e d971 b1be fe9a 383d 8c9b 71bc
000000b0: 7112 0b3c b191 7e3e 61ff 2e3e ff71 1fbe
000000c0: a03d 043e 4a8f 0a3e 7ab8 65bc 2379 823d
000000d0: 253d 5cbd ccd6 d33d 58fc b0be 9b38 b13d
000000e0: f623 76bd 75cc f0bc d712 6e3c 71fb ecbd
000000f0: 1abd 633e 94b0 28bd 9b4f be3c 7e0b 01be
00000100: e89e 1c3c 124a d33d 702e 0ebe ea4f 07be
00000110: cbf2 87bd f1ed 0b3e b29d 8e3a 0cc5 adbe
00000120: 814c 25bd efa9 293b 2045 3dbc a76f 1ebe
00000130: c6c8 a8bb 0ded c6bd f016 8dbd d8fd c13d
00000140: 0543 86bd 78ec 8bbd c9cf 3bbe 8b0b fe3c
00000150: 87ae e7bd e223 943d 84d8 453c 7714 35bd
00000160: c331 93bd ec65 84bd c0fe 4d3d 2c0d 6a3d
00000170: 720b 1abe 4f6b 053d 8837 483b efbb ecbd
00000180: c128 f8bd 0525 943d 95a6 123c 1096 a8be
00000190: b533 36bd 2776 acbd 3cc0 c63c 2298 413d
000001a0: 8657 873d 759c d13d a70f 323e df42 be3c
000001b0: b607 39be 3284 e5bd c0c0 78be a3ee ce3c
000001c0: 81ff eb3d 0d8a 4abe 562a 80bd 99ff 93bc
000001d0: 95bd 90be 1c6c 23bc cc27 04bc 16a6 1b3d
000001e0: 6b3c 973d 0d6e aebb df40 52be 01bc 263d
000001f0: af43 643d 7b22 83be ceed b8bb f7ee 9d3d
00000200: 9368 c93b 6c1c 4bb7 9b69 0c3f f100 423e
00000210: 640b 4bbe 6a2c ebbb ad29 98bd 3a0c e83d
00000220: dbcb 713e 1f18 fabd 65fa 3b3d d09b 70be
00000230: 30dd 73be ef32 4ebe 5850 ddbe 0f80 9cbe
00000240: 4507 07bd d94c a43d acc4 6cbe e20e f63b
00000250: 64db 363d f180 e5be 9120 36be 3748 023d
00000260: 03c3 01be 8fa4 283e 5fc6 7dbe d333 c43d
00000270: ff6c a1be 20ba cabd 68dd 9abe afdd 3a3e
00000280: 35da 88bd 4c36 36be 4b79 353e 8fe4 1a3e
00000290: 637f d7be a4a8 abbe 671d d33d af39 9dbe
000002a0: 822f 6dbe dc26 33be 8cae 0cb8 7426 f53d
000002b0: 47a0 c6bd 207a 1dbe 821c 3e3e f9a7 ecbc
000002c0: 69ef 0ebe b017 d33c 9553 2b3d 634f aabe
000002d0: ddaa bfbb 0013 523d 6394 5d3d b0bb d63c
000002e0: 132d c8be 2a6d 103e 2d6b 87be 3f8f 38bd
000002f0: 08d0 003e 39bc 183e e1b1 433e 6b6e 2c3e
00000300: ab15 f0bd 30ba c6bd 2472 5abe 4349 fe3d
00000310: 56db 9a3c f18c f83d 15da 4bbd 5659 83bd
00000320: a692 7bbd 129d 323c c3c8 763e 0c1a 053c
00000330: 36e8 97be fe51 663c 1a4e c6bd 2349 03bb
00000340: 0a83 f3bd a217 473e 5428 8ebe 5b8b 823e
00000350: c643 d9be a3fa 873e 36c1 8fbe 9981 083c
00000360: a926 373d 1e5b 26be c30d 8bbe 6909 96bc
00000370: 1989 71be 9c39 453d f408 2e3d c345 a4be
00000380: d41b a4bc a04e 0c3d 222a 25be eeea 99be
00000390: 0f9c ec3c 528b 81bd d4e4 db3d 70ea cc3c
000003a0: f827 68be ad12 42be 0f89 9cbc 0c1e da3d
000003b0: bb6f 093e b8de abbd 050e d1bd baa9 e2bd
000003c0: 2ad8 b2be 5a60 94be 9145 afbe 72fe 1b3c
000003d0: b368 10be fbf6 f63b 68fc 573d 5bbe f43e
000003e0: a618 c93d 6230 163c e531 cbbe 9dce 3dbc
000003f0: 70d9 0b3f ab26 75bd 0523 873d 09e1 0f3e
0.055228647 -0.008466856 0.09355163 0.043519877 -0.08591434 -0.12662965 -0.15989813 0.047394972
0.07747124 -0.10605936 -0.220581 0.0068762223 0.09065466 0.07125464 0.091396876 0.01836277
0.0065607876 0.037290014 0.01895203 -0.026884774 -0.07508689 0.10136635 -0.24988511 -0.25097874
0.012175033 -0.17624925 0.101442106 -0.055350777 0.061049 -0.1484964 0.04537877 -0.055524427
-0.020891108 -0.009789542 -0.06405392 0.039238703 -0.014175422 0.05805276 0.1656213 -0.035181437
0.15030348 -0.3465717 0.045069687 -0.014746558 0.0084882835 0.24860264 0.17089607 -0.1557083
0.12914133 0.13531223 -0.014021033 0.06370761 -0.05376925 0.10343704 -0.34567523 0.08653375
-0.06009289 -0.029394368 0.014530859 -0.11571396 0.22240105 -0.041184023 0.023231318 -0.1260204
0.009559371 0.10316862 -0.13884902 -0.13214079 -0.06638106 0.13664986 0.0010880737 -0.33939397
-0.040356163 0.0025888642 -0.011552125 -0.1547228 -0.005150887 -0.097131826 -0.068891406 0.09472245
-0.06555752 -0.06832212 -0.18340982 0.031011363 -0.11312585 0.072334066 0.012075547 -0.04420897
-0.07187226 -0.064647526 0.050291777 0.057141468 -0.15043429 0.03257304 0.0030550677 -0.11559283
-0.12117148 0.072336234 0.008950849 -0.3292699 -0.044482905 -0.08420973 0.024261586 0.047264226
0.06608491 0.1023492 0.17388783 0.023225246 -0.18069348 -0.11206855 -0.24292278 0.025260275
0.11523343 -0.19779225 -0.06258075 -0.018066214 -0.2826964 -0.009974506 -0.008066129 0.03800019
0.07384571 -0.0053231777 -0.20532559 0.04070664 0.05572861 -0.25612244 -0.005643583 0.077115946
0.0061464994 -1.210636e-05 0.5484864 0.18945672 -0.19828564 -0.0071769254 -0.07429824 0.11330457
0.23612921 -0.12211632 0.04589309 -0.23496938 -0.23814845 -0.20136617 -0.4322536 -0.3056645
-0.032965917 0.0802247 -0.231219 0.0075090984 0.04464282 -0.44824937 -0.1778586 0.03180715
-0.12672047 0.16469024 -0.24782704 0.09580197 -0.3152847 -0.09898782 -0.30247045 0.18248628
-0.06682245 -0.1779415 0.17722051 0.1512625 -0.42089376 -0.335271 0.103083424 -0.30708072
-0.23162654 -0.17495292 -3.354116e-05 0.11970225 -0.09698539 -0.15378618 0.18565562 -0.02888869
-0.13958515 0.025768131 0.041827757 -0.33263692 -0.005849226 0.05128765 0.05409659 0.026212543
-0.3909689 0.14104143 -0.26448956 -0.045058485 0.12579358 0.14915551 0.19110824 0.16838996
-0.11722883 -0.09703481 -0.21332604 0.12416317 0.018903416 0.121362574 -0.049768526 -0.06413524
-0.06141915 0.010901706 0.24100022 0.008123886 -0.2966935 0.014057634 -0.096828654 -0.0020032607
-0.11890228 0.19442609 -0.27765143 0.25496945 -0.4243452 0.26558408 -0.28077096 0.00833168
0.044714604 -0.16245696 -0.27158937 -0.018315034 -0.23587455 0.048150644 0.042489007 -0.32084474
-0.0200328 0.03425467 -0.16129354 -0.3006205 0.028883008 -0.06325401 0.10737005 0.025014132
-0.22671497 -0.18952437 -0.019108323 0.10650262 0.13421528 -0.083920896 -0.10207752 -0.11067529
-0.34930545 -0.2897976 -0.34232762 0.009521114 -0.1410244 0.0075367666 0.052730948 0.4780148
0.098191544 0.009166809 -0.39686504 -0.011584905 0.5462866 -0.05985133 0.06598476 0.14050688

value_conv1.bias f4 [2]
00000000: a00c 173e 7e1a 833d
0.1475091 0.06401537
