model/cnn/9x9/1pc/10000play/9.pt (torch_old, 526869 bytes, 15 tensors)

conv1.weight f4 [32, 4, 3, 3]
00000000: ef34 703d d55b 083f afde 563e 628f 82bc
00000010: 3a40 aa3e 090a d6be c7eb 1e3d 10df 013f
00000020: 049b a23d a057 323d 529a a8be 8577 0dbe
00000030: f0ae 8d3e d78e e9be 68df 353e a0e2 48be
00000040: 05be 8abe c374 0ebe 409c 2f3e b605 6a3e
00000050: 2ff1 9cbd 1c51 39bc 30a0 febd a4bd 023d
00000060: b0a3 a63d 235b a63d ef49 fabd 56b2 98bd
00000070: 872a a4bc 250b 86bd 56e5 8cbe 4cda d4bd
00000080: 9101 eebd d581 5bbe 50c4 6dbc d9b4 20bd
00000090: 42ce 1b3f 62d1 103e 2d65 273f 0209 883d
000000a0: 4abe b3bc 4f2f 593d 78aa 2f3f 66ab d2bc
000000b0: 4cb2 243f a91f 53be 9287 7fbe 49b3 4abe
000000c0: 4ee3 45be 19e8 34be a6fd f4b9 a9bd 6fbe
000000d0: 2a23 cfbd c986 c4bc e21a 3dbe b7a9 37bd
000000e0: 994e b43d 1493 963d 1691 833e d653 17bb
000000f0: 726c 6abe aa47 323e 1338 64be c66e fb3d
00000100: 39d9 ec3c 6fac ff3a fbf1 d53d 731f 15be
00000110: b0b6 96bd 553c 9bbd f568 0cbe a6a2 6bbe
00000120: 4a72 0c3e 6d18 b1bd 82a7 cb3d 6030 58bd
00000130: 7c34 6e39 88be d43d 7261 803e 77c3 a53e
00000140: 8d53 d2bd 9e5b 96bb 857d 80bd ce55 603e
00000150: 0629 3cbf 47d8 03bf 599f 39bf 93ff d7be
00000160: 13d2 803f 78fd cabe be0b cc3d 8e1f 8f3e
00000170: 3a21 c33d 0a3e 0cbd f9f8 833e 6178 6c3d
00000180: fce2 db3d ea25 98bd 0497 cabc 4c54 95be
00000190: be7e 893c 2242 aabd afa7 efbd 4e26 2b3e
000001a0: 12ca e3bb b062 3f3c 183d 6f3e 05be 24bc
000001b0: 6503 2e3f 6fbb 203e 47fe 283f 282e 363e
000001c0: 4f1d af3e a80b cd3d 3e12 2d3f 5e7b f73d
000001d0: b449 163f 85f0 19bf 3939 cbbd 086a 2cbf
000001e0: eb08 103d 9277 cabe eabb 0abd fd73 16bf
000001f0: c35e 75bc f2a6 96be 2eaa 583d 253a 9a3d
00000200: 6c1f 9b3b 779b 1d3e 1afd 923e c696 423e
00000210: 911b 4d3e dfe4 db3c dca9 3f3e 1d98 553d
00000220: 7f80 eb3a abea 793d 1c38 4abd 0a98 aabd
00000230: 1e04 5b3d 0ec9 1c3e 8b52 0e3e 3aa9 073e
00000240: 3fca 05be b9e1 94bd 6d16 9dbc 5a64 a73c
00000250: 835e 47be 9bdc e93b e810 203f fc5f 443f
00000260: 1325 053f 5690 153e 53be 49bd 08da 753d
00000270: ab60 303d 982c f9bc 9345 9bbc b538 6fbf
00000280: 156f 0bbf 1c46 8cbf fd1b 223d a60c 06be
00000290: a871 f63d af4b 0ebd 252d cc3d 3211 6c3d
000002a0: 4caf d83d 2cf9 c3bd 10e7 cfbd e113 443d
000002b0: 1275 88bd 093f 6c3d d9bf 053e cb3a e23b
000002c0: a898 453e f817 10be 6eb4 2bbe 4d40 eebd
000002d0: c250 81be bae9 cdbe 3838 2dbc e5b8 00bf
000002e0: 5ea7 68be aa88 f6be 4cd3 03bd 0a3e abbd
000002f0: cc7d c3be 87a8 0cbf 87ac ddbd 3088 7dbe
00000300: ce70 a33e da0d fd3e b29e e23d f8fa 393f
00000310: 087e c1bc e3cb 69bd 1481 e1bd b889 133e
00000320: 8dc4 c83d 017f 5bbe ab45 62be 6654 613e
00000330: 8088 7bbe 5387 2cbe f473 48be e3af 07bc
00000340: 18b3 f73d d711 58bd c0c5 033e 8184 55bd
00000350: 59fc c83d 22c6 9aba 8785 0d3e 24c7 5c3e
00000360: 2568 10bf 64d2 b6be a57a b43d 72c1 e4be
00000370: 4adb 86bc 755c cdbb 11de 3e3e b0b2 613d
00000380: 3187 12be fb06 a2be 4810 82bc a9e9 083f
00000390: d305 bd3c f69b 26bf 6543 08be 9cf9 343f
000003a0: 7104 263d cd63 573e ed39 07be c412 1dbe
000003b0: 328b d4bd 5681 90be f85d 81bd 52c6 573d
000003c0: cbfe 92be a0ab 1d3e 83d2 a1be c675 44be
000003d0: 63a8 fcbd 601b ffbd ac9e 8dbe a45f 22be
000003e0: a7f5 fcbd ec8d 7cbe b69a b8bd 7f15 65bd
000003f0: 1711 9dbd c760 93be ffed 51be fd65 cdbe
0.05864423 0.53265125 0.20983385 -0.01593751 0.33252126 -0.4180453 0.038799074 0.5073099
0.07939723 0.043540597 -0.32930237 -0.13815124 0.2767253 -0.4561679 0.17761004 -0.196177
-0.27098098 -0.13911729 0.17149448 0.22853741 -0.076631896 -0.011310842 -0.12432897 0.031919137
0.0813669 0.08122852 -0.12221133 -0.0745589 -0.02003981 -0.065450944 -0.2751872 -0.10393199
-0.116213925 -0.21436246 -0.014512137 -0.03923497 0.608616 0.14142373 0.65388757 0.06642343
-0.021941323 0.053023633 0.6861949 -0.025716495 0.6433456 -0.20617546 -0.2495406 -0.19794954
-0.19324991 -0.17666663 -0.0004672829 -0.23412193 -0.10114129 -0.023990052 -0.18467286 -0.044839587
0.08804054 0.07352272 0.2569663 -0.0023090742 -0.22892931 0.1741015 -0.22287016 0.12276988
0.028912174 0.0019506345 0.10446545 -0.14562778 -0.073590636 -0.07579867 -0.13711913 -0.23011264
0.13715473 -0.08647237 0.09944059 -0.05278051 0.00022717 0.103879035 0.25074345 0.3237569
-0.10269842 -0.0045885583 -0.06273941 0.21907732 -0.73500097 -0.5150189 -0.7250877 -0.42187175
1.006411 -0.39646506 0.09963177 0.27953762 0.09527822 -0.034238853 0.2577589 0.05773199
0.10736653 -0.074291065 -0.024730213 -0.29165876 0.016784068 -0.08313395 -0.11701905 0.16713831
-0.006951579 0.011681244 0.23363149 -0.01005507 0.6797393 0.156965 0.66012996 0.17791045
0.34202048 0.10011989 0.6760596 0.12084077 0.5870621 -0.6013263 -0.09923024 -0.6734929
0.035164755 -0.3954435 -0.033870615 -0.58770734 -0.014976206 -0.29424244 0.05289667 0.075306214
0.0047339704 0.15391336 0.28708726 0.19002828 0.20030047 0.026842533 0.1871714 0.05214702
0.0017967372 0.061014812 -0.049369916 -0.083297804 0.053470723 0.15311071 0.13898675 0.13248149
-0.13065432 -0.07269616 -0.019175733 0.020433594 -0.19469647 0.007136894 0.62525797 0.7670896
0.52009696 0.14605841 -0.049253773 0.060022384 0.04306094 -0.030416772 -0.018954074 -0.93445903
-0.5446637 -1.0958896 0.039577473 -0.13090762 0.12033397 -0.034740146 0.09969548 0.057633586
0.1058031 -0.0956901 -0.101514935 0.04787052 -0.066629544 0.057677303 0.13061465 0.0069039813
0.19296515 -0.14071643 -0.16768047 -0.11633358 -0.25256926 -0.40217382 -0.010572486 -0.50282127
-0.22720096 -0.4815114 -0.03218393 -0.083614424 -0.38181913 -0.5494465 -0.108239226 -0.24758983
0.31922 0.4942463 0.11065425 0.7264857 -0.023619667 -0.057079207 -0.11010948 0.14408004
0.09803114 -0.21435167 -0.22096889 0.22004852 -0.2456379 -0.16848497 -0.19575483 -0.008281681
0.12094706 -0.05275139 0.12868404 -0.05212832 0.098137565 -0.0011808316 0.13820468 0.21560341
-0.5640891 -0.3570739 0.08812455 -0.44678837 -0.016461987 -0.0062671253 0.18639399 0.05510205
-0.14309384 -0.3164595 -0.015876904 0.5348154 0.023074066 -0.6508173 -0.13306959 0.70693374
0.04053158 0.21034165 -0.1320569 -0.1533919 -0.10378112 -0.28223675 -0.06316751 0.052679367
-0.28710017 0.15397501 -0.3160592 -0.19185552 -0.12336805 -0.12456393 -0.2766012 -0.15856797
-0.12351542 -0.24663514 -0.09013884 -0.055928703 -0.07669275 -0.28784773 -0.20500945 -0.40116873

conv1.bias f4 [32]
00000000: 6438 f5be ce7c b4be c078 c8be 0ece f6be
00000010: 7037 b1be 047c 0abf cf3c cbbb da9c 193e
00000020: a6c5 a9be a934 e0bd 18a4 ebbe 0c8c dabe
00000030: 9b8f debe f79c c4be e163 3ebe 639b 9bbe
00000040: b26c 08bf 5719 51bf ecfe 613d 4407 38bf
00000050: 54c2 a8bd 044a a9be 1643 a7bd 3e9b 43be
00000060: 57fe 00be 0e71 92be 1008 12bf 5b61 25bf
00000070: e4dc c23e 299a a2be 3b05 d9be d69c c8be
-0.47894585 -0.35251468 -0.39154625 -0.48204082 -0.34612608 -0.5409548 -0.0062023173 0.1500124
-0.33158606 -0.10947544 -0.4602363 -0.42684972 -0.43468937 -0.38401005 -0.18592788 -0.30391988
-0.53290856 -0.8167929 0.055174753 -0.71886086 -0.0824019 -0.33064282 -0.081670925 -0.19102189
-0.12597023 -0.2860188 -0.5704355 -0.6460168 0.3805915 -0.3175824 -0.42386803 -0.39182156

conv2.weight f4 [64, 32, 3, 3]
00000000: 218d 93bc cf68 6ebd d0c3 43bd 5032 73bd
00000010: ae82 f3bc f0c5 c03c 5103 bbbd 0c0f b8bc
00000020: bb18 64bd f2c3 413e d134 c73c 42fa 96bd
00000030: 9c89 043e dc38 90be 66ce a9be a49b c6bd
00000040: 5a98 81be 3b67 c4bc b073 ab3e f527 47bd
00000050: 1584 823e 9541 3cbe 4964 343e 7bd7 e43c
00000060: 134c 19be 48dc 7dbd d372 b5bb 9907 9dbd
00000070: 95d7 68be 7115 d8bd 1327 4a3e 2696 7ebe
00000080: 5e71 a2bd 2d97 b53d 7cff 5fbd 4f35 03be
00000090: b946 3dbe 972a 04be 8601 6f39 3171 08be
000000a0: 5590 e6bc a377 333e d40e 6fbd 63af 99be
000000b0: 1370 5f3d acff 463e ccdd 4cbd 48a1 143d
000000c0: 8b57 d8bb 2f64 14be 015b 933e 3e64 13bd
000000d0: cd99 23be 8e1a 3d3d c42c 72bd a463 9cbd
000000e0: 88f7 17bd 3810 0f3e 0c9f c2be 21b9 febd
000000f0: 08c5 efbd 1464 9cbe cbb4 d53d 2dc6 77be
00000100: fc6d b4be b6c9 ddbe 33f5 02bf 95f4 1d3e
00000110: 654a 60be 8ba4 74be 325d a43c 6b4f 93bd
00000120: a1cb 373e 18eb b4bd da33 36be 4269 d23d
00000130: 08fb 7fbd 50a3 58bd cfd1 0a3d 5c24 53be
00000140: 47f4 f1bd c746 7fbe 51a5 1fbc e5ac 893d
00000150: 1fef 4abc bfbc 35be b113 68be 4eab 373e
00000160: 9c82 903c 40b8 23be c37b 0a3e 5dde f43c
00000170: 8ea5 cbbe e777 423e b1d2 643d b4bb 67be
00000180: 15e7 debe 42cc 133e 8888 e73d 5404 a9bd
00000190: b79a 183e 5e5e 913d 0ded 423d ec16 57be
000001a0: 9787 983e cb96 e0bd f518 c53e f97e 7a3c
000001b0: 8ea4 de3e c367 ad3e ab48 a33e 60ca 55be
000001c0: cbaf 0ebe 628b f93c 97d9 09be 9a66 c43e
000001d0: 4b86 90bd e4a2 30be 3a08 503e 4f4e 76be
000001e0: eb92 a13e 8a0f 49be 5045 4cbe ebf5 afbd
000001f0: 8c1b 82be b9d1 673d 45e8 413d 763e 2d3e
00000200: 63cc 643e 2a2a 80be d446 80be dc82 3bbe
00000210: 8720 24bf 9d11 513e d638 62be ea96 393e
00000220: 1402 35be f6b4 2abe d4d5 573c 42ea 89be
00000230: a773 64bd 77c4 a4be 3662 9abe f051 0e3e
00000240: 0f0b 883d 7091 51bd 376f 683d aad8 913e
00000250: c324 b1bd 5c4d f63d 3134 803c 25f1 89bd
00000260: 652c a73c 5025 5dbe 6440 a23d 4e14 553d
00000270: 1c3b 863e 8672 ddbd e832 43be 2afa 0b3e
00000280: d399 833e 118c e3bd 4e65 4d3e 0e6b 5c3e
00000290: 9c35 8d3e ac28 26bd 77bb c33c f118 1abe
000002a0: 3e1c 513e c760 773d e5ae d4bc 4b26 843d
000002b0: 9afd ab3d e484 60bd f341 5fbe 0d12 24be
000002c0: ca2a 64be d423 0bbd 3151 09bd 8c54 c43c
000002d0: 1331 eb3c 115e d9bd 5012 c9bd b916 1d3e
000002e0: d64d 35be 814a 933e f890 0d3e 5596 433e
000002f0: 4304 fc3d eae1 12bd bc40 96bd 17e3 89bd
00000300: 823b f93d 706a 91bd befd 003e 527f b43e
00000310: 440d 25bd 23ff 53bd 79c5 093e d75b 2abe
00000320: a408 3ebe d006 8b3d fa28 19bd 5191 7bbe
00000330: 448f 96be 33d8 ddbe 18c6 d9be add9 17be
00000340: d23f 543e 09ec 263e ad83 bcbd ba29 0cbf
00000350: 8152 24be 5cb2 24be e0ca b13d 3589 95be
00000360: 50d7 033e 7205 95bd 7712 12be d020 d73e
00000370: 672f 2dbe 5aef c0bb 53d2 e8be 855d b63e
00000380: 7145 5c3e f4a0 f63d 21ec 913b 9929 cbbd
00000390: 0e7f 5dbd 4123 aebe 6e22 ca3e 9280 84be
000003a0: 4cfb 88be dacc 46bd 795d 173e ab19 023d
000003b0: 5ee5 64be 7102 b53d b3a3 e03d 1326 473e
000003c0: ef5b 6fbd 583a f4bc a9fd 163d 9c05 0cbb
000003d0: 69d9 543e 9750 6abe 89f8 93bc 5588 09bc
000003e0: 885d bd3d 0f1e b2bd 08d5 ebbd 55a4 8ebd
000003f0: 2b1a a9be 76d6 fcbd 648d 97be ea41 13be
-0.018011631 -0.058205422 -0.047794163 -0.059374154 -0.029725399 0.023531884 -0.09131492 -0.022468112
-0.055687647 0.18922403 0.024317177 -0.07371952 0.12943119 -0.2816838 -0.33165282 -0.09697655
-0.25311548 -0.023975005 0.334867 -0.04862209 0.25491396 -0.18384393 0.17616381 0.02793478
-0.14970426 -0.061977655 -0.0055373698 -0.07667465 -0.22738488 -0.105509646 0.19741468 -0.24861965
-0.07931779 0.08866725 -0.05468701 -0.12813304 -0.1848401 -0.12906872 0.00022793384 -0.13324429
-0.028144995 0.17526107 -0.05836375 -0.30016622 0.05455024 0.19433469 -0.05001621 0.036286622
-0.006602233 -0.14491342 0.28780368 -0.03598427 -0.15976639 0.046167903 -0.059124723 -0.076361924
-0.0371013 0.1397103 -0.38011968 -0.12437654 -0.117075026 -0.30545104 0.10434874 -0.24196692
-0.3524016 -0.43317956 -0.51155394 0.15425332 -0.2190338 -0.23890893 0.02006397 -0.07192882
0.17948772 -0.08833903 -0.17793217 0.102739826 -0.06249526 -0.052890122 0.033891495 -0.20619339
-0.1181417 -0.24929343 -0.009744004 0.0672243 -0.0123861125 -0.17747782 -0.22663762 0.17936441
0.017640404 -0.15988255 0.13523774 0.029891187 -0.39774746 0.18991052 0.055864993 -0.22630197
-0.43535677 0.14433387 0.11305338 -0.08252779 0.14902769 0.07098077 0.04758935 -0.21004838
0.29790947 -0.109662615 0.38495603 0.015289062 0.4348492 0.33868226 0.3189138 -0.20877981
-0.13934247 0.03046197 -0.1346191 0.3835953 -0.07056864 -0.17249638 0.20315638 -0.2405331
0.31557402 -0.19634834 -0.19948316 -0.08591827 -0.25411642 0.05659649 0.04734065 0.16918358
0.22343592 -0.2503217 -0.25054038 -0.18311638 -0.6411213 0.20416875 -0.22091994 0.18123975
-0.17676574 -0.16670594 0.013173539 -0.26936537 -0.055774357 -0.3218114 -0.30153054 0.13898444
0.06642734 -0.05116409 0.056746688 0.28485614 -0.0864959 0.12026474 0.015649887 -0.06735448
0.020406911 -0.21596265 0.07922438 0.052021317 0.26216972 -0.10812859 -0.19062388 0.13669649
0.25703296 -0.111107 0.20058176 0.21525213 0.27579963 -0.04056613 0.023893101 -0.15048577
0.2042093 0.06039503 -0.025962302 0.06452616 0.0839798 -0.054814234 -0.21802501 -0.16022511
-0.22281948 -0.033969715 -0.033524696 0.023966096 0.028709924 -0.10613645 -0.09817946 0.153407
-0.17705473 0.2876778 0.13824832 0.19100316 0.123055 -0.03585998 -0.07336566 -0.06732767
0.12169553 -0.071003795 0.12596795 0.35253388 -0.040295854 -0.05175699 0.13454236 -0.16636597
-0.18557984 0.06788409 -0.037392594 -0.24567153 -0.29406178 -0.4332901 -0.42533946 -0.1482913
0.2072747 0.16300978 -0.09204803 -0.5475117 -0.16047098 -0.16083664 0.086812735 -0.29206243
0.12875104 -0.07276429 -0.14264856 0.4201722 -0.16912614 -0.005887908 -0.45472965 0.35618225
0.21510865 0.12042418 0.0044531976 -0.099200435 -0.054076247 -0.34011272 0.39479393 -0.2587934
-0.26754224 -0.048535205 0.1478175 0.03176276 -0.22353122 0.08838356 0.10968723 0.19448118
-0.058437284 -0.029812977 0.036863003 -0.0021365648 0.2078606 -0.22882305 -0.018062847 -0.0083943205
0.09246355 -0.086971395 -0.11515242 -0.069649376 -0.33027777 -0.12345593 -0.2960006 -0.14380613

conv2.bias f4 [64]
00000000: 580b 4fbe b061 27bf daa4 70be 7d72 83be
00000010: 0a41 5fbe a0dd a2be 5668 35bf be6b e93e
00000020: 9afe 013f eaed d1be b34b 7ebe 854c aebe
00000030: 079b b6be 3f2a 00bf 546a 98be b52c 03bf
00000040: a7e9 8ebe 28e4 a2be 7644 79bf 094c 0bbf
00000050: aa3a 47bd 9d2a f6be b404 07bf 08ba 91be
00000060: 4324 9fbe 86fe 04bf d1e4 b0be 6df1 87be
00000070: 6e85 a3be 2327 f1bd 0c6d f8be 0361 22bf
00000080: 102f b4be 8878 85be b38b 40bf 6e04 92be
00000090: 152f 17bf ce87 63bf 78e8 3abe 7e06 42bf
000000a0: 6b89 b2be 8ecf 9cbe deac edbe 6164 9cbe
000000b0: e5cf 16bf 1034 08bf a41f 5bbe 8ee3 d5be
000000c0: edb1 2dbf f38d c6be 7497 90be 6c73 16bf
000000d0: 4ca8 28bf 7aae e9be 1bbb 00bf d956 94be
000000e0: b106 16bf 3824 18bf 1d5c e6be a762 99be
000000f0: 5179 64be f87e bbbe 87e6 12bf 3704 b5be
-0.20219171 -0.65383434 -0.23500386 -0.25673285 -0.21802154 -0.3180971 -0.7086233 0.45590013
0.50779116 -0.41001827 -0.24833564 -0.34042755 -0.3566515 -0.5006446 -0.29768622 -0.5124009
-0.27912638 -0.31814694 -0.9737009 -0.54412895 -0.04863993 -0.48079386 -0.5274155 -0.28462243
-0.31082353 -0.5195087 -0.34549573 -0.2655138 -0.31937736 -0.11775043 -0.48520696 -0.6342928
-0.35192156 -0.2606852 -0.75213164 -0.28519005 -0.59056216 -0.88879097 -0.18252742 -0.75791156
-0.34870467 -0.30627102 -0.4642095 -0.30545333 -0.5891097 -0.5320444 -0.21398789 -0.41775173
-0.6784962 -0.38780174 -0.2824055 -0.5876987 -0.658818 -0.45640928 -0.502855 -0.2897251
-0.5860396 -0.59430265 -0.44992152 -0.29958078 -0.22311904 -0.36620307 -0.57383007 -0.35354778

conv3.weight f4 [128, 64, 3, 3]
00000000: f7ae bdbe 76ac 413c 9500 7abe 2b43 d33d
00000010: c44a 2a3e 5a5a 783d 06b9 283e ecdb 9c3c
00000020: dbe0 27be d6bc cc3d 38e8 6e3e 6b94 75be
00000030: 924b fd3c 1b0e ad3e 088b 8d3d 17ef c1be
00000040: e6d2 efbd 95f3 30bd a228 1f3e 63ea 7fbe
00000050: 2357 f0bd 948e a03d d61e c0bd f4be 953e
00000060: 47ba babc 0c62 fabc 5c2a 173e 3dd6 353e
00000070: adde 293e e5eb 6dbe 3994 3abb e0eb 813c
00000080: e4de 813d 10aa 353e 98ab e1bd 6ade 11bd
00000090: 4570 8c3e c82e 26be f013 6bbe fec9 01be
000000a0: ac90 983c f0db efbd 993e f43d 3fdf babe
000000b0: 9fea 08be 243c 0b3e 3dbc 89be d52c 65bc
000000c0: 92d5 dabe f039 04be 46e6 0cbc 84c4 07be
000000d0: 146c cabd ce1e 8cbe 070e 82be 5b64 463e
000000e0: 9b04 8e3d e7ff 97bd 7632 ca3d b17f b03e
000000f0: 4e8e 783e 3f2b 433e c12b e2bc c36d 403e
00000100: d8c1 df3c b59c 79be 9fd5 c23c 6538 52be
00000110: 0467 193e 528d f13d 8730 123e 14e4 ff3d
00000120: 171f 463e 7497 90be 8e9e fc3d 2a9d fcbd
00000130: 0527 90be 1775 8bbd 92d6 a3be 6cbc 98be
00000140: 993c e7be def4 513e f920 893d fedd f13d
00000150: a007 1cbe f64d 21be 06e2 9e3e 6b7d fcbd
00000160: 670d 403e aefc 4f3e 1563 d53c 0827 79be
00000170: 53a1 73bd f0c6 8a3d cb45 ec3d 9421 96be
00000180: 9185 55bd ee21 923d 1a90 93be 1c65 543d
00000190: 2d8c 6abc 0136 223e baa2 853c 7762 6f3e
000001a0: 8278 24be 58a1 a2bb fefc 8bbe d104 3c3d
000001b0: 7401 00be 3ea3 193e fc25 253e 53ab e5bb
000001c0: af59 ff3d 2f22 33bd 5a35 883d 8814 923d
000001d0: 6e4f 213e 117c 9fbd d232 a0bd 651f 8fbc
000001e0: c396 0c3d 11e4 d0bd b2c9 b8bd 9ab8 f1bd
000001f0: 937c 033c 8b89 5bbe 08f1 febd e080 1e3d
00000200: 1e17 893e c50d 003e 4d4c 833c 8011 0cbc
00000210: 0e94 d3bc a7a7 073c d8e0 dcbc 85ff 96be
00000220: 7c56 a83d ca44 8cbe 3237 353d 9ecb 993d
00000230: 9bc1 683e 2819 863d 74d5 b13c 690d b63e
00000240: dfbf 0c3e 8903 c4be 0638 8b3d 6f44 fcbd
00000250: e1a1 27be 0db4 ad3c 1c84 d03d e00c e8bd
00000260: 810e 113c af0a 02be 8100 02bd 9464 19be
00000270: a615 0dbe 5837 bbbd 4085 093e f72e 77bc
00000280: 20da 0ebe ed00 febd 45da 82be bb69 0f3d
00000290: 0cee c3bc 9aef 593e 7cb2 34be 8e36 5abc
000002a0: 71dc b93d 688d 56bb f00a 563c 360a e8bd
000002b0: 5d8d 1e3e ca44 5dbe b971 ccbd e17a 4abd
000002c0: 5dfe 12bd f8db b5bc a6f4 e7bd 71f7 84bb
000002d0: 1999 37be d519 a6bd 1241 953b 4287 42bc
000002e0: 24da 573c 3e50 783d 42eb 7cbd 0a52 4ebd
000002f0: 6a62 eb3d 0c56 6b3e b7ab adbb eda7 45be
00000300: 0b18 6b3e aa1d 11be f915 a6bd 059f 41be
00000310: 1398 37be 3d75 573d 82c8 73be 53f1 9d3e
00000320: f270 313e 9139 b1bd 92a3 c9bd 94e5 87be
00000330: b974 78be 9d29 7cbd 29da c43c 9e6a 623d
00000340: 588c e2bd 4a52 16be 457c 953b 7cef 423d
00000350: 34cd 22be 4043 ac3d 5a97 32be e287 ebbd
00000360: 19d9 c73d 73a2 b7be 6577 083d a7be 1ebe
00000370: c5da 4bbe bb97 2f3e 05f4 17be 5a2b 003c
00000380: 4b74 e3bd 1793 e5bb e3b7 293d d04d 1bbe
00000390: dcb9 9a3d 4fb2 a13b 3a4c f73d 1634 7cbe
000003a0: 0c08 903c d02e 35bc b328 a53d 9186 abbc
000003b0: 1d62 543d 3565 80be 2b7e 2a3d 2821 ebbd
000003c0: 612d 9a3d debb 2b3b 85b6 4abe 5f5e 0f3f
000003d0: 086c ffbd 35f5 a1be 425d 9ebe f889 f0bb
000003e0: 651c 2dbe 3102 1e3d d4f9 74be a5bc f0bd
000003f0: 5a21 12be 6200 a93d aa55 dc3d 6cbd cebd
-0.3704755 0.011820903 -0.24414285 0.10315546 0.16630083 0.06063304 0.16476831 0.019147836
-0.1639437 0.09996955 0.23330772 -0.23982398 0.030919824 0.33799824 0.06911284 -0.37877724
-0.117101476 -0.043201048 0.15542844 -0.24991755 -0.1173537 0.078396946 -0.093808815 0.29247248
-0.022793902 -0.03056433 0.14762253 0.17757507 0.1658885 -0.23234518 -0.0028469695 0.015859544
0.06341341 0.17740655 -0.11019057 -0.0356125 0.27429405 -0.16228783 -0.22956824 -0.1267471
0.018623672 -0.117118716 0.11926002 -0.36498448 -0.13370751 0.1359716 -0.26901427 -0.01398774
-0.42741066 -0.12912726 -0.008599823 -0.13258559 -0.098838955 -0.27367252 -0.25401327 0.1937422
0.06934472 -0.074218564 0.09872906 0.3447242 0.24273035 0.19059466 -0.027608754 0.18791871
0.027314112 -0.24376185 0.023783503 -0.20529325 0.14980704 0.11794533 0.14276324 0.12494674
0.19347797 -0.2824055 0.123349294 -0.12334664 -0.2815477 -0.068094425 -0.31999642 -0.29831254
-0.4516342 0.20503566 0.06695742 0.1180992 -0.15237284 -0.15752396 0.31031817 -0.12328609
0.18755113 0.20311233 0.026048223 -0.24331295 -0.059480023 0.067762256 0.115367495 -0.29322493
-0.052129332 0.07135378 -0.28820878 0.051854238 -0.014315647 0.15840913 0.016312946 0.23377405
-0.16061595 -0.0049630813 -0.27341455 0.04590303 -0.12500554 0.15003678 0.16127771 -0.007008949
0.12468278 -0.043733772 0.06650801 0.07132822 0.15752956 -0.07787336 -0.07822193 -0.017471025
0.034323465 -0.1019975 -0.09022845 -0.11802788 0.008025306 -0.21439187 -0.12448317 0.038697124
0.2677545 0.12505253 0.016027594 -0.008549094 -0.025827434 0.0082797175 -0.026962683 -0.2949182
0.082196206 -0.27396232 0.04424209 0.0750954 0.22730105 0.06547767 0.021708228 0.35557106
0.13745068 -0.38283947 0.06797795 -0.1231774 -0.16370346 0.021204019 0.10181448 -0.11330581
0.008853556 -0.12699388 -0.03173876 -0.14979774 -0.1377779 -0.09141415 0.13429737 -0.015086881
-0.13950396 -0.1240252 -0.2555715 0.03501294 -0.02391722 0.21282807 -0.17646211 -0.013318671
0.09075249 -0.0032738093 0.013064131 -0.113300726 0.15483613 -0.21608272 -0.099826284 -0.049433593
-0.03588711 -0.022199616 -0.1132596 -0.0040578176 -0.17929496 -0.08110396 0.004554876 -0.011873068
0.013174567 0.0606234 -0.061747797 -0.050371207 0.1149338 0.22982043 -0.005300011 -0.1930234
0.2295839 -0.14171472 -0.0810966 -0.18908317 -0.17929105 0.05260204 -0.23806956 0.30848178
0.17328241 -0.08653558 -0.09845652 -0.26542342 -0.24263276 -0.061563123 0.024029808 0.05527746
-0.11061925 -0.14679828 0.004561933 0.04759167 -0.15898591 0.084112644 -0.17440549 -0.11500527
0.09758205 -0.35866126 0.03331699 -0.15502416 -0.19907673 0.17147724 -0.1483918 0.007822836
-0.111061655 -0.00700606 0.041435134 -0.15166402 0.07554981 0.004934586 0.12075086 -0.24629244
0.017581962 -0.011058524 0.080644034 -0.02093819 0.05185138 -0.25077215 0.04162423 -0.114809334
0.075281866 0.0026204507 -0.19796188 0.56003374 -0.12471777 -0.3163239 -0.30930525 -0.007340666
-0.16905363 0.03857631 -0.23923427 -0.11754731 -0.14270535 0.08252026 0.107585266 -0.10094723

conv3.bias f4 [128]
00000000: edbd c7be f0df c0be 18c7 a4be ae49 8fbe
00000010: 9af1 0cbf bc7a 8abe 1342 08bd 8437 37bf
00000020: 12ff 01be 721b 1bbe 5b2e bdbe 4257 a6be
00000030: fc36 0bbe 979f 093f 4e9c f1be bb8e 14be
00000040: 77a7 61be 4469 d8be 0888 a7be 74e6 02be
00000050: 5a2f abbe d072 f6be f5f0 78be c567 573c
00000060: 18de a8be 9b86 a3be 140c acbe 20db ddbe
00000070: 07ad 15be 782b 5bbe 3688 a7be 5a75 9dbe
00000080: 3c44 01be de58 4cbe 4f44 69be 88d4 b4be
00000090: 1c09 aebe 82ed a1be ace4 dbbe 1cde 72be
000000a0: 75a7 a5be 62f2 ebbe 4830 1cbe 95b7 99be
000000b0: 9ced 7fbe 4a47 8cbe 93d1 97be 49e4 98be
000000c0: ccab dbbd fa3c dcbe 8baf dabe c051 cbbe
000000d0: d097 cabe b9fb 0cbe 3633 92be 6b83 7ebe
000000e0: 9f69 7ebe 04b9 8cbe b8dd f4be a5d2 abbe
000000f0: e88b cabe c995 b73c c3a7 f0be 6e69 b2be
00000100: 2dba c9be 50f6 853d 2487 febe 5f7e eabe
00000110: ec98 84be 34fe b9be ded7 afbe c0d0 87be
00000120: 0ce8 d7be eac4 5fbe 8971 d5be 2cf2 b7be
00000130: 190d cdbe 76fb 19bf 259c 85be 8108 65be
00000140: 6f61 5cbe 0c3b bfbe b149 8dbe 1db3 c0be
00000150: 7608 76be 7550 d7be 14c7 dabe fb35 86be
00000160: 839c 7dbe 68cf 3dbe fee0 14be 9819 12be
00000170: 8f60 98be 6376 ffbe d5fb 6ebe 2608 8abe
00000180: 7db8 8ebe 8a47 45be 3a04 bcbe 90b2 92be
00000190: d436 83be 3a8e b0be df57 cfbe 8f5d 82be
000001a0: b4ac e7be ebe5 e9be fab6 96be 29bd a0be
000001b0: 9a02 ddbe 0b85 dabe f263 22be 6286 9fbe
000001c0: f5eb 35bf 5112 223f 988d d5be 8e67 a5be
000001d0: d1cf fbbe 1e8e 97be 3fd1 8ebe 65a7 09be
000001e0: 26ec 70be 8184 07bf ae59 0bbe 1d9d 8bbe
000001f0: e138 acbe b53e b0be 784e d6be 713b 85be
-0.3901209 -0.3767085 -0.32183146 -0.279859 -0.55056155 -0.27046764 -0.03326614 -0.71569085
-0.12694958 -0.15147188 -0.3694943 -0.32488447 -0.13595194 0.5375914 -0.47189564 -0.14507572
-0.22036539 -0.4226781 -0.3272097 -0.12783223 -0.33434564 -0.4813447 -0.24310668 0.013147299
-0.32981944 -0.31938633 -0.33602965 -0.43331242 -0.14616786 -0.21403301 -0.32721108 -0.30753595
-0.12623686 -0.19955775 -0.22779964 -0.35318398 -0.33991325 -0.31626517 -0.429479 -0.2371754
-0.32354322 -0.4608336 -0.15252793 -0.30022874 -0.24992985 -0.2739814 -0.2965208 -0.29861668
-0.10726127 -0.4301527 -0.42712054 -0.39710808 -0.3956895 -0.137679 -0.28554696 -0.2485482
-0.24844979 -0.27484906 -0.47825408 -0.33559147 -0.39559865 0.02241029 -0.47002992 -0.3484606
-0.39399853 0.06541121 -0.4971248 -0.45799538 -0.2589792 -0.36326754 -0.3434438 -0.2652645
-0.42169225 -0.2185246 -0.41688183 -0.3592695 -0.40049055 -0.60149324 -0.2609569 -0.22366525
-0.21521543 -0.37349737 -0.27595285 -0.37636653 -0.24026665 -0.4205357 -0.4273001 -0.2621306
-0.24766736 -0.1853615 -0.14538953 -0.14267576 -0.29761168 -0.4989501 -0.23338254 -0.26959342
-0.27875128 -0.19265571 -0.36721975 -0.28651857 -0.25627768 -0.3448351 -0.40496728 -0.25462005
-0.4524895 -0.45683226 -0.29436475 -0.31394318 -0.43166047 -0.4267963 -0.15858439 -0.31157213
-0.71063167 0.633092 -0.4170959 -0.32305568 -0.4918199 -0.29600614 -0.27894017 -0.13442762
-0.23527583 -0.5293656 -0.13608429 -0.27268305 -0.33637145 -0.34422842 -0.41856742 -0.26021913

p_conv1.weight f4 [4, 128, 1, 1]
00000000: 0227 083b 5c26 9bbd 5b4a 59bb c6f3 873d
00000010: d806 4b3d 00e0 953c fdfb 42bc 3de2 28bd
00000020: db30 c73d 3545 d43e 2e48 ae3c 74f5 873b
00000030: 1a7b 62bb 1bac 50bb a53a 9d3d a4f4 fc3c
00000040: 1f80 6fbc 57be f5bd 02ec 6d3b ad2b 163e
00000050: dab7 de3c 117a 2abd df22 9cbb bf3a 103d
00000060: 4e74 2cbb 44e0 e63b dd69 3b3d 1acd d9bd
00000070: c475 673d 2ae1 163d 8793 003d 6e7a 2cbc
00000080: c842 96bc 93bf 993c 5eda ebbb 68de b8bd
00000090: e01f 463c 3ef0 fdbd ad15 993c cf79 1ebd
000000a0: f940 023d e5ea dcbc 984b eebb a213 86bc
000000b0: 5355 a3bc fe2b 74bc 2752 01bd 6102 0ebd
000000c0: 049f f83a c3a1 3fbd 59f4 0cbd bd1a fa3c
000000d0: 8474 18bd da3a a9bb 12c6 b23b 1df2 0dbd
000000e0: 79a1 123d 2403 443d 9d4e babd a587 133d
000000f0: 2113 2abd cdf7 8fbd 8993 c43d c16a 6ebd
00000100: a642 a3bc e980 4c3d 2f23 043d 3ff9 e4bb
00000110: 08f5 913e 4919 d73d 1a65 e0bc 424c 2a3c
00000120: 00f9 22bd f34f 72bd e9cd ff3e 537a 143d
00000130: 3f4f 103d 6839 01bd 2f64 d03d 3c33 e8bb
00000140: 8174 e83c 655b d53b 2e01 88bd 925f 40be
00000150: b2ec 4fbd e63f a8bb 432a ddbd c02e 963e
00000160: 13ed d9bc 0ac4 0b3d bfd6 373d 3bac 1dbc
00000170: 261c 01bd a030 813d d47e 113e 450a 00bd
00000180: 09a5 87bd ae31 e03c 4e58 28bc 8326 11bd
00000190: 5a34 03bc 9414 9ebd fb20 d4bc bc3b f5bc
000001a0: e043 a1bc cb12 0ebc 10a4 123c 161c 0d3d
000001b0: dd5e 823e 62cb 11bc 1194 133d 9ba6 c2bc
000001c0: e64e 733e 1b6b fc3c cb93 f23b 168d 1fbd
000001d0: d1e5 83bb 2cff c6bc 9513 b9bd d12a 94bc
000001e0: 95e0 6abd 958b 96bd 2aa9 4b3c 9623 2a3d
000001f0: 0707 b73b 8137 173c 54a7 22bd 7088 40bd
00000200: 83c6 8fbd 23d4 cfbc b269 1dbd 8f1d 17bd
00000210: 69ce c33d 0eab 32bc 9635 1fbc dfe5 be3c
00000220: 463d 88bd 2471 ecbc a841 a8bc d3c3 d63c
00000230: 2291 2bbd 863f 403d 2577 4fbc b862 11bc
00000240: c97a 3abc 2092 13be 2de1 cbbb c466 a23e
00000250: b420 4c3d 6d27 db3c d9a3 18be 85d4 8cbc
00000260: 4206 dfbd 5211 94ba 4f05 283d ba88 39bd
00000270: f424 593c 825e 82bd e2d8 f33b 2c3d 97bd
00000280: 0df5 e2bc 6c1b f8bd c341 bfbc bf43 a03c
00000290: f1dd c1bc fa1f dc3c 3d0c 3e3b 7292 89bd
000002a0: e2ca 1ebc e3dc 873c ddaf 3bbd 0036 7438
000002b0: 3faf 7e3a 2ee2 eebd c336 cd3c 31de 163c
000002c0: e00d b43a 4628 ea3a 606e 0e3d fd6c 883d
000002d0: 2501 febc 75e3 653b 4dc7 03bc 5896 04bd
000002e0: 10e0 42bc f3a8 65bd abfd 823d a203 0dbd
000002f0: 3ab3 c6bc 5fde 1fbd 5d72 b9bc 6f5f 983c
00000300: 6fd3 733d 123e 40bd 9683 87bc cd84 323c
00000310: 5968 3bbc 2a98 e43c 825c 4c3d cd61 b6bc
00000320: f4ab ce3c 649b 26bc d096 b3bd 441b 54bd
00000330: d4e7 9d3b cdc8 1c3d 6a23 1ebd f1d9 00bd
00000340: 73f9 b53b cf66 9dbc 6c80 653c 7799 1b3e
00000350: bff8 95bc 1003 b93d 27fa 93bd eb34 153f
00000360: 76d6 e8bd 0d35 be3d a325 33be b296 99bd
00000370: 8bb0 5c3c 89e9 793b 07b6 923d f8dc 4c3c
00000380: 913b 94bb 3f2b 44bd d74b 26bd 2559 a5bc
00000390: 147e 2bbc d312 a2bc f2c7 cb3c 8fdb fabd
000003a0: 89ac ca3c 8277 843d 6eaf 20bd 81a8 cbbc
000003b0: 788f 8a3d 94b0 f53c 496d 1abd 7999 a63c
000003c0: 8555 22be bdb0 443f c6a6 493c 9672 c73c
000003d0: e33a c2bb 4e0d 653d 12fd 173c 16f7 27bc
000003e0: 58b5 53bd 182f 4a3d c469 253d d665 b2bd
000003f0: d1f8 bbbd a1b0 1ebd 44f5 ee3b e1be 8d3d
0.0020775204 -0.07575676 -0.0033155892 0.06638293 0.049567074 0.018295288 -0.011900899 -0.041231383
0.09726115 0.4145905 0.021274652 0.0041491333 -0.0034558238 -0.0031840864 0.07677201 0.030878372
-0.014617949 -0.11999195 0.0036304002 0.14665098 0.027187277 -0.041620318 -0.004764899 0.035212275
-0.002631444 0.0070457775 0.045755256 -0.10634823 0.056508794 0.036835827 0.031390693 -0.010527236
-0.01834239 0.018768108 -0.0071976623 -0.090267956 0.0120925605 -0.12399338 0.018687094 -0.038690384
0.031800244 -0.026967475 -0.007272195 -0.016366784 -0.019938147 -0.014903067 -0.031572487 -0.034670237
0.0018968289 -0.046785127 -0.034412716 0.030530328 -0.037220493 -0.0051644864 0.0054557407 -0.034654725
0.035798524 0.047854558 -0.090970255 0.036018033 -0.04152215 -0.07029686 0.095984526 -0.058207277
-0.019929241 0.049927626 0.032260116 -0.0069877203 0.28507257 0.1050287 -0.027391959 0.010394158
-0.039788246 -0.059158277 0.49961784 0.03624947 0.035231825 -0.031548887 0.101753585 -0.0070861857
0.028375866 0.006511139 -0.0664085 -0.18786457 -0.05076284 -0.0051345704 -0.107990764 0.29332542
-0.026602304 0.034122504 0.044882532 -0.0096235825 -0.031520985 0.063081026 0.14208537 -0.031259794
-0.06623275 0.02736744 -0.01027496 -0.03543712 -0.008008087 -0.07718769 -0.025894633 -0.02993571
-0.019685686 -0.008671473 0.008950248 0.034450613 0.25463 -0.008898588 0.03602988 -0.023761084
0.23760566 0.03081279 0.007402872 -0.03895291 -0.004025199 -0.024291597 -0.09036938 -0.018086823
-0.057343084 -0.07350842 0.012430469 0.041537844 0.0055855545 0.009229542 -0.039710358 -0.047005117
-0.07020285 -0.02536971 -0.038430877 -0.036893424 0.09560854 -0.01090504 -0.009717366 0.02330297
-0.06652312 -0.028862543 -0.02053912 0.026216423 -0.041886456 0.04693558 -0.012662684 -0.008873634
-0.011381813 -0.14411211 -0.0062219114 0.3171903 0.049835876 0.026752198 -0.14906253 -0.017191181
-0.108898655 -0.0011296666 0.041020688 -0.04529641 0.013253439 -0.06365682 0.007441626 -0.073847145
-0.02770474 -0.12114605 -0.023346787 0.019563554 -0.0236654 0.026870716 0.0028998994 -0.06717385
-0.009691926 0.01658482 -0.045822013 5.8224425e-05 0.0009715445 -0.11664234 0.025050526 0.009208248
0.0013737045 0.0017864786 0.03477323 0.06661413 -0.031006405 0.0035078202 -0.0080431225 -0.03236994
-0.011894241 -0.056069326 0.063960396 -0.034427293 -0.024255384 -0.03903043 -0.02263754 0.018600194
0.05952781 -0.046934195 -0.016542237 0.01089592 -0.011438453 0.027904589 0.04989291 -0.022263432
0.025228478 -0.010168884 -0.087689996 -0.051783815 0.004818896 0.038277436 -0.038607992 -0.031457845
0.0055534183 -0.019214062 0.014007669 0.15195261 -0.018307088 0.09033787 -0.07225447 0.5828387
-0.1136903 0.092874624 -0.17494826 -0.07499446 0.0134698255 0.0038133583 0.07163625 0.012503855
-0.0045237024 -0.047892805 -0.04059967 -0.020184109 -0.010467071 -0.019784367 0.024875615 -0.12248909
0.024740474 0.06468107 -0.039229803 -0.024860622 0.06765646 0.029991426 -0.03770188 0.020336853
-0.15852936 0.7683218 0.012307828 0.024346631 -0.00592743 0.05592089 0.009276645 -0.010251781
-0.051686615 0.04936132 0.04038407 -0.0871083 -0.09178317 -0.038742665 0.0072924215 0.06921173

p_conv1.bias f4 [4]
00000000: 530c d8be 8075 eabb ed03 a7be 2bb3 97bd
-0.42196903 -0.0071551204 -0.32620183 -0.074072205

p_fc1.weight f4 [81, 324]
00000000: acfb e03a 0b21 2b3d 0a5c 6bbd 6214 8d3d
00000010: d99f e1bd 6e5a 30bd c28e 3ebe 5893 a23c
00000020: 517a c53b 649f f8bc 0fa1 d3bc 9cc0 1abd
00000030: ecb3 73bc 29f1 a93c 82eb 043d c54a 673d
00000040: a94e b53c 1cef 633d 91e4 89bd 7022 b43d
00000050: db68 c63d 870e aa3d e5e7 b33c 3402 1b3c
00000060: 8a26 4f3a d4e1 843c 498b 8c3d 57cd 3ebd
00000070: daa9 b43c fd28 903d 8a34 89bd 3515 223e
00000080: e535 e43d 6077 1d3e ad99 dabc a9f0 0abd
00000090: 338b b1bc bde0 bd3d 724b a63d 47f7 b93d
000000a0: a207 d73d 3756 943b e250 163e 89a6 ac3d
000000b0: 33c5 d23d 67dd 1f3e b80a 20bc ac0a dabb
000000c0: 6279 d13d eb55 6f3c ae8a c93d c2bb 443d
000000d0: 2783 09bc 1a61 3abd 855c 173b 6409 e33d
000000e0: 35c6 9f3c 3517 6d3e d437 523d d4bb c13d
000000f0: 3e62 f23b c2a6 bf3d 7220 c9bc 5f10 153e
00000100: c425 db3d 30c9 943e 3379 27bd 6dc1 463e
00000110: 87f2 3a3d 11a7 f13c 1af2 15bd ac56 3c3d
00000120: 6b59 083e 0a62 953c ce4a a23d 1d1b 37bb
00000130: 01de 963c 0ae8 473c df20 9e3c 2456 353e
00000140: 277a bcbc 42fe bfbc b74d 76bd 095f c3bb
00000150: a8b6 e0bc 0ef1 2e3b 2615 43bd 0ef2 233d
00000160: f265 ddba 4a81 74bc 134e a63d 4f56 cdbc
00000170: d2b8 1f3d 10f6 5ab9 879c 0dbc b2ce bdbc
00000180: f6bd 94bd 8187 8cbc 31fe 38bd e8d8 b53d
00000190: d685 a23c 75ff 86bd 2437 91bc 4169 84bd
000001a0: 42d9 093e 23cc 8c3a 09a8 65bd f686 f4bd
000001b0: bb8f 193d 0601 583c 0f5b 703d bcb9 4abc
000001c0: a743 5e3d 6750 4fbd 24a9 39bd 2218 1b3c
000001d0: 3aef d3bd 6047 94bd 9645 0dbd c7bf e1bd
000001e0: 84ff 5c3d 54e7 63bd 89d7 4d3c f56d c0bd
000001f0: 273c 19bd 0652 90ba 1686 fa3d a48d 92bb
00000200: c372 4a3d c7ce e9bd c5e7 733d 2250 eebd
00000210: 3cb7 f33c ca59 733d b2e7 863d 6e94 a8bc
00000220: faa6 4d3e 0c6b adbc d65c 94ba 4184 ab3d
00000230: 3746 b23c eccb 86bc 8c1c 83bd 8107 2e3c
00000240: eced bcbe 3638 11bc 0df1 a93d 6310 21bd
00000250: 0e17 5c3d 814b 1c3d 8d73 7f3c dded 81bb
00000260: 6015 72bd 513f 48bd 9f26 68be a972 f5bd
00000270: 8b84 6ebd 7ad6 25bc b034 123d be1a e83c
00000280: 94bc 163c 41a7 8b3d f6b5 2e3d 92b4 193d
00000290: 0c42 603d 17b4 ff3c 5150 c9bc b7b3 9fbd
000002a0: cda8 01bd 196f 5ebd a682 b53d 64ac 2c3d
000002b0: cb29 d93c c6a8 a9bd ca30 59bb 7205 48bc
000002c0: 97b9 8c3c 9716 b5bc 4fd7 bfbc d309 f03c
000002d0: f5fd 013c 6017 a4bb 7eb6 0038 3486 5abd
000002e0: 8609 24bd 8171 a4bd e6cc bd3c b1f9 11be
000002f0: 64c2 84bc 0ec4 8bbc 426d a7bd 547a 2bbd
00000300: 404b 09bd 4820 11be b449 e2bc 0d88 83bd
00000310: 86b5 763c 9f29 303c 880a 26bd f322 5bbd
00000320: d632 22be 85f4 cdbc 31e1 70bd e1cb 4cbd
00000330: 0dbd 94bd ab57 05be c41c f6bc 0e66 a63b
00000340: 398b a03c 89b4 b43e 673d 2abd 6d2a dfbc
00000350: 89a9 653c 3a76 403c d1cb b73d 799c a7b9
00000360: 40e2 24be 0c57 853e 613c aa3b a7b0 8bbc
00000370: 4aea 98bd dfdf 9bbc 8d6e 9a3d a386 c43c
00000380: d2c9 473d 306a 61be 7628 8ebd 4bd9 a1bd
00000390: 0232 80bb 3ab6 dfbd 5b13 f63c eebb 453d
000003a0: e83d e03a e729 21bb 22ff 693c 79ff 2abd
000003b0: 8775 92bc 9140 ddbc b1c9 a83c 64ee 963c
000003c0: c04c cc3c 489b a43d 35a4 19bd 030f e43d
000003d0: 1931 843d 416c 26bc 80c3 f2bb ed00 e4bd
000003e0: e01d 30bd adc0 72bd b9f3 943d 12fd 30be
000003f0: 042f bebd 9bb2 913d 3147 9ebc 7b22 e83c
0.0017164848 0.04177956 -0.057460822 0.06888653 -0.11016817 -0.04305499 -0.18609145 0.01984565
0.006026544 -0.03034944 -0.025833635 -0.037781343 -0.01487444 0.020744877 0.03245116 0.05646779
0.022132235 0.055647954 -0.06733049 0.08795631 0.09687968 0.08303552 0.021961162 0.0094609745
0.0007902166 0.016220964 0.06862504 -0.046582546 0.022053648 0.07039068 -0.06699474 0.15828402
0.11143092 0.15377569 -0.026684606 -0.033920918 -0.02167282 0.09271381 0.08119859 0.090803675
0.10499503 0.004526879 0.14679292 0.084302016 0.10291519 0.15611802 -0.009768181 -0.006654104
0.1022823 0.014607887 0.09840904 0.048030622 -0.008393086 -0.04550276 0.0023095917 0.110857755
0.019503692 0.23153384 0.051322773 0.094596535 0.0073969653 0.093579784 -0.024551604 0.14557026
0.107005626 0.29059744 -0.04088707 0.19409724 0.04564145 0.029498609 -0.03660784 0.045981094
0.1331536 0.018235225 0.07924424 -0.0027939745 0.018416407 0.0122013185 0.019302784 0.17708641
-0.023007466 -0.02343667 -0.06013271 -0.005962257 -0.027430847 0.0026693973 -0.04762759 0.040025763
-0.0016891344 -0.014923403 0.0812036 -0.02506557 0.038994618 -0.00020881766 -0.008643276 -0.023169849
-0.07262795 -0.017154457 -0.04516429 0.08879262 0.019839209 -0.06591693 -0.017726488 -0.06465388
0.13461784 0.001074199 -0.056068454 -0.11939804 0.037490588 0.013183838 0.05868059 -0.012373384
0.054263737 -0.050613787 -0.04532732 0.009466203 -0.10348363 -0.07240176 -0.03449019 -0.11022907
0.053954616 -0.055640534 0.012563595 -0.09395973 -0.03741088 -0.0011010773 0.12232606 -0.0044724513
0.04942585 -0.11416393 0.059547205 -0.11636378 0.029750459 0.0594118 0.06587161 -0.02057859
0.20083228 -0.021169208 -0.0011319171 0.08374835 0.021761997 -0.01645466 -0.06401929 0.010621906
-0.3690027 -0.008863499 0.0829793 -0.03932227 0.053732924 0.038157944 0.015591514 -0.003965123
-0.059102416 -0.04888851 -0.22670983 -0.1198476 -0.05823187 -0.010121936 0.035694778 0.028333064
0.009200234 0.068190105 0.042654 0.03752572 0.054750487 0.031213803 -0.02457443 -0.0779795
-0.03165512 -0.05430517 0.0886281 0.042156592 0.026509186 -0.08284144 -0.0033140653 -0.0122083295
0.01717834 -0.022105498 -0.023418097 0.02930156 0.007934083 -0.0050076693 3.0687537e-05 -0.053350642
-0.040048145 -0.08029462 0.023168992 -0.14255406 -0.016205974 -0.01706126 -0.08175136 -0.041864708
-0.03351903 -0.1417247 -0.027623035 -0.06422434 0.015057927 0.010752111 -0.040537387 -0.053500127
-0.15839705 -0.02514101 -0.05880851 -0.04999912 -0.07262621 -0.13021724 -0.030043013 0.005078084
0.019597637 0.35293987 -0.041562464 -0.02724191 0.014017471 0.011746937 0.08974422 -0.00031969303
-0.16101933 0.26042974 0.005195186 -0.017052008 -0.07466562 -0.019027648 0.07540617 0.023989981
0.048776455 -0.22013164 -0.06941311 -0.079027735 -0.0039122114 -0.10923429 0.030038526 0.048274927
0.0017108293 -0.0024591626 0.01428202 -0.041747544 -0.017878307 -0.027008327 0.020603986 0.01842422
0.024938941 0.0803743 -0.037510116 0.11135676 0.06454677 -0.010157646 -0.0074085593 -0.11132989
-0.04299724 -0.05926578 0.07273049 -0.17284039 -0.09286311 0.071141444 -0.019321056 0.028336754

p_fc1.bias f4 [81]
00000000: 0bbc 64bd a54d 69bd d9d3 1ebe 61b1 0abe
00000010: 2db7 4bbe 378e f7bd de9a 0fbe 62eb a4bd
00000020: f221 17bd 687d eabd e376 c8bd a56b 2fbe
00000030: c7c3 10bd d3ad 013e 88c0 28bd e051 49be
00000040: e294 f2bd 37de 69bd b327 d2bd 7098 14be
00000050: cdf1 eebc aad3 6e3e 84d3 bf3e 83c1 723e
00000060: bf31 95bd 292f 11be 2977 edbd 0e1b eabd
00000070: 6e8a 1abd 45b3 4a3e 1f60 bc3e dd65 473e
00000080: 5587 cd3e 5fb8 6e3e ac35 dcbc ff6c f9bd
00000090: be52 0fbe 0a6c 433e 927f 913e 660b 173e
000000a0: ac7d 2dbc 1d56 103e 697b 9d3e c8b9 ee3d
000000b0: 4f68 eebd 078a 00be 0e18 47bd d276 003e
000000c0: db57 983e 3210 6ebc 132c b63e b51b 3a3e
000000d0: 164f eebc 7799 cdbd becc bcbd bc9e 04be
000000e0: 586a 60bd 6941 383e a865 353e 0efe 423e
000000f0: 92e2 00bd 0156 f9bd c7a0 b3bd c7d1 c1bd
00000100: 2138 e93b 4254 0dbe 70f3 86bd cb6c 903d
00000110: 2370 04bd 054b cebd aaec c03c 8125 f6bc
00000120: ba1c 2abd 68e7 9fbd d7fb 69bd 3a14 eabd
00000130: 58c8 0bbe 71e9 0fbe a4ab bcbd e4f3 66bd
00000140: cb56 35bd
-0.055843394 -0.056958813 -0.15510501 -0.13544227 -0.19894095 -0.12087672 -0.14023921 -0.08052708
-0.036897607 -0.114497006 -0.09788301 -0.17130907 -0.035342958 0.12663965 -0.041199237 -0.19660139
-0.118448034 -0.057096686 -0.10261478 -0.14511275 -0.029168034 0.23322931 0.3746606 0.23706631
-0.07284879 -0.14178146 -0.115949936 -0.114309415 -0.037729673 0.19794948 0.36792085 0.19472452
0.40142313 0.2331252 -0.026881061 -0.121789925 -0.13996407 0.19084182 0.2841764 0.14750442
-0.010589045 0.1409535 0.30758217 0.11656529 -0.11640989 -0.12552653 -0.048606925 0.12545326
0.29754528 -0.014530228 0.355805 0.18174632 -0.029090445 -0.10039037 -0.09218739 -0.12951177
-0.054788917 0.17993702 0.1771456 0.19042227 -0.031466074 -0.12174607 -0.087709 -0.0946384
0.007117287 -0.13801673 -0.06589401 0.070520006 -0.032333504 -0.100729026 0.02355035 -0.03004718
-0.041531302 -0.07807809 -0.05712494 -0.11429639 -0.13650644 -0.14053895 -0.09212425 -0.056384936
-0.044272225

value_conv1.weight f4 [2, 128, 1, 1]
00000000: 0138 ad3e f7ad eb3e 82f5 593e b337 2ebf
00000010: b8f0 0b3f f3e5 ba3e b4b1 6cbf 6c8b b93e
00000020: e701 1dbf fca8 393c 58bc 4cbf 6fc7 ba3e
00000030: 77ae c23d 675b 22bf a4ab 523e 1f42 bdbd
00000040: 12d4 a1bd 070d 33bf b853 f2ba 25d7 07bf
00000050: 11bf 23bf 719f aabe fc11 e23e 8bdc 4cbf
00000060: 4ff4 6c3e 0413 4cbf 5af2 fbbd ad3e 4abe
00000070: 0e36 cbbd a082 51bf bd46 a73e 2b8f d83e
00000080: 2f5e 1abf 755f c03d 1079 073c 35b4 e03e
00000090: 8bc0 59be 499e 5b3e 55e5 45bf c64b 823d
000000a0: 1ef8 c0bd 4f87 343e 0984 55bf 1526 d73d
000000b0: 85e3 44bf f8e7 30bf ea66 78be da6d 4cbd
000000c0: 70ab 553d 42a4 e53e f0ec 45be 86e6 a13e
000000d0: 40f3 d83e 819d df3c 7efa f7be 1e65 713e
000000e0: 11a2 19bf 630c b03e e710 113f abdc 1ebf
000000f0: c992 4b3e e596 903e e68e a03e 2b9e 9c3e
00000100: 347a 3d3f b23e 213b f420 4cbd b224 093d
00000110: 1c0f 03bf e6db 1f3e 1ca8 b53d e3a4 1b3e
00000120: c87b 533d 3f49 8e3e 495c 38be 3fe9 33bf
00000130: 88e1 a73e 7bcb 043f 0a30 3fbf 2653 17bf
00000140: a434 e0be 9ca8 f1bd 4ad3 1f3e 530f 163f
00000150: 8ceb 40be fc57 d03e 3ea9 aabe 10c7 d83e
00000160: 579f 603e 0988 35bf c10a 1f3e fd90 9bbe
00000170: b8a3 c03d bea7 a43e 07c8 29bf 4f81 163d
00000180: ed3b 05bf ac2c 5ebf fc8d 3abf 19b3 28bf
00000190: eb3e 9abe 5204 a8bd 11da 2e3e 1305 36be
000001a0: 04cb 883e 8e63 85be d525 11bf 4e34 003f
000001b0: 4356 23bc 400e c23d 344c 26bf f3b4 253d
000001c0: d44a b93e 1570 9bbd 56df 4d3e 04ca 1dbf
000001d0: f15c d8bc 66c4 f0be 0fa1 673e 1fa6 6fbd
000001e0: 9607 1d3e 279d 913e d7c4 00bf 57c2 3abf
000001f0: 4041 11bf c5fc 2dbf a658 803e 989d 24bf
00000200: 4d42 113e 1010 d83e 4a79 1abf 250f 133e
00000210: 16df fabd a0f5 993e e41f 1fbe 06ea 9d3e
00000220: b2c9 633e 5990 3b3d f8dd 223d b35a 203d
00000230: 0d5b fcbe 3405 16be 9da5 37bf 60e1 86bf
00000240: 4f4c 26bf d89c 023e 82f0 27bf 31b6 7dbe
00000250: 43df a73e bfb4 de3e 63f3 26bf 7453 44bc
00000260: 5c1a 113f a32b 233e bc0f 09bf bc7e fd3e
00000270: f80d 0dbf c642 323e 912d 843e 676c 843e
00000280: 634f b13e 8aa3 033e 16e4 6ebf f837 0f3e
00000290: 082f 21bf 34a1 58bf a212 fd3d 9e37 d23e
000002a0: 9995 0fbf 85f6 083f ef39 31be a214 2bbf
000002b0: c882 863a ef4e 053e 7416 39bf 6660 e7be
000002c0: 7982 823d 4d3e acbe 0c02 da3e 26a3 153f
000002d0: 5c0c 1bbf 4b2c 3dbf ebc9 e8bd 5d95 763e
000002e0: ca50 253d 39c8 bebe 029c e3be 3201 723e
000002f0: d30a 53bf 98c1 5f3e 32c1 16bf 3d83 0cbf
00000300: 0b58 75be 7d45 a4bc b139 c7be 7a22 3abf
00000310: 862c 05be 66c8 7c3e 266b 15bf fba7 3fbf
00000320: 74b3 3ebf 3a6f 163e 0168 3f3e ead6 ae3c
00000330: 90e8 11bf e032 823e 2d8d a53e aa33 513c
00000340: 5f4a 1ebf 71cc 25bf f053 ff3e a9ec dcbe
00000350: 26c2 d43e b09b 813e 996f 14bf 3993 50bf
00000360: 3819 1dbf 6bae 873d 0d03 05bf 4bba 03bf
00000370: 9597 57bf 82ea ed3e 30e7 2abe 1d05 e3be
00000380: d4b3 9ebd 54c5 a63e 47d2 c2bd d5d2 553e
00000390: a041 9e3e 8891 2bbf 87ea 3cbf 5df5 19bf
000003a0: dede 903e bc6b 97bf c460 433e b2f1 0c3e
000003b0: 86fe 11bf b75f d43e 4a03 483e 106c 4bbf
000003c0: 35cb d33e da8a 10bd a563 14bf 4ac8 7f3e
000003d0: c318 2fbf 4099 183e a0bd 04bf 56d5 53bf
000003e0: 08ef 51bf 7450 35bf 9f30 6b3e 44e3 6f3d
000003f0: 0b96 303e 35b0 063e 473b 2bbf a67e e73e
0.3383179 0.46031162 0.2128506 -0.6805374 0.5466418 0.36503562 -0.92458653 0.36239183
-0.6133103 0.011331793 -0.7997489 0.3648028 0.09505933 -0.6342072 0.20573288 -0.09241127
-0.07901777 -0.69941753 -0.0018488085 -0.5306266 -0.6396342 -0.3332477 0.44154346 -0.8002402
0.23140071 -0.79716516 -0.12302084 -0.19750471 -0.099224195 -0.8183994 0.32671157 0.42296728
-0.6029996 0.09393207 0.00826861 0.43887487 -0.21264856 0.214471 -0.7730306 0.06362109
-0.094223246 0.17629741 -0.83404595 0.105053104 -0.7690967 -0.69103956 -0.24258009 -0.04990945
0.05216545 0.4485188 -0.19328666 0.31621188 0.42373085 0.027296783 -0.48433298 0.2357373
-0.6001292 0.3438445 0.56666416 -0.6205546 0.19880213 0.28240123 0.31359023 0.30589423
0.7401459 0.002460402 -0.049836114 0.03348226 -0.5119493 0.15611228 0.08869955 0.15199618
0.05163172 0.27790257 -0.18003954 -0.7027778 0.32789254 0.51872987 -0.74682677 -0.5911125
-0.43790162 -0.11799738 0.15607944 0.5861713 -0.18839854 0.40692127 -0.33332247 0.42339373
0.21935783 -0.709107 0.15531446 -0.30384055 0.09406227 0.32159227 -0.6632084 0.036744412
-0.52044564 -0.86786914 -0.728729 -0.6589828 -0.30126128 -0.08203949 0.17075373 -0.17775373
0.2671739 -0.26052517 -0.5669835 0.5007981 -0.009969297 0.09475374 -0.64960027 0.04045577
0.36189902 -0.07589737 0.20104727 -0.61636376 -0.026411505 -0.4702484 0.22620033 -0.058508035
0.15334925 0.2844021 -0.50300354 -0.7295279 -0.5674019 -0.6796382 0.25067633 -0.6430297
0.14185448 0.42199755 -0.6034132 0.14361246 -0.122495815 0.3007021 -0.15539509 0.30842608
0.2224491 0.045791958 0.039762467 0.039148998 -0.49288216 -0.14650422 -0.7173708 -1.0537529
-0.6496019 0.12755144 -0.6560136 -0.24776532 0.32787523 0.43497273 -0.6521513 -0.011982787
0.56680846 0.15934615 -0.53539634 0.49510753 -0.5509944 0.17408285 0.25816014 0.25863954
0.3463088 0.12855354 -0.9331678 0.13986194 -0.6296239 -0.84620976 0.123570696 0.41058058
-0.5608764 0.5350116 -0.17307256 -0.6682836 0.0010262365 0.13018392 -0.72299886 -0.45190734
0.06372542 -0.33641282 0.42579687 0.5845207 -0.60565734 -0.7389571 -0.11366638 0.24080415
0.04036025 -0.37262133 -0.44454962 0.23633268 -0.8243839 0.21851194 -0.5888854 -0.54887754
-0.23959367 -0.020052666 -0.38911203 -0.7270886 -0.13005266 0.24685821 -0.5836662 -0.7486569
-0.74492574 0.14690867 0.18692018 0.021342713 -0.5699549 0.2542944 0.3233427 0.012768665
-0.6183223 -0.6476508 0.49868727 -0.43149307 0.41554374 0.25314093 -0.57982785 -0.81474644
-0.61366606 0.066250645 -0.5195778 -0.51456136 -0.8421567 0.46467978 -0.16689754 -0.4433984
-0.07749143 0.32572424 -0.095127635 0.20881207 0.30909443 -0.6701894 -0.7379536 -0.6014002
0.28295034 -1.1829753 0.19079882 0.13764074 -0.57028997 0.41479275 0.19532505 -0.79461765
0.41365972 -0.03528867 -0.57964545 0.24978748 -0.6839716 0.1490221 -0.51851845 -0.827474
-0.8200536 -0.70825887 0.22967766 0.058566347 0.17244737 0.13153155 -0.66887325 0.45213813

value_conv1.bias f4 [2]
00000000: 06b9 303e 0f09 433e
0.17258081 0.19046424
