model/cnn/9x9/1pc/10000play/_9.pt (torch_old, 526869 bytes, 15 tensors)

conv1.weight f4 [32, 4, 3, 3]
00000000: a97a cbbd d71a ca3e e526 b1bd 2183 80be
00000010: 67d4 943e af0e 77be f42e 6bbe 69de 403f
00000020: b4cc b03c 486e 09be cde7 d6be 4699 10be
00000030: 97c5 b23d 8ac4 f0be 9ff1 923d 2801 04be
00000040: 4847 88be cb63 953d 3165 163d 5261 803d
00000050: c4cc 983d 2a34 413e 049e 89bc c5ef a53d
00000060: c12c 923d 7aa0 523c b9c2 0e3d 4070 75bd
00000070: 7213 123d 99f5 0bbc 6153 80be 6fac cbbc
00000080: 9cef 15bc 8e4a 4ebe dc9c d43d 5925 c73d
00000090: 25f7 ba3e b376 813e 90b1 363f 803c c9bc
000000a0: 2ddd cdbd b312 0a3e ca87 c33e 5d49 89bd
000000b0: d873 073f a0f7 0cbe d568 79bd e709 a6be
000000c0: 7e13 c3bd 454e 5ebc 7154 71bd c67a c8bd
000000d0: 8caa a53d 3915 c1bd bae4 b0bd 66b9 11be
000000e0: 3438 0fbe 7b40 44be 1306 cabd 039a 883d
000000f0: 737d 0cbe e1b4 6b3e 09bb acbd b987 3cbd
00000100: 2b02 fabc bb12 7bbb 67d7 aabc 3e38 55be
00000110: 7e78 2ebd be2a 62be d442 44be 40c5 90be
00000120: affd 56bc 2f40 b6bd f684 773b 5f45 b8bd
00000130: acbd 1cbe 4c0c 2b3d e48a e7bd f987 15be
00000140: 6dba d6bd 16c4 91bd 2d4e b3be c80e 9fbd
00000150: f89c ddbe 2df9 253d 5616 ffbe c6ec 8bbe
00000160: 4515 883f ec87 e5bd ecb9 b1bd 811e 0f3e
00000170: 6336 a53c cc17 69be 2ee3 b33d 2d8c 0bbe
00000180: 7ed3 0dbc be09 f3bc 9b7e 013d 1fbe cebd
00000190: 2c5b da3c ceac 22bc 2558 0cbd 9e95 b03d
000001a0: a486 c0bd 8084 033e c909 353e 87cd b7bd
000001b0: fc00 2d3f ee26 5d3e 0daf 5b3f 034b a83e
000001c0: bd33 613e dd00 bf3d ed40 073f 3f5d 533e
000001d0: 3785 f13e 2e7e 01bf 0ea7 5cbd fcf4 e2be
000001e0: bb9d a3bd c2e5 81be 4749 2cbd 39b9 bcbe
000001f0: 1779 0cbc bb80 94be 7133 633c ee2f 4bbd
00000200: b404 633d 6931 953e 6761 4d3e 50f9 6c3e
00000210: dcb4 0a3e 3548 cf3d 44df 4b3e 4b77 a93b
00000220: b437 bb3a 2555 68bc 5ad1 9fbd 8281 8ebd
00000230: 90d5 923a dacf 013e 1924 203e 7ddd a13d
00000240: ea3f 48bc 7bcc 563c 6143 afbd 060e 2e3b
00000250: 3d92 3cbd 12ed 813d b3cd 243f e735 163f
00000260: bffd e93e ce69 d03d 7845 323e d993 b33d
00000270: 7818 243a 1fba 4fbd 5a5a f03c 69d0 58bf
00000280: 5ba2 46bf 5ff0 85bf 6f63 bd3d dd6b 6d3d
00000290: 228e fb3d 23d1 b43c ae84 bebd 5a17 43bc
000002a0: 704f ea3c 9c1a 91bd fe0c 7ebd 7da1 b53d
000002b0: 8aba 5fbd 73ed c33d 3776 163e 29eb a33c
000002c0: ce04 683e e129 5fbe 281c 65be 97c6 15be
000002d0: 720c 5abe 9cdc b1bd 82f1 3e3b 0110 8abd
000002e0: 8ea9 31be 8d8b 59be 169a bdbe ef25 90be
000002f0: 2d96 aabe 6b91 5bbe fad1 5dbb 5a90 40be
00000300: c680 563e 7392 e03e 304e 71bd f42d 633f
00000310: 19e4 693e c4f4 583d ca69 b43c 4223 a2bc
00000320: f618 433e bdf7 34bd b5ac 90bd 3e13 ebbd
00000330: 8521 d9be 4c27 e0bd e34a b0ba 21e3 b53c
00000340: 8c0c 023e 70e6 92bd 3ca7 ef3d 6d93 0abe
00000350: f222 8b3d de28 54bd f68d 3a3d 0cc0 253e
00000360: d813 97be dd9f d4bd d784 06be 5cb5 76be
00000370: c013 9cbe 441f ea3d 419a 08be f519 eb3c
00000380: eb30 3cbd 484e a4bd 12d3 96be 0849 2b3f
00000390: 4643 5ebc 4154 73bd 9e05 453e 06a9 0e3f
000003a0: 2ab5 8dbe 8f86 b13e e703 88be 1db2 97bc
000003b0: 01f6 f5bd bc92 bd3d d74e e5bd b2da 48be
000003c0: c567 fdbe 7356 e0bc 9d29 6ebe 478b 09bd
000003d0: 5902 7cbd 7187 0fbd 6f64 fdbd fc37 13be
000003e0: 9810 4cbd 7241 e5bd 3608 dfbd 617b 60bc
000003f0: 7db7 28be 0316 d2be 91b4 37be c243 07bf
-0.09935505 0.39473602 -0.08649997 -0.25100043 0.290683 -0.24126695 -0.2296713 0.7533937
0.021581985 -0.13420975 -0.41973725 -0.14120969 0.087290935 -0.47024947 0.07174992 -0.12891066
-0.26616883 0.072944246 0.036717597 0.062685624 0.07460931 0.18867555 -0.01679898 0.08102373
0.071374424 0.012855643 0.03485367 -0.059921503 0.035663076 -0.008542442 -0.25063613 -0.024862496
-0.009151366 -0.20145628 0.10381481 0.097239204 0.3651668 0.25285873 0.7136469 -0.024564981
-0.100519516 0.13483696 0.38189536 -0.06703446 0.5291114 -0.13766336 -0.06089099 -0.3242943
-0.09525202 -0.013568466 -0.05891842 -0.09789042 0.0808917 -0.09427876 -0.08637376 -0.1423088
-0.13986284 -0.19165222 -0.0986444 0.066700004 -0.1371973 0.23018219 -0.084341116 -0.046027873
-0.030518612 -0.0038310725 -0.020854665 -0.20822236 -0.04259538 -0.22086617 -0.19166118 -0.2827549
-0.013122006 -0.08898961 0.003776846 -0.089976065 -0.15306729 0.041759774 -0.11305788 -0.1460265
-0.10484777 -0.071174785 -0.3502058 -0.07766491 -0.4328382 0.040520836 -0.49821728 -0.2732908
1.0631491 -0.11207566 -0.0867804 0.1397648 0.020167535 -0.22762984 0.087835655 -0.13627692
-0.008656381 -0.029667731 0.03161488 -0.100948565 0.026654802 -0.009928895 -0.03426375 0.08622287
-0.09400681 0.12843513 0.17679514 -0.08974748 0.6757963 0.21596882 0.8581398 0.3286973
0.21992393 0.093263365 0.52833444 0.2064104 0.47171947 -0.5058316 -0.053870253 -0.44327533
-0.07989069 -0.25370604 -0.04206207 -0.36860064 -0.008573792 -0.29004464 0.013867245 -0.049606256
0.055424407 0.2913926 0.20056687 0.2314198 0.13545555 0.10121194 0.19909388 0.0051716915
0.0014283569 -0.014180456 -0.078036025 -0.069582954 0.0011202563 0.12676945 0.1563877 0.07903574
-0.01222227 0.013110275 -0.085577734 0.0026558652 -0.0460379 0.06344046 0.6437637 0.58676
0.45701405 0.10176431 0.17409313 0.08768434 0.00062597496 -0.05071461 0.029339958 -0.8469301
-0.77591485 -1.046398 0.09247481 0.057964195 0.12282969 0.02207238 -0.093026504 -0.011907423
0.028602332 -0.070851535 -0.06202411 0.08868692 -0.054621257 0.09566774 0.14693533 0.020009594
0.22658083 -0.2179332 -0.22374022 -0.14626537 -0.2129381 -0.08684656 0.002913565 -0.06741334
-0.17349836 -0.2124464 -0.3703162 -0.2815394 -0.333177 -0.21442191 -0.003384708 -0.18805066
0.2094756 0.43861732 -0.058912456 0.88741994 0.22840919 0.0529678 0.0220231 -0.019792203
0.1905249 -0.044181574 -0.07064191 -0.114782795 -0.42408386 -0.10944995 -0.0013450052 0.02220303
0.12700099 -0.07172859 0.11701819 -0.13532801 0.06793775 -0.051796786 0.04554554 0.16186541
-0.29507327 -0.10382054 -0.13136612 -0.2409262 -0.30483818 0.11431745 -0.13340093 0.0286989
-0.04594509 -0.080227435 -0.2945791 0.6690831 -0.013565844 -0.059406523 0.19240424 0.5572666
-0.2767728 0.34672973 -0.26565477 -0.018517548 -0.12009812 0.09256503 -0.11196678 -0.19614676
-0.49493232 -0.027384972 -0.23258062 -0.03358009 -0.061525676 -0.035041276 -0.12372672 -0.14376825
-0.049820513 -0.11194123 -0.10890238 -0.013701291 -0.16476245 -0.4103242 -0.17939974 -0.52837765

conv1.bias f4 [32]
00000000: 065c 8ebe 55b1 a8bd a8cf 8abe c141 b6be
00000010: 035f 81be 1eb7 6ebe 4d75 78bd 01fd 5c3e
00000020: 2e1e b2be 75bc d6bd d363 95be 4069 aebe
00000030: 470f b0be a777 7cbe c97e febd e6fd 0bbe
00000040: 7b78 efbe fe29 2dbf 6ab9 8a3d 7308 03bf
00000050: 88cf e3bd b6af 33be 274d a93d 3523 90bd
00000060: 5011 2bbd 19da 76be 4f1d d1be c1b6 f3be
00000070: c588 b03e b495 bdbe 1138 9bbe 86e1 aabe
-0.27804583 -0.082369484 -0.27111554 -0.3559704 -0.252678 -0.23312041 -0.06065874 0.21580888
-0.3478865 -0.10485164 -0.29177722 -0.34064674 -0.34386656 -0.24655019 -0.12426526 -0.13671073
-0.46771607 -0.676422 0.06773646 -0.5118477 -0.11123568 -0.17547497 0.08266669 -0.07037965
-0.041764557 -0.24106635 -0.40842673 -0.47600368 0.34479347 -0.37028277 -0.30316213 -0.33375186

conv2.weight f4 [64, 32, 3, 3]
00000000: 7f5c aebc 500b 64bd dd2f f03c 0450 cfbc
00000010: 1e76 e1bd 9659 5e3c fefe 5b3d 0200 c2bd
00000020: 1953 39bd 241e fdbd c5aa 2e3e 73fd 5dbe
00000030: 5be6 3b3c 6ad7 1dbd 56da 84be 8f72 3bbe
00000040: 61a4 33be 97da 4fbe cef9 a13e c045 ef3d
00000050: 2ffb ef3d 0e72 32be e8ad 8a3d 5422 183e
00000060: 389f 2abc 596c 8abe 27fb b63d 5078 4bbe
00000070: 03a7 c4bd dff3 3abe 78ca bc3e 21d3 a5bd
00000080: ec4e 95bd 649a 0c3e 8ee0 9abe d284 89be
00000090: b0ec c03d 744c 04be a754 68bc de46 1d3d
000000a0: 4dc1 5d3d be0f d1bd 8e03 893d b57f 4bbe
000000b0: 1e2f 21be e53d 2dbe 4a07 ca3d b283 21bd
000000c0: 6bdf 6b3d de53 07be b1cc e93c 60ce 853d
000000d0: 050f 023e 85c7 243e 596f 1ebe 1283 31be
000000e0: 0b85 de3d e0c3 09bc 2729 643d 6702 103d
000000f0: 869a e03c 8749 1ebe d3f2 36bd 6e5d f3bd
00000100: 8f77 e4bc b55f 69bd 844f 50be 14b9 89be
00000110: 813f 2bbe d1b2 b7be c10e 86be 7d46 62be
00000120: 2a25 c93e fe73 2a3d fd47 85be 6630 b8bd
00000130: 0c2f 3bbc cb72 ecbd 3052 e83d 93bf c8bb
00000140: fcb3 563e 625a aebe 39c5 c63d 162a 02be
00000150: 0316 833e 65cd e2bd 119c c93c 66b6 923e
00000160: c513 2a3e c4a2 3bbe f91e 29be aaee a6bd
00000170: f5ca 9c3b 664e 543d 88dd 97be 1173 e0bd
00000180: aaa9 82be 119d 87be 283a babe cb7e 3bbe
00000190: 1528 463d a5cb d0bc 52c6 0dbd c91d 42be
000001a0: 4399 acbd 3065 acbe 85b5 4bbe 39e0 b73c
000001b0: 79c7 183f 4dd3 52bd 86d1 943c 1957 213e
000001c0: a31c 67be 7cfc d9be 734d 00be 9768 823e
000001d0: bb01 89be ade3 bcbd dd8e 6c3d 3aed 2fbe
000001e0: 6d45 3dbd 68bc 81bb 4bb4 aabe 3924 a1be
000001f0: a074 02be 07d6 183e 337b 8b3c a364 8bbe
00000200: 8ccd 183e f315 c3bd c70d 99be ccdb d1be
00000210: 826d 96be 12d5 99ba 98c8 76be a50a c03d
00000220: 9b47 46be a75a 3f3c 2cac c8bd bd6d 94bd
00000230: 71a6 823e 0a05 5a3e 1b47 c8bd 4d63 98be
00000240: a304 f33d 0b8c 033b 6ef3 33bd fe9b 973d
00000250: 6921 1a3d b56e aabd f80d b83d b0a8 02be
00000260: f008 5bbd 6630 c7bd d9df 1bbe 2901 57be
00000270: 62e0 5d3e 09c6 dcbe 39d7 93bc ef54 1abd
00000280: d0b6 753d 45e9 2cbe 5af2 043e d94a 773e
00000290: cab3 333e 3fbe f9bb c681 893d 4938 f8bc
000002a0: 02b4 2dbe c531 0bbe 2276 19be 323e da3d
000002b0: cc77 153d 5fe3 963d 0fb8 053d a5e5 8cbe
000002c0: f65e 6dbe 577a 86be ddc6 d03b accd 58be
000002d0: fef7 e63d 71fa 293e 0250 90bd cced ffbb
000002e0: bfff a9bd c5ce 983e af36 123e 1f67 013e
000002f0: 7a33 9d3e f728 ff3d 6aa2 ac3d dc64 b3bd
00000300: 0ee3 053e d725 9cbd a76d f4bd 149d ad3d
00000310: 94de 2abe 90ab 96bd ee33 3dbe fb45 983d
00000320: 0de9 cfbe e292 76bd 150a ad3d c9f3 273d
00000330: db6a 85be dd72 16be a2be 40bd a86d 46be
00000340: 486f 803d 477f 593e 9b00 263d eaa5 f3bd
00000350: 0558 a6bd ffc1 26be 9920 263e 5b09 80be
00000360: 5a8e f7bd ed24 843e 6118 1fbe 3529 9bbd
00000370: 055a 7cbe a074 c53d edfb 863d fb1e f93d
00000380: cf30 a0be 55c7 3abd 3ede ff3d 46bf 8ebe
00000390: 758c 70bd 34bb b5bc 66d2 153e c061 08be
000003a0: a5c0 a9bd 9ecf 9dbe 62dc 41bd 876b f4bd
000003b0: cafa 7a3b 0214 1d3d 02ab a5bd 1df8 5e3e
000003c0: 07dd 173e 526e d0bd c13c 22be 5007 663e
000003d0: 552c d03d 838b 44be f580 32bd 8ed1 a6bc
000003e0: a14e c6bd cade 55be 1bd9 4dbd a8d1 22be
000003f0: 9ccf e4bc 1cd9 1bbe 137d 6a3c 8f3b b8bd
-0.02128434 -0.05567485 0.029319698 -0.02530671 -0.11008857 0.013571164 0.053709976 -0.09472658
-0.045245264 -0.123592645 0.17057331 -0.21678714 0.011468495 -0.038535513 -0.25947827 -0.1830542
-0.17543174 -0.20298229 0.31635898 0.11683226 0.11717831 -0.17426321 0.06771451 0.14856845
-0.010413937 -0.27035788 0.08934622 -0.19870114 -0.096021675 -0.18257092 0.3687322 -0.0809691
-0.07290444 0.1373077 -0.30249447 -0.26859146 0.094201446 -0.1291979 -0.014180339 0.038397662
0.054139424 -0.10208081 0.06690131 -0.19872935 -0.1574063 -0.16918142 0.098646715 -0.039432235
0.057586115 -0.13215587 0.028539987 0.065335035 0.12701042 0.16091736 -0.15472163 -0.17335156
0.1086522 -0.008408517 0.05570331 0.03515854 0.027417433 -0.15457736 -0.04466517 -0.11883055
-0.027889041 -0.05697604 -0.20342833 -0.26899016 -0.16723444 -0.35878614 -0.2618313 -0.22097202
0.39286166 0.041614525 -0.26031485 -0.08993606 -0.011424791 -0.115453325 0.11343801 -0.006126353
0.20967096 -0.34053332 0.09705586 -0.12711367 0.2560273 -0.11074332 0.024610551 0.28654784
0.16609104 -0.18323809 -0.16515721 -0.0815099 0.0047849366 0.05183258 -0.29661202 -0.10959447
-0.25520068 -0.2648702 -0.36372495 -0.18310086 0.04837807 -0.02548773 -0.03461296 -0.18956675
-0.0842767 -0.3367095 -0.19893463 0.022445785 0.5967937 -0.051471043 0.018166315 0.15755881
-0.22569518 -0.42575443 -0.12529545 0.2547042 -0.26759133 -0.09223113 0.057753433 -0.17180339
-0.046208788 -0.0039592274 -0.33340678 -0.31472948 -0.12739801 0.14925395 0.01702652 -0.27225217
0.1492216 -0.09525671 -0.29893324 -0.40988004 -0.29380423 -0.0011736474 -0.24099958 0.0937703
-0.19363253 0.011679328 -0.09798464 -0.072474934 0.2551761 0.21290985 -0.09779187 -0.2976326
0.11866119 0.0020072486 -0.043933325 0.074028 0.03762952 -0.08321897 0.08987039 -0.12759662
-0.05347532 -0.09726028 -0.1522211 -0.20996536 0.21667627 -0.4311984 -0.018046962 -0.037678655
0.059988797 -0.1688586 0.12983075 0.24149646 0.17549053 -0.007621556 0.067142054 -0.030300276
-0.16963199 -0.13593204 -0.1498647 0.10656394 0.0364912 0.07367586 0.032646235 -0.27518955
-0.23180756 -0.26265213 0.0063713626 -0.21172208 0.112777695 0.16599442 -0.0704651 -0.00781033
-0.08300733 0.29845253 0.14278673 0.12636994 0.30703336 0.12458985 0.084294155 -0.08759472
0.13074896 -0.07624405 -0.11934977 0.08477226 -0.1668647 -0.07356942 -0.18476841 0.07435223
-0.4060749 -0.060198672 0.084491886 0.041003976 -0.26058087 -0.14692254 -0.0470568 -0.19377768
0.06271225 0.21239959 0.04052792 -0.1189688 -0.08122257 -0.16284941 0.16223373 -0.25007138
-0.12087698 0.25809422 -0.15536644 -0.07576219 -0.24643715 0.09641385 0.0659102 0.12164112
-0.31287238 -0.045600254 0.12493561 -0.27880305 -0.0587277 -0.022183992 0.14631042 -0.13318539
-0.08288697 -0.30822462 -0.047329314 -0.11934572 0.0038296455 0.03834916 -0.08089258 0.21774335
0.14830409 -0.10177292 -0.15843488 0.22463727 0.10164706 -0.19193844 -0.043580014 -0.020363595
-0.09682966 -0.20885769 -0.050255876 -0.1590029 -0.027931027 -0.1521954 0.014312047 -0.08995735

conv2.bias f4 [64]
00000000: 4493 34bd 17a3 06bf 7469 24be 7eb7 a1bd
00000010: 2274 97be afeb 7ebe 1cf7 12bf 38e9 9c3e
00000020: dab6 be3e 7a0c fdbe 87ce abbd 9448 1fbe
00000030: 0d8c a7be ab75 80be 0388 00be f2c9 40be
00000040: 49d3 39be a2d6 1bbe 9b2d 40bf 4425 b0be
00000050: bb11 c93b b709 eabe dc31 adbe 45af 7ebe
00000060: ee33 58be b76c 71be d671 2abe e699 03be
00000070: 8762 13be 0522 0ebe a5eb 27be f9e8 19bf
00000080: 708b 58be 1f4c 0ebe 54a1 0fbf a676 8dbe
00000090: b724 c3be b94a 47bf deab 58be ac42 32bf
000000a0: 8f64 64be 05e9 52be fe46 e8be cc90 b8be
000000b0: 7974 f9be 271b 46be e97f 7e3d 9431 b6be
000000c0: 9177 91be 348e 15be a2e5 64be c220 05bf
000000d0: 372b e8be 6720 9abe 690b cdbe 289c 58be
000000e0: 7ca2 d6be 8856 f0be 3e7f 34be 9f0d d8bd
000000f0: 3548 2dbe cafc 46be 561a c2be 88fe 3dbe
-0.044085756 -0.52592605 -0.16055852 -0.078963265 -0.2958079 -0.24894594 -0.5740831 0.30646682
0.3724888 -0.4942358 -0.08389001 -0.1555503 -0.32724038 -0.25089774 -0.12551884 -0.18827036
-0.18147005 -0.15218595 -0.7506959 -0.3440343 0.006136147 -0.45710537 -0.33827102 -0.24871548
-0.2111356 -0.23576628 -0.16644987 -0.12851676 -0.14393054 -0.13880165 -0.16398485 -0.60121113
-0.21146941 -0.13896225 -0.5610554 -0.27629584 -0.3811395 -0.7784839 -0.21159312 -0.69632983
-0.22303985 -0.20596702 -0.45366663 -0.3604797 -0.48721674 -0.19346295 0.062133703 -0.355847
-0.28411534 -0.14605027 -0.22353223 -0.5200311 -0.4534547 -0.30102846 -0.40047768 -0.21153319
-0.4192084 -0.46941018 -0.17626664 -0.10549473 -0.16922076 -0.19432369 -0.37910718 -0.18554127

conv3.weight f4 [128, 64, 3, 3]
00000000: 3179 06bc 7524 923d d4fb 00be 789b 29be
00000010: 2877 6d3c 8d7b cabd b3d8 c33b bcb8 5ebd
00000020: 473f 113b e18f 103d 71c1 1cbe 0254 1bbd
00000030: d3b3 92bd 00b9 59be 8580 733e 2a2e 0fbe
00000040: 9b5f 28be dcd1 093b 47cc d33d 9127 723d
00000050: 191c dcbd 327c 933d ec3e 0c3e e4b9 2d3e
00000060: e748 e1bd d9b8 f93d 1642 603d a2f5 0d3e
00000070: 051b c63e 8934 08bd cc88 08be defc eabd
00000080: b63c dcbd c914 cc3d b9c3 1b3e 0434 07bd
00000090: ce70 473e 053d 5dbe f038 67be 1fef a63d
000000a0: cb27 3dbe e6bd ee3c 20c1 0b3e 8d7e 1d3e
000000b0: e2c4 913d 3506 12be 01ea 893d 6eed b2bd
000000c0: 6d29 ea3d e691 cbba 75f5 ebbb e6ef 433d
000000d0: 9fdd ba3e e3d7 cc3d 5890 153d 4cc0 b53c
000000e0: a388 9abe 53b2 153e e3d1 92bd f242 793c
000000f0: 844a 06be 544a 933e 7d1f f53c b817 5abe
00000100: d056 5d3e 459d 4c3d e0a7 c03d 9a0f fabd
00000110: 961a 6fbd 4522 0c3d ce6e 95bd 9681 d13b
00000120: 4124 1a3e 0520 04bf a0b5 23bd 647c 163d
00000130: 268c f9bd 0039 4ebd 6739 953c b6f5 03bf
00000140: e741 61bd 4cc7 523c 806a 5ebe 072f 943e
00000150: c33b b4be fc28 0c3d 5341 e63d ccbc 24be
00000160: 44bc 6bbd 4acb 923e 2a24 503d eabd 6e3d
00000170: 7521 43be a5e9 30bc 21cb 2abd bb51 a5bc
00000180: b7d6 6a3d 2c5b 543e fbf2 c8bd aa40 69bb
00000190: 4b42 f53d f868 3b3c abfe 7f3d 6bca a0bd
000001a0: c26b ca3c c736 64be f148 d6bd b7a4 973e
000001b0: c4de ce3d 14f6 b83c 3ebf 6b3e 08ae 54be
000001c0: a01f d7bd aebe 153d 0004 653d 3f90 c23d
000001d0: b6d6 ce3e e506 f93b 3f50 fa3d e8d0 983d
000001e0: f140 94be 9fa0 f33d e48a f23e 232d ea3d
000001f0: 43d3 be3e 50a8 323d 8147 fdbd 79cd 53bd
00000200: 9bf2 473e b3ec 7fbe 7848 723b a897 c23e
00000210: 1fde b53e b315 8dbd c7cc 62bd 2aa6 29bc
00000220: 092f 9dbc 13c1 663e 2b13 28be 1456 f63d
00000230: 1c21 aebe 88d2 c8be 0556 e53b 7bb7 d0bb
00000240: 0121 663e ff2c f4bc 3a42 173e 052a ccbc
00000250: 396c 0fbe c469 a83e 0fc9 9d3d 199f 25be
00000260: a837 80be 1643 edbd e00e 353b 6030 abbd
00000270: 1f90 38be 77ef 79be c453 f6bc 9ca2 c03d
00000280: 6959 463d 74a4 5cbb cab3 36be 5603 5dbe
00000290: be4d 0b3e a5cb 41be 2c42 7fbe 3194 bc3d
000002a0: 0906 5f3d 9993 ce3d 9406 9a3c c30e 143b
000002b0: 30ae b13e 0aec 1fbe b495 0ebe 7d10 48bc
000002c0: ab9d 8e3e 5747 ab3d 7267 953e ba27 c5bd
000002d0: 94ff 283e 8ab2 37be 0052 e5ba 012c 523e
000002e0: 2c0b 823e 2260 483e de21 b43d 0c0e 583e
000002f0: 10d4 16bc ce84 a43e f199 18bd d65c 333e
00000300: 9b0e b03d 593c b8bd 7750 32be ccb5 9c3e
00000310: 964d ffbc 3431 15be 41a2 29be 9cbc 53bc
00000320: 7bf0 6a3e 47be 16be 16b2 f4bd 520e 5e3e
00000330: 1033 05bd 56bd 43be 3dcd ce3d be10 043e
00000340: 8bb8 39be 50da b93d 6ca0 a7bd 265c 403e
00000350: 9914 5f3e b34a 3b3e e4fa 9e3d c003 233e
00000360: f45c b2bc 32ee 6b3d 30aa 8e3d 5cce 23be
00000370: 0c46 06be 436f 1c3e 3b10 06bd f4a4 b2be
00000380: 496e b4ba e0b4 11bb 8785 bfbc 8d75 c3bd
00000390: 897e 693e 9ea8 ad3e 1cb3 3cbe c332 81bd
000003a0: 82d7 913c 0ba7 c13b 517f 89bd 3f18 8d3d
000003b0: de49 aebe 4ee5 d53e f935 d23c c5a7 a3be
000003c0: 69b8 d23e 069a 393e 2f20 873e 624c 2d3d
000003d0: a301 bb3d 4daa a43e 1ea6 533e 9428 c0bd
000003e0: c0e5 4ebe c59d 82bd 2480 713c ff10 b13e
000003f0: 222b 08be 5741 debd 4ae2 1bbe 177e 90bb
-0.008207605 0.0713586 -0.12596065 -0.16563213 0.014493741 -0.09886847 0.0059767603 -0.054375395
0.002216296 0.035293464 -0.15308167 -0.037921913 -0.07163205 -0.21261978 0.23779495 -0.13982454
-0.1644272 0.0021029627 0.10341697 0.059119765 -0.10747547 0.07201423 0.13695878 0.16965443
-0.11000233 0.1219346 0.054750524 0.13863233 0.3869249 -0.033253226 -0.13333434 -0.11474012
-0.10753767 0.09964902 0.15211381 -0.03300859 0.19476625 -0.21605308 -0.22580314 0.081510775
-0.18472211 0.029143285 0.1364789 0.15380307 0.071176305 -0.1426018 0.06734086 -0.08736692
0.114336826 -0.0015531152 -0.0072008916 0.047836207 0.36497208 0.100021146 0.03651461 0.02218642
-0.3018237 0.14618807 -0.07168939 0.015213715 -0.13114363 0.28767645 0.029922241 -0.2129811
0.21615148 0.04995467 0.094070196 -0.12210007 -0.058374964 0.03421237 -0.07296525 0.0063936217
0.15052892 -0.5161136 -0.039968133 0.036739722 -0.12184934 -0.05034733 0.018215848 -0.515468
-0.05499449 0.012864899 -0.21720314 0.2894213 -0.35201845 0.034218773 0.11242928 -0.16087645
-0.05755259 0.28670722 0.05081574 0.058286585 -0.19055732 -0.010797893 -0.041697625 -0.020180574
0.057333674 0.20737904 -0.0981197 -0.0035591521 0.11975535 0.011438601 0.06249873 -0.07851108
0.024709586 -0.22286521 -0.10463131 0.29617855 0.10101083 0.022578277 0.23022172 -0.20769513
-0.10504079 0.0365588 0.055912018 0.09500169 0.40398186 0.007599699 0.12222337 0.07461721
-0.28955796 0.118958704 0.4737159 0.114343904 0.37270555 0.043617547 -0.12367154 -0.051709626
0.1952614 -0.24992637 0.0036969464 0.3800633 0.35521027 -0.068889044 -0.055371072 -0.010354558
-0.019187467 0.2253459 -0.16413562 0.12028137 -0.34009635 -0.39223123 0.0069987797 -0.006369529
0.22473527 -0.029806612 0.14771357 -0.02492238 -0.14006127 0.32893193 0.077043645 -0.16173972
-0.25042462 -0.11585061 0.0027627274 -0.08358836 -0.18023728 -0.24407755 -0.03006924 0.09406015
0.048425112 -0.0033667358 -0.17842022 -0.21583304 0.13603875 -0.1892534 -0.24927586 0.09207953
0.054449115 0.10086746 0.018801965 0.0022591806 0.34703207 -0.15617386 -0.13924295 -0.012210962
0.27854666 0.08363216 0.29180485 -0.09626718 0.16503745 -0.17939201 -0.0017495751 0.20524599
0.25399148 0.19567922 0.08795522 0.21099108 -0.009205833 0.32132572 -0.037256185 0.17515883
0.08596536 -0.089958854 -0.17413507 0.3060745 -0.031164926 -0.14569551 -0.16565801 -0.012923386
0.22943299 -0.14721023 -0.1194803 0.2168515 -0.0325194 -0.19115195 0.1009774 0.12897012
-0.18136804 0.09074843 -0.08184895 0.18785152 0.21785201 0.18290214 0.07762697 0.159194
-0.02177284 0.057600208 0.069660544 -0.15996689 -0.13112658 0.15276818 -0.032730322 -0.34891474
-0.0013765778 -0.0022233054 -0.0233791 -0.095439054 0.22802176 0.33917707 -0.184277 -0.0630851
0.017802957 0.0059098057 -0.06713737 0.0688939 -0.3404073 0.41776508 0.025660502 -0.31963935
0.4115632 0.18125162 0.26391742 0.042309172 0.091311716 0.3216118 0.20668837 -0.0938274
-0.2020483 -0.063777484 0.014740024 0.3458328 -0.13297704 -0.10852306 -0.15223041 -0.0044095623

conv3.bias f4 [128]
00000000: 7eb3 acbe b0b1 1fbe eab5 0cbe 4936 82be
00000010: a62b 84be 3b53 83be 3783 6dbe 512a 0bbf
00000020: 5ad1 fd3c 2955 39be e976 9fbe 6a11 aebe
00000030: 11ea 16be d4c3 8c3e 4b14 83be 5374 74be
00000040: d720 6ebe cdbe e2be f768 a8be c016 9f3c
00000050: 72e2 02be f307 96be bd4e 8dbe cd78 183d
00000060: e619 7bbe 4c12 abbe 14d9 c3be 44c0 adbe
00000070: e923 14bd 7269 5dbe 8dbe b0be a3dd 70be
00000080: 0632 18be f1a8 7abe e396 90be ad41 cbbe
00000090: 2894 bdbe 39b2 4fbe a02f 9fbe a938 d1be
000000a0: fb2f 4dbe 9c77 b9be cc78 b13c 9d2a aabe
000000b0: c2da 8bbe fce3 3dbe 64f2 6abe 819f a8be
000000c0: d82e c93c 5cf0 d7be fd0f b1be e72f b4be
000000d0: 98b1 a6be c887 1bbe 2424 69be 021a 86be
000000e0: ac43 5abe 4201 93be 6ace 8fbe 4602 96be
000000f0: 94f5 c8be 8284 f83c 6650 d8be 738a 7dbe
00000100: bb9d 6ebe 2410 433c 379c 99be ee1f b9be
00000110: b70f 77be 1954 a2be 492f aebb 7dde 52be
00000120: abe4 7ebe d4ae eabd bcb7 b6be 5300 a6be
00000130: 6cc6 75be 75cf cfbe 0e91 c6bd a4fe 69be
00000140: b0eb 26ba a582 91be 445c abbe ecec 6dbe
00000150: 1acd f7bd 4ed4 80be 8217 7ebe 40eb e0bd
00000160: 9258 6fbe 4881 43be 00bf a0be 016a 77be
00000170: ac44 91be 2bf2 e3be f027 4ebe ec47 e9be
00000180: cf03 91be 6b11 31be 5b1e bcbe 19c5 7fbe
00000190: bd6c b9be d4cf a5be 2b99 abbe c301 60be
000001a0: 394f fcbe bbe5 ccbe 6de9 c4be 402f 8bbe
000001b0: ae80 8abe 58e9 a0be 2792 83be 4f40 b3bd
000001c0: 460b 22bf f539 303e e183 93be 6d1d e4be
000001d0: e2c2 fdbe 814a 70be 51b7 8fbe e1cc 0fbe
000001e0: 6c1a 81be 6d9b cabe 6771 d1bc 4f9d 63be
000001f0: 3f87 d0bd 53f8 c2be edf3 b8be d29e 54be
-0.33730692 -0.15595126 -0.1374127 -0.2543204 -0.2581455 -0.25649437 -0.23194586 -0.54361445
0.030983616 -0.18098892 -0.3114541 -0.3399766 -0.14737727 0.27493155 -0.2560142 -0.23872499
-0.23254715 -0.44286194 -0.32892582 0.019420028 -0.12781695 -0.2930294 -0.27599135 0.03722458
-0.24521598 -0.33412397 -0.38251555 -0.3393575 -0.03616706 -0.21622255 -0.3452038 -0.23522048
-0.14862832 -0.24478509 -0.28240117 -0.39698544 -0.37027097 -0.2028283 -0.31091022 -0.4086354
-0.20037834 -0.36224067 0.021664046 -0.33235636 -0.27315336 -0.18544 -0.22944027 -0.32934192
0.02455847 -0.42175567 -0.3458251 -0.35192797 -0.32557368 -0.15188515 -0.22767693 -0.26191717
-0.21314877 -0.28711897 -0.2808717 -0.2929861 -0.3924986 0.030336622 -0.4224884 -0.24759845
-0.23302357 0.011905704 -0.30001995 -0.36157173 -0.24127088 -0.31704786 -0.0053156954 -0.20592685
-0.24891917 -0.11459127 -0.35687053 -0.32422122 -0.24001473 -0.40587965 -0.09695636 -0.22851044
-0.00063675176 -0.28419986 -0.3346883 -0.2323491 -0.12099667 -0.25161976 -0.24813655 -0.109823704
-0.2337363 -0.19092286 -0.3139572 -0.24161531 -0.28372705 -0.44520697 -0.20132422 -0.45562685
-0.28323218 -0.172918 -0.3674191 -0.2497753 -0.36215773 -0.32385123 -0.33515295 -0.21875672
-0.49279192 -0.4001902 -0.3845934 -0.27184486 -0.270513 -0.31428027 -0.25697443 -0.087525
-0.6329845 0.17209609 -0.28811553 -0.445537 -0.49562746 -0.23465921 -0.28069547 -0.14042999
-0.2521547 -0.39571705 -0.02556677 -0.22227977 -0.10182046 -0.3808008 -0.361236 -0.2076371

p_conv1.weight f4 [4, 128, 1, 1]
00000000: 5399 08bd cfe6 9b3b 9211 c03c e7d2 893c
00000010: d181 87bd 1ba4 07bc a291 d6ba de2b c2bd
00000020: abaa a4bc fed9 e83e 7b18 15bd 2426 b0bd
00000030: 6b6f d9bb a737 26bc b262 753d 4702 1e3d
00000040: 3907 283b 8c07 933d 485d 0fbd 7351 30bd
00000050: ed7a 61bc 6edc 1dbd 70eb 64b9 a52e 3b3d
00000060: 53d1 2ebc c0be c3bd 53ea df3c cb19 943b
00000070: 9654 0ebc 03ab 083d 458b bdbc 44bb 49bd
00000080: afec 3ebc f3d4 4bbd eacd 233d a516 9cbd
00000090: ac8a 15bc 1bbf 9fbb 48c8 babc b6b2 db3c
000000a0: 51bc 0e3b f3ec debd 4ecc e0bc e4ef adbc
000000b0: 11a5 93bc 84b9 f43a 4a72 973c 4916 d93c
000000c0: cd92 803d 230b 12bd d076 11bd 8564 4abc
000000d0: b014 5bbd 17af 88bc fb88 8bbb d22e f23a
000000e0: 8b1f 6f3d d816 f83a b7a0 e23c 133c 633b
000000f0: 3c7b 55bd eff1 9abd c40d 093d 049f beb7
00000100: 3624 acbd 82e0 57bc 5a6e 9c3c acc7 acbc
00000110: 9389 d03e 7e5c 2d3e 5b49 573d 8f13 43bd
00000120: c522 d93c 4552 99bd 994d b33e 2d26 aa3c
00000130: 4808 89bc 8307 483e e66e ca3c ab9d 71bd
00000140: df1e 4abb a43c 803d 606b 35bd 5a00 a8bc
00000150: 6138 e5bc 4c75 e1bc 8a6b a23c 9470 983e
00000160: 20a1 08bd 14a3 93bc 2601 af3c 2739 babc
00000170: b087 dbbb cd86 fd3c d302 d93d 0654 cd3c
00000180: 584b 12bd f9a4 2e3d 9051 a53d 7246 33bd
00000190: e20d ad3c 8cdf ecbc 24db 013c a4f3 3d3c
000001a0: 55b3 b6bc af2c 293c 25da 46bd 58e4 c5bc
000001b0: 5e8c 133e b72d f13c b6d8 0c3d 54ee d0bc
000001c0: 7acc d03e 896b 2f3d 4698 84bd e8df d3bc
000001d0: 6849 eb3b f5be 693c 6d9e 47bd fda9 acbd
000001e0: ea63 2bbd 9bf7 12bd a433 393c 4122 fcbb
000001f0: 2a57 ce3a 8c0e ff3c 4827 2a3d 62ed 223a
00000200: 2a0c 973c d306 373d 6a68 a8bc c301 4fbd
00000210: 560b 673c c80c 76bc 150c abbc 2e2f d73d
00000220: 89a0 e0bc d679 1fbd ae04 153d 7032 12bb
00000230: 0963 1b3d 211a 8d3e 3c16 80bd 715b 76bb
00000240: a45e b33d 4a4b 293d ec01 373d d8a0 493d
00000250: a4ba 39bd 0d39 26bd eed1 86bd 0100 a9bd
00000260: c16e d93b 4af8 323c 01be a5bc f40e 32bc
00000270: 5afe 843c 96d3 26bd e6de ccbc 11f8 6ebd
00000280: 98bf 9e3d a664 91be a34a 6cbd c04e 8b3c
00000290: 2278 a13d f3fb 3a3c 31d7 15bd 894b 833d
000002a0: d7ec 5b3d 9832 22be 93f0 233d e426 923c
000002b0: 6dee 11be 32a9 6ebc 0bfa 1c3d 1f2d 29bd
000002c0: 1459 bf3d 4f8d 0fbd 4ffb 0f3d 9387 2a3c
000002d0: 1080 d0bb 4b99 30bd 208c 1c3d a9f4 673d
000002e0: 1f93 03bd e545 93bd b176 6b3b 067c ebbc
000002f0: 17d9 d5bb f90c 043e ca0f a53d c189 b1bc
00000300: 66de 4a3b 3f91 d7bd f9ff 7cbb b5d4 bb3b
00000310: da04 42bd b1e6 f33d 21ed 3ebd 5481 c83d
00000320: 5831 0bbd 5bdb 5dbd 2320 e1bd 34d1 56bd
00000330: a5de 84bd 06b8 eb3d 44ca 69bd d71c 63bd
00000340: 0b29 08bd 42f2 3abd 525c 09be 99cb a7bb
00000350: bf2a a6bd b872 86bd 72fa 303c 0d9a 4c3f
00000360: aa21 81bc 4084 90bc 7b71 443c ba3c 1cbd
00000370: db9c 01bd f17e dbbc 86d7 8b3d 2948 ba3d
00000380: fb4c c4bc 1ece ec3c 3364 8bbc 8fd5 bcbb
00000390: b6d3 adbb 1b97 acbb 42f2 2dbc 70c2 abbc
000003a0: 2d82 af3c c7f1 83bc d227 233d 706e f4bc
000003b0: e254 233d 464c 99bc a56b 223d ee4c a8bb
000003c0: 180e 37be 1e6d 533f 8e7e 9abc d26b 533a
000003d0: 717d 5ebd 1046 1cbd a636 cf3c 56ec ae3c
000003e0: d230 abbb d029 2bbc 07b0 343c e430 53bd
000003f0: 7ff2 05bd 4883 03bd 934d 8f3c 59fb d9bb
-0.033349346 0.004757739 0.023445878 0.016824199 -0.066165574 -0.008278872 -0.0016370306 -0.09481023
-0.020100912 0.45478815 -0.0364003 -0.08601025 -0.0066355965 -0.0101451045 0.059908576 0.03857639
0.002563907 0.07179174 -0.03500107 -0.043046426 -0.013762218 -0.038540296 -0.00021831482 0.04569878
-0.010670024 -0.09557867 0.027333414 0.0045196763 -0.008687159 0.033366214 -0.023137698 -0.049250856
-0.011653109 -0.04976363 0.039991297 -0.076215066 -0.0091273 -0.0048750765 -0.02280058 0.026818614
0.0021779726 -0.10885038 -0.02744117 -0.021232553 -0.018023046 0.0018671011 0.018487114 0.026499884
0.06278 -0.035655152 -0.0355137 -0.012353067 -0.053486526 -0.016685052 -0.0042582727 0.0018477088
0.05837969 0.0018927706 0.027664525 0.0034673258 -0.05211948 -0.075656764 0.033460394 -2.2723812e-05
-0.08405344 -0.013176085 0.019095588 -0.021091305 0.4072996 0.16929814 0.05256019 -0.047626074
0.026505837 -0.07486395 0.3502014 0.020770157 -0.016727582 0.19534115 0.024711084 -0.058988255
-0.0030841155 0.06261566 -0.044291854 -0.02050798 -0.027980985 -0.027521752 0.01982667 0.2977339
-0.033356786 -0.018022098 0.021362852 -0.02273233 -0.006699525 0.030948067 0.10596242 0.02506448
-0.035716385 0.0426378 0.080721974 -0.043768354 0.021124784 -0.02891519 0.007925782 0.011593733
-0.022302309 0.010325595 -0.048547883 -0.024156734 0.14409015 0.029440744 0.03438636 -0.025504269
0.40781003 0.042827163 -0.06474356 -0.025863603 0.0071803816 0.014266719 -0.04873507 -0.0843086
-0.041843332 -0.035880666 0.011303816 -0.007694513 0.001574253 0.031134866 0.041541368 0.00062151824
0.018438417 0.044684242 -0.020557601 -0.05053879 0.014101824 -0.015017696 -0.020879785 0.10507046
-0.0274203 -0.03893455 0.036381416 -0.0022307895 0.037936244 0.27558997 -0.06254241 -0.0037591124
0.08758286 0.041331567 0.044679567 0.04922566 -0.04534401 -0.04058175 -0.0658301 -0.08251954
0.0066355173 0.010923455 -0.020232202 -0.010867823 0.016234566 -0.040729128 -0.02500863 -0.058342043
0.07751387 -0.283971 -0.057688367 0.017005324 0.07884242 0.011412608 -0.036582176 0.064108916
0.053692665 -0.15839612 0.04002435 0.01784081 -0.14251108 -0.0145667065 0.038324397 -0.041302796
0.09343162 -0.03504687 0.035151776 0.0104083 -0.0063629225 -0.04311494 0.03821957 0.05662981
-0.032122727 -0.07191066 0.00359289 -0.028745662 -0.0065261233 0.12895574 0.08059652 -0.021672131
0.0030955314 -0.1052575 -0.003860472 0.0057321438 -0.047367908 0.11909235 -0.046612862 0.097902924
-0.033982605 -0.05416427 -0.10992458 -0.052445605 -0.064877786 0.11509709 -0.05707766 -0.055447426
-0.033242267 -0.04564119 -0.13414124 -0.0051207063 -0.08113622 -0.065648496 0.010801898 0.7992256
-0.015763123 -0.017641187 0.0119899465 -0.03814385 -0.03164373 -0.026793929 0.06828217 0.09095795
-0.023962488 0.028906878 -0.017015552 -0.005762763 -0.005304779 -0.0052670366 -0.010616841 -0.020966738
0.021424377 -0.0161065 0.039832897 -0.029837817 0.039875872 -0.018713128 0.03965344 -0.005136124
-0.1787647 0.82588375 -0.018859174 0.0008065078 -0.05431885 -0.038152754 0.025294613 0.021352928
-0.0052243257 -0.010446981 0.011028296 -0.051560298 -0.032701965 -0.03210762 0.017493045 -0.0066522774

p_conv1.bias f4 [4]
00000000: 6471 babe db95 833d 6269 4cbe 92e0 e1bd
-0.36414635 0.06425067 -0.19962075 -0.110291615

p_fc1.weight f4 [81, 324]
00000000: 247c bcbc 0d1f 943c 0ce3 da3c 2261 b03d
00000010: a31a eb3c 45f0 733b 5fe1 303d 3014 843c
00000020: 0d83 a6bc 6374 bebc 9459 37ba 458b a23d
00000030: b1b2 093d 2d09 0a3d fb02 d93b 102d a1bd
00000040: 7db0 c3bc 52e0 9a3c d724 cabc 16f5 7f3c
00000050: 74f0 493d 8a0e 1d3d 11dd 963d 0087 f23d
00000060: e506 aa3d c060 213d a711 1c3d 0750 b93c
00000070: 8ea1 183d b2d6 c33c 77be ac3d 2dc2 9c3d
00000080: 9f15 ad3d cc64 863d 50ba a43d a2ff 2fbd
00000090: de83 e73d 5cd2 673d b70f 833d 81b0 953d
000000a0: 46aa c73d 9b3b 49bd 2b4c f23d ee8e 663d
000000b0: 806b 3b3d 877f e2bc b028 d83c 2d4f 823b
000000c0: e231 9d3c e6f2 c4bd ddac 023e 7c21 0d3d
000000d0: d009 48bd d52e 033d 61d6 91bd 8b68 39be
000000e0: 6f23 233d c6a4 3c3e 25a3 d83d fb84 ec3d
000000f0: cbca 783d ac9b 6f3d 79ec 553c 6030 9bbb
00000100: c0de ad3c a693 9a3e 7cb4 d8bc 80d2 90bb
00000110: 36e4 09bd cff1 45bc 2f88 a13c a268 cb3b
00000120: 78d7 103d 6058 483e 59bd 95bd a778 d53b
00000130: 286a bc3d 6fbf 8fbc d1e0 bf3d 6703 a83c
00000140: ee62 693c dd4a 96ba b2d3 ef3c 2e66 993d
00000150: 7cf3 d6bc accb 233c b8cd 09bd e62e 9e3c
00000160: 2551 803d 5878 8d3b 8117 0b3d 417a 033d
00000170: 7806 62bd 7179 f3bc 2948 aabc 2c09 f33b
00000180: bd70 08be 4aae febc 7a8c b53c cc6b 763d
00000190: 853b b1bc 5f22 55bd 33ca ffbc 7e3b 0dbd
000001a0: 784b 083e 7b6a 493c f80a e3bc 2a3f f73d
000001b0: 6488 2e3d b40d fa3a d4ef 74bd 8529 2ebd
000001c0: 94d6 16bd 7fbb b93c 0a26 98bc c261 42bc
000001d0: b348 f23a 8441 cfbc f43a 8ebc af5c f0bb
000001e0: 2240 a3bd 69fd 7abb 24c7 1fbd 29c8 12bc
000001f0: 20c8 e1bc 7368 793d 9484 013e 8203 63bd
00000200: 5356 903d d4ba a3bc 7dcb 4c3c 56b6 f2bc
00000210: 5e2d 61bd 1314 943d 843e b13c f254 003d
00000220: 05fa 5f3e d855 22bd d213 08bd d495 833c
00000230: a416 c1bc faec 4c3d 4561 04bd 495b 5f3d
00000240: 7ddf a0be 2aa6 963d 41f0 b53c c5fe 23bd
00000250: 5d10 c53d 1f0f d03d 07dc 26bd 2125 393d
00000260: 8e5b fcbc c7fe 433d 8369 1bbe f252 efbc
00000270: d3e0 98bd 1586 19bd c47a 89bc 68c4 30bc
00000280: 8efe 00bc 7fe3 e8bc adee 7ebd f760 1f3b
00000290: b414 5bbd 4ff8 2b39 643d b0ba a8dd b8bd
000002a0: cddc 3ebd 0e42 76bd a7ba 75bd eea8 b1bc
000002b0: 8e33 3abd 6b2b 2a3d 0e2b 543d f9b5 4b3c
000002c0: c379 8f3c 814c b4bb 07dc 08bd cd32 1abd
000002d0: b80c e4bd 0872 fd3c 0aca 3bbd 5bb0 bcba
000002e0: 7549 603d 5867 d3bb 9642 163d 17c8 ddbd
000002f0: bb99 2cbd bf86 adbd 263d 96bc 4a74 6f3d
00000300: fc6c 16bc 1e80 f3bd 6f72 7d3c 1b76 38bc
00000310: 727b 1dbc 3862 50bb 5d8d cdbd 964e 063d
00000320: c657 313d f087 46bd 5a25 3e3c 6768 58bd
00000330: 2268 503c 6476 15bd ba09 51bc a4ed 6bbd
00000340: e14d ffbd 6a8d a73e dbb9 793d 2af7 a23b
00000350: bfd0 54bc 22dc 683d 72b7 68bd 80fd 04bb
00000360: 5bd6 0bbe 6c55 033f 22aa c7bd 3f88 d7bc
00000370: 95a6 febc 9528 e2bc 208e 74bd 6a66 e73c
00000380: 26ec 30bc 4dbb adbc 40ed 82bd 7509 cfbd
00000390: 4d06 a4bd 9a67 863d 7bb4 26bd 30a8 12bc
000003a0: 75c8 c5bd 654b 05bd 1a71 a1bc e72a e03a
000003b0: 5217 373d c6f1 bd3c 9e31 e73c 191a 363d
000003c0: 128f cb3c fe81 3c3d 8675 c03c e616 bb3c
000003d0: 5bba f13c 3491 d9bc 3a44 a7bc 8da9 08bd
000003e0: 5b3f 70bd aebc 943c 2892 51bd 5937 69bb
000003f0: 02c8 403c 2be5 163b 8a61 acbd ebd9 9bbd
-0.023008414 0.018081212 0.026719593 0.086122766 0.028699225 0.003722207 0.04318368 0.016122907
-0.020326162 -0.023248857 -0.0006994244 0.0793672 0.03361768 0.033700157 0.0066226698 -0.07869923
-0.023887867 0.018905792 -0.02467577 0.015622398 0.04930158 0.038343944 0.07366384 0.118421555
0.08302096 0.03939891 0.038102772 0.022621168 0.037263446 0.023906086 0.08434766 0.076542236
0.084513895 0.06562194 0.08043349 -0.0429684 0.113044485 0.0565971 0.06399482 0.07309056
0.09749274 -0.04912911 0.11830934 0.056288652 0.045756817 -0.0276487 0.026386589 0.0039767236
0.019188825 -0.09616642 0.12761255 0.03445576 -0.048837483 0.032027084 -0.07120968 -0.18106286
0.039828714 0.18422231 0.10577992 0.115488015 0.060740273 0.05849807 0.013056868 -0.0047359914
0.02122438 0.30190772 -0.02645325 -0.004419625 -0.033664905 -0.012081577 0.019718258 0.0062075416
0.035361737 0.19564962 -0.07311506 0.006514627 0.09199935 -0.017547337 0.09369052 0.020509435
0.014244778 -0.0011466403 0.029275749 0.07490192 -0.02623915 0.00999729 -0.033643454 0.019309472
0.06265477 0.0043173246 0.033957962 0.032099012 -0.05518195 -0.029720994 -0.020786362 0.007416865
-0.13324256 -0.031088967 0.022161711 0.060161397 -0.021634826 -0.052034732 -0.031224346 -0.034480564
0.13310039 0.012293453 -0.027715191 0.120725945 0.04261054 0.001907757 -0.05979903 -0.042520065
-0.03682573 0.022672413 -0.018572826 -0.011864128 0.0018484801 -0.025299795 -0.017362095 -0.0073352675
-0.07971217 -0.0038298017 -0.039008275 -0.008958855 -0.027561247 0.060890626 0.12648231 -0.055423267
0.07047715 -0.019986548 0.012499687 -0.02962796 -0.054974906 0.07230391 0.021636255 0.03133101
0.21872719 -0.03963265 -0.033222027 0.016062655 -0.023570366 0.050030686 -0.032319326 0.054530416
-0.31420508 0.07355912 0.022209289 -0.04003789 0.09622262 0.10159134 -0.04073718 0.045201425
-0.030805375 0.047850396 -0.15176968 -0.029214356 -0.07464757 -0.037481386 -0.016782172 -0.010789014
-0.007873191 -0.028428791 -0.062239338 0.002431927 -0.05348654 0.00016400333 -0.001344603 -0.090266526
-0.04659729 -0.06012159 -0.05999246 -0.021686997 -0.045459323 0.041545313 0.051798873 0.012433522
0.017514115 -0.005502284 -0.03341296 -0.037646104 -0.111352384 0.030938163 -0.045846976 -0.001439582
0.054757554 -0.0064515285 0.036684595 -0.1082918 -0.042138796 -0.084729664 -0.018339705 0.05846051
-0.009181257 -0.11889671 0.015469178 -0.011258627 -0.009611951 -0.0031796824 -0.100367285 0.03278979
0.043296598 -0.048469484 0.011605585 -0.05283394 0.01272014 -0.03648986 -0.012758667 -0.05759968
-0.12466026 0.32725078 0.06096826 0.004973312 -0.012989222 0.05685056 -0.056815572 -0.00202927
-0.13655989 0.5130222 -0.09749247 -0.026310084 -0.031085292 -0.027607242 -0.059705853 0.028247077
-0.01079849 -0.021207476 -0.06392908 -0.10109226 -0.08009014 0.06562729 -0.040699463 -0.008951232
-0.09657375 -0.032542605 -0.019707251 0.001710263 0.044699974 0.023186576 0.028221902 0.044458482
0.024848495 0.046022408 0.02349354 0.022838067 0.029507807 -0.026558496 -0.020418275 -0.03336482
-0.05865417 0.018156376 -0.051164776 -0.0035585968 0.011766436 0.0023024778 -0.084170416 -0.07609924

p_fc1.bias f4 [81]
00000000: c1a7 a8bd ea46 d9bd 7146 08be 9546 19be
00000010: 95f6 77be b870 37be fe48 ecbd 736a dbbd
00000020: cd78 79bd 5fc2 95bd 5457 10be fdc0 88bd
00000030: bfeb b6bd 0e82 583e 4643 4ebd a358 21bd
00000040: fcb7 0bbe cf9f 8bbd cd90 c2bd da52 bfbc
00000050: ac9e 80bc f939 323e 4a07 723e 59e4 4d3e
00000060: b91f 11bc 127a 5cbc bc69 dabc 0e97 ddbd
00000070: 3b08 473c 3e80 543e 81eb 563e 1afa 813e
00000080: 3219 4f3e 55ec 4c3e ae31 08bd 6c5a c5bd
00000090: 3d9f 17be 303d d23d 413d 003e 3c44 833e
000000a0: 37d0 b43e 5f4f 7c3e ef42 1a3e a5cf 1b3e
000000b0: a8a9 15be c6c2 82bd e5a7 f2bd 52d1 e43d
000000c0: cf5d c63d 3df1 803e c008 153e aa46 073e
000000d0: b2fa cdbd 1ebe 81bd 7d71 92bd 8b3d 1bbc
000000e0: efff 33bd 9819 2a3e ede4 ab3d 9635 593e
000000f0: 1096 1bbd 4804 693b 26d8 6abd 7903 8ebd
00000100: bc3a f7bd a05c c9bc 55bd f3bd 58a9 bb3d
00000110: 5dda d1bd 6538 813c 878f d6bd 391b ebbc
00000120: c374 adbd d834 cebd 2bf2 c7bd 3079 ebbd
00000130: 1612 30be 21ad 05be e604 b2bd 966e e6bd
00000140: 90c2 acbd
-0.082351215 -0.10609229 -0.13308121 -0.14968331 -0.24215157 -0.17914093 -0.1153736 -0.10713663
-0.06090622 -0.07312464 -0.14095813 -0.066774346 -0.08931684 0.21143362 -0.050357126 -0.03939117
-0.13644403 -0.068175904 -0.09500275 -0.023354936 -0.01570066 0.17404927 0.23635593 0.20106639
-0.008857661 -0.013456838 -0.026661746 -0.10819827 0.012147958 0.20752046 0.20988275 0.25386125
0.20224455 0.20012029 -0.033250503 -0.09636387 -0.14806838 0.10265577 0.12523367 0.25637996
0.35315105 0.24639653 0.15064596 0.15215929 -0.146155 -0.06384806 -0.118484296 0.11172737
0.09685861 0.2518405 0.14554119 0.1321055 -0.10057582 -0.0633509 -0.071505524 -0.009475122
-0.04394525 0.16611326 0.083932735 0.21211848 -0.037984908 0.003555553 -0.05733504 -0.06934256
-0.120717496 -0.0245803 -0.119013466 0.09163159 -0.102467276 0.015773961 -0.104765944 -0.028699504
-0.08469536 -0.10068673 -0.09762987 -0.11497724 -0.17194399 -0.13054325 -0.086923406 -0.11251561
-0.08435547

value_conv1.weight f4 [2, 128, 1, 1]
00000000: 84bf 033e 48ad 013f d196 c3bc d5b1 2fbf
00000010: b888 5a3e 6e4b 833e fd9e 34bf 8ed4 a53e
00000020: d6a4 79be bc98 11bd 539a 5cbf 4326 e13e
00000030: f5e1 c03e f501 5fbb cb16 543e 2692 a23d
00000040: e98a 893d def1 f9be 4ba6 843e d01a 1abf
00000050: 1edf 34bf 42b7 fcbe acc4 5d3e 09af 53bf
00000060: 90cc 883e 081f 01bf ba5f 953d 67cd 0ebf
00000070: 1d07 b5bd 4bdf 68bf fc9b e73e 740f ea3e
00000080: 4e2e 39bf fc5e 833d 61d0 bbbd 91f7 123e
00000090: ea10 1cbe b25b b33c 570d 2fbf 231b a43e
000000a0: 0953 a4bd 3ff2 e63e eaa5 46bf 23e1 0bbe
000000b0: 0e99 5cbf c7f8 68bf 661b 4fbe 2d0d 6f3e
000000c0: 3456 883c 4586 963e 4b9b 3a3e ee42 203d
000000d0: 6b02 f93e 870a 793e 9def 4abf 21f6 803e
000000e0: c173 22bf 2b5e da3b 8c51 073e 19ae e8be
000000f0: 3501 203d e033 a03d 76e5 bc3e 3e2b 97bd
00000100: 9f3f 713e 5e83 cb3b 6de5 97be 7019 d23d
00000110: 789e 44bd 50a4 803e 863a 4ebc e184 df3d
00000120: f2bf 39be 8ce8 473e da02 9bbe e329 28bf
00000130: 39f0 cbbc d092 e13e e812 69bf 9f8f 34bf
00000140: fa7e 28bf 2cea 3f3e e047 0c3f 85e8 de3e
00000150: fc3b 1fbf fdc3 8c3e 4743 01bf 9615 d83e
00000160: 9937 3b3e 0e21 1cbf 5ac2 433e 7943 8bbe
00000170: 473e 4f3e 70fa cc3d 8420 dabe 5404 663e
00000180: d90e 2dbf 59c0 81bf 1a78 01bf 6ba5 e1be
00000190: 89e9 44be 1ead 1dbf 4054 4b3e 73bf d4be
000001a0: c9b4 e73e aaaa 0cbe 6141 2ebf 8412 ad3e
000001b0: 640c a0bd 963b 423e b4d1 51bf 4729 d5bd
000001c0: c77e 143f feb2 96bd e22b b63e da03 c8be
000001d0: 1514 4e3e c5c0 1dbf 46c8 a43e 89ca f6bd
000001e0: 2350 f23d 1034 303e a92c 40bf 32ac 28bf
000001f0: 6f49 48bf 0e47 35bf 00cf 073e eeb4 33bf
00000200: 8016 c23e 3aa1 e23e fd6f 4abf 70ed 9bbd
00000210: 4dc8 24bf 7a60 8d3e 1b44 673e 41fa 833d
00000220: 6132 333e c7c1 143a 4e74 013d f7ec ac3c
00000230: a5e6 a9be db95 f33c 95b0 51bf d03c 1ebf
00000240: 0ea7 29bf 36c9 babc f477 2abf 9afe e0be
00000250: bde8 debe 540d bd3e 9d14 20bf 3758 133d
00000260: e4c4 853e 0ed5 ef3e f5d2 4fbf 340a 813e
00000270: d8da 51bf 41f7 483e c7bc 473e 72ba 353e
00000280: 6f99 aa3e dd51 253e fb52 e7be 56db d33e
00000290: de34 2abf b416 2abf 54df d43d d56f df3e
000002a0: 104f 31bf 508f 6e3e 94a4 0ebe 2c12 d9be
000002b0: 039d d4be 61a8 b2bc eea9 1fbf 8a14 2bbf
000002c0: 0b00 2bbb c40d 10bf 88b3 e03e 15c7 f43e
000002d0: 1b74 e0be 7ed0 51bf c30b ac3d f5eb d13e
000002e0: 0edb 3c3e e4bb 51bf 4d52 fdbe ccfe 0a3e
000002f0: 5b76 46bf 78d3 913e 5e1f b5be cb9a 57bf
00000300: 2f9b 46bf add1 adbc f54e cdbe 58db 52bf
00000310: e03e 67bd 9343 c13d b3cc 25bf 58d7 04bf
00000320: 9660 42bf bcf1 043e c22f bb3e 742d 293e
00000330: 64ef fcbe 1536 0a3f 4da1 2b3e 5bb3 0d3e
00000340: ede6 bebe 92dd 36bf e204 e23e 1f10 b3ba
00000350: 49db ca3e 8ef0 d23e 65e6 27bf 281e 08bf
00000360: 769c 00bf 83a6 0abd 2d0e 36bf b2ad fbbe
00000370: e16f debe 45b3 d73e 0ca7 dfbd bfb6 e1be
00000380: f8d6 393d 7992 9e3d 6559 a0bd c125 9d3d
00000390: 450e 643e cb21 0abf b22f 2fbf 3e44 52bf
000003a0: 98e1 973e 9091 69bf 9b23 2e3c 62ad ba3e
000003b0: 650a 12bf 9a3a 8d3e dc92 793d fb64 42bf
000003c0: 24cd a23d 7ef2 383d 5043 ffbe 5c29 c43e
000003d0: 69cf 2cbf 3500 94bd e8b6 23bf 7744 7cbf
000003e0: c721 25bf 20f2 46bf f346 293e c56c 8d3d
000003f0: 9bee 383c 79e1 723d dfc7 21bf efef 053e
0.12866026 0.5065503 -0.023875626 -0.68630725 0.21341217 0.25643486 -0.70555097 0.3238873
-0.24379286 -0.03554605 -0.8617298 0.43974504 0.37672392 -0.0034028266 0.2071182 0.07938032
0.06715948 -0.48817343 0.2590812 -0.6019716 -0.7065295 -0.49358565 0.21657056 -0.8268896
0.2671857 -0.50437975 0.07293649 -0.5578217 -0.088392474 -0.9096572 0.45236194 0.45714915
-0.7233628 0.06414601 -0.091706045 0.14352252 -0.15240827 0.02189431 -0.6837973 0.32051954
-0.0802365 0.45106694 -0.77596915 -0.13660102 -0.8617104 -0.91004604 -0.20225295 0.2334487
0.016642667 0.29399315 0.18223302 0.03912633 0.48634657 0.24320422 -0.7927187 0.2518778
-0.63457876 0.0066640577 0.13214701 -0.45445326 0.03906365 0.07822394 0.36893815 -0.07381295
0.23559426 0.0062107285 -0.29667225 0.10258758 -0.04800269 0.2512536 -0.012587195 0.109140165
-0.18139628 0.19522303 -0.30275613 -0.65688914 -0.02489482 0.44057322 -0.91044474 -0.7053165
-0.6581875 0.18741673 0.5479717 0.43536773 -0.62200904 0.27493277 -0.5049328 0.4220397
0.18282928 -0.6098794 0.19117108 -0.27199915 0.202386 0.10008705 -0.42602932 0.22462589
-0.6760078 -1.0136825 -0.50573885 -0.44071516 -0.19229712 -0.6159228 0.19856358 -0.41552314
0.45255116 -0.13736978 -0.6806851 0.3380319 -0.07814863 0.18968043 -0.81960607 -0.10408264
0.58005947 -0.07358359 0.35580355 -0.39065439 0.20124848 -0.6162227 0.32184047 -0.12050349
0.11831691 0.1720736 -0.75068146 -0.6588775 -0.7823705 -0.70811546 0.13262558 -0.7019795
0.3790779 0.4426363 -0.7907713 -0.07613647 -0.64368135 0.27612668 0.22584574 0.064442165
0.17499687 0.0005674627 0.031605057 0.021109087 -0.3318378 0.029734543 -0.8191007 -0.6181154
-0.6627053 -0.022801023 -0.66589284 -0.43944246 -0.4353694 0.3692423 -0.62531453 0.0359728
0.26126778 0.46842235 -0.8118127 0.25203097 -0.81974554 0.1962557 0.19505607 0.17746904
0.33320186 0.1614451 -0.45180497 0.41378278 -0.6648692 -0.6644089 0.10394159 0.4364001
-0.69261265 0.23296857 -0.13929969 -0.42396677 -0.4152604 -0.021808805 -0.6236867 -0.66828215
-0.0026092555 -0.56271005 0.4388697 0.47808138 -0.4383858 -0.8195876 0.08400681 0.41000333
0.18442938 -0.81927323 -0.49476853 0.1357376 -0.77524346 0.2848165 -0.35375494 -0.8422057
-0.7758054 -0.021218145 -0.40099302 -0.8236594 -0.056456447 0.09436717 -0.6476547 -0.5189109
-0.7592863 0.1298284 0.36559874 0.16521245 -0.4940139 0.5398877 0.1676075 0.1383795
-0.37285557 -0.7143184 0.4414435 -0.0013661421 0.39620426 0.41199154 -0.6558593 -0.53171015
-0.5023874 -0.033850204 -0.7111538 -0.49155957 -0.43444732 0.4212896 -0.109205335 -0.44084737
0.045371026 0.07742781 -0.07829551 0.076732166 0.22271068 -0.53957814 -0.6843215 -0.8213538
0.29664302 -0.91237736 0.010628606 0.36460406 -0.5704711 0.27583772 0.06093107 -0.75935334
0.07949284 0.045153134 -0.49856043 0.38312805 -0.6750398 -0.07226602 -0.6395097 -0.9854197
-0.64504665 -0.77713203 0.16530971 0.06905512 0.011287357 0.05929706 -0.63195604 0.13079809

value_conv1.bias f4 [2]
00000000: 54f5 0f3e fb42 183e
0.14058429 0.14869301
