model/cnn/8x8/4aw/other2/8.pt (torch_old, 478657 bytes, 15 tensors)

conv1.weight f4 [32, 4, 3, 3]
-0.009741897 0.050406523 0.19604501 0.49775618 -0.24317077 -0.6265832 -0.35901183 0.30144078
0.23380104 -0.004009775 -0.1644906 0.19911435 0.536632 -0.13504821 -0.28526482 -0.025011517
0.083755024 0.3395471 0.14797503 0.15967976 0.016952718 -0.18604918 0.04077929 -0.071228445
0.05262596 0.012434053 0.014152048 -0.26064482 -0.21034564 -0.2060374 0.02024389 0.04842712
0.24701026 0.0014655464 0.03765577 0.16274238 0.9439544 0.102599464 0.25415668 0.07052081
-0.00899992 -0.13116913 0.019950053 -0.20628604 -0.35604548 -0.8240307 0.33199576 -0.33994684
0.022021232 0.39645618 0.017490856 0.12572014 0.011689034 0.025577141 -0.057141818 0.0021637997
0.008767945 0.03863231 0.05590624 0.034972176 0.0060465937 0.063525215 0.08397282 -0.052907042
0.05243907 0.1135391 -0.07100159 0.07758426 -0.026186725 -0.011007122 0.029046131 0.049329154
0.10209147 0.5667324 -0.0061019314 0.1905226 -0.21292508 -0.019431518 0.07180028 0.55292875
0.03128999 -0.34360287 -0.01903025 -0.25976586 0.33197677 0.0004923284 0.41922754 -0.17033465
-0.24231766 -0.1487507 0.006813049 -0.106792316 -0.057235505 0.0962072 0.063118696 0.05813758
0.031260435 -0.17096497 -0.06793879 -0.041629687 0.1941748 -0.09335293 0.10550229 0.05112712
-0.23297015 0.035933085 0.11175846 -0.07066973 -0.014397608 0.060444463 0.09745328 0.31948838
0.59243757 -0.08754692 0.5969906 0.3789438 0.087826006 0.13284177 0.11261306 0.07970499
-0.07670411 0.029014463 0.019430809 -0.41702724 0.010964466 0.069131404 0.12654288 -0.046347685
0.109165415 -0.054666262 -0.09176675 0.0009612676 -0.05522385 -0.08598236 0.0037529522 -0.05388712
-0.15384354 -0.2106178 0.059872754 0.089019775 0.1517956 0.02378101 0.12013163 0.104289934
-0.26966637 -0.06929726 -0.16187781 -0.20569083 -0.054998957 -0.19772942 -0.57874316 0.61840165
-0.16018735 -0.27088484 -0.1597605 -0.19616027 -0.08840337 0.18367761 0.0934786 0.068620816
-0.044191487 0.024094887 0.09595891 -0.086638235 0.055581495 0.089865066 -0.16612178 -0.026355801
0.019468123 0.16088048 0.10402017 -0.30803663 0.064267255 0.1813786 -0.38459727 0.081022486
0.12565039 -0.30175516 0.15314005 0.09357337 0.259277 -0.43885905 -0.1806549 -0.007192446
0.19403219 0.340769 0.047137544 0.0702944 -0.19389777 -0.14460938 -0.15903483 0.10702789
-0.21518785 0.020355934 -0.007047311 -0.050449446 0.0233463 0.5206143 -0.10733916 -0.11183077
-0.17714024 -0.09588641 -0.18939146 0.07920717 -0.113448605 0.024981722 -0.25982082 -0.36225778
-0.48144537 -0.3868003 0.2805245 0.041678183 -0.0005453253 0.24795361 0.061884474 0.19915366
-0.19166307 0.14089474 -0.044255793 -0.14187583 0.5789928 -0.27407706 0.22318964 0.033752613
-0.107395515 -0.1509327 -0.14254738 -0.2353878 0.63507944 0.00030371133 -0.34355804 -0.23316766
-0.16916263 -0.27819145 0.024093488 0.075519904 -0.08578299 -0.22819433 0.012407664 -0.13160624
0.12253548 0.0993512 0.017301492 0.07070745 0.124437496 0.09979663 0.013089091 -0.07533579
0.080144376 -0.067729756 -0.07411303 0.011899524 0.28077176 -0.086618975 0.50709206 0.0760926
00000000: 7a9c 1fbc 1277 4e3d 06c0 483e e6d9 fe3e
00000010: c201 79be c267 20bf 66d0 b7be 7256 9a3e
00000020: 8a69 6f3e 6e64 83bb 3970 28be a2e4 4b3e
00000030: b760 093f 144a 0abe 3b0e 92be f4e4 ccbc
00000040: c187 ab3d 1ed9 ad3e c486 173e 1783 233e
00000050: 6de0 8a3c ad83 3ebe 2f08 273d 38e0 91bd
00000060: 528e 573d 33b8 4b3c fedd 673c 3d73 85be
00000070: d964 57be 78fb 52be 84d6 a53c 845b 463d
00000080: 42f0 7c3e 9417 c03a f03c 1a3d f0a5 263e
00000090: ffa6 713f ab1f d23d d320 823e 376d 903d
000000a0: 6774 13bc 3351 06be 4b6e a33c a63c 53be
000000b0: 984b b6be adf3 52bf 59fb a93e 830d aebe
000000c0: df65 b43c 4efc ca3e fc48 8f3c c8bc 003e
000000d0: 5d83 3f3c 2787 d13c 8a0d 6abd 89ce 0d3b
000000e0: 6da7 0f3c ea3c 1e3d f1fd 643d fc3e 0f3d
000000f0: 8122 c63b 8219 823d f1f9 ab3d 0eb5 58bd
00000100: 5aca 563d 3087 e83d 4869 91bd 7fe4 9e3d
00000110: 8b85 d6bc 3757 34bc 27f2 ed3c 5e0d 4a3d
00000120: 5515 d13d 6015 113f b6f2 c7bb 5b18 433e
00000130: 0809 5abe d92e 9fbc 060c 933d bd8c 0d3f
00000140: ef29 003d b7ec afbe 54e5 9bbc 0800 85be
00000150: dcf8 a93e 9a0f 013a fea4 d63e 356c 2ebe
00000160: 1f22 78be 1a52 18be ff3f df3b eeb5 dabd
00000170: c76f 6abd 4808 c53d 6044 813d ac21 6e3d
00000180: f10a 003d 7111 2fbe 7e23 8bbd e483 2abd
00000190: c2d5 463e d22f bfbd 9611 d83d ac6a 513d
000001a0: ba8f 6ebe 922e 133d 9fe1 e43d 4bbb 90bd
000001b0: f2e3 6bbc 9d94 773d 9695 c73d fb93 a33e
000001c0: fda9 173f cd4b b3bd 60d4 183f ec04 c23e
000001d0: 1fde b33d ac07 083e ada1 e63d 5f3c a33d
000001e0: 0b17 9dbd bdaf ed3c 5c2d 9f3c 9884 d5be
000001f0: 4ea4 333c c494 8d3d 7594 013e 12d7 3dbd
00000200: 1e92 df3d bbe9 5fbd 35f0 bbbd 94fd 7b3a
00000210: 6732 62bd 8517 b0bd 17f4 753b beb8 5cbd
00000220: 2989 1dbe 31ac 57be 223d 753d 0050 b63d
00000230: 4e70 1b3e 65d0 c23c 9207 f63d f695 d53d
00000240: b611 8abe b9eb 8dbd 4cc3 25be 9ea0 52be
00000250: 9646 61bd 9579 4abe 8328 14bf 924f 1e3f
00000260: 2708 24be 6bb1 8abe 4298 23be 3dde 48be
00000270: d30c b5bd fc15 3c3e b571 bf3d 1289 8c3d
00000280: 2202 35bd a462 c53c 1b86 c43d 636f b1bd
00000290: 6ca9 633d 2d0b b83d d41b 2abe 1fe8 d7bc
000002a0: 9d7b 9f3c dabd 243e 8708 d53d fab6 9dbe
000002b0: 8d9e 833d 50bb 393e efe9 c4be 1eef a53d
000002c0: 7faa 003e a77f 9abe bfd0 1c3e 65a3 bf3d
000002d0: f4bf 843e 22b2 e0be 99fd 38be 9cae ebbb
000002e0: 60b0 463e 4679 ae3e 4c13 413d 83f6 8f3d
000002f0: 238d 46be 7b14 14be 07da 22be 7031 db3d
00000300: 345a 5cbe 7dc1 a63c 21ed e6bb 14a4 4ebd
00000310: bd40 bf3c fb46 053f a2d4 dbbd 8807 e5bd
00000320: 4064 35be 1860 c4bd d6ef 41be 5e37 a23d
00000330: be57 e8bd 78a6 cc3c 3c07 85be da79 b9be
00000340: 0280 f6be b00a c6be e8a0 8f3e beb6 2a3d
00000350: 29f4 0eba 8de7 7d3e 937a 7d3d f0ee 4b3e
00000360: 5343 44be b646 103e 9045 35bd e647 11be
00000370: df38 143f d453 8cbe d38b 643e 2e40 0a3d
00000380: 2ef2 dbbd 1a8e 1abe f1f7 11be 8009 71be
00000390: 9194 223f 723b 9f39 d7e6 afbe 81c3 6ebe
000003a0: f838 2dbe 1c6f 8ebe b55f c53c 2eaa 9a3d
000003b0: feae afbd c6ab 69be 8449 4b3c c9c3 06be
000003c0: e2f3 fa3d a478 cb3d dcbb 8d3c 11cf 903d
000003d0: 16d9 fe3d 2d62 cc3d a073 563c a749 9abd
000003e0: bc22 a43d e6b5 8abd 93c8 97bd 39f6 423c
000003f0: 51c1 8f3e 4a65 b1bd c9d0 013f 70d6 9b3d

conv1.bias f4 [32]
-0.007416002 -0.18501627 -0.31400156 -0.36815944 0.15122202 0.29472396 -0.33034614 -0.14516532
0.08017439 0.14578651 -0.16841127 -0.15094009 -0.3533194 -0.27577716 -0.08357965 -0.086327046
-0.098206535 -0.027350647 -0.098016925 0.3113606 -0.014016525 0.48847052 -0.20901257 -0.3818378
-0.043918107 -0.04750627 -0.2387791 -0.18986072 -0.12316243 -0.2093276 -0.106990635 -0.21184218
00000000: ef01 f3bb e874 3dbe d0c4 a0be 657f bcbe
00000010: f2d9 1a3e 0fe6 963e 2123 a9be 38a6 14be
00000020: 7832 a43d 0f49 153e 0174 2cbe 0a90 1abe
00000030: 48e6 b4be aa32 8dbe cf2b abbd 3ccc b0bd
00000040: 8220 c9bd 770e e0bc 19bd c8bd a86a 9f3e
00000050: 91a5 65bc cf18 fa3e 6407 56be 3e80 c3be
00000060: 79e3 33bd ef95 42bd 8282 74be d96a 42be
00000070: 963c fcbd f959 56be e81d dbbd 28ed 58be

conv2.weight f4 [64, 32, 3, 3]
0.42125818 -0.09471386 0.078242816 -0.2154822 -0.13815236 0.21244806 -0.26100656 0.030348975
-0.14221105 -0.1769317 -0.3227404 -0.08445491 -0.18428056 -0.1578333 -0.13717042 -0.02313438
0.14582317 0.034608137 0.021267239 -0.048896648 0.19732554 0.02352488 -0.06664302 -0.22986238
-0.06326344 0.28128424 -0.078695975 0.086101554 -0.14925614 -0.1122123 0.111945376 -0.07424166
-0.23205487 0.13420679 -0.026376076 -0.07598447 0.061511915 0.30824247 0.13434787 -0.15246288
-0.16180414 -0.19148089 -0.078151405 -0.012186199 -0.029203236 0.26161456 0.22828466 -0.12423234
-0.1878781 -0.016121263 -0.26233912 0.16913985 0.0022201692 -0.09790075 0.19024868 -0.017352417
0.08994967 -0.14585397 -0.058447912 -0.04666433 0.012721809 -0.13499239 0.0053092297 0.14390978
-0.021591676 0.08205285 -0.03491907 0.036944944 -0.13251093 0.29159224 -0.16523035 -0.24066257
-0.10604721 -0.35285175 0.040835775 -0.10108377 -0.047126047 0.07687583 0.13967402 0.2963924
0.11333102 -0.1960331 -0.20914426 0.13769631 -0.13032816 -0.083149664 -0.17498407 0.079885565
0.01876784 0.19274516 -0.23919569 0.08539274 0.32722566 -0.111460775 -0.07767282 0.09648644
-0.112452365 0.14372256 0.1995275 0.13583331 0.017259318 -0.29618442 0.029257162 0.115735196
-0.38019407 -0.070597425 0.029990064 -0.31991595 -0.18502744 -0.081133045 0.13063718 -0.077957995
-0.15788344 0.060551148 -0.058615096 -0.084172614 -0.15440305 -0.26025745 -0.008221529 -0.26340434
-0.09229165 -0.07288209 0.014303512 -0.1959035 0.102360584 -0.12431065 -0.36872983 0.15031137
0.11608429 -0.034868468 0.17574072 0.18155454 0.01573264 -0.057997316 -0.043323334 -0.15786909
0.050577145 -0.03832822 0.22987318 0.17995265 0.1665995 -0.06554739 -0.35053128 -0.017208843
-0.20907395 -0.14298889 -0.12614231 -0.14229994 0.14111245 -0.35041335 -0.12807508 0.09440763
-0.18323651 0.08504916 0.08913219 0.13052438 -0.09381737 -0.035949763 0.17407069 -0.17366715
0.03785946 0.21101381 0.13562262 0.114945844 0.24820015 -0.06731181 -0.2568393 -0.5312731
-0.3868327 -0.231845 0.024079312 0.17726848 0.09924915 -0.42270178 0.35124862 0.16680177
-0.14491604 -0.0243842 0.08833527 -0.21210383 -0.25189558 0.29963538 0.052929774 -0.021147422
0.17066985 0.00565189 -0.11898461 -0.43544587 -0.24588509 0.18555614 0.12987657 -0.0070704343
0.070472166 -0.03859608 -0.045294486 0.15531133 0.007966321 -0.040708225 -0.21795018 -0.25877383
-0.19878384 -0.28180066 -0.07161067 0.063647166 0.076221265 -0.1739774 -0.2115122 0.0013294743
-0.080178745 -0.19653969 0.045128793 0.12382986 -0.037983265 0.124184646 -0.001079385 -0.10025296
-0.22025861 0.0066178893 -0.086486265 0.111082 0.14344324 -0.03312347 -0.12672026 0.19387764
0.13799895 0.09497247 0.1658951 0.09426866 0.11427834 0.09891249 -0.31849456 -0.010636689
-0.027930938 -0.4586427 -0.07104287 -0.4269026 0.041002695 -0.46727893 -0.12848653 -0.3449493
-0.12319864 -0.112004064 -0.20842105 -0.101105 -0.040936682 -0.21070898 -0.06280328 -0.2685418
0.14377104 0.15007503 0.08196801 -0.06311986 -0.24690227 0.1334473 -0.26126844 -0.13351329
00000000: 27af d73e 57f9 c1bd c53d a03d 5ea7 5cbe
00000010: d077 0dbe fc8b 593e a7a2 85be 6a9e f83c
00000020: c69f 11be 952d 35be 3b3e a5be b2f6 acbd
00000030: 0bb4 3cbe 0d9f 21be 6776 0cbe 5084 bdbc
00000040: ab52 153e 43c1 0d3d a238 ae3c da47 48bd
00000050: b50f 4a3e 40b7 c03c 237c 88bd 0b61 6bbe
00000060: 4390 81bd 7d04 903e 5b2b a1bd 0356 b03d
00000070: 9ad6 18be 90cf e5bd 9e43 e53d 030c 98bd
00000080: cb9f 6dbe 816d 093e a412 d8bc bf9d 9bbd
00000090: ebf3 7b3d f5d1 9d3e 7d92 093e 3b1f 1cbe
000000a0: fcaf 25be 9113 44be d80d a0bd a0a8 47bc
000000b0: a03b efbc 58f2 853e 74c3 693e 866d febd
000000c0: 1e63 40be bd10 84bc 5051 86be ff32 2d3e
000000d0: 4280 113b 3080 c8bd 8dd0 423e a826 8ebc
000000e0: 8837 b83d be5a 15be 1467 6fbd 1923 3fbd
000000f0: 226f 503c 723b 0abe 0cf9 ad3b 165d 133e
00000100: 07e1 b0bc 530b a83d 4c07 0fbd 9553 173d
00000110: f2b0 07be 944b 953e 2532 29be 4070 76be
00000120: 482f d9bd fca8 b4be 6a43 273d 0205 cfbd
00000130: 3e07 41bd 1371 9d3d b506 0f3e bfc0 973e
00000140: 181a e83d e7bc 48be ea29 56be 4300 0d3e
00000150: bf74 05be 5f4a aabd 062f 33be 0b9b a33d
00000160: 03bf 993c fd5e 453e b7ef 74be 64e2 ae3d
00000170: 1f8a a73e 8c45 e4bd ed12 9fbd af9a c53d
00000180: 6d4d e6bd 022c 133e f050 4c3e e317 0b3e
00000190: 6a63 8d3c 7ca5 97be b7ac ef3c 9306 ed3d
000001a0: cca8 c2be 6295 90bd b9ad f53c 06cc a3be
000001b0: d577 3dbe 1529 a6bd c1c5 053e 71a8 9fbd
000001c0: 32ac 21be 7b04 783d 6216 70bd b162 acbd
000001d0: d51b 1ebe 7740 85be 98b3 06bc efdc 86be
000001e0: 6803 bdbd 3543 95bd 4759 6a3c ed9a 48be
000001f0: 6da2 d13d 9596 febd 28ca bcbe 39eb 193e
00000200: 9abd ed3d 3dd2 0ebd 60f5 333e 6fe9 393e
00000210: bde1 803c 988e 6dbd cf73 31bd 6fa8 21be
00000220: fb29 4f3d 0dfe 1cbd e063 6b3e 8245 383e
00000230: 0f99 2a3e b63d 86bd d678 b3be 8ff9 8cbc
00000240: 7b17 56be ae6b 12be 732b 01be 13b7 11be
00000250: c87f 103e 6169 b3be 1d26 03be ca58 c13d
00000260: 5aa2 3bbe 412e ae3d f08a b63d 2fa8 053e
00000270: 5223 c0bd 0f40 13bd 963f 323e cdd5 31be
00000280: 8512 1b3d 0114 583e a8e0 0a3e ba68 eb3d
00000290: 2e28 7e3e c6da 89bd 7180 83be 8401 08bf
000002a0: f00e c6be c768 6dbe fa41 c53c de85 353e
000002b0: 2343 cb3d 5e6c d8be dcd6 b33e 15ce 2a3e
000002c0: df64 14be 60c1 c7bc 1fe9 b43d bf31 59be
000002d0: 75f8 80be cf69 993e e4cc 583d 5c3d adbc
000002e0: 14c4 2e3e 7d33 b93b 34ae f3bd c3f2 debe
000002f0: 4dc9 7bbe 6e02 3e3e 5dfe 043e 1aaf e7bb
00000300: b653 903d ec16 1ebd b686 39bd ef09 1f3e
00000310: 2c85 023c abbd 26bd 552e 5fbe 017e 84be
00000320: fe8d 4bbe 2d48 90be 9da8 92bd 7259 823d
00000330: e519 9c3d 2227 32be a796 58be c141 ae3a
00000340: c134 a4bd b341 49be f8d8 383d 829a fd3d
00000350: 5794 1bbd 8554 fe3d 277a 8dba 6d51 cdbd
00000360: 798b 61be e1da d83b b61f b1bd f67e e33d
00000370: c9e2 123e 7aac 07bd f5c2 01be dc87 463e
00000380: 994f 0d3e ed80 c23d 68e0 293e ed0f c13d
00000390: c30a ea3d a292 ca3d b811 a3be 8245 2ebc
000003a0: 6ccf e4bc 37d3 eabe ed7e 91bd fa92 dabe
000003b0: 71f2 273d 2f3f efbe f991 03be 329d b0be
000003c0: 924f fcbd 6362 e5bd 546c 55be 2310 cfbd
000003d0: 39ad 27bd 18c4 57be 029f 80bd 507e 89be
000003e0: b738 133e 45ad 193e d8de a73d fc44 81bd
000003f0: f3d3 7cbe 69a6 083e fac4 85be b5b7 08be

conv2.bias f4 [64]
-0.11616545 0.011253294 -0.24024521 -0.12125621 -0.2694575 -0.20224516 -0.006142132 -0.21150623
-0.3592246 -0.061623447 -0.11385254 -0.1903938 -0.24310476 -0.030086843 -0.2210947 -0.10277874
-0.6202542 0.026521472 -0.20331602 -0.1501419 -0.041759446 0.023316372 -0.36146978 0.13305436
0.14701752 -0.13817815 -0.1625802 0.10095109 -0.107122734 -0.1879256 -0.044602387 -0.33094555
-0.107480854 -0.11341996 -0.1253022 -0.09759294 -0.4296205 -0.37202287 -0.03967097 -0.08121785
-0.3279176 -0.3983492 -0.36156356 -0.11955119 -0.5001807 -0.13646893 -0.18595955 -0.4456374
-0.08306867 -0.1928531 -0.15668301 0.16226655 -0.27022842 -0.02676824 -0.19123566 -0.028345348
-0.35043985 -0.15093386 -0.18470924 -0.06786568 -0.47248042 -0.111834 -0.08075352 -0.1283904
00000000: 27e8 edbd bc5f 383c d702 76be 2d55 f8bd
00000010: 55f6 89be 5b19 4fbe f043 c9bb 1795 58be
00000020: 49ec b7be de68 7cbd 852b e9bd 98f6 42be
00000030: 74f0 78be af78 f6bc a666 62be a97d d2bd
00000040: fbc8 1ebf 8f43 d93c 1332 50be ccbe 19be
00000050: f40b 2bbd fa01 bf3c 9112 b9be 673f 083e
00000060: c38b 163e 937e 0dbe 6d7b 26be 72bf ce3d
00000070: 2a63 dbbd 926f 40be feb0 36bd b271 a9be
00000080: ec1e dcbd b948 e8bd 384f 00be cfde c7bd
00000090: 38f7 dbbe c879 bebe 077e 22bd 8b55 a6bd
000000a0: d1e4 a7be 6df4 cbbe dc1e b9be 41d7 f4bd
000000b0: d80b 00bf 83be 0bbe 2e6c 3ebe 962a e4be
000000c0: e81f aabd 487b 45be 8371 20be 3429 263e
000000d0: 615b 8abe 1149 dbbc 48d3 43be 8134 e8bc
000000e0: da6c b3be 688e 1abe 6b24 3dbe 29fd 8abd
000000f0: f4e8 f1be 3909 e5bd 1a62 a5bd c678 03be

conv3.weight f4 [128, 64, 3, 3]
0.08907007 -0.07015853 -0.25586796 -0.007731646 -0.04652575 0.18758833 -0.1477075 -0.037521258
-0.10596943 -0.059330564 0.12040128 -0.22575547 0.11161394 -0.08387561 0.21026804 0.09470767
0.17629707 -0.50189465 -0.08004931 -0.11181781 0.12516078 -0.19299169 0.085012436 0.15444157
-0.19591892 -0.10317717 -0.22511248 0.0772447 -0.04121236 -0.15956539 -0.19392282 -0.07380179
-0.034377985 -0.043731388 -0.10242734 0.16481878 0.0042745145 0.246358 0.09069174 0.1328245
0.13432686 -0.0969238 -0.07899039 0.080601536 -0.07297146 0.043524694 0.042411223 -0.119471826
-0.21921036 0.057124373 -0.024107885 -0.16976587 -0.00017654427 -0.120714106 0.014315974 0.13652141
-0.2301809 -0.24862207 -0.14786358 0.072352685 0.13709523 -0.12970494 0.057220444 0.033150595
-0.044615123 -0.18079889 -0.035881944 -0.018514125 0.25458443 0.086020336 -0.29825822 -0.258637
-0.10206885 0.03713949 -0.031349357 -0.06107574 -0.036634386 0.02179171 0.090814576 -0.085215084
-0.08416382 0.14339711 0.048210543 0.009098107 -0.05679828 -0.10146957 -0.28558204 -0.35102606
-0.07763185 -0.12914538 0.043714613 -0.052176125 0.11842958 -0.0801141 -0.09236108 -0.024843875
0.13984247 -0.07620506 -0.08820108 0.10243661 0.07157659 0.037681744 0.01657582 -0.04427027
0.091145076 0.16025706 0.1465964 0.07200325 -0.16063738 0.032929152 0.07694011 -0.005007597
-0.038150832 0.022269255 -0.050126713 0.0632041 0.14482397 0.020530941 0.061802708 -0.038140625
0.20476612 -0.025593542 -0.05587073 0.040008098 0.10475897 -0.18807682 -0.12028681 -0.08068898
-0.25262907 -0.09396555 -0.15512934 0.052108455 -0.11061227 -0.13050817 -0.094420835 0.23178595
-0.31130642 -0.3304745 -0.08495361 0.06683661 -0.13867088 0.34785905 0.13602914 0.29057235
-0.09257464 -0.019506782 0.36807784 0.18524781 -0.15841125 0.087412365 -0.024040855 0.2999822
0.013594742 -0.07454104 -0.10711519 0.03769168 -0.09417969 0.030893385 0.21170954 0.20977172
0.04197782 0.25599244 0.16123812 -0.09870645 0.1494428 0.063790634 -0.2506277 -0.03590657
-0.37973744 -0.07758818 -0.16769467 0.20333757 -0.19653141 0.17630449 0.28168255 -0.09817976
0.060448714 -0.08557314 -0.2666642 -0.05804343 -0.20534867 -0.28395462 0.06023302 -0.058245126
-0.079139695 -0.17952631 -0.31781736 -0.03368035 -0.03011263 -0.20391074 -0.2584636 -0.34213543
-0.00972334 0.038759187 0.16716221 -0.22353025 -0.048542958 -0.08366925 -0.17339915 -0.19483222
-0.107604474 -0.06530601 0.085501336 0.23552243 -0.13019188 0.0018372071 -0.13643004 -0.03629272
0.03844524 -0.02114754 0.1591569 -0.13238859 -0.0038219956 0.043882053 0.061060663 0.02683333
-0.17406069 -0.107750654 0.20097834 -0.09345871 -0.0012508918 0.15550418 -0.015541608 -0.37301448
-0.0021013918 -0.12720144 -0.0032273168 0.15280563 0.02008535 -0.044277616 0.20388408 -0.06397585
0.07119567 0.11285913 -0.119823225 0.08819378 -0.034378905 -0.17349663 -0.008991063 -0.040508173
0.06106123 0.025190925 0.19666848 0.13503383 0.015350575 -0.13998799 -0.10853677 -0.16843373
-0.13116768 -0.1181807 0.17731394 0.04644121 -0.10277916 -0.15760307 -0.1066702 -0.014953629
00000000: 5e6a b63d 46af 8fbd 2001 83be bf59 fdbb
00000010: c991 3ebd 2817 403e a340 17be e4af 19bd
00000020: 8006 d9bd 9b04 73bd f294 f63d 712c 67be
00000030: d995 e43d fac6 abbd 8150 573e 18f6 c13d
00000040: 3887 343e 2b7c 00bf e5f0 a3bd bc00 e5bd
00000050: 262a 003e 9d9f 45be 001b ae3d ee25 1e3e
00000060: f89e 48be 8d4e d3bd e383 66be 7832 9e3d
00000070: 4bce 28bd 1c65 23be b493 46be 6525 97bd
00000080: eecf 0cbd af1f 33bd 6dc5 d1bd 41c6 283e
00000090: 3a11 8c3b 4645 7c3e 97bc b93d 2503 083e
000000a0: fb8c 093e fc7f c6bd b7c5 a1bd 6b12 a53d
000000b0: 1072 95bd f346 323d 64b7 2d3d a5ad f4bd
000000c0: ae78 60be 3ffb 693d e67d c5bc 1bd7 2dbe
000000d0: be1e 39b9 f538 f7bd 8c8d 6a3c 45cc 0b3e
000000e0: 8bb4 6bbe c996 7ebe 8d69 17be a52d 943d
000000f0: b162 0c3e 5fd1 04be fc5f 6a3d ebc8 073d
00000100: 59be 36bd 5823 39be f2f8 12bd efaa 97bc
00000110: e458 823e 6e2b b03d 4db5 98be 126c 84be
00000120: 7909 d1bd 941f 183d 2f68 00bd 8e2a 7abd
00000130: f00d 16bd 8784 b23c fefc b93d 3f85 aebd
00000140: 155e acbd b1d6 123e 6b78 453d 3a10 153c
00000150: 50a5 68bd 47cf cfbd cf37 92be b0b9 b3be
00000160: 73fd 9ebd b03e 04be 180e 333d a2b6 55bd
00000170: 358b f23d dc12 a4bd ce27 bdbd 6285 cbbc
00000180: dd32 0f3e 6611 9cbd c5a2 b4bd 49ca d13d
00000190: bf96 923d 2c58 1a3d 04ca 873c be54 35bd
000001a0: 45aa ba3d 6d1a 243e 5e1d 163e 7176 933d
000001b0: 207e 24be b8e0 063d c792 9d3d c516 a4bb
000001c0: 0c44 1cbd 036e b63c ab51 4dbd 2771 813d
000001d0: bc4c 143e 8130 a83c d624 7d3d 5839 1cbd
000001e0: 36ae 513e 8ca9 d1bc b5d8 64bd 88df 233d
000001f0: df8b d63d 3697 40be ee58 f6bd 4440 a5bd
00000200: 9958 81be 0371 c0bd 3ada 1ebe ad6f 553d
00000210: b088 e2bd efa3 05be b65f c1bd 4c59 6d3e
00000220: 8e63 9fbe f433 a9be 29fc adbd a2e1 883d
00000230: bdff 0dbe 951a b23e 394b 0b3e e6c5 943e
00000240: c697 bdbd b0cc 9fbc b374 bc3e 9ab1 3d3e
00000250: 8f36 22be 4105 b33d 54f1 c4bc 4497 993e
00000260: 7bbc 5e3c f9a8 98bd 355f dbbd 9762 1a3d
00000270: 48e1 c0bd 2014 fd3c 63ca 583e 66ce 563e
00000280: eff0 2b3d 7111 833e 9b1b 253e 9b26 cabd
00000290: 8907 193e aaa4 823d 4652 80be c412 13bd
000002a0: f26c c2be 8de6 9ebd 27b8 2bbe b937 503e
000002b0: 883f 49be 2a89 343e b238 903e 7812 c9bd
000002c0: 1299 773d f840 afbd 3688 88be f3be 6dbd
000002d0: ec46 52be 8062 91be e6b6 763d 7192 6ebd
000002e0: fe13 a2bd bfd5 37be f5b8 a2be 68f4 09bd
000002f0: c3ae f6bc facd 50be 5755 84be 602c afbe
00000300: a54e 1fbc f4c1 1e3d 922c 2b3e 1de5 64be
00000310: fbd4 46bd c95a abbd 8c8f 31be 1982 47be
00000320: bc5f dcbd 28bf 85bd 531b af3d cb2c 713e
00000330: 0551 05be 71ce f03a 51b4 0bbe ada7 14bd
00000340: c278 1d3d 9b3d adbc 07fa 223e e090 07be
00000350: 727a 7abb abbd 333d bf1a 7a3d 92d1 db3c
00000360: f73c 32be 60ac dcbd 44cd 4d3e 4867 bfbd
00000370: f7f4 a3ba 7d3c 1f3e 3ba2 7ebc c1fb bebe
00000380: 81b7 09bb 1841 02be 6481 53bb 1479 1c3e
00000390: 088a a43c 725c 35bd fdc6 503e c505 83bd
000003a0: 09cf 913d b022 e73d e165 f5bd f19e b43d
000003b0: e5d0 0cbd 1aa9 31be 404f 13bc e6eb 25bd
000003c0: 571b 7a3d 335d ce3c 7663 493e 4f46 0a3e
000003d0: fa80 7b3c 0359 0fbe 8748 debd e479 2cbe
000003e0: d250 06be b908 f2bd c991 353e 2339 3e3d
000003f0: e17d d2bd b362 21be e875 dabd 1100 75bc

conv3.bias f4 [128]
-0.20500103 -0.114540026 -0.58602464 -0.17744069 -0.112908915 -0.26137787 -0.22330837 -0.44557127
-0.40582547 -0.24829847 -0.16229956 -0.11734692 -0.08541728 -0.3271908 -0.19620377 -0.1400882
-0.22737889 -0.18876433 -0.17737217 -0.17318073 -0.24853212 -0.2046482 -0.10823024 -0.010566611
-0.21179277 -0.023012733 -0.119535096 -0.27075517 -0.16142517 -0.29345176 -0.22399057 -0.45995277
-0.2924935 -0.26342553 -0.25383952 -0.047959834 -0.21679774 -0.1938795 -0.36188692 -0.1493859
-0.31895912 -0.20015988 -0.18323258 -0.16317989 -0.31282356 -0.21738058 -0.32226592 -0.31032667
-0.34106562 -0.2946479 0.0046830215 -0.07291731 -0.12400741 -0.24549262 -0.30816054 -0.18425497
-0.11125618 -0.1976315 -0.08915454 -0.24447824 -0.343595 -0.3857014 -0.3226638 -0.36153367
0.23040381 0.24006869 -0.19437797 -0.12091809 -0.20850755 -0.3223062 0.2346666 -0.13552117
-0.16139454 -0.23155351 -0.36274645 -0.035014533 -0.2815316 -0.20704935 -0.1904832 -0.37707454
-0.12976578 -0.26339114 -0.18628936 -0.24456225 -0.07836189 -0.9330899 -0.120866194 -0.011721373
-0.14969163 0.1270933 -0.21329105 0.1696126 0.055469394 -0.28107813 -0.26073653 -0.25664994
-0.18802679 -0.22255866 -0.3084698 -0.16332856 -0.8631646 -0.07223413 -0.21762922 -0.35415038
-0.20915389 -0.21843614 -0.32928655 -0.37796444 -0.06800429 -0.44982675 -0.31714615 -0.24516031
-0.115032084 -0.39162064 -0.11852165 -0.028789606 -0.05900197 -0.15553303 -0.27612448 -0.6770355
-0.18552484 -0.23805349 -0.21738404 -0.33873293 -0.29273015 -0.19943166 -0.19602239 -0.33202398
00000000: caeb 51be f693 eabd b605 16bf 03b3 35be
00000010: ca3c e7bd 52d3 85be f3aa 64be eb21 e4be
00000020: 5bc8 cfbe f441 7ebe db31 26be 9553 f0bd
00000030: 41ef aebd 8d85 a7be a4e9 48be 4873 0fbe
00000040: 03d6 68be 704b 41be 0da1 35be 4a56 31be
00000050: 347f 7ebe 4c8f 51be d1a7 ddbd 941f 2dbc
00000060: 34e0 58be 3385 bcbc d1ce f4bd 6ca0 8abe
00000070: a44c 25be 4f3f 96be c95d 65be ee7e ebbe
00000080: b5c1 95be b6df 86be 41f7 81be 8871 44bd
00000090: 3a00 5ebe 5988 46be 3e49 b9be 9ef8 18be
000000a0: 9c4e a3be b6f6 4cbe 52a1 3bbe a118 27be
000000b0: 692a a0be 0499 5ebe 0a00 a5be 23e3 9ebe
000000c0: 27a0 aebe 17dc 96be 0874 993b ac55 95bd
000000d0: 99f7 fdbd 6b62 7bbe 38c7 9dbe 56ad 3cbe
000000e0: 48da e3bd e95f 4abe a896 b6bd 8158 7abe
000000f0: afeb afbe a77a c5be 3134 a5be f11a b9be
00000100: faee 6b3e 91d4 753e 050b 47be e7a3 f7bd
00000110: 0183 55be 5105 a5be 714c 703e 10c6 0abe
00000120: 9c44 25be 5d1c 6dbe e7b9 b9be 666b 0fbd
00000130: e924 90be bf04 54be 070e 43be ea0f c1be
00000140: 52e1 04be 34db 86be a3c2 3ebe 876e 7abe
00000150: 337c a0bd fbde 6ebf b288 f7bd 000b 40bc
00000160: c348 19be bf24 023e f868 5abe edae 2d3e
00000170: e033 633d 79e9 8fbe 427f 85be 9f67 83be
00000180: 188a 40be 6be6 63be c1ef 9dbe 9a3f 27be
00000190: 5bf8 5cbf 7def 93bd 32da 5ebe 3353 b5be
000001a0: 702c 56be b9ad 5fbe 3f98 a8be 8e84 c1be
000001b0: d545 8bbd b14f e6be fb60 a2be 4e0b 7bbe
000001c0: f195 ebbd 8082 c8be 7bbb f2bd 2ed8 ebbc
000001d0: 0dac 71bd 0d44 1fbe 3060 8dbe 3352 2dbf
000001e0: 39fa 3dbe 4bc4 73be ec99 5ebe 676e adbe
000001f0: bae0 95be d037 4cbe 18ba 48be 0cff a9be

p_conv1.weight f4 [4, 128, 1, 1]
0.016646076 -0.008835008 -0.01310895 0.08999656 0.0020936418 0.007934629 0.01124593 0.036591474
0.020348806 -0.01579833 0.021573028 0.00081821677 -0.0385691 -0.0045869728 0.023159523 -0.041298375
0.024320021 -0.018489415 0.013240546 -0.006787355 0.015286434 0.011449448 -0.009873299 -0.013787686
-0.007527092 -0.028259445 -0.04091269 -0.016380012 0.015627218 0.059009984 -0.01654382 -0.04654136
0.013208769 -0.26240212 0.03338732 0.030413104 -0.023250723 -0.019428965 0.005300144 -0.03565694
0.0070056543 0.04507982 0.01760135 -0.02311371 -0.010743668 -0.01272944 0.035546176 0.06427485
-0.028976634 -0.02349525 -0.0041606114 0.017742386 0.018846346 -0.014524007 0.0042248224 0.0246743
0.01322177 0.009247677 -0.023221461 -0.010166354 -0.0051911795 0.016467208 -0.023765512 0.016083883
-0.4453795 -0.07251883 -0.009110202 0.03126324 -0.008978902 -0.04174624 0.016861733 -0.007733067
0.016907433 0.027415521 0.0069806264 0.015326198 -0.026018435 -0.0062032896 0.015019441 -0.032293815
0.00034543627 -0.042405758 -0.002217189 -0.06510666 -0.032686368 0.3541 -0.007417533 -0.019337852
0.0071814843 0.24558446 -0.057239518 0.030086564 0.0060454807 0.0025453444 -0.0047863023 -0.024786208
0.005475285 0.007912265 0.036572292 -0.026213046 1.0321449 -0.002612144 0.016257556 0.023415579
0.00695905 -0.017887885 0.065773 -0.07509135 0.013751471 0.021436682 -0.038525544 0.036494844
0.012061795 0.038154915 -0.003993303 -0.003967336 0.00084261596 -0.014234499 -0.034252826 0.008650675
-0.036152683 -0.06186121 -0.057071295 0.009202853 -0.030913385 -0.020245343 0.025774488 0.0018427665
-0.010257426 0.0016353909 -0.19219992 0.10815657 -0.05482182 0.038511164 0.014601587 -0.023590127
-0.07654774 -0.056993008 -0.003016887 -0.023485519 -0.009674998 -0.025523247 -0.0121322265 0.03023728
0.008585975 -0.042206313 0.009082197 -0.0131146 0.011606879 -0.038629528 -0.030240413 0.0018806856
-0.030742038 0.030361246 -0.013626623 0.0057135583 -0.019384902 0.012112042 -0.0060416106 0.11949556
-0.015059588 -0.1300955 -0.03631146 0.032470893 -0.051627044 0.037597492 0.0075734355 -0.029287087
-0.034752592 -0.02867849 0.017496528 -0.044432744 0.0017046912 0.009006833 0.0066439393 0.11451148
0.07185049 -0.005297473 -0.009569594 0.04311927 -0.026587196 -0.0008725323 0.023309229 0.015683917
0.029810471 -0.0021610346 0.018818138 -0.045751035 -0.013480178 0.05506795 -0.002146964 0.0059922617
0.31508857 -0.1927227 -0.015883096 -0.020509003 -0.04226951 -0.0051887897 0.42655948 0.016929103
-0.01485282 0.019717913 -0.027870469 0.031390175 0.024216082 -0.0071208742 0.024487315 0.006464524
0.0194536 -0.071698844 0.020366197 -0.021733712 -0.02370559 -0.05760506 -0.010976351 -0.0066985684
0.008281397 0.18936925 0.034295294 0.04330987 -0.0027495045 0.02750369 -0.09393456 0.023058653
-0.04898646 -0.060059 -0.036918562 -0.058872882 -0.13437332 -0.014514805 0.06170391 0.032779783
-0.003603744 0.025949594 -0.037163433 -0.087925114 -0.02063769 -0.0116374465 0.013969728 0.039536178
0.06363144 0.0040470418 0.008361346 -0.02423433 -0.05870739 -0.050471697 -0.021436177 0.007900603
-0.040083118 -0.021033065 0.01024307 -0.034428835 -0.06223331 0.034038212 0.27319688 0.010202813
00000000: 5a5d 883c b6c0 10bc ecc6 56bc 1e50 b83d
00000010: 7b35 093b 3f00 023c d940 383c f1e0 153d
00000020: 8ab2 a63c 806b 81bc ebb9 b03c 997d 563a
00000030: a2fa 1dbd 514e 96bb 0ab9 bd3c 7c28 29bd
00000040: c83a c73c 1d77 97bc e0ee 583c 7668 debb
00000050: f473 7a3c 7796 3b3c 9ec3 21bc bfe5 61bc
00000060: d3a5 f6bb 5a80 e7bc 1194 27bd 602f 86bc
00000070: a704 803c 74b4 713d e886 87bc 27a2 3ebd
00000080: 9869 583c 9259 86be 24c1 083d e724 f93c
00000090: 4d78 bebc 7e29 9fbc d5ac ad3b 030d 12bd
000000a0: b08f e53b 9ea5 383d b530 903c f758 bdbc
000000b0: 3606 30bc 248f 50bc de98 113d 88a2 833d
000000c0: 6860 edbc 1c79 c0bc bd55 88bb 7b58 913c
000000d0: a763 9a3c 1af6 6dbc 6170 8a3b c221 ca3c
000000e0: 1fa0 583c 9283 173c ef3a bebc c790 26bc
000000f0: c51a aabb 3de6 863c e4af c2bc 59c2 833c
00000100: c808 e4be c184 94bd f542 15bc e20d 003d
00000110: 3f1c 13bc 1bfe 2abd 9e21 8a3c ab65 fdbb
00000120: 7581 8a3c 8496 e03c bdbd e43b bc1a 7b3c
00000130: 9d24 d5bc f744 cbbb 1a14 763c 8546 04bd
00000140: ac1b b539 a9b1 2dbd 424e 11bb a456 85bd
00000150: 24e2 05bd 984c b53e c70e f3bb 6a6a 9ebc
00000160: a852 eb3b 7e7a 7b3e fc73 6abd 1978 f63c
00000170: 2b19 c63b cbcf 263b 6ad6 9cbb 720c cbbc
00000180: 056a b33b 72a2 013c d4cc 153d bebc d6bc
00000190: 531d 843f 8130 2bbb 912e 853c 07d2 bf3c
000001a0: be08 e43b 9d89 92bc ffb3 863d 7ec9 99bd
000001b0: da4d 613c fb9b af3c f6cc 1dbd 9e7b 153d
000001c0: d69e 453c 5448 1c3d 41da 82bb 6d00 82bb
000001d0: 00e3 5c3a d137 69bc b14c 0cbd 90bb 0d3c
000001e0: d614 14bd 2e62 7dbd 97c3 69bd 90c7 163c
000001f0: 113e fdbc 90d9 a5bc 0525 d33c fc88 f13a
00000200: c30e 28bc 9d5a d63a 0ed0 44be 3181 dd3d
00000210: d88c 60bd e2bd 1d3d 7f3b 6f3c 1540 c1bc
00000220: 10c5 9cbd 8071 69bd f7b6 45bb b464 c0bc
00000230: e283 1ebc 2116 d1bc 3fc6 46bc 2cb4 f73c
00000240: 30ac 0c3c 87e0 2cbd 7fcd 143c 9fde 56bc
00000250: c72a 3e3c ff39 1ebd beba f7bc 5681 f63a
00000260: bad6 fbbc 26b8 f83c 3342 5fbc cd38 bb3b
00000270: 16cd 9ebc 9671 463c b4f8 c5bb 17ba f43d
00000280: 7dbc 76bc c137 05be 53bb 14bd 3300 053d
00000290: e176 53bd d4ff 193d 952a f83b 79eb efbc
000002a0: bc58 0ebd 27ef eabc e154 8f3c 1cff 35bd
000002b0: f26f df3a 6591 133c 67b5 d93b ff84 ea3d
000002c0: 5a26 933d 6d96 adbb c9c9 1cbc d59d 303d
000002d0: 64cd d9bc a7ba 64ba fff2 be3c 8f7b 803c
000002e0: 1735 f43c 25a0 0dbb 7f28 9a3c 7065 3bbd
000002f0: f7db 5cbc ee8e 613d 14b4 0cbb bc5a c43b
00000300: 4a53 a13e 1959 45be 441d 82bc 7f02 a8bc
00000310: cb22 2dbd b906 aabb 0166 da3e e7ae 8a3c
00000320: 3e59 73bc 7687 a13c 9c50 e4bc fc92 003d
00000330: ce60 c63c 3956 e9bb 9f99 c83c 5cd4 d33b
00000340: 285d 9f3c d8d6 92bd 03d7 a63c e60a b2bc
00000350: 3a32 c2bc 49f3 6bbd 27d6 33bc aa7f dbbb
00000360: b2ae 073c 03ea 413e 3979 0c3d b165 313d
00000370: 0831 34bb 6b4f e13c c360 c0bd 80e5 bc3c
00000380: 07a6 48bd 6d00 76bd eb37 17bd b124 71bd
00000390: 2999 09be 81cf 6dbc 3dbd 7c3d 1844 063d
000003a0: cb2c 6cbb 3e94 d43c af38 18bd 1512 b4bd
000003b0: 5f10 a9bc fdaa 3ebc 49e1 643c b0f0 213d
000003c0: 3351 823d 0c9d 843b 07fe 083c 1387 c6bc
000003d0: 2977 70bd 69bb 4ebd ec9a afbc 8871 013c
000003e0: 322e 24bd 894d acbc 8dd2 273c 4005 0dbd
000003f0: 5be8 7ebd a76b 0b3d 76e0 8b3e b329 273c

p_conv1.bias f4 [4]
0.17805922 0.13159163 -0.12967037 0.24757719
00000000: 2855 363e f5bf 063e 4fc8 04be e084 7d3e

p_fc1.weight f4 [64, 256]
-0.007910185 0.013751874 0.013153692 0.008270553 -0.030872874 0.019891992 -0.048258767 0.021953994
0.05033561 -0.010102391 0.005225754 0.053391565 0.04157328 0.09390779 0.014456009 -0.028731667
0.07536308 0.0017203363 0.03430878 0.025807979 -0.01364746 0.040396657 0.010729461 0.08532607
0.06698255 -0.044978127 0.03694322 -0.0015913211 0.019768527 0.06827613 0.011939037 0.033881746
0.11006589 -0.08361341 0.23516968 0.013553929 0.062751755 -0.009914129 0.027730817 0.032496337
0.12855347 0.31448284 -0.03812917 0.010567947 -0.0011168397 0.01127311 -0.012109599 0.023379914
-1.231242 0.12619779 0.065362535 0.108293205 0.049797196 0.06344786 -0.025042687 -0.011451656
0.031668317 -0.06353351 0.11862606 0.06032488 -0.052283887 -0.0714408 -0.0041606748 0.017862624
0.060183518 0.010098292 0.014306149 -0.021324929 -0.017517237 -0.013375491 0.09065518 0.08030203
0.034780778 0.018633703 -0.01350028 -0.028908903 0.003010954 0.031511996 -0.023705421 0.025385812
-0.096562766 -0.024992872 -0.05246551 -0.07660229 -0.11290649 0.044817824 -0.08563078 0.034516126
-0.106810555 0.1230275 -0.034756646 -0.20436046 -0.0055059227 0.007670188 -0.11140934 0.005936904
0.1083394 -0.021761203 -0.122210525 -0.1072398 -0.039943464 -0.03249249 0.0009509416 0.03753374
0.11774925 0.13925712 -0.18903056 -0.10359925 -0.046717938 0.004624154 -0.07666195 -0.031264175
0.38292465 -0.20459345 -0.12506784 0.085505694 -0.016463865 -0.034403596 -0.019269517 -0.049402542
-0.16350417 -0.25672886 -0.12484091 -0.13421558 0.07926306 0.070396714 -0.0006857274 -0.03493729
-0.07805803 0.0005217689 -0.031167416 -0.0011817601 0.037433747 0.09751007 -0.0010721697 0.03482757
-0.09750838 -0.03329871 -0.008072743 0.04210967 0.024976345 -0.028763823 0.066046745 0.07194158
-0.008147894 -0.017553167 0.07667604 -0.017646076 -0.011119455 -0.01324789 -0.014522358 -0.08405307
-0.09170859 -0.074737154 0.011375433 0.05534758 0.016446872 -0.03263555 0.02876854 -0.0141370725
-0.12549795 -0.006581174 -0.0811434 -0.017121146 -0.13978131 0.04664569 -0.015144022 -0.056073464
0.07572266 -0.017003123 -0.06919644 0.18893081 0.010162661 0.119428635 0.036973655 0.03390482
0.20863475 0.28431794 0.31360182 -0.0056236107 -0.082480535 -0.07267499 0.030429168 -0.008737355
0.11952251 0.05157622 -0.071014374 -0.10870948 -0.090279 -0.068686545 0.04792072 0.03208068
-0.029913891 0.020197023 -0.056646172 0.039723795 0.06627768 -0.009092519 0.015855977 0.06331962
-0.004554275 0.0019433493 -0.01538761 0.023768345 -0.08624741 -0.1262476 -0.02079027 0.0290388
-0.0013602811 -0.0001633921 -0.0061176876 -0.012931695 -0.11077002 0.04601697 -0.0033694694 -0.043922015
0.051101632 0.012207743 -0.0476612 -0.17019399 -0.049714204 -0.10975269 -0.056789566 -0.03311255
-0.09228791 0.051329963 -0.023523156 -0.24434535 -0.2137972 -0.078984596 -0.10996707 -0.08000508
-0.18250234 0.14590228 -0.35844505 -0.037140474 -0.12914804 -0.065415464 -0.020116989 0.014689178
-0.12827836 -0.47471565 0.05356513 -0.05738867 0.066514134 -0.00702128 0.00810137 -0.0276703
-0.30591848 0.28371125 0.14196175 0.033905443 -0.11403168 -0.08593585 -0.0012944685 0.057669953
00000000: b899 01bc 8a4f 613c 9582 573c 3781 073c
00000010: 1ce9 fcbc 88f4 a23c fcaa 45bd ddd8 b33c
00000020: b62c 4e3d 8084 25bc cd3c ab3b 1db1 5a3d
00000030: be48 2a3d ba52 c03d e5d8 6c3c ac5e ebbc
00000040: f557 9a3d e87c e13a 5d87 0c3d 416b d33c
00000050: 9999 5fbc f776 253d 9fca 2f3c 6fbf ae3d
00000060: 262e 893d fc3a 38bd c651 173d e093 d0ba
00000070: 9bf1 a13c 5bd4 8b3d f39b 433c 96c7 0a3d
00000080: 3a6a e13d 823d abbd 52d0 703e 4c11 5e3c
00000090: fe83 803d df6e 22bc bd2b e33c e11a 053d
000000a0: 85a3 033e e503 a13e 552d 1cbd 2f25 2d3c
000000b0: ec62 92ba dab2 383c 5767 46bc 3c87 bf3c
000000c0: 5699 9dbf fe39 013e cbdc 853d d4c8 dd3d
000000d0: 25f8 4b3d f4f0 813d 5226 cdbc ba9f 3bbc
000000e0: a3b6 013d db1d 82bd 38f2 f23d 3917 773d
000000f0: a127 56bd 8e4f 92bd 4556 88bb a354 923c
00000100: fe82 763d 4e73 253c 5764 6a3c 9eb1 aebc
00000110: 4f80 8fbc e024 5bbc 6ca9 b93d 6475 a43d
00000120: 4a76 0e3d b5a5 983c 4730 5dbc 5dd2 ecbc
00000130: 6d53 453b b912 013d df31 c2bc e8f5 cf3c
00000140: b3c2 c5bd dabd ccbc 13e6 56bd a9e1 9cbd
00000150: 853b e7bd e592 373d 315f afbd c860 0d3d
00000160: 7ebf dabd d8f5 fb3d fc5c 0ebd de43 51be
00000170: 076b b4bb 3356 fb3b 942a e4bd 5c8a c23b
00000180: 0ce1 dd3d 8d44 b2bc 8349 fabd 8aa0 dbbd
00000190: c29b 23bd d816 05bd 9c48 793a fbbc 193d
000001a0: 8526 f13d 6b99 0e3e 3a91 41be d82b d4bd
000001b0: 4f5b 3fbd 3786 973b f100 9dbd dd0e 00bd
000001c0: b30e c43e f280 51be c911 00be 9c1d af3d
000001d0: 3adf 86bc c9ea 0cbd 1bdb 9dbc 525a 4abd
000001e0: a36d 27be f771 83be 97ac ffbd cf6f 09be
000001f0: ac54 a23d 272c 903d 63c2 33ba 671a 0fbd
00000200: e3dc 9fbd 51c7 083a cf52 ffbc 4ae5 9aba
00000210: 2154 193d 5cb3 c73d 0c88 8cba 5ba7 0e3d
00000220: 79b2 c7bd 3a64 08bd 8a43 04bc 307b 2c3d
00000230: 319b cc3c 1ca2 ebbc 8443 873d 1b56 933d
00000240: bf7e 05bc a9cb 8fbc 5408 9d3d 818e 90bc
00000250: 602e 36bc ae0d 59bc 2fef 6dbc 0424 acbd
00000260: b7d1 bbbd cb0f 99bd 0660 3a3c 25b4 623d
00000270: 97bb 863c dbac 05bd 00ac eb3c 2e9f 67bc
00000280: 8982 00be e4a6 d7bb 832e a6bd a541 8cbc
00000290: d522 0fbe 8d0f 3f3d a21e 78bc 4aad 65bd
000002a0: 7b14 9b3d 224a 8bbc ddb6 8dbd 1477 413e
000002b0: 4a81 263c 0097 f43d b071 173d c8df 0a3d
000002c0: 59a4 553e 1f92 913e 6b90 a03e 4446 b8bb
000002d0: 8eeb a8bd a0d6 94bd 9746 f93c 1f27 0fbc
000002e0: 38c8 f43d 9641 533d fc6f 91bd 13a3 debd
000002f0: 32e4 b8bd 88ab 8cbd 8448 443d 0867 033d
00000300: fa0d f5bc 3a74 a53c d105 68bd 6bb5 223d
00000310: 98bc 873d caf8 14bc 65e4 813c b8ad 813d
00000320: 073c 95bb fbb7 fe3a 501c 7cbc d5b5 c23c
00000330: 7ba2 b0bd 0d47 01be 5b50 aabc c7e2 ed3c
00000340: 764b b2ba 3c54 2bb9 e276 c8bb 76df 53bc
00000350: 64db e2bd 4a7c 3c3d 51d2 5cbb 92e7 33bd
00000360: f24f 513d fc02 483c 6438 43bd 5547 2ebe
00000370: 1fa1 4bbd 05c6 e0bd 2d9c 68bd 06a1 07bd
00000380: 7201 bdbd 5e3f 523d a2b3 c0bc ab35 7abe
00000390: a7ed 5abe adc2 a1bd 6a36 e1bd b4d9 a3bd
000003a0: e5e1 3abe 6867 153e 1c86 b7be 9c20 18bd
000003b0: 623f 04be 8bf8 85bd 62cc a4bc e1aa 703c
000003c0: 675b 03be ee0d f3be 1c67 5b3d 6210 6bbd
000003d0: 9038 883d c412 e6bb 9cbb 043c d3ac e2bc
000003e0: 59a1 9cbe 9a42 913e 6c5e 113e 6fe0 0a3d
000003f0: 7189 e9bd 23ff afbd 28ab a9ba 5437 6c3d

p_fc1.bias f4 [64]
-0.04906979 -0.06213324 -0.05759885 -0.12304813 -0.17067944 -0.14561522 -0.061040875 -0.06306107
-0.03174927 -0.097807124 -0.014272245 0.059395205 0.008282678 -0.09431726 -0.10848035 -0.06144497
-0.07019922 -0.032749124 0.11271793 0.21156813 0.17530179 0.08918225 -0.10537139 -0.031485643
-0.103151664 0.01755557 0.19252212 0.13672735 0.13183951 0.15783298 -0.016098313 -0.05577436
-0.105318256 0.028358202 0.13497128 0.14771996 0.15754396 0.18168424 0.013964916 -0.016111482
-0.08282045 -0.07361847 0.05453283 0.1024486 0.11276973 0.1458095 -0.016087176 -0.0025456008
-0.05787584 -0.10887181 -0.0030412287 0.07179806 0.032290395 -0.0068228147 -0.098142974 0.013530463
-0.019472247 -0.07572041 -0.052194368 -0.10713067 -0.07913909 -0.042794034 -0.024680559 0.12195611
00000000: 67fd 48bd 6d7f 7ebd c6ec 6bbd a800 fcbd
00000010: 97c6 2ebe 281c 15be ff05 7abd 2a26 81bd
00000020: 860b 02bd 1a4f c8bd 22d6 69bc 6348 733d
00000030: 12b4 073c 6829 c1bd f22a debd b9ad 7bbd
00000040: 9cc4 8fbd f223 06bd a8d8 e63d 51a5 583e
00000050: 5082 333e 2fa5 b63d f5cc d7bd 17f7 00bd
00000060: 2e41 d3bd b3d0 8f3c 8524 453e 4102 0c3e
00000070: f000 073e f89e 213e 9ce0 83bc a873 64bd
00000080: 19b1 d7bd 764f e83c e935 0a3e e743 173e
00000090: 3453 213e 6f0b 3a3e 1acd 643c 3afc 83bc
000000a0: c59d a9bd 48c5 96bd d15d 5f3d 92d0 d13d
000000b0: d1f3 e63d 164f 153e 41c9 83bc 18d4 26bb
000000c0: 380f 6dbd 2ff8 debd 5a4f 47bb dc0a 933d
000000d0: ef42 043d eb91 dfbb 2fff c8bd e0ae 5d3c
000000e0: 4384 9fbc 4d13 9bbd c3c9 55bd 5367 dbbd
000000f0: ad13 a2bd cc48 2fbd e22e cabc 20c4 f93d

value_conv1.weight f4 [2, 128, 1, 1]
-0.6741317 -0.8014861 0.1899832 0.06856952 0.01152932 0.17997597 -0.23837091 0.076377064
0.2308439 0.12556106 -0.5965127 -0.025252845 0.16578043 0.20614132 0.0825057 -0.19550088
-0.46588233 0.28688908 0.15257786 -0.77713346 -0.631537 0.24083772 -0.85372645 -0.9665297
0.07102455 -0.71684086 0.014924115 -0.5877286 0.07710247 -0.5694797 0.051763408 0.3037223
0.20501688 -0.41548178 -0.65160644 0.05154518 -0.033317387 0.117199175 0.17780583 0.042081475
0.1742012 -0.66378504 0.16795026 -0.7786852 0.024310555 -0.09092946 0.24321513 -0.6707661
-0.6395531 0.26442894 -0.20864056 -0.14700347 -0.010569234 0.26404938 -0.7136301 -0.835526
-0.06667963 -0.60707146 0.04378794 -0.91095644 0.119706474 0.3475092 -0.54969066 -0.5910768
-0.016562618 0.0047973422 -0.08803327 -0.6511643 -0.4934359 0.28779754 0.013441477 -0.71704364
-0.7633922 0.24307159 0.32086316 0.06512829 -0.03694551 -0.90871173 0.20123516 0.22787051
-0.30647877 -0.20227921 -0.0328465 0.35512954 -0.08199707 0.19604012 0.05413437 -0.25428107
0.0652546 -0.00041430505 -0.18323354 -0.043032937 -0.07183005 0.13197495 -0.6912026 0.056515183
-0.6067461 0.022683416 0.104373544 -0.5042819 -0.10340635 -0.591579 -0.7832031 0.1654107
0.0810051 0.13949925 -0.78187686 0.36857605 -0.7682945 -0.4747613 -0.7566421 -0.7147298
-0.015719833 -0.23321463 0.099474184 0.011774829 -0.18917312 -0.35363403 -0.80724347 0.03584938
-0.8255627 0.16937004 -0.2351465 0.29480165 0.33362707 -0.37038738 -0.3188243 -0.7528322
0.067216076 -0.03996461 0.3531407 0.1807397 -0.87214345 -0.90187687 -0.7499651 0.39386633
0.15346062 -0.84768933 0.06082546 -0.6905079 -0.38434106 -0.61587954 -0.67442113 -0.7766279
0.21621916 -0.41824806 -0.74210674 0.09988629 0.08769927 -0.44769642 0.015294629 -0.107705824
-0.85098606 0.07626898 -0.48326015 -0.086778216 -0.66141963 0.04172045 -0.5176198 0.35360035
-0.20152003 -0.6507056 0.048880365 -0.011461987 -0.58298105 -0.47455913 0.35928538 -0.71304
-0.55169475 -0.077187285 0.2517145 0.0876736 -0.85979635 -0.7740906 0.25604847 0.20899987
0.2705613 0.18830034 -0.6961739 -0.81833255 0.19109672 0.13886537 0.035504945 0.07865801
-0.36733255 0.21198696 -0.5230029 0.05078148 0.280534 0.3203766 0.08987549 0.18616259
-0.008472904 0.022726377 -0.67165416 -0.13775206 0.1248282 7.2410025e-05 -0.015568436 0.1815877
0.022934314 0.1326481 -0.09698357 -0.44881383 -0.9196767 0.1632024 -0.807873 -0.74119675
0.115947045 0.27182716 -0.9969557 0.32189742 -0.6704096 0.513278 -0.63298965 -0.18602522
-0.6957337 0.016804818 -0.71055084 -0.053280693 -0.83087313 -0.63696206 0.09214604 -0.7651043
-0.16958857 -0.77728903 -0.90158546 -0.65368354 -0.03956673 0.0074748537 -0.0652086 0.26745254
-0.46100143 -0.800851 -0.17051522 0.22855937 -0.0027147175 0.23277919 0.11275204 0.0866784
-0.80732095 -0.19824065 -0.34554636 -0.60256064 0.093354195 0.07109785 0.173817 0.43972385
0.1863929 -0.679935 -0.48391858 0.13562633 0.46299464 0.14696029 -0.06546942 0.15563542
00000000: e593 2cbf 312e 4dbf f58a 423e 2d6e 8c3d
00000010: 79e5 3c3c 9f4b 383e 8117 74be 946b 9c3d
00000020: 5862 6c3e 1493 003e 0eb5 18bf 0edf cebc
00000030: 58c2 293e b616 533e c0f8 a83d 6231 48be
00000040: 2188 eebe 20e3 923e 5f3d 1c3e 38f2 46bf
00000050: 69ac 21bf 2a9e 763e d18d 5abf 7e6e 77bf
00000060: 5275 913d e282 37bf 4684 743c 6275 16bf
00000070: e6e7 9d3d 6cc9 11bf de05 543d 7d81 9b3e
00000080: f2ef 513e 07ba d4be aecf 26bf 0a21 533d
00000090: d077 08bd 1f06 f03d bb12 363e a05d 2c3d
000000a0: cd61 323e d1ed 29bf 27fb 2b3e ea57 47bf
000000b0: ee26 c73c 3a39 babd 630d 793e 54b7 2bbf
000000c0: c1b9 23bf 3b63 873e dfa5 55be 1488 16be
000000d0: 952a 2dbc 7b31 873e 76b0 36bf 08e5 55bf
000000e0: 548f 88bd 0969 1bbf fc5a 333d 7134 69bf
000000f0: ab28 f53d baec b13e 87b8 0cbf cf50 17bf
00000100: 54ae 87bc 0633 9d3b c94a b4bd b4b2 26bf
00000110: a1a3 fcbe 335a 933e a439 5c3c 2c90 37bf
00000120: ac6d 43bf c2e7 783e 2d48 a43e fb61 853d
00000130: 2d54 17bd 55a1 68bf 9710 4e3e e356 693e
00000140: c9ea 9cbe 4822 4fbe 0d8a 06bd 8ad3 b53e
00000150: 14ee a7bd bebe 483e 00bc 5d3d 2131 82be
00000160: 34a4 853d 1537 d9b9 93a1 3bbe 4e43 30bd
00000170: a21b 93bd 7124 073e a7f2 30bf 777c 673d
00000180: b653 1bbf 92d2 b93c ccc1 d53d 9e18 01bf
00000190: b5c6 d3bd b971 17bf 0080 48bf 6c61 293e
000001a0: 00e6 a53d e4d8 0e3e 1529 48bf 00b6 bc3e
000001b0: f3ae 44bf ea13 f3be 4cb3 41bf 88f8 36bf
000001c0: e1c6 80bc d1cf 6ebe 1fb9 cb3d 36eb 403c
000001d0: 99b6 41be 850f b5be 82a7 4ebf cdd6 123d
000001e0: 1458 53bf 576f 2d3e 3eca 70be 3ef0 963e
000001f0: 2bd1 aa3e 6aa3 bdbe f03c a3be 9cb9 40bf
00000200: 95a8 893d eeb1 23bd dcce b43e d413 393e
00000210: cb44 5fbf 67e1 66bf b6fd 3fbf d9a8 c93e
00000220: c824 1d3e 2b02 59bf 1e24 793d 20c5 30bf
00000230: 5ac8 c4be 48aa 1dbf dda6 2cbf 16d1 46bf
00000240: 8e68 5d3e 9c24 d6be b5fa 3dbf 2f91 cc3d
00000250: ad9b b33d 7738 e5be 5396 7a3c df94 dcbd
00000260: 39da 59bf e932 9c3d e06d f7be c7b8 b1bd
00000270: cc52 29bf 10e3 2a3d bb82 04bf 1b0b b53e
00000280: 445b 4ebe a494 26bf c736 483d 0fcb 3bbc
00000290: 3f3e 15bf 6af9 f2be 41f4 b73e ca89 36bf
000002a0: de3b 0dbf 5e14 9ebd b9e0 803e 378e b33d
000002b0: 9d1b 5cbf cd2a 46bf c918 833e 1004 563e
000002c0: 0387 8a3e ced1 403e 7438 32bf 3e7e 51bf
000002d0: dcae 433e b932 0e3e a26d 113d 7317 a13d
000002e0: 0313 bcbe 1c13 593e 85e3 05bf 3e00 503d
000002f0: 27a2 8f3e 6708 a43e a410 b83d 68a1 3e3e
00000300: efd1 0abc ab2c ba3c 87f1 2bbf e00e 0dbe
00000310: eda5 ff3d d6da 9738 c112 7fbc 20f2 393e
00000320: bee0 bb3c e7d4 073e 529f c6bd edca e5be
00000330: ef6f 6bbf 881e 273e c4d0 4ebf 12bf 3dbf
00000340: a575 ed3d ee2c 8b3e 7d38 7fbf bdcf a43e
00000350: f79f 2bbf 3066 033f 9c0b 22bf 657d 3ebe
00000360: 9b1b 32bf 42aa 893c a9e6 35bf db3c 5abd
00000370: 1ab4 54bf f20f 23bf 10b7 bc3d e0dd 43bf
00000380: a0a8 2dbe 6afc 46bf 4ece 66bf ce57 27bf
00000390: b910 22bd 9eef f43b 168c 85bd 8aef 883e
000003a0: 6108 ecbe 9204 4dbf 8b9b 2ebe 780b 6a3e
000003b0: 67e9 31bb ab5d 6e3e 8bea e63d 7284 b13d
000003c0: 96ac 4ebf 99ff 4abe 74eb b0be 6a41 1abf
000003d0: 7c30 bf3d c09b 913d 15fd 313e 7c23 e13e
000003e0: c8dd 3e3e 3810 2ebf 2dc4 f7be a1e1 0a3e
000003f0: a20d ed3e c27c 163e d514 86bd e45e 1f3e

value_conv1.bias f4 [2]
0.08197327 0.13242681
00000000: 9ae1 a73d e59a 073e
