model/cnn/8x8/4aw/other5/8.pt (torch_old, 478657 bytes, 15 tensors)

conv1.weight f4 [32, 4, 3, 3]
000000 be f2 ae bd 50 6f 04 be e5 a8 75 bd 05 f6 f7 3e
       -0.08542393 -0.12933087 -0.059975524 0.48429886
000010 54 41 28 be ba dc f7 be c4 26 a7 3b c2 4c f2 3b
       -0.1643117 -0.48410589 0.005101057 0.007394404
000020 d3 01 56 3e 32 cb 12 be cb 6c 87 bc ae f7 54 bb
       0.20899133 -0.14335325 -0.016531369 -0.0032496261
000030 37 f5 e6 3e f8 10 de 3c 27 5d 08 bf 72 f0 70 bd
       0.4510896 0.0271077 -0.5326714 -0.058823057
000040 dd c2 18 3e f3 da 66 3e d0 66 0f bd c4 7e 3b 3d
       0.14918084 0.2254446 -0.03501016 0.04577519
000050 0f fb bd 3c dd 83 ea 39 68 6b ee 3c 76 15 10 3d
       0.023191003 0.00044730204 0.02910395 0.035176717
000060 d0 d6 03 bd e2 ef 05 3e f1 e6 3c 3e 00 ba 70 be
       -0.032187283 0.1307979 0.18447472 -0.23508453
000070 c3 7e 88 be dd 16 3d be b5 a5 27 3d d1 fa 17 3d
       -0.26659212 -0.18465753 0.040929515 0.03710443
000080 c5 dc 5f 3e 60 d9 a0 3c 48 83 b5 3c 21 1b 25 3e
       0.2186156 0.019634902 0.022157326 0.1612363
000090 b7 14 72 3f 49 12 3f 3d 1c df 0b 3d 41 88 54 3c
       0.9456286 0.046648297 0.03414832 0.012971939
0000a0 0f 99 05 3e 1b f1 b5 bd ce 17 98 3c 7a 66 3c be
       0.13046668 -0.08883878 0.018566038 -0.18398467
0000b0 48 4c 36 be b8 91 d6 be c9 79 44 3e 9b a9 18 be
       -0.17802536 -0.4190805 0.19187082 -0.1490845
0000c0 ea 8c c6 3d 88 ff b0 3e ff 08 0d 3d 00 79 5d 3d
       0.09694846 0.34569955 0.034432407 0.054070473
0000d0 2b 1a d3 3c f8 d2 2b 3e 4d bb cb bd 9c e7 ad 3d
       0.025769314 0.16779697 -0.09947834 0.084914416
0000e0 ce bf 27 bd b8 b0 a2 bd 95 ea 2d 3d 3c b8 00 bd
       -0.040954404 -0.07943863 0.042460043 -0.0314257
0000f0 05 79 94 bd 6b ca f3 3d 8e d2 9a 3d 5f 50 2e bd
       -0.07249645 0.119038425 0.07559691 -0.042557117
000100 3d 3e 5a 3c be c0 8d 3d 85 6e 8a bd 0b 9b b1 3d
       0.013320503 0.06921528 -0.06759361 0.0867215
000110 d4 9b 27 bc 38 f2 a4 3c 7c 1d bb 3d fa af ca 3d
       -0.010230023 0.02013503 0.09136483 0.09896846
000120 86 5c 06 bd 23 17 25 3f 52 4a 2f bc d5 5f dc bd
       -0.03280308 0.6448843 -0.010698872 -0.10760466
000130 bc b7 2a be 87 2f 06 bd 4c 40 00 3d cd 99 a9 3e
       -0.16671652 -0.03276017 0.03131132 0.33125153
000140 a7 8d de 3d 36 90 51 be 7e 8a 11 3d 6d b7 47 be
       0.10866862 -0.20465168 0.035532467 -0.19503565
000150 e5 fc be 3e 35 63 e9 3c 06 11 b8 3e 14 70 fa bd
       0.37302318 0.028489688 0.35950488 -0.122284085
000160 61 f6 cf bd c5 0a 30 bd f1 7e 69 3d 41 6b 3b 3d
       -0.10154415 -0.04297902 0.057005826 0.045756582
000170 b2 d1 80 3d 31 05 d7 3e 56 e4 20 3e 61 b0 33 3e
       0.06289996 0.41996148 0.15712103 0.17547752
000180 47 76 1b 3d 51 8f 09 bd 2c f3 87 3d ef e0 d8 bd
       0.037954595 -0.033583943 0.06638178 -0.10589778
000190 36 79 11 3e 62 22 1c be 90 90 bb 3d f0 3c ee 3d
       0.14206395 -0.15247491 0.091584325 0.11632717
0001a0 ca 04 39 be 8b c1 5c bd da 79 82 3d a0 98 d9 bd
       -0.18068233 -0.053895514 0.063708976 -0.10624814
0001b0 ca 11 54 3d 28 3f e6 3d 83 00 bb 3c 29 52 42 3e
       0.051774777 0.11242515 0.022827392 0.18976654
0001c0 f9 d7 65 3f d4 8e 9a 3c 9e eb 0e 3f 4d 9f c1 3e
       0.89782673 0.018866934 0.55828273 0.3781685
0001d0 36 81 11 3e 9b 14 b8 3d b6 af ec 3d 31 02 89 3d
       0.14209446 0.08988305 0.11556952 0.06689871
0001e0 8e b8 17 3d ef da 47 3e ee 6a 15 3d 52 39 54 be
       0.03704124 0.1951711 0.03647893 -0.20724991
0001f0 5e b5 98 3d d7 f9 3e 3e 31 29 a5 3c 27 22 7a bd
       0.07456468 0.18649994 0.020161243 -0.061067726
000200 76 05 27 3e 98 d8 c0 bd 28 c6 0a be 81 ff db 3c
       0.16310677 -0.09416312 -0.13552153 0.026855232
000210 24 5f db bd ae f1 aa bd e6 4b 34 bd e5 b5 e9 bb
       -0.10711506 -0.08346878 -0.044017695 -0.007132279
000220 f8 06 90 bd 54 1c 0a be 02 7d 8e 3d cc 29 a9 3d
       -0.07032579 -0.13487369 0.06957437 0.08259925
000230 3c f3 c5 3d 8c 63 e8 3a 4e 1c 55 3d f8 e6 3a bc
       0.09665534 0.0017729863 0.052028947 -0.011407606
000240 9e 22 a8 bd ff 17 a2 bd 81 73 dd bd fd 74 d1 bd
       -0.08209728 -0.07914733 -0.10813046 -0.10227392
000250 3d 05 2d be a0 fd 01 be 88 d4 1e be c2 fd f2 3e
       -0.1689653 -0.12694407 -0.15510762 0.47459227
000260 cd 23 6a be e9 38 82 3d 4a f7 93 3c ce 0c 3f bd
       -0.2286522 0.06358511 0.018062253 -0.04664307
000270 6f c5 02 3b a7 4b b2 3d 98 49 c5 3d d3 a5 86 3c
       0.0019954105 0.08705836 0.096331775 0.016436493
000280 27 91 9a 3c 5a ae a8 bb 60 c9 a7 3e b4 7d 9b bd
       0.018868042 -0.0051477375 0.32770824 -0.07592335
000290 c9 15 b7 bd 04 a3 57 bd 91 30 a4 bd 96 ff ef bd
       -0.08939702 -0.0526457 -0.08017076 -0.11718671
0002a0 b5 66 d0 bd 58 16 21 be 61 8f ec bc ee 91 80 be
       -0.1017584 -0.1573118 -0.028876962 -0.25111336
0002b0 4f 83 0d 3e 3e 39 56 3e 90 08 bf be e3 86 b9 3d
       0.13819622 0.20920274 -0.3731122 0.09058931
0002c0 ab 2b dd 3d 57 1b 85 be 2d e4 26 3e 59 94 d2 3d
       0.10799345 -0.2599742 0.1629798 0.10282201
0002d0 62 a4 2c 3e b2 20 01 be c3 86 b9 3c f3 3d c4 bd
       0.16859582 -0.12610129 0.022647267 -0.095821284
0002e0 e7 f0 3c 3e ee 74 c9 b9 f0 45 3f bc 62 82 03 bd
       0.18451272 -0.00038424827 -0.011674389 -0.032106765
0002f0 ec 4c 25 bd 58 44 5d bd af 56 30 be 37 23 f4 bd
       -0.04035656 -0.054020256 -0.17220567 -0.11920779
000300 c7 3c 32 be c7 00 24 3e d6 82 3d be 87 65 d7 3c
       -0.17405997 0.16015922 -0.18506941 0.02629353
000310 7a 9c 49 3d 45 4c f9 3e e5 20 9a be 49 fa 0c bd
       0.049221493 0.48691002 -0.30103222 -0.034418378
000320 bd d4 8a be a2 bc 0a be c5 aa 30 be bd ff b0 bd
       -0.2711543 -0.1354852 -0.17252643 -0.08642528
000330 f2 29 6c be 1e 03 81 bc 2c a3 99 be 58 f4 83 be
       -0.23062876 -0.015748557 -0.30007303 -0.25772357
000340 5d 51 98 be de 85 ff be 0e d4 a9 3e 35 52 3a 3e
       -0.29749575 -0.4990682 0.33169597 0.18195422
000350 9a 04 05 be 40 6f 9d 3e b8 9b 4b 3e d2 4c 73 3c
       -0.12990037 0.3074894 0.1988362 0.014849858
000360 2a 3c 28 be f9 9c 6f bd cf d7 10 bd eb 0b 02 be
       -0.16429201 -0.05849931 -0.03536206 -0.12699859
000370 73 62 94 3e d2 e5 02 be f4 b6 a0 bd 1c 81 59 3d
       0.2898136 -0.12782982 -0.078473955 0.053101644
000380 1c 06 e3 3d 7f 30 2b be 89 f9 d9 bd d7 1a b3 bd
       0.1108515 -0.16717719 -0.10643298 -0.08745354
000390 84 3f 06 3f 4a 6d 63 bd 5e f5 81 be ac 3d b4 bd
       0.5244067 -0.055524148 -0.25382513 -0.088008255
0003a0 ee 68 60 bc 18 17 4b bd fa 7a 66 bc 48 34 6f 3c
       -0.013696892 -0.04958257 -0.014067406 0.014599867
0003b0 a1 13 9b 3d 47 e1 74 be c6 90 4f bd ff 20 32 bd
       0.07572103 -0.23914061 -0.050675176 -0.0434885
0003c0 85 77 00 bb 35 1d 88 bd d0 bf 36 bd cc 8a 97 3c
       -0.001960249 -0.06646196 -0.04461652 0.0184988
0003d0 c2 3b c6 3d c5 0e a4 3d 15 08 3b bd ab 45 36 bd
       0.09679367 0.080106296 -0.045662005 -0.044500034
0003e0 7a 4e 6a 3d 74 ed 10 bc 37 ef 9e 3c b8 0f 2c 3d
       0.057203747 -0.008845676 0.019401176 0.042007178
0003f0 60 05 39 3e a9 8c 92 bd 58 21 dc 3e 32 8f af bb
       0.18068457 -0.07155735 0.4299419 -0.0053576464

conv1.bias f4 [32]
000000 71 1f 88 3c 54 24 0d be d7 bf 61 be 8b 9f 81 be
       0.016616555 -0.1378339 -0.22045837 -0.25317034
000010 4e c0 87 3d e9 25 1c 3e 87 d8 89 be 8f fc 8f bd
       0.06628476 0.15248837 -0.2692301 -0.070305936
000020 52 d0 5e ba 8a ab 36 3e 52 14 03 be 76 53 98 be
       -0.000849967 0.17838874 -0.1280072 -0.29751176
000030 55 3c 9d be d4 6c c3 be 3d 37 1e be 09 db 39 be
       -0.30710092 -0.38168967 -0.15450759 -0.18149962
000040 4e bf 76 bd d0 7c cc bd 6a 3d 75 bd 79 14 47 3e
       -0.060241036 -0.099847436 -0.059873022 0.19441403
000050 56 eb 37 3c 39 6f 2f 3f 17 32 64 be a1 18 ac be
       0.011225542 0.6852909 -0.22284733 -0.3361254
000060 9a 6a ad 3d 3c 5f e0 bd b9 86 20 be c1 94 87 be
       0.08467598 -0.109556645 -0.15676393 -0.26480678
000070 cd a3 d5 bd 9b cd 1d be 20 54 09 be 95 2e 24 be
       -0.10431633 -0.15410464 -0.13410997 -0.16033395

conv2.weight f4 [64, 32, 3, 3]
000000 54 ee 1a 3d 70 05 54 ba 26 4e e1 ba 92 9d f0 ba
       0.037824944 -0.00080879685 -0.0017189428 -0.0018357506
000010 c1 22 ed 3b 3e 44 9d 3c b8 a9 45 3c f4 69 56 bc
       0.007236809 0.01919758 0.01206439 -0.013086785
000020 45 cd 62 bc c5 36 17 bd 5c b3 03 bd 2a 4d 7e 3b
       -0.013842885 -0.036917467 -0.032153472 0.0038803318
000030 08 09 98 bc 18 5d 69 bd cc 43 37 bd 75 11 fc bb
       -0.018558994 -0.056973547 -0.04474239 -0.0076925107
000040 1c 65 9b bc 00 4e d8 bc c0 45 97 bb 89 e1 d1 bc
       -0.018969111 -0.02640438 -0.004616469 -0.025620239
000050 4e b3 5c bd 9c 5c b7 bc 03 60 bc bb a9 08 1f 3d
       -0.053881936 -0.022383027 -0.00574875 0.03882662
000060 b4 64 69 bc c1 23 3b bc 0a e9 9f 39 01 c4 1d bd
       -0.014245201 -0.011422099 0.0003050047 -0.038517002
000070 e7 45 6c bd e3 68 a4 bc 21 73 01 3c 3b 5d 48 bc
       -0.05768385 -0.020069545 0.007900984 -0.012229259
000080 57 dc e2 3a 9d 65 de 3c db 93 75 bd 8b a2 08 3d
       0.0017308098 0.027148062 -0.05995546 0.033358138
000090 24 a4 3c bc 97 7d c7 3b 66 ca 46 3a 16 ba 8c bc
       -0.011513744 0.0060879695 0.00075832603 -0.017178576
0000a0 53 2c dd bc 34 6a 15 3c 78 6f 8e bc 96 9a 0f bd
       -0.026998674 0.009119559 -0.017387137 -0.035059534
0000b0 df 95 83 bc be ca 29 3c 8f 64 23 3d 84 ee f2 bb
       -0.016062675 0.010363279 0.039890822 -0.007413687
0000c0 6d 38 e9 bc 3f 4f 27 bd b9 cc 96 bd bf 3e d2 bc
       -0.028469289 -0.04084706 -0.073632665 -0.025664685
0000d0 f2 db fd bc 6f 65 06 3b e8 00 56 bb b0 4e ea bb
       -0.030988667 0.0020507236 -0.0032654349 -0.0071504936
0000e0 a9 01 15 bd 44 99 88 bc 38 ff 84 3b ee 3a e3 bb
       -0.036378536 -0.016674645 0.0040587448 -0.006934515
0000f0 16 b5 86 3a 01 26 79 bb a0 b9 84 bb 71 de 13 3d
       0.0010277356 -0.0038017037 -0.0040504485 0.03610081
000100 58 83 2a bd 1f 05 05 bd 93 22 5d 3d 55 c6 88 3d
       -0.041629165 -0.032475587 0.05398805 0.06678454
000110 c8 cd 92 bd 42 0b 98 3d e8 ff 94 bd 06 f9 b4 bd
       -0.07168156 0.07424022 -0.07275373 -0.0883656
000120 c7 4a a5 3c 2b 39 2f bc 53 62 f7 bc 92 6e a3 ba
       0.020177258 -0.010694782 -0.030198252 -0.0012468866
000130 e2 38 56 bc d2 6a 53 bc 91 6c 84 bc 86 b8 08 bc
       -0.013075085 -0.012903886 -0.01616505 -0.008344775
000140 f2 4f 2a 3c 35 97 05 bc 44 cd a8 bd b2 ec 15 3c
       0.010395037 -0.008153726 -0.08242276 0.009150671
000150 cc 84 5d 3c 45 ab c8 3c 91 ab a7 bd e5 1d 33 3d
       0.013520431 0.02449573 -0.081870206 0.04372968
000160 e3 6e 84 bc b1 d1 3e 3d b1 92 5b bc fd 0e b6 3d
       -0.016166156 0.046586696 -0.013401673 0.088895775
000170 d4 bf db 3b 7e 34 9b bb 52 de c1 3c 3e 49 9f 3d
       0.0067062173 -0.004736482 0.02366558 0.07777642
000180 a9 5b 0b bc 3c 7d d6 3b 53 ae 64 3d cf 47 14 bc
       -0.00850574 0.006545691 0.05583031 -0.009050324
000190 06 57 25 bd 3b ee 20 bc 23 8d e9 bc 7a 2a 40 3b
       -0.040366195 -0.009822424 -0.028509682 0.0029322193
0001a0 4f 0e 69 bd 1b 76 88 bc 5c 92 61 bc f8 49 5d bc
       -0.05689841 -0.01665788 -0.013767805 -0.013506405
0001b0 de 25 4b bd 66 a5 09 bd 39 d5 c1 bc 28 17 af bc
       -0.04959666 -0.033605002 -0.023661243 -0.021373346
0001c0 a3 14 00 bd ab 15 8d bc 1e 2f 80 3b 48 fc 11 bc
       -0.03126968 -0.017222246 0.003911867 -0.008910246
0001d0 c5 5c 18 bd 4e 2b b7 bc 82 47 30 3d 54 7d ce 37
       -0.037197847 -0.022359516 0.043036945 2.4615474e-05
0001e0 47 fc c7 bc 96 28 16 bd 64 3c 5e 3b f0 0d c5 3b
       -0.024412287 -0.0366598 0.0033910507 0.0060136244
0001f0 91 5e 50 bc 28 be 2d 3c 38 d8 ac 3c 13 99 46 bd
       -0.012717859 0.010604419 0.021099195 -0.048485827
000200 91 cd 8f bd 68 d5 d2 bc cd c6 83 bc 93 b6 10 bd
       -0.070216306 -0.025736526 -0.016086007 -0.035330366
000210 85 92 b6 bc 47 01 0e bd 26 37 df bb ec b2 0a bb
       -0.022286663 -0.034669187 -0.006811994 -0.0021163775
000220 e4 1f 4f bc 57 0f 01 bc 9b 04 02 3d d3 f3 c7 bb
       -0.012641881 -0.007877192 0.031742673 -0.006102064
000230 a8 99 a0 3c bf d0 68 3c 69 bb dd bc ff b3 c4 bb
       0.019604519 0.014209925 -0.027066903 -0.0060029025
000240 c0 de 39 bd f2 93 b6 bd 49 a5 bd bc fa c4 80 bc
       -0.045378447 -0.08914937 -0.023150103 -0.015718926
000250 df ee 17 bd c6 d2 a5 bd ff 7c ea bc fb e2 da bc
       -0.03709304 -0.080968425 -0.028624056 -0.02671956
000260 3e b5 d3 bc e9 cb b1 bc 77 34 3b bd 28 c6 83 bc
       -0.025843259 -0.021703677 -0.04570433 -0.0160857
000270 b3 31 5d bc 99 43 0a 3c d9 fe 3c bd a7 93 3b bd
       -0.013500619 0.008438968 -0.04614148 -0.04579511
000280 fa 0f a0 3a 26 26 ef bb bc 01 0d be ff b0 31 be
       0.0012211793 -0.007298249 -0.13770193 -0.17352675
000290 54 31 07 bc 61 a1 d5 bc 84 34 83 bd e4 c0 c5 bd
       -0.008251507 -0.026077928 -0.06406501 -0.096559316
0002a0 12 8f a2 bd 68 f2 82 bd e7 19 32 bd ed c1 0d bd
       -0.07937445 -0.063938916 -0.043481734 -0.03460877
0002b0 26 7f 01 bd db 8a 0c bd d5 f2 89 3c 89 78 08 bc
       -0.0316154 -0.03431211 0.016839424 -0.008329519
0002c0 49 0d b6 bd 9b f4 ef bc d3 28 94 3c bf d3 15 bd
       -0.08889253 -0.029291442 0.018085873 -0.03657889
0002d0 27 e3 10 bd 48 ea 1d 3d fb 21 93 3b e4 1b af bd
       -0.03537288 0.038553506 0.004490135 -0.085502416
0002e0 3a a0 42 bc 31 a6 43 bd cf f8 bb bb d1 85 2b bd
       -0.011879021 -0.047765914 -0.0057364474 -0.041875664
0002f0 ac 98 4e 3b 25 46 c9 3d 83 c1 36 3d ec 5e 18 bd
       0.0031524105 0.09827832 0.04461814 -0.0371999
000300 fb d1 d8 b8 d1 56 8a 3c 3b d9 cd bd df 4b cc 3d
       -0.000103387945 0.0168871 -0.10051199 0.09975409
000310 56 73 84 3c f0 d8 c9 bd ce 0e 12 bc f9 17 95 bd
       0.016168278 -0.09855831 -0.0089146625 -0.07279963
000320 dc 18 2c bd bc 0f ab bd d7 1b 89 bc 5f 76 a3 bd
       -0.042015895 -0.083526105 -0.016736908 -0.07981562
000330 2b 30 11 bd 28 e9 3f bd 23 44 79 bb 46 dd 33 3d
       -0.035446327 -0.046853215 -0.0038034997 0.043912195
000340 3c 14 17 bd f3 0b 51 bd ff 06 08 bd c7 f1 f3 3b
       -0.03688453 -0.051036786 -0.033209797 0.0074445936
000350 40 8a 35 bd 9a e6 16 bc 08 03 23 bc 60 f2 1f 3d
       -0.0443213 -0.009210253 -0.009949453 0.039049506
000360 04 ba 18 bd b8 3e 88 3d 6a b4 c0 bd d9 ca 0c 3d
       -0.037286773 0.06652588 -0.09409411 0.034373138
000370 0f 96 18 bd ee 88 44 3d dd 18 7e bb a8 28 eb 3d
       -0.037252482 0.04798215 -0.0038772144 0.11482364
000380 c7 43 33 bc f8 07 6f 3b d6 21 85 3b 89 5d 92 bc
       -0.010941452 0.0036473256 0.0040628714 -0.017866867
000390 4b 41 b9 3b 18 75 5a bc a6 19 9f bc b6 0f a3 bc
       0.0056535355 -0.013333581 -0.01942141 -0.019904952
0003a0 52 63 4d bc 64 37 cb 3c 90 c6 7e bd 05 2b db bc
       -0.012535887 0.024806686 -0.062201083 -0.026753912
0003b0 3e 2b f9 bc a4 e0 a1 bd 39 51 0b bd 2d 52 e4 bc
       -0.030416127 -0.07904175 -0.034013007 -0.027871216
0003c0 ca d3 b6 bd 2e fe ed bd aa 5d 2d bd 6a 26 a2 3c
       -0.08927114 -0.116207466 -0.042325653 0.019793708
0003d0 bb b0 ba 3a f5 03 43 3e e9 fe c2 bb 47 89 08 3d
       0.0014243344 0.19044478 -0.005950798 0.033334043
0003e0 f4 21 c0 bc 69 22 8c 3c ab f2 6a 3c 11 ed 1e bc
       -0.02345369 0.017106252 0.014340083 -0.009700076
0003f0 b9 be 0b bd 2a 93 8f 3d b2 d5 a1 bd b3 ed 83 bd
       -0.034117434 0.07010491 -0.07902087 -0.06441822

conv2.bias f4 [64]
000000 34 05 dd bd 54 82 1c 3c 09 02 fa bd d2 e8 d4 bd
       -0.10792008 0.009552557 -0.122074194 -0.103959695
000010 c9 40 ce be d6 83 e9 bd 0d 8d 90 3c 9f 6c f9 bd
       -0.40283802 -0.11402099 0.017645383 -0.12178921
000020 9d f9 25 be b7 d1 c9 bd 4d be 17 be e4 f3 8b be
       -0.16208501 -0.09854453 -0.14818688 -0.2733451
000030 00 58 92 be 3d 37 f4 bd 94 fa 01 be 29 da 15 be
       -0.28582764 -0.11924598 -0.12693244 -0.14634003
000040 a8 8c 3e bf 2e 26 81 3d 3b 7a 06 be e5 55 1d be
       -0.74433374 0.0630611 -0.13132565 -0.15364797
000050 cb 71 18 3d fc 54 d7 3c 5c 71 ae be 90 f5 a3 3d
       0.037217896 0.02628564 -0.3407086 0.08005822
000060 56 b2 f9 bc 6c a5 0e be 1b 3e 3b be 41 66 24 3b
       -0.030480545 -0.13930291 -0.1828541 0.0025085362
000070 96 f3 0b bd b6 03 58 bd 62 11 ca 3c de d4 de be
       -0.03416785 -0.052737914 0.024666492 -0.4352178
000080 69 29 d0 bd f2 8d fd bd 2f 18 94 bd 7b 22 84 bd
       -0.10164148 -0.123805895 -0.07231175 -0.06451889
000090 bc cc 2a bf 24 81 2a bf 21 29 17 3b 86 7d 33 bd
       -0.6671865 -0.666033 0.0023065286 -0.04382088
0000a0 57 db ea be 3c f2 1c bf 98 fb 3d be 76 e7 36 be
       -0.45870468 -0.6130712 -0.18553007 -0.17861733
0000b0 a7 68 32 be e3 27 8d bd 7c 06 9a bd fe 41 25 bf
       -0.17422734 -0.068923734 -0.07520768 -0.6455382
0000c0 96 8c e7 bd 53 a3 2e be b3 eb 43 be 19 0e 36 3c
       -0.113061115 -0.17054491 -0.19132881 0.01111176
0000d0 15 d5 f5 bd 3d 34 cc bd c2 1d cf bd 22 da af bd
       -0.12003533 -0.09970901 -0.10113098 -0.085865274
0000e0 62 b1 c0 be e9 ac 09 be ab 01 7b bd 2c 24 01 be
       -0.37635332 -0.13444866 -0.061280888 -0.12611455
0000f0 c3 18 22 bf d6 16 f3 bd 41 0c 2f be ae 72 a4 bd
       -0.63319033 -0.1186959 -0.17094518 -0.08029686

conv3.weight f4 [128, 64, 3, 3]
000000 b2 d4 e9 3b cd 5f 8b ba d5 91 ac bb 19 4c 22 bc
       0.007135951 -0.0010633409 -0.005266408 -0.009905838
000010 e1 6c 0c 3c ca ca 57 3a ba 67 49 3a b8 f4 b5 3b
       0.008570881 0.0008231817 0.0007682998 0.0055528544
000020 83 44 54 3b e5 34 af bc da b4 2d ba d5 24 02 bb
       0.003238947 -0.021387527 -0.0006626375 -0.001985838
000030 81 9e ff 3c 4f 6d 3d bc 92 f5 2f bc 33 7e 32 3d
       0.03120351 -0.011561706 -0.010739701 0.043577384
000040 e0 45 16 3d c6 6f c0 3c 78 00 c8 3b 41 10 92 3c
       0.03668773 0.023490798 0.0061035715 0.017830016
000050 ec 3b ee 3c a0 04 c6 bb 80 53 0c 3d 32 d7 6e 3d
       0.029081307 -0.006043032 0.03425932 0.058310695
000060 e5 31 b8 bc f9 9b c6 3b a9 8b 8a 3c 06 6c b6 3b
       -0.022484729 0.006061074 0.016912298 0.0055670766
000070 4b 4b b9 3b e7 bd 57 bc f3 29 89 bc 5a 49 87 3c
       0.0056547276 -0.013167835 -0.016743636 0.016514469
000080 80 c0 95 bb bd 82 9a 3b d9 34 28 3b 62 c3 03 bc
       -0.004570067 0.0047152922 0.0025666265 -0.008042188
000090 0b f8 36 3d 23 ca f2 3c 38 71 88 3a bb 15 b7 3c
       0.044670146 0.029637402 0.0010409718 0.02234923
0000a0 9c 24 29 bd f4 b2 09 bd 5c 90 87 bd 06 99 03 3c
       -0.04129468 -0.03361793 -0.06619331 0.008032089
0000b0 9f 16 e4 3b fe 06 47 bc 69 c1 22 bd 67 b3 19 bc
       0.0069607045 -0.012147663 -0.03973523 -0.009381152
0000c0 24 6a 07 bc d2 2c a8 3c 57 81 78 3c 92 2c 1f 3c
       -0.008265052 0.020529184 0.015167556 0.009715216
0000d0 c5 8a 13 bb 5e db 31 3c 32 9c e4 3b 52 c1 fb bc
       -0.0022513133 0.010855524 0.0069766277 -0.03073183
0000e0 5e 07 e3 ba 48 11 06 bc a2 b7 bd ba 7c 9a 17 3c
       -0.0017320921 -0.008182831 -0.0014474283 0.009253141
0000f0 bc 20 9e bc 13 39 9f 3b 6a 43 27 3d d0 c3 bf ba
       -0.019302718 0.0048590987 0.040835775 -0.00146305
000100 5f 63 9b 39 e4 b4 97 b9 12 1b 0b b9 bd 93 08 39
       0.0002963794 -0.00028935738 -0.00013266157 0.00013025008
000110 0f 7b 44 b9 bf 7a 24 38 19 1b 40 3b 44 cd 97 b8
       -0.0001873786 3.9214963e-05 0.0029313026 -7.238475e-05
000120 f0 30 cf 3b a7 65 3e bd ac a6 bc bc df 54 55 3d
       0.0063229725 -0.046483662 -0.023028694 0.052082893
000130 dc 2a 89 bc b3 85 3d 3d 78 16 71 3c 77 8a b1 3c
       -0.01674407 0.046270084 0.01471483 0.02167247
000140 18 cd 2c 3d 61 a4 00 ba ff 4e 1a 3d f7 32 5e 3d
       0.04218778 -0.0004907307 0.037672993 0.054247823
000150 55 e3 30 bd d2 61 8a 3d 30 ec 80 bd 88 a9 8b ba
       -0.04318555 0.06756939 -0.06295049 -0.0010655383
000160 76 70 9b 3d fc 6f 0b bb 10 fa 1a 3c 4a cc af bb
       0.075898096 -0.0021276465 0.009459034 -0.0053649293
000170 45 7f 86 bb c3 fa 42 bb 59 b2 06 3c 32 3c bc 3a
       -0.004104527 -0.0029751516 0.008221232 0.0014361201
000180 5e bf 8b ba 63 87 27 bc 57 87 85 bc a2 cc 27 3d
       -0.001066189 -0.01022515 -0.016299887 0.040966637
000190 d2 0f f0 3c 85 b6 0f 3d 5f f3 1c bb 0b e4 04 bd
       0.029304419 0.035086174 -0.0023948771 -0.03244404
0001a0 ab d5 57 3a ce 58 89 bc 50 0b 08 3d 3f ef 64 3c
       0.0008233438 -0.016765978 0.033213913 0.013973056
0001b0 69 ae cb 3a a8 79 33 bc a5 53 ad bc 46 39 f4 bb
       0.0015539649 -0.010954298 -0.021158049 -0.0074531166
0001c0 c9 35 02 bd 0e 22 a0 bc 80 d0 49 3c 39 a5 59 bd
       -0.031789575 -0.019547489 0.012317777 -0.053136084
0001d0 be e0 7f bc 5e 2f dd 3b f9 62 07 3d 37 74 1b bc
       -0.015617548 0.0067500314 0.033053372 -0.009488157
0001e0 fa 56 5a 3c 0e 5e 9e bb f7 fb 09 bd 33 59 8b bc
       0.013326401 -0.0048329895 -0.033687558 -0.017010307
0001f0 64 1e 8b 3b 9e 3f 1a 3d 24 28 f7 bb b7 07 7c 3b
       0.004245566 0.037658326 -0.007542627 0.0038456747
000200 b4 1f 9a bb 43 13 05 bc 5d 87 b9 3a f2 aa 19 3b
       -0.0047034863 -0.008122268 0.0014154721 0.0023447839
000210 e5 7c 18 3b 2a 49 76 3b 24 50 0e 3b cc 05 35 bc
       0.0023267802 0.003758023 0.0021715248 -0.011048745
000220 94 a8 40 3b 45 56 bb ba 2b d4 66 3c a7 ef a7 ba
       0.0029397355 -0.0014292678 0.014088671 -0.0012812511
000230 f6 90 41 bb c0 71 42 bb 08 d0 50 3b 00 5d 4b bb
       -0.0029535866 -0.002966985 0.0031862278 -0.0031030774
000240 24 a5 90 3c d7 82 9d 3d 80 68 ca bc c6 62 fc 3c
       0.01765687 0.07690971 -0.024708033 0.030808818
000250 ae c1 18 bd 59 d6 8c bc d2 7a 6f bd 9a 08 a4 3c
       -0.037294082 -0.017192053 -0.05846674 0.020023633
000260 e5 64 0e bd f6 2e 6d bc 47 02 11 bd b8 4a b8 bc
       -0.03476419 -0.014476528 -0.035402562 -0.022496566
000270 9d 1d 70 bc c3 02 db bb 14 cc 10 bc b7 c0 d1 3c
       -0.014655498 -0.006683679 -0.0088377185 0.025604589
000280 5f e3 eb 3c f1 06 a6 3b 44 ae 01 bb df 06 32 3c
       0.028794942 0.0050667454 -0.0019787708 0.010865896
000290 27 6a 1f bb 31 01 47 bb c6 5e 52 3c 11 96 dc bb
       -0.0024324746 -0.00303657 0.012839979 -0.0067317565
0002a0 99 58 7f 3b 06 d9 c1 3b e2 39 14 3b 63 9a 84 39
       0.003896272 0.005915764 0.0022617509 0.0002529203
0002b0 fc 9d 98 3c fc 90 e4 bb aa cb 7a 39 fd 54 f8 3b
       0.01863002 -0.0069752913 0.00023917729 0.007578491
0002c0 75 02 62 3b f2 5e 38 3b f1 b2 f1 3c 2b fb 11 bc
       0.0034486328 0.0028132764 0.029504271 -0.008909981
0002d0 73 29 94 bc 88 85 5a 3d cf ef 9d bd f0 cf 27 3c
       -0.01808617 0.05335 -0.077117555 0.010242447
0002e0 53 4a 15 3d eb 8d 2e bd 08 0a 9d bc cc 13 78 3d
       0.036447834 -0.042615812 -0.019169822 0.060565755
0002f0 54 0c e5 bc 23 3e 0e 3c 27 bb 3e 3d 50 30 8d 3c
       -0.02795998 0.008681807 0.0465652 0.017234951
000300 03 24 41 ba 74 9c 5f 3a 8d 00 70 3c 3e 9c 52 bc
       -0.0007367732 0.0008530088 0.014648569 -0.012854634
000310 9e bd a8 3c 09 06 86 3c 0b 26 4c 3d ae ca 7e 3d
       0.020598229 0.0163603 0.049840968 0.06220501
000320 e7 13 59 3d e9 ad 6e bd d2 d9 a2 bc 78 46 24 3d
       0.052997496 -0.058271322 -0.019879255 0.040106267
000330 2d 2c b4 bc dc be c6 3c bb 80 b5 3c 79 18 22 bc
       -0.02199372 0.02426093 0.02215611 -0.00989353
000340 08 88 3c bc 0c bc d4 bb 1c 80 22 bd a6 67 b0 bd
       -0.011507042 -0.0064921435 -0.039672956 -0.08613519
000350 76 33 53 bd 80 c0 a4 3d 29 3a 99 3d 8e 60 a4 3b
       -0.05156275 0.08044529 0.07481796 0.005016393
000360 8e 58 95 bb ea 5c c4 bb cb 40 f6 3a 8a 05 26 3b
       -0.0045576757 -0.0059925215 0.001878762 0.0025332891
000370 5a 25 66 bc c7 4c d6 ba 17 7d ea 3a 89 f7 93 bb
       -0.014046991 -0.0016349786 0.0017890063 -0.0045155925
000380 11 09 5f bc 15 55 5c 3c 47 70 31 3c 82 09 7b bc
       -0.013613001 0.0134480195 0.010829992 -0.015322091
000390 41 2f a4 bc df 39 8f ba af b4 ae bc ed 89 5b bc
       -0.020042064 -0.0010927281 -0.021326391 -0.013399583
0003a0 6e 48 8a bc ec 16 36 bc 87 fd c4 3b 4d 66 ca bb
       -0.01688024 -0.011113863 0.006011668 -0.006176746
0003b0 d2 7d 8f 3c 49 14 37 3c 19 73 a8 3b 86 ce 23 bc
       0.01751605 0.01117427 0.005140674 -0.0099979695
0003c0 54 29 0d 3c 80 b4 c7 bb 84 b8 89 bc a4 32 0f 3d
       0.00861581 -0.0060945153 -0.016811617 0.034960404
0003d0 20 aa 71 bc dd 73 8b 3c 5e 1b b8 3c a0 04 12 3c
       -0.014750034 0.017023021 0.022473987 0.0089122355
0003e0 4e 58 13 ba 38 8c 8a 3c 6b e9 b4 bc 99 4f 5c bc
       -0.00056207634 0.016912565 -0.022083959 -0.013446712
0003f0 d6 8e 2a bc 08 bd f4 3b 06 07 91 bc 92 b5 8b 3c
       -0.010410031 0.0074688233 -0.017703544 0.017054353

conv3.bias f4 [128]
000000 e3 1c 35 be 84 97 30 bd 3b 48 25 bf b5 2d a8 be
       -0.176868 -0.043113247 -0.6456334 -0.32847372
000010 dc 5a 8f bd b6 f5 f4 bd 8f 14 8b bd aa 9a d1 be
       -0.06999752 -0.11960928 -0.067910306 -0.40938312
000020 c2 cc b2 be 16 98 1d be fb 4b 05 be 2a 56 93 bd
       -0.34921843 -0.15390047 -0.13017265 -0.07194169
000030 ea 1a d1 bd e1 8b 73 be 7d e5 df bd 23 38 f0 3c
       -0.102102116 -0.23783828 -0.10932443 0.029323643
000040 6a 1d d8 bd eb 4f 29 be 9b 21 41 bd 23 b0 fe bd
       -0.10552485 -0.16534393 -0.04715119 -0.12435939
000050 71 d1 2e be e5 d9 04 be 71 e4 52 3d 6f b8 1f bd
       -0.17072083 -0.12973745 0.05148739 -0.03899425
000060 22 67 9c bd 68 34 e7 bd 44 97 aa bd a6 1c 04 be
       -0.076368585 -0.112892926 -0.08329633 -0.12901554
000070 9c a5 32 bd 7e ea 21 be 6b f3 18 bd 54 c5 ca be
       -0.04361497 -0.15812108 -0.037341516 -0.39603674
000080 6a d2 91 be b1 21 85 be 07 73 a8 be 02 80 10 be
       -0.28480846 -0.26002267 -0.3290026 -0.14111331
000090 80 53 f4 bd 6d 43 e2 bd 2d 89 bb be f0 85 cc 3b
       -0.11929989 -0.11048017 -0.36628094 0.0062415525
0000a0 dd f9 b0 be 11 ef 2c bd e2 e4 1b be 2f 26 7d be
       -0.3456563 -0.04222018 -0.1522403 -0.24721597
0000b0 27 85 2e be ca d0 75 be 7c 0e c8 be 1d e5 d5 bd
       -0.17042981 -0.24005428 -0.3907355 -0.104440905
0000c0 e3 87 e2 bd 80 ad b9 be ef ac 11 be a8 81 2c bd
       -0.110610746 -0.36265182 -0.14226125 -0.042115837
0000d0 d6 d8 38 bd 1c 9c f3 bd e1 f7 19 be 77 9f f1 bd
       -0.045128666 -0.1189501 -0.15035965 -0.11797994
0000e0 ba 75 a6 bc 6d 77 61 be c7 8d 38 3d 77 64 e7 3c
       -0.020319808 -0.22018214 0.045057084 0.028246148
0000f0 63 0f 98 be b1 63 50 be 42 3e c7 be ed 0b 87 be
       -0.2969924 -0.20350529 -0.38914686 -0.26376286
000100 d4 5f 65 3e 08 e8 9f 3e bd 1b fa bd 15 87 ff bc
       0.22399837 0.31231713 -0.12212322 -0.031192342
000110 7c 1f 3f be ba ad 31 be fa 01 76 3e a6 3f f1 bc
       -0.18664354 -0.17351428 0.24024191 -0.029449295
000120 e9 16 52 be 39 46 5f be 1f 59 85 be 6d 79 e2 ba
       -0.20516552 -0.21804132 -0.26044556 -0.0017278619
000130 f9 9c a9 bd fb 4f 10 be b4 36 06 be 75 7a 47 be
       -0.08281893 -0.1409301 -0.13106805 -0.19480307
000140 c7 d6 b4 bd 4b bc 9a be 73 8e 00 bd d9 87 89 be
       -0.08830028 -0.3022178 -0.03138585 -0.26861456
000150 43 a0 93 3b 55 95 10 bf b7 34 f7 bd 5c b8 48 be
       0.0045051887 -0.5647786 -0.120706014 -0.19601578
000160 f4 d1 c5 bd a9 6b 6f 3e ce 08 d8 bd 6b 35 4e 3e
       -0.09659186 0.23380913 -0.10548554 0.20137565
000170 3c 25 c1 3c 72 41 e9 bd df 1b 44 be 42 30 96 bd
       0.023577325 -0.11389436 -0.19151257 -0.07333423
000180 4d 87 21 be 0f 82 be bd 51 8c 16 be 37 3d 38 be
       -0.1577427 -0.093021505 -0.14701964 -0.17992102
000190 13 88 e8 be 46 a4 f3 bd 43 4a 27 be 88 de 92 be
       -0.45416316 -0.11896567 -0.16336922 -0.28685403
0001a0 a4 f7 1d be e6 38 98 bd af c6 10 be 12 57 11 be
       -0.15426499 -0.074327275 -0.14138292 -0.14193371
0001b0 f5 a0 9c bd 28 43 a4 bd ab 13 ca bd be 65 e7 bd
       -0.076478876 -0.080206215 -0.098670326 -0.11298703
0001c0 d1 22 6c 3c 44 34 80 be cf ae 48 3c b0 54 22 be
       0.014412598 -0.25039876 0.012248709 -0.15852618
0001d0 18 7c 9d bd c6 64 bb bd 02 2c 80 be 2a 6d 55 bf
       -0.07689685 -0.091500804 -0.25033575 -0.83369696
0001e0 0f 98 77 be 9a 46 75 bd dc 6c be bc 32 32 5e be
       -0.241791 -0.059881784 -0.023245268 -0.21698835
0001f0 57 02 f9 be 21 93 21 3d 3d 2c 0b bf 4c e4 8a be
       -0.48634598 0.039446954 -0.5436438 -0.27127302

p_conv1.weight f4 [4, 128, 1, 1]
000000 7b c9 38 3e cd 8e a3 bd 5e 31 ae be ec 7e 60 3e
       0.18045609 -0.079862215 -0.3402204 0.21923417
000010 d7 0c 4a 3e da bd 08 3e e5 b6 90 3e 35 b1 62 bc
       0.1973146 0.13353673 0.28264537 -0.013836195
000020 a0 9d 2e be fc ef 2a 3e 40 7c ee bd 28 db b0 3d
       -0.17052317 0.1669311 -0.116447926 0.08635551
000030 53 2c bd bb 59 8c a3 bd bd 9e a5 bd 2b fa c1 3d
       -0.005773106 -0.079857536 -0.080869175 0.09471544
000040 68 7c b0 bc 3c 71 8c 3b ba 52 59 bb 45 e0 53 3d
       -0.021543697 0.0042859595 -0.003316088 0.051727552
000050 3e 8b d7 bc 8d 0c ae bc 47 6a 96 3d d5 e9 6e bd
       -0.026311513 -0.021246219 0.073444895 -0.05832847
000060 4d 8f dc 3c e6 39 bd bc 81 1c db bc b1 d9 2e bc
       0.0269238 -0.023098897 -0.02674699 -0.010672019
000070 8e 89 23 be 11 6c 3d bd ec ff e8 3d 3f e9 22 3d
       -0.15970442 -0.04624564 0.11376938 0.039773222
000080 9d 67 c8 3d cb 77 4e bd 06 98 5f bc 92 db b1 3c
       0.09785388 -0.050407212 -0.013647085 0.021711145
000090 df bf 83 3d d9 3b d6 3d 5b bd 14 3e 35 8d 2e 3d
       0.06433081 0.10460634 0.14525358 0.042615134
0000a0 a6 92 61 bc fd d3 f3 3c 81 9c 9e bd d0 48 2c be
       -0.013767874 0.02976417 -0.077446945 -0.16824651
0000b0 22 fd 94 bd d1 b0 0d 3b e7 a4 90 bd 12 1a f9 bc
       -0.07274844 0.0021620283 -0.070627026 -0.03040794
0000c0 32 79 23 bd 25 3b b9 bc e4 25 f5 bc 23 74 10 bd
       -0.039910503 -0.02261121 -0.029925294 -0.035267007
0000d0 71 19 a9 3c 75 79 c5 bd d5 8e 12 bd 40 cc 03 3d
       0.020642014 -0.09642307 -0.035780746 0.03217721
0000e0 11 4c 41 bc 1e 1d 11 be a0 ef 75 bc 80 eb 0c be
       -0.011797921 -0.14171264 -0.015010744 -0.13761711
0000f0 02 1a 41 3d 19 52 90 3a fa ae 84 3c 50 b7 8d bc
       0.047143944 0.0011010795 0.016196717 -0.017299324
000100 f3 09 9c bf bd 05 34 bd 45 9e ab bd 58 e2 95 3d
       -1.2190536 -0.043950785 -0.08379797 0.07318562
000110 a7 ef de 3b ea 35 9b bd 78 68 ac 3d 00 e5 80 3c
       0.006803471 -0.07578643 0.08418363 0.015734196
000120 87 eb c3 3c c0 3f a0 bd c9 53 a3 bd 7a eb 19 bd
       0.02391602 -0.07824659 -0.07974965 -0.037578084
000130 c5 74 23 bd 7c 39 0b bd 2b 5d 05 3f d0 5d 15 3e
       -0.039906282 -0.03399037 0.5209529 0.14586568
000140 3d 39 1b 3e d6 82 8c 3c 26 59 ce bc 4b 7e 5c 3c
       0.15158553 0.017152231 -0.025188994 0.013457845
000150 8a 89 47 bd 13 ba de 3e 8b a7 a0 3d d5 44 d8 bc
       -0.04871515 0.43501338 0.07844456 -0.02640001
000160 3e ac 9f bc 1c 66 5b 3e 83 22 aa bd a0 ed 57 bc
       -0.019491311 0.2142567 -0.08307364 -0.013179213
000170 3b 36 51 bc 56 dc 28 3c 83 dc 38 3e fa 51 81 bc
       -0.012769277 0.010306438 0.18052869 -0.01578616
000180 21 bc c2 bc bb b7 25 bd d9 e6 9d 3d ea dc 1d 3c
       -0.023771347 -0.040458422 0.07710046 0.00963519
000190 e3 ee 70 3f 22 e3 3c 3d 12 aa 48 bd e0 40 53 3c
       0.9411451 0.04611505 -0.048990317 0.012893885
0001a0 20 d6 34 3e 9e b2 8e 3c 52 4d 6a 3d 1c 8c 20 bc
       0.17659807 0.017419156 0.057202645 -0.00979903
0001b0 42 6b fd bc 17 27 20 bd 72 28 8a 39 9f 30 b1 3c
       -0.030934934 -0.03909978 0.00026351545 0.02162963
0001c0 9d 0c a1 3d bc 45 a8 3a d0 7f e5 3d 45 3c 61 be
       0.07863734 0.0012838165 0.11206019 -0.21995647
0001d0 a8 50 95 bc 64 e8 b9 3c 6f 2d 01 3d fe 98 31 bd
       -0.018226936 0.02269382 0.03153747 -0.043358795
0001e0 b7 f7 10 bd 29 8a b8 3c 79 7c 27 3c 67 1c 79 bc
       -0.03539249 0.022526817 0.010222548 -0.015204526
0001f0 80 7a f0 bd 03 73 03 3d 06 a4 d8 3c 57 14 55 3e
       -0.11742115 0.032092106 0.0264454 0.2080854
000200 6d 4a 39 bd 87 77 e2 bb 4d 0f c2 be 66 99 82 3e
       -0.045236994 -0.0069112214 -0.379023 0.2550766
000210 50 07 6d 3d 03 d6 31 3e 14 13 94 bd f9 ca 43 bd
       0.057868302 0.17366795 -0.07230201 -0.04780099
000220 3d d0 ea bd cb cd ff bd 5d a5 37 be 3c 5c ba bd
       -0.114654996 -0.12490424 -0.17934175 -0.090996236
000230 da 71 64 3d 05 c4 eb bd c0 cc 8c bd b8 4a af 3d
       0.05577264 -0.11511997 -0.068749905 0.08559173
000240 27 c5 d4 bd c9 33 c4 bd 8f 08 2f 3c 29 4d fc bc
       -0.10389166 -0.0958019 0.010683193 -0.030798512
000250 62 0d 13 be 28 a7 af 3b 22 80 6f bb 39 0d bb 3c
       -0.14360574 0.0053605027 -0.003654488 0.022833453
000260 73 2e 2f bd e2 65 de bd 47 f9 8c bc a3 a0 82 3c
       -0.042768907 -0.10859276 -0.017208708 0.015945738
000270 c7 7e 08 bd e5 ef 3d bd a0 df 61 3a 19 54 ac 3d
       -0.03332403 -0.04637136 0.00086163916 0.08414478
000280 26 cf c9 3b 68 24 8b 3d 1e e9 cb 3b 20 a1 c6 bd
       0.006158727 0.06794053 0.006222858 -0.09698701
000290 69 c4 f7 39 9d 40 f3 bb 4b 48 f5 3d c3 0b 45 bb
       0.00047257848 -0.007423474 0.119766794 -0.0030066825
0002a0 53 09 e7 bd 07 ed 37 3c 85 14 ba bd fe 85 bc bd
       -0.11281075 0.011225945 -0.09085945 -0.092052445
0002b0 ff d3 4c be 6d 75 13 bd 7b ca 48 be 70 a5 bd 3a
       -0.20002745 -0.036000658 -0.1960849 0.001446886
0002c0 a4 b5 c5 bd 1a fa ed bd ce 26 6c bc 76 bb aa bc
       -0.09653786 -0.11619969 -0.014413549 -0.020841341
0002d0 eb e5 ba 3d b3 60 77 bd 74 85 5c bd d1 88 f5 bd
       0.091258846 -0.060394954 -0.05383821 -0.11988986
0002e0 72 39 4a 3d 15 53 04 bd 5c c0 6d 3c 32 3e 1b 3d
       0.04937119 -0.032305796 0.014511194 0.03790111
0002f0 99 7d 07 3d ef e8 db bd 84 ed 81 3c df 6a 4d 3d
       0.033078764 -0.10737788 0.015860327 0.05015075
000300 44 70 b8 3e aa f7 d9 bd 0e ef 74 bd cf 2c 22 bd
       0.36023152 -0.10642941 -0.059798293 -0.039593514
000310 4b e2 d3 bd 73 d0 24 be 18 bb fc 3e 10 32 c0 3c
       -0.10345896 -0.16095142 0.4936149 0.023461372
000320 69 a8 7c 3e 5e 7f 5e be a9 ed 2f be 1f 63 23 ba
       0.24673618 -0.21728274 -0.17180504 -0.0006232727
000330 a5 23 92 bd 21 05 b6 bd 7c ab 2f 3e 9b 7c ba 3d
       -0.07135705 -0.08887697 0.1715526 0.09105798
000340 2c 10 33 bd fb 44 95 bd 8e 07 8e 3c ae be 5c bd
       -0.043716595 -0.072885476 0.017337587 -0.053892784
000350 fd f3 12 bd e5 dc 14 bd fb 3b 04 bc 11 a9 e6 3a
       -0.035877217 -0.036343474 -0.008070941 0.0017597993
000360 64 68 56 be 99 9a 65 3c d7 4a d4 bd 45 7a b5 3d
       -0.2093826 0.01401391 -0.10365837 0.08861212
000370 c3 40 0b bd 78 3b 07 be 1a 25 cc 3c e3 8c db 3b
       -0.03399731 -0.1320628 0.024920035 0.0067001446
000380 82 11 52 3e 99 d1 5e be ef fd c3 3d f1 04 a4 bc
       0.20514491 -0.21759643 0.09569918 -0.020021887
000390 6c f0 8b bd ea a3 f7 3c 89 b9 10 bd c1 bf 01 bc
       -0.06832966 0.030229528 -0.03533319 -0.007919253
0003a0 6c 14 97 3c aa 17 ff bd 03 d6 40 3e f4 2f 08 3e
       0.018442355 -0.124556854 0.18831639 0.13299543
0003b0 51 d8 ac bd 57 b0 f8 3d fd 84 d6 bc 28 29 d0 bd
       -0.084396966 0.12143009 -0.02618646 -0.101641
0003c0 e0 e4 8d 3d 22 5a a2 bb 09 15 01 3c 36 54 98 be
       0.0692842 -0.0049545923 0.00787855 -0.29751748
0003d0 39 dd ec bc f5 08 0f be d6 49 e8 3b 32 48 bb 39
       -0.028914081 -0.1396826 0.00708888 0.0003572121
0003e0 53 96 62 be f4 46 94 3d aa 8e 65 3b 6c 40 d5 3c
       -0.22127657 0.07240096 0.0035027661 0.026031695
0003f0 ea 08 39 bd 54 db 7b 3c ad 03 05 3f 4d db ae bd
       -0.045174517 0.015372116 0.51958734 -0.08537922

p_conv1.bias f4 [4]
000000 8b 42 94 3e bc 39 0a 3e bb cf 63 bd b9 e2 26 3e
       0.28957018 0.13498586 -0.05561803 0.16297425

p_fc1.weight f4 [64, 256]
000000 30 a0 2b 3d 5b 13 f4 3c e8 91 dc 3c 64 76 84 bc
       0.041900814 0.029794386 0.026925042 -0.016169734
000010 03 ec 98 3a 97 6e 75 3c 27 02 19 3d f8 94 53 3d
       0.0011667017 0.01497998 0.03735557 0.05165574
000020 8f bd 90 3d 02 16 d4 bb c3 74 5d 3d 72 16 b7 3c
       0.070674054 -0.00647235 0.05406643 0.02234957
000030 76 1e 4d 3d 4f c6 f2 3d ea 1b b1 3c 59 cf b0 3c
       0.050077878 0.118542306 0.021619756 0.021583246
000040 44 bd 1e 3d 3b a5 1f 3c 4f cf 2a 3d 96 01 24 3d
       0.038754717 0.009743984 0.04170161 0.040040575
000050 7d 56 2d bd 1a 78 4f 3d 4a 1a 29 bb 1d b6 72 3d
       -0.04231881 0.050651647 -0.0025803023 0.059255708
000060 64 dc 6d 3d 85 a0 e6 3c 27 20 ed 3c 3e dd 5b ba
       0.05807151 0.028152714 0.028945995 -0.00083871547
000070 46 d3 ad 3c 3b 58 1e 3c 18 25 92 bb a3 87 84 3c
       0.021218907 0.0096645905 -0.0044599883 0.016177958
000080 1c 45 49 3d af e7 5d bd 74 ec 58 3e 52 41 f9 bb
       0.049138173 -0.05417603 0.2118395 -0.0076066637
000090 c7 f6 88 3d 29 8a dc 3c 6d 78 fd 3c 04 88 ab 3c
       0.06687694 0.026921349 0.030941213 0.02093888
0000a0 fa ff d3 3d de 52 6d 3e d2 1c 1c bd d8 96 1a 3c
       0.10351558 0.23176143 -0.038113423 0.009435378
0000b0 6a 82 89 3c 3c b9 07 bc af 31 02 3d 26 dd 23 3d
       0.01678582 -0.008283909 0.031785663 0.040005825
0000c0 1b d7 9c bf 49 7c 05 3d 71 3c 30 3d 21 92 a4 3d
       -1.2253145 0.03258923 0.04302639 0.080356844
0000d0 6a 9c 39 3d 23 a7 92 3d ca 87 22 3d 43 21 a4 bc
       0.045315184 0.07160785 0.03968028 -0.020035392
0000e0 da b9 c4 3a ff 88 04 3d 09 58 ff 3b 7d 61 90 bc
       0.0015009001 0.032357212 0.007792477 -0.017624611
0000f0 12 7e 62 3c 92 36 fd ba 22 c7 60 bd 81 e4 62 bd
       0.013824003 -0.0019318631 -0.054877408 -0.0553937
000100 03 34 ee bc b1 07 ad 3b f1 77 da 3b 18 50 00 3d
       -0.029077535 0.005280458 0.00666713 0.031326383
000110 92 14 9f 3c 43 84 6a 3d bd 9a c7 3c 8e 8f 54 3c
       0.019418988 0.05725504 0.024365777 0.012973679
000120 17 92 73 3d 0a 73 0a bc 1e ef ef 3b 0e 89 75 bc
       0.059465494 -0.008450279 0.007322206 -0.01498629
000130 25 96 13 bd db 9d a0 bc 02 90 34 bd 2b 45 98 bc
       -0.03603186 -0.019606521 -0.04408265 -0.01858767
000140 94 2c 9d bc 24 5d 8b bd 1d 12 3f bd a0 11 bf bd
       -0.019186296 -0.068048745 -0.046648134 -0.093295336
000150 f4 f3 6c bd 8c 2c 29 bc ed 6c 14 bd 5c 84 4a bc
       -0.05784984 -0.010325562 -0.036236692 -0.0123606585
000160 3e 1d fc bc e4 62 c6 3b bc 18 be bd 4a 95 fa bd
       -0.030775663 0.006054269 -0.092820615 -0.12235506
000170 14 d0 dc bc e3 fc 38 bb ec 33 6c bd 2f 55 7b bd
       -0.026954688 -0.0028226904 -0.057666704 -0.061360534
000180 2c e5 df 3c 48 9a a1 bc 20 17 0b be 86 d5 2f be
       0.027330957 -0.019726887 -0.1358304 -0.17171296
000190 08 80 b3 bd 05 9c 81 bd f9 ce bb bc 77 79 50 bd
       -0.087646544 -0.063285865 -0.02292584 -0.050897088
0001a0 bf 77 8e 3d 7f 1b 2c 3d 40 0d 75 be 83 e6 1a be
       0.069564335 0.04201841 -0.23930836 -0.15126996
0001b0 3c 5e c8 bd 4f b6 15 3c 73 ee bd bc 72 b8 59 bd
       -0.09783599 0.009137704 -0.02318499 -0.053154416
0001c0 ba 56 c8 3e ab 05 8d be af cc fb bd dc d4 a1 3d
       0.39128667 -0.27543387 -0.122949 0.07901928
0001d0 68 f0 9a bc 9e ba 36 bd ff 55 c6 bc 80 7f 78 3c
       -0.018913463 -0.044611566 -0.024210928 0.015167117
0001e0 8e a5 4c be 1e 0c 9a be 74 ae ce bd ab 72 02 bd
       -0.19985029 -0.3008737 -0.10091868 -0.031847637
0001f0 24 10 31 3d 9e ce 16 3d d1 ce c5 3c 6d 02 6f bb
       0.043228284 0.03681814 0.02414647 -0.0036469952
000200 33 e6 a9 bc 66 b5 ce 3c f8 37 c3 3c 02 c0 45 3d
       -0.02073965 0.025232982 0.023830399 0.048278816
000210 19 43 25 3d 38 b0 1f 3d 54 61 a3 3c f7 ef 13 3d
       0.040347192 0.038986415 0.01994387 0.03611752
000220 9c d2 62 bd 3d fb 8f 3c 23 42 8f bc 5a 15 73 bd
       -0.055376634 0.017575854 -0.017487591 -0.059346534
000230 72 f6 3c bd 4c 3a 2d bc a7 95 fb bc 7d 32 93 3c
       -0.046133466 -0.010572981 -0.030711008 0.01796841
000240 92 16 9f bc 54 a4 ed bc da 4e 68 3d dd 8d d4 3c
       -0.019419942 -0.029009022 0.056715824 0.025946552
000250 5d 54 fd 3c 75 79 40 bd 2d 8c 50 3c 50 d1 10 bd
       0.030924017 -0.04699083 0.012728733 -0.035355866
000260 88 a2 06 bb f5 02 8c 3c da cd e7 bc 1b af be 3d
       -0.0020543654 0.017091254 -0.0282964 0.093107425
000270 29 aa c5 3c fe cb d7 bb 77 c7 77 bc 5c b0 ea bc
       0.02412899 -0.006585597 -0.01512324 -0.028648548
000280 68 32 26 3d 46 19 71 bd 78 5b 7a 3d ed 36 8f 3d
       0.040575415 -0.058861993 0.061122388 0.06992898
000290 91 22 0d bc 13 70 1e 3d 20 a9 d6 3c d6 f4 5d 3c
       -0.008614198 0.0386811 0.026203692 0.013547143
0002a0 d7 eb 81 bd a8 dc 9a 3d e8 d4 4b 3d ab 63 2d 3e
       -0.06343811 0.07561618 0.04976359 0.16932552
0002b0 e7 bf c9 bc 36 ae 06 3d c4 3f e0 3c cf e7 0e bd
       -0.024627639 0.032880984 0.027374156 -0.03488904
0002c0 05 19 36 3e 41 70 95 3e bd 45 84 3e e6 ad d4 3b
       0.17782982 0.29187205 0.25834456 0.006490457
0002d0 50 e3 f5 3c 8b e1 26 bd 25 0b 7d 3d 8b b0 1d bc
       0.030015618 -0.04074244 0.061778206 -0.009624611
0002e0 40 f1 47 3e 09 58 35 3e cc 80 08 3d bb cd 39 bd
       0.19525623 0.17709364 0.033325955 -0.045362215
0002f0 8d a5 dd bc 2f 10 40 3d be 2f 58 bd 5b f1 b5 bc
       -0.02705648 0.046890434 -0.052779905 -0.022209814
000300 f6 c2 28 bd 3f 36 29 3d 2a db a0 bc 94 df 13 bd
       -0.041201554 0.0413115 -0.019635756 -0.036101893
000310 16 28 f6 3c b7 1f 81 bc 90 55 9c 3c 5c fc 12 3c
       0.030048411 -0.015762193 0.019083768 0.0089713
000320 b0 32 6a 3c 08 e3 ef bc a8 88 62 bd 35 72 d6 bc
       0.014294311 -0.029283062 -0.055306107 -0.026177505
000330 12 15 6e bd da e4 ac bd cc 6f 46 bd f6 01 09 bd
       -0.058125563 -0.084420875 -0.04844646 -0.033449136
000340 8a 8e 44 3c ff fd 5b bd 17 50 f7 3b a1 f2 9c bd
       0.011996875 -0.053709026 0.0075473893 -0.07663465
000350 f7 19 87 bd ef 80 04 3c 27 4d 3a bd 37 fb fb 3b
       -0.06596749 0.008087381 -0.045483734 0.0076898593
000360 b0 87 10 3d f2 96 83 bc 0e 1d 7c bd 05 75 09 be
       0.03528565 -0.016063187 -0.061551146 -0.13423546
000370 86 ee 82 ba ae d4 ca bd ec 1c 90 bd 44 0a 20 bd
       -0.0009989298 -0.09903847 -0.070367664 -0.03907229
000380 33 47 d3 bc 3f 52 b4 3c fa e6 7d bd 33 b5 20 be
       -0.025790786 0.022011874 -0.061987855 -0.15694122
000390 00 dd 93 bd 6c 00 a4 bd 78 b6 92 bc 57 b9 c1 bc
       -0.07219887 -0.08007893 -0.017909274 -0.023647947
0003a0 da 5b 9b bd f3 ac 07 3d b4 b8 6f be e1 be 11 bb
       -0.07585879 0.03312392 -0.23410302 -0.0022239017
0003b0 42 9e f6 bd 97 64 da bc d1 64 dc bb 8c b5 fc 39
       -0.12041904 -0.026659293 -0.0067258854 0.00048200449
0003c0 62 4a 76 be a1 26 88 be 38 2a 8a 3b 2c 11 10 bc
       -0.24051812 -0.26591972 0.0042164586 -0.008793157
0003d0 68 3a d7 bb 4b 1b 50 bd b7 9f 07 bd 0d 3f 04 bd
       -0.006568242 -0.05080728 -0.0331113 -0.032286692
0003e0 3f 72 63 be 43 4f ad 3e 21 c0 cb 3d b4 9e 05 3b
       -0.2221155 0.33849534 0.09948755 0.0020388784
0003f0 65 df 74 bd fc 7e 07 bd f8 e8 12 3d 75 19 94 3a
       -0.059783358 -0.033080086 0.035866708 0.0011299091

p_fc1.bias f4 [64]
000000 d9 0d 4b bd 40 6a 03 bd 90 57 81 bd 94 ac 0a be
       -0.049573753 -0.03208375 -0.06315529 -0.13542396
000010 0c fe 0d be cc 74 8b bd d7 4e 4d bd e5 57 68 bd
       -0.13866442 -0.068093866 -0.050124016 -0.056724448
000020 65 a1 be bc c5 28 9c bd 49 78 44 3d 82 8a 1e ba
       -0.023270318 -0.07624964 0.047966275 -0.0006047861
000030 9c ef 07 bd a8 5d 2c bd 05 3e c5 bd fa de 90 bc
       -0.033187494 -0.042081505 -0.0963097 -0.017684449
000040 a9 ec 2f bd 4c 69 26 bc 80 ee ac 3d c9 bc c4 3d
       -0.042950306 -0.010156941 0.08443928 0.096063204
000050 60 19 d8 3d 6a d3 4d 3d 11 15 21 bd 24 0f 59 bc
       0.10551715 0.05025045 -0.03932673 -0.013248239
000060 7e 79 90 bd 2f da c8 bb 57 f4 f5 3d 20 35 30 3e
       -0.07054423 -0.006129525 0.12009495 0.17207766
000070 18 ba 34 3e df 04 a5 3d 79 54 2d bd e6 db 2c bc
       0.17649114 0.0805757 -0.042316888 -0.010550475
000080 fb 71 d1 bd a1 2e f3 bc f3 89 f9 3d fc 58 44 3e
       -0.10226818 -0.02968532 0.12184515 0.1917457
000090 b4 df 3d 3e fe a9 08 3e f6 b5 1f 3c 2e df aa bc
       0.18542367 0.13346097 0.009747973 -0.020858373
0000a0 28 b1 64 bd 9a a0 dc bb 67 a8 9a 3d 13 00 b1 3d
       -0.055833012 -0.0067330124 0.075516514 0.08642592
0000b0 92 e7 ae 3d 98 31 05 3e 9e d1 95 3d 90 86 cb 3c
       0.08540262 0.130072 0.07315372 0.024844438
0000c0 19 40 32 bd 45 9b b6 bd 19 b9 b3 3b 4a 22 f6 3c
       -0.04351816 -0.08916334 0.005484712 0.030045647
0000d0 b9 4f 50 bc 19 2f 88 3c ab d0 d8 bd 23 c2 50 ba
       -0.01271432 0.01662402 -0.10586675 -0.0007963499
0000e0 03 4b 48 bd 57 de 82 bd 3b 28 ce bc a9 16 d1 bd
       -0.04889966 -0.06390064 -0.025165668 -0.102094
0000f0 00 86 d4 bd 23 af 26 bd 92 03 d6 bc 43 17 3b 3d
       -0.10377121 -0.040694367 -0.02612475 0.04567648
