model/cnn/8x8/4aw/other5/_8.pt (torch_old, 478657 bytes, 15 tensors)

conv1.weight f4 [32, 4, 3, 3]
0	0xbd862c92	-0.0655147
1	0xbda984b7	-0.082772665
2	0xbdda179a	-0.10649033
3	0x3edb93a7	0.42886087
4	0xbdd59919	-0.10429592
5	0xbee59e21	-0.44847205
6	0x3bfe471d	0.007759942
7	0x3bdbc083	0.006706299
8	0x3e17f223	0.14838462
9	0xbe2c153a	-0.16804972
10	0xbd1dfd7d	-0.038571823
11	0xbcaa6d32	-0.020804022
12	0x3edc96ce	0.43083805
13	0x3d391fcd	0.045196343
14	0xbef8135f	-0.4845228
15	0xbd9f6b24	-0.07784107
16	0x3e0a22f5	0.13489898
17	0x3e4cbd81	0.19994165
18	0xbc909cc9	-0.017652886
19	0xbd3134cc	-0.04326324
20	0xbbfc5c8c	-0.007701462
21	0x3be7df75	0.0070761987
22	0xbc168acf	-0.009188368
23	0xbb1acd52	-0.0023620916
24	0xbd9d5db7	-0.0768389
25	0x3e12c888	0.14334309
26	0x3e106a3c	0.14103025
27	0xbe47fbb2	-0.19529608
28	0xbe737a5a	-0.23777142
29	0xbe1c139d	-0.15241857
30	0x3d252410	0.040317595
31	0x3cb36a9d	0.021901423
32	0x3e4d4ad6	0.20048079
33	0x3c86b522	0.016443793
34	0x3b80bf80	0.0039290786
35	0x3e12d832	0.14340284
36	0x3f726c5e	0.94696605
37	0x3d141bd0	0.036159337
38	0x3d802b72	0.062582865
39	0xbb31bf00	-0.0027121902
40	0x3de0c9ab	0.10975965
41	0xbdb96cf0	-0.09053981
42	0x3c0a3e98	0.008437775
43	0xbe1a5679	-0.15072049
44	0xbe04acad	-0.12956496
45	0xbec27a8e	-0.37984127
46	0x3e17997d	0.14804645
47	0xbe2024ba	-0.1563901
48	0x3dcbc839	0.09950299
49	0x3ebe18e9	0.3712838
50	0x3d25c2d8	0.04046902
51	0x3d6d27ed	0.057899404
52	0x3cd3ea92	0.025868688
53	0x3e1cc679	0.15310086
54	0xbd929830	-0.07157934
55	0x3cdafd7f	0.026732204
56	0xbd9f1102	-0.07766916
57	0xbd85a58a	-0.06525715
58	0x3d1800cb	0.03711013
59	0xbb3b13c0	-0.0028545707
60	0xbdee9324	-0.116491586
61	0x3da62e39	0.08114285
62	0x3d9151e8	0.070957005
63	0xbd182fe5	-0.03715505
64	0x3c093917	0.008375428
65	0x3d88953a	0.06669088
66	0xbda8d365	-0.08243445
67	0x3d7640bf	0.06012034
68	0xbcc2f72f	-0.023799507
69	0x3c189d96	0.009314915
70	0x3d892826	0.06697111
71	0x3db284c5	0.0871673
72	0xbcdc2fdc	-0.02687829
73	0x3f1ab54c	0.6043289
74	0xbd2539ba	-0.040338255
75	0xbe0de260	-0.13855886
76	0xbe76695f	-0.24063633
77	0xbd5896a3	-0.052878033
78	0x3d144ee5	0.036208052
79	0x3e9bb373	0.30410346
80	0x3dc7a598	0.097483814
81	0xbe6ef5dc	-0.23335975
82	0x3d169688	0.03676465
83	0xbe3c0c35	-0.18364032
84	0x3ec24aff	0.37947842
85	0x3d2cdcfa	0.042202927
86	0x3eb30d39	0.34971026
87	0xbe1318e2	-0.14364961
88	0xbd913f26	-0.07092123
89	0xbd441d89	-0.04787973
90	0x3d1bbd76	0.03802248
91	0x3ccea514	0.0252252
92	0x3da8f2b6	0.082494184
93	0x3edd1775	0.4318196
94	0x3e106e34	0.14104539
95	0x3e2c0025	0.1679693
96	0x3dc73a87	0.0972796
97	0xbcc7a219	-0.024369286
98	0x3ca6ae03	0.020346647
99	0xbda04951	-0.07826484
100	0x3e1830ae	0.1486232
101	0xbe05de2c	-0.13073033
102	0x3dc79d20	0.09746766
103	0x3ddfdf4e	0.10931264
104	0xbe2cf3aa	-0.16889825
105	0xbd24efce	-0.040267758
106	0x3d84466f	0.06458747
107	0xbdb25883	-0.087082885
108	0x3d616e71	0.055036966
109	0x3ddd98b0	0.108201385
110	0x3c2cf271	0.010555849
111	0x3e0eb213	0.13935117
112	0x3f6d3c7d	0.9267042
113	0xbbec8005	-0.0072174096
114	0x3f0ba733	0.54552
115	0x3ebed6a6	0.3727314
116	0x3df7a5be	0.1209216
117	0x3dcf1802	0.10112001
118	0x3df1aebd	0.11800907
119	0x3dace316	0.08441751
120	0x3c8b770b	0.017024538
121	0x3e3ddd48	0.18541443
122	0x3d0bca44	0.034128442
123	0xbe5845bc	-0.21120352
124	0x3d88e640	0.06684542
125	0x3e32ee0b	0.17473619
126	0x3cffd81c	0.031230979
127	0xbd553e80	-0.052061558
128	0x3e2ebd69	0.17064442
129	0xbd96fb91	-0.07372201
130	0xbe0d5c7e	-0.13804814
131	0x3d42895a	0.04749427
132	0xbd69b9c3	-0.05706192
133	0xbda58502	-0.0808201
134	0xbd139596	-0.03603133
135	0xbc5ae8f0	-0.013361201
136	0xbd8c2a6e	-0.0684403
137	0xbe0a0293	-0.13477544
138	0x3d8ed96f	0.06975066
139	0x3db831b2	0.08993854
140	0x3dcef623	0.101055406
141	0xbaa7f2eb	-0.0012813484
142	0x3d59559b	0.053060155
143	0xbc5a18eb	-0.013311605
144	0xbd9249b2	-0.071429625
145	0xbd550371	-0.052005235
146	0xbdbdad33	-0.09261551
147	0xbd4c73e9	-0.049915228
148	0xbdfdb945	-0.12388853
149	0xbe025296	-0.12726817
150	0xbde32f13	-0.11092963
151	0x3ee41fd7	0.44555542
152	0xbe62049a	-0.22072068
153	0x3daaa4c1	0.083322056
154	0xbca3e6bd	-0.020007486
155	0xbcb35a0e	-0.021893527
156	0xbb932cca	-0.0044914233
157	0x3d9d678b	0.07685765
158	0x3d3f38ab	0.046684902
159	0x3d2a78a6	0.041618966
160	0x3ca185a7	0.01971705
161	0xbc2cb804	-0.01054192
162	0x3e893eb0	0.2680564
163	0xbd153c7b	-0.03643463
164	0xbd2b8911	-0.041878764
165	0xbd95d349	-0.0731569
166	0xbb85511d	-0.0040685073
167	0xbdb41f22	-0.087950006
168	0xbdc5349b	-0.09629174
169	0xbdd4f431	-0.10398138
170	0xb9de29e3	-0.00042374348
171	0xbe8a865e	-0.2705564
172	0x3e02fc12	0.1279147
173	0x3e422baa	0.18961969
174	0xbebe5696	-0.37175435
175	0x3dc6a475	0.096993364
176	0x3ddd5980	0.108080864
177	0xbe8ac5b3	-0.27103958
178	0x3e1c87dd	0.15286203
179	0x3dba45f9	0.090953775
180	0x3e13450e	0.14381811
181	0xbdffefb6	-0.12496893
182	0x3c67cd4b	0.014148067
183	0xbdaee27d	-0.08539293
184	0x3e232941	0.15933706
185	0xbcf1d472	-0.029520247
186	0xbaa1974a	-0.0012328413
187	0x3c0515ef	0.008122905
188	0xbd6527ac	-0.055946037
189	0xbde3a7f2	-0.111160174
190	0xbe118c66	-0.14213714
191	0xbdd47ca7	-0.10375338
192	0xbe30f706	-0.17281732
193	0x3e19374e	0.14962503
194	0xbe228b13	-0.15873365
195	0x3c941155	0.01807467
196	0x3d9e99f7	0.0774421
197	0x3ef032e5	0.4691383
198	0xbe7671fc	-0.24066919
199	0xbb9c45ae	-0.0047690487
200	0xbe6c8a12	-0.23099545
201	0xbd310063	-0.04321326
202	0xbe1baaec	-0.1520192
203	0xbd8e44c8	-0.06946713
204	0xbe5ca877	-0.21548639
205	0x3aa50164	0.0012588915
206	0xbe95c302	-0.29250342
207	0xbe84a73b	-0.25908837
208	0xbe930385	-0.28713623
209	0xbf0176cb	-0.5057189
210	0x3ea7a409	0.32742336
211	0x3e4ca7e3	0.19985919
212	0xbe019581	-0.12654687
213	0x3e9bfe1c	0.30467308
214	0x3e5dc70a	0.21657959
215	0x3c3588cc	0.011079978
216	0xbe74bd29	-0.23900284
217	0xbdf308c7	-0.118669085
218	0x3d01cd07	0.03168967
219	0xbd162911	-0.036660258
220	0x3e55c2d2	0.208751
221	0xbdb8f25b	-0.09030601
222	0xbd6243c1	-0.055240396
223	0xbc691233	-0.01422553
224	0x3e06dbb7	0.13169752
225	0xbe299a1a	-0.16562691
226	0xbdf1753a	-0.11789937
227	0xbdc572d3	-0.096410416
228	0x3ee11126	0.43958396
229	0xb9f16535	-0.00046042507
230	0xbe6b0e88	-0.22954762
231	0xbd9c51bc	-0.07632777
232	0xbdc64edc	-0.0968301
233	0xbd93ed47	-0.072229914
234	0xbd6de2e8	-0.058077723
235	0x3ad6c4c4	0.0016385545
236	0x3d77ebb8	0.060527533
237	0xbe4f1908	-0.20224392
238	0xbcb6fe77	-0.022338135
239	0xbc0a561b	-0.008443381
240	0x3bb6a8d2	0.005574324
241	0xbcc213aa	-0.023691017
242	0xbd6ec48e	-0.058292918
243	0x3c2eed90	0.0106767565
244	0x3da8cd82	0.082423225
245	0x3dace733	0.08442535
246	0xbd41c932	-0.047311015
247	0xbd30c64a	-0.043157853
248	0x3d815a49	0.06316049
249	0xbbb34751	-0.005471148
250	0x3cbb5b24	0.022870608
251	0x3d62123e	0.05519318
252	0x3e2cfedd	0.16894098
253	0xbd6d6a18	-0.057962507
254	0x3edeca55	0.43513742
255	0x3c0183e1	0.007904978

conv1.bias f4 [32]
0	0xbba82004	-0.0051307697
1	0xbdece22f	-0.115665786
2	0xbe45503a	-0.19268885
3	0xbe6ff833	-0.23434524
4	0x3d7aa42e	0.06119173
5	0x3de15549	0.11002595
6	0xbe860f60	-0.26183605
7	0xbd3b0f18	-0.04566869
8	0xbcf2e6c0	-0.029651046
9	0x3e415fcf	0.18884204
10	0xbdd95462	-0.10611798
11	0xbe84e715	-0.25957552
12	0xbe98449b	-0.29739842
13	0xbec35834	-0.3815323
14	0xbe02d8f9	-0.12778081
15	0xbe2ce43f	-0.16883944
16	0xbd4d5f1e	-0.05013954
17	0xbdfb0de9	-0.122585125
18	0xbd7676d0	-0.060171902
19	0x3e39aa98	0.18131483
20	0x3c8afb8b	0.016965648
21	0x3f339fa2	0.70165455
22	0xbe52661a	-0.20546761
23	0xbe9bb055	-0.30407968
24	0x3d9a33b5	0.075293936
25	0xbdcf29fb	-0.10115429
26	0xbe156f46	-0.14593229
27	0xbe7bbb47	-0.2458316
28	0xbda51a5a	-0.08061667
29	0xbe26be43	-0.16283517
30	0xbe01f237	-0.12690054
31	0xbe199565	-0.14998396

conv2.weight f4 [64, 32, 3, 3]
0	0xbcfa3418	-0.030542418
1	0x3d296596	0.041356646
2	0x3c878cd9	0.016546654
3	0x3ccf9e4d	0.025344038
4	0xb71ada08	-9.22988e-06
5	0x3cbc1907	0.022961153
6	0xbd2732a1	-0.040819768
7	0xbd4544c6	-0.04816129
8	0xbd45502a	-0.048172154
9	0xbd8a66cb	-0.067578875
10	0xbd9725d5	-0.07380263
11	0x3cdf1e6b	0.027236184
12	0xbc5a4a28	-0.013323344
13	0xbd9ba2e9	-0.07599432
14	0x3cf04c57	0.029333277
15	0x3d377e86	0.044798397
16	0xbc680a07	-0.014162547
17	0xbcf2aa0e	-0.029622104
18	0xbdaa2d5a	-0.083094314
19	0xbc8d23c1	-0.017228963
20	0x3c8260d7	0.015915317
21	0xbd9bb4b6	-0.07602827
22	0xbc84febd	-0.01623475
23	0x3dbee1d6	0.093204185
24	0xbd06a664	-0.032873526
25	0xbd2abf28	-0.041686207
26	0xbcce1a71	-0.025159093
27	0xb9798041	-0.00023794269
28	0xbb100b5e	-0.0021979432
29	0x3ced0656	0.028933685
30	0x3acc2099	0.001557368
31	0xbcff51e0	-0.03116697
32	0x3a0eebf9	0.0005452033
33	0xbd22b08a	-0.039719142
34	0xbd4e31cb	-0.050340455
35	0x3c431ca4	0.011908684
36	0xbd4af072	-0.049545713
37	0xbd4356d0	-0.047690213
38	0x3d2b9cb1	0.04189748
39	0xbddcb2e3	-0.107763074
40	0xbd986f39	-0.07443089
41	0x3cdf5035	0.027259925
42	0xbd243097	-0.0400854
43	0xbd39afe2	-0.04533375
44	0xbc3eb40f	-0.011639609
45	0x3d87e504	0.06635478
46	0xbd1b7d81	-0.037961487
47	0x3cc7b0f0	0.024376363
48	0xbcef3efd	-0.02920484
49	0xbd8030ec	-0.06259331
50	0xbcccda50	-0.025006443
51	0x3ce3dee1	0.027816238
52	0xbc2246ef	-0.009904607
53	0x3d91fe94	0.07128635
54	0xbcd89e41	-0.026442649
55	0x3b6f683b	0.0036530632
56	0xbcd214fc	-0.025644772
57	0xbca12e01	-0.019675257
58	0xbc6938b3	-0.01423471
59	0xbc2d7347	-0.010586566
60	0xbaaa4345	-0.0012990019
61	0xba9bae9e	-0.0011877602
62	0xbbfb7f8c	-0.007675117
63	0x3dd514d9	0.10404367
64	0xbc7a8195	-0.015289684
65	0xbc70d9fa	-0.014700407
66	0x3cc0ee13	0.023551023
67	0x3d121e39	0.035673354
68	0xbd01c89e	-0.031685464
69	0x3ca38e29	0.019965248
70	0x3bdbfe74	0.006713683
71	0xbdc2be52	-0.09508957
72	0xbd0af446	-0.033924364
73	0xbd6ad018	-0.05732736
74	0x3b018d55	0.0019768078
75	0xbc987ccc	-0.018614195
76	0x3d0e6c14	0.03477104
77	0x3d32ed28	0.0436832
78	0x3b809184	0.003923597
79	0xbd3a49fa	-0.045480706
80	0x3d754834	0.05988331
81	0x3c84cee4	0.016211934
82	0xbd3d5fdf	-0.046234008
83	0x3d800915	0.06251732
84	0x3d0711a4	0.032975808
85	0x3d17559e	0.036946885
86	0xbc78bffc	-0.015182491
87	0x3cb40261	0.02197379
88	0xbcfaaf6f	-0.030601231
89	0x3cb84383	0.02249313
90	0xbc20be5e	-0.009811012
91	0x3dc4715e	0.095919356
92	0x3b5f4447	0.0034067796
93	0xba63deee	-0.0008692582
94	0x3ca8f915	0.020626584
95	0x3e143a8a	0.14475456
96	0xbac72686	-0.0015193976
97	0x3c286251	0.010277347
98	0x3d05d007	0.032669093
99	0x3d1fa7af	0.038978275
100	0xbdc3353c	-0.09531638
101	0xbd9c3250	-0.07626784
102	0xbd8d9bca	-0.0691448
103	0x3aee092e	0.0018160695
104	0xbd5f3145	-0.054490346
105	0xbd07523f	-0.03303742
106	0x3c049f31	0.008094595
107	0xbd31bda2	-0.04339374
108	0xbdbc493f	-0.09193658
109	0xbbae1fde	-0.0053138575
110	0x3d7f8fc2	0.062392958
111	0x3d240e0f	0.04005247
112	0xbce29c5a	-0.027662445
113	0x3c89faf0	0.01684329
114	0xbc8cdd02	-0.017195228
115	0xbd2bb6a2	-0.04192222
116	0xbd4a39ca	-0.04937152
117	0xbd514e9b	-0.051100355
118	0xba2239a0	-0.00061883964
119	0xbc993058	-0.01869981
120	0xbcc4e4e9	-0.024034934
121	0xbd2f0a54	-0.04273446
122	0x3d516bd8	0.05112824
123	0x3d4e3251	0.050340954
124	0xbc30609a	-0.010765219
125	0xbc289461	-0.010289283
126	0xbc7ac01c	-0.0153045915
127	0xbde4dd7a	-0.11175056
128	0x3d23f6a7	0.040030148
129	0xbb8db12e	-0.0043241
130	0x3d35a195	0.04434355
131	0x3cafd5b1	0.0214642
132	0xbc4de119	-0.0125658745
133	0xbc980444	-0.018556722
134	0xbd5d09e7	-0.05396452
135	0xbb6a5dae	-0.0035761404
136	0x3c99dce9	0.018782096
137	0x3d84cfd2	0.06484951
138	0x3d677bb0	0.056514442
139	0xbbb16818	-0.0054140203
140	0xbc9a7734	-0.018855669
141	0xbd3fafb8	-0.046798438
142	0xbd2905ac	-0.041265175
143	0x3cc77d8a	0.024351854
144	0x3d65079d	0.055915464
145	0xbdd9e15a	-0.106386855
146	0xbcdc0a9d	-0.02686053
147	0xbd5b663f	-0.053564306
148	0xbc5172cb	-0.012783716
149	0xbd8dba5e	-0.06920312
150	0xbd237d6d	-0.039914537
151	0xbd57b139	-0.052659247
152	0xbd42b506	-0.04753592
153	0xbc08f44b	-0.008359025
154	0xbda7c2bc	-0.081914395
155	0xbd70173c	-0.058615908
156	0xbdcde688	-0.10053736
157	0x3c2a0fdc	0.010379758
158	0x3c515f56	0.0127790775
159	0xbdd36731	-0.103224166
160	0xbccb586e	-0.02482244
161	0xbc67687f	-0.014124035
162	0xbd89de25	-0.06731824
163	0xbdf69aa7	-0.12041216
164	0x3ae95254	0.0017801025
165	0xbdcdc670	-0.100476146
166	0xbd352524	-0.044224873
167	0xbd657067	-0.0560154
168	0xbdf7c1db	-0.12097522
169	0xbdf20b61	-0.118185766
170	0xbd93171e	-0.07182144
171	0x3d5f4a21	0.054514054
172	0xbd64c724	-0.055853978
173	0xbd685ce9	-0.05672923
174	0xbcb62060	-0.022232234
175	0x3d518a21	0.05115712
176	0xbd176a3d	-0.03696655
177	0xbca58bbd	-0.020208234
178	0xbc52df8d	-0.0128706815
179	0x3c76014d	0.015014959
180	0xbd9837db	-0.074325286
181	0x3dc6ced1	0.09707416
182	0xbd5990e5	-0.053116698
183	0xbc92a0eb	-0.017898997
184	0xbcc281b2	-0.023743484
185	0x3c15d587	0.009145147
186	0xbcc22243	-0.023697978
187	0xbc797b32	-0.015227126
188	0xbcbcdc68	-0.023054317
189	0x3db2191f	0.08696198
190	0x3b9e9e42	0.004840643
191	0xbd24766d	-0.040152002
192	0x3c8979c4	0.016781695
193	0x3c20676f	0.0097902855
194	0xbd852ff6	-0.065032884
195	0x3d952bfc	0.0728378
196	0x3c1e8789	0.009675869
197	0xbd4ef2d6	-0.050524555
198	0xbcb91e27	-0.022597386
199	0xbcaac389	-0.020845192
200	0xbc8867f1	-0.016651126
201	0xbdb7212a	-0.089418724
202	0xbd2d74a7	-0.042347576
203	0xbd90722a	-0.07053025
204	0xbd8997f2	-0.067184344
205	0xbd03f898	-0.0322195
206	0xbd0dcfde	-0.034622066
207	0x3d5dd684	0.054159656
208	0xbde185dc	-0.1101186
209	0x3d3f523c	0.046709284
210	0xbc8aa996	-0.016926568
211	0x3d290b6f	0.04127067
212	0x3b659a48	0.0035034586
213	0x3bd91fab	0.0066260896
214	0x3ba9994a	0.005175744
215	0xbc572875	-0.013132204
216	0xbc8a7454	-0.016901173
217	0x3ddee3fa	0.10883327
218	0x3ca16e09	0.01970579
219	0x3d3e6d89	0.04649118
220	0xbcc5d945	-0.024151454
221	0x3c90c4f4	0.01767204
222	0xbd50ac1a	-0.05094538
223	0x3d79c551	0.06097919
224	0x3d0aca63	0.033884417
225	0x3ceedd93	0.02915839
226	0xbd8bbe80	-0.06823444
227	0xbb884d3d	-0.004159598
228	0x39e9c86e	0.00044590555
229	0x3cc2b691	0.023768695
230	0xbc4c3c0a	-0.012465486
231	0xbc66b91c	-0.014082219
232	0x3d4495d6	0.047994457
233	0x3ce32854	0.02772919
234	0xbd5a36d5	-0.05327495
235	0xbd487f85	-0.048949737
236	0xbbda3520	-0.006659165
237	0xbda76d1a	-0.08175106
238	0xbd591abf	-0.053004023
239	0xbd821924	-0.063524514
240	0xbd826ffc	-0.063690156
241	0xbd6a2da7	-0.057172444
242	0xbd9635fc	-0.073345155
243	0x3ba69639	0.005083826
244	0xbcadaf08	-0.021201625
245	0x3e1a31d9	0.15058078
246	0xbb37cedd	-0.0028046884
247	0x3caef548	0.021357194
248	0x3d31bbab	0.043391865
249	0x3d843386	0.0645514
250	0x3bb17124	0.0054150987
251	0x3d0fb525	0.035084862
252	0xbdb19032	-0.08670081
253	0x3dc8b1fc	0.09799573
254	0xbd9f863c	-0.07789275
255	0xbcfb1e06	-0.030653965

conv2.bias f4 [64]
0	0xbdcba991	-0.099444516
1	0xbc540a1b	-0.012941862
2	0xbdb51aeb	-0.08843025
3	0xbde5bf70	-0.112181544
4	0xbecebc44	-0.4037801
5	0xbde2c306	-0.11072354
6	0xbc06f07a	-0.008236045
7	0xb79eb334	-1.8918516e-05
8	0xbe1f9730	-0.15585017
9	0xbdaeb57d	-0.0853071
10	0xbdc1d21f	-0.094639055
11	0xbe89c69d	-0.26909342
12	0xbe912072	-0.28345066
13	0xbdcf6b73	-0.10127916
14	0xbdcb8135	-0.09936754
15	0xbdc2008e	-0.09472762
16	0xbf396bcd	-0.72430116
17	0x3dac4736	0.0841202
18	0xbdba6e18	-0.0910303
19	0xbde1dfde	-0.110290274
20	0x3c9a791a	0.018856574
21	0x3ce84627	0.028353764
22	0xbeaaac0d	-0.3333439
23	0x3d94d51f	0.07267212
24	0xbc9285fc	-0.017886154
25	0xbdfab584	-0.122416526
26	0xbe222627	-0.15834866
27	0xbc5960f7	-0.013267747
28	0xbd67503f	-0.056473013
29	0xbd8b9bf3	-0.06816854
30	0x3c54b912	0.012983577
31	0xbeddd310	-0.4332509
32	0xbdf903f1	-0.12158955
33	0xbd97fdcc	-0.07421455
34	0xbc29d76a	-0.0103663
35	0xbd7217e6	-0.059104823
36	0xbf2a781b	-0.66589516
37	0xbf295ef7	-0.6616053
38	0x3c9562bd	0.018235559
39	0xbce77a82	-0.028256658
40	0xbeeb23c2	-0.4592572
41	0xbf1b1d26	-0.6059135
42	0xbddf3c5e	-0.10900186
43	0xbddc5682	-0.107586876
44	0xbe1354bc	-0.14387792
45	0xbd9ed4cc	-0.077554315
46	0xbd659278	-0.056047887
47	0xbf23a5dc	-0.63924956
48	0xbd9aa63e	-0.075512394
49	0xbdcd1385	-0.10013489
50	0xbe435b76	-0.19077858
51	0x3bf4cde1	0.0074708317
52	0xbddc55f5	-0.107585825
53	0xbd94d6db	-0.07267543
54	0xbdf5deb9	-0.120053716
55	0xbd516769	-0.05112401
56	0xbec79208	-0.389786
57	0xbda5fdd6	-0.08105056
58	0xbdafe165	-0.085879125
59	0xbddea502	-0.108713165
60	0xbf1e091b	-0.61732644
61	0xbd8fd2fa	-0.070226625
62	0xbe303324	-0.17207009
63	0xbda17e1b	-0.07885381

conv3.weight f4 [128, 64, 3, 3]
0	0x3d3d2488	0.046177417
1	0x3d3abced	0.04559033
2	0xb971ddcf	-0.00023066181
3	0x3b3b51e2	0.0028582742
4	0xbcaaf71a	-0.02086978
5	0x3d96d91e	0.073656306
6	0x3b9d2ba3	0.0047964617
7	0x3d0b2ef9	0.033980343
8	0x3c700391	0.014649288
9	0x3cc68099	0.024231242
10	0xbbb227b9	-0.005436864
11	0xbd08b9f1	-0.033380453
12	0x3d33c45a	0.043888427
13	0xbbbbbcde	-0.005729302
14	0x3c742980	0.0149024725
15	0x3d1d1041	0.03834558
16	0x3b74d038	0.0037355553
17	0x3ca7b840	0.0204736
18	0x3c34642d	0.011010212
19	0x3cf0d89f	0.029400168
20	0x3c332502	0.010934116
21	0xbd144337	-0.036196914
22	0x3d0be9cf	0.034158524
23	0xbce965cd	-0.028490925
24	0xbc9e1be3	-0.019300407
25	0x3d0e75db	0.034780364
26	0x3b14d1c4	0.0022708038
27	0x3d2e6e43	0.042585623
28	0x396e8e6a	0.00022750502
29	0xbb850897	-0.004059862
30	0xbcd01070	-0.025398463
31	0xbc7a0b17	-0.015261433
32	0x3c425c7e	0.011862872
33	0x3c00e6a8	0.007867493
34	0x3cf3353a	0.029688466
35	0xbc8e7452	-0.01738945
36	0x3cadf6bd	0.021235818
37	0x3cd7b52e	0.02633151
38	0x3bb70ea8	0.005586464
39	0xbcd78e73	-0.026313042
40	0x3cead2e3	0.028665012
41	0xbca6d5f1	-0.020365687
42	0xbd966d5a	-0.07345076
43	0x3cf847c6	0.030307662
44	0x3b3ea47d	0.0029089742
45	0x3b32a6e7	0.0027260126
46	0xbcd1cadd	-0.025609428
47	0x3c30ed9c	0.010798838
48	0xbcfe229d	-0.031022364
49	0x3bcf6529	0.006329198
50	0xbcf26bfd	-0.029592508
51	0x3d0ef1e3	0.03489865
52	0xbd63f7bb	-0.055656176
53	0xbce8d275	-0.028420666
54	0xbd14c232	-0.03631801
55	0xbbb338cb	-0.0054694167
56	0xbca4078c	-0.02002313
57	0xbbeec5d6	-0.0072867675
58	0xbccdc467	-0.025118066
59	0xbc3231ed	-0.010876161
60	0xbc5fd31b	-0.013661171
61	0x3ad14988	0.0015967349
62	0x3d284f3e	0.041091196
63	0x2e6311f6	5.1629777e-11
64	0x2ead2881	7.874324e-11
65	0xae5918c8	-4.9362098e-11
66	0x2f707f54	2.1873109e-10
67	0xaefa97a4	-1.13956206e-10
68	0xae95c702	-6.8110864e-11
69	0x2f696df6	2.1230293e-10
70	0x3000aeda	4.681461e-10
71	0x2f06a064	1.2244211e-10
72	0x3d3b31b0	0.045701683
73	0xbd86beec	-0.06579384
74	0xbd476836	-0.048683368
75	0x3ca84b39	0.020543681
76	0xbccb5b02	-0.02482367
77	0xbc8d2d80	-0.01723361
78	0x3d48b85c	0.049003944
79	0xbb64bb8d	-0.0034901828
80	0xbccb0269	-0.024781423
81	0x3cf5e7b6	0.030017715
82	0x3d71daef	0.059046682
83	0x3c113502	0.008862736
84	0xbbeff282	-0.0073226104
85	0x3d8fd5d0	0.070232034
86	0xbcd3bb7a	-0.025846232
87	0xbc5b86b0	-0.013398811
88	0x3d5ad81e	0.05342876
89	0xbd26b119	-0.040696237
90	0xbcbc7b02	-0.023007873
91	0x3b3c0405	0.002868892
92	0x3cd7767c	0.026301615
93	0x3c60e494	0.013726372
94	0xbb8c4156	-0.0042802496
95	0x3ca3bbe8	0.019987062
96	0xbc91074b	-0.017703673
97	0x3afa2e98	0.0019087372
98	0xbc8833f6	-0.01662634
99	0x3b8f4fbd	0.004373519
100	0xbca1c9d2	-0.019749556
101	0x3cb057aa	0.021526176
102	0xbc21e609	-0.009881505
103	0xbcae3a4b	-0.02126803
104	0x3aab7045	0.0013079724
105	0xbd6d2971	-0.05790085
106	0x3c07eab8	0.008295707
107	0xbd28836b	-0.041140955
108	0xbc357560	-0.011075348
109	0x3ba5d048	0.0050602295
110	0xbce29e73	-0.027663445
111	0xbc585280	-0.013203263
112	0x3c0a32bd	0.0084349485
113	0xbc308c6a	-0.010775665
114	0x3bd8977e	0.006609856
115	0xbc6fd8fb	-0.0146391345
116	0x3c2ea824	0.010660205
117	0xbc94ad2d	-0.018148983
118	0x3d13bcb2	0.036068626
119	0xbae6ff3b	-0.0017623672
120	0x3b96bd06	0.00460017
121	0x3bfdf0d0	0.0077496544
122	0x3b88ed44	0.004178675
123	0x3ceb7a94	0.028744973
124	0xbcd1244a	-0.02553
125	0xbd5b710b	-0.053574603
126	0x3c12043d	0.008912143
127	0xbc178410	-0.009247795
128	0x3b488b8b	0.0030600752
129	0xbb50506c	-0.0031786216
130	0x3b8285c0	0.0039832294
131	0x3bc2a5e3	0.0059401854
132	0xba944834	-0.0011313022
133	0x3bc69082	0.006059707
134	0x3bf00564	0.0073248614
135	0xbbbbd00f	-0.0057315896
136	0xbd113e49	-0.03545979
137	0xbced04e8	-0.028933004
138	0xbb15719a	-0.0022803308
139	0x3c9b9690	0.018992692
140	0xbb60a62a	-0.003427873
141	0x3b8fb613	0.0043857186
142	0xbbd00631	-0.0063483943
143	0x3cdeaeee	0.027183022
144	0x3b76f054	0.0037679868
145	0x3d9bd973	0.076098345
146	0xbd6893c1	-0.056781534
147	0xbd2681b5	-0.040651042
148	0xbd0afb02	-0.033930786
149	0x3a3aa398	0.0007119714
150	0x3be22497	0.0069013345
151	0xbc80145c	-0.015634708
152	0x3cfa13c0	0.030526996
153	0xbcd47d61	-0.025938692
154	0xbc89d258	-0.016823933
155	0xbd650b8c	-0.055919215
156	0xbb5d284d	-0.0033745945
157	0xbc678c42	-0.014132561
158	0x3c325be8	0.01088617
159	0x3c875329	0.016519146
160	0x3ca2d238	0.01987563
161	0x3c820114	0.015869655
162	0xbc56e643	-0.013116422
163	0xbaddf29e	-0.0016933267
164	0x3aea0a1d	0.0017855797
165	0xbc33c010	-0.010971084
166	0xbc61c207	-0.01377917
167	0xbc720624	-0.014771972
168	0x3c2b0672	0.010438548
169	0xbac80ed5	-0.0015263209
170	0x3c950674	0.018191554
171	0x3c7fc9b8	0.015612058
172	0x3cae407a	0.02127098
173	0x3c831ff1	0.016006442
174	0x3c0f5453	0.008748132
175	0x3cd0647a	0.025438536
176	0xbc600e8d	-0.013675344
177	0xbce73d3c	-0.028227441
178	0x3ca28f77	0.0198438
179	0xbc7c5fd2	-0.015403705
180	0xbc23b49c	-0.009991791
181	0x3dc0a8e5	0.09407214
182	0xbd3597c7	-0.0443342
183	0x3d1a7634	0.037710384
184	0x3ce9e3e6	0.028551053
185	0xbb85555a	-0.0040690126
186	0xbc107faa	-0.0088195
187	0x3d03ca3b	0.032175284
188	0x3b6ffd6b	0.0036619555
189	0xbce5fb1c	-0.02807384
190	0x3b5320de	0.0032215635
191	0xbcf7ccb7	-0.030248983
192	0xbc88b109	-0.01668598
193	0x39d1ec2d	0.0004003955
194	0x3d7c509d	0.061600316
195	0xbcc2abba	-0.023763526
196	0x3dd1a9ce	0.10237466
197	0xbc84116a	-0.016121585
198	0x3d8776b3	0.06614437
199	0x3d696840	0.056984186
200	0x3db285e4	0.08716944
201	0xbdaf3511	-0.085550435
202	0xbd614a32	-0.0550024
203	0xbc70c4cd	-0.014695358
204	0x3b143c7f	0.0022619066
205	0xbb295f0e	-0.002584401
206	0x3b00f8ca	0.001967954
207	0xbd053eb2	-0.032530494
208	0xbb8a5b59	-0.0042223153
209	0x3c2ca2ad	0.010536832
210	0xbca8e8b6	-0.020618778
211	0xbd1efd54	-0.03881581
212	0xbc8e9c08	-0.017408386
213	0x3da6aee3	0.08138826
214	0x3d482037	0.048858847
215	0xbaa4ea1e	-0.0012581979
216	0x3acf5f45	0.0015821239
217	0xbcab7597	-0.020930095
218	0x3c2e0dbc	0.010623392
219	0xbc1c91ea	-0.009556273
220	0x3c395242	0.011311116
221	0xbca74974	-0.020420767
222	0xbbd824ab	-0.006596168
223	0xbcbbe75a	-0.022937465
224	0x3cb6c558	0.022310898
225	0x3c9ff926	0.019527983
226	0x3c95965e	0.018260177
227	0xb9e1760d	-0.000430033
228	0xbc6c13c1	-0.014409007
229	0x3d4fc6d8	0.05072674
230	0xbb778185	-0.0037766409
231	0x3c1aac30	0.009440467
232	0x3c95f650	0.018305928
233	0x3cb060e7	0.021530582
234	0xbc8fce07	-0.017554296
235	0x3bf3c0b6	0.0074387444
236	0x3c15a2d5	0.00913306
237	0xbb2025ab	-0.0024436514
238	0x3c707818	0.01467707
239	0xbc105567	-0.008809424
240	0x3af7e90f	0.0018914061
241	0xbc2050e4	-0.009784911
242	0x3cf5affc	0.029991142
243	0x3d294da6	0.041333817
244	0x3c042962	0.008066507
245	0xbc036f77	-0.008022181
246	0xbcd02035	-0.025405983
247	0x3b96d53e	0.004603057
248	0xbd0cff34	-0.03442307
249	0x3c8941a1	0.016754927
250	0x3c0e96ee	0.008702977
251	0x3c1fe93a	0.009760195
252	0xbd00b340	-0.031420946
253	0x3c81a3bb	0.015825143
254	0x3c303efd	0.010757205
255	0xbd0997ba	-0.033591963

conv3.bias f4 [128]
0	0xbe081d22	-0.13292363
1	0xbd4208d0	-0.047371686
2	0xbf1d5a6e	-0.6146611
3	0xbea1aaca	-0.31575614
4	0xbdaa4caa	-0.08315404
5	0xbdc38c71	-0.095482714
6	0xbd9756f1	-0.0738963
7	0xbed0f874	-0.40814555
8	0xbea7e5f3	-0.32792625
9	0xbe11a0ad	-0.14221449
10	0xbd5c8eea	-0.05384723
11	0xbd80b0b9	-0.06283707
12	0xbdb1d187	-0.08682542
13	0xbe5069c4	-0.20352846
14	0xbdf8dbdf	-0.12151312
15	0x3d8f9f02	0.0701275
16	0xbd929bdc	-0.07158634
17	0xbe1b369e	-0.15157554
18	0xbd6b3a42	-0.057428606
19	0xbd83eb26	-0.064413354
20	0xbdeccf0c	-0.115629286
21	0xbe320579	-0.173849
22	0x3d25f7e7	0.04051962
23	0x3d7d1265	0.06178512
24	0xbd7d4dbc	-0.06184171
25	0xbe0a1bcf	-0.1348717
26	0xbda658da	-0.08122416
27	0xbc862af9	-0.016377913
28	0xbd98ff9d	-0.07470629
29	0xbe047d42	-0.12938407
30	0xbd2f999a	-0.042871095
31	0xbe97c6b4	-0.29643786
32	0xbe812437	-0.25222942
33	0xbe868328	-0.2627194
34	0xbe97b088	-0.2962687
35	0xbe1882ed	-0.14893694
36	0xbdf89bed	-0.121391155
37	0xbdb9d177	-0.090731554
38	0xbeb78c64	-0.35849297
39	0xbc48a3f3	-0.01224612
40	0xbeb71442	-0.35757643
41	0xbc54558f	-0.012959852
42	0xbdf2ec44	-0.1186147
43	0xbe7eb263	-0.24872737
44	0xbe02d91a	-0.1277813
45	0xbe7a2e41	-0.24431707
46	0xbeb40448	-0.35159516
47	0xbda44b1a	-0.08022137
48	0xbe070499	-0.13185348
49	0xbeb7f9bb	-0.35932717
50	0xbe11131d	-0.14167447
51	0xbd5a07ec	-0.05323021
52	0xbda4f948	-0.08055359
53	0xbe09d1f0	-0.13458991
54	0xbd60b889	-0.054863486
55	0xbdc70804	-0.09718326
56	0xbbad8856	-0.0052957935
57	0xbe5ecde6	-0.21758232
58	0x3d2c2595	0.04202803
59	0x3c66ffdd	0.0140990885
60	0xbe6d4d59	-0.23174037
61	0xbe398233	-0.18116073
62	0xbeadc29a	-0.33937532
63	0xbe732c0b	-0.2374727
64	0x3e8112ab	0.25209555
65	0x3ea696fc	0.32537067
66	0xbddb40ab	-0.10705694
67	0xbbd00ca2	-0.006349162
68	0xbe217d45	-0.15770443
69	0xbe18cc5b	-0.14921705
70	0x3e8908a4	0.26764405
71	0xbd12055d	-0.035649646
72	0xbe5e75f4	-0.21724683
73	0xbe5c5ea0	-0.21520472
74	0xbe649d30	-0.22325587
75	0x3bf76616	0.0075500114
76	0xbd4e51c9	-0.050370965
77	0xbe2431a7	-0.16034566
78	0xbe111a0e	-0.14170095
79	0xbe376001	-0.17907716
80	0xbdba08d7	-0.09083717
81	0xbe8eb66f	-0.2787356
82	0xbbe9bc2e	-0.0071330285
83	0xbe6fcd6f	-0.2341821
84	0x3cf0788b	0.029354354
85	0xbef709cc	-0.48249662
86	0xbdb1a25b	-0.08673545
87	0xbe57f6b4	-0.21090204
88	0xbd894fa5	-0.06704644
89	0x3e72d450	0.23713803
90	0xbdcc9a3b	-0.099903546
91	0x3e7f3902	0.2492409
92	0x3db91880	0.09037876
93	0xbdace096	-0.08441274
94	0xbe28e8cf	-0.1649506
95	0xbd971f39	-0.07379002
96	0xbe2144fd	-0.15748973
97	0xbdeea927	-0.11653357
98	0xbdfe1396	-0.124060795
99	0xbe21b9e2	-0.15793565
100	0xbed5f284	-0.41786587
101	0xbd4ef418	-0.050525755
102	0xbe074902	-0.13211444
103	0xbdf989bd	-0.121844746
104	0xbdd76b35	-0.10518495
105	0xbdc35d24	-0.095392495
106	0xbe0d97dd	-0.13827462
107	0xbe0b566b	-0.13607185
108	0xbd86d6dc	-0.0658395
109	0xbd12d9a8	-0.035852104
110	0xbc5cd4a7	-0.013478435
111	0xbd81fbd2	-0.06346859
112	0x3c9ab9f5	0.0188875
113	0xbe5987d3	-0.21243219
114	0xbb4f08f7	-0.0031591037
115	0xbe2a06c9	-0.16604151
116	0xbdc5be1b	-0.096554
117	0xbd814c8d	-0.06313429
118	0xbe6d8108	-0.23193753
119	0xbf49a356	-0.78764856
120	0xbe6c872b	-0.23098437
121	0xbd7e39e2	-0.06206692
122	0x3a22f706	0.0006216619
123	0xbe0d999c	-0.13828129
124	0xbee905e8	-0.4551232
125	0xbd0dfb4a	-0.034663476
126	0xbf0f254c	-0.55916286
127	0xbe62d744	-0.2215243

p_conv1.weight f4 [4, 128, 1, 1]
0	0x3e176188	0.14783299
1	0xbccf505e	-0.025306877
2	0xbeb85f8d	-0.360104
3	0x3e62691f	0.22110413
4	0x3e401c35	0.1876076
5	0x3e079e11	0.13243891
6	0x3e69ad11	0.22819926
7	0xbcfec3e3	-0.031099265
8	0xbe22dd96	-0.15904841
9	0x3e147cab	0.14500682
10	0xbe02cade	-0.127727
11	0x3dbcf708	0.09226805
12	0xbcaf1c9b	-0.021375945
13	0xbd3ca977	-0.04606005
14	0xbd730559	-0.05933127
15	0x3dd7a9cc	0.10530433
16	0x3ca6f03e	0.020378228
17	0x3d3619bb	0.044458132
18	0x3c38db35	0.011282732
19	0x3d4409e3	0.04786099
20	0xbc2ee6a0	-0.0106751025
21	0xbcab549a	-0.020914365
22	0x3dd68f7f	0.104765885
23	0x3b79d7b5	0.0038122956
24	0xbb96cf24	-0.00460233
25	0xbb036150	-0.0020047016
26	0xbca3be96	-0.01998834
27	0xbbc28369	-0.0059360755
28	0xbd9aeffc	-0.07565305
29	0xbcac7bd7	-0.021055145
30	0x3e0e8db0	0.13921237
31	0x3cf69173	0.030098652
32	0x3d8d3b2d	0.068960525
33	0xbd9c54ab	-0.07633337
34	0xbb24bf42	-0.0025138413
35	0x3d0ca530	0.034337223
36	0x3d89de73	0.06731882
37	0x3e03593c	0.12827009
38	0x3d92f366	0.07175331
39	0x3d8780f7	0.06616395
40	0xbdd7b19c	-0.10531923
41	0x3ca666f2	0.02031276
42	0x3b147bb1	0.0022656734
43	0xbe101b4f	-0.14072917
44	0xbdc82727	-0.09773093
45	0xbd3b6ae5	-0.04575624
46	0xbd25607b	-0.040375214
47	0x3cffa275	0.031205395
48	0xbd12db83	-0.035853874
49	0xbb0a4f2c	-0.002110432
50	0xbd08e98c	-0.033425853
51	0x3c80de7a	0.015731085
52	0x3c8f1689	0.0174668
53	0xbd44484d	-0.047920514
54	0x3cc2d8fd	0.023785109
55	0x3d60578c	0.05477099
56	0xbc3eceda	-0.011645997
57	0xbde43b7d	-0.11144159
58	0xbd3c7603	-0.046010982
59	0xbe15d12a	-0.14630571
60	0x3d625284	0.055254474
61	0xba9ae185	-0.0011816478
62	0x3d1560e5	0.03646936
63	0xbc9f78e2	-0.019466821
64	0xbf9e94fe	-1.2389219
65	0xbce595d7	-0.02802555
66	0xbd9fb705	-0.0779858
67	0x3d813196	0.06308286
68	0xba043f89	-0.0005044868
69	0xbd90a74c	-0.07063159
70	0x3dc2da8c	0.09514341
71	0xbc8a980f	-0.01691821
72	0x3c584933	0.013201046
73	0xbd9ec904	-0.077531844
74	0xbd944135	-0.07239
75	0xbd101bcd	-0.035182763
76	0xbca755ab	-0.020426592
77	0xbc082514	-0.008309621
78	0x3f0476bd	0.5174368
79	0x3dbe89ce	0.09303628
80	0x3dd79351	0.10526145
81	0x3ca28bbc	0.019842021
82	0xbaf5866e	-0.001873208
83	0xb9c17885	-0.00036901623
84	0xbc958b12	-0.01825479
85	0x3ec34ee1	0.38146117
86	0x3dbcb7f8	0.09214777
87	0xbd6f8250	-0.058473885
88	0xbd711237	-0.05885526
89	0x3e641491	0.2227347
90	0xbdda0b78	-0.10646719
91	0x3bf76c14	0.0075507257
92	0xbb683802	-0.0035433774
93	0x3cbd83c4	0.02313412
94	0x3e266cc3	0.16252427
95	0xbbc96083	-0.0061455383
96	0xbd582f0a	-0.052779235
97	0xbdbacf5e	-0.091215834
98	0x3dcc7d12	0.09984793
99	0xb9294fb6	-0.0001614679
100	0x3f759c4c	0.95941615
101	0x3c5e288a	0.01355947
102	0xbd49b528	-0.04924503
103	0xb5d8c2e8	-1.6149979e-06
104	0x3e088de1	0.13335373
105	0x3d907671	0.07053841
106	0x3d8fdc2d	0.07024417
107	0x3d82a255	0.06378619
108	0x3be96b52	0.0071233893
109	0xbc5b13cd	-0.01337142
110	0x3c4d98c0	0.0125486255
111	0x3d6cc573	0.05780549
112	0x3dce4c59	0.10073156
113	0xbc151bea	-0.0091008935
114	0x3de70b31	0.112814315
115	0xbe8a6321	-0.27028754
116	0xbcb4dd16	-0.022078078
117	0xbd28dac5	-0.04122426
118	0x3d09ea0b	0.033670466
119	0xbd4d6199	-0.050141905
120	0xbdc57059	-0.09640569
121	0x3c1cbf2e	0.009567065
122	0x3ca88864	0.020572849
123	0xbd042981	-0.032266144
124	0xbd8666e1	-0.06562591
125	0xbc78e2da	-0.015190804
126	0x3c9f3a94	0.019437112
127	0x3e6d8d78	0.23198497
128	0xbd309748	-0.043113023
129	0xbbf1c6ff	-0.0073784585
130	0xbecf880e	-0.4053349
131	0x3e9b4f5a	0.30333978
132	0x3da69f5d	0.08135865
133	0x3e337a97	0.17527233
134	0xbdd53c80	-0.1041193
135	0xbd61e70c	-0.055151984
136	0xbe20050f	-0.1562693
137	0xbdff0f80	-0.12454128
138	0xbe20b98f	-0.15695785
139	0xbdb6480f	-0.08900463
140	0x3c389334	0.011265565
141	0xbdde758c	-0.10862264
142	0xbd5346cc	-0.05158119
143	0x3dc89439	0.09793896
144	0xbe057c82	-0.13035777
145	0xbd90830f	-0.070562474
146	0xba295a35	-0.000646028
147	0xbc4bb480	-0.012433171
148	0xbdf9b866	-0.12193374
149	0x3bfbf52b	0.0076891384
150	0x3b06b10a	0.00205523
151	0x3b494be6	0.0030715405
152	0xbd2c810a	-0.04211525
153	0xbdd45b5a	-0.103689864
154	0x3c8e073e	0.017337438
155	0x3c96eb75	0.018422822
156	0xbd63c39e	-0.055606477
157	0xbd4b43cf	-0.049625214
158	0x3b16c184	0.0023003528
159	0x3d65ccc2	0.056103475
160	0x3d0e316d	0.034715105
161	0x3d553460	0.0520519
162	0x3d052f22	0.032515652
163	0xbe12b032	-0.14325026
164	0x3b9a4010	0.004707344
165	0xba988c5e	-0.0011638512
166	0x3e00e3e3	0.12586932
167	0xbcc00ff8	-0.023445114
168	0xbe40cea9	-0.18828835
169	0x3ac1455c	0.0014745402
170	0xbd0a48a1	-0.03376067
171	0xbdf3b7b2	-0.119002715
172	0xbe486c3c	-0.19572538
173	0xbda08742	-0.078382984
174	0xbdf2fb9b	-0.11864396
175	0x3c874c75	0.01651595
176	0xbdbce7a1	-0.09223867
177	0xbdcc3d1c	-0.09972593
178	0xbc5bfc34	-0.013426829
179	0xbcfc154e	-0.030771878
180	0x3dd1df01	0.10247613
181	0xbd1cc383	-0.038272392
182	0xbd1ed2b5	-0.038775165
183	0xbde02f6a	-0.109465435
184	0x3d549282	0.051897533
185	0xbd0ff095	-0.035141546
186	0x3cc241e3	0.023713058
187	0x3cc2e9a5	0.023793051
188	0x3dd238ea	0.10264762
189	0xbbc56b14	-0.0060247276
190	0x3d717357	0.058947887
191	0x3d79f8a4	0.061028138
192	0x3ebe53f7	0.37173435
193	0xbdde47b9	-0.10853524
194	0xbd67c601	-0.056585316
195	0xbd0e2931	-0.034707252
196	0xbdc26df1	-0.09493626
197	0xbe139be1	-0.14414932
198	0x3f0650de	0.52467144
199	0x3b8fd890	0.00438983
200	0x3e98b9a7	0.29829141
201	0xbe6daaf5	-0.23209746
202	0xbe3c26ab	-0.18374126
203	0xba915c80	-0.0011090189
204	0xbccdf24b	-0.025139948
205	0xbda4cead	-0.08047233
206	0x3e54c886	0.20779619
207	0x3dbf38db	0.09337016
208	0xbddddbb6	-0.10832922
209	0xbd8ae708	-0.06782347
210	0x3ca6c0e9	0.020355659
211	0xbde958f2	-0.11393918
212	0xbcd0fb66	-0.025510501
213	0x3c34da73	0.0110384105
214	0xbc617d5f	-0.013762801
215	0x3c86241f	0.016374646
216	0xbe3e58fe	-0.18588635
217	0x3cc540c5	0.024078736
218	0xbda64ea8	-0.08120471
219	0x3db5403d	0.08850143
220	0xbd173591	-0.03691632
221	0xbd8b23cf	-0.06793939
222	0x3da8c867	0.08241349
223	0xbc17f5c7	-0.0092749065
224	0x3e383bba	0.17991534
225	0xbe303c08	-0.172104
226	0x3de6c0b6	0.112672254
227	0xbd02b991	-0.03191525
228	0xbd8dbbe0	-0.069206
229	0x3cf3e317	0.02977137
230	0xbd90dd69	-0.07073481
231	0xbac459f1	-0.0014980418
232	0x3cfb1701	0.030650618
233	0xbe1d9a5b	-0.15390913
234	0x3e2e2f99	0.17010345
235	0x3e1dd2b5	0.1541241
236	0xbcfca7b7	-0.030841691
237	0x3e0aca33	0.13553695
238	0xbd130941	-0.035897497
239	0xbd781d79	-0.060574982
240	0x3dfc3109	0.1231404
241	0xbc1e87a4	-0.009675894
242	0xbcac50f1	-0.02103469
243	0xbea7d4b1	-0.32779458
244	0xbcfbb710	-0.03072694
245	0xbe0a9037	-0.13531576
246	0xbc93dcf5	-0.018049696
247	0x3c257d61	0.010100693
248	0xbe1fcf9d	-0.15606542
249	0xbbfebdf5	-0.0077741095
250	0xbbc51e23	-0.0060155555
251	0xbc743a03	-0.014906409
252	0x3cbdbc85	0.023161182
253	0x3cfb255c	0.030657463
254	0x3f1afc5d	0.60541326
255	0xbd963575	-0.07334415

p_conv1.bias f4 [4]
0	0x3ea57b38	0.3232057
1	0x3e2517ab	0.1612231
2	0xbccee820	-0.02525717
3	0x3e326f6a	0.17425314

p_fc1.weight f4 [64, 256]
0	0x3d12b65b	0.03581844
1	0x3cf8a3b3	0.030351495
2	0x3c4dbf39	0.012557798
3	0xbcd8d773	-0.026469922
4	0xbc26a011	-0.010169999
5	0x3c0a1707	0.008428342
6	0x3d0df97e	0.034661762
7	0x3d6eacfc	0.05827044
8	0x3db45e9f	0.0880711
9	0xbc1748b3	-0.009233641
10	0x3d85a0a3	0.0652478
11	0x3bb3aa3c	0.00548294
12	0x3d4d62d0	0.050143063
13	0x3e007f8d	0.12548657
14	0x3c8ac3bc	0.016939037
15	0x3c955297	0.018227858
16	0x3d6c98c2	0.05776287
17	0x3b569e12	0.0032748026
18	0x3d3cc987	0.04609063
19	0x3ce98198	0.028504178
20	0xbd21bfc5	-0.039489526
21	0x3d194b07	0.037425067
22	0xbb435f5d	-0.002981148
23	0x3d71500b	0.058914226
24	0x3d4a5687	0.049398925
25	0x3d07be45	0.03314044
26	0x3ccfe4ea	0.02537771
27	0xbb0eae44	-0.002177135
28	0x3c86d8c2	0.01646078
29	0x3c464972	0.012102472
30	0xbcbf19e9	-0.023327785
31	0x3c9e6c70	0.019338816
32	0x3d731751	0.059348408
33	0xbd34a1ce	-0.04409962
34	0x3e51c064	0.20483547
35	0xbbd8dfb5	-0.006618465
36	0x3d83795d	0.064196326
37	0x3d1c1d9a	0.038114168
38	0x3d021059	0.03175387
39	0x3c7ce572	0.015435563
40	0x3dc7a37f	0.09747981
41	0x3e84bfd8	0.25927615
42	0xbd27d0dd	-0.040970672
43	0x3ca341a9	0.01992877
44	0x3a7a476e	0.0009547387
45	0xbc418c7e	-0.011813281
46	0x3d1dc1ad	0.03851478
47	0x3d5c11fa	0.05372808
48	0xbfa00566	-1.2501647
49	0x3d044af5	0.032298047
50	0x3d5693f1	0.05238718
51	0x3d96b4f8	0.07358736
52	0x3d7ba77f	0.061439034
53	0x3d9f7fd4	0.07788053
54	0x3d18bc8e	0.037289195
55	0xbc71e047	-0.014762945
56	0x3c6cf8b3	0.014463591
57	0x3ca896b3	0.020579671
58	0xbc43cb55	-0.011950334
59	0xbb8df276	-0.004331882
60	0x3ce16ce6	0.027517747
61	0x3ca4fea2	0.02014095
62	0x3bb6f413	0.005583295
63	0xbaa56d8b	-0.0012621147
64	0xbcb66b9f	-0.022268115
65	0x3c8b312b	0.016991219
66	0x3ca9ae1a	0.0207129
67	0x3d243071	0.04008526
68	0x3ca6a99a	0.020344544
69	0x3d6a9f42	0.057280786
70	0x3d0db280	0.03459406
71	0x3bb03268	0.0053771026
72	0x3cfe65eb	0.031054458
73	0x3a281e64	0.000641322
74	0x3c249216	0.010044595
75	0xbc909461	-0.017648878
76	0xbc8e466b	-0.017367562
77	0xbce85ae8	-0.02836366
78	0xbd133096	-0.035935007
79	0xbc8bd3a6	-0.017068695
80	0xbd114c50	-0.035473168
81	0xbd85fc89	-0.06542308
82	0xbd3e2293	-0.04641969
83	0xbdcf9929	-0.10136635
84	0xbd647427	-0.055774834
85	0xbc6823bc	-0.014168676
86	0xbc66f337	-0.014096073
87	0xbc40eca3	-0.011775169
88	0xbd19d365	-0.037555117
89	0xbbf498a9	-0.0074644876
90	0xbdcb4cd4	-0.09926763
91	0xbe016489	-0.12636007
92	0xbce04c14	-0.027380027
93	0xbc656cd2	-0.014002996
94	0xbd4b5ffc	-0.049652085
95	0xbd962072	-0.07330407
96	0x3d09fecb	0.033690255
97	0xbcf4d997	-0.029888911
98	0xbde123e0	-0.10993171
99	0xbe37e60a	-0.17958847
100	0xbdd3a215	-0.10333649
101	0xbd961ed6	-0.073301
102	0xbc39be52	-0.01133688
103	0xbd9958d2	-0.07487644
104	0x3d503543	0.050832044
105	0x3cc34452	0.023836289
106	0xbe6d0862	-0.23147729
107	0xbe2d08b9	-0.16897859
108	0xbdbc20bb	-0.0918593
109	0x3cc6000e	0.024169948
110	0xbd0f3f2b	-0.03497235
111	0xbd86a812	-0.065750256
112	0x3ed330cd	0.4124817
113	0xbe82f3cf	-0.25576636
114	0xbde7d8f6	-0.11320679
115	0x3d54ca2a	0.05195061
116	0xbd124d1f	-0.03571808
117	0xbd340077	-0.043945756
118	0xbd4347c4	-0.047675863
119	0x3c63237d	0.013863442
120	0xbe53d945	-0.2068835
121	0xbe8d4de2	-0.27598482
122	0xbdc90852	-0.0981604
123	0xbcd1ddd6	-0.025618475
124	0x3d1af352	0.037829705
125	0x3cf2c95e	0.029637035
126	0x3bb6ffeb	0.005584707
127	0x3c047d76	0.008086553
128	0xbcc140b0	-0.023590416
129	0x3c939dc6	0.018019568
130	0x3cc764b1	0.024340006
131	0x3d13bd39	0.03606913
132	0x3d1b8afe	0.03797435
133	0x3d39bc39	0.04534552
134	0x3bf1a954	0.007374922
135	0x3d369b8a	0.044581927
136	0xbca4296e	-0.020039286
137	0x3cff18e9	0.031139808
138	0xbc3516c2	-0.011052789
139	0xbd9ac5b5	-0.07557241
140	0xbd4ca22c	-0.049959347
141	0xbcd19348	-0.025582924
142	0xbbb5a2eb	-0.005543103
143	0xbcc1dade	-0.023663934
144	0xbd194905	-0.037423152
145	0xbc10059f	-0.008790403
146	0x3d4858a9	0.048912678
147	0x3d7bf312	0.061511107
148	0x3cc0f428	0.023553923
149	0xbd1434c3	-0.03618313
150	0x3c81a66e	0.01582643
151	0xbd47b660	-0.04875791
152	0xbbe9e875	-0.0071383067
153	0x3d3e8f5d	0.04652344
154	0x3c56f458	0.0131197795
155	0x3de83b92	0.11339487
156	0x3d9a3585	0.07529739
157	0x3d105c68	0.035244375
158	0x3cb96226	0.022629809
159	0xbbf5abc2	-0.007497282
160	0xbc18290d	-0.009287131
161	0xbd86360a	-0.06553276
162	0x3d81c094	0.063355595
163	0x3dd80cc7	0.10549312
164	0x3d9a21fa	0.07526012
165	0x3de5ba7a	0.11217208
166	0x3cb5f3e6	0.022211026
167	0xbc09bfd1	-0.008407549
168	0xba262f86	-0.0006339479
169	0x3d884e8b	0.06655606
170	0x3d4e5a4a	0.050379075
171	0x3e4f2791	0.20229937
172	0x3c645df2	0.013938414
173	0x3d593105	0.053025264
174	0x3d16a567	0.036778834
175	0xbd9620d9	-0.07330484
176	0x3e464dec	0.19365662
177	0x3e928fd7	0.28625366
178	0x3e7ce61e	0.24697158
179	0xbbace7ad	-0.0052766413
180	0x3d36fcc1	0.04467464
181	0xbcc4a997	-0.024006648
182	0x3d8c695f	0.068560354
183	0xbc657963	-0.014005992
184	0x3e58ea3a	0.211831
185	0x3e5e257f	0.21693991
186	0x3d127036	0.035751544
187	0xbd56215f	-0.05227792
188	0xbd9a4661	-0.07532955
189	0x3d25c0fe	0.040467255
190	0xbc857846	-0.016292702
191	0xbb07013f	-0.0020600108
192	0xbcdb240d	-0.026750589
193	0x3d575a3f	0.0525763
194	0xbcdaa220	-0.026688635
195	0xbd30dadf	-0.04317748
196	0x3b559162	0.0032587876
197	0xbc16331d	-0.00916746
198	0x3c4962a9	0.012291589
199	0xbb90f239	-0.0044234064
200	0xbb9fd627	-0.004877824
201	0xbd2acd40	-0.041699648
202	0xbd9708a6	-0.073746964
203	0xbc568ffd	-0.013095853
204	0xbd6590e2	-0.056046374
205	0xbd79d68d	-0.060995627
206	0xbd693bdc	-0.056941852
207	0xbcd599a6	-0.026074242
208	0x3d1f1d79	0.038846467
209	0xbd4356d8	-0.047690243
210	0x3cdb9520	0.026804507
211	0xbd9ecf2f	-0.07754361
212	0xbd953646	-0.072857425
213	0x3c9bfc6f	0.019041268
214	0xbd4a1057	-0.04933199
215	0x3ca843b3	0.020540094
216	0x3d433f6f	0.047667917
217	0xbd0a41f2	-0.033754297
218	0xbd64c67b	-0.05585335
219	0xbe05081c	-0.12991375
220	0xbb247e67	-0.0025099756
221	0xbddaea08	-0.10689169
222	0xbd36272d	-0.044470955
223	0xbca77624	-0.020442076
224	0xbca1e6bb	-0.019763341
225	0x38ed3c34	0.00011312254
226	0xbd5c152c	-0.05373113
227	0xbe39c850	-0.1814282
228	0xbd9d7770	-0.076887965
229	0xbd8ff26f	-0.070286624
230	0xbc49a0ff	-0.012306451
231	0xbcbbf52d	-0.022944057
232	0xbdc1eeb4	-0.09469357
233	0x3d23ceea	0.03999225
234	0xbe7ba385	-0.24574097
235	0x3c08edcf	0.008357479
236	0xbdf66f88	-0.12032992
237	0xbcb07a05	-0.021542558
238	0xbcc22405	-0.023698816
239	0x3be39b73	0.006946021
240	0xbe6e2529	-0.23256363
241	0xbe8d6b30	-0.2762084
242	0xbacd93df	-0.0015684328
243	0xbcafd00d	-0.021461511
244	0x37c00a5f	2.2893013e-05
245	0xbd7ac88e	-0.06122642
246	0x3bb66786	0.00556654
247	0xbd35d054	-0.04438813
248	0xbe7a5f5d	-0.2445044
249	0x3ebaa292	0.36452156
250	0x3dc6c29c	0.097050875
251	0x3c36aa28	0.011148967
252	0xbde3383e	-0.11094712
253	0xbd5d9c68	-0.05410424
254	0x3ca69647	0.02033533
255	0x3ae2d01a	0.0017304451

p_fc1.bias f4 [64]
0	0xbd5502ee	-0.052004747
1	0xbd165110	-0.0366984
2	0xbd7b2515	-0.06131466
3	0xbe01ca2d	-0.1267478
4	0xbe0290ee	-0.12750599
5	0xbd8265bf	-0.06367063
6	0xbd5b4798	-0.053535074
7	0xbd79bdbc	-0.06097196
8	0xbcea4432	-0.028596971
9	0xbd6e997b	-0.05825184
10	0x3d6109c3	0.05494095
11	0x39ec1d29	0.00045035154
12	0xbcefee5c	-0.029288463
13	0xbcf1863a	-0.02948295
14	0xbda25554	-0.07926431
15	0xbc95d6d3	-0.018290913
16	0xbd26849c	-0.04065381
17	0x3a440799	0.0007477939
18	0x3d9ea13e	0.07745598
19	0x3dad672f	0.08466946
20	0x3dbd3395	0.09238354
21	0x3d1b92be	0.03798174
22	0xbce708d5	-0.028202454
23	0xbc3db4a9	-0.011578717
24	0xbd8e8015	-0.069580235
25	0x3995a55e	0.00028542703
26	0x3dde052e	0.10840832
27	0x3e1dc54e	0.15407297
28	0x3e2776be	0.1635389
29	0x3d8a6d37	0.06759112
30	0xbd2f350e	-0.042775206
31	0xbc70e00f	-0.014701857
32	0xbdc2da90	-0.09514344
33	0xbcd06133	-0.025436973
34	0x3df6c495	0.12049214
35	0x3e373db7	0.17894636
36	0x3e2eff81	0.17089655
37	0x3e01b7c9	0.12667765
38	0x3beb0192	0.007171818
39	0xbcc5a4c6	-0.024126422
40	0xbd685278	-0.056719273
41	0x3b9108d6	0.004426102
42	0x3d8528a4	0.06501892
43	0x3da8b164	0.082369596
44	0x3da1af74	0.07894793
45	0x3df0a21d	0.11749671
46	0x3d9a8c26	0.075462624
47	0x3c9fa704	0.019488819
48	0xbd33ba6a	-0.04387895
49	0xbd96ae9b	-0.07357522
50	0x3c5ede96	0.013602873
51	0x3cf2639e	0.029588517
52	0xbc58db7f	-0.013235926
53	0x3cb540b7	0.022125585
54	0xbda60811	-0.08107007
55	0xba302b03	-0.00067202764
56	0xbd514476	-0.05109068
57	0xbd80e45e	-0.062935576
58	0xbcd2de1f	-0.025740681
59	0xbdc4fa29	-0.09618027
60	0xbdc89ead	-0.0979589
61	0xbd1ee261	-0.03879011
62	0xbcea7596	-0.028620522
63	0x3d134822	0.035957463

value_conv1.weight f4 [2, 128, 1, 1]
0	0x3d1eb6cd	0.03874855
1	0xbcfeffbf	-0.031127809
2	0x3dab528b	0.08365353
3	0x3cac499d	0.021031195
4	0xbdb4ce56	-0.08828418
5	0xbe0668aa	-0.13125864
6	0xbe32234d	-0.17396279
7	0x3d07ce8f	0.033155974
8	0x3d6618ea	0.056176104
9	0xbde130d8	-0.10995644
10	0xbe7926ce	-0.24331209
11	0xbbf5198f	-0.0074798535
12	0x3da093f2	0.07840718
13	0x3d758f7d	0.059951294
14	0x3da98b7a	0.08278556
15	0xbb722a3e	-0.0036951448
16	0xbc45cf64	-0.012073372
17	0x3d031bdc	0.03200899
18	0x3ba83a17	0.005133878
19	0xbd3dec10	-0.046367705
20	0xbdb3f9e8	-0.087879
21	0x3da0cae0	0.07851195
22	0xbe811ca0	-0.25217152
23	0xbe8bc877	-0.2730138
24	0x3b7c513c	0.0038500568
25	0xbe3eb990	-0.18625474
26	0x3daacd26	0.0833991
27	0xbd9d0eb9	-0.07668824
28	0x3d442c33	0.047893714
29	0xbe20fed9	-0.15722217
30	0x3ce64b3c	0.028112046
31	0xbd728580	-0.059209347
32	0xbd1b0833	-0.037849616
33	0xbcef5eb7	-0.029219968
34	0xbd5a3ffa	-0.05328367
35	0x3ce12afb	0.027486315
36	0xbd032e1b	-0.03202639
37	0x3d1e8edc	0.03871046
38	0x3e2a6d96	0.16643366
39	0xbd6a86ba	-0.05725739
40	0x3e10358e	0.1408293
41	0xbeb83969	-0.359813
42	0x3d20dc73	0.039272737
43	0xbc962396	-0.018327516
44	0xb958d3a2	-0.00020678205
45	0x3e6f8616	0.23390993
46	0x3e2d5bf7	0.16929613
47	0xbe10de00	-0.14147186
48	0x3def47fd	0.116836525
49	0x3de3fbf3	0.1113204
50	0xbbaa84b4	-0.0052038077
51	0x3d3f16cd	0.046652604
52	0xbd90714e	-0.07052861
53	0x3dacd1a0	0.0843842
54	0xbeba3afb	-0.36373124
55	0x3d7fa96e	0.06241744
56	0xbd9afee6	-0.07568149
57	0xbcb2d328	-0.021829203
58	0x3ba50ded	0.0050370605
59	0xbdf2cc23	-0.11855342
60	0x3e507b15	0.20359452
61	0xbd3e999f	-0.046533223
62	0x3c0915ee	0.008367045
63	0xbdf58e77	-0.11990064
64	0xbc46602c	-0.01210789
65	0x3da79690	0.081830144
66	0xbe266e3b	-0.16252987
67	0xbe191dbe	-0.14952752
68	0xbda8d15c	-0.08243057
69	0x3df93847	0.12168937
70	0xbcb1f343	-0.021722442
71	0xbeb42002	-0.3518067
72	0xbd7f0dfa	-0.06226919
73	0x3a1702c7	0.0005760607
74	0xbc95e924	-0.018299647
75	0xbe2ef0d4	-0.17084056
76	0xbc0b92bd	-0.008518872
77	0xbdd1f830	-0.10252416
78	0xbd6034eb	-0.054737967
79	0x3da85074	0.0821847
80	0xbda8258c	-0.082102865
81	0xbd937d6c	-0.07201657
82	0xbe3bf9a4	-0.18356949
83	0x3d2bb788	0.041923076
84	0xbe091174	-0.13385564
85	0x3d6c87de	0.05774676
86	0x3b142b17	0.0022608691
87	0xbd45d6d7	-0.04830059
88	0xbdae98ae	-0.08525215
89	0xbdaa0269	-0.08301241
90	0x3d0bbc50	0.034115136
91	0x3d1ab957	0.03777441
92	0xbe33a51a	-0.1754345
93	0x3c813743	0.015773421
94	0xbc3b9d45	-0.01145107
95	0xbe07bedb	-0.132564
96	0xbde82ba8	-0.11336452
97	0x3d8c713e	0.06857537
98	0xbabc03aa	-0.0014344354
99	0xbeae4b6b	-0.34041914
100	0xbcf6d345	-0.030130038
101	0xbdc00378	-0.093756616
102	0x3c4839df	0.012220829
103	0x3d83d72d	0.06437526
104	0x3d6898fd	0.056786526
105	0x3db96348	0.090521395
106	0x3e1f705f	0.1557021
107	0x3a2c6ea1	0.0006577764
108	0xbe3a6c84	-0.18205458
109	0xbe0374ce	-0.12837526
110	0xbe8665f2	-0.26249653
111	0x3c11c659	0.008897387
112	0x3dc5a57c	0.09650704
113	0xbe63a233	-0.22229843
114	0xbd9e587c	-0.07731721
115	0xbca0e704	-0.019641407
116	0xbe912200	-0.28346252
117	0xbcb549ae	-0.02212986
118	0xbcbd1979	-0.023083435
119	0x3ca0a218	0.019608542
120	0x3d746e58	0.059675545
121	0xbab43790	-0.0013749469
122	0xbe64a61b	-0.22328989
123	0x3d171546	0.036885522
124	0x3d145bd8	0.0362204
125	0xbe8ae88c	-0.27130544
126	0xbccafb7d	-0.024778122
127	0x3d94e3cf	0.072700135
128	0x3c752d00	0.014964342
129	0xb86c98a4	-5.6408942e-05
130	0x3f0c617a	0.5483624
131	0x3e44bb18	0.19211996
132	0xbe51799a	-0.20456544
133	0xbaa61bb7	-0.0012673055
134	0xbd6c3197	-0.05766448
135	0x3de2de19	0.11077518
136	0x3e7038d3	0.23459177
137	0xbdee1150	-0.11624396
138	0x3d01ee1c	0.03172122
139	0xbe62ed33	-0.22160797
140	0xbe730f5e	-0.23736331
141	0xbe5d3bdc	-0.21604866
142	0xbedc8550	-0.4307046
143	0xbe97a443	-0.2961751
144	0xbca5aee6	-0.020225
145	0x3dc505ba	0.09620233
146	0xbe7d2d56	-0.24724326
147	0xbb34bb81	-0.0027577581
148	0x3ce211fb	0.027596464
149	0xbee494b9	-0.44644716
150	0xbe369f98	-0.17834318
151	0x3caebb74	0.021329619
152	0xbe0e0977	-0.13870798
153	0x3e299133	0.16559295
154	0xbe7d2ac5	-0.24723347
155	0x3da50643	0.08057835
156	0xbeaa830d	-0.3330311
157	0xbdb8e006	-0.09027104
158	0xbe97369c	-0.2953385
159	0x3e42cfdb	0.19024603
160	0xbd87a447	-0.0662313
161	0xbe2abf63	-0.1667457
162	0x3e2cf64d	0.16890831
163	0x3e121d22	0.14268926
164	0xbed2a0b2	-0.41138226
165	0xbeab3af4	-0.33443415
166	0x3dbb1351	0.09134544
167	0xbe9984e9	-0.29984215
168	0xbe5cbdef	-0.21556829
169	0xbe2d3eef	-0.16918539
170	0x3bf28090	0.0074005798
171	0x3dea76b6	0.114484236
172	0xbdc0d4cc	-0.09415588
173	0xbe251d6d	-0.16124506
174	0x3e51693b	0.20450298
175	0xbca88efb	-0.02057599
176	0xbdff15b1	-0.12455309
177	0x3cead7f2	0.028667424
178	0x3d589b90	0.05288273
179	0xbead4fc9	-0.33849934
180	0xbce6d3d5	-0.028177181
181	0x3d5abdbe	0.05340361
182	0x3d304952	0.043038674
183	0x3cfc80c5	0.03082312
184	0xbec8b366	-0.3919937
185	0x3e0bfa95	0.13669808
186	0xbe827c82	-0.25485617
187	0xbd390035	-0.045166213
188	0x3e0f923a	0.14020625
189	0x3e152366	0.14564285
190	0x3e453014	0.19256622
191	0x3e20059d	0.15627141
192	0xbe04e310	-0.12977242
193	0xbdcd736a	-0.10031779
194	0xbe4ae3f1	-0.19813515
195	0x3de53be3	0.11193063
196	0x3c9d99c8	0.019238368
197	0x3e052703	0.13003163
198	0xbd47ec06	-0.048809074
199	0xbd80bb29	-0.06285698
200	0xbd742250	-0.059603035
201	0xba2ab6d3	-0.0006512228
202	0x3e6a307a	0.22870055
203	0xbb61ee1c	-0.00344742
204	0xbe96bca7	-0.29440805
205	0xbbaa84ee	-0.0052038347
206	0xbdd166ca	-0.102246836
207	0xbca0820b	-0.01959326
208	0xbe096865	-0.1341873
209	0x3e460e26	0.19341335
210	0xbe8cf3ca	-0.27529746
211	0x3e7f363a	0.2492303
212	0xbede760e	-0.43449444
213	0x3e904fb4	0.2818581
214	0xbe9331a8	-0.28748822
215	0x3c96e0cc	0.018417738
216	0x3ce1cae2	0.027562562
217	0xbe2c0d2e	-0.16801903
218	0xbe8788d8	-0.2647159
219	0xbc817b88	-0.015805975
220	0xbe77783b	-0.24166958
221	0x3d470ed2	0.048598118
222	0x3d5ddc08	0.054164916
223	0xbea3f8c1	-0.32025722
224	0xbcc01bfa	-0.02345084
225	0x3d47c800	0.04877472
226	0xbe284e76	-0.1643618
227	0xbe981c29	-0.29708984
228	0x3d09e10b	0.033661883
229	0xbd353992	-0.044244356
230	0x3dbee2ba	0.093205884
231	0x3d3bc708	0.045844108
232	0xbe6327cd	-0.22183152
233	0xbe5857dd	-0.21127267
234	0xbc16a8d0	-0.0091955215
235	0x3de869fc	0.1134834
236	0x3e08f2c5	0.13373859
237	0xbdb4ec10	-0.08834088
238	0xbdc95abd	-0.0983176
239	0xbdfd87c1	-0.12379409
240	0xbeae29cd	-0.34016266
241	0xbe9067ea	-0.2820428
242	0xbeae56df	-0.34050652
243	0x3cddde80	0.027083635
244	0xbe1c7d66	-0.1528221
245	0x398e8b3b	0.00027188085
246	0x3d40a3ad	0.047031093
247	0x3ef5bf81	0.47997668
248	0x3dc0847d	0.0940027
249	0xbbf022b1	-0.0073283543
250	0xbec7f1e4	-0.39051735
251	0xbbdd17a3	-0.0067472025
252	0x3f0a0a03	0.53921527
253	0xbd739e56	-0.059477173
254	0x3d77735f	0.06041276
255	0x3e161bd6	0.14659056

value_conv1.bias f4 [2]
0	0x3e006175	0.12537177
1	0x3d659fc0	0.056060553
