model/resnet/8x8/4/8.pt (torch_old, 648550 bytes, 40 tensors)

common_layer.0.weight f4 [64, 4, 3, 3]
0	0x3d8d54a9	0.06900913
1	0x3e696442	0.22792152
2	0xbe82e5bd	-0.255659
3	0xbcc0903f	-0.023506282
4	0xbdc9519a	-0.098300174
5	0xbe7ee7e0	-0.24893141
6	0xbe7c9c4b	-0.24668996
7	0xbdf92611	-0.12165464
8	0x3e4ff234	0.20307237
9	0xbca77265	-0.02044029
10	0x3e151694	0.14559394
11	0xbde4fe9a	-0.11181374
12	0xbe792dcb	-0.24333875
13	0x3e0da09d	0.138308
14	0x3dfabc2b	0.122429214
15	0x3df2d46b	0.11856922
16	0x3d1221d5	0.035676796
17	0xbe9bfa1d	-0.3046426
18	0x3d3eadc5	0.04655244
19	0x3cd67e4f	0.026183276
20	0xbd249fd5	-0.04019149
21	0x3b8b70ac	0.004255375
22	0x3de5b2e9	0.11215765
23	0x3cff3d07	0.03115703
24	0x3dbad640	0.09122896
25	0x3cc45cc4	0.023970015
26	0x3df9acb3	0.12191143
27	0x3e4c5344	0.19953638
28	0x3db60733	0.08888092
29	0xbd4a56a4	-0.049399033
30	0xbc871f70	-0.016494483
31	0x3e0df318	0.13862264
32	0xbda76a95	-0.08174626
33	0x3c560d65	0.013064717
34	0xbe132b8a	-0.14372078
35	0xbcc6547d	-0.024210209
36	0xbe47d1aa	-0.19513574
37	0xbd87ee9c	-0.06637308
38	0xbe0cc568	-0.1374718
39	0x3daee6b7	0.08540099
40	0x3e7029e8	0.23453486
41	0xbdb244d1	-0.08704532
42	0xbd70d7b0	-0.058799446
43	0xbd60b0e6	-0.054856203
44	0x3d03f4cf	0.03221589
45	0xba5acb51	-0.00083463365
46	0x3cc2cda6	0.023779701
47	0xb70910f0	-8.16978e-06
48	0x3dd1eb90	0.10250008
49	0x3e933288	0.2874949
50	0x3e36755f	0.17818211
51	0xbdc7397e	-0.09727763
52	0xbeab0a1f	-0.3340616
53	0x3e0666bb	0.13125126
54	0x3d09355d	0.033498157
55	0x3c8f7728	0.017512873
56	0xbd7f25e8	-0.06229201
57	0xbdcd1eb4	-0.10015622
58	0xbd6a6495	-0.05722483
59	0xbe64b7dd	-0.22335763
60	0xbcecb248	-0.028893605
61	0xbc426739	-0.0118654305
62	0xbd9686f8	-0.07349962
63	0x3d936342	0.07196666
64	0x3c8ff873	0.017574525
65	0x3c0e81e8	0.008697964
66	0x3e1e291b	0.15445368
67	0xbdac33ec	-0.08408341
68	0xbd1bbbdd	-0.038020957
69	0xbde18deb	-0.11013397
70	0xbe3dc32d	-0.18531485
71	0xbe214128	-0.15747511
72	0x3e81c223	0.25343427
73	0xbdce99cf	-0.100879304
74	0x3ea2f5d6	0.31828183
75	0xbdf6b124	-0.12045506
76	0xbd1a2426	-0.03763213
77	0x3e41a488	0.1891042
78	0x3e7cd244	0.24689585
79	0xbe2b5f84	-0.16735655
80	0x3cb39103	0.021919733
81	0x3e0ab7b2	0.13546637
82	0xbb528e94	-0.003212844
83	0xbe06a3b1	-0.13148381
84	0xbe00b9db	-0.12570898
85	0xbeb87dad	-0.36033383
86	0xbba48712	-0.0050209844
87	0xbe8ee114	-0.27906096
88	0x3bc52295	0.0060160854
89	0x3d1916ab	0.037375133
90	0x3d1f6abc	0.03892015
91	0x3d29f9d4	0.04149802
92	0x3e07b97e	0.13254353
93	0x3cf8b5cc	0.030360125
94	0x3d800c77	0.062523775
95	0xbcc00c0f	-0.02344325
96	0x3d9bbdd0	0.07604563
97	0x3c4b16a9	0.012395539
98	0x3d21c260	0.03949201
99	0xbdc17b9e	-0.09447406
100	0x3d62701d	0.0552827
101	0x3c55fea4	0.013061199
102	0xbd470351	-0.048587147
103	0x3d911df8	0.07085794
104	0xbd419405	-0.047260303
105	0x3cd8f772	0.026485179
106	0xbdb634c0	-0.0889678
107	0x3da4dac1	0.080495365
108	0x3e64d924	0.22348458
109	0x3deb8b3c	0.11501166
110	0xbef98033	-0.4873062
111	0x3d771ab9	0.06032822
112	0xbe185d12	-0.14879254
113	0x3d11592d	0.035485435
114	0xbe7f452f	-0.24928735
115	0x3c8d27be	0.017230865
116	0xbe155f33	-0.14587097
117	0x3e596e5f	0.2123351
118	0x3e0ec8b3	0.13943748
119	0xbe964dbc	-0.29356182
120	0x3df02452	0.117256775
121	0x3c144fd6	0.0090522375
122	0x3e32b2ef	0.1745107
123	0xbe5bae14	-0.21453124
124	0x3d0fa392	0.035068102
125	0x3e71b8d6	0.23605666
126	0xbbaab729	-0.0052098227
127	0x3d4f13b0	0.050555885
128	0x3d2c1125	0.042008538
129	0xbd38d57e	-0.045125477
130	0xbd159672	-0.03652043
131	0x3c222986	0.009897595
132	0xba5d0786	-0.0008431602
133	0x3d3540c7	0.04425123
134	0xbca4c32f	-0.020112602
135	0x3d40819c	0.046998605
136	0x3dd26d95	0.10274807
137	0xbd92db74	-0.071707636
138	0xbccc15c6	-0.024912726
139	0x3d9621eb	0.07330688
140	0xbda47f0b	-0.08032044
141	0xbb803f29	-0.0039137793
142	0xbcae73be	-0.021295425
143	0x3dbd56f2	0.09245099
144	0x3e8f9f76	0.28051347
145	0x3df2bde2	0.118526235
146	0xbd926cea	-0.0714968
147	0xbdc61f9f	-0.09674
148	0x3e6cd16a	0.2312676
149	0xbdbd34ac	-0.09238562
150	0xbd889e48	-0.06670815
151	0x388ab2dc	6.613668e-05
152	0xbe349012	-0.17633083
153	0xbe91b194	-0.28455794
154	0xbe6b76ab	-0.22994487
155	0xbecfeb90	-0.40609407
156	0x3d866334	0.0656189
157	0x3e149788	0.1451093
158	0x3d7e06ca	0.062018193
159	0x3c68ced0	0.014209464
160	0xbe4330fc	-0.19061655
161	0x3dda67e4	0.10664347
162	0x3bfa8be5	0.0076460713
163	0x3e14b3a1	0.14521648
164	0xbd5081d8	-0.05090508
165	0xbd1f7d39	-0.03893778
166	0x3d0daed7	0.03459057
167	0x3c803a92	0.015652929
168	0x3cf761a7	0.030197931
169	0x3e4b0d67	0.19829331
170	0xbdc40677	-0.095715456
171	0x3dab495e	0.08363603
172	0x3e12cc49	0.14335741
173	0xbcdcb6f5	-0.02694271
174	0xbe098f83	-0.13433652
175	0xbe15bdd4	-0.14623195
176	0x3d7ccea5	0.06172051
177	0xbdc2ecd6	-0.09517829
178	0xbe078b02	-0.13236621
179	0x3e1f75bf	0.1557226
180	0xbe81d59f	-0.25358292
181	0xbe02a905	-0.12759788
182	0x3e50c3a8	0.20387137
183	0xbdcead3a	-0.10091634
184	0x3d38461c	0.044988737
185	0xbe35ecd7	-0.17766128
186	0x3cbccbac	0.023046337
187	0x3da35aea	0.07976325
188	0x3e90165a	0.28142053
189	0xbe205566	-0.15657577
190	0xbda1508e	-0.07876693
191	0xbdc9f6ae	-0.098615035
192	0xbdf16c06	-0.11788182
193	0x3ded68be	0.115922436
194	0xbe485e0a	-0.19567123
195	0xbeaafa52	-0.33394104
196	0xbe8e02ac	-0.27736413
197	0xbe9e9165	-0.30970302
198	0xbd0dccd0	-0.034619153
199	0xbd203a7c	-0.039118275
200	0x3d844a1c	0.06459448
201	0x3d0d12bd	0.0344417
202	0xbe4f4c47	-0.20243941
203	0x3d4a4e03	0.049390804
204	0xbc5f26a5	-0.013620053
205	0x3d824bcd	0.06362114
206	0xbd2d2840	-0.042274714
207	0xba72ae93	-0.0009257581
208	0xbd17c1dc	-0.037050113
209	0xbc63fc22	-0.013915094
210	0x3db27c77	0.08715146
211	0x3dcb9a2d	0.09941516
212	0xbda9b5d8	-0.08286637
213	0xbdbdd5bc	-0.09269282
214	0xbb8a8abf	-0.0042279656
215	0xbcebebb5	-0.028798917
216	0x3c0d105b	0.0086098565
217	0x3e09ba18	0.13449895
218	0xbe1bc130	-0.15210414
219	0xbd8bd69f	-0.06828045
220	0x3e14db3d	0.14536758
221	0x3e54ee31	0.20793988
222	0xbe487c10	-0.19578576
223	0xbee22a36	-0.4417283
224	0xbccbd1bc	-0.024880283
225	0xbde9e0fc	-0.114198655
226	0xbdb3795c	-0.08763382
227	0x3dfe97b1	0.124312766
228	0xbdb00ab2	-0.0859579
229	0x3dada811	0.08479322
230	0x3dc00080	0.09375095
231	0x3d82a3e0	0.06378913
232	0x3e6e034e	0.23243448
233	0x3e9a3608	0.30119348
234	0xbdace5b9	-0.084422536
235	0xbd3faaa4	-0.046793595
236	0xbd063af2	-0.03277106
237	0xbe1cc175	-0.15308173
238	0x3be6f459	0.0070481715
239	0xbd1f1c97	-0.038845625
240	0x3db3003e	0.087402806
241	0xbcec74db	-0.028864315
242	0x3d31b9a1	0.04338992
243	0x3da04e46	0.078274295
244	0xbdaf1a55	-0.08549944
245	0xbe12f656	-0.14351782
246	0x3dc7e0e2	0.0975969
247	0x3d9583ac	0.07300505
248	0xbe1b5780	-0.15170097
249	0xbd64185c	-0.055687293
250	0x3e199d6f	0.15001462
251	0xbd25fdc3	-0.04052521
252	0x3c1a02d9	0.009400093
253	0xbdcb42ca	-0.099248484
254	0x3e8631bc	0.2620982
255	0xbc90c8f7	-0.017673953

common_layer.0.bias f4 [64]
0	0xb83714f6	-4.365012e-05
1	0x381274b1	3.491779e-05
2	0xb7e94f50	-2.7812697e-05
3	0x38ddaafd	0.0001056995
4	0x3989b5ed	0.00026266222
5	0x38824e1a	6.2134306e-05
6	0xb9b6f872	-0.0003489885
7	0xb8d3244a	-0.000100680234
8	0xb98cc2dc	-0.00026848062
9	0xb884f06a	-6.339031e-05
10	0xb80a3239	-3.2948537e-05
11	0xb99d0980	-0.00029952452
12	0x398f7f93	0.00027370136
13	0x36487cc0	2.9874936e-06
14	0xb88ab0cc	-6.613284e-05
15	0x397edc0f	0.00024305306
16	0x3898cbdc	7.2858966e-05
17	0x3963d1f4	0.0002172662
18	0xb94e2730	-0.0001966029
19	0xb87ecc1a	-6.0748403e-05
20	0xb7faefe8	-2.9914037e-05
21	0xb94dbbfa	-0.0001962035
22	0x3932c66c	0.00017049321
23	0x393f2fca	0.00018232982
24	0x383f2318	4.5570632e-05
25	0xb8a63904	-7.926117e-05
26	0xb89ad22a	-7.382438e-05
27	0x3833ac1a	4.2837208e-05
28	0xb99f2a18	-0.00030358206
29	0xb8ff1ce0	-0.00012164726
30	0x37217594	9.623724e-06
31	0xb9032399	-0.00012506395
32	0x385c0994	5.2461008e-05
33	0xb91469fa	-0.00014153859
34	0xb931ccfc	-0.00016956398
35	0xb8a4bd46	-7.855384e-05
36	0xb93be950	-0.00017920625
37	0x381657be	3.5844503e-05
38	0x39330292	0.00017071728
39	0x3892ed62	7.0060385e-05
40	0xb76cd358	-1.41159035e-05
41	0x382093eb	3.8284732e-05
42	0xb91f1882	-0.00015172552
43	0x398023fe	0.0002444088
44	0x38f6823e	0.000117544536
45	0x39384f5a	0.00017577168
46	0x3879c8bd	5.955318e-05
47	0x389033ce	6.8761045e-05
48	0xb95489c0	-0.00020269211
49	0xb883f194	-6.291564e-05
50	0x38912485	6.920941e-05
51	0xb99a617c	-0.000294458
52	0x38ac93b6	8.2291124e-05
53	0xb722d8e6	-9.706453e-06
54	0xb88f2e9a	-6.8274516e-05
55	0x3920163f	0.00015267076
56	0x394667be	0.00018921398
57	0xb91e8adc	-0.00015119783
58	0x3967d6d1	0.00022109902
59	0xb8f3e5a5	-0.000116299176
60	0x3956c949	0.00020483615
61	0xb9093c46	-0.00013087792
62	0x3879297b	5.9404858e-05
63	0x3846b252	4.7372952e-05

common_layer.1.weight f4 [64]
0	0x3f32f9bf	0.6991233
1	0x3f348b07	0.7052464
2	0x3f4ec09a	0.80762637
3	0x3f4e20ce	0.80518806
4	0x3f5211d2	0.8205844
5	0x3f4edc15	0.8080457
6	0x3f3c49fe	0.73550403
7	0x3f6c0b04	0.9220431
8	0x3f3909e4	0.72280717
9	0x3f3bf929	0.73427063
10	0x3f415c49	0.7553144
11	0x3f4861c1	0.7827416
12	0x3f559997	0.83437485
13	0x3f4aa5bb	0.79159135
14	0x3f497b9c	0.7870424
15	0x3f365c36	0.7123445
16	0x3f2ec2f8	0.6826625
17	0x3f416e40	0.75558853
18	0x3f20ffa0	0.6289005
19	0x3f40d764	0.7532866
20	0x3f4825db	0.7818276
21	0x3f3d69f2	0.73989785
22	0x3f448ad5	0.7677434
23	0x3f458fde	0.7717265
24	0x3f4552db	0.7707955
25	0x3f21f7f9	0.63269
26	0x3f4772f0	0.77909756
27	0x3f3f67ca	0.74767745
28	0x3f3af7f1	0.7303458
29	0x3f34a687	0.705666
30	0x3f2e805f	0.6816463
31	0x3f382dc1	0.71944815
32	0x3f188baf	0.5958814
33	0x3f4439ba	0.76650584
34	0x3f5d1ba5	0.8637031
35	0x3f301b2b	0.68791455
36	0x3f344688	0.7042012
37	0x3f29e351	0.6636248
38	0x3f3725f9	0.71542317
39	0x3f339789	0.701531
40	0x3f5cf7e4	0.8631575
41	0x3f382d24	0.7194388
42	0x3f3c4ab2	0.73551476
43	0x3f49c4db	0.78816
44	0x3f5dc068	0.86621714
45	0x3f27dd87	0.655724
46	0x3f5241c0	0.82131577
47	0x3f1aa78a	0.60411894
48	0x3f486ce0	0.7829113
49	0x3f4d9a2e	0.80313385
50	0x3f54adb4	0.8307755
51	0x3f415a2d	0.7552822
52	0x3f2b85f1	0.67001253
53	0x3f2c59fe	0.6732482
54	0x3f5d012f	0.8632993
55	0x3f438071	0.7636786
56	0x3f7554ef	0.95832723
57	0x3f44a805	0.7681888
58	0x3f5f01e3	0.87112254
59	0x3f25b4e4	0.6472914
60	0x3f4afdb9	0.792934
61	0x3f2adbfb	0.66741914
62	0x3f37c1f2	0.7178031
63	0x3f200d5d	0.6252039

common_layer.1.bias f4 [64]
0	0xbe3650ff	-0.17804335
1	0xbe7cec2a	-0.24699464
2	0xbe1a540e	-0.15071127
3	0xbe35cf0d	-0.17754765
4	0xbe846623	-0.25859174
5	0xbe7e3ef4	-0.24828702
6	0xbe9cef49	-0.3065131
7	0xbe8f99a0	-0.28046894
8	0xbe625306	-0.22101983
9	0xbe84d999	-0.25947264
10	0xbe5ef545	-0.2177325
11	0xbe9373a6	-0.2879917
12	0xbd1b847a	-0.037968136
13	0xbda0bd8e	-0.07848655
14	0xbdbb148e	-0.0913478
15	0xbea8f9de	-0.33003134
16	0xbe6e2889	-0.2325765
17	0xbeb13a0c	-0.346146
18	0xbe8bac52	-0.27279907
19	0xbe4f4d47	-0.20244323
20	0xbedb7a1d	-0.42866603
21	0xbd3676f6	-0.044547044
22	0xbeb4583b	-0.35223565
23	0xbe56311e	-0.20917174
24	0xbe7e8b19	-0.24857749
25	0xbedaf8da	-0.42767984
26	0xbe134067	-0.14380036
27	0xbe8623fa	-0.26199323
28	0xbea3a4c2	-0.31961638
29	0xbed786a5	-0.42094913
30	0xbe622cad	-0.22087355
31	0xbecdaefb	-0.40172562
32	0xbeb45cfd	-0.35227194
33	0xbe5b7108	-0.21429837
34	0xbd4850db	-0.048905235
35	0xbeabf176	-0.33582658
36	0xbec63e3d	-0.3871936
37	0xbeccbf77	-0.39989826
38	0xbe93cd25	-0.2886745
39	0xbeb4d4e9	-0.35318688
40	0xbe3f6e1e	-0.1869435
41	0xbe657d56	-0.22411093
42	0xbe1c4a74	-0.15262777
43	0xbe6dfc53	-0.23240785
44	0xbe78ce65	-0.24297483
45	0xbee4b711	-0.4467092
46	0xbe8b9976	-0.2726552
47	0xbed3e62d	-0.41386548
48	0xbe879184	-0.26478207
49	0xbe7cce55	-0.24688084
50	0xbec331d5	-0.38123956
51	0xbe813256	-0.25233716
52	0xbe97bebc	-0.29637706
53	0xbeb865de	-0.36015218
54	0xbe5528d7	-0.2081636
55	0x3c47a179	0.012184494
56	0xbe936539	-0.28788164
57	0xbee4ddec	-0.44700563
58	0xbe16f3f6	-0.14741501
59	0xbed1d715	-0.40984407
60	0xbe2b9215	-0.16754945
61	0xbeafaefd	-0.34313193
62	0xbbb2acc7	-0.0054527256
63	0xbe91f666	-0.285083

common_layer.1.running_mean f4 [64]
0	0x3a025a7f	0.00049725914
1	0xbdc53591	-0.096293576
2	0xbcb95c0c	-0.0226269
3	0x3d067b3b	0.032832365
4	0xbdafeeeb	-0.08590492
5	0xbe05b291	-0.13056399
6	0x3b8e9b99	0.004352045
7	0xbd6e826d	-0.058229852
8	0xbd26dceb	-0.040738028
9	0x3a97e52e	0.0011588687
10	0xbd6f9370	-0.058490217
11	0xbd48ffda	-0.049072124
12	0xbdecad95	-0.11556546
13	0xbe292550	-0.1651814
14	0xbd6071ca	-0.054796018
15	0x3ca14ddc	0.019690447
16	0xbd39afed	-0.04533379
17	0xbd11acde	-0.03556525
18	0x3c1dd088	0.009632237
19	0xbdee343a	-0.11631055
20	0x3d798c1a	0.060924627
21	0xbdb2c960	-0.087298155
22	0x3cbff240	0.023430943
23	0xbcd9d75a	-0.026591945
24	0x3b929c96	0.004474233
25	0x3dcd4078	0.10022062
26	0xbdaadfee	-0.083434924
27	0xbce29d5c	-0.027662925
28	0x3c8c6691	0.017138751
29	0xbcc6a667	-0.024249269
30	0xbe032f74	-0.1281107
31	0xbd55ed84	-0.052228466
32	0xbbe8b81a	-0.0071020247
33	0xbd3a5e84	-0.045500293
34	0xbd8b775a	-0.06809874
35	0x3d33a4f1	0.043858472
36	0x3d059fdc	0.032623157
37	0xbce5cc2e	-0.028051462
38	0x3c05546d	0.008137804
39	0x3d4f16bb	0.050558787
40	0xbdb5fb39	-0.088858075
41	0xbd99a6fb	-0.07502552
42	0xbdf83525	-0.121195115
43	0xbcae93c4	-0.021310695
44	0xbc998f30	-0.018745035
45	0x3d8822aa	0.06647237
46	0x3a9dfe01	0.0012053848
47	0xbdb1cffb	-0.08682247
48	0xba5c2d3d	-0.0008399075
49	0xbd1667fe	-0.03672027
50	0x3e29bba3	0.16575484
51	0xbda0c12a	-0.07849343
52	0xbd7a3e8e	-0.061094813
53	0xbe4f06ea	-0.20217481
54	0xbd6757a9	-0.056480084
55	0x3d5479eb	0.051874083
56	0xbd81454b	-0.06312045
57	0x3cf1f66c	0.029536448
58	0xbc21d1f6	-0.009876719
59	0x3e11b375	0.14228614
60	0xbda248d9	-0.07924051
61	0x3dbc7cc8	0.09203488
62	0xbdfe33c6	-0.12412219
63	0xbd8dae10	-0.069179654

common_layer.1.running_var f4 [64]
0	0x3d300871	0.0429768
1	0x3d2d4fa6	0.042312287
2	0x3d0bff47	0.034179
3	0x3d1cca79	0.03827903
4	0x3d19419e	0.037416093
5	0x3d6c9c4f	0.057766255
6	0x3d39c85a	0.045357086
7	0x3d961942	0.07329036
8	0x3d25a265	0.040438075
9	0x3d193e5a	0.03741298
10	0x3d32dbda	0.043666698
11	0x3d375aad	0.04476421
12	0x3daa2489	0.0830775
13	0x3d6382fc	0.05554484
14	0x3d7e3e24	0.06207098
15	0x3d4d7668	0.05016175
16	0x3d098acb	0.03357963
17	0x3d23d2b5	0.039995868
18	0x3d22bc97	0.039730635
19	0x3d6a6411	0.057224337
20	0x3d3aa146	0.04556396
21	0x3d5d61e0	0.05404842
22	0x3d26d09b	0.040726285
23	0x3d2d93ef	0.04237741
24	0x3d136b57	0.03599104
25	0x3d457e35	0.048216064
26	0x3d378f7f	0.044814583
27	0x3d044f70	0.03230232
28	0x3d13ef03	0.03611661
29	0x3d28cd8a	0.041211642
30	0x3d6419d4	0.055688694
31	0x3d68a94d	0.056802083
32	0x3d395fbd	0.04525732
33	0x3d3c0902	0.045907028
34	0x3d5e5538	0.05428049
35	0x3d222261	0.039583568
36	0x3d54b1fc	0.05192755
37	0x3d643abf	0.055720087
38	0x3d1d7f3b	0.038451415
39	0x3d258448	0.040409356
40	0x3d40ed0f	0.047101077
41	0x3d390aef	0.045176443
42	0x3d63c008	0.055603057
43	0x3d2e68cc	0.04258041
44	0x3d2929c0	0.04129958
45	0x3d3ae197	0.045625295
46	0x3d37beda	0.044859745
47	0x3d2c334a	0.0420411
48	0x3d35f449	0.04442242
49	0x3d163cd6	0.03667911
50	0x3d61ca9a	0.055124857
51	0x3d6e638c	0.058200404
52	0x3d3d4920	0.046212316
53	0x3d6b9b06	0.05752089
54	0x3d3cbcdc	0.046078548
55	0x3d2e1ac4	0.042505994
56	0x3d2bc2ab	0.041933697
57	0x3d1c2f87	0.038131263
58	0x3d3c5a21	0.04598439
59	0x3d4b7140	0.04966855
60	0x3d3fe126	0.046845578
61	0x3d279171	0.040910188
62	0x3d4bfbdb	0.049800735
63	0x3d0d03d4	0.03442748

common_layer.3.residual.0.weight f4 [64, 64, 3, 3]
0	0xbb67a3ce	-0.0035345438
1	0x3ca8e7d8	0.020618364
2	0xbdbe96fd	-0.093061425
3	0xbd86078f	-0.065444104
4	0xba9f3d36	-0.001214898
5	0x3d8b5b44	0.06804517
6	0xbdaf768e	-0.085675344
7	0xbdbb6b48	-0.09151322
8	0xbd9f534b	-0.07779559
9	0xbd153d13	-0.036435198
10	0x3d27042c	0.040775463
11	0xbd514c5a	-0.051098205
12	0x3b9a0e6d	0.0047014267
13	0x3daef264	0.08542326
14	0x3df9ad0f	0.121912114
15	0xbe737d01	-0.23778154
16	0xbe1897f9	-0.14901723
17	0xbe0bdb51	-0.13657881
18	0x3dc96fe3	0.09835794
19	0xbba164cc	-0.004925346
20	0xbd58b9c2	-0.052911527
21	0xbd7d1616	-0.06178864
22	0x3c9ab898	0.01888685
23	0x3df11679	0.117718644
24	0xbd811a55	-0.063038506
25	0x3d854c03	0.06508639
26	0x3ad55bcc	0.0016277968
27	0x3d188190	0.037232935
28	0x3c8c92db	0.01715987
29	0x3c85e07f	0.0163424
30	0xbdcfa6b4	-0.10139218
31	0x3d663015	0.0561982
32	0x3b115155	0.0022173722
33	0xbdb874cc	-0.09006652
34	0x3c9e0bf8	0.019292817
35	0x3dad0fe3	0.08450296
36	0xbe3c6389	-0.18397345
37	0xbe19ca15	-0.15018494
38	0xbd19a52f	-0.037511047
39	0xbe65c4a6	-0.22438297
40	0xbdd78775	-0.10523883
41	0x3db14372	0.08655442
42	0x3d337a2a	0.043817677
43	0xbc82bcd2	-0.015959177
44	0xbe0ec475	-0.1394213
45	0xbd1218e5	-0.035668273
46	0x3c82dc1b	0.015974095
47	0x3d2ac950	0.041695893
48	0x3c132fa4	0.008983526
49	0x3dec1907	0.11528211
50	0x3e038780	0.12844658
51	0xbd76396f	-0.060113367
52	0xbdc2fc22	-0.09520747
53	0xbe2fad17	-0.17155872
54	0xbd9e4168	-0.07727319
55	0xbd3cf91e	-0.046136014
56	0x3dabe64b	0.08393534
57	0x3d833f4f	0.064085595
58	0xbdde1286	-0.10843377
59	0x3d4d26c8	0.050085813
60	0xbda0a590	-0.078440785
61	0xbbe62ebc	-0.007024614
62	0xbd45a3f6	-0.04825207
63	0x3e17bf4a	0.14819065
64	0x3dac3818	0.084091365
65	0x3ca2aa3e	0.019856568
66	0xbae334b8	-0.0017334437
67	0x3e04ffd4	0.12988216
68	0x3c2d98f4	0.010595549
69	0x3e245878	0.16049373
70	0x3da3f4dc	0.080056876
71	0xbdf5f977	-0.12010472
72	0xbc34ecde	-0.011042802
73	0x3d6edfda	0.05831895
74	0xbba1c988	-0.0049373545
75	0x3dae53ba	0.08512063
76	0xbbe44b95	-0.006967018
77	0xbdcf85d2	-0.10132946
78	0x3c5ab65b	0.013349141
79	0x3df9f1a2	0.12204291
80	0xbdf1ac1e	-0.11800407
81	0x3d8683fb	0.06568142
82	0x3e0bf1bb	0.13666432
83	0x3da5733e	0.08078621
84	0xbcbd82dc	-0.023133688
85	0x3d199159	0.03749213
86	0x3c921b75	0.017835358
87	0x3d9f42df	0.077764265
88	0x3c8bd4ac	0.017069183
89	0xbd54ec15	-0.051982958
90	0x3e4c2367	0.1993538
91	0x3cf74479	0.030184017
92	0x3d7956f1	0.06087393
93	0xbde1a827	-0.11018401
94	0x3ca179e6	0.019711446
95	0xbbfcf3c2	-0.007719488
96	0x3cdaf995	0.026730338
97	0xbdbd0d17	-0.09231012
98	0x3d862ec3	0.06551888
99	0xbd249fcf	-0.040191468
100	0xbc8e9d86	-0.017409097
101	0x3d2cc833	0.042183112
102	0xbd6aac4c	-0.05729322
103	0xbe16d2cb	-0.14728849
104	0xbc8c1feb	-0.017105063
105	0xbc0a5f28	-0.008445539
106	0x3c841ae0	0.016126096
107	0xbd9dbd4f	-0.077021234
108	0x3dc54d71	0.096339114
109	0xbdeb8ef4	-0.115018755
110	0xbe3f31df	-0.18671368
111	0x3d838461	0.06421734
112	0x3d2d12f2	0.042254396
113	0xbde1a6f3	-0.11018171
114	0xbd1ddb31	-0.038539115
115	0xbd6099a8	-0.054834038
116	0xbd2cff5e	-0.042235725
117	0x3e140666	0.14455566
118	0xbd4d4681	-0.050116066
119	0xbdd73860	-0.105087996
120	0xbdcff1d7	-0.10153549
121	0xbd92d36f	-0.07169234
122	0xbcf836af	-0.030299513
123	0x3d1513d3	0.03639586
124	0x3d62e92f	0.055398162
125	0xbdab5324	-0.08365467
126	0x3def0e65	0.116726674
127	0xbd1bbec3	-0.03802372
128	0xbd913c70	-0.07091606
129	0xbda32f4a	-0.07968004
130	0xbdc96922	-0.098345056
131	0xbd5600b4	-0.052246764
132	0xbd792d0c	-0.060833976
133	0x3e0c56b7	0.13704954
134	0xbcd664d9	-0.026171135
135	0x3dd16621	0.10224558
136	0xbcc1020c	-0.023560546
137	0xbdddb5d0	-0.108256936
138	0xbd888aa6	-0.0666707
139	0xbc734110	-0.014847055
140	0xbdb90250	-0.09033644
141	0x3d950ec8	0.0727821
142	0x3d0d6233	0.03451748
143	0xbd7d254d	-0.06180315
144	0x3d592645	0.053015012
145	0x3b4bb3bb	0.003108247
146	0xbc818198	-0.015808865
147	0x3d4a300a	0.04936222
148	0x3c7a5c2d	0.0152807655
149	0x3d6b9cfd	0.057522763
150	0x3d18d6ed	0.037314344
151	0xbd1e8005	-0.038696308
152	0xbd44edbf	-0.048078295
153	0x3e2f317a	0.17108718
154	0x3df4e056	0.11956851
155	0x3e18bfa1	0.1491685
156	0x3d8454b3	0.064614676
157	0x3bb3bf90	0.0054854825
158	0xbd3d3a07	-0.046197917
159	0xbd68c15a	-0.05682502
160	0xbc4c0f26	-0.012454784
161	0x3dac25f3	0.08405676
162	0x3e0f4412	0.1399081
163	0xbd392677	-0.0452027
164	0xbd1d6553	-0.03842671
165	0xbe04619a	-0.12927857
166	0xbd4fe21e	-0.05075275
167	0x3d38c875	0.045113046
168	0xbd2b7211	-0.04185683
169	0x3d96d071	0.07363976
170	0xbd8eb240	-0.06967592
171	0xbd7b17cf	-0.061302003
172	0x3dfe90f9	0.12429995
173	0xbc770dbb	-0.015078957
174	0x3de48530	0.11158216
175	0x3e31429b	0.17310564
176	0x3e6b52fc	0.22980875
177	0xbe560fc8	-0.20904458
178	0x3dc97228	0.09836227
179	0x3d6b7631	0.057485763
180	0x3e570d92	0.2100127
181	0x3d48117d	0.048844803
182	0x3aa6d18b	0.0012727244
183	0x3de49c74	0.111626536
184	0xbcfeae1e	-0.031088885
185	0xbdc0c3d4	-0.09412351
186	0x3d857760	0.065169096
187	0x3d21dbc6	0.039516233
188	0x3c8e09a4	0.017338581
189	0xbdb2ebd9	-0.087363906
190	0x3ca2bb9a	0.019864846
191	0xbe092d41	-0.13396169
192	0xbe1b87f5	-0.15188582
193	0xbd92aed9	-0.07162256
194	0xbe03a88c	-0.12857264
195	0x3dccd68c	0.10001859
196	0xbd0e6f67	-0.03477421
197	0xbdc9e182	-0.09857465
198	0x3ae32c50	0.0017331932
199	0xbc861a69	-0.016370015
200	0xbe0b6877	-0.13614069
201	0xbe22e9e8	-0.1590954
202	0x3d9a1cb5	0.07525007
203	0xbe159e94	-0.14611274
204	0x3d90ff0d	0.07079897
205	0x3def2077	0.11676114
206	0x3d87a2fc	0.06622884
207	0xbc1a8060	-0.009430021
208	0xbc67499a	-0.014116669
209	0xbd0d0e63	-0.03443755
210	0xbe31176e	-0.17294094
211	0xbc8707c8	-0.016483203
212	0xbe077c2f	-0.13230966
213	0x3dc90902	0.09816171
214	0xbdfb5626	-0.12272291
215	0x3b83413c	0.0040055793
216	0xbe36175c	-0.17782348
217	0xbdad0bea	-0.08449538
218	0x3c9ec100	0.019379139
219	0xbc03a29d	-0.0080343755
220	0x3d5a9ced	0.053372312
221	0x39bbadc5	0.00035796888
222	0xbe17a231	-0.14807965
223	0xbc78241d	-0.015145329
224	0xbd794106	-0.060853027
225	0x3dfdb288	0.12387568
226	0x3d233b0c	0.039851233
227	0x3c987184	0.018608816
228	0xbd0d63c8	-0.034518987
229	0xbdfd52e1	-0.123693235
230	0x3d76b3e9	0.06023017
231	0xbe30e454	-0.172746
232	0x3d93e5ec	0.072215885
233	0xbb76c6d4	-0.0037655132
234	0xbe5b0c1a	-0.21391335
235	0xbe5045ae	-0.2033908
236	0xbcc9daea	-0.02464052
237	0x3d88855f	0.066660635
238	0xbc8b1ebc	-0.016982429
239	0x3c91e313	0.017808473
240	0xbd98889f	-0.074479334
241	0xbcb64aae	-0.022252407
242	0x3de3ac91	0.11116899
243	0x3e5a15bd	0.21297355
244	0xbd688c33	-0.05677433
245	0x3de742db	0.112920485
246	0x398c1b88	0.00026723393
247	0x3cb53dc5	0.02212418
248	0x3a258abc	0.00063149235
249	0xbd1ef0f6	-0.038804017
250	0x3dbabf01	0.09118462
251	0xbe619151	-0.2202809
252	0x3d5a6719	0.053320978
253	0xbdf68a92	-0.12038149
254	0xbd68d938	-0.05684778
255	0xbdb57f35	-0.088621534

common_layer.3.residual.0.bias f4 [64]
0	0x36e424a2	6.799194e-06
1	0x388486dd	6.319371e-05
2	0xb67716c4	-3.681912e-06
3	0xb78c339a	-1.671333e-05
4	0x373f144e	1.1389215e-05
5	0x3886f764	6.435698e-05
6	0x34d75100	4.0105806e-07
7	0xb78b57a6	-1.6610906e-05
8	0xb81b4404	-3.7018224e-05
9	0x36158f1f	2.2286038e-06
10	0xb7ebf2b7	-2.8127206e-05
11	0xb53accd0	-6.958844e-07
12	0xb6c469b0	-5.853559e-06
13	0xb8455b60	-4.705356e-05
14	0x381f94e5	3.8047223e-05
15	0x38b08d91	8.418703e-05
16	0x364a0f9c	3.0109431e-06
17	0x38392854	4.4144996e-05
18	0xb7a1ac30	-1.9272877e-05
19	0xb6ae951e	-5.2029636e-06
20	0x378d20c6	1.6823771e-05
21	0x3713d2a2	8.810925e-06
22	0xb72579b6	-9.863104e-06
23	0xb7e00e57	-2.6709558e-05
24	0xb80b8752	-3.326621e-05
25	0xb7c65ab8	-2.3645684e-05
26	0xb760aa78	-1.3391131e-05
27	0xb7c420f4	-2.3380366e-05
28	0x37c98494	2.4022804e-05
29	0x37dca692	2.6303609e-05
30	0x377abd3c	1.4945221e-05
31	0x35c6cf68	1.4812513e-06
32	0xb61e3128	-2.3572447e-06
33	0xb7edf652	-2.8367303e-05
34	0xb7078fbd	-8.080094e-06
35	0x36a23b36	4.8348693e-06
36	0x379e7586	1.8889794e-05
37	0xb84bb40c	-4.8566653e-05
38	0x34883b30	2.537504e-07
39	0x378d20db	1.682381e-05
40	0x3716364e	8.9533405e-06
41	0x37d96724	2.5916444e-05
42	0x375e860e	1.3263443e-05
43	0x36e118bc	6.708402e-06
44	0x382fb982	4.189602e-05
45	0x37bfe64c	2.2876215e-05
46	0xb6a0b563	-4.789488e-06
47	0x377fd82d	1.5249517e-05
48	0xb7ebb1cb	-2.8096974e-05
49	0xb7b56f61	-2.1628746e-05
50	0xb62e2368	-2.594863e-06
51	0xb7a5ffbc	-1.9788618e-05
52	0x383dacc8	4.5222027e-05
53	0x3731fd98	1.06090665e-05
54	0x36f1a502	7.201569e-06
55	0x382d4495	4.1310286e-05
56	0xb70bce02	-8.333011e-06
57	0xb7fb3fde	-2.9951272e-05
58	0x382e93fe	4.162266e-05
59	0xb7897184	-1.6384533e-05
60	0xb6584ad4	-3.2230064e-06
61	0x37efef6f	2.8602515e-05
62	0x376089fc	1.3383567e-05
63	0x372714da	9.958831e-06

common_layer.3.residual.1.weight f4 [64]
0	0x3f71f74b	0.94517964
1	0x3f5c9869	0.8617006
2	0x3f579a02	0.8421937
3	0x3f6606c8	0.898541
4	0x3f50e008	0.81591845
5	0x3f792b3c	0.97331595
6	0x3f5a7907	0.85340923
7	0x3f5f20a5	0.87159187
8	0x3f606a69	0.8766237
9	0x3f6d4b15	0.9269269
10	0x3f75c6dc	0.9600656
11	0x3f899aa6	1.075032
12	0x3f66e53f	0.9019355
13	0x3f3b4e6a	0.73166525
14	0x3f53a5bf	0.82674783
15	0x3f7e8f4f	0.9943742
16	0x3f3d5283	0.7395403
17	0x3f690acb	0.91032094
18	0x3f5a4cc8	0.8527341
19	0x3f65ef4d	0.8981827
20	0x3f6d1d25	0.92622596
21	0x3f5febf0	0.8746939
22	0x3f567a0f	0.83779997
23	0x3f549845	0.83044845
24	0x3f5c5e67	0.86081547
25	0x3f44ad9a	0.76827395
26	0x3f65c945	0.8976024
27	0x3f451ffb	0.77001923
28	0x3f5568da	0.83363116
29	0x3f511927	0.81679004
30	0x3f6d9706	0.9280857
31	0x3f51b07c	0.8190992
32	0x3f602b3a	0.8756596
33	0x3f56a66e	0.838477
34	0x3f6fe65a	0.93710864
35	0x3f6ab7dc	0.916868
36	0x3f6abaa6	0.9169105
37	0x3f74e9ec	0.95669436
38	0x3f47683e	0.77893436
39	0x3f3ddc65	0.7416442
40	0x3f7188e1	0.94349486
41	0x3f58e125	0.84718543
42	0x3f54d0ff	0.831314
43	0x3f6a2dc6	0.91476095
44	0x3f85d438	1.0455389
45	0x3f4e2b94	0.80535245
46	0x3f868070	1.0507946
47	0x3f7a577f	0.9778976
48	0x3f593549	0.8484693
49	0x3f4a877f	0.79113
50	0x3f522b4d	0.8209732
51	0x3f61a245	0.8813823
52	0x3f685f1b	0.9077012
53	0x3f8c6c32	1.0970519
54	0x3f631565	0.8870452
55	0x3f73fa5e	0.95303905
56	0x3f6b006b	0.9179751
57	0x3f453abb	0.7704274
58	0x3f77ef52	0.9684955
59	0x3f646157	0.8921103
60	0x3f5509f5	0.8321832
61	0x3f72d1ad	0.9485119
62	0x3f6e93cf	0.9319429
63	0x3f75cebb	0.9601857

common_layer.3.residual.1.bias f4 [64]
0	0xbe49225a	-0.1964201
1	0xbe92df10	-0.28685808
2	0xbe6480ac	-0.2231471
3	0xbe267b92	-0.16258076
4	0xbec6f093	-0.3885542
5	0xbe256968	-0.1615349
6	0xbe0bdc52	-0.13658264
7	0xbe5a437c	-0.21314806
8	0xbe989226	-0.29799002
9	0xbe8e864e	-0.2783684
10	0xbeb72221	-0.35768226
11	0xbe9705a9	-0.29496506
12	0xbe87a14c	-0.26490247
13	0xbef494d2	-0.4776979
14	0xbe0ba7b3	-0.13638191
15	0xbe468817	-0.19387852
16	0xbeb32f33	-0.34996948
17	0xbe97fbd3	-0.29684314
18	0xbe6198cc	-0.22030944
19	0xbe4d6efc	-0.20061868
20	0xbe8615f7	-0.26188633
21	0xbe2c8652	-0.16848114
22	0xbea6e800	-0.32598877
23	0xbe8c48c2	-0.2739926
24	0xbebb7fdf	-0.36620995
25	0xbe62a379	-0.22132672
26	0xbe2c4fb9	-0.16827287
27	0xbe7be8c0	-0.24600506
28	0xbe933dd6	-0.28758115
29	0xbeae9835	-0.341005
30	0xbea11779	-0.3146322
31	0xbea5ec7b	-0.32406983
32	0xbe1f07bb	-0.15530293
33	0xbe202587	-0.15639316
34	0xbe28ddd6	-0.16490874
35	0xbe92f215	-0.2870032
36	0xbeb2d360	-0.3492689
37	0xbe5f146e	-0.21785137
38	0xbe40d619	-0.18831672
39	0xbe169c11	-0.14707972
40	0xbeeb56eb	-0.4596475
41	0xbeb517fc	-0.3536986
42	0xbe79c316	-0.24390826
43	0xbe3b41c3	-0.18286805
44	0xbe52b3cb	-0.20576398
45	0xbe091452	-0.13386658
46	0xbe05ddb4	-0.13072854
47	0xbe76310f	-0.24042152
48	0xbdd33e06	-0.103145644
49	0xbe5d040f	-0.2158358
50	0xbe41a601	-0.18910982
51	0xbea0f0ed	-0.31433812
52	0xbe84d6bc	-0.2594508
53	0xbe8cd11a	-0.27503282
54	0xbe8196b2	-0.25310284
55	0xbe72ef4a	-0.23724094
56	0xbe423a12	-0.18967465
57	0xbe888838	-0.26666427
58	0xbc516097	-0.0127793765
59	0xbe956201	-0.29176334
60	0xbe070888	-0.13186848
61	0xbe25c164	-0.16187054
62	0xbe386b89	-0.18009771
63	0xbe6f75b6	-0.23384747

common_layer.3.residual.1.running_mean f4 [64]
0	0xbf33aa96	-0.7018217
1	0xbedb8c09	-0.42880276
2	0xbf83a0d4	-1.0283456
3	0xbf49f1a2	-0.7888433
4	0xbf180edb	-0.5939767
5	0xbf33b535	-0.70198375
6	0xbf108e56	-0.5646719
7	0xbf368fea	-0.71313345
8	0xbeea9cc7	-0.45822737
9	0xbe48138c	-0.19538707
10	0xbf0b578e	-0.5443047
11	0xbf4964fb	-0.7866971
12	0xbf9588ca	-1.168237
13	0xbdaafcea	-0.08349021
14	0x3f43ffda	0.76562274
15	0xbf3fe2e5	-0.7495559
16	0x3fa69a57	1.3015851
17	0xbf2e3a40	-0.6805763
18	0xbe1f1052	-0.1553357
19	0xbf0e329d	-0.5554598
20	0xbed36949	-0.41291264
21	0xbe75ba87	-0.23996936
22	0x3e812563	0.25223836
23	0xbd8798ce	-0.06620942
24	0xbee719e6	-0.45136946
25	0xbfd6f754	-1.6794229
26	0xbf499410	-0.7874155
27	0xbdb4eacf	-0.08833849
28	0x3e3c435d	0.18385072
29	0x3edc91e1	0.43080047
30	0xbf463d3d	-0.7743719
31	0xbfa60046	-1.2968833
32	0xbf21c53d	-0.63191587
33	0xbf8aa920	-1.0832863
34	0x3f43b746	0.7645153
35	0xbec22a28	-0.37922788
36	0xbea76b53	-0.3269907
37	0xbc873ea7	-0.016509367
38	0xbf46f632	-0.77719414
39	0x3e452a75	0.19254477
40	0xbe3a4e6a	-0.18193975
41	0xbc3fb993	-0.011701959
42	0x3db06649	0.08613259
43	0xbeddff30	-0.43358755
44	0xbf7f210a	-0.9965979
45	0xbe07352a	-0.13203874
46	0xbfd42ada	-1.6575577
47	0xbf90adbd	-1.1303021
48	0xbf8e79cb	-1.1130918
49	0xbfbc2611	-1.4699117
50	0xbf48d7ec	-0.7845447
51	0xbf4b4d2e	-0.7941464
52	0xbf0baeeb	-0.5456378
53	0xbf857b8a	-1.0428326
54	0xbf4a6ab6	-0.7906908
55	0xbef93a1d	-0.4867715
56	0xbf1e32d6	-0.6179632
57	0xbcfb5049	-0.030677931
58	0x3e5debbd	0.21671958
59	0xbf950630	-1.1642513
60	0xbf77c356	-0.96782434
61	0xbf796914	-0.9742596
62	0xbf36c5f2	-0.7139579
63	0xbf12eff9	-0.5739742

common_layer.3.residual.1.running_var f4 [64]
0	0x4008c06e	2.136745
1	0x3fd03797	1.6266965
2	0x403dd1f6	2.96594
3	0x401035c7	2.2532823
4	0x3fc5a2fa	1.5440361
5	0x401c077f	2.4379575
6	0x4011671c	2.2719183
7	0x3ffe8307	1.9883736
8	0x4005ef63	2.092736
9	0x3fe863c1	1.8155442
10	0x3fe40085	1.7812659
11	0x4061c132	3.5274167
12	0x3fc47823	1.5349163
13	0x3fbce471	1.4757215
14	0x3fcde5db	1.6085771
15	0x3fb65cd0	1.4247074
16	0x3fbfa596	1.4972408
17	0x3fcfbc40	1.6229324
18	0x3faeb99f	1.3650397
19	0x400ed6d6	2.2318625
20	0x400e12f2	2.2199063
21	0x3fe0c499	1.7559997
22	0x3fef48c6	1.8694084
23	0x3fe08f04	1.7543645
24	0x3fb39363	1.4029354
25	0x4025cef6	2.590757
26	0x4002ae9c	2.0419073
27	0x40053379	2.0812666
28	0x3fd8cd9f	1.693775
29	0x3fd67bfb	1.6756586
30	0x3fea342d	1.8297173
31	0x40399ee1	2.9003222
32	0x3ff1afe6	1.8881805
33	0x4000ce91	2.0126078
34	0x3fe4b02c	1.7866263
35	0x3fb30a3d	1.39875
36	0x3fb3279b	1.3996462
37	0x3fdbcd7e	1.7172086
38	0x40302a47	2.7525804
39	0x3fb6944b	1.4264005
40	0x4023f443	2.5617836
41	0x40263022	2.5966878
42	0x3fbb4859	1.4631454
43	0x3fefa9fa	1.8723748
44	0x3ffa78d0	1.9568119
45	0x3fb7b44b	1.4351896
46	0x401e3af8	2.4723492
47	0x3fef3674	1.8688493
48	0x3ff38179	1.9023887
49	0x4017d4eb	2.3723705
50	0x3fc5c12e	1.5449579
51	0x3fdc3a01	1.7205201
52	0x3fc4e297	1.538165
53	0x4007d19e	2.122169
54	0x3fd0e0bb	1.6318582
55	0x40032d94	2.0496569
56	0x3feebbb3	1.8651031
57	0x3fcc4058	1.5957136
58	0x3fc5720f	1.5425433
59	0x3ffc2146	1.9697654
60	0x40209ea5	2.509683
61	0x4008f5c4	2.1400003
62	0x3fee180e	1.8601091
63	0x400f52ad	2.2394211

common_layer.3.residual.3.weight f4 [64, 64, 3, 3]
0	0x3d31fe21	0.043455247
1	0xbc0d5e20	-0.008628398
2	0xbd4ba0c5	-0.04971387
3	0xbd212291	-0.039339606
4	0xbdb961d6	-0.09051864
5	0x3df86dee	0.121303424
6	0x3db3ac2c	0.087730736
7	0xbd809611	-0.06278623
8	0xbd9c5f18	-0.07635325
9	0xbb3558b9	-0.002767129
10	0x3bd5bd83	0.0065228357
11	0xbe024384	-0.12721068
12	0xbc48244c	-0.012215685
13	0xbd920477	-0.07129758
14	0xbd31dd28	-0.0434238
15	0x3a363eee	0.0006952126
16	0xbd07a44e	-0.033115678
17	0x3bbd290f	0.005772717
18	0x3bab1f98	0.005222272
19	0x3c0feea8	0.008784927
20	0xbd807357	-0.06271999
21	0xbb92b5b2	-0.004477226
22	0x3b5f1785	0.0034041118
23	0x3d12ce79	0.03584144
24	0x3dc27793	0.09495463
25	0xbd0ab782	-0.033866413
26	0x3d24015f	0.04004037
27	0xbbff620a	-0.0077936696
28	0x3d8c0923	0.0683768
29	0x3d8c1694	0.06840244
30	0x3d87f453	0.06638398
31	0x3e578271	0.21045853
32	0x3dbb7c55	0.09154574
33	0x3d341289	0.04396299
34	0x3e1b0c2e	0.15141365
35	0x3d6647a8	0.05622068
36	0x3907b154	0.00012940663
37	0xbe18fdce	-0.14940569
38	0xbd600ea5	-0.054701466
39	0xbdf52471	-0.11969841
40	0x3d03507a	0.03205917
41	0x3c5bd83c	0.0134182535
42	0x3d3aa488	0.045567065
43	0xbd481984	-0.04885246
44	0xbd92ea02	-0.0717354
45	0x3b2fc36e	0.0026819366
46	0x3e0658f3	0.13119869
47	0xbd603340	-0.054736376
48	0x3cbae7cf	0.022815613
49	0x3e1fc9c7	0.15604316
50	0xbcf397c6	-0.029735457
51	0xbc11780f	-0.008878722
52	0xbd82529a	-0.06363411
53	0x3cef1f52	0.02918974
54	0xbdeac963	-0.11464193
55	0xb9579c9c	-0.0002056234
56	0xbde3af70	-0.111174464
57	0x3dd84ece	0.10561906
58	0x3c8f6d2d	0.017508114
59	0xbd7c1590	-0.061544
60	0x3e18def5	0.14928801
61	0x3dc197c4	0.09452775
62	0x3d292b75	0.04130121
63	0x3cb690f3	0.022285914
64	0xbc9708a1	-0.018436732
65	0xbd8acba2	-0.06777121
66	0x3d9f8c95	0.07790486
67	0x3d0ab694	0.033865526
68	0xbd095377	-0.033526864
69	0x3d06a60e	0.032873206
70	0x3d1e67e2	0.03867329
71	0xbd7c843c	-0.061649546
72	0x3aa61f86	0.001267419
73	0x3da0480a	0.0782624
74	0x3de83a4b	0.113392435
75	0xbe115e7b	-0.14196198
76	0xbcc02e22	-0.023459498
77	0xbdf79371	-0.12088669
78	0xbe3131bf	-0.17304133
79	0x3c80d512	0.0157266
80	0xbd46d668	-0.048544317
81	0x3aa003b9	0.0012208141
82	0x3d2fd511	0.042927805
83	0xbcc00505	-0.023439893
84	0xbe43b13d	-0.1911058
85	0xbc61dfcc	-0.0137862675
86	0xbdaf7967	-0.085680775
87	0xbd403a5e	-0.046930663
88	0x3baf7b78	0.005355295
89	0x3d793e94	0.060850695
90	0xbde84e86	-0.11343102
91	0xbde3266f	-0.11091315
92	0xbe2dbeb5	-0.1696728
93	0x3d1cb1a7	0.03825536
94	0x3dd6c7d3	0.10487332
95	0x3e81e710	0.253716
96	0xbd03af91	-0.032149855
97	0x3da8ac62	0.082360044
98	0x3beca54e	0.0072218543
99	0x3e35774a	0.17721286
100	0x3d66068f	0.0561586
101	0xbc060237	-0.008179239
102	0xbd833ce8	-0.06408101
103	0xbd072725	-0.032996316
104	0xbd9f491a	-0.07777615
105	0xbe4a4e38	-0.197564
106	0xb9faab2a	-0.00047811243
107	0xbd89c495	-0.06726948
108	0x3b9b39ba	0.004737106
109	0x3d21d9a8	0.039514214
110	0xbdc4a371	-0.096014865
111	0x3d4cd3e7	0.050006773
112	0x3e011276	0.12604699
113	0xbd767df1	-0.0601787
114	0x3e4085fa	0.18801108
115	0x3bb689b1	0.0055706133
116	0xbb486b3a	-0.003058149
117	0x3d25eeee	0.040511064
118	0x3d34d05a	0.044144012
119	0xbca4c0e2	-0.020111505
120	0x3db6d827	0.089279465
121	0x3e2e4121	0.17017032
122	0x3e387148	0.18011963
123	0xbe3a5953	-0.18198137
124	0xbb7be714	-0.0038437294
125	0xbc9a1d8b	-0.018812915
126	0xbdfbe34a	-0.12299211
127	0x3db9ddc2	0.090755
128	0xbdd93170	-0.106051326
129	0xbde4a77e	-0.11164759
130	0x3d6ebe2a	0.058286823
131	0x3d9087d1	0.07057155
132	0x3d1617b4	0.0366437
133	0x3d7fc197	0.06244048
134	0xbe6b99f3	-0.23007946
135	0xbe7ccca0	-0.24687433
136	0xbdaea158	-0.08526868
137	0xbd7e274c	-0.062049195
138	0x3da86b95	0.08223645
139	0x3c03b421	0.008038552
140	0x3c76baa5	0.015059148
141	0x3dc924b6	0.09821455
142	0x3ddd0ffd	0.10794065
143	0x3e0051f6	0.12531266
144	0x3d5c1d53	0.053738903
145	0xbdea0e8e	-0.11428557
146	0xbd176d24	-0.03696932
147	0xbd0a1a38	-0.03371641
148	0xbce2aaf6	-0.027669411
149	0x3c69b7a9	0.014264979
150	0xbd447819	-0.047966097
151	0x3df6f9ad	0.120593406
152	0x3e2ae2b6	0.16688046
153	0x3d67c7de	0.056587093
154	0x3e283925	0.16428049
155	0xbdd17319	-0.10227031
156	0xbae2f93d	-0.001731671
157	0x3d137fd5	0.036010582
158	0xbc6295e6	-0.013829684
159	0xbc7296eb	-0.014806489
160	0xbd22730c	-0.0396605
161	0x3ce6c78c	0.028171323
162	0x3dbb1537	0.09134906
163	0xbddff644	-0.10935643
164	0xbcd1870d	-0.025577093
165	0xbdb38bda	-0.08766909
166	0xbdb31721	-0.08744646
167	0x3d69ecf3	0.057110738
168	0xbdae2f80	-0.08505154
169	0xbd0438d4	-0.032280758
170	0xbd2f6b1d	-0.04282676
171	0xbda629da	-0.08113451
172	0xbd60c75c	-0.054877624
173	0x3d3d3cc9	0.046200547
174	0x3d77062e	0.060308628
175	0xbd3a17d7	-0.04543289
176	0x3c97d4b8	0.01853405
177	0x3e084bfa	0.13310233
178	0x3db11ccd	0.086480714
179	0x3e123675	0.14278586
180	0x3e073265	0.13202818
181	0xbd247867	-0.040153887
182	0x3c2d6865	0.010583972
183	0x3d65b605	0.05608179
184	0xbcfe8569	-0.031069474
185	0x3d4eeb4b	0.05051736
186	0xbe07d774	-0.13265783
187	0xbd95fe73	-0.07323923
188	0xbdabc7a3	-0.08387687
189	0xbda46ab5	-0.08028165
190	0xbb67fd66	-0.003539884
191	0xbd03acdd	-0.032147277
192	0x3d268563	0.04065455
193	0xbd074331	-0.033023063
194	0x3e10a3de	0.1412501
195	0x3bcfd5a8	0.0063426085
196	0x3cca78cc	0.024715804
197	0x3dcd7b53	0.10033288
198	0xbde3a347	-0.11115127
199	0x3ca7d722	0.020488326
200	0x3df9bc0d	0.12194071
201	0xbd86f56f	-0.065897815
202	0xbbf10303	-0.0073550954
203	0x3e0c628d	0.13709469
204	0x3d8acee4	0.067777425
205	0xbe1f2d16	-0.15544543
206	0x3e04120c	0.1289751
207	0x3dcc2053	0.09967103
208	0xbdbfe64d	-0.09370098
209	0x3cf67296	0.030083936
210	0x3d1842a5	0.037172932
211	0xbdd64ce2	-0.10463883
212	0xbd1c3f59	-0.03814635
213	0xbde837bb	-0.11338755
214	0xbd0574fb	-0.032582264
215	0xbe188e8b	-0.14898126
216	0x3ccc4f67	0.024940206
217	0xbdee8bad	-0.11647735
218	0x3bb4948f	0.0055108736
219	0x3d84f0ac	0.06491217
220	0x3e030f60	0.12798834
221	0xbd4e7de2	-0.05041302
222	0x3e3d50ea	0.18487898
223	0x3d930b75	0.0717992
224	0x3d301386	0.04298737
225	0x3dc2ec33	0.09517708
226	0xbd52ae4a	-0.051435746
227	0x3c7f5441	0.015584053
228	0xbdb6318f	-0.08896171
229	0xbd136c15	-0.035991747
230	0x3e5639df	0.20920514
231	0x3d63ef8a	0.055648364
232	0x3d4fbc63	0.05071677
233	0x3d984cff	0.07436561
234	0x3e34cdff	0.17656706
235	0xbd70382c	-0.05864732
236	0x3bffab5b	0.0078024096
237	0xbdc538dd	-0.096299864
238	0x3bec27df	0.0072069014
239	0xbc7f7edb	-0.01559421
240	0xbc592c85	-0.013255243
241	0xbc62a119	-0.013832354
242	0xbcfec49b	-0.031099608
243	0x3dbc7823	0.09202602
244	0x3e05323d	0.13007446
245	0x3e324bc1	0.1741171
246	0x3d9e38d8	0.07725686
247	0x3e41c27f	0.1892185
248	0x3c3a8b52	0.011385756
249	0x3de72e27	0.112881
250	0x3dbdeef8	0.09274095
251	0x3e216168	0.15759814
252	0xbb05c9b0	-0.0020414405
253	0xbd649b0c	-0.055811927
254	0xbd91f4a3	-0.07126739
255	0xbc9087d9	-0.017642902

common_layer.3.residual.3.bias f4 [64]
0	0x36892d90	4.0882223e-06
1	0xb8889d15	-6.514244e-05
2	0xb7a8ac81	-2.0107489e-05
3	0xb7830004	-1.5616424e-05
4	0xb82e3156	-4.153078e-05
5	0xb82f32cf	-4.177057e-05
6	0xb75a5678	-1.3013945e-05
7	0xb6effe62	-7.152369e-06
8	0x376e0394	1.4186739e-05
9	0x37a0552a	1.9113144e-05
10	0x3732a704	1.0648513e-05
11	0x36eed664	7.117911e-06
12	0x33856000	6.2107574e-08
13	0xb7cd7268	-2.4491179e-05
14	0x374513d2	1.174673e-05
15	0x36f1bf98	7.204664e-06
16	0x37dfbfb0	2.6672933e-05
17	0x37347126	1.07551805e-05
18	0xb805416d	-3.1770604e-05
19	0x3781b428	1.546189e-05
20	0x37cebed6	2.4645979e-05
21	0x363092c8	2.6311482e-06
22	0xb70f9aec	-8.559535e-06
23	0x3712ba14	8.745603e-06
24	0xb6727a38	-3.613195e-06
25	0xb541fba0	-7.2264265e-07
26	0x36931da7	4.3843934e-06
27	0xb7037ba4	-7.836996e-06
28	0x37d93dd4	2.5897207e-05
29	0x37c95398	2.3999994e-05
30	0xb77a691a	-1.4925632e-05
31	0x3724aac4	9.814921e-06
32	0x37c31747	2.325665e-05
33	0x38420e2e	4.626641e-05
34	0x3781e4d4	1.5484555e-05
35	0xb6a805e8	-5.0074777e-06
36	0x37a549b9	1.9703863e-05
37	0x37be9d5e	2.2723045e-05
38	0xb6c01b30	-5.725211e-06
39	0x3626044b	2.4738426e-06
40	0x380f08f0	3.410218e-05
41	0xb69dc9f4	-4.702475e-06
42	0x387d9986	6.046288e-05
43	0xb749e014	-1.2032706e-05
44	0x38127db7	3.4926194e-05
45	0x365bcecc	3.2753915e-06
46	0x36f088ca	7.1684817e-06
47	0xb829b586	-4.0461797e-05
48	0xb61b9668	-2.3184348e-06
49	0x3708ff70	8.165705e-06
50	0xb78f2fc5	-1.7069173e-05
51	0x37471f64	1.1868633e-05
52	0xb5d5f174	-1.5940009e-06
53	0x38462ff9	4.7251557e-05
54	0x36cda030	6.1281244e-06
55	0x3553b238	7.886297e-07
56	0xb7128e56	-8.735418e-06
57	0xb6db2658	-6.5311724e-06
58	0x379bd347	1.8575824e-05
59	0xb785472f	-1.5887983e-05
60	0x379aef04	1.8469531e-05
61	0xb7587cb6	-1.290364e-05
62	0xb64da0e2	-3.0641027e-06
63	0x36ec0078	7.0334027e-06

common_layer.3.residual.4.weight f4 [64]
0	0x3f6b2923	0.91859645
1	0x3f61dccf	0.8822755
2	0x3f433494	0.762521
3	0x3f4d57c9	0.80212075
4	0x3f525679	0.82163197
5	0x3f5403c2	0.82818234
6	0x3f552542	0.83259976
7	0x3f79a41b	0.9751603
8	0x3f6ad7ed	0.91735727
9	0x3f5d044e	0.86334693
10	0x3f834bc6	1.0257499
11	0x3f825dff	1.0184935
12	0x3f78a220	0.97122383
13	0x3f845442	1.0338213
14	0x3f5d42c2	0.8642999
15	0x3f5366fe	0.8257903
16	0x3f6710be	0.9025992
17	0x3f5b52f5	0.8567346
18	0x3f672fc7	0.9030728
19	0x3f4934b7	0.7859606
20	0x3f5c8dc3	0.8615381
21	0x3f834c2f	1.0257624
22	0x3f610e2c	0.8791225
23	0x3f57a344	0.842335
24	0x3f609a3f	0.8773536
25	0x3f5a60e3	0.8530409
26	0x3f55c11d	0.8349779
27	0x3f687935	0.9080995
28	0x3f74e9b3	0.95669097
29	0x3f828bb9	1.019889
30	0x3f742478	0.95368147
31	0x3f867165	1.0503355
32	0x3f7c6277	0.98587745
33	0x3f5404a3	0.82819575
34	0x3f39a355	0.7251485
35	0x3f6dced1	0.928937
36	0x3f748110	0.95509434
37	0x3f5f3a5d	0.8719843
38	0x3f61e9de	0.8824748
39	0x3f6b882a	0.92004645
40	0x3f57c900	0.84291077
41	0x3f7cb54d	0.98714143
42	0x3f7a8c9e	0.97870815
43	0x3f70af47	0.9401745
44	0x3f48b6d2	0.7840396
45	0x3f6083dd	0.8770121
46	0x3f89c574	1.0763383
47	0x3f573a13	0.8407299
48	0x3f847cf2	1.035063
49	0x3f834034	1.0253968
50	0x3f3fbc02	0.7489625
51	0x3f6e5617	0.9310011
52	0x3f5d04ff	0.8633575
53	0x3f7e5cae	0.9936017
54	0x3f57e411	0.84332377
55	0x3f4d5914	0.8021405
56	0x3f757c1d	0.95892507
57	0x3f6af56b	0.9178073
58	0x3f4f34b2	0.8093978
59	0x3f61d33a	0.8821293
60	0x3f732eff	0.94993585
61	0x3f79c253	0.9756214
62	0x3f5f9acf	0.87345594
63	0x3f814196	1.009814

common_layer.3.residual.4.bias f4 [64]
0	0xbed02e62	-0.40660387
1	0xbe5e3ad5	-0.2170213
2	0xbed601ef	-0.4179835
3	0xbebaab54	-0.36458838
4	0xbece88aa	-0.4033864
5	0xbe8bc7c9	-0.2730086
6	0xbe9f9e64	-0.3117553
7	0xbe8d18ed	-0.2755808
8	0xbe2d460e	-0.16921255
9	0xbef92a79	-0.48665217
10	0xbe991ae5	-0.2990333
11	0xbeb91169	-0.36146095
12	0xbed43aeb	-0.414512
13	0xbdddb3a9	-0.10825283
14	0xbec6a670	-0.38798857
15	0xbeb17afc	-0.34664142
16	0xbeb1ed17	-0.34751198
17	0xbea1d222	-0.3160563
18	0xbf02366a	-0.5086428
19	0xbec81e6e	-0.39085716
20	0xbebe50a5	-0.37170902
21	0xbecac923	-0.3960658
22	0xbe944850	-0.2896142
23	0xbe4e7f7c	-0.20165819
24	0xbe66405c	-0.22485489
25	0xbede10ca	-0.43372184
26	0xbea12e20	-0.31480503
27	0xbeaedb83	-0.3415185
28	0xbe39b2f7	-0.18134676
29	0xbee98cf0	-0.4561534
30	0xbec01143	-0.3751317
31	0xbecac461	-0.3960295
32	0xbe2e3dfa	-0.1701583
33	0xbe8fc96c	-0.2808336
34	0xbe80a6a8	-0.2512715
35	0xbef110f3	-0.47083244
36	0xbeebdaaf	-0.4606528
37	0xbe450188	-0.19238865
38	0xbe67fbe0	-0.22654676
39	0xbe3fe5c8	-0.18739998
40	0xbe7e48df	-0.24832486
41	0xbefc9767	-0.4933426
42	0xbed171d4	-0.40907156
43	0xbedd13c3	-0.4317914
44	0xbe0e8e9b	-0.13921587
45	0xbead7937	-0.33881542
46	0xbec78071	-0.3896518
47	0xbe8ce2be	-0.2751674
48	0xbec298df	-0.38007256
49	0xbe47bb61	-0.19505073
50	0xbdbf8062	-0.09350659
51	0xbe548e52	-0.20757416
52	0xbe88b6df	-0.2670202
53	0xbe94824f	-0.29005668
54	0xbe9cbb68	-0.3061173
55	0xbdd4c868	-0.10389787
56	0xbed4d54e	-0.4156899
57	0xbf025040	-0.509037
58	0xbed6a42b	-0.41922125
59	0xbe799833	-0.24374466
60	0xbedd1138	-0.431772
61	0xbea77a64	-0.32710564
62	0xbea687ab	-0.3252538
63	0xbec382c9	-0.3818572

common_layer.3.residual.4.running_mean f4 [64]
0	0x3e80d638	0.25163436
1	0xbf2d3603	-0.6766054
2	0xbe99761a	-0.29972917
3	0xbf4d9017	-0.8029799
4	0xbf0a6447	-0.5405926
5	0x3f0c1092	0.54712784
6	0xbef55e96	-0.47923726
7	0xbfda365f	-1.7047843
8	0xbeba04c8	-0.36331773
9	0xbea87288	-0.3289988
10	0x3ecb8a22	0.39753824
11	0xbfb41e12	-1.4071677
12	0x3f1c3ede	0.6103343
13	0xbfdd2997	-1.7278317
14	0xbfb9b4cd	-1.4508301
15	0x3bb44c8a	0.005502288
16	0x3ea54bfc	0.32284534
17	0xbf6da51b	-0.92830056
18	0x3e58da58	0.21177042
19	0xbfb33382	-1.4000094
20	0xbf9caa63	-1.2239498
21	0x3d9c0454	0.07618013
22	0xbe296ae1	-0.16544677
23	0x3f877d92	1.0585196
24	0x3e523e25	0.20531519
25	0xbf8c9cd5	-1.0985361
26	0xbe278d70	-0.16362548
27	0xbf99f2cc	-1.2027221
28	0xbfb0ff9c	-1.3828006
29	0xbf80f74f	-1.0075473
30	0xbd57d249	-0.052690778
31	0xbeccc67b	-0.3999518
32	0xbf9051b4	-1.1274934
33	0xbca52050	-0.02015701
34	0xc00cd66e	-2.2005877
35	0x3ed5a71f	0.41729066
36	0xbe87190c	-0.26386297
37	0xbf097046	-0.5368694
38	0xbe902e9b	-0.28160557
39	0xbac19de0	-0.0014771782
40	0xbebe1489	-0.37125042
41	0xbcdc978e	-0.026927736
42	0xbeee4e50	-0.46544123
43	0xbee1809f	-0.44043443
44	0xbf8a75a4	-1.0817151
45	0xbfc16f65	-1.511212
46	0xbf560d6c	-0.8361423
47	0xbdf4b093	-0.11947741
48	0xbf1fc4b4	-0.6240952
49	0xbf87e89c	-1.0617862
50	0xbf45a080	-0.7719803
51	0xbf077896	-0.52918375
52	0xbf0182b6	-0.50590074
53	0xbf295500	-0.66145325
54	0xc005b19d	-2.0889657
55	0xbd920e66	-0.071316525
56	0x3f3f64df	0.7476329
57	0xbf82c734	-1.0217042
58	0xbf40f7eb	-0.7537829
59	0xbf581118	-0.84401083
60	0xbd49ab3c	-0.049235567
61	0xbeadf2a4	-0.33974183
62	0xbf13d9ed	-0.57754403
63	0xbf95dfab	-1.1708883

common_layer.3.residual.4.running_var f4 [64]
0	0x3f9bcd67	1.2172059
1	0x3fd8dfc7	1.6943291
2	0x3fa9fb03	1.3279728
3	0x400a8b66	2.1647582
4	0x4002be0f	2.0428503
5	0x3fc96ec5	1.5736929
6	0x3fdb02b1	1.7110196
7	0x3ff7f4e8	1.9371614
8	0x3fed9d0c	1.8563552
9	0x3fc0da32	1.5066588
10	0x40073813	2.1127975
11	0x3fb2b938	1.3962774
12	0x3fc243da	1.5176957
13	0x3fe40aa9	1.7815753
14	0x3fb97cec	1.4491248
15	0x3ff1ff8c	1.8906112
16	0x3fc42fd5	1.5327097
17	0x3fde18f7	1.7351369
18	0x3fc762aa	1.5576985
19	0x3fcf4f6e	1.6196115
20	0x3fdf5c6f	1.7450083
21	0x3fc21b36	1.5164554
22	0x3fde305a	1.7358506
23	0x3fb8052d	1.437658
24	0x3fc8def8	1.5693045
25	0x3fdd33b5	1.7281405
26	0x3fbc2b56	1.4700725
27	0x3ffd3079	1.9780418
28	0x4003ff6e	2.0624652
29	0x3fbd1fb7	1.4775304
30	0x3fce60bf	1.6123275
31	0x3ffd5d5c	1.9794116
32	0x400ab2fd	2.1671746
33	0x3fb3b5e6	1.4039886
34	0x40051836	2.0796027
35	0x3f987f6b	1.1913885
36	0x3f9f8533	1.2462524
37	0x3fdc7819	1.7224151
38	0x3fa362d6	1.2764537
39	0x3fe1fff9	1.7656242
40	0x3fd3e282	1.65535
41	0x40100212	2.2501264
42	0x3fd291e5	1.6450773
43	0x3ff9f4fc	1.9527888
44	0x3fc1a56a	1.5128605
45	0x3fe0d419	1.7564727
46	0x3fcadf35	1.5849367
47	0x3fdd0e7c	1.7270045
48	0x3f8f8ec1	1.121544
49	0x3fd4bb42	1.6619647
50	0x3fde325c	1.7359118
51	0x3fa88569	1.3165714
52	0x3fa86085	1.3154455
53	0x3fd6807a	1.6757958
54	0x40058e95	2.0868275
55	0x3fc235ce	1.517267
56	0x3fc3dfa2	1.5302622
57	0x3fb08253	1.3789772
58	0x3f9e4d2a	1.2367299
59	0x3fd6eeec	1.6791663
60	0x3fe6a406	1.8018806
61	0x3fa91992	1.3210928
62	0x3fce7856	1.6130474
63	0x3fe59874	1.793715
