model/resnet/8x8/1/good_64f_2b_8.pt (torch_old, 648444 bytes, 40 tensors)

main_layer.0.weight f4 [64, 4, 3, 3]
00000000: 5fbf 493d 96ed e23d 5f76 10be 07a1 76be
00000010: f05f 6ebe 5f90 4abe afb7 3cbd a438 4d3e
00000020: d64f 1a3e a70e d2bd 4933 033e ba00 2ebe
00000030: a6c5 373e 187d d03d dd5a 5f3e d8fd 54be
00000040: e191 b8bc 7497 27be ed6b 5fbc a2e4 e9bd
00000050: 7c76 5a3c bc23 013e 8498 113e e7e3 b03d
00000060: f269 70bd 8a98 42bd 05e0 bcbd 8ffd 62bd
00000070: a8b2 4f3e b40c 95bd c27c 1c3e 67ff 6a3d
00000080: c2ec a2bd 93ce 49bd 875a eb3c 8668 30bd
00000090: 4725 f83b 4734 85bd 6966 51be 1f5b 9dbd
000000a0: 23af 6b3e ce6d 27be 3c71 50bd 4615 a0be
000000b0: 8df8 66be 0de6 e2bd b235 07bc 5029 8b3e
000000c0: 51b8 263d f262 273b 95b7 87bd 6859 4e3e
000000d0: bc1f 853d d019 613d 9cf8 b23d c6aa 4f3d
000000e0: c13e 40bd 7599 31be 215e aebd d450 253b
000000f0: 59bb c2bd facb aebc f92b c63d 1e6b 8cbd
00000100: 5a6e b63d 68f1 35be 386a 2bbd 3d8a ae3d
00000110: 6921 88bd dc89 173e d0ae 09be 7070 a1bc
00000120: 7b75 1e3b d27e c3bc 2b53 4a3e f9a8 0fbd
00000130: 60d3 9f3e 6715 823e e264 e03d c209 023e
00000140: 95a9 383e ca63 dc3c 8fd5 ccbd 4c6c 95be
00000150: 84f0 1bbe 24f1 c13d 76a6 c2bd cb32 95be
00000160: d445 b03d 5dab 783d 34d7 bd3c 8062 e6bd
00000170: 8efb 753d 31bc a83d 0556 ce3d de16 883d
00000180: d135 423d 1039 95bc 4d3b 0dbe f700 fd3d
00000190: fcfe 983d 7db5 b2bd f2e2 7dbd d179 16bc
000001a0: 0619 e3bd 9f78 9e3d 5ea8 0e3d e4a9 85bc
000001b0: b7c0 173e a787 253e 72fa d0be 56bd e7bd
000001c0: 2bb5 3abe 0efb 70be aa8b b03c c621 b23d
000001d0: 0886 3fbe 0e8f 83be b0ff 1abd b2af 153e
000001e0: db02 2cbe eb6c bf3d ef8d 163e 0b2c 903e
000001f0: feed 62bd 0c22 ea3d 3bea 04bd 5fe4 13bd
00000200: 3a6a 4c3d fbf8 a03d fb01 35bd a9e5 273e
00000210: 41c8 b83c e0b7 4cbd d98b 78bd 9706 0a3e
00000220: 6ff3 afbd d70d 333c 1828 8b3c 7cf7 d53d
00000230: b8c8 59bd 3061 09be 4f62 083d 0c13 17be
00000240: 6437 3ebe 9c77 dd3d 9989 013e a0ed 62be
00000250: b055 36be bac0 ddbd f209 ef3d 6380 a2be
00000260: 6e37 5b3e 7dfa 0e3e e38e 923d b11f 74bd
00000270: 44f7 913d dd49 d2bc dfc5 f93d 0562 b33e
00000280: 33dd 65be 70c8 d63d 46f4 0d3c 1495 053e
00000290: b21b c6bd 8d8f 983c 7894 6abd 7d04 80bc
000002a0: e727 f3bc f898 29be d85f 473d 1fcf 1dbe
000002b0: 4370 0c3e 3519 4dbd f1bb 0c3d 758a 793d
000002c0: c4bc 4f3c dcae d0bc 70af f3bd 5f07 d6bc
000002d0: 6562 20be 9fd1 063e a5bd 253e 629c 393e
000002e0: 8f54 5dbe 5a84 563d deb2 243d 0bcd f1bc
000002f0: f3b7 323e 828d 903e 4ce8 d5bd 084c 1bbe
00000300: 02dd 163e 8a01 99be d62b dcbd 50da 9fbd
00000310: 52fa 98bc aee4 34be 94b6 7bbe f777 82bb
00000320: 4eb5 98bd c85e 87bd a8cf 813d 8b68 2fbd
00000330: de61 843d 0909 0b3d df40 cf3d 2b68 62bc
00000340: ac32 2fbe 076c ef3d f260 923d e57e 84bd
00000350: a6f0 893d ea0c d23c 1a8f cf3d 59f3 01be
00000360: 231d ce3a ad1f 8a3d 2d5b 8dbe d915 1a3d
00000370: 356a 40bd debc e9bd 22a9 3c3e 6af3 5ebe
00000380: 8ae7 f6bd 27ed 7fbe 132c 27be 2a14 8d3e
00000390: 3a41 8abe 8644 443c 44c6 c53d a9cd 2fbe
000003a0: 952f 85bc 2b0b 983e 5b51 853d 0e2e 383c
000003b0: 74c2 32be 4064 2cbe e579 01be f34a dabb
000003c0: 802b ed3d bf86 93bc e8e5 f2bc b1cb c13d
000003d0: cb4a 50bd 540d 003e 768c e7bd 3d7e 8c3d
000003e0: a69b 35bc 3afb 6d3d 084a 90bd df5e 683d
000003f0: e171 233d 250e 1dbe 56c6 e4bc 7a71 8dbe
0.04925477 0.11080472 -0.14107655 -0.24084865 -0.23278785 -0.19781636 -0.04607361 0.20041138
0.15069517 -0.10256701 0.12812532 -0.16992465 0.1794649 0.1018011 0.21812005 -0.20799959
-0.022530498 -0.16366369 -0.013636571 -0.114205614 0.013333913 0.12611288 0.14218336 0.08637219
-0.058694787 -0.047508754 -0.09222416 -0.055417594 0.20282996 -0.072778136 0.15281966 0.057372477
-0.07955314 -0.04926927 0.02872969 -0.04306843 0.007572803 -0.06504112 -0.20449223 -0.076833956
0.23016028 -0.16350481 -0.05088924 -0.3126623 -0.22555752 -0.11079035 -0.008252548 0.27179956
0.04070312 0.0025541154 -0.06626812 0.20151293 0.065001935 0.054956257 0.08738825 0.05069997
-0.046934847 -0.17343695 -0.085140474 0.002522518 -0.0950839 -0.021337498 0.09676356 -0.068563685
0.08907767 -0.1776787 -0.041849345 0.085224606 -0.066469975 0.14798683 -0.13445592 -0.019706935
0.002417891 -0.023864184 0.19758289 -0.035073254 0.31215954 0.25406954 0.10956742 0.12699035
0.1803344 0.026903052 -0.100016706 -0.29184186 -0.15228468 0.09469822 -0.09504406 -0.29140314
0.08607069 0.0607103 0.023173906 -0.11249256 0.060054354 0.0823902 0.10075001 0.066449866
0.047414605 -0.018215686 -0.13792153 0.123537 0.074705094 -0.087260224 -0.06198401 -0.009184317
-0.11088757 0.077378504 0.034828536 -0.016316362 0.14819609 0.16165029 -0.40816075 -0.1131541
-0.18233173 -0.2353327 0.021550972 0.08697848 -0.18703473 -0.2569508 -0.0378415 0.14617804
-0.16797964 0.09346946 0.14702581 0.28158602 -0.05540275 0.11432275 -0.032449942 -0.036106464
0.049905993 0.07859989 -0.04419134 0.16396202 0.022556426 -0.049980044 -0.060680244 0.13479076
-0.08591353 0.010928593 0.016986892 0.104475945 -0.053169936 -0.1341598 0.03329688 -0.1475336
-0.18575817 0.10813829 0.12650146 -0.22160959 -0.17806125 -0.10827775 0.11671819 -0.31738576
0.21407863 0.13962741 0.0715616 -0.059600536 0.0712724 -0.025669986 0.12195944 0.3503572
-0.22447662 0.10487449 0.008664196 0.1304515 -0.09673251 0.018623138 -0.057270497 -0.01562714
-0.029682113 -0.16562259 0.048675388 -0.15411042 0.137147 -0.050072867 0.034358922 0.06092306
0.012679283 -0.025474004 -0.118986964 -0.026126562 -0.15662535 0.13165902 0.16185625 0.18126062
-0.21614288 0.052372314 0.040209644 -0.029516717 0.17452984 0.28232962 -0.10444698 -0.15165722
0.14732745 -0.29883987 -0.107505485 -0.07805312 -0.01867405 -0.1766536 -0.24581367 -0.003981586
-0.07456456 -0.06609875 0.063384354 -0.04282431 0.06463979 0.033944163 0.10119795 -0.013818781
-0.17109174 0.116905265 0.07147397 -0.06469516 0.06735353 0.025640924 0.10134716 -0.12690486
0.0015725236 0.06744323 -0.27608624 0.03761849 -0.046976287 -0.11412977 0.18423894 -0.21772543
-0.12055881 -0.2499281 -0.16325407 0.27554446 -0.2700289 0.011979228 0.09656957 -0.17168297
-0.01625804 0.2969602 0.06509658 0.011241449 -0.1745699 -0.16835117 -0.12644155 -0.0066617667
0.115805626 -0.018008588 -0.029650643 0.09462679 -0.050852578 0.12505084 -0.11306088 0.068600155
-0.011084473 0.058100916 -0.0704537 0.0567311 0.039903525 -0.15337427 -0.027926605 -0.27625638

main_layer.0.bias f4 [64]
00000000: e372 7d38 759b 1eb9 3cd9 c539 bb27 d138
00000010: 1b3b c238 24de 4a38 774d c0b8 8cb6 89b8
00000020: ebe2 aa39 14fd 7938 0b60 f038 eceb 15b9
00000030: 5a77 85b8 8057 e0b8 eb2e 0237 a7c0 ac39
00000040: 1ed2 9bb9 5d07 ddb8 3898 4937 2ec3 23b9
00000050: 11a1 e6b8 d254 5c39 4882 35b8 3d35 bfb7
00000060: 34c6 55b8 17b2 0339 b037 95b7 0713 9b37
00000070: 184c 2cb8 def8 7038 edbd fb38 4448 6439
00000080: da91 c637 351f 5d39 6e73 5cb9 486f dbb8
00000090: 2451 8137 fca0 f5b8 b77a 6b39 4cf9 c637
000000a0: 5fd6 5638 30f7 47b6 c9eb 34b9 1634 4c39
000000b0: 63e6 1038 3c32 9bb8 b45c feb7 1713 5739
000000c0: c017 6cb9 44a3 93b9 2aea c838 cb7a 99b8
000000d0: 646a b938 307a 09b9 7485 02b9 2c14 fbb8
000000e0: 5e9f 2c39 38ba 5539 165c f237 a405 27b9
000000f0: e7e6 71b7 e036 9fb8 d331 adb8 abd1 ec38
6.0426897e-05 -0.00015125966 0.0003773662 9.973297e-05 9.26165e-05 4.8367438e-05 -9.1697024e-05 -6.566671e-05
0.00032593994 5.9601924e-05 0.00011461981 -0.00014297635 -6.364165e-05 -0.000106974505 7.759528e-06 0.00032949934
-0.00029720453 -0.00010539473 1.2015975e-05 -0.00015617601 -0.000109972556 0.00021012433 -4.3275097e-05 -2.2793765e-05
-5.096775e-05 0.00012559477 -1.7788116e-05 1.84863e-05 -4.1078863e-05 5.7452235e-05 0.00012003989 0.00021770695
2.3671357e-05 0.00021087828 -0.00021023836 -0.000104634615 1.5415782e-05 -0.00011712496 0.00022457061 2.3719527e-05
5.1221225e-05 -2.9797193e-06 -0.00017253975 0.0001947436 3.454684e-05 -7.400333e-05 -3.0322328e-05 0.0002051111
-0.00022515561 -0.00028159667 9.5803596e-05 -7.3184805e-05 8.841304e-05 -0.00013110857 -0.00012447481 -0.0001197237
0.00016462567 0.00020382635 2.8891529e-05 -0.00015928462 -1.44184805e-05 -7.591932e-05 -8.258563e-05 0.000112924106

main_layer.1.weight f4 [64]
00000000: 89ce 3b3f cc20 4c3f 6a84 623f f7e2 463f
00000010: 55d5 483f 84e8 3a3f f6d3 703f 3059 463f
00000020: 7459 6e3f 7c23 3f3f 625b 603f ba59 593f
00000030: fc82 3a3f 927d 383f 36b0 493f caa9 4f3f
00000040: e905 483f bb55 3a3f 3e87 2e3f 1d25 4e3f
00000050: 05d8 663f c79e 2c3f 05ac 773f cf6b 403f
00000060: fa43 593f 8b30 503f 61c3 2b3f 6a64 4c3f
00000070: f8a9 4a3f 85d2 5c3f ca98 503f 9c75 493f
00000080: 6dec 3a3f 11e3 583f 7451 5f3f ead9 373f
00000090: 39a0 423f 2cd4 373f 4338 633f 8c65 6e3f
000000a0: 3e89 693f 7fbd 523f cf22 5d3f 8217 5a3f
000000b0: 301a 513f 9cde 5c3f a149 453f 3463 593f
000000c0: fef8 523f 15fa 4e3f 1932 3e3f b273 483f
000000d0: e5f7 4b3f 9c7f 563f 475a 353f ccdc 523f
000000e0: 2436 523f 0ed9 673f ac2f 4b3f 17a8 573f
000000f0: 339b 553f 08ef 3f3f 79f5 3b3f 8aa1 403f
0.7336202 0.79737544 0.884833 0.7769007 0.7845052 0.7301104 0.94073427 0.7747984
0.93105245 0.7466352 0.8763944 0.84902537 0.72856116 0.72066605 0.787845 0.8111845
0.7813402 0.72787064 0.68175113 0.8052538 0.9017337 0.67429775 0.96746856 0.751645
0.8486935 0.8132407 0.67095 0.7984072 0.791656 0.8625873 0.8148314 0.7869508
0.7301701 0.84721476 0.8723366 0.71816885 0.7602573 0.71808124 0.88757724 0.931237
0.9122504 0.823204 0.8638124 0.8519212 0.81680584 0.86277175 0.77065474 0.84916997
0.8241118 0.80850345 0.7429519 0.7830154 0.7967513 0.83788466 0.7084088 0.8236816
0.8211386 0.90565574 0.79369617 0.8424086 0.8343994 0.7497411 0.73421437 0.7524649

main_layer.1.bias f4 [64]
00000000: d3fd b1be a880 5ebe 694f 29be acc4 85be
00000010: 5853 493d 3163 a4be 56f6 f1bd ec2d fbbd
00000020: f328 78be ad38 9abe d7cd 5e3d d1d6 8dbe
00000030: 25ef f2bd d934 19be 4369 83be c6a9 64be
00000040: a9de 91be 4be1 7abe c866 8dbe 727f 10be
00000050: 50d8 69be 271b 78be 3df6 73be aa7a 43be
00000060: 9b2c f2bd 94d5 77be fce2 87be 988b 8ebe
00000070: 25fe 41be f815 4abe c51f 14be 3fcf 6ebd
00000080: b462 8bbe f872 c1bd 77fb 5dbe adea 63be
00000090: 437f 83be eca0 a2be 1456 38be 5ace 8cbe
000000a0: cf0e f0bd db89 4bbe 4674 62be 17b6 99be
000000b0: b0be 89be f48b 3cbe 7481 5cbe 32cf b7be
000000c0: c089 9abe 99ac 65be 8cd6 66be 14a0 4ebe
000000d0: add8 30be a8d6 87bd 8b1a 0dbe 1918 5bbe
000000e0: df09 27be 8b8e 5abe 5736 5dbe b16f bdbd
000000f0: dfa3 4bbe 789d 99be 8635 36be b217 12be
-0.34763965 -0.21728766 -0.16534199 -0.2612661 0.04915175 -0.32106927 -0.11814563 -0.12264618
-0.24234371 -0.30121365 0.054395523 -0.27702954 -0.118620194 -0.14961566 -0.25666246 -0.22330388
-0.2849019 -0.24500005 -0.27617478 -0.14111117 -0.22836423 -0.24229108 -0.23824401 -0.19089761
-0.11824914 -0.24202567 -0.26540363 -0.27840877 -0.18944605 -0.19734943 -0.14465244 -0.058303114
-0.27223742 -0.09445757 -0.21677957 -0.2225749 -0.2568303 -0.317634 -0.18001586 -0.27501184
-0.117215745 -0.19876806 -0.22114667 -0.30021736 -0.26903296 -0.18412763 -0.21533757 -0.35900265
-0.3018322 -0.22429122 -0.2254278 -0.20178252 -0.17270155 -0.06632739 -0.13779657 -0.21395911
-0.1631236 -0.21343438 -0.2160276 -0.09249819 -0.1988673 -0.30002952 -0.17793855 -0.14266852

main_layer.1.running_mean f4 [64]
00000000: 3b88 ba3d efe5 0ebe 4221 413d 4aa5 b9bd
00000010: 7f97 76bd 13b4 bbbc 8c79 133d 84e8 ce3c
00000020: ea58 cc3a ebee 93be d334 4abe 1893 aebd
00000030: 626b 693c f35a 79bd 6997 a23c 6587 be3c
00000040: c197 283e 3a41 1d3e 7c1a 343e 55e2 c53c
00000050: 9c30 2cbe 4a0b fb3c 2629 1c3d 379b 973c
00000060: a3ed be3d 20b9 12be e698 923c 112c 55bd
00000070: 33af b4bd cd72 69be f866 723d 0987 02be
00000080: 202d 10be 45d2 c0bc 629c 833d f4e9 1fbe
00000090: 0993 4cbe 3144 1a3d 018b 59bd a870 1e3d
000000a0: 996d 02bd 8545 d13c 9d10 e33c 87fa 943d
000000b0: 426b c93d 544e 88bd bdd2 88be 8cd3 5bbd
000000c0: 66a1 623d e97b a6bc 0278 07bd 1bdf 2cbe
000000d0: 37ce 88bb 819a 20be 23ff 1f3c ebd7 d13c
000000e0: 9fd2 ab3d cf97 9f3d b1bc 583d daeb d6bd
000000f0: af4e c9bd e212 fdbd 9ae6 8bbd f468 e2bd
0.09108015 -0.139549 0.047150858 -0.090647295 -0.06020307 -0.022913015 0.036004588 0.025257356
0.0015590463 -0.28893217 -0.19746713 -0.0852415 0.014246793 -0.06087775 0.019847589 0.02325792
0.1646414 0.15356913 0.17588228 0.024155775 -0.16815418 0.030645031 0.03812518 0.01850663
0.09322669 -0.14328432 0.017895173 -0.052043978 -0.08822479 -0.227977 0.05918023 -0.12746824
-0.14079714 -0.023537764 0.06426312 -0.1561659 -0.19977964 0.03766269 -0.05311108 0.038681656
-0.0318428 0.025545845 0.027717883 0.07274347 0.09834911 -0.06655565 -0.2672328 -0.053668544
0.055329703 -0.020322757 -0.033073433 -0.16881983 -0.0041749734 -0.15683939 0.009765419 0.025615653
0.08389782 0.07792627 0.052914325 -0.10494204 -0.09829461 -0.12357117 -0.06831093 -0.110551745

main_layer.1.running_var f4 [64]
00000000: fb92 273d caed 153d c3ac 083d 320f 623d
00000010: 5941 033d e60e 0c3d 176e 2e3d 4008 253d
00000020: 7be0 e13c 1d1c 653d 8a59 1c3d 2e7b 893d
00000030: 3072 293d c9de 373d 8797 2e3d 992a 593d
00000040: 2a82 573d e374 3d3d 05b8 093d 88e9 193d
00000050: 98a0 743d 4a64 de3c dec2 563d 1033 303d
00000060: d84f 053d 7a6a 213d 4fe3 323d 3570 343d
00000070: 0a07 393d 998c 4d3d c056 233d 1214 2e3d
00000080: 4eec 163d 347a 1b3d 2021 333d 2158 1b3d
00000090: 0b4e 133d 76e4 1f3d fe6b 063d 4eca 1e3d
000000a0: 3a8e 433d 1d82 6b3d e305 cf3c e796 3b3d
000000b0: 3356 2e3d 80b2 763d 7a70 173d 1924 543d
000000c0: 1acc 5c3d 93b3 3f3d cb7e 113d 1a9c 4e3d
000000d0: 9d8e 563d 5351 0b3d 4658 143d 380d 133d
000000e0: 49c5 243d 5035 3f3d ae4a 4e3d e8df 243d
000000f0: d8ad 6b3d ebbd 143d fdc2 1b3d 7791 373d
0.040911656 0.036603726 0.033367883 0.055190273 0.032044742 0.034193896 0.04258546 0.04029107
0.027572861 0.055935014 0.03817133 0.06712948 0.041368663 0.0448902 0.042624976 0.05301914
0.05261437 0.04625405 0.03362276 0.03757623 0.059723467 0.02714743 0.052431934 0.043017447
0.032546848 0.039408185 0.04367381 0.04405232 0.04517273 0.050182912 0.039877653 0.04249961
0.03684645 0.03795834 0.043732762 0.037925843 0.0359631 0.039036237 0.032817833 0.03876715
0.04774306 0.057497133 0.025271362 0.04579821 0.042562675 0.060228825 0.0369725 0.051792238
0.053905584 0.046802115 0.03552131 0.05044184 0.0523821 0.034013104 0.036216997 0.03590128
0.04022721 0.046681702 0.05036419 0.040252596 0.057538837 0.036313932 0.038027752 0.04481646

main_layer.3.residual.0.weight f4 [64, 64, 3, 3]
00000000: 6ddc 8d3b 2fdc ebbd d43b 51bc d33c cdbb
00000010: 2946 de3c 24f9 a1bd a0c6 33bd dee3 9a3d
00000020: 5ed5 d23c 8f25 52be 1785 263d e86a 5d3d
00000030: b421 123e 10e5 23bd 51e2 22be c9be 7abd
00000040: 57cd 8dbd 6eb9 2f3d a901 cfbd bb97 ebbc
00000050: 83ec 9ebd 2380 23bd 48af 89bb bfeb 82bd
00000060: 79d3 11be 2bd7 85bd 354a 99bd 2116 a5bd
00000070: 1526 8cbd 1fdb 3fbd d9ee 013e db92 823d
00000080: ae55 d13c e4ff af3d f600 7d3b 08e3 5dbd
00000090: a2a2 a0bd 4079 7ebc 1484 d4bc 8cd4 07be
000000a0: ca55 043e 6377 153b e424 0d3a 4379 4dbd
000000b0: be78 1e3e d0bf b9bc ff68 263e 1ff9 e43d
000000c0: 3125 35be ed04 da3d 34d5 65bd f684 2a3d
000000d0: cdc6 c0bc 3fdd 3abe 55b3 6dbd 8a2e b5bd
000000e0: 5b8a 5abd b891 723d d6d5 aebd ae71 eb3d
000000f0: a93e d6bc d195 ed3d 6887 dbbc 7e78 56bd
00000100: 805b 073e 9852 6b3d 79e7 cbbd 3964 acbd
00000110: 606a d4bb c51a 59be 1448 1b3c d844 2fbe
00000120: 8eea 8d3c 44fb 3ebe 32dc a43d cbcb 953c
00000130: 8325 553d 8dbd 6e3c 8ef5 febd 86b6 833d
00000140: cac9 183e 49ed 06bd 0f6c 953d 5745 9c3b
00000150: 95d0 acbb 653e 3e3d ec7a 343c 2e36 fabd
00000160: 59b6 8f3d 2762 4b3b 1a05 59bd 7bfc 4cbe
00000170: 19ab ab3d 5cf7 b43d 285b 003d 1296 e73d
00000180: b796 c73d dc51 fdbc 9a4d 253e ca9a eebd
00000190: aa54 a73d df62 a53d 8b89 86bd 93d3 0e3d
000001a0: a604 d43d 7bc8 6c3d 7ffc 733d 45e3 14be
000001b0: 4817 8cbd 9d44 e73d 8598 893d 4c93 8b3d
000001c0: 89c2 853d d0a3 7b3d f8e5 b03c 5f7e 0fbd
000001d0: e39c 3f3c a8bb f7bd b216 0e3c 9eb9 c53c
000001e0: e04c 32bd 315a 8bbd 330b 833d 30a4 86bd
000001f0: addd 96bd 502c 5a3d c740 6ebe d93c f8bd
00000200: 87c9 b2bc 6de5 f7bd 53ff 87bd eb5a 1d3d
00000210: b26a 8c3d 275c fcbd 6306 813d 54a8 ca3d
00000220: fefe fabc 48e8 2f3e f623 053d d223 983d
00000230: 733a ba3c 18a8 03be 299e 9d3d 23e0 e1bd
00000240: b577 d1bd f89b 87bd c579 de3c d2ec 9d3d
00000250: 89d0 42be be67 3dbe e206 89bc 2f31 80bd
00000260: 27ca 9d3b 3926 2fbc 646a 223e 9e66 e93d
00000270: b08b d8bc 2c3a 043e f860 c8bc 1e77 25bd
00000280: e387 60bc 3f87 92bd f2c0 12be 9b9c 813d
00000290: a86e bd3d f6ce 16bd 4ad0 56bc 6573 bc3d
000002a0: e56e 77bc 5312 98bd 4368 f8bc 37f4 2bbd
000002b0: fca2 f6bd 7c91 b6bd c269 27be ce24 09bc
000002c0: c3b5 a63b bd41 d23d 75fb 36bc 92f1 c33d
000002d0: 0106 27be b8b7 0d3e f874 a93d bc4b 76bd
000002e0: 8420 0cbd 91e0 f9ba 14fb a73d d463 473d
000002f0: ac05 893c 451a 11bd 9503 c93c 3847 103d
00000300: 9fe2 933d b25f 60bc 7a2d 33bd ab14 7dbd
00000310: 3b56 fdbb bf28 143e 44fa 76bd 1c54 15bd
00000320: 255f c83d 2a96 17bd e490 d5bc 3b45 903d
00000330: 4a0d a73d d66a 783d 34dc 6e3c 4480 503e
00000340: 1997 e0b8 62f7 203e befd 5b3d 1093 abbd
00000350: 6840 253d d7e0 0c3d d999 8d3b 2eb1 813d
00000360: a813 e0bd 2d8a b53d 90b3 13bd 9031 6cbc
00000370: 56e5 b53d 47fd 85b9 d5df f13c b79f 893d
00000380: 5e97 563d 56f9 c8bd e984 c53c 9b26 343d
00000390: 1a2a c1bd 6617 25bd 0cb7 d7bd a434 973c
000003a0: 5d09 87bd e1ab 00be 2e7b 64bd 1c7a 403b
000003b0: 91a0 073e 2b56 a6bb aecc 1a3d 8970 3cbe
000003c0: 8ee5 4f3d 65e9 69bc 9238 60bc 48e3 a5bd
000003d0: 51f8 403d f698 113d f7fc e0bc 0909 2dbd
000003e0: b03d abbc 65eb 09bc fc8e 2c3d 80a6 5a3c
000003f0: 26c4 d8bd 246c dbbc ec41 b43c a9f1 e93c
0.0043292553 -0.11516606 -0.012770612 -0.0062633543 0.027133064 -0.07908848 -0.043890595 0.075629935
0.025736507 -0.2052214 0.040654268 0.054057032 0.14270669 -0.040013373 -0.15906645 -0.061217103
-0.06923931 0.04290145 -0.101077385 -0.028758874 -0.07759955 -0.039917123 -0.0042018034 -0.06392621
-0.14240827 -0.06535181 -0.07484857 -0.080608614 -0.06843201 -0.04683983 0.1268877 0.06375667
0.02555355 0.08593729 0.003860531 -0.054171592 -0.0784352 -0.015531838 -0.025941886 -0.13264674
0.12923351 0.0022806756 0.000538422 -0.050164472 0.15475747 -0.022674471 0.1625099 0.111803286
-0.17689969 0.10645471 -0.05611153 0.041630708 -0.023532296 -0.18248461 -0.058032352 -0.08846767
-0.053354602 0.059221 -0.0853688 0.11496292 -0.026152926 0.11600841 -0.026797965 -0.052361004
0.13218498 0.057451814 -0.09956259 -0.084175535 -0.0064824075 -0.21201618 0.009477634 -0.17116106
0.017323758 -0.18650538 0.080498114 0.018285653 0.052037727 0.01457156 -0.124491796 0.06431298
0.14920726 -0.032941137 0.07296001 0.004769008 -0.0052738884 0.046446223 0.011015635 -0.12217365
0.07017202 0.0031033845 -0.05298338 -0.20018189 0.08382244 0.088362426 0.031336933 0.113079205
0.097455435 -0.030922823 0.16142884 -0.116506174 0.08170445 0.08075499 -0.06569203 0.03486974
0.10352449 0.05780838 0.05956697 -0.14539821 -0.06840378 0.11292384 0.06718544 0.06815204
0.06531245 0.06143552 0.021594033 -0.035032626 0.01169512 -0.120963395 0.008672403 0.02413636
-0.043530345 -0.06804312 0.063986205 -0.06574285 -0.073665 0.053264916 -0.23266898 -0.12120981
-0.021824611 -0.12104306 -0.06640496 0.038416784 0.06856288 -0.12322264 0.06300046 0.09895387
-0.030639168 0.17178452 0.032505 0.07428707 0.022732949 -0.12857091 0.07696182 -0.11029079
-0.102279104 -0.066215456 0.027157674 0.077111855 -0.19024862 -0.18496606 -0.016726915 -0.06259381
0.004815358 -0.010690265 0.15860897 0.11396526 -0.026433796 0.12912816 -0.0244603 -0.040396802
-0.013704273 -0.071547024 -0.14331415 0.06328698 0.09249622 -0.036818467 -0.013111183 0.09201697
-0.015102123 -0.0742537 -0.030323153 -0.04198095 -0.120428056 -0.08914468 -0.16348937 -0.008370591
0.0050875857 0.10266445 -0.01116835 0.0956756 -0.16310884 0.13839614 0.08274263 -0.06013082
-0.034210697 -0.0019064118 0.08202186 0.048679188 0.016726337 -0.035425443 0.02453784 0.03522417
0.07220959 -0.013694691 -0.04374454 -0.06178729 -0.0077312267 0.14468668 -0.060297266 -0.036457166
0.097837724 -0.037008442 -0.026070066 0.07044455 0.081568316 0.06064876 0.014578868 0.2036143
-0.000107092965 0.15719369 0.053708784 -0.08377659 0.040344626 0.03439411 0.0043213186 0.063326225
-0.10941249 0.088642456 -0.036059916 -0.0144161135 0.08881633 -0.00025556443 0.029525677 0.06719916
0.05239045 -0.09813182 0.024111228 0.04398213 -0.09431858 -0.040305518 -0.1053296 0.018457718
-0.06593583 -0.12565567 -0.055781536 0.0029369658 0.13244845 -0.00507619 0.037792854 -0.18402304
0.05075603 -0.014276837 -0.013685362 -0.08099991 0.047111813 0.035546266 -0.027464373 -0.042244945
-0.020903438 -0.008417939 0.042128548 0.013345361 -0.10584287 -0.026784964 0.02200409 0.028557615

main_layer.3.residual.0.bias f4 [64]
00000000: e4fe 02b7 183a 2db6 5ee5 2d36 7218 f5b7
00000010: f432 feb6 1a20 9137 e5fd 83b6 d049 1835
00000020: 828e 1336 aa02 4038 1a4a d736 6e99 a9b7
00000030: e98f c437 ceac 0ab8 553c 2bb7 beff 70b7
00000040: 554b 3d37 3411 83b7 0c42 41b7 9298 1db8
00000050: 65f1 9037 ba0a 5e36 0249 3d37 b1c3 e737
00000060: 60ed f337 def5 e637 fb73 9837 e33a 1ab7
00000070: cc13 0237 fe67 b436 2249 fb36 c57e 8937
00000080: d2f2 03b7 45bc 65b7 89e1 cc37 5e90 ab37
00000090: 50a7 d4b7 3422 8b38 235d fc37 cb81 3bb7
000000a0: 40a8 bbb7 ad04 06b7 2e3f 0338 48ac d337
000000b0: 74bf 5336 88ae 1a36 d269 e737 f845 b7b6
000000c0: c7de c8b6 90e9 6435 4222 3fb6 321d 2037
000000d0: ea3b 7737 3ec0 9237 4a4c af37 a0c0 6834
000000e0: 6cb6 5d37 e8ad 1b38 5f7f 9837 2cc2 7fb7
000000f0: 76d3 9537 9c13 8336 2242 07b7 1063 5136
-7.80795e-06 -2.5812824e-06 2.5912518e-06 -2.921766e-05 -7.5757216e-06 1.7300295e-05 -3.9336614e-06 5.6731824e-07
2.1987657e-06 4.577885e-05 6.416126e-06 -2.0217816e-05 2.3432034e-05 -3.30627e-05 -1.0206441e-05 -1.4364659e-05
1.12828175e-05 -1.5624428e-05 -1.1519074e-05 -3.757381e-05 1.7278546e-05 3.3086822e-06 1.1282276e-05 2.7628472e-05
2.9078394e-05 2.7532627e-05 1.817382e-05 -9.192826e-06 7.753213e-06 5.3765243e-06 7.4888967e-06 1.6390704e-05
-7.8647445e-06 -1.3693299e-05 2.4423718e-05 2.0452015e-05 -2.535028e-05 6.634407e-05 3.0084111e-05 -1.1176288e-05
-2.2370485e-05 -7.988111e-06 3.1291675e-05 2.5233385e-05 3.155289e-06 2.3049379e-06 2.7586622e-05 -5.4619704e-06
-5.986399e-06 8.5276497e-07 -2.8481159e-06 9.543541e-06 1.4736297e-05 1.7494076e-05 2.089715e-05 2.167676e-07
1.32151e-05 3.7116843e-05 1.8179124e-05 -1.5244394e-05 1.7860653e-05 3.906387e-06 -8.062025e-06 3.1201089e-06

main_layer.3.residual.1.weight f4 [64]
00000000: 142f 583f fd29 8a3f 6579 4b3f 26a3 673f
00000010: 3d33 513f 8e9a 683f 49ba 5e3f 499e 783f
00000020: 9377 643f bade 783f b1c6 4e3f 611e 643f
00000030: d65c 583f 043b 733f 7cdd 5f3f d0d5 6d3f
00000040: f22a 573f b1a5 543f abdc 723f a760 5e3f
00000050: c738 4a3f 5c8e 693f 08b6 7e3f 3427 533f
00000060: 9539 4e3f 0d5e 573f 0cc8 513f fda4 523f
00000070: 06d8 6a3f 3674 553f 5b43 553f 156d 753f
00000080: 2804 653f a0b3 523f 319f 723f fc1b 5f3f
00000090: 271f 7d3f c6b6 843f 00bc 5e3f 3193 4e3f
000000a0: c4c9 733f ab11 743f 0fd6 3a3f 36e6 513f
000000b0: 53cd 613f c723 553f 2362 7e3f f562 8f3f
000000c0: 690b 503f e0ed 513f 8cab 693f e67c 433f
000000d0: 8351 703f 1789 663f 485a 613f 5272 563f
000000e0: 53fd 3d3f bc40 5a3f d18e 4e3f f1ec 783f
000000f0: f60f 733f cdc8 733f 802e 683f 900d 5a3f
0.84446836 1.0794064 0.7948211 0.9048332 0.8171881 0.9086083 0.87003 0.97116524
0.89244956 0.97214854 0.8077193 0.89108855 0.84516656 0.95011926 0.87447333 0.92904377
0.84049904 0.83065325 0.9486796 0.8686623 0.78992885 0.9123285 0.9949651 0.82481694
0.80556613 0.84127885 0.8194587 0.82283 0.91735876 0.8338045 0.833059 0.9586957
0.89459467 0.82305336 0.94774157 0.87152076 0.9887566 1.0368278 0.87005615 0.80693346
0.95229745 0.9533946 0.7298288 0.819919 0.88203925 0.83257717 0.99368495 1.1202074
0.8126741 0.82003593 0.91277385 0.76362455 0.93874377 0.9005293 0.88028383 0.8376819
0.7421467 0.85255027 0.8068667 0.97236544 0.9494623 0.9522827 0.90695953 0.85176945

main_layer.3.residual.1.bias f4 [64]
00000000: 625e b5be d535 bbbe f237 c8be 9dd5 92be
00000010: 2a30 85be eb05 99be f368 2fbe f941 05be
00000020: 16ba 09be a82b 9dbe d888 6ebe af7c 58be
00000030: afa4 00be 7c18 cabd 0c31 83be e3c3 abbe
00000040: cde6 5dbe a7c8 85be 0aa8 bcbd 945f 2abe
00000050: b5bd dfbe 5a05 57be 3d77 6fbe 0549 8abe
00000060: 9a84 8cbe 11de 17be 43fe 37be 0951 6dbe
00000070: e413 8bbe 5ae4 5bbe e8b7 86be a259 35be
00000080: 9a94 b6bd d2f6 4ebe b105 96be f11d 13be
00000090: 6b1f 94be aff0 e1be f450 4dbe c2cf 4fbe
000000a0: f2e9 9abe d62e 5ebe e34a 8cbe 0411 83be
000000b0: c51e 52be 5cde acbd 9fb7 20be 9f5a d3be
000000c0: 6a86 99be 7b9a 67be 3c71 92be 9876 50be
000000d0: 0df0 16be cd3b 90be 6008 a9be 3878 76be
000000e0: c116 6fbe c7dc eabd 0664 98be c31b 96be
000000f0: 5e3c 7bbe 9eb5 43be 0327 3ebe 15c7 89be
-0.3542357 -0.36564508 -0.39105183 -0.286786 -0.2601331 -0.29887328 -0.17129879 -0.13013448
-0.13449892 -0.3069737 -0.23294389 -0.21141313 -0.12562822 -0.09867951 -0.25623357 -0.33547887
-0.21670075 -0.26129648 -0.092117384 -0.16638023 -0.43699422 -0.20998135 -0.2338533 -0.27008834
-0.27444917 -0.14830805 -0.17968087 -0.23175444 -0.27163613 -0.21473828 -0.26312184 -0.17709973
-0.08915062 -0.20211342 -0.29301217 -0.1436689 -0.2893022 -0.4412894 -0.20050412 -0.20294097
-0.3025661 -0.21697554 -0.27400884 -0.2559892 -0.2051955 -0.08440849 -0.15695046 -0.41280076
-0.29985362 -0.22617523 -0.28602016 -0.2035774 -0.1474001 -0.28170624 -0.33014202 -0.24069297
-0.23348524 -0.11467891 -0.29763812 -0.29318056 -0.24534747 -0.1911225 -0.1856957 -0.269097

main_layer.3.residual.1.running_mean f4 [64]
00000000: a99c 15bf 56a5 b33d 7fd6 80be f441 b5bf
00000010: 69db 24be 359c 6abf 6e41 323f 6beb a0bf
00000020: fd2f a6bf ee6f d3bf 7335 aabf e1bc 15be
00000030: 33ca 45bf 95a3 6bbe 86ec e8be adb0 83be
00000040: af4d 97bf 219e f1be 8876 a9bf bc31 7ebf
00000050: 9c2c bfbe 80f3 46bf fa87 3cbf cae8 15bf
00000060: e103 96bf e6a1 93bf b88a f3be a8db 36bf
00000070: ad4a 5abf dbdc 84bf 34bb 773c a057 13be
00000080: 2163 79bf 0837 72bf 41e1 9ebf 477b d6bf
00000090: 87d0 ec3a 57a6 1dbf 6c94 0bbf 88c9 cbbf
000000a0: 27e3 67bf d6d8 10bf f275 14bf 517e 87bf
000000b0: 9ed4 0cbf 0248 2cbf 2bb0 f8bf 2fe6 c9bf
000000c0: 24a8 5fbf c070 d9be 186e fabf 0f01 11bd
000000d0: ef01 9dbf 1bdc bebf 2f06 09c0 e052 d7be
000000e0: bb57 153f bb6e b4bf 4f98 78be 9e46 7fbf
000000f0: d6f2 9abf 6cae 16c0 95c2 c2bf 2895 f7bf
-0.5844217 0.0877177 -0.25163648 -1.4160752 -0.16099323 -0.91644603 0.6963109 -1.2571844
-1.2983395 -1.6518533 -1.3297561 -0.14622833 -0.77261657 -0.2301162 -0.45492953 -0.2572073
-1.1820582 -0.47190955 -1.3239298 -0.9929464 -0.37338722 -0.777153 -0.73644984 -0.5855833
-1.1719934 -1.1533782 -0.47566772 -0.7142892 -0.85270196 -1.03799 0.015120316 -0.14388895
-0.97416884 -0.9461522 -1.2412492 -1.6756371 0.0018067517 -0.6158194 -0.5452335 -1.5920877
-0.9058098 -0.56580865 -0.5799247 -1.0585424 -0.5501193 -0.67297375 -1.9428762 -1.5773371
-0.8736594 -0.42468834 -1.9564848 -0.0354014 -1.2266215 -1.4910921 -2.1410024 -0.42055416
0.5833699 -1.4096292 -0.24276851 -0.9971713 -1.2105358 -2.3543959 -1.5215632 -1.9342394

main_layer.3.residual.1.running_var f4 [64]
00000000: 463c cd3f e302 973f 9aba b53f 79ea 0540
00000010: 6dff 0740 56ca 3b40 b7e7 f23f 1041 2840
00000020: ce86 fa3f 6cc5 0e40 3551 0e40 112d 0840
00000030: a1e0 0c40 1794 0840 ca32 0840 83f4 0840
00000040: 0460 3640 2978 2940 a963 e43f a650 4340
00000050: a9e9 c73f db3b 1a40 56cf 3f40 ea89 1840
00000060: 841d 2b40 00f4 4840 a879 6b40 4034 2240
00000070: 20ed b53f 09a1 f33f 3e7e d13f dac1 1740
00000080: 652b 1640 b690 5140 f42c fc3f d5af f93f
00000090: bf32 ae3f a86c 0140 175a d23f eb18 e93f
000000a0: 4ef7 8d3f 9a31 0340 cbb1 1640 9ef8 f43f
000000b0: 9f3f 2a40 6007 d73f 648a b13f c46a a13f
000000c0: cacf 9d3f a549 0a40 d177 2340 f31b d83f
000000d0: 4912 0440 7c8e 2b40 87e9 f33f c265 2740
000000e0: bf40 2640 23f2 5240 daa2 cb3f c1e4 0d40
000000f0: 7710 ef3f a145 0d40 c3f5 f73f 2b79 2340
1.6034019 1.1797756 1.4197571 2.092436 2.124965 2.9342246 1.8976964 2.628971
1.9572389 2.2307997 2.2237065 2.1277506 2.2012103 2.1340387 2.1281 2.1399238
2.8496103 2.647959 1.7842914 3.0517974 1.5618182 2.4099033 2.9970298 2.3834176
2.6736765 3.1398926 3.6793003 2.534439 1.421299 1.9033519 1.6366651 2.3712068
2.3463986 3.2744575 1.9701219 1.9506785 1.3609236 2.0222569 1.6433743 1.8210729
1.1091096 2.0499024 2.3546016 1.9138372 2.6601331 1.6799126 1.3870358 1.2610707
1.2329037 2.160745 2.554188 1.688353 2.063616 2.6805716 1.9055642 2.6155858
2.5977018 3.2960289 1.5909073 2.217087 1.86769 2.2073748 1.9371876 2.5542705

main_layer.3.residual.3.weight f4 [64, 64, 3, 3]
00000000: 0dfd afbd 111a cb3c 47d0 14bb 5d97 db3d
00000010: c3df 3e3d db11 103d 3ef3 babd 2542 78bd
00000020: 1b7a f33d a15c 403d c2cb 5abc 6663 0ebd
00000030: 93cf 37be 12b6 01bc 8307 99bd 7b0e 5ebc
00000040: 06ce a3ba 9f25 6fbd 94f3 ff3d d66a 303d
00000050: 140a bdbc c564 963d 102f 933d 7fdd 9ebc
00000060: 6760 4bbe 9c32 0abd 98f5 6b3c cbe3 4bbd
00000070: bce8 4abe 6dea b4bc b8ac 123e c5f8 cfbc
00000080: b627 afbc 1fb3 073e e980 453e d5f8 bc3d
00000090: e57a 8cbd 3fc8 1abe f6fd 933d 8fb3 873d
000000a0: 9ae0 db3d 272c d03c c758 d53b 5d9f 5e3d
000000b0: ae57 373d cc23 ddbb d4a4 c63b e02c e8bd
000000c0: 8572 c33d 63e1 8d3c 8e7d 58bd a576 6ebe
000000d0: a25e 9dbd 0855 b4bd 3628 a63b cf25 6ebd
000000e0: f0f0 9bbd cf90 113c 9508 343d d07d 513d
000000f0: 1a9b 053c 6d72 0dbd 78e3 8d3d 2553 523d
00000100: 4427 913d bf4f 0fbb 5e51 003c dd11 ee3c
00000110: c983 4c3d 1bec d1bc 7c4f 55bd daf0 503d
00000120: f4c5 863d 0146 9d3d c943 4ebd 97ce 03bd
00000130: 4929 8a3d cd9a 01bc 6e18 a63d 2cc0 053e
00000140: 6405 4237 e6bd acbc 80fb 363d a2da 51bd
00000150: 2dc7 00be 1f6d 08bd 1a4e 433e 5170 48bd
00000160: 1729 c7bd e3bc 74bd 0a8b 623e 309c 14ba
00000170: 690a a7bd 3e7a 41bc 604f 673c 27c8 4f3d
00000180: de7a b0bc 1e56 013e 4398 e3bd 426f 02be
00000190: 2ea5 73be f3a9 b3bc 5877 08bc 7327 c1bd
000001a0: 4111 a93d 2d90 e13d 0113 29be 9260 203d
000001b0: 75a9 673d 6613 9b3a 20a5 aebd 00c8 8b3c
000001c0: a02d 07be d5ae b53d 536d 5f3d 162c d83c
000001d0: 960a 533c 592e 273c 61dc 1fbd ac94 dd3d
000001e0: 64fb abbc f176 01bd 45eb 3e3d aded 10bc
000001f0: 0908 93bc f4f6 15be b4e2 b93c ee3c a9bc
00000200: a23b 44bd 8fab 3bbd 3058 0f3d 9ec0 66bd
00000210: 3cfd 263d d340 c4bd fed8 71bd dd0a 2e3e
00000220: 7726 c13d d89c 99bd 02d2 da3d ff23 b83d
00000230: d2d8 0bbe 9506 2f3e 8c35 513e 28bb cabd
00000240: 871a c13d 6285 0c3e 774d 6e3b b67d 0d3b
00000250: 8414 a23c 2412 0abd 3aec 01bd 606d edbd
00000260: 2e0d 34be b480 473d 9938 6e3d ca54 febd
00000270: c81e f83d c176 093b cba0 ecbd dfe9 5fbc
00000280: cd58 98bd d077 71bc 7025 343d b8f4 31bc
00000290: 203c 113c 5d4e 443e aa4c 933d 3b06 133e
000002a0: db6a 1e3e 1973 dfbd acb2 fb3d 46cb 99bc
000002b0: dda5 43bd 8a14 8cbb b0f6 e23d f699 c73d
000002c0: 5c7a 133d fea1 58bd b4e1 0b3d 8044 cd3d
000002d0: ae29 00be bb2b 5bbb 5e45 a1bc aebf 62bd
000002e0: a731 c53d 51cb 8fbd 40b2 cf3c 33d5 713d
000002f0: 58fb 8ebd 0e0c d83c 7cbf 0b3c 5163 10be
00000300: f350 d13d 6f08 cabd 9c26 153d 402f 573d
00000310: e668 26bd b808 24bd 2ac1 803c 1d1d bd3d
00000320: 15dc 0abe 41b1 df3c 7457 1fbc 042b 45bd
00000330: 491c 28bc 66d3 83bd cbdc 453d 0821 54bd
00000340: e9ee 1dbe 15ac 2cbe 64f2 0ebd b7b1 78bd
00000350: b34b 23bb f835 d7bd 1249 18bc 975e 0e3b
00000360: 99c8 f1bb 2bd9 00bc 0715 833b ba7b 12bd
00000370: 5080 633d 5fa3 12bd c78f 80bd c72d c13d
00000380: 4693 dfbc 76da ac3d 9556 c0bd 458f bf3d
00000390: 9911 1cbb 9ac5 e9bd ab8e 543c ad67 cebd
000003a0: f46b 0e3d 9206 533c 096d e93d 6fd2 04be
000003b0: 3eab 04bd c06f e3bb f7fb 9f3c 75fa 07bd
000003c0: ec93 d7bc 3d9f 60bb 293a 2dbe 2a76 49be
000003d0: ec3d 03bc 249e d3bd a930 ecbd e036 443d
000003e0: 22a0 773d b218 38bc 1575 b9bd d5b1 bcbb
000003f0: 6652 d3bd da3c 02bd d328 613d 8ef2 03bd
-0.085931875 0.024792703 -0.002270715 0.1072223 0.046600115 0.03517328 -0.09128426 -0.060609955
0.11888524 0.046963338 -0.013354244 -0.034762762 -0.17950277 -0.007916944 -0.07472136 -0.013553257
-0.0012497313 -0.058385488 0.12497631 0.043070637 -0.023076095 0.07343439 0.07186711 -0.019392727
-0.19860993 -0.03373967 0.014401816 -0.049777787 -0.19815344 -0.02208444 0.143237 -0.025387177
-0.02138124 0.13251923 0.19287457 0.092271484 -0.06859378 -0.1511545 0.072261736 0.06626045
0.10736199 0.025411678 0.006510827 0.0543512 0.044761352 -0.006748652 0.0060621295 -0.11336684
0.09543327 0.017319387 -0.052854113 -0.23287447 -0.076840654 -0.08805281 0.0050707115 -0.058141526
-0.076143146 0.008884623 0.043953497 0.051145375 0.008154655 -0.034532953 0.06928152 0.051348824
0.070875674 -0.00218676 0.007831899 0.029061252 0.049930368 -0.02562528 -0.052077755 0.051010944
0.06580725 0.07679368 -0.050357614 -0.03217944 0.06746156 -0.007910443 0.08110128 0.13061589
1.1564556e-05 -0.021086644 0.044673443 -0.051233895 -0.1257598 -0.03330719 0.19072762 -0.04893524
-0.09724634 -0.05975045 0.22123352 -0.00056690257 -0.081562825 -0.01180893 0.014118046 0.05072799
-0.021542963 0.12630507 -0.11113026 -0.12737754 -0.2379348 -0.021931624 -0.008329235 -0.094313525
0.08255244 0.110138275 -0.16511156 0.039154597 0.05655809 0.0011831343 -0.08527589 0.01706314
-0.13200998 0.08871237 0.05454762 0.02638821 0.012880942 0.010203921 -0.03902853 0.108193725
-0.020993896 -0.031607572 0.04661109 -0.008845729 -0.017948167 -0.14644986 0.022691108 -0.020658936
-0.047908433 -0.045817908 0.03499621 -0.056336038 0.040768847 -0.09582677 -0.05904483 0.16996332
0.09431165 -0.07500619 0.10684587 0.08991241 -0.13656929 0.17092355 0.20430583 -0.098989785
0.09428888 0.13722757 0.003636209 0.0021589822 0.019785173 -0.033708706 -0.031719424 -0.11593127
-0.17583153 0.048706725 0.058159444 -0.12418516 0.12115246 0.0020975324 -0.11554106 -0.013666599
-0.074388124 -0.014738038 0.043981016 -0.010861568 0.008864433 0.19170518 0.07192357 0.14357845
0.1547045 -0.10910625 0.12289938 -0.018773686 -0.0477656 -0.0042749094 0.11082208 0.097461626
0.036005363 -0.052888863 0.034150794 0.10022831 -0.125159 -0.0033442813 -0.019686397 -0.05535858
0.09628611 -0.070212014 0.02535355 0.059041213 -0.06981534 0.026372936 0.00852954 -0.14100386
0.10220518 -0.0986489 0.036413774 0.052535295 -0.040627383 -0.040047377 0.015717108 0.092340685
-0.13560517 0.027306201 -0.00972544 -0.048136726 -0.01026065 -0.064368054 0.048306268 -0.051789314
-0.15423168 -0.16862519 -0.03489913 -0.060716357 -0.0024916946 -0.105083406 -0.009294765 0.002172386
-0.0073786494 -0.007864277 0.0040003094 -0.035762526 0.05554229 -0.035800334 -0.06277423 0.094325595
-0.027291905 0.084401056 -0.09391514 0.09353498 -0.00238142 -0.11414643 0.012973468 -0.10078368
0.03477092 0.012879984 0.1139775 -0.12970899 -0.03238987 -0.006940812 0.019529326 -0.03319784
-0.026315652 -0.00342746 -0.16916718 -0.19673982 -0.008010369 -0.10332897 -0.11532719 0.047903895
0.06045545 -0.011236357 -0.09055535 -0.005758504 -0.10318451 -0.031796314 0.054970574 -0.03221374

main_layer.3.residual.3.bias f4 [64]
00000000: 17fa 6db7 f469 4437 cd53 0537 e007 3237
00000010: 31e2 e036 012a 24b8 d294 eeb6 3fe0 0ab8
00000020: e615 d3b7 d0af 03b8 c538 4338 363d 50b7
00000030: 8807 9f36 a77a 84b7 1e6f 0738 505d 7935
00000040: 6d02 9337 161d 5937 30d7 85b7 b4d8 adb6
00000050: cdbf 6336 c041 38b7 f23e 8d37 82af 5938
00000060: 3c2b a837 386e 34b6 683e a137 a426 0fb7
00000070: b476 b337 e4a7 8537 20ca 2cb5 0327 1a38
00000080: 82f7 00b7 ce70 98b7 d952 c1b7 6020 1c37
00000090: 582f 91b7 9a88 0138 4c6a c6b6 fcb2 02b8
000000a0: 4b60 efb6 8002 be33 339f 29b8 208d 9db6
000000b0: 3733 c2b7 9d1f a7b7 fa31 35b7 cf2f 1037
000000c0: d067 c2b6 6ab3 84b7 029a c137 1c20 d7b5
000000d0: 52a5 e3b6 a8c5 d237 6078 d4b6 3931 b537
000000e0: 36db 0838 845b 5eb8 c824 8db7 3fd6 61b7
000000f0: a10a 94b7 ab4d ddb6 cdcf eb37 df7e 5837
-1.4184529e-05 1.17071795e-05 7.946929e-06 1.061146e-05 6.7020524e-06 -3.9139766e-05 -7.1102777e-06 -3.311061e-05
-2.5163357e-05 -3.1396572e-05 4.6544494e-05 -1.2412018e-05 4.739446e-06 -1.579274e-05 3.2289994e-05 9.2895516e-07
1.7524895e-05 1.294098e-05 -1.595504e-05 -5.1810293e-06 3.3937279e-06 -1.0982563e-05 1.6837821e-05 5.1900286e-05
2.0047293e-05 -2.6886246e-06 1.9221756e-05 -8.532461e-06 2.1393738e-05 1.5933016e-05 -6.4369124e-07 3.6752794e-05
-7.687022e-06 -1.817234e-05 -2.3045972e-05 9.3058625e-06 -1.7307393e-05 3.0883217e-05 -5.9132344e-06 -3.1161107e-05
-7.133965e-06 8.848019e-08 -4.0441006e-05 -4.6953937e-06 -2.3150451e-05 -1.9922672e-05 -1.0800077e-05 8.5942e-06
-5.793736e-06 -1.5819172e-05 2.3079108e-05 -1.6028093e-06 -6.784373e-06 2.5125992e-05 -6.332106e-06 2.1599802e-05
3.2629083e-05 -5.3014155e-05 -1.6825637e-05 -1.3460928e-05 -1.7647924e-05 -6.595355e-06 2.8110948e-05 1.2904143e-05

main_layer.3.residual.4.weight f4 [64]
00000000: e275 703f e4ff 693f dd7a 613f 0eda 753f
00000010: 218c 6b3f b6bf 783f 718b 4f3f 51ee 553f
00000020: 871a 673f 9fbb 5d3f 8d21 543f 4576 693f
00000030: 5cab 6b3f 5f08 763f 72aa 6e3f 6b11 803f
00000040: 4a5b 5f3f d6ef 7a3f 33b6 643f a9f8 6a3f
00000050: 3385 533f 0b6a 773f 1e58 793f 7d48 5e3f
00000060: 18f8 763f b59a 723f 0709 6a3f f3d9 4b3f
00000070: a668 563f 16f4 7a3f bedf 6f3f 0c1c 593f
00000080: 1faf 783f cf61 3b3f d535 613f 5d95 663f
00000090: 0e22 573f e0f9 633f 5e90 323f e028 563f
000000a0: 73f7 593f 84eb 5a3f 49f2 813f ccc2 7f3f
000000b0: c707 5a3f b1ac 423f c551 633f d696 793f
000000c0: 102f 643f a778 843f 7593 683f b322 593f
000000d0: 74e2 5e3f 9581 5f3f 170b 483f 2afa 4c3f
000000e0: 9520 513f 50fb 673f cf0d 643f 06e5 6e3f
000000f0: 26ca 703f 7c68 503f 6181 643f 7e84 7d3f
0.93929875 0.91406083 0.880781 0.9603585 0.92010695 0.9716753 0.81072146 0.83566767
0.9027485 0.8661441 0.82863694 0.9119609 0.9205835 0.96106523 0.9322883 1.0005316
0.8724867 0.9802221 0.89340514 0.91785675 0.8262512 0.96646184 0.9740008 0.8682936
0.9647231 0.94767314 0.91420025 0.7962944 0.8375343 0.98028696 0.9370078 0.8480842
0.97142214 0.7319612 0.87972766 0.9007166 0.8403634 0.89053154 0.69751537 0.8365612
0.851432 0.8551562 1.0152065 0.9990661 0.8516812 0.76044756 0.88796645 0.9749578
0.8913431 1.034932 0.9085 0.8481857 0.8706429 0.873071 0.7814192 0.8006922
0.8169034 0.9061785 0.8908357 0.9331821 0.94058454 0.8140943 0.89259917 0.9903029

main_layer.3.residual.4.bias f4 [64]
00000000: c24e a2be 2e4b 74be b7ac 42bd 9acc 77bd
00000010: 7500 2dbe 9bde debe 82d8 adbe d4d9 a3be
00000020: d606 b7be 9553 c0be 6268 8bbe e620 b9be
00000030: da6a 5abe 9ee1 b7be 4196 e0be 98d7 bfbe
00000040: cfca 2bbe a2eb c4be 6c74 56be 40e6 d1be
00000050: 1835 14bf 2018 bfbe 491d d5be 44cd bebe
00000060: bddf a6be 1e84 8ebe 36d6 4dbe 8ae1 dbbe
00000070: e929 aabe 9334 abbe c02b 9dbe 4c90 c1be
00000080: f540 59be a998 91be d5a5 87be 2573 cebe
00000090: 9f80 6cbe 108a a3be ac1f 98be 1d5d bebe
000000a0: 5745 e3be 877a b0be d3cc 02bf aa10 b0be
000000b0: aca6 8fbe 29e2 babe 550a 89be 55ee 7bbe
000000c0: 888f 91be 5ac2 dabe 867c a4be f613 8bbe
000000d0: 7a9b 37be ca55 52be 273a 8bbe bdf0 99be
000000e0: 344f aebe 3e6c 9abe 3411 97be 8de3 69be
000000f0: aa3f 97be 1d01 dfbe 9994 87be 2396 ecbe
-0.31700712 -0.23856804 -0.047527995 -0.060497858 -0.16894706 -0.4352921 -0.33954245 -0.32002127
-0.35747403 -0.37563768 -0.27228075 -0.36157912 -0.21329823 -0.3591432 -0.43864635 -0.37469172
-0.16776584 -0.38461024 -0.20942849 -0.4099598 -0.57893515 -0.37323093 -0.41623905 -0.3726598
-0.32592574 -0.27835172 -0.20101246 -0.4294551 -0.332351 -0.33438548 -0.3069744 -0.37805402
-0.21216185 -0.28436783 -0.26493707 -0.40322223 -0.2309594 -0.3194127 -0.29711664 -0.37180415
-0.4438884 -0.3446848 -0.51093787 -0.34387714 -0.28056848 -0.36500672 -0.26765695 -0.24602635
-0.28429818 -0.42726403 -0.32126254 -0.27163666 -0.17930403 -0.20540538 -0.27192804 -0.3006648
-0.34044802 -0.30160707 -0.29505312 -0.2284071 -0.2954076 -0.43555537 -0.2648056 -0.46208295

main_layer.3.residual.4.running_mean f4 [64]
00000000: 7f55 debe a0e0 31bf eae7 943e b627 47bf
00000010: 9fbc aebe 1ac8 1c3e b604 25bf a223 bcbe
00000020: 0d79 aabf cbbd bcbe 1cb3 2ebf fa7c 40bf
00000030: 0a83 d8be dad4 70bf c8d5 aabe 8f04 31bf
00000040: 1842 92be a9e6 96bf 1a3a ccbe 6509 7dbf
00000050: 7bef 35bf f7a7 75bf e2c1 a9be eb81 81be
00000060: 004d 773e c86d 36bf c8ff 063f 124b 58bf
00000070: f8d5 d2bf fae5 053e a407 99bf 049b 62bf
00000080: eba2 8ebe 634a 88bf 0248 0abc 5e7e e93e
00000090: 2188 c9be 7030 41be 0305 563e 0a41 c4be
000000a0: 274c 6e3e d1ff 07bf 5ccf d63e 11f4 3d3d
000000b0: a21d 8ebf 0a99 8f3e 669c 2b3e 6b96 a23f
000000c0: 3235 1cbf 5edf ccbe e836 55be 0365 a0bf
000000d0: 840f 3dbf 5ecc e4bc 9a2f 2f3e 78d0 9fbe
000000e0: 50c5 36bf 9a76 5ebe 8912 b1bf 7414 8ebf
000000f0: d91e 0abf a247 9abe 64a5 c2be 1d57 51be
-0.43424603 -0.69483376 0.29083186 -0.7779497 -0.3412828 0.15310708 -0.64460313 -0.36745936
-1.3318192 -0.3686355 -0.6824205 -0.751907 -0.42287475 -0.94074786 -0.33366227 -0.6914758
-0.2856605 -1.1789142 -0.39888078 -0.9884246 -0.71068543 -0.9595942 -0.33155733 -0.25294432
0.24150467 -0.7126126 0.5273404 -0.8448955 -1.6471548 0.1307601 -1.1955457 -0.88517785
-0.27858672 -1.0647701 -0.00844002 0.45604223 -0.3936167 -0.18866134 0.2090035 -0.3833087
0.23271237 -0.5312472 0.41955078 0.046375338 -1.1102793 0.28046447 0.1675888 1.2702154
-0.6101867 -0.40014166 -0.20821726 -1.2530826 -0.738518 -0.027929481 0.17108002 -0.31213737
-0.71394825 -0.2172493 -1.3833781 -1.1099992 -0.5395332 -0.30132776 -0.38016808 -0.20443387

main_layer.3.residual.4.running_var f4 [64]
00000000: 0744 a63f a6de a43f 0733 723f b8a7 ac3f
00000010: 1681 813f 0094 b93f 9cf8 853f 113c 0b40
00000020: 5328 a23f 1f28 a53f 0d17 ce3f 323e 983f
00000030: 964f a23f 9f17 9c3f 8160 c83f e994 a93f
00000040: 4f41 973f dfce ba3f 279a a03f 946f ec3f
00000050: c6cd 7b3f b376 a33f f7c1 923f f31d ac3f
00000060: 0564 d53f 027e 9e3f 6b59 de3f 3685 d03f
00000070: 30e5 9f3f 1ba6 643f 3010 ad3f 0ce8 983f
00000080: 6626 623f 10a8 f83f 3b88 8c3f b801 643f
00000090: 20a5 7c3f aa04 953f 1cb7 bc3f 0061 9c3f
000000a0: 0bb3 743f 5c06 9d3f b481 8f3f f0cb 923f
000000b0: 4ad7 8f3f ea49 9d3f 3c71 0340 d2f5 b93f
000000c0: e96a e93f 35e5 863f 714b 9d3f ac10 b33f
000000d0: 741e c13f fbcb 783f 29f6 9e3f 8081 8f3f
000000e0: f7e4 c03f 8d83 8e3f ff1e c63f 3d03 de3f
000000f0: 7556 943f a0e6 793f 1d75 c73f f3ff 683f
1.298951 1.2880447 0.9460911 1.3488684 1.0117519 1.4498291 1.0466495 2.1755412
1.2668556 1.2902869 1.6100785 1.189398 1.2680538 1.2194709 1.5654451 1.3248569
1.1816806 1.4594382 1.2547044 1.8471551 0.9836086 1.2770599 1.1465443 1.344664
1.6671149 1.2382205 1.7371038 1.6290653 1.2491817 0.89315957 1.3520565 1.1945815
0.8833984 1.9426289 1.0979074 0.8906512 0.9868946 1.1642048 1.474338 1.2217102
0.955857 1.2267566 1.1211457 1.1468487 1.1237576 1.2288182 2.0537863 1.4528143
1.8235751 1.0538698 1.2288648 1.3989463 1.5087419 0.9718625 1.2418872 1.1211395
1.5069875 1.1133896 1.5478209 1.7344738 1.1588885 0.9761753 1.5582615 0.9101555

main_layer.4.residual.0.weight f4 [64, 64, 3, 3]
00000000: 126e 6e3d 4d52 4bbd fe7d 9d3d 304e 54bd
00000010: 937b 6abd 1adc 88bd 7590 933c 7f85 3cbd
00000020: 8f0c 83bd 058d 1a3e 8484 de3d 6e61 9d3d
00000030: df0b 6b3c 3b8b f03d 2986 0b3d cfb1 ebbd
00000040: 6688 4d3d d35b 97bc 5539 ca3c 70e6 4b3c
00000050: 00ae 8cbc 2f17 94bb c792 82bd fc0c 7dbd
00000060: e6e1 c9bc 6732 c0bc 70e8 923b d886 c13c
00000070: 2612 d23d fa70 f7bd 98a8 c6bd 4d81 273d
00000080: 28ff 063e f301 833d c381 80bd 4471 9abd
00000090: 4588 f9ba 9a76 963c 1580 243e 9528 bbbc
000000a0: 979c 1d3d 8954 073e a0aa 77bc 944b 223e
000000b0: 7151 033e 1bb3 d03b 7f98 063d 80d1 0f3c
000000c0: b599 203e 597b 64bd 2898 dabd d61e a33d
000000d0: 15bc 6b3c 0c4e 003d 3515 6d3d c0d8 94bd
000000e0: 5400 c73c 51d1 873d 3180 69bd 30dc 98bd
000000f0: 33d5 af3d 3c76 4abd 8da9 aebd 28a1 8fbc
00000100: 4520 a4bd b37f 1fbc bac7 b73d 731e 823d
00000110: 2272 39be d6b8 f93d 80d9 2abd 17af ae3d
00000120: 23d6 ca3c 0ddf 0fbd 5ce0 943d aff4 e93c
00000130: bba6 193e 9413 69bd 9772 9ebc be6c a9bd
00000140: 3ec3 1dbd 3cc7 7fbd f2ec 4ebd ea66 dfbd
00000150: fdfa 8abd f3df e5bc 474b 2ebe 75af a4bd
00000160: 928d cbbc b3e7 d7bd ecbe aabd 975b ee3c
00000170: 2d67 d3bd 21f1 c3bd eeb4 263d 0f15 0f3d
00000180: d940 2cbe c226 6bbd 2646 92ba 26c0 bdbd
00000190: 80ee 883d 2bfe aa3d d7e1 5e3d 3d03 453d
000001a0: b100 a83d cf40 5abd f2f4 1f3d 6260 14bd
000001b0: 5b5b 7c3d 1ca0 08bd 394a 723e 46b5 b83d
000001c0: 9d29 0c3d f3d6 eb3d 2d65 87bc a114 ffbb
000001d0: cbf9 233e fdde 76bc 4746 6d3d e7d9 a1bd
000001e0: 8fa4 91bd e729 033d 5558 823d ea2f c1bd
000001f0: ef19 de3d 7df2 aabc d429 333d 1fa0 20be
00000200: 64f9 453e c17f 7b3d 8915 40be ceb7 3d3d
00000210: 8c19 813d 9181 eb3c df0e ebbd a05d 123e
00000220: 8f1d aa3d 83a6 d03d 677d 423d a87f 833b
00000230: 1522 5abc 094f 603c f0eb a0bc 9cbf b83d
00000240: e585 ce3d 00a9 65bd 758f e73c 4fff 46bd
00000250: 1309 4ebc a63a 16be be05 243d e60d fd3d
00000260: 5322 773d 2714 0f3e c57c 3b3d 082b 553d
00000270: 1642 833d 1b9c 103d e2a4 c5bd e82b 0b3c
00000280: 10a9 b13c c63c aabd a095 903d 5431 d33c
00000290: 837b 433d 36a5 903d 403f 193d 1741 e73c
000002a0: 9997 a73a 1dbb b63d 1d39 043e c348 143d
000002b0: bb39 eb3c edab 5c3d 5406 ddbb 66dd 9abd
000002c0: dae1 5cbd d68b c53d 5c45 86bc 2549 91bd
000002d0: 1a93 d9bd 187b 613d a28e fa3c f285 bd3c
000002e0: 81b1 3f3c f41c 27bb 4ec9 bcbd ea09 e9bd
000002f0: 2796 fd3b 9ed5 843b 12e9 253d 42b8 89bd
00000300: e258 97bd f2b3 533c 3929 29be 8ab7 5abd
00000310: 8993 e83d 7a25 ab3d 5cf5 843a 38e9 bd3e
00000320: d918 e13d 4d2f 9d3c bf73 b9bd 4e76 f63d
00000330: c579 17bd a684 fc3d 2337 a33d 704a f1bd
00000340: ad6c 5d3d bbbe 05bb e62a 0e3d 0353 42bb
00000350: 0fb4 eebc e249 cabd f538 91bd 3f1e 90bd
00000360: e319 42be 8b93 423d b797 003b 5bd3 bebc
00000370: 0cdc 12be 2b26 71bc 435b 81bd 80ee c6bc
00000380: d382 5a3d 201f 5a3d f259 e93d 6e2f 883d
00000390: bad5 463d 51e0 b33c ad92 bd3d b469 2a3d
000003a0: 3f0d 0d3c 216f ef3d a001 dabd 7745 1e3e
000003b0: 5643 463d 259b 923d fa3f c43d a944 193e
000003c0: 367f 7e3c 2291 10bd 2ec9 3a3c 9375 3e3e
000003d0: b1c1 8f3c f685 893d d3ab 1f3d d95c 5b3e
000003e0: 56a8 29bd 8ea5 3cbd 7a31 85bd a085 613d
000003f0: dd6e a43d e87b 11bd be20 c33c 6afd 3f3d
0.05821044 -0.049639035 0.07690047 -0.051832378 -0.057246756 -0.06682606 0.018013218 -0.04602575
-0.0639888 0.15092857 0.10865119 0.07684599 0.014346092 0.11745306 0.034063492 -0.11508524
0.050178908 -0.018476402 0.024685541 0.012445077 -0.017172813 -0.0045193653 -0.06375652 -0.06177996
-0.02464385 -0.023461534 0.004483275 0.023623869 0.10257368 -0.120820954 -0.097001255 0.040894795
0.13183272 0.06396856 -0.0627475 -0.07541135 -0.0019037804 0.0183671 0.16064484 -0.0228465
0.038479414 0.13215841 -0.015116364 0.15849143 0.12824036 0.0063690073 0.032860275 0.008777976
0.15683635 -0.055781696 -0.10673553 0.07964866 0.014388104 0.03132443 0.057881553 -0.07267904
0.024292149 0.06631721 -0.05700702 -0.074638724 0.085855864 -0.049429163 -0.08528433 -0.0175329
-0.080139674 -0.009735036 0.08973642 0.06353464 -0.18109944 0.12193458 -0.04171133 0.085294895
0.024760311 -0.035124827 0.07269356 0.028559057 0.15005009 -0.056903437 -0.01934175 -0.08272694
-0.038516276 -0.062445864 -0.050518937 -0.10908301 -0.067861535 -0.028060889 -0.17020904 -0.08041278
-0.02484778 -0.1054224 -0.08337197 0.029096408 -0.103224136 -0.09567476 0.04069989 0.034932192
-0.16821612 -0.05741001 -0.0011159822 -0.09265165 0.06686115 0.0834926 0.054414596 0.04809879
0.08203257 -0.053284463 0.039051957 -0.03622473 0.06161056 -0.033355817 0.23661126 0.0901895
0.034219373 0.11515608 -0.016527737 -0.0077844416 0.16013257 -0.015067813 0.05792835 -0.0790289
-0.07111465 0.032022383 0.06364504 -0.09432967 0.1084479 -0.02086758 0.043741062 -0.15686081
0.19333416 0.061401132 -0.18758215 0.046317868 0.06303701 0.028748306 -0.11477446 0.14293528
0.08306419 0.101880096 0.047482874 0.0040130205 -0.01331379 0.013690718 -0.019643754 0.090209216
0.10084132 -0.056069374 0.028266648 -0.048583325 -0.012575406 -0.1467081 0.04004454 0.123561665
0.06033547 0.13972531 0.045773286 0.05204299 0.06409089 0.035305124 -0.096505895 0.008494355
0.02168706 -0.08312373 0.07059789 0.025780357 0.04772521 0.070627615 0.037413836 0.02822928
0.0012786268 0.08922408 0.12912412 0.036202203 0.028714051 0.0538749 -0.006745139 -0.0756176
-0.053926326 0.09645812 -0.016390495 -0.07094029 -0.106237605 0.055049032 0.03058559 0.02313516
0.011700035 -0.0025499435 -0.09218083 -0.11378844 0.007738847 0.0040537855 0.040505476 -0.067245975
-0.0739 0.01292132 -0.16519631 -0.053397693 0.11356265 0.083567575 0.0010143924 0.37091994
0.109910674 0.019187594 -0.0905528 0.120342836 -0.036981363 0.12329988 0.07969501 -0.11781776
0.05405872 -0.0020407874 0.03470888 -0.002965153 -0.029138593 -0.09877373 -0.07090942 -0.07037019
-0.18955187 0.04750399 0.001962168 -0.023294142 -0.14341754 -0.014718573 -0.06316235 -0.024283648
0.05334742 0.05325234 0.11394109 0.066496715 0.04854367 0.021957548 0.09256492 0.041604713
0.008609115 0.11691118 -0.10644841 0.15456186 0.04840406 0.07158498 0.09582515 0.14967598
0.015533259 -0.03529466 0.011400504 0.18599539 0.017548414 0.06715004 0.038982224 0.21422137
-0.041420303 -0.046056323 -0.065035775 0.055059075 0.08028958 -0.035518557 0.023819324 0.046872534

main_layer.4.residual.0.bias f4 [64]
00000000: 38ed 8137 e0ad dbb7 1745 8f37 e0ea 7db7
00000010: 0a8d bdb7 4665 52b7 a2f9 66b7 f48e 25b7
00000020: bd5d 8b36 706f 55b4 706a 09b7 e034 d4b6
00000030: 3c1a 64b6 5285 8db7 104c 5bb6 64d8 e137
00000040: 1057 0bb8 c4b0 1db7 d02f 3ab7 07b7 0d37
00000050: 7179 8137 6d8c 20b7 42ac 2837 f401 45b8
00000060: 440c 17b7 0d8a dab6 f855 f436 285a f5b7
00000070: fabe 05b8 279e 7eb7 8c1b aa36 3f44 c937
00000080: e0c2 eb37 f092 8835 15b9 0e37 a019 4835
00000090: 922a edb7 4dac e2b6 752d 9eb6 ae4a 3db6
000000a0: 0a1f 60b6 3863 e6b6 ff72 5037 2d47 58b6
000000b0: 986c 1bb7 905b 90b5 9756 6337 ca89 3436
000000c0: 70c6 a4b7 69d4 8e37 12a9 1a37 a281 fc36
000000d0: 58bf 0537 d11d 26b7 5a6e 5737 450a 34b8
000000e0: 644b 2eb6 520d 9837 bb2c bab6 0376 0637
000000f0: 1854 7db7 5ebb 80b7 f836 4b36 fabf c037
1.5488462e-05 -2.6187801e-05 1.70791e-05 -1.5134661e-05 -2.2596232e-05 -1.2540555e-05 -1.37671905e-05 -9.86805e-06
4.1534354e-06 -1.9877712e-07 -8.190618e-06 -6.324248e-06 -3.3989918e-06 -1.6870592e-05 -3.2677817e-06 2.6922855e-05
-3.3221266e-05 -9.399086e-06 -1.1097596e-05 8.446869e-06 1.5434549e-05 -9.569439e-06 1.0053687e-05 -4.697028e-05
-9.003157e-06 -6.5129775e-06 7.2817747e-06 -2.9248258e-05 -3.188753e-05 -1.51764025e-05 5.0696017e-06 2.3992847e-05
2.8104929e-05 1.0175554e-06 8.506952e-06 7.4543095e-07 -2.8272425e-05 -6.7553833e-06 -4.714059e-06 -2.8206664e-06
-3.3396668e-06 -6.8660847e-06 1.2424541e-05 -3.2227938e-06 -9.264004e-06 -1.0755484e-06 1.3550415e-05 2.6902294e-06
-1.9642728e-05 1.702663e-05 9.21848e-06 7.5252765e-06 7.971968e-06 -9.901313e-06 1.2840692e-05 -4.292491e-05
-2.5971904e-06 1.8126015e-05 -5.5484393e-06 8.014499e-06 -1.5099555e-05 -1.5346039e-05 3.0281353e-06 2.297758e-05
