model/resnet/8x8/1/latest_64f_2b_8.pt (torch_old, 648444 bytes, 40 tensors)

main_layer.0.weight f4 [64, 4, 3, 3]
000000 c9 c1 2f bd 02 31 cc 3d 36 c0 8d bd e9 af bc be
       -0.042909417 0.09970285 -0.06921427 -0.3685296
000010 d6 c7 c5 be b7 a7 a9 be 91 8c 93 bd 8d 13 71 3e
       -0.38629025 -0.3313577 -0.07204545 0.23542614
000020 8b bc 2c 3e f6 53 78 3d 79 19 94 bd 33 87 1d be
       0.16868798 0.060626946 -0.07231421 -0.15383606
000030 da 3c b9 3e 59 84 36 3e 62 79 c5 3e b6 f2 95 be
       0.3617924 0.17823924 0.3856917 -0.29286736
000040 c6 04 c0 bd 63 8a 10 be be 90 94 3d ec 6a 1f be
       -0.093759105 -0.1411529 0.0725417 -0.15568131
000050 b3 64 27 3e 93 b5 09 3e a1 36 32 3e 24 b1 8d 3d
       0.16347007 0.13448171 0.17403652 0.069185525
000060 b2 01 b5 3d e5 24 cc bd 81 d1 71 3c 73 c4 74 bd
       0.08838214 -0.099679746 0.014759422 -0.05975766
000070 ad d6 57 3e 56 ec be bd d0 f6 ee 3d d7 a4 76 3d
       0.21077986 -0.09322421 0.116681695 0.060215797
000080 04 8a f9 bd e0 56 70 bd 84 e3 13 3d 3a 33 7a bd
       -0.121845275 -0.0586766 0.036105648 -0.06108401
000090 c9 34 07 3e a5 bf 8c be 8f e3 53 be 4e 27 ab 3c
       0.1320373 -0.27489963 -0.20692275 0.020892765
0000a0 2f dc d5 3e 8c f9 a4 bd 2d 7c 39 bd 96 d6 05 be
       0.4176955 -0.0805541 -0.04528444 -0.1307014
0000b0 10 d6 ea be 0f e5 5b be 79 01 3b bd be c3 8f 3e
       -0.45866442 -0.21474098 -0.0456557 0.28079027
0000c0 d9 76 ba bc 01 51 66 be 80 67 0b be c1 b0 6a 3e
       -0.02276175 -0.22491838 -0.13613701 0.22918989
0000d0 c7 f8 e2 bd 1d e3 4c 3e 7c e6 fa bd fd 69 63 bd
       -0.11082607 0.20008512 -0.12250993 -0.055521
0000e0 2a cf ca bd d8 fe 31 bd 7a e5 b3 bd 3e d3 a2 3c
       -0.09902795 -0.04345593 -0.087840036 0.019876119
0000f0 b4 c6 8d 3d b0 28 9f bd 3e 78 4b 3d 91 0a 14 3d
       0.06922665 -0.077714324 0.04967522 0.03614289
000100 43 1f 32 3e f8 82 4a be bd 72 98 3d a8 5a 3f 3e
       0.17394738 -0.19776523 0.074437596 0.18686926
000110 3e f0 94 bd 68 ee 7f 3e 07 38 1c bd 31 f9 98 bd
       -0.07272385 0.24993289 -0.03813937 -0.074694045
000120 5d 5f 15 3d 66 2e 15 bc 3a da 1c 3e c6 b6 24 bc
       0.0364679 -0.0091053005 0.15317622 -0.010053342
000130 4c 88 41 3f f7 fc 3a 3e 7c 71 f0 3d 7a 08 a8 3d
       0.755986 0.18260561 0.117403954 0.08204742
000140 4b d6 9f 3d b6 ce 96 3a 3f e6 99 bd 24 ba fc bd
       0.07804545 0.0011505696 -0.07514619 -0.12340191
000150 25 7f 84 bd 83 c9 09 3f 19 a4 29 3c a5 d5 e0 bd
       -0.064695634 0.5382311 0.010354065 -0.109782495
000160 8c 9d 61 3d 1c b5 1d bc 57 ab 5c 3d 24 f1 30 3d
       0.05508189 -0.009625699 0.05387434 0.04319872
000170 35 e3 48 3d c9 60 ba 3d 09 63 67 3e bd 58 2c 3d
       0.049044807 0.091004916 0.22596373 0.042076815
000180 f6 48 b6 3d bc 87 16 bd 35 70 36 3d fb 2a 9e 3d
       0.08900635 -0.03675054 0.044540603 0.077230416
000190 bd 8a bb 3d c2 3d 46 bd 38 a2 ac bd 0d b8 29 3c
       0.091573216 -0.04839874 -0.08429378 0.0103588225
0001a0 18 4b af bd 3f 7c 7d 3c 43 f3 70 3c c6 71 4f bc
       -0.08559245 0.015471517 0.014706436 -0.012661403
0001b0 4d 3f 29 bd 5f 39 7b 3d 2a 3e 06 bf d0 80 bb bd
       -0.041320134 0.06133401 -0.52438605 -0.091554284
0001c0 7d 17 1b be dc 5a ad be da 8f c7 bd ea 3a 82 3e
       -0.15145679 -0.33858383 -0.097442344 0.25435573
0001d0 1f cd be be 4f 95 a5 bd 8a 0c 81 be 91 62 c2 3e
       -0.3726587 -0.08085119 -0.2520488 0.37965825
0001e0 84 a5 05 be ee f4 c3 3d 6e 2a 71 3e 42 15 a8 3e
       -0.1305142 0.09568201 0.23551342 0.32828718
0001f0 f0 fd 4d be 21 26 84 3e 19 34 fc bd ec 3b 10 3d
       -0.201164 0.2581034 -0.12314624 0.035213396
000200 75 e4 eb bd eb 6e 63 bd 09 e1 24 3e ce 4d 29 3d
       -0.11518184 -0.0555257 0.16101469 0.041333966
000210 77 ed 8b 3d 80 e9 0f be 09 35 9f bd 94 97 f8 3d
       0.06832402 -0.14053917 -0.077737875 0.12138286
000220 d7 5b 70 bd f7 4a 80 3c bd 41 72 3c d2 46 fe 3d
       -0.058681335 0.015660746 0.014786181 0.12415852
000230 9b 23 8e bd 3a 96 a1 bd 8c 6d ba 3d 56 16 47 be
       -0.06940385 -0.078899816 0.09102926 -0.19442114
000240 af 17 5f be 68 b3 2e 3d cd c2 c9 3d 2e 89 9c be
       -0.21786378 0.042651564 0.098516084 -0.3057341
000250 29 36 d6 be 42 3a ea bd 0a f7 a9 bd 94 99 40 be
       -0.41838196 -0.11436893 -0.08299072 -0.18808585
000260 7b 83 36 bd 46 19 6f 3e d2 de e4 bd 2f 60 e2 bc
       -0.044558983 0.23349485 -0.11175312 -0.027633755
000270 3a 70 83 bb 34 7c e8 bd af fc 33 be ee 8c 08 3f
       -0.004011181 -0.11351815 -0.1757686 0.5334004
000280 77 3c fb be a3 df 0e 3e 7b 22 af 3d 6b 79 4f bd
       -0.4906957 0.13952498 0.085514985 -0.050652903
000290 78 bb e1 bd 0d e6 0a 3d 3b fe be ba 7b 4e 53 3d
       -0.11022085 0.0339108 -0.0014571616 0.051588517
0002a0 aa 18 b8 bd 49 c8 08 be 61 49 5c bd 17 c6 35 be
       -0.08989079 -0.13357653 -0.053780917 -0.17751347
0002b0 a8 e9 25 3e 2f d2 33 3d 51 9d d4 3c 95 4e ee 3d
       0.16202414 0.04390162 0.02595392 0.11636082
0002c0 b1 65 0f 3e 57 59 c9 bd 65 5f f0 bd e4 54 5a 3c
       0.14003636 -0.09831493 -0.11736945 0.013325904
0002d0 4f 41 e2 be fa 8c e9 3d d6 86 b1 3e 15 4d 84 3e
       -0.44190452 0.11403842 0.34673184 0.2584006
0002e0 57 28 ad bd aa 69 5e 3e cc 47 2d 3e 18 85 92 be
       -0.0845496 0.21719995 0.1692192 -0.28617167
0002f0 76 9b 45 3e 92 28 c5 3e 7e c8 5d bd 1c de 11 be
       0.19297585 0.38507515 -0.054146282 -0.14244884
000300 41 31 be 3c f0 b3 a2 be cf 8a ba bd 69 f1 84 be
       0.023216845 -0.31777906 -0.09108507 -0.2596543
000310 9f c3 96 3c ae 26 c9 be e8 66 9f be f8 37 cd 3d
       0.018403826 -0.39287323 -0.311332 0.10020441
000320 da fe 4f bd b2 89 33 bd 21 17 90 3b 0b 43 9d 3d
       -0.050780155 -0.04383249 0.0043972884 0.07678803
000330 5d a3 47 3d 5e 8e 34 bd 56 d0 ce bd 7c 36 8b bc
       0.04873978 -0.044081084 -0.10098331 -0.016993754
000340 81 c6 28 be 97 b1 e3 3d fe c5 59 3d ce 9f ab bd
       -0.16481973 0.11117857 0.053167336 -0.0838009
000350 6c af b1 3c 5f a8 98 3d 54 02 e7 3d fb 5f eb bd
       0.021690093 0.07453989 0.11279741 -0.11492916
000360 62 d8 17 3e d9 2b 14 3e 68 d1 c5 be 83 c8 36 bd
       0.14828637 0.14469852 -0.38636327 -0.044624817
000370 29 fb d1 3d 44 72 83 be 1a a2 55 3e 6f 65 b7 be
       0.10252983 -0.25673115 0.20862618 -0.35819575
000380 c0 2c 8e be 29 ca aa be 7f 2f 5c 3a 88 9d ba 3e
       -0.27768517 -0.3335736 0.00083994115 0.36448312
000390 54 41 88 be 09 ac 61 3d 88 4a dc 3d 41 76 bf be
       -0.2661234 0.055095706 0.10756403 -0.37394908
0003a0 97 68 38 be f3 06 c6 3e 4e 09 0b 3e 1e b1 11 3d
       -0.18008648 0.38677177 0.13577768 0.035569303
0003b0 48 34 47 be 23 fc cd 3d 18 ea 31 be ef 05 bd bb
       -0.19453537 0.10057857 -0.17374456 -0.0057685296
0003c0 9a 2d 63 be 91 ec b5 bd 54 91 1b be a9 cf 61 bc
       -0.22185364 -0.08883012 -0.15192157 -0.01378242
0003d0 d6 3e 99 bd 22 ed b4 3d cb 4c 00 be fc 56 bf 3d
       -0.07482688 0.08834292 -0.12529294 0.09342763
0003e0 09 ab 53 3c 4e 25 2b 3d 2b 1d 18 bd d4 59 a1 3d
       0.012919196 0.041783623 -0.03713719 0.078784615
0003f0 69 f4 3b be 4e ee b9 be 1c a7 3a be ed 7a 5c be
       -0.18354954 -0.36314625 -0.1822781 -0.21531267

main_layer.0.bias f4 [64]
000000 5a 20 02 39 73 7c 81 39 31 87 bb 38 de 5c d6 39
       0.00012409818 0.0002469752 8.942036e-05 0.00040886452
000010 80 b5 63 37 5c 6b 8f b9 a0 f1 78 36 a4 2d 34 b9
       1.3572513e-05 -0.00027355074 3.7095524e-06 -0.0001718314
000020 4e e9 64 39 7d 11 25 b9 fa 62 c6 b7 f8 9f e6 38
       0.00021830687 -0.00015742141 -2.3649529e-05 0.00010997051
000030 88 f1 39 37 80 4f 53 b7 c0 f0 cc b6 6e 4d 53 38
       1.1083095e-05 -1.259509e-05 -6.1077008e-06 5.0378432e-05
000040 57 2b 00 b9 a2 69 40 b9 05 b4 ce b8 77 bd ca 38
       -0.00012223177 -0.00018349898 -9.856377e-05 9.667401e-05
000050 ac 85 69 b8 7c 85 83 37 b5 2a bf 38 3b fe 01 39
       -5.567602e-05 1.5678575e-05 9.1155445e-05 0.00012397107
000060 e0 e3 16 39 88 de 63 b9 72 79 62 38 56 ac 46 39
       0.00014390005 -0.00021731306 5.3995704e-05 0.00018946952
000070 50 fa 47 b6 52 75 97 b7 94 0d 58 b8 16 36 80 b8
       -2.9799012e-06 -1.8055234e-05 -5.151106e-05 -6.11359e-05
000080 af 97 03 b8 e7 40 20 b8 38 6d ce b8 ae d3 08 b9
       -3.13741e-05 -3.8207418e-05 -9.843189e-05 -0.00013048828
000090 dc bb a7 37 22 a3 a0 37 36 8b 27 b9 d0 42 ad b9
       1.999543e-05 1.9149451e-05 -0.00015978221 -0.0003304691
0000a0 a1 bc 3f 38 e5 0c bd 39 9a b3 90 39 a0 09 1b 36
       4.5713623e-05 0.00036058496 0.00027599634 2.3102402e-06
0000b0 c9 32 b2 39 34 cd 10 38 24 90 b4 b7 3e 0f 08 3a
       0.00033988644 3.4523386e-05 -2.1524793e-05 0.00051902595
0000c0 f8 fb c3 37 40 d7 a7 39 11 fb a5 38 4c 78 cd 37
       2.3363144e-05 0.00032013096 7.914578e-05 2.4493922e-05
0000d0 de 10 ff 38 e0 9b da 38 64 5d 51 b7 f8 f2 eb 38
       0.00012162489 0.00010424084 -1.2479115e-05 0.0001125093
0000e0 5f 6e 13 b9 31 3a 0b 39 24 9a 5b 39 e2 14 cc 38
       -0.00014060129 0.00013277751 0.0002094289 9.731368e-05
0000f0 92 1b 0b b9 27 c7 91 b8 ea 43 c0 b8 3c dd 87 37
       -0.00013266344 -6.951234e-05 -9.1679234e-05 1.6196274e-05

main_layer.1.weight f4 [64]
000000 1c 96 20 3f 31 d0 21 3f 18 7c 2b 3f e3 b2 21 3f
       0.6272905 0.632083 0.6698623 0.63163584
000010 71 21 06 3f 13 51 2a 3f 5e 36 39 3f ec 73 29 3f
       0.5239478 0.6652996 0.7234858 0.6619251
000020 b4 4c 4e 3f 36 6a 0b 3f 9a 76 2a 3f 07 07 1a 3f
       0.8058579 0.5445894 0.6658722 0.6016697
000030 f8 07 bc 3e b6 05 1d 3f 08 2b 41 3f 4e bf 12 3f
       0.3672483 0.6133684 0.75456285 0.5732316
000040 72 0c 05 3f 41 1f 33 3f 4a 3b f4 3e 0c d3 16 3f
       0.51972115 0.69969565 0.47701484 0.5891578
000050 70 1a 2d 3f 12 65 06 3f bc ad 50 3f 22 4a 1a 3f
       0.67618465 0.5249797 0.815151 0.6026937
000060 03 42 30 3f 51 35 3e 3f 90 0c 02 3f 91 99 36 3f
       0.68850726 0.74300104 0.5080042 0.71328074
000070 08 c7 fe 3e 3d 07 17 3f 6d 18 25 3f 1c d5 2f 3f
       0.49761224 0.5899542 0.64490396 0.68684554
000080 7a 44 23 3f 5a 53 1e 3f 30 c4 3c 3f b5 79 0c 3f
       0.6377636 0.61845934 0.7373686 0.5487321
000090 02 39 1d 3f e7 9f 0e 3f d4 ba 35 3f 86 d0 53 3f
       0.6141511 0.5571274 0.709882 0.82740057
0000a0 e4 e6 06 3f d6 c8 30 3f e2 b2 4b 3f d6 76 20 3f
       0.5269606 0.6905645 0.7956983 0.6268133
0000b0 ff df 21 3f 69 29 1f 3f a8 b1 09 3f ad fd 59 3f
       0.63232416 0.6217256 0.53786707 0.85152704
0000c0 3b 6f 33 3f bd bb 42 3f b8 76 1a 3f 61 d6 22 3f
       0.700916 0.76067716 0.603374 0.63608366
0000d0 dc 3e 08 3f a0 4d 14 3f 74 d9 04 3f 61 32 0a 3f
       0.53220916 0.57930946 0.5189431 0.5398312
0000e0 0d b7 17 3f 06 4c 34 3f 6f 1b 15 3f 27 57 e9 3e
       0.5926369 0.704285 0.58244985 0.45574304
0000f0 6b 51 2b 3f b3 c5 17 3f 6b c8 0a 3f 4a 51 0b 3f
       0.6692111 0.5928604 0.54212064 0.5442091

main_layer.1.bias f4 [64]
000000 30 82 e0 be 38 16 7e be e3 dc 4e bc d2 8e c8 be
       -0.43849325 -0.24813163 -0.012625906 -0.39171463
000010 8d d5 29 3d e2 3b 82 be a2 6d 5a be ad a7 16 be
       0.041463424 -0.25436312 -0.21330884 -0.147124
000020 28 8a 52 be 19 fe d3 be cf 1b 59 3e 73 e4 a6 be
       -0.20560515 -0.414048 0.21202014 -0.32596168
000030 3d a1 8f bd d2 4a 49 be d2 67 ec 3c 5f 4d 9f be
       -0.07013176 -0.19657448 0.0288581 -0.31113717
000040 a9 eb e1 be fc 07 5a be a5 cf 9d be 04 ab 15 be
       -0.44125107 -0.21292108 -0.30822483 -0.14616019
000050 cc cd 97 be 97 b5 d4 be 05 5d c8 be 9a 5f 9c be
       -0.29649198 -0.41544792 -0.39133468 -0.30541688
000060 15 03 e1 bd 71 75 ab be ba c5 b8 be c4 93 92 be
       -0.10986916 -0.33488038 -0.36088353 -0.2862836
000070 ec f7 96 be 5d 47 03 3c a1 70 40 be 6b 3f 02 be
       -0.29486024 0.00801262 -0.18792965 -0.12719505
000080 d9 6b d8 be fc e5 39 be bf 89 7a be 25 24 76 be
       -0.4226978 -0.18154138 -0.24466608 -0.24037226
000090 af d6 95 be 48 b1 96 be c6 0d 86 be c1 d0 da be
       -0.29265353 -0.2943213 -0.26182383 -0.42737392
0000a0 ca 5c c6 be e3 f7 bd be 51 d0 93 be 32 b4 b4 be
       -0.38742667 -0.37103185 -0.2886987 -0.35293728
0000b0 42 88 bd be 60 60 d2 be df 8d ce be e6 5f a4 be
       -0.3701802 -0.41089153 -0.40342614 -0.32104415
0000c0 f1 62 ad be bf 11 93 be fc 53 51 be bb eb dc be
       -0.3386455 -0.28724477 -0.20442194 -0.43148598
0000d0 64 36 3f be b3 cc 07 be 50 b4 4a be 24 5a f6 be
       -0.18673092 -0.1326168 -0.19795346 -0.48115647
0000e0 10 1c 78 be 5c e5 db be 61 f1 b2 be 61 c4 41 be
       -0.24229455 -0.42948425 -0.34949782 -0.18922569
0000f0 9f 2a 2c be 50 0e ed be 73 7e 51 be 40 cf 41 bd
       -0.16813134 -0.46299982 -0.20458393 -0.04731679

main_layer.1.running_mean f4 [64]
000000 e0 5d 4b bd 92 6d a2 3d fe fd b1 3e c9 09 09 be
       -0.049650073 0.07931055 0.34764093 -0.13382639
000010 ba 01 41 be b2 90 e1 bd 71 2e 23 be 75 4a b8 be
       -0.18848315 -0.110139266 -0.15935685 -0.35994306
000020 6e 9a 84 bd 3a bb 09 bf 10 2b fd be 40 13 ec bd
       -0.064747676 -0.5380131 -0.49446917 -0.11527109
000030 a5 76 91 bd cc ab 00 be e5 a2 c2 be 2b 10 d9 bc
       -0.07102708 -0.12565535 -0.38014904 -0.026496967
000040 fe 47 52 3e 14 20 93 3e f7 bc 7f 3e 46 51 28 be
       0.20535275 0.2873541 0.24974428 -0.16437253
000050 a4 43 5a be ee bb bf be 77 dc cb 3d bc b3 52 3c
       -0.21314865 -0.37448066 0.0995416 0.012860235
000060 e3 36 28 be 8d 15 85 bc 67 ef d5 ba 98 d9 24 be
       -0.16427188 -0.016245628 -0.0016321958 -0.1609863
000070 04 b2 91 bd 79 bf b0 be de 98 e7 bd b4 29 b5 be
       -0.07114032 -0.34521082 -0.11308454 -0.3538338
000080 0a 4f 9d be 2b 3c c6 bd d8 73 da 3e e7 43 05 bf
       -0.30724365 -0.09679445 0.42666507 -0.52056736
000090 57 43 58 be 26 9e cb 3e 10 5f 25 be 0a 8d 5c be
       -0.21119438 0.39769095 -0.16149545 -0.21538177
0000a0 1a ec 0c 3d 85 59 14 3c 63 93 da bc d2 02 74 be
       0.03440485 0.009054546 -0.026681608 -0.23829201
0000b0 2a 18 37 3e 41 34 e1 bd 80 ba ad be b8 c2 39 be
       0.17880312 -0.10996295 -0.3393135 -0.18140686
0000c0 e8 7e f1 3d 15 06 bf 3d 68 ca 30 bf 93 ef 6c be
       0.117917836 0.09327332 -0.6905885 -0.23138265
0000d0 d6 64 b6 3d fc 2d ee be 57 e7 65 be c7 14 26 3e
       0.08905952 -0.46519458 -0.2245153 0.16218863
0000e0 8f 3d 15 be b7 49 a4 3e a8 37 00 be b8 19 28 be
       -0.14574264 0.3208749 -0.12521231 -0.16416061
0000f0 7e fd fe be 78 6c c3 be 60 e3 84 be 8c 87 11 bf
       -0.49802774 -0.38168693 -0.25954723 -0.56847453

main_layer.1.running_var f4 [64]
000000 7a 10 3c 3e 78 ef 37 3e a4 73 a6 3d 56 4c 52 3e
       0.1836566 0.17962444 0.081275254 0.20536932
000010 63 b6 0a 3e c4 80 49 3e 53 5e 53 3e 9d d6 5e 3e
       0.13546138 0.19678026 0.2064145 0.21761556
000020 21 73 58 3e e7 d7 3e 3e fc b4 43 3e f3 34 18 3e
       0.21137668 0.18637048 0.19112009 0.14863949
000030 e8 fd c0 3d 7c 0d 85 3e ac 1f 5f 3e f1 d0 5a 3e
       0.09423429 0.2598685 0.21789426 0.21368767
000040 ff b8 04 3e f7 17 27 3e 34 d6 fa 3d 7c 43 27 3e
       0.12961195 0.16317736 0.12247887 0.16334337
000050 30 82 1c 3e 11 c2 1a 3e 2a 6a 80 3e 5c 1b 1c 3e
       0.15284038 0.15113093 0.25080997 0.15244812
000060 aa d7 20 3e 51 b0 3b 3e 3b 1a f2 3d 8e ca 3c 3e
       0.1570727 0.18328978 0.11821409 0.18436643
000070 9c 90 d8 3d 2e 97 8a 3e b8 0c 49 3e bb d2 83 3e
       0.10574457 0.27068466 0.19633758 0.25746712
000080 90 26 fe 3d cb 9e 4a 3e 88 9e 07 3e 85 94 52 3e
       0.12409699 0.19787137 0.13244069 0.20564468
000090 f5 e4 35 3e a2 94 04 3e 20 87 3f 3e 6d 25 62 3e
       0.17763121 0.12947324 0.1870389 0.2208459
0000a0 20 bc 51 3e 6f 66 63 3e 24 dc 16 3e 02 f5 37 3e
       0.2048192 0.22207044 0.14732414 0.17964557
0000b0 12 6e 0b 3e 5f 71 0f 3e 79 6f e5 3d bd be 6e 3e
       0.13616207 0.14008091 0.11202902 0.23314948
0000c0 6d f9 42 3e 04 6e 5a 3e dd 0e 5c 3e be 49 c1 3d
       0.19040461 0.2133103 0.21490045 0.09437893
0000d0 77 67 03 3e df 27 55 3e 9a a5 a0 3d a3 a2 25 3e
       0.12832437 0.20815991 0.07844086 0.16175322
0000e0 ba f6 45 3e 4c 5b 21 3e 46 a7 41 3e e1 23 14 3e
       0.193324 0.15757483 0.18911466 0.14466812
0000f0 12 0f 47 3e a5 ca 52 3e cb 1a 1f 3e 9e 5b 60 3e
       0.19439343 0.20585115 0.15537564 0.21909949

main_layer.3.residual.0.weight f4 [64, 64, 3, 3]
000000 0d 37 ff 3c f9 2b b9 bd 60 82 5c 3d 9d 92 78 bd
       0.03115418 -0.0904159 0.053835273 -0.060686696
000010 34 c0 e0 3d 86 6d f0 ba dc c5 1e be 17 5a 34 3c
       0.1097416 -0.0018343187 -0.15505165 0.011007807
000020 da 55 a1 be 91 cc d1 bc 31 64 25 3e a9 47 89 be
       -0.31510812 -0.02561024 0.16151501 -0.26812485
000030 3c ec 84 bd 00 56 ca bc 08 57 97 be df 94 a8 3e
       -0.06490371 -0.024699211 -0.29558587 0.3292608
000040 9b 0d 49 bd 69 94 1a bd 22 e1 64 bd 63 60 26 bd
       -0.04908524 -0.03773919 -0.055878766 -0.040619265
000050 c6 ae 80 be 60 64 a2 bc 0b 30 47 be 3e 81 d4 bd
       -0.25133342 -0.019823253 -0.1945192 -0.103762135
000060 90 96 57 3c 26 16 67 be 42 b0 7d be fd cf e4 bc
       0.0131584555 -0.22567043 -0.24774268 -0.027931208
000070 b2 39 8b 3d 84 cd ad 3c 72 9a f6 3c 02 38 42 3d
       0.06798114 0.021216162 0.030102942 0.047416694
000080 71 8e ad bd a5 6d 61 3e 41 3e 7c bd 42 d8 d2 bb
       -0.08474434 0.22014482 -0.061582807 -0.0064344713
000090 ed 11 af bd df e2 c6 3c ad 5f 41 3e 62 72 34 bc
       -0.08548341 0.024278102 0.18884154 -0.011013599
0000a0 9f 20 be 3d 40 bf 2e bd 11 7a 0f bd bd 10 40 3c
       0.09283566 -0.04266286 -0.03502852 0.011722741
0000b0 a0 3a e7 3e 3c 3b 41 3d 83 ea 1e 3e 66 2a 8a 3e
       0.45161915 0.04717563 0.15519147 0.26985472
0000c0 72 d6 a9 3d 4b 46 05 3d 26 e2 17 be 20 f6 00 3c
       0.08292855 0.03253774 -0.14832363 0.007871181
0000d0 87 d7 d3 3d 21 7e 05 bd f2 42 d7 bb 03 e5 f1 bd
       0.10343843 -0.03259099 -0.00656926 -0.11811259
0000e0 bf c3 92 3d b7 1e bb bd 6b f5 a8 3b 97 dd e0 bd
       0.07166242 -0.09136718 0.005156209 -0.10979765
0000f0 7c a9 83 3d 08 cb 1b be 21 b4 54 be 1f ac 12 be
       0.06428811 -0.15214169 -0.20771839 -0.14323471
000100 1b 1d 9c 3e ce fc 41 3d 1c cc 78 bc 2a d5 a5 bd
       0.30490956 0.047360234 -0.015185382 -0.080972984
000110 fb c2 07 3c 96 64 b2 bd cd ae 1f bd 0d 13 65 bd
       0.008286233 -0.087105915 -0.038985062 -0.05592637
000120 0a 47 c1 3d 99 06 dc bd ea 28 02 bc 8b cd 9d 3b
       0.09437378 -0.10743446 -0.007944325 0.0048157624
000130 11 2c ef 3d 54 57 1b 3e 3f db 28 be 38 7d 06 3e
       0.11678327 0.15170032 -0.16489886 0.13133705
000140 61 e7 e6 3d eb f7 1a 3e 31 8b 4b 3e 76 23 3f 3e
       0.11274601 0.15133636 0.19877316 0.18665871
000150 ef d6 73 3d 75 33 c6 3c a1 9f 70 3e 31 8e d2 bd
       0.05953115 0.024194458 0.23498394 -0.10281027
000160 60 30 d5 3d d6 f3 37 3b b3 8e 0d 3e 30 99 23 be
       0.104096174 0.0028068922 0.13823967 -0.15976405
000170 37 d6 6c 3e ac c2 1d 3d 62 cb 74 bd 0c 71 06 3d
       0.23128591 0.03851573 -0.059764273 0.032822654
000180 cf 8d ab bc 14 ce 8f bb eb 7c 85 bd 72 b8 34 be
       -0.020941643 -0.00438858 -0.06517967 -0.17648485
000190 b7 7b 3b 3c ea b6 6c 3c a8 ba e7 3d b9 0e da 3d
       0.01144307 0.014447907 0.11314899 0.106473394
0001a0 b4 23 1a be 5e 01 c3 3d df 71 73 bd e8 42 c4 3d
       -0.15052682 0.09521745 -0.059434768 0.09583074
0001b0 17 cf 89 3d d8 1a b8 3e 82 29 35 3d a6 54 12 3c
       0.067289524 0.3595798 0.044229038 0.008931315
0001c0 c7 13 aa bc 80 c1 9d 3d 6a a8 d6 3b dd af 54 bd
       -0.020761384 0.07702923 0.0065508382 -0.05192553
0001d0 fa bc 6d 3d 01 67 c9 bd d9 f8 92 3d cc 72 3b be
       0.05804155 -0.098340996 0.0717637 -0.1830551
0001e0 e0 9e 58 bd 05 17 2a bd 39 5b c2 3d 8b 0d ab bd
       -0.05288589 -0.04152586 0.094900556 -0.083521925
0001f0 bd cb 38 be 98 81 9c 3d 24 d7 93 be 47 10 84 3d
       -0.1804647 0.076419055 -0.28875077 0.06448417
000200 03 33 a9 3d f3 6a 0d bd f0 ee 64 3d 91 c4 15 3d
       0.08261683 -0.034525823 0.05589193 0.036564413
000210 b4 3e b8 bd 53 22 3e bd e8 61 72 3d 21 f0 20 3d
       -0.08996335 -0.046419453 0.059175402 0.039291505
000220 0b da d2 3d ee 70 26 3e 2c 25 c2 3d 84 bc 9e bd
       0.10295495 0.16254017 0.09479746 -0.077508
000230 c5 9e f1 3d 16 2a 8d 3d a2 0a 7d 3d d4 bc 71 be
       0.11797861 0.06892793 0.06177772 -0.23607188
000240 30 79 5c bd 58 8d 51 3d 3d b8 ae bd 3e fe 86 3d
       -0.05382651 0.051160187 -0.085312344 0.065914616
000250 70 a5 32 be 6f c9 65 bd dc 73 b9 bd 3b 5d c8 3b
       -0.17445922 -0.056100305 -0.090553015 0.0061146296
000260 a2 5a 5e 3d ac 93 f0 bd 8e 6f 24 3e 8b ab dc 3c
       0.054285653 -0.11746916 0.1605818 0.026937267
000270 5c ac 0c be 4d 77 0b bc d5 aa 57 be be 9d 01 3e
       -0.13737625 -0.00851233 -0.21061261 0.1265783
000280 45 84 84 bd cf 47 45 3d a3 eb cd 3d d1 f5 cf bc
       -0.06470541 0.048164185 0.1005471 -0.02538577
000290 bd b9 2d 3e 1c ac 3d 3d c2 14 97 bd 56 25 c1 3b
       0.16965385 0.046306714 -0.07377006 0.0058943434
0002a0 40 91 aa 3c fb 00 85 bd a8 70 88 be ba 6e 22 3e
       0.020821214 -0.06494328 -0.2664845 0.15862551
0002b0 79 c5 35 be e5 3e c8 3d b4 4a 6d bd 68 93 92 3c
       -0.17751111 0.09777621 -0.05793257 0.017892554
0002c0 26 ec c3 3d 10 61 84 3e e4 fb 56 be 37 2d 05 3e
       0.09566526 0.25855303 -0.20994526 0.1300553
0002d0 8a c7 00 be cc 88 17 bc 0b 1c 1b 3e 1d 4e f0 3c
       -0.12576118 -0.0092489235 0.15147416 0.029334122
0002e0 12 8e a0 bc fd dd 67 3e 5a bb 68 bd 19 85 92 bb
       -0.019598994 0.22643276 -0.056819297 -0.004471433
0002f0 51 7e 04 3d ef 9f b8 bd a3 67 bf 3d 9f cc db bd
       0.032347027 -0.0901488 0.09345939 -0.10732388
000300 1c d7 d4 3d fd b0 c4 bd 10 25 0a be 49 dc 98 bd
       0.10392591 -0.0960407 -0.134907 -0.07463891
000310 6c 8f 38 bd 6b 2d cc bb d5 b0 77 3e ae ba dc bd
       -0.045058653 -0.006231 0.2418855 -0.10777794
000320 ec 3b 2d 3c 64 a7 3f bd d7 16 09 be 07 cc 28 3d
       0.0105733685 -0.046790496 -0.13387619 0.0412102
000330 9c a0 0e 3e 18 d7 a4 bd 4b b4 58 be cd 2b c9 3d
       0.13928455 -0.080488384 -0.21162526 0.098228075
000340 ac 08 f8 3d 7c 37 03 3e 47 af 33 3d 60 90 e7 3c
       0.12111029 0.12814134 0.04386833 0.028267086
000350 a7 fc 8b bc 86 37 93 bc 5f 1f 9e 3d 3b 20 82 3c
       -0.017088247 -0.017970812 0.07720827 0.01588451
000360 43 75 71 be 5e 75 2c be d3 ff 95 3d d7 36 91 bd
       -0.23579888 -0.16841647 0.07324185 -0.07090538
000370 65 fd b6 3b 82 ed 00 be 28 2b 31 bc 82 88 b3 bd
       0.005584406 -0.12590602 -0.010813512 -0.08766271
000380 00 25 22 bd 38 77 1b be 99 b7 7a bb 41 64 a5 3c
       -0.039586067 -0.15182197 -0.0038256405 0.020189406
000390 86 1d 5e 3c 44 db 9b bd b0 42 53 be fb f6 cb 3d
       0.013556844 -0.07610181 -0.20630908 0.09959217
0003a0 10 2c 79 be 5d f3 06 bd 8c 55 3a 3d 48 cc 3d 3d
       -0.24333215 -0.032946933 0.04549174 0.046337396
0003b0 81 29 22 3d ec 6d a4 3d 92 ec da bd e1 31 ae 3c
       0.039590362 0.080287784 -0.106896535 0.021264018
0003c0 96 9f 8b 3d fc b1 ac 3d ae 16 66 3d 04 44 41 bd
       0.06817548 0.08432385 0.056173973 -0.047184005
0003d0 2b bc 2e bd 3c 35 ee 3c fe 39 9d 3d 25 69 19 be
       -0.04265992 0.029078119 0.07677077 -0.14981516
0003e0 fa 31 a7 3d 27 11 43 3d 44 47 37 3d 82 c3 70 3e
       0.08163829 0.04762378 0.0447457 0.2351208
0003f0 af d4 5b bd e8 b5 34 3c 2d 4c d9 bd 6c 3e 06 bd
       -0.053669628 0.011029698 -0.106102325 -0.032774374

main_layer.3.residual.0.bias f4 [64]
000000 44 e7 12 b8 da 86 02 38 ec 24 81 37 3e 5e 44 38
       -3.5024495e-05 3.1120006e-05 1.5395191e-05 4.681781e-05
000010 9c 02 ad b7 14 86 bd 37 9d d7 c9 b8 31 15 cf b7
       -2.0624422e-05 2.259299e-05 -9.624588e-05 -2.4686191e-05
000020 b4 7b 56 b8 32 d5 d5 37 c6 2f 83 b7 a8 d0 9f 38
       -5.1136783e-05 2.5490855e-05 -1.5638663e-05 7.620576e-05
000030 a4 24 d2 b7 20 ac 40 b8 60 e8 58 b6 d4 54 97 37
       -2.5051013e-05 -4.593667e-05 -3.2321768e-06 1.8040104e-05
000040 de 86 4a 37 20 5d 8f 37 d6 3c 25 37 38 a4 f1 36
       1.20715395e-05 1.7090293e-05 9.848931e-06 7.2014773e-06
000050 e6 a2 38 38 cc 28 cc 37 d3 07 b7 b7 b6 81 1c 38
       4.402073e-05 2.4337693e-05 -2.1818943e-05 3.73141e-05
000060 2e 08 9a 37 d3 30 1c 38 24 71 a1 37 f4 d6 30 38
       1.836204e-05 3.723877e-05 1.924538e-05 4.216186e-05
000070 88 13 87 37 84 0d 08 36 20 69 69 36 38 39 9f b7
       1.6102349e-05 2.0273446e-06 3.4780896e-06 -1.8980922e-05
000080 9c 72 0d 37 29 db 90 37 9e 93 0c b8 91 14 6d b8
       8.4309395e-06 1.7268192e-05 -3.351608e-05 -5.6524357e-05
000090 13 5b 90 b8 c7 58 bd b7 1a dd c5 37 b8 1e b3 37
       -6.883419e-05 -2.2571896e-05 2.3587188e-05 2.1352767e-05
0000a0 70 78 32 b8 c0 59 43 b7 c7 8a a4 b7 44 1b 22 b8
       -4.2550673e-05 -1.1643802e-05 -1.9614947e-05 -3.8649203e-05
0000b0 74 19 c2 b7 6c ad 65 b7 c2 57 60 38 c0 c3 8f b5
       -2.3138455e-05 -1.3689842e-05 5.3487493e-05 -1.0711301e-06
0000c0 40 1a 04 b4 44 bc 03 38 bf 15 00 b8 30 ce 90 34
       -1.2303008e-07 3.140817e-05 -3.053783e-05 2.697211e-07
0000d0 91 2b 9b b7 1c 0d f9 37 70 f9 6e 35 66 03 6d b7
       -1.8497727e-05 2.9689218e-05 8.902489e-07 -1.4127092e-05
0000e0 78 45 28 38 b4 3c 86 37 50 40 21 36 9e 6e e0 37
       4.011902e-05 1.6002312e-05 2.4028304e-06 2.6754391e-05
0000f0 b2 46 a9 37 50 e4 77 36 1a de 00 b8 8e 5f d0 b7
       2.017929e-05 3.6938764e-06 -3.0724426e-05 -2.4840028e-05

main_layer.3.residual.1.weight f4 [64]
000000 8c 9b 53 3f 47 d6 8c 3f 88 98 30 3f 56 4a 46 3f
       0.8265922 1.1002892 0.68982744 0.7745718
000010 66 54 35 3f 2d 84 31 3f ab d7 44 3f fd cd 37 3f
       0.70831907 0.6934231 0.76891583 0.7179869
000020 2b b5 34 3f db de 6d 3f 4a 58 3e 3f 6f 19 47 3f
       0.7058894 0.92918175 0.7435347 0.77773184
000030 00 b9 0f 3f 65 66 46 3f f9 32 1f 3f 98 dd 5c 3f
       0.5614166 0.7749999 0.62187153 0.86275625
000040 52 1a 4b 3f d7 73 23 3f 59 bb 16 3f d8 12 37 3f
       0.79337037 0.6384863 0.5887962 0.7151313
000050 d4 32 31 3f 71 2d 4b 3f e6 4c 51 3f c9 fe 34 3f
       0.6921818 0.79366213 0.8175796 0.7070127
000060 41 ef 30 3f 4c d2 3a 3f 9e 85 4a 3f 41 69 3e 3f
       0.6911507 0.7297714 0.79110134 0.74379355
000070 2e 66 3f 3f a2 37 29 3f 2a 6b 34 3f 4e 3f 20 3f
       0.7476529 0.66100514 0.7047602 0.62596595
000080 f4 38 32 3f f8 6a 1d 3f e4 4e 49 3f ac 4e 2a 3f
       0.69618154 0.61491346 0.78636 0.66526294
000090 b7 37 71 3f 6b 8e 7b 3f f9 21 43 3f d6 71 16 3f
       0.9422564 0.9826419 0.76223713 0.5876745
0000a0 04 2c 64 3f f9 ae 3e 3f d2 4e 1d 3f ee 56 44 3f
       0.8912966 0.7448574 0.61448395 0.76695144
0000b0 d8 55 2d 3f ae 7b 16 3f 94 a4 80 3f 33 76 8f 3f
       0.6770911 0.5878247 1.0050225 1.1207947
0000c0 a4 d9 2a 3f 61 de 27 3f c2 ca 47 3f 33 1c 29 3f
       0.66738343 0.655737 0.7804376 0.66058654
0000d0 f7 cf 2d 3f 57 25 4d 3f 3d 0d 4d 3f 1e 0d 31 3f
       0.67895454 0.801351 0.80098325 0.6916064
0000e0 31 62 0e 3f 99 6b 45 3f 32 32 43 3f 19 4d 50 3f
       0.5561858 0.77117306 0.76248467 0.8136764
0000f0 e8 d1 6a 3f 32 c8 23 3f 79 3e 5d 3f 09 8d 26 3f
       0.9172654 0.6397735 0.8642345 0.6505895

main_layer.3.residual.1.bias f4 [64]
000000 91 32 f8 be 0b 35 04 bf df 78 92 be 86 c5 24 bf
       -0.4847608 -0.5164344 -0.28607842 -0.64363897
000010 14 4a e9 be 0e f6 04 bf 0a ce b1 be 29 9d e4 be
       -0.4556433 -0.5193795 -0.34727508 -0.44651154
000020 1b 16 88 be cf aa 0f bf d4 1b ce be 29 bb ad be
       -0.26579365 -0.5612001 -0.40255606 -0.33931854
000030 81 bc 03 be 7f d6 89 3d 38 f0 bf be 76 6c 16 bf
       -0.12864877 0.06730365 -0.3748796 -0.5875925
000040 89 23 b9 be fa 2a ed be e0 4a 75 be 54 20 6f be
       -0.36159924 -0.4632185 -0.23954344 -0.23352176
000050 82 36 08 bf 23 56 28 be b1 03 ca be eb 20 aa be
       -0.5320817 -0.16439109 -0.3945594 -0.3322824
000060 05 08 06 bf 2a fd 70 be a2 76 7f be 32 71 a4 be
       -0.52355987 -0.23534074 -0.24947599 -0.3211761
000070 a3 78 01 bf 11 de d7 be 37 a3 d8 be 5e c8 ca be
       -0.505747 -0.4216161 -0.42312023 -0.39605993
000080 64 00 51 be b2 a2 fc be a4 f1 e7 be 7d 08 aa be
       -0.20410305 -0.49342877 -0.45301545 -0.332096
000090 6d 25 12 bf 3c 68 0d bf 38 ce a8 be 93 6e 6c be
       -0.5708836 -0.55237174 -0.32969832 -0.23089056
0000a0 44 a2 17 bf 10 49 d2 be f9 0f b4 be 30 b9 94 be
       -0.5923197 -0.41071367 -0.35168436 -0.29047537
0000b0 83 53 0c bf 05 c3 c5 be 34 8b 1f be a8 1a 16 bf
       -0.5481493 -0.3862535 -0.15580446 -0.58634424
0000c0 17 ba ed be 47 0b d9 be 8c d6 a2 be e7 cf d4 be
       -0.46431038 -0.42391416 -0.3180431 -0.41564867
0000d0 65 a1 d0 be 44 1e fc be 3f c9 d0 be bc 7e 02 bf
       -0.40748134 -0.4924184 -0.4077854 -0.5097463
0000e0 64 ce c3 be 6c 23 94 bd bc 62 b6 be 69 66 11 bf
       -0.382434 -0.07233319 -0.35622203 -0.5679689
0000f0 d1 49 cb be aa 40 f9 be ba dd 95 be e5 13 e8 be
       -0.39704755 -0.48682147 -0.29270726 -0.45327678

main_layer.3.residual.1.running_mean f4 [64]
000000 75 ba 09 bf dc ae 00 bf 70 2b 06 bf 07 53 6c bf
       -0.53800136 -0.50266814 -0.5241003 -0.9231419
000010 b6 d5 a4 3e 12 dd 8c bf f9 f4 b7 3e 2b 9f 5e bf
       0.32194299 -1.1004965 0.35929087 -0.8696162
000020 7a b3 cd bf 7f ac e2 bf 5b cd 0e c0 84 8c 76 bf
       -1.6070397 -1.7708892 -2.231284 -0.9630816
000030 34 05 2e bf ea 90 63 bf 47 e4 f1 bc 72 47 b4 bf
       -0.6797669 -0.88892996 -0.029527796 -1.4084303
000040 e5 ac 80 bf 10 c4 4e 3e 54 7a 38 bf 25 29 3a bf
       -1.0052763 0.2019198 -0.7206166 -0.7271903
000050 86 fc 0e 3d 1e a2 90 bf 74 6b a4 bf ea ed 38 bf
       0.034908794 -1.1299474 -1.2845292 -0.7223803
000060 3f 27 2f bf 4d a0 e3 bf 46 b1 69 bf 11 79 55 bf
       -0.6841926 -1.7783295 -0.9128612 -0.8338786
000070 6d c5 b9 be ee 9e 38 bd 5b 21 f6 be fa bf e1 3e
       -0.36283436 -0.045073442 -0.48072323 0.4409178
000080 25 af 83 bf c9 91 20 bf cd 4d ad bf 3e 65 02 bf
       -1.0287825 -0.6272245 -1.3539368 -0.50935733
000090 3c 68 51 be 70 ed 65 3e 0a f3 db bf 46 62 b0 bf
       -0.20449919 0.22453856 -1.7183545 -1.3779991
0000a0 c1 92 85 be a8 aa 4e bf c4 c2 22 be c0 8b ba bf
       -0.26088527 -0.8072915 -0.1589461 -1.4573898
0000b0 26 a4 b6 bf a6 1c 45 bf 41 15 09 c0 42 d9 4d bf
       -1.4268844 -0.7699684 -2.1419222 -0.80409634
0000c0 8e 06 cd bc 07 09 42 bf 0a 67 a9 bf b5 26 12 3d
       -0.02502754 -0.75795025 -1.323457 0.035681445
0000d0 5c 9d a9 bf d6 74 9b bf 46 70 92 bf 7a c3 ee 3e
       -1.3251147 -1.214503 -1.1440513 0.46633512
0000e0 aa 07 98 be a0 60 ad bf 93 4d 36 3d b8 93 ba be
       -0.29693347 -1.3545113 0.044507574 -0.36440825
0000f0 46 b3 a5 bf ff 19 08 bf 4f 99 58 bf 06 85 e8 be
       -1.2945335 -0.53164667 -0.8460893 -0.4541399

main_layer.3.residual.1.running_var f4 [64]
000000 5c d4 1b 40 7e 17 1f 40 35 13 d7 3f 89 d6 02 40
       2.4348364 2.4858088 1.6802737 2.0443442
000010 9d 56 cb 3f e2 89 0c 40 ab 23 04 40 8e 8c 27 40
       1.5885807 2.1959157 2.064677 2.6179538
000020 a0 af 25 40 a5 35 17 40 29 47 30 40 cb 8f 1b 40
       2.5888443 2.3626492 2.7543433 2.4306514
000030 c2 6b 0b 40 92 af fd 3f 58 b4 cd 3f 0e 57 1c 40
       2.178452 1.9819205 1.6070662 2.4428134
000040 04 87 0f 40 bd cf d6 3f 41 9f ca 3f 0a 8f 0b 40
       2.2426157 1.6782147 1.582985 2.1806054
000050 73 ef e4 3f 17 85 0b 40 9d 08 19 40 a1 f5 11 40
       1.7885574 2.1799982 2.3911507 2.280617
000060 2d 34 13 40 41 fa 55 40 d7 77 3a 40 a8 c3 16 40
       2.3000596 3.3433993 2.9135644 2.355692
000070 4f e3 f1 3f 5b aa c0 3f f0 06 fa 3f 7f 6e 01 40
       1.8897494 1.5051988 1.9533367 2.0223691
000080 eb f2 10 40 73 cb 1e 40 26 92 1b 40 c2 3d c2 3f
       2.2648265 2.4811676 2.4307952 1.5175097
000090 4a 4e 16 40 20 32 0f 40 8a 86 15 40 d0 ed 62 40
       2.3485284 2.2374344 2.3363366 3.545765
0000a0 95 e7 33 40 52 22 dc 3f d2 2e d2 3f 05 b1 48 40
       2.8110096 1.7197974 1.6420538 3.1358044
0000b0 76 16 fe 3f 76 9e af 3f a1 ae 09 40 c0 e1 3e 40
       1.9850605 1.3720233 2.1512835 2.9825287
0000c0 bb 09 c4 3f b3 c0 01 40 4a 2c 1c 40 3f fb 00 40
       1.531547 2.0273864 2.4402032 2.0153348
0000d0 59 27 e9 3f 8d 30 0d 40 27 48 1b 40 97 0d d3 3f
       1.8215133 2.2060883 2.4262788 1.6488522
0000e0 30 36 eb 3f 2d 08 4e 40 2c 2f d6 3f 66 ab 1d 40
       1.8375912 3.219249 1.6733146 2.4635863
0000f0 a2 75 04 40 15 3d 92 3f 9c 9b 2a 40 c1 b4 bd 3f
       2.0696797 1.1424891 2.6657476 1.4820787

main_layer.3.residual.3.weight f4 [64, 64, 3, 3]
000000 c0 92 24 be 07 9e a5 3c c9 90 02 bd 39 2b 81 3c
       -0.16071606 0.020216955 -0.03187636 0.01576768
000010 59 30 8b 3d 41 66 e0 3c 53 c9 05 be 69 52 a3 3d
       0.06796331 0.027392508 -0.1306508 0.07974703
000020 bd 58 43 be 98 2f 95 bd ee 2c 46 3d 45 58 2b 3d
       -0.1907682 -0.072844684 0.048382692 0.041832227
000030 ff 49 5d bd b3 9e 82 bb cb 8a 51 bd 8a 66 8c 3e
       -0.054025646 -0.0039862036 -0.051157754 0.2742198
000040 01 25 57 be 3e 28 5a 3c 16 3e b3 3c 83 75 0b bd
       -0.2101021 0.013315259 0.02188019 -0.034047615
000050 f5 95 f9 3c f6 99 e8 3c e6 d4 4b 3c 62 b4 cf bd
       0.030467013 0.028393727 0.012440896 -0.10141827
000060 eb 00 01 be 65 d2 96 3d 56 e2 27 3d 3e 14 0f 3d
       -0.12598006 0.07364348 0.040987335 0.034931414
000070 6a e9 02 be f8 c9 9b 3c 7e 4f 61 3e f0 d3 cb 3d
       -0.12784353 0.019017205 0.2200298 0.09952533
000080 45 97 7a bd ff 78 d5 3e a0 b9 a4 3e ac f3 2c 3e
       -0.061179418 0.41693875 0.3217287 0.16889828
000090 81 16 80 bc 22 55 15 be 9c 5d 01 3e ec 62 cf 3d
       -0.01563573 -0.14583257 0.12633365 0.1012629
0000a0 91 13 8e 3d 1a 09 04 be 79 52 ff bc dc 5a 71 bd
       0.06937326 -0.12894097 -0.031167256 -0.05892454
0000b0 a0 1a 39 3d b2 27 a0 bd 5f e0 c7 3c 4b a2 c7 bd
       0.045191407 -0.07820071 0.02439898 -0.09747752
0000c0 da 87 2b 3e 1c 3f 02 bd 81 7f 81 bd c0 a5 15 3e
       0.16751042 -0.031798467 -0.063231476 0.1461401
0000d0 3e 44 4c bd 15 7e d0 bc 46 37 b7 ba 34 d8 a2 bb
       -0.04986977 -0.025450746 -0.0013978265 -0.004969621
0000e0 d6 f4 16 3d 55 4e 79 bc 4d 45 f8 bd 3f 1b f6 3d
       0.036854587 -0.01521643 -0.12122593 0.120169155
0000f0 89 ec 6a be a9 27 cf 3d 7b ae bd 3d 6d c0 66 bd
       -0.22941794 0.101149864 0.09261795 -0.056335855
000100 e0 7f f8 bc e8 33 e0 3d 82 70 da bd d3 a0 97 3d
       -0.030334413 0.109474 -0.106659904 0.07403722
000110 1f 4d 64 bd 95 f8 1b bd 72 9d 3b be 32 da cc 3d
       -0.05573761 -0.038078863 -0.1832178 0.10002555
000120 88 6d 04 bd 1c f5 81 bc 3b 7a f8 bc 91 0c 19 bd
       -0.03233102 -0.015863948 -0.030331722 -0.0373655
000130 fe e7 01 be 11 9e 76 3d 48 24 23 3e 3e a8 40 bd
       -0.12686154 0.060209338 0.15931809 -0.04703545
000140 6b a8 86 bc b4 d0 cf bd d5 df 22 3e 59 da 12 3d
       -0.01643773 -0.10147229 0.15905698 0.035852764
000150 9f c0 10 bc a7 e0 a5 bd f7 10 44 3d 2f b0 40 3e
       -0.008834987 -0.0809949 0.04786774 0.18817209
000160 31 0f 0e be 74 4c 13 3c fd 92 1c 3e b8 db d8 bd
       -0.13872983 0.008990396 0.15290447 -0.10588783
000170 40 c6 3f bd 41 02 35 3d ff 6c 74 bd ed 34 5a bd
       -0.046819925 0.044191603 -0.05967426 -0.05327313
000180 14 8d f0 bc 18 21 2c bd 4c d1 d3 bd 87 70 55 3d
       -0.029364146 -0.04202375 -0.103426546 0.052109268
000190 08 76 dd bd dd 86 14 3d 2f bb 63 3d 60 a2 3b be
       -0.10813528 0.03626143 0.055598434 -0.1832366
0001a0 30 d9 d3 bc dc a3 f2 3b 30 e7 bb bd 76 54 d5 bd
       -0.025860399 0.0074047875 -0.09174955 -0.104165
0001b0 fb c3 ea 3c 62 2c 8a bd 3a 63 11 bd 83 2c 39 be
       0.028657904 -0.067467466 -0.03549502 -0.18083386
0001c0 59 5d 39 be e6 a6 15 3e 43 b6 55 3e 04 fc 24 3d
       -0.18102016 0.14614448 0.20870309 0.040279403
0001d0 8c ac 8f bd 25 e4 80 be 4b 50 99 bc 6c bd 95 bc
       -0.070153326 -0.2517406 -0.018715044 -0.0182788
0001e0 f0 f8 db ba 5c bf 3b bc 0d 0b 06 3e d9 47 01 3e
       -0.0016782563 -0.011459198 0.13090153 0.12625064
0001f0 27 46 93 bd ab 95 01 bd a9 fe 2e 3e 7a b5 88 3d
       -0.07191115 -0.031636875 0.17089333 0.06675239
000200 6b 51 72 3e 73 e5 b5 bd 34 fc 2c 3e ad 5a 12 be
       0.23663871 -0.088816546 0.16893083 -0.14292403
000210 9b 04 75 bd 85 0b 48 bd bd 45 ce bd 08 cf c0 3e
       -0.059818845 -0.04883911 -0.10071895 0.37657952
000220 ff 42 d5 3c e0 e7 32 be 2c c6 02 3e e7 4f 9d bd
       0.026032923 -0.17471266 0.12770909 -0.07681256
000230 e8 cb bf bd bd 3b cc 3e cf f6 da 3d 35 93 72 be
       -0.09365064 0.39889327 0.10691606 -0.23688968
000240 97 50 be 3d 28 1a 3a 3b 8d 62 27 be 40 cd 53 bc
       0.09292715 0.0028396938 -0.16346188 -0.012927353
000250 c3 3b 1b 3e 74 b4 41 bd 58 47 43 be bc bc 11 be
       0.15159516 -0.047291234 -0.19070184 -0.14232153
000260 62 be 0b be ba f1 da bd 0d ba f1 3d ca 8c 0f bd
       -0.13646844 -0.10690637 0.118030645 -0.035046376
000270 31 0d 99 bc f6 bc 4a be 4f e4 8d be 42 be 1b be
       -0.018683048 -0.19798645 -0.27713248 -0.15209296
000280 2e 59 8b bd ca db ed bd 96 ae e6 3c 63 ed 74 bd
       -0.06804119 -0.11614187 0.028159421 -0.059796702
000290 1a dc 28 3d 02 3d ae bd eb 37 48 3d d9 05 86 3d
       0.04122553 -0.0850773 0.048881453 0.06544084
0002a0 31 dd d1 3d 05 0a 97 bd c7 18 8f 3d 76 af 0e bd
       0.10247267 -0.07374958 0.06987148 -0.0348353
0002b0 54 1c ea bd 72 66 5b be fb ab fc 3c fe 1a f7 3c
       -0.114311844 -0.21425799 0.030843725 0.030164238
0002c0 2c f6 68 bc 0b fe 1e be ea 8f 3e bd 51 6a b6 bd
       -0.014218848 -0.15526597 -0.046523966 -0.08906997
0002d0 c2 81 18 be c7 ca 93 bd 87 7f 3d be ac ff 9d bd
       -0.14893249 -0.07216411 -0.18505679 -0.07714781
0002e0 0e e0 e4 bd 07 a1 84 bd 64 94 33 3c 94 e3 b9 3c
       -0.111755475 -0.06476026 0.010960672 0.022691526
0002f0 b9 8e bc bd 7a ea 9d 3d f5 33 1e bd c5 79 8e bd
       -0.0920691 0.077107385 -0.03862377 -0.069568194
000300 52 0d 42 3d a0 b0 5d bd 04 3f 21 3d da 51 37 bd
       0.047375984 -0.05412352 0.039366737 -0.044755794
000310 0e 11 47 be ac 4c 1d bd d9 e2 bf 3d 93 57 ad 3d
       -0.194401 -0.038403198 0.0936944 0.08463969
000320 1e 75 10 bb 37 01 b1 bd 61 d0 22 3d e6 22 06 3e
       -0.0022042464 -0.0864281 0.039749507 0.1309925
000330 d8 03 3c be f5 28 b6 bd 56 54 f0 bb f2 fc e5 bd
       -0.18360841 -0.08894531 -0.0073342724 -0.11229886
000340 36 7a 30 be f5 3c eb bd d1 16 23 bd 5d c0 7c bd
       -0.1723412 -0.11486236 -0.03981668 -0.06170689
000350 09 80 7b 3d 37 73 6d bd f6 be 11 3e 55 35 fa bd
       0.0614014 -0.057971206 0.14233002 -0.122172035
000360 f5 20 a5 bc f3 f2 87 bd b6 f8 e9 bd 74 b2 88 bd
       -0.020157317 -0.06638136 -0.11424391 -0.06674662
000370 2c f5 81 3d db ab a2 bc 23 4b 95 bd 0b 58 35 bd
       0.06345591 -0.019857338 -0.07289722 -0.044273417
000380 49 f7 d9 bd 38 34 3f 3d 63 b8 0b 3e bb 79 76 3e
       -0.10642869 0.04668066 0.13644557 0.24069874
000390 62 7b 20 be c4 02 8e bc 0d 43 65 3e c1 95 45 3d
       -0.15672067 -0.017335303 0.22388859 0.04823852
0003a0 17 6f 44 3e 57 5c 80 3e 03 68 e9 3d 32 af 3a bd
       0.19183002 0.2507045 0.11396792 -0.045577236
0003b0 2d e7 9c 3d 25 bb 28 be 85 6b be bd af de f7 bc
       0.07661281 -0.1647764 -0.092978515 -0.030257551
0003c0 33 df 0f be 26 76 e9 bd c7 73 e2 bd e0 04 b5 bd
       -0.14049987 -0.11399488 -0.11057239 -0.088388205
0003d0 9c 28 f2 ba 8d f7 db bd 6a 4d d2 bd 81 bd cb bd
       -0.0018475237 -0.10740576 -0.10268672 -0.099482544
0003e0 cf bc 1a be 7d 18 b3 bd 25 0d ef bd 43 04 ca bd
       -0.15111087 -0.08744905 -0.11672429 -0.09864094
0003f0 35 6d 82 be 9a c1 c6 3d 08 91 5b bc 0a 56 1f bd
       -0.25473943 0.09704895 -0.013401277 -0.038900413

main_layer.3.residual.3.bias f4 [64]
000000 a0 f8 12 b4 af 3a 2d 38 cf e1 6e 37 63 df 94 37
       -1.3687759e-07 4.1301068e-05 1.4238481e-05 1.7746997e-05
000010 4b c7 f9 37 f8 93 42 b7 ed fe 51 b7 08 bb 15 37
       2.9775916e-05 -1.1597753e-05 -1.2516725e-05 8.924639e-06
000020 f8 0b da 37 cd 8b 80 38 a0 8b 26 38 58 1d 9c 38
       2.5993199e-05 6.1295555e-05 3.970752e-05 7.4441254e-05
000030 00 86 34 b7 30 01 87 b5 5f b5 ff 38 88 57 7e 38
       -1.0760035e-05 -1.0058629e-06 0.000121931305 6.063984e-05
000040 94 87 01 b7 6a 1a 66 38 cb ac 50 b8 a3 44 85 37
       -7.720566e-06 5.4860873e-05 -4.975199e-05 1.5886797e-05
000050 10 41 e0 37 18 03 17 38 dc b6 22 38 b0 b9 4f 35
       2.6733178e-05 3.6004087e-05 3.879411e-05 7.738372e-07
000060 ae a8 2f b8 60 a7 46 b7 ba 81 47 b8 2d 30 66 b7
       -4.1880347e-05 -1.184069e-05 -4.7566115e-05 -1.3720285e-05
000070 70 2f 10 37 52 7e 22 37 88 ed 33 38 a6 57 3a b7
       8.594114e-06 9.685364e-06 4.2898144e-05 -1.1106871e-05
000080 6e 8e be b8 a2 ba 5d 38 7a e0 1c b7 de b1 6a b7
       -9.0864356e-05 5.286432e-05 -9.35059e-06 -1.39889e-05
000090 44 a9 f1 37 31 b1 a7 37 96 76 40 b8 f2 44 db 37
       2.880826e-05 1.9990463e-05 -4.588681e-05 2.613894e-05
0000a0 20 95 38 38 7d 6d 79 b7 6c f7 6f 38 fb 60 36 38
       4.4007902e-05 -1.4867049e-05 5.721247e-05 4.34825e-05
0000b0 76 9e 1b b7 c2 70 3b 37 e1 ec 8c b8 d7 d6 c8 b8
       -9.2756145e-06 1.1172322e-05 -6.719842e-05 -9.57676e-05
0000c0 29 67 12 b8 af 22 65 b8 08 ce 8b 37 78 ff e3 b6
       -3.4905188e-05 -5.4630156e-05 1.6666032e-05 -6.7948677e-06
0000d0 fc f6 47 b7 70 c9 45 b6 ba e5 c2 37 73 b0 9c b7
       -1.191883e-05 -2.947254e-06 2.3233577e-05 -1.8678815e-05
0000e0 1d 65 b4 b7 91 9c 34 b7 e8 df 8a 35 8a aa 4a b8
       -2.1504757e-05 -1.07652895e-05 1.0346967e-06 -4.831938e-05
0000f0 e4 36 c9 b7 c4 5a 51 b7 30 08 d5 b4 1e 5c b0 36
       -2.3986628e-05 -1.2478504e-05 -3.96803e-07 5.2559326e-06

main_layer.3.residual.4.weight f4 [64]
000000 f4 2c 42 3f 97 e4 40 3f ab 55 b6 3e 0f 88 34 3f
       0.75849843 0.753488 0.35612234 0.7052011
000010 36 12 1f 3f 09 48 58 3f 04 c5 53 3f 3f dd 34 3f
       0.6213716 0.84484917 0.82722497 0.70650095
000020 77 fe 3b 3f d2 0b 64 3f 2f f9 10 3f e6 f8 6a 3f
       0.7343516 0.89080536 0.56630224 0.9178604
000030 92 00 a2 3e 5b 2f 48 3f 89 e7 58 3f c5 ec 4b 3f
       0.3164106 0.7819726 0.84728295 0.79658157
000040 3a ef 32 3f a2 73 51 3f 79 d9 4d 3f 65 ee 3a 3f
       0.6989628 0.81817067 0.8040996 0.7302001
000050 29 63 3f 3f 9b ab 72 3f ea 89 48 3f a6 f8 0d 3f
       0.7476068 0.947931 0.7833544 0.5545753
000060 e4 bd 3d 3f 52 53 5c 3f a3 76 2b 3f 2f f2 34 3f
       0.74117875 0.86064637 0.669779 0.7068204
000070 43 95 4f 3f 88 ba 43 3f 54 d9 5b 3f db c2 38 3f
       0.8108713 0.764565 0.8587849 0.72172326
000080 81 07 41 3f c0 37 1e 3f 18 57 2e 3f 12 cd 3d 3f
       0.75402075 0.6180382 0.68101645 0.7414104
000090 86 a9 32 3f 09 d5 1c 3f b6 e4 f5 3e 8e 54 5c 3f
       0.6978992 0.61262566 0.48026055 0.8606652
0000a0 d5 81 47 3f 24 07 3f 3f e8 d3 56 3f 80 c6 59 3f
       0.7793248 0.7462027 0.83917093 0.8506851
0000b0 21 44 50 3f 78 98 38 3f 2a 4b 52 3f 1c ba 58 3f
       0.81353956 0.7210765 0.8214594 0.8465898
0000c0 a5 10 3b 3f fa 50 5c 3f d1 8b 33 3f 09 1a 19 3f
       0.7307227 0.8606106 0.7013522 0.5980535
0000d0 a2 9a 0f 3f ec 53 2e 3f c0 0d 2d 3f 1e 7f 2d 3f
       0.56095326 0.68096805 0.67599106 0.6777209
0000e0 5e 3e 36 3f 68 1e 4a 3f 1b ca 21 3f 07 86 58 3f
       0.71188915 0.78952646 0.63199013 0.8457951
0000f0 eb 5b 56 3f b3 6f 4b 3f 0c 6d 5b 3f c4 a9 45 3f
       0.83734006 0.79467314 0.8571327 0.77212167

main_layer.3.residual.4.bias f4 [64]
000000 5b 49 33 bf a6 09 e4 be 07 58 00 3e 93 6c 49 bd
       -0.70033807 -0.4453861 0.1253358 -0.04917581
000010 92 6d b5 be 8d ea 10 bf f0 1d 11 bf 17 f4 03 bf
       -0.35435158 -0.56607896 -0.56686306 -0.51544327
000020 e0 3f 15 bf b5 24 de be ce 89 87 be 60 ce f4 be
       -0.5830059 -0.4338738 -0.26472324 -0.47813702
000030 1b 44 56 be 8b f4 da be 89 0d 15 bf 91 74 1c bf
       -0.20924418 -0.42764696 -0.5822378 -0.61115366
000040 d5 87 34 be 69 09 15 bf 81 40 8b be 68 80 15 bf
       -0.17629941 -0.58217484 -0.2719765 -0.5839906
000050 e8 52 4c bf 2c af 14 bf df be 0d bf 66 85 bb be
       -0.79814005 -0.5807979 -0.5536937 -0.36625212
000060 50 62 29 bf f8 a2 c9 be 57 9b 1f bf b6 22 45 bf
       -0.6616564 -0.39382148 -0.62346405 -0.7700609
000070 de d9 14 bf 3b 3f 02 bf 01 1e d5 be 68 ea 0b bf
       -0.5814494 -0.5087773 -0.41624454 -0.5465455
000080 d7 3a fe be d6 d9 8e be 6c 07 a4 be 4f 8a d7 be
       -0.49654266 -0.2790057 -0.32036912 -0.4209771
000090 3b 1b b9 be 7b 1e c6 be 77 97 ae bd 52 b6 0c bf
       -0.36153588 -0.3869513 -0.085249834 -0.549657
0000a0 8d a0 f3 be 6c 70 ee be c4 5c 33 bf c0 73 36 bf
       -0.47583428 -0.46570146 -0.70063424 -0.7127037
0000b0 01 d6 0a be 5c 59 c4 be 76 2e f7 be 74 f5 f7 be
       -0.13558199 -0.38349426 -0.48277634 -0.48429453
0000c0 3a ff 0f bf a5 a2 42 bf b1 f0 11 bf d1 2f e0 be
       -0.5624882 -0.76029426 -0.5700789 -0.4378648
0000d0 96 c3 2c be e9 aa 9b be 45 4e 00 bf 31 56 04 bf
       -0.16871485 -0.30403832 -0.5011943 -0.5169402
0000e0 d7 c4 02 bf b9 69 f7 be e4 8c 05 bf 9d 9c e2 be
       -0.51081604 -0.48322847 -0.5216811 -0.4426011
0000f0 54 d2 00 bf 72 71 17 bf 4e 7c bd be 95 f4 47 bf
       -0.50320935 -0.5915748 -0.370089 -0.7810758

main_layer.3.residual.4.running_mean f4 [64]
000000 ed 82 83 be 9d 45 9f bf 08 af 40 bf 07 e3 85 bf
       -0.25685826 -1.2443119 -0.75267076 -1.0459908
000010 8a 28 4a bf 3b b6 a1 be 36 7d 62 bf 72 c2 54 3d
       -0.7896811 -0.31584343 -0.88472307 0.05194325
000020 d4 da 72 bf 09 cd 5d bf 42 ed a4 3e 4f 9a 36 bf
       -0.94865155 -0.86640984 0.32212263 -0.71329206
000030 80 44 fe bd 08 e2 ec be b9 14 72 bf 7d 5f 53 bf
       -0.12415409 -0.46266198 -0.9456287 -0.8256758
000040 ee ce 21 bf 7e 0b 8e be 3e 28 a6 bf 1d f6 8c bf
       -0.63206375 -0.27743143 -1.2981031 -1.1012608
000050 f2 d0 b9 3c 64 6c 2d bf e8 88 1b bf 80 9c e1 be
       0.02268264 -0.67743516 -0.6075578 -0.44064713
000060 c0 5f 17 bd de 5c b0 bd 0a a2 1d 3f 04 4d 91 bd
       -0.03695655 -0.08611463 0.61575377 -0.07094768
000070 8f c9 36 bf 26 c1 1a bf 57 0f d9 bf 78 be 26 be
       -0.71401304 -0.6045097 -1.6957806 -0.16283596
000080 49 19 36 bf b6 5b 4e 3e 1b 3b cf 3d 7d ac 4a be
       -0.7113233 0.20152172 0.10118695 -0.19792362
000090 a6 d9 cb bf 23 fa 94 3e 1c 91 c4 bf 89 14 93 bf
       -1.5925796 0.2909709 -1.5356784 -1.1490642
0000a0 ac 83 70 be fa a5 74 be dd 50 e6 be 30 83 f2 be
       -0.23487729 -0.2389144 -0.4498357 -0.47365713
0000b0 a7 c3 81 be 03 8a 26 be 08 aa d6 3e 9d f6 8d be
       -0.25344583 -0.16263585 0.419266 -0.27727214
0000c0 1f 7c 82 be 82 5d 3d bf 39 07 b3 3e 52 bf 92 be
       -0.25485322 -0.73970807 0.34966448 -0.2866159
0000d0 5a 55 9c be 99 ee 27 bf 7f f6 0a 3f 95 c2 3e bd
       -0.30533868 -0.65598446 0.54282373 -0.046572287
0000e0 b3 34 6e be 56 7b 97 bd 4a a5 4c bf 1c e4 c2 bf
       -0.2326229 -0.07396571 -0.7993971 -1.5225863
0000f0 37 68 0a bf 76 6c a2 3e 79 bd 8a be fb 1c 55 bf
       -0.5406527 0.31723374 -0.2709768 -0.83247346

main_layer.3.residual.4.running_var f4 [64]
000000 c6 40 8d 3f 30 b1 e9 3f 10 3f d7 3f 47 8e e6 3f
       1.1035392 1.8257198 1.681612 1.801217
000010 2f 45 92 3f 1f 04 d5 3f ac f6 b8 3f e1 58 bb 3f
       1.1427363 1.6641883 1.4450278 1.4636499
000020 ba 3f a5 3f 34 ac de 3f 6b 23 b1 3f 64 e4 ac 3f
       1.2910073 1.7396302 1.3838934 1.3507199
000030 4e 9e 65 3f 4f be b4 3f 38 b5 be 3f ac 33 b9 3f
       0.8969468 1.4120578 1.4899054 1.4468894
000040 65 0b ce 3f ce a2 d9 3f e2 b6 e8 3f 6d d6 ba 3f
       1.6097227 1.7002809 1.8180811 1.4596688
000050 77 a1 c0 3f df d1 c9 3f 37 23 f4 3f 6f e1 aa 3f
       1.5049275 1.5767173 1.9073247 1.3350047
000060 8b 09 c5 3f 7e 09 b1 3f 64 04 9c 3f 11 c3 ad 3f
       1.5393537 1.3831022 1.218884 1.3575155
000070 cf a6 de 3f 78 12 b7 3f b9 80 b6 3f 2d 97 9a 3f
       1.7394656 1.4302511 1.4258033 1.2077385
000080 63 a5 b6 3f 08 c2 a5 3f f1 07 d2 3f db cd b5 3f
       1.4269222 1.2949839 1.6408674 1.4203447
000090 b8 71 f2 3f a3 b4 9d 3f 2f 28 af 3f 2a 4f c5 3f
       1.8940954 1.2320751 1.3684138 1.5414784
0000a0 14 e5 ca 3f f5 38 a8 3f ca 99 a1 3f 72 14 e2 3f
       1.5851159 1.3142382 1.2625058 1.766249
0000b0 9f 49 de 3f 42 1e b6 3f 5d 7e ca 3f f3 8d c3 3f
       1.7366217 1.4227984 1.5819813 1.5277694
0000c0 c7 44 a5 3f 94 c4 85 3f 5f 85 b5 3f 6b 0a a1 3f
       1.2911614 1.0450616 1.4181327 1.2581304
0000d0 50 1e ad 3f 8c d9 cc 3f cc 48 ad 3f 6e 10 ba 3f
       1.3524876 1.600389 1.3537841 1.4536264
0000e0 e5 47 c4 3f 2b 9f c1 3f fe cb 98 3f 29 54 c1 3f
       1.533444 1.5126699 1.1937253 1.5103809
0000f0 48 68 93 3f 41 1f a2 3f 46 64 ce 3f 8e c1 ab 3f
       1.1516199 1.2665788 1.6124351 1.3418443
