model/cnn/8x8/4aw/other3/8.pt (torch_old, 478657 bytes, 15 tensors)

conv1.weight f4 [32, 4, 3, 3]
-0.04289767 -0.046108566 0.08406416 0.63791895 -0.1614236 -0.5721047 -0.18420182 0.1903497
0.16901763 -0.076319434 -0.17482312 0.13478683 0.50140697 -0.22219504 -0.3378193 0.10279733
0.1299285 0.3066956 0.042589057 0.15841667 -0.01219476 -0.1769371 0.03114296 0.043925464
0.0211164 -0.04986618 -0.00617432 -0.41950744 -0.33921462 -0.31764877 0.019434115 0.062158313
0.27111486 -0.0029061062 0.049964488 0.18926 0.9341581 0.09143687 0.21244094 0.16782835
0.038847785 -0.048163116 0.030207556 -0.17031984 -0.4478266 -0.84334695 0.3550749 -0.3015009
0.0626501 0.34703898 0.022437273 0.092039354 0.09922311 0.16241151 -0.16725291 0.043672837
0.0111049125 0.029007327 -0.03482961 -0.010838706 -0.050401796 0.09166099 0.105829686 -0.03134252
0.046752695 0.09770507 -0.051254813 0.08449174 -0.039854664 0.0074461587 0.034327388 0.029860808
0.084303245 0.7378764 0.065118276 0.1920724 -0.12408278 -0.04959104 0.08616068 0.40374786
0.07967506 -0.23495227 -0.089602925 -0.23835076 0.40926567 -0.05469182 0.45834577 -0.15138796
-0.20372023 -0.19131719 0.13137472 -0.09330212 0.09024357 0.0406447 0.084551014 0.03196195
0.050587054 -0.08519044 0.059424907 -0.041170694 0.18724774 -0.12999758 0.10961931 0.053443067
-0.2682249 0.040202666 0.11116386 -0.12412861 0.019697798 0.0798911 0.062967636 0.34028444
0.6362562 -0.01195671 0.5731844 0.36645094 -0.0072326646 0.0582886 0.13198309 0.028286036
-0.055471398 0.11545081 0.044965275 -0.40856263 0.052213844 0.107275315 0.052564062 -0.049917817
0.07040729 -0.17789385 -0.0928803 -0.0058659823 -0.069137365 -0.020874463 -0.030836817 -0.027615752
-0.14829391 -0.2060586 0.10106919 0.1039923 0.1549971 0.061587345 0.12647511 0.09796991
-0.14347616 -0.15842307 -0.11682031 -0.155017 0.025847144 -0.059734162 -0.4236983 0.6445168
-0.06734221 -0.11696847 -0.11535867 -0.18018463 0.076986596 0.13204773 0.06656555 0.041033577
0.017683605 0.0638885 0.18074231 -0.014359348 -0.028965479 0.06767455 -0.14211908 0.005151162
-0.13451296 0.02405362 0.08900536 -0.32614335 0.05643949 0.16981179 -0.40525824 0.07696229
0.12283916 -0.32567713 0.15075307 0.094167225 0.34515578 -0.42312473 -0.24875341 0.020970998
0.119403884 0.21959655 0.024014736 0.13674313 -0.17261527 -0.28771728 -0.20510106 0.065813296
-0.17071041 -0.030747544 -0.046723165 -0.06942538 0.0010527184 0.5366836 -0.059351947 0.025807524
-0.041110676 -0.120942175 -0.15444556 -0.021220502 -0.0159761 0.013853508 -0.21611421 -0.36518767
-0.47344232 -0.44749978 0.2822361 0.052329026 -0.062461544 0.24655195 0.06889448 0.13151418
-0.16578826 0.21203604 -0.055505324 -0.1660819 0.6408648 -0.24477714 0.145962 -0.09921403
-0.14684714 -0.11838107 -0.19961552 -0.2193391 0.59972614 -0.15671414 -0.26241803 -0.2113819
-0.13521093 -0.2292067 -0.060117144 0.046985812 -0.05083804 -0.38486844 -0.16109642 -0.03563407
0.0969699 0.015298613 0.08783563 0.064017154 0.1391948 0.113482796 0.005381759 -0.056135472
0.09554287 -0.055553414 -0.036895722 0.043901 0.22587654 -0.10253444 0.5312755 -0.06866674
00000000: 78b5 2fbd 56dc 3cbd d529 ac3d a84e 233f
00000010: 3a4c 25be 7475 12bf 679f 3cbe 08eb 423e
00000020: f512 2d3e 5d4d 9cbd d504 33be 8f05 0a3e
00000030: 355c 003f 1987 63be a7f6 acbe 6887 d23d
00000040: fa0b 053e 3507 9d3e dd71 2e3d fb37 223e
00000050: 88cc 47bc 002f 35be 851f ff3c 30eb 333d
00000060: 4dfc ac3c 7b40 4cbd f351 cabb aec9 d6be
00000070: 8aad adbe dca2 a2be 4b34 9f3c b799 7e3d
00000080: 91cf 8a3e 5f74 3ebb 90a7 4c3d 60cd 413e
00000090: fc24 6f3f 4143 bb3d 1e8a 593e 32db 2b3e
000000a0: db1e 1f3d b046 45bd d675 f73c 5368 2ebe
000000b0: 8749 e5be 96e5 57bf 61cc b53e 535e 9abe
000000c0: b24e 803d 18af b13e 5fce b73c 217f bc3d
000000d0: 7c35 cb3d 344f 263e 5944 2bbe 4ae2 323d
000000e0: 61f1 353c c6a0 ed3c 7ea9 0ebd d494 31bc
000000f0: 1d72 4ebd c2b8 bb3d 3cbd d83d 0461 00bd
00000100: c17f 3f3d 9919 c83d 91f0 51bd 010a ad3d
00000110: a53e 23bd e8fe f33b e09a 0c3d a79e f43c
00000120: 2ea7 ac3d 78e5 3c3f bb5c 853d a1ae 443e
00000130: 1d1f febd f91f 4bbd 0375 b03d 0ab8 ce3e
00000140: ae2c a33d 5497 70be bd81 b7bd 3912 74be
00000150: 458b d13e 8804 60bd 4cac ea3e 7205 1bbe
00000160: 099c 50be a7e8 43be 1887 063e 2f15 bfbd
00000170: 9fd1 b83d 0f7b 263d 1529 ad3d 89ea 023d
00000180: 5f34 4f3d 5378 aebd 8867 733d 9aa2 28bd
00000190: dfbd 3f3e 161e 05be 1780 e03d 1ee7 5a3d
000001a0: c654 89be 8dab 243d e1a9 e33d 2437 febd
000001b0: 475d a13c f29d a33d 2df5 803d c339 ae3e
000001c0: b0e1 223f 14e6 43bc 36bc 123f 759f bb3e
000001d0: fdff ecbb 07c0 6e3d 9326 073e 1eb8 e73c
000001e0: fa35 63bd 7971 ec3d 822d 383d 1f2f d1be
000001f0: 2fde 553d 29b3 db3d 6a4d 573d a076 4cbd
00000200: b231 903d ce29 36be 0738 bebd 6d37 c0bb
00000210: e497 8dbd ec00 abbc 7e9d fcbc 6e3a e2bc
00000220: 5cda 17be 0701 53be 5dfd ce3d eaf9 d43d
00000230: 8fb7 1e3e 0343 7c3d b182 013e 73a4 c83d
00000240: 6aeb 12be a839 22be 7d3f efbd c7bc 1ebe
00000250: 64bd d33c cfab 74bd fcee d8be 0eff 243f
00000260: b6ea 89bd 2a8d efbd 2b41 ecbd 5282 38be
00000270: 26ab 9d3d 8537 073e 8553 883d d312 283d
00000280: 35dd 903c f9d7 823d 8314 393e 7943 6bbc
00000290: 0349 edbc f498 8a3d aa87 11be 14cb a83b
000002a0: c4bd 09be 190c c53c 7148 b63d 43fc a6be
000002b0: 182d 673d 24e3 2d3e 027e cfbe 689e 9d3d
000002c0: 1993 fb3d 27bf a6be 035f 1a3e bfda c03d
000002d0: 42b8 b03e cea3 d8be 37b9 7ebe 5fcb ab3c
000002e0: 068a f43d ebdd 603e 8dba c43c 6406 0c3e
000002f0: 0fc2 30be ae4f 93be 0306 52be 1fc9 863d
00000300: b6ce 2ebe 46e2 fbbc ca60 3fbd e52e 8ebd
00000310: 5efb 893a 1964 093f 071b 73bd 4d6a d33c
00000320: ab63 28bd 88b0 f7bd fa26 1ebe 9ed6 adbc
00000330: 4fe0 82bc d3f9 623c 0b4d 5dbe e1f9 babe
00000340: 0867 f2be b11e e5be 4081 903e f656 563d
00000350: add7 7fbd 1d78 7c3e 8d18 8d3d a7ab 063e
00000360: 66c4 29be fa1f 593e 8d59 63bd 6011 2abe
00000370: b70f 243f dca6 7abe 1077 153e ba30 cbbd
00000380: 195f 16be c671 f2bd 0368 4cbe 6e9a 60be
00000390: a787 193f ac79 20be a85b 86be 7f74 58be
000003a0: bc74 0abe 29b5 6abe 653d 76bd 3274 403d
000003b0: 8c3b 50bd 7a0d c5be 76f6 24be 08f5 11bd
000003c0: 2898 c63d 09a7 7a3c 2be3 b33d 6d1b 833d
000003d0: 1589 0e3e ab69 e83d 7759 b03b 4fee 65bd
000003e0: fbab c33d fa8b 63bd f81f 17bd 89d1 333d
000003f0: 2e4c 673e 94fd d1bd ac01 083f 26a1 8cbd

conv1.bias f4 [32]
-0.015838446 -0.10409925 -0.28969753 -0.35931733 0.13416107 0.2614289 -0.3336474 -0.11339599
0.10145468 0.12702058 -0.15903679 -0.16928631 -0.39531395 -0.2669111 -0.09968405 -0.10274578
-0.091579944 -0.04142751 -0.07390309 0.28124896 -0.043472607 0.5139169 -0.16372412 -0.38089213
0.04661787 -0.061029714 -0.18544084 -0.19696862 -0.089439504 -0.16993827 -0.12671724 -0.22433738
00000000: a1bf 81bc fd31 d5bd 3c53 94be 71f8 b7be
00000010: 8561 093e 02da 853e d5d3 aabe 283c e8bd
00000020: 79c7 cf3d af11 023e 8ada 22be 6459 2dbe
00000030: 9766 cabe 92a8 88be 2727 ccbd 616c d2bd
00000040: 448e bbbd e5af 29bd 815a 97bd ddff 8f3e
00000050: 5510 32bd 0f90 033f 4ca7 27be 4b04 c3be
00000060: 61f2 3e3d 4bfa 79bd 34e4 3dbe 24b2 49be
00000070: 0f2c b7bd 4c04 2ebe 2ac2 01be b3b8 65be

conv2.weight f4 [64, 32, 3, 3]
0.4003561 -0.24187668 -0.013813906 -0.3222449 -0.1257725 0.1495175 -0.1965542 -0.088106684
-0.02776827 -0.31703278 -0.27346346 -0.10120878 -0.15326603 -0.11387426 -0.19225581 -0.123225436
0.16309695 -0.008980279 0.020321662 0.032235682 0.19229953 0.035349466 0.029953545 -0.13669531
-0.04069882 0.29600772 -0.11071094 0.04062019 -0.09106751 -0.1835595 0.11102332 -0.058822475
-0.2513367 -0.013493518 -0.1778516 -0.07542055 0.123720944 0.2196903 0.08741079 -0.12767181
-0.13937844 -0.093817204 -0.16405267 -0.07764566 0.026364254 0.24892293 0.23136938 -0.18009461
-0.26526016 -0.08418841 -0.19502045 0.07167318 0.032959532 -0.09881069 0.18190974 -0.048905846
0.032798965 0.060055792 -0.0035020006 -0.09405091 -0.1137975 -0.18077144 0.10064583 0.06315775
0.05709138 0.0017305207 -0.019474482 0.009381991 -0.17651543 0.1523861 -0.32667363 -0.23075996
-0.117620476 -0.17582516 0.12085341 -0.094120406 -0.018614903 0.07482989 0.1276351 0.29640654
0.055359524 -0.10997102 -0.17141204 0.11767253 -0.06649568 -0.033901207 -0.23808886 0.044063747
0.024608988 0.22539996 -0.12273646 0.14075 0.34884155 -0.009373682 -0.05558398 0.0492366
-0.074395016 0.10349332 0.20244628 0.21094063 0.0045093987 -0.37280276 0.05742125 0.037461307
-0.33836448 -0.039445385 -0.034238044 -0.44935584 -0.14593051 0.017636854 0.11594344 -0.16823798
-0.14997828 -0.035149485 -0.03541658 -0.14001438 -0.10662389 -0.3614068 0.04635045 -0.26688713
-0.07568771 -0.03818539 -0.03606151 -0.25258023 0.200738 -0.12161773 -0.1572059 0.19554707
0.020260343 -0.03319277 0.107346036 0.07349521 0.09806541 -0.1607295 0.019698156 0.06306648
0.050143704 -0.049453344 0.16577877 0.12014055 0.08711446 -0.14034508 -0.3576436 -0.07020218
-0.13273983 -0.10390437 -0.10961665 -0.095983945 0.11027468 -0.3613563 -0.068664044 0.0017494173
-0.2667161 0.14875309 0.05408732 0.014014551 -0.049047805 -0.10686314 0.10483102 -0.13091955
0.063606605 0.1610585 0.06690682 0.119804144 0.18651338 0.062423456 -0.33605054 -0.4640267
-0.39923346 -0.36709556 -0.027705772 0.08972552 0.10052819 -0.4016248 0.3952645 0.1504219
-0.10794869 0.12807122 0.15678775 -0.1892886 -0.30283055 0.24412502 -0.02039181 -0.050206907
0.13699289 -0.07182045 -0.2621035 -0.28318176 -0.2890792 0.15485571 0.099042475 -0.02772609
0.025551677 -0.038725737 -0.08854707 0.17758748 0.07209716 -0.03542949 -0.09641812 -0.31089228
-0.2823471 -0.2854807 -0.09120802 0.089730956 -0.12281373 -0.27084103 -0.23972599 0.09353835
0.030833378 -0.18078424 0.08282074 0.0413277 -0.11098073 0.14460209 -0.07095718 -0.06829971
-0.17826991 0.0961296 -0.14756913 0.14400755 0.08956039 -0.021626825 -0.14531364 0.20059854
0.114697516 0.0527795 0.27294555 -0.039539397 0.14965807 0.0457424 -0.35522625 -0.04630069
-0.13848603 -0.32288188 0.1414148 -0.4027527 -0.015229251 -0.40390888 -0.27439994 -0.19692178
-0.16929032 -0.25292203 -0.3373681 -0.08587736 -0.21051766 -0.12951411 -0.059858672 -0.14872058
0.0363948 0.05618355 0.19080798 -0.072717726 -0.39809546 0.1437618 -0.32779464 -0.076415695
00000000: 7afb cc3e 85ae 77be b953 62bc 49fd a4be
00000010: 82ca 00be 1e1b 193e 8145 49be 4771 b4bd
00000020: 487a e3bc 1f52 a2be 6703 8cbe 8d46 cfbd
00000030: c5f1 1cbe e836 e9bd b5de 44be 9e5d fcbd
00000040: e302 273e 0522 13bc 9d79 a63c 9009 043d
00000050: 2bea 443e 9aca 103d 2361 f53c dbf9 0bbe
00000060: ceb3 26bd 538e 973e 6bbc e2bd 5b61 263d
00000070: 9a81 babd 06f7 3bbe 3260 e33d d6ef 70bd
00000080: 34af 80be eb13 5dbc bb1e 36be 1776 9abd
00000090: 6861 fd3d 7ef6 603e 6e04 b33d 66bc 02be
000000a0: 39b9 0ebe 3c23 c0bd 6cfd 27be b004 9fbd
000000b0: d9f9 d73c a7e5 7e3e 18ec 6c3e b96a 38be
000000c0: 2ed0 87be f96a acbd 71b3 47be 63c9 923d
000000d0: 9300 073d 425d cabd 8c46 3a3e 7f51 48bd
000000e0: 3558 063d 10fd 753d d281 65bb c39d c0bd
000000f0: aa0e e9bd 261c 39be 671f ce3d da58 813d
00000100: a7d8 693d a4d2 e23a f388 9fbc ecb6 193c
00000110: 76c0 34be 1a0b 1c3e c441 a7be 574c 6cbe
00000120: 01e3 f0bd 830b 34be fe81 f73d 33c2 c0bd
00000130: 487e 98bc 6a40 993d c7b2 023e 99c2 973e
00000140: abc0 623d 7c38 e1bd a386 2fbe 4cfe f03d
00000150: e32e 88bd fedb 0abd 91cd 73be 307c 343d
00000160: ca98 c93c 3fcf 663e 415d fbbd c520 103e
00000170: 5c9b b23e 1294 19bc 07ac 63bd 51ac 493d
00000180: 6a5c 98bd 4ef4 d33d 144e 4f3e d200 583e
00000190: 94c3 933b 01e0 bebe 8b32 6b3d 0771 193d
000001a0: 1c3e adbe 7c91 21bd 313d 0cbd f811 e6be
000001b0: cf6e 15be 2a7b 903c c173 ed3d 9446 2cbe
000001c0: e893 19be e8f8 0fbd fa10 11bd ee5f 0fbe
000001d0: a05d dabd 500a b9be f8d9 3d3d 6ea5 88be
000001e0: 2802 9bbd 4968 1cbd 3cb5 13bd 3252 81be
000001f0: 438e 4d3e b712 f9bd 95fa 20be 7e3d 483e
00000200: 05f9 a53c 24f5 07bd 3dd8 db3d a884 963d
00000210: 85d6 c83d 4696 24be 075e a13c 0029 813d
00000220: 7c63 4d3d 978f 4abd e9c1 293e 400c f63d
00000230: 1169 b23d 9fb6 0fbe 101d b7be 29c6 8fbd
00000240: f3ec 07be d0cb d4bd b27e e0bd 3b93 c4bd
00000250: b1d7 e13d b103 b9be bc9f 8cbd b44c e53a
00000260: 038f 88be bb52 183e aa8a 5d3d 4a9d 653c
00000270: 5ae6 48bd 10db dabd a5b1 d63d c60f 06be
00000280: 2e44 823d 85ec 243e 7106 893d e05b f53d
00000290: 5dfd 3e3e bdaf 7f3d d10e acbe e894 edbe
000002a0: 5468 ccbe f3f3 bbbe 37f7 e2bc 03c2 b73d
000002b0: b9e1 cd3d c4a1 cdbe 1c60 ca3e 3308 1a3e
000002c0: 3414 ddbd 1a25 033e f88c 203e dfd4 41be
000002d0: 9b0c 9bbe e9fb 793e ba0c a7bc c2a5 4dbd
000002e0: dd47 0c3e 9a16 93bd 6e32 86be 33fd 90be
000002f0: 3002 94be 7f92 1e3e c8d6 ca3d d321 e3bc
00000300: c051 d13c e19e 1ebd 2b58 b5bd 7ed9 353e
00000310: ada7 933d 831e 11bd dd76 c5bd 462d 9fbe
00000320: cd8f 90be 872a 92be 45cb babd ddc4 b73d
00000330: c485 fbbd adab 8abe bb7a 75be 0991 bf3d
00000340: 4896 fc3c 811f 39be ec9d a93d 3c47 293d
00000350: dd49 e3bd 9212 143e ff51 91bd b8e0 8bbd
00000360: 638c 36be 99df c43d 5d1c 17be b776 133e
00000370: 706b b73d bd2a b1bc 19cd 14be b469 4d3e
00000380: 88e6 ea3d 512f 583d 85bf 8b3e 10f4 21bd
00000390: f73f 193e 625c 3b3d 37e0 b5be cba5 3dbd
000003a0: 48cf 0dbe c650 a5be 0bcf 103e 9a35 cebe
000003b0: 1c84 79bc 25cd cebe 267e 8cbe dda5 49be
000003c0: 715a 2dbe ff7e 81be 83bb acbe 78e0 afbd
000003d0: f191 57be 599f 04be 5e2e 75bd 354a 18be
000003e0: b712 153d b920 663d 2b63 433e 08ed 94bd
000003f0: 2bd3 cbbe 4b36 133e b3d4 a7be d57f 9cbd

conv2.bias f4 [64]
-0.13189614 0.03072519 -0.28124374 -0.14917904 -0.2637004 -0.19627568 -0.029096771 -0.23732293
-0.3390882 -0.079181165 -0.12999988 -0.18718967 -0.23571795 0.00051967544 -0.2982281 -0.17517988
-0.65381706 -0.004938912 -0.21216114 -0.23282444 -0.06900946 0.0004676391 -0.37996158 0.11124706
0.08697305 -0.11803909 -0.22797465 0.09877118 -0.097711615 -0.23643902 -0.03372324 -0.37662366
-0.08695319 -0.1754022 -0.14924699 -0.090452954 -0.470685 -0.36575392 -0.05375732 -0.100658424
-0.313712 -0.44250587 -0.38855785 -0.107465155 -0.48953214 -0.09632827 -0.21091686 -0.4777954
-0.03580401 -0.107665725 -0.17254183 0.082372434 -0.28525683 -0.039213806 -0.16849194 -0.038233154
-0.31619152 -0.21456459 -0.19717754 -0.07671261 -0.5124814 -0.2021306 -0.11159141 -0.13990848
00000000: c80f 07be 65b3 fb3c 2eff 8fbe 64c2 18be
00000010: bd03 87be 7efc 48be 5a5c eebc c804 73be
00000020: f89c adbe bc29 a2bd b01e 05be a6ae 3fbe
00000030: 0c60 71be d43a 083a 5bb1 98be 5b62 33be
00000040: 8e60 27bf 99d6 a1bb c540 59be 8869 6ebe
00000050: d554 8dbd 752d f539 538a c2be 80d5 e33d
00000060: ed1e b23d 7abe f1bd 3072 69be 8b48 ca3d
00000070: 071d c8bd 121d 72be 6121 0abd d1d4 c0be
00000080: 8414 b2bd a29c 33be 34d4 18be 663f b9bd
00000090: a0fd f0be 1944 bbbe a330 5cbd 0126 cebd
000000a0: dc9e a0be 2190 e2be 0ef1 c6be b116 dcbd
000000b0: f5a3 fabe c247 c5bd 97fa 57be 99a1 f4be
000000c0: 3aa7 12bd d97f dcbd ceae 30be e1b2 a83d
000000d0: 2f0d 92be a89e 20bd 2789 2cbe 5e9a 1cbd
000000e0: dbe3 a1be d2b6 5bbe e9e8 49be 801b 9dbd
000000f0: fb31 03bf 53fb 4ebe 0a8a e4bd 2b44 0fbe

conv3.weight f4 [128, 64, 3, 3]
0.1203707 -0.12924097 -0.35945928 0.059862226 -0.012596122 0.19954836 -0.04689737 -0.047222752
-0.13594134 -0.105868235 0.06834023 -0.09238363 0.05342122 0.032646377 0.15918235 0.13384427
0.23793037 -0.35027003 -0.030417727 -0.18917039 0.08534448 -0.061627675 0.19905703 0.28640544
-0.09718106 -0.15948911 -0.2883901 0.12958594 -0.037165746 -0.113130026 -0.053847913 0.10521019
-0.0002399759 -0.024856843 -0.16199937 -0.026946533 -0.041857105 0.11084883 0.031405233 0.09508362
0.023667509 -0.13776268 -0.025132027 0.092307694 -0.048247844 0.08499134 0.09056901 0.03509198
-0.3659096 0.17581037 -0.06693859 -0.07775038 -0.123935364 -0.07268269 0.05646627 0.1881047
-0.3189443 -0.16839056 -0.17339943 -0.043562666 0.052507684 -0.27715123 0.18680927 -0.03469272
0.005493005 -0.26642278 0.07797425 0.024436088 0.14316934 0.050240822 -0.24204905 -0.15902169
-0.10405344 0.03205427 0.018788122 -0.13422042 -0.05086746 0.19089437 0.17879541 0.00043390665
0.106430784 0.09012661 0.052704368 0.14318275 -0.08984787 -0.11444902 -0.32934764 -0.3414199
-0.14481033 -0.11245521 -0.06833098 0.1164347 0.023395957 -0.1479471 -0.037492763 0.056301616
0.033625737 -0.09171228 -0.22023916 -0.06336134 0.0873657 -0.036939926 -0.06917197 -0.12190945
-0.035013057 0.17138481 0.08792743 -0.02031083 -0.14393304 -0.0020571111 0.14467347 0.07598136
-0.23134267 0.011005115 0.12164649 0.0597939 0.09792611 -0.095072076 0.21989314 -0.03512498
0.24910721 0.13750574 0.0010307904 0.15337862 -0.009001259 -0.057627477 -0.20526235 -0.114548706
-0.12989046 -0.11685058 -0.31951043 0.13897625 -0.23930906 -0.2024757 0.037857275 0.28604484
-0.42094648 -0.19508795 -0.16694057 0.005847444 -0.2536895 0.2986965 0.16335878 0.2781463
-0.061674908 0.041823607 0.35977533 0.17378817 -0.019391185 0.07779423 0.019474348 0.23291913
-0.0022846272 -0.15195473 -0.13157652 -0.08302048 -0.19323382 -0.14479351 0.15405568 0.077102795
-0.0101377815 0.2269741 0.034001768 -0.11353041 0.022547392 0.14424944 -0.14384896 -0.11227013
-0.37081534 -0.041027192 -0.17584611 0.18720317 -0.13462476 0.22345531 0.18825008 -0.117801376
-0.027643913 -0.11081049 -0.3183621 0.12260047 -0.10159138 -0.21707793 0.051396754 -0.08222671
-0.14741182 -0.08466365 -0.2286885 -0.053131733 0.018765181 -0.11081479 -0.18407468 -0.34780303
0.017154446 0.05510149 0.1911094 -0.13596307 0.06498935 0.09998937 -0.149573 -0.17866547
-0.1328585 0.13372046 0.16891588 0.23184882 -0.32767993 -0.02027688 -0.042953618 0.068474166
-0.014596369 0.01705333 0.06625298 -0.25032645 -0.18373375 0.00990006 0.0020862971 -0.055600528
-0.19420278 -0.0735326 0.21043436 -0.0633764 -0.109181374 0.048779745 -0.054857194 -0.18637711
0.086110465 -0.06580286 -0.027574772 0.13840784 0.048653774 -0.17309776 0.30842182 0.0072471695
0.11714971 0.13857482 -0.10371711 0.07883578 0.022809546 -0.236454 -0.09704502 -0.10492667
0.028283613 -0.22416548 0.12682012 0.032966595 0.03801107 -0.15015212 -0.09293335 -0.23356755
-0.22206976 0.014276555 0.15637454 0.084598996 0.19564344 -0.19366896 -0.13737085 -0.06408248
00000000: ea84 f63d bf57 04be 0c0b b8be 1832 753d
00000010: f75f 4ebc 6856 4c3e 7517 40bd a56c 41bd
00000020: 3534 0bbe 72d1 d8bd f6f5 8b3d a133 bdbd
00000030: 36d0 5a3d 35b8 053d b300 233e 790e 093e
00000040: 05a4 733e 9856 b3be 992e f9bc e2b5 41be
00000050: 16c9 ae3d 4d6d 7cbd 9bd5 4b3e bca3 923e
00000060: dd06 c7bd 1d51 23be dea7 93be 2db2 043e
00000070: 1c3b 18bd b7b0 e7bd a18f 5cbd 7178 d73d
00000080: 0aa2 7bb9 94a0 cbbc 2ae3 25be fabe dcbc
00000090: 5b72 2bbd b604 e33d c6a2 003d 33bb c23d
000000a0: 5de2 c13c a911 0dbe aee1 cdbc d10b bd3d
000000b0: 889f 45bd f10f ae3d 3f7c b93d 9cbc 0f3d
000000c0: 8158 bbbe a207 343e 1917 89bd 973b 9fbd
000000d0: d3d1 fdbd aada 94bd 2d49 673d 859e 403e
000000e0: ab4c a3be 936e 2cbe 9f8f 31be c46e 32bd
000000f0: 4c12 573d c4e6 8dbe ee4a 3f3e f419 0ebd
00000100: aafe b33b 9168 88be f7b0 9f3d 312e c83c
00000110: fc9a 123e 52c9 4d3d b5db 77be 95d6 22be
00000120: f819 d5bd 574b 033d 8ce9 993c 1471 09be
00000130: 665a 50bd d079 433e 2516 373e f77d e339
00000140: 62f8 d93d 4d94 b83d 89e0 573d 809e 123e
00000150: 2902 b8bd 3f64 eabd 41a0 a8be 97ce aebe
00000160: 2949 14be eb4e e6bd 1df1 8bbd 5175 ee3d
00000170: e1a8 bf3c 727f 17be 0392 19bd 869c 663d
00000180: 24bb 093d a6d3 bbbd 6086 61be 97c3 81bd
00000190: caec b23d 524e 17bd 09aa 8dbd a9ab f9bd
000001a0: da69 0fbd 807f 2f3e 4c13 b43d e662 a6bc
000001b0: 2f63 13be 99d0 06bb 4825 143e 1e9c 9b3d
000001c0: 18e5 6cbe cc4e 343c cc21 f93d 73ea 743d
000001d0: 7c8d c83d 26b5 c2bd ab2b 613e 36df 0fbd
000001e0: f615 7f3e 4ece 0c3e 961b 873a 490f 1d3e
000001f0: 047a 13bc ca0a 6cbd 4b30 52be 8398 eabd
00000200: 0102 05be 5b4f efbd df96 a3be ca4f 0e3e
00000210: 6f0d 75be ca55 4fbe 3b10 1b3d 7874 923e
00000220: 4c86 d7be 23c5 47be 78f2 2abe ea9b bf3b
00000230: 97e3 81be bfee 983e 8647 273e 3169 8e3e
00000240: d49e 7cbd 3b4f 2b3d 7934 b83e 87f5 313e
00000250: 43da 9ebc 9552 9f3d ab88 9f3c 5a82 6e3e
00000260: afb9 15bb 059a 1bbe ffbb 06be a406 aabd
00000270: 16df 45be c044 14be c6c0 1d3e 12e8 9d3d
00000280: f018 26bc e66b 683e 7045 0b3d a282 e8bd
00000290: 4fb5 b83c 20b6 133e 244d 13be e2ed e5bd
000002a0: 82db bdbe 210c 28bd 0111 34be 30b2 3f3e
000002b0: 13db 09be 78d1 643e a1c4 403e d941 f1bd
000002c0: 7d75 e2bc 9cf0 e2bd 5b00 a3be f515 fb3d
000002d0: 240f d0bd ad49 5ebe 6785 523d 7a66 a8bd
000002e0: 20f3 16be 2364 adbd 512d 6abe a9a0 59bd
000002f0: 70b9 993c ddf2 e2bd 137e 3cbe 3d13 b2be
00000300: 7b87 8c3c 1ab2 613d 2fb2 433e e739 0bbe
00000310: 2319 853d 3ac7 cc3d aa29 19be 15f4 36be
00000320: 0f0c 08be 04ee 083e 49f8 2c3e c769 6d3e
00000330: aac5 a7be b31b a6bc 22f0 2fbd 2f3c 8c3d
00000340: 9c25 6fbc 6db3 8b3c a4af 873d ca2a 80be
00000350: b324 3cbe dc33 223c 42ba 083b 61bd 63bd
00000360: 18dd 46be 4398 96bd 1b7c 573e 7ccb 81bd
00000370: 7c9a dfbd 45cd 473d f0b1 60bd a4d9 3ebe
00000380: af5a b03d a6c3 86bd 7de4 e1bc c9ba 0d3e
00000390: 2e49 473d 8a40 31be 77e9 9d3e aa79 ed3b
000003a0: 30ec ef3d 8fe6 0d3e a369 d4bd a774 a13d
000003b0: 16db ba3c ff20 72be 8abf c6bd cbe3 d6bd
000003c0: 09b3 e73c a38b 65be 22dd 013e fb07 073d
000003d0: 7fb1 1b3d 7ac1 19be d753 bebd 552c 6fbe
000003e0: 4166 63be 36e8 693c a620 203e 3d42 ad3d
000003f0: c156 483e 2851 46be f2aa 0cbe ad3d 83bd

conv3.bias f4 [128]
-0.21078971 -0.19351168 -0.6231098 -0.18065713 -0.11196563 -0.2643259 -0.22933227 -0.49813494
-0.4553009 -0.2634694 -0.15577847 -0.21054201 -0.099407636 -0.28401643 -0.22927213 -0.14783233
-0.23260814 -0.24385417 -0.17185622 -0.23175251 -0.33942106 -0.22909968 -0.14019205 -0.0031313316
-0.2500491 -0.118205555 -0.12642187 -0.3070564 -0.21006602 -0.28696683 -0.2020291 -0.53019863
-0.3675484 -0.2690331 -0.3453341 -0.06081927 -0.25605983 -0.1646618 -0.37240234 -0.08626627
-0.35691735 -0.19612874 -0.14795223 -0.17373236 -0.26298267 -0.14597784 -0.35320288 -0.2866746
-0.3449585 -0.32641846 -0.046009053 -0.082428135 -0.1007236 -0.24231434 -0.28272182 -0.20353201
-0.14677805 -0.20979656 -0.1064277 -0.28827935 -0.34081396 -0.4734756 -0.29417044 -0.39592695
0.20950426 0.24541081 -0.17524628 -0.13230824 -0.22495848 -0.31158924 0.269636 -0.17051578
-0.15759441 -0.24094047 -0.38325575 -0.07351042 -0.30092058 -0.21583378 -0.19448337 -0.3227531
-0.17976625 -0.32557267 -0.16602287 -0.22612853 -0.11157156 -0.953602 -0.09519295 -0.06045173
-0.15361716 0.18057983 -0.18904099 0.13592076 0.08002338 -0.31553924 -0.27704823 -0.23624378
-0.23028325 -0.19946375 -0.2993443 -0.18485013 -0.89213324 -0.06900423 -0.29911345 -0.3650073
-0.18294519 -0.29987225 -0.35506797 -0.39175442 -0.0679658 -0.4775576 -0.26087195 -0.239685
-0.11974981 -0.42225227 -0.15783182 0.019899238 -0.10736785 -0.21110167 -0.33616957 -0.76676255
-0.2834557 -0.27706677 -0.17432457 -0.41216427 -0.36754036 -0.14198284 -0.25131708 -0.41657045
00000000: 42d9 57be ed27 46be 2084 1fbf 2ffe 38be
00000010: 3c4e e5bd b955 87be 14d6 6abe 8b0b ffbe
00000020: 331d e9be 76e5 86be 6484 1fbe 5398 57be
00000030: 3b96 cbbd 9a6a 91be 50c6 6abe 5c61 17be
00000040: d430 6ebe e8b4 79be 14fb 2fbe 8850 6dbe
00000050: 99c8 adbe 1b99 6abe 818e 0fbe 0737 4dbb
00000060: 7006 80be c115 f2bd bc74 01be 7f36 9dbe
00000070: 8c1b 57be 51ed 92be b7e0 4ebe 19bb 07bf
00000080: 4e2f bcbe b5be 89be a2cf b0be a01d 79bd
00000090: 461a 83be 1a9d 28be 85ab bebe 5fac b0bd
000000a0: dfbd b6be f9d5 48be ca80 17be e5e6 31be
000000b0: aaa5 86be 377b 15be 02d7 b4be 03c7 92be
000000c0: 679e b0be 5220 a7be fd73 3cbd 15d0 a8bd
000000d0: 2d48 cebd 4021 78be eac0 90be b26a 50be
000000e0: fc4c 16be e9d4 56be c4f6 d9bd 5a99 93be
000000f0: 2b7f aebe 656b f2be 829d 96be f0b6 cabe
00000100: 4988 563e f94c 7b3e c373 33be d07b 07be
00000110: 845b 66be a088 9fbe bb0d 8a3e b09b 2ebe
00000120: 6e60 21be 19b9 76be 193a c4be a28c 96bd
00000130: 4312 9abe 8803 5dbe a626 47be e53f a5be
00000140: a514 38be 76b1 a6be e601 2abe 3d8e 67be
00000150: a17f e4bd 431f 74bf 85f4 c2bd 3c9c 77bd
00000160: d14d 1dbe ebe9 383e f693 41be d02e 0b3e
00000170: 4ce3 a33d 5c8e a1be 44d9 8dbe e4e9 71be
00000180: 5fcf 6bbe 3a40 4cbe a843 99be 5a49 3dbe
00000190: d862 64bf 1752 8dbd 6625 99be 3de2 babe
000001a0: fc55 3bbe db88 99be 78cb b5be 0994 c8be
000001b0: a731 8bbd 6e82 f4be 0291 85be fc6f 75be
000001c0: 633f f5bd 7331 d8be aa9e 21be ba03 a33c
000001d0: ade3 dbbd 092b 58be 6b1e acbe 8d4a 44bf
000001e0: 1b21 91be b2db 8dbe 2482 32be 3207 d3be
000001f0: 402e bcbe f363 11be a2ac 80be b948 d5be

p_conv1.weight f4 [4, 128, 1, 1]
-0.009340536 -0.030211303 -0.028221939 0.07459261 -0.013461089 0.022705209 0.038873162 0.009868512
-0.03622084 0.014214026 -0.041058082 -0.08586782 -0.03372317 0.034654498 0.019763945 0.029325407
-0.002063681 0.03058122 -0.020747256 -0.023906114 -0.03580011 -0.039387297 -0.007987107 -0.007903634
0.023924995 -0.08239832 0.0023636806 -0.054662388 -0.0057561253 -0.012631959 0.017479574 0.007985315
0.05781805 -0.1308251 -0.01815032 -0.0014582375 -0.020104196 0.01866136 0.02743389 0.028618654
-0.0029133814 0.008051036 -0.05087673 -0.08594245 0.0014594067 0.033969622 0.013611568 -0.017504573
0.0074011725 -0.032825038 -0.032989 -0.028872225 -0.0296088 0.0031066686 0.011683515 0.020382397
-0.0397605 -0.010737289 0.06497991 -0.027725926 0.07438722 -0.01087551 0.0022766679 0.0133290235
-0.44306722 -0.07574249 0.0074692694 -0.022756984 -0.058061037 0.015098492 0.017413486 -0.02140517
0.023522519 0.045675054 -0.010252466 0.010197079 -0.046407178 0.01709732 0.07863862 0.0147661185
0.017710088 0.043707334 0.042573992 -0.013199976 -0.031754225 0.35768023 0.022170786 -0.03845228
-0.016646221 0.25650904 -0.039725572 0.028873421 0.0011361421 -0.042715233 -0.0032532578 0.010639813
0.01444703 -0.040028654 0.0018056842 -0.006928288 1.0103259 -0.035356242 -0.027005795 -0.0064974907
0.014803616 -0.057841063 0.0030307816 -0.0147504965 0.010865805 0.0013612888 -0.06873659 -0.056081522
-0.014145382 -0.004012515 -0.0043455595 -0.01646396 -0.022821274 -0.00044127746 -0.074032255 0.07840516
-0.015422616 -0.07438465 -0.02145748 0.0032046721 0.088288054 0.012627768 0.033443104 0.031216426
-0.028339302 -0.024436804 -0.25912562 0.12670863 0.001556615 -0.052527014 0.015103388 -0.0481705
-0.08335373 0.011959623 0.0065838103 -0.17089044 0.026139952 -0.010329227 -0.008174121 -0.011696161
-0.0054453053 -0.021366674 -0.01192449 -0.02471388 0.020858796 0.004701689 -0.004395086 0.023365607
-0.013717114 0.03513985 -0.037182894 0.019978972 -0.027513342 0.016814733 -0.028258631 0.06826732
0.060233776 -0.02502885 -0.053533368 0.04935693 -0.012610245 0.014566697 0.012925441 -0.0021706023
-0.014193444 -0.040132936 -0.03891963 -0.0196242 -0.016988533 -0.01100052 -0.0054281047 0.019390766
0.05391734 -0.0070785093 0.005462035 -0.0032349317 -0.018379498 0.021488527 0.032321554 -0.021135096
0.010282499 0.011998917 -0.045393247 -0.04445578 -0.057337597 0.02695208 -0.014150522 -0.010979039
0.33051658 -0.20466053 -0.035480406 -0.04205689 -0.023130463 -0.0043215044 0.45786977 -0.001584573
0.057220273 -0.006112549 -0.054040197 0.0025437358 0.0048686755 0.035675466 0.048232708 -0.046623025
0.032758053 -0.06281057 0.008221871 -0.054386 -0.02781285 0.019523315 0.0036983187 0.019639615
-0.02906791 0.14833291 -0.028121004 0.018536666 0.0051235887 0.023960356 0.010968999 -0.0018045524
-0.023413386 0.0018316704 0.028847633 -0.04567559 -0.11386131 -0.006318569 0.05126071 -0.060415104
0.041521758 -0.00037746798 -0.054543447 -0.08107656 0.01923447 -0.05073884 -0.041975223 -0.0018593136
-0.0016973034 -0.02540853 0.039136518 -0.006041426 -0.052021835 -0.021020776 0.016444854 0.06066526
0.037708677 0.025606811 -0.0025278437 -0.0039038467 -0.017092746 0.029955845 0.18077637 0.03380384
00000000: 0c09 19bc b27d f7bc b231 e7bc 03c4 983d
00000010: e68b 5cbc 4600 ba3c 7739 1f3d 8aaf 213c
00000020: 4e5c 14bd f2e1 683c 852c 28bd 78db afbd
00000030: 4f21 0abd e0f1 0d3d ffe7 a13c d63b f03c
00000040: d23e 07bb 7785 fa3c 26f6 a9bc c1d6 c3bc
00000050: 23a3 12bd 9354 21bd 5bdc 02bc 3e7e 01bc
00000060: 5afe c33c 73c0 a8bd fbe7 1a3b abe5 5fbd
00000070: e19d bcbb 47f6 4ebc 5331 8f3c d7d4 023c
00000080: 9fd2 6c3d 04f7 05be fbaf 94bc 5522 bfba
00000090: 8eb1 a4bc b5df 983c 0abd e03c ab71 ea3c
000000a0: 6eee 3ebb 7ee8 033c 1e64 50bd 9802 b0bd
000000b0: 9049 bf3a bb23 0b3d 0e03 5f3c c065 8fbc
000000c0: 8985 f23b 8c73 06bd 791f 07bd 7285 ecbc
000000d0: 278e f2bc 4099 4b3b 376c 3f3c fcf8 a63c
000000e0: e8db 22bd 74eb 2fbc 3014 853d 7b21 e3bc
000000f0: 5458 983d 322f 32bc 2634 153b fa61 5a3c
00000100: b5d9 e2be e11e 9bbd c6c0 f43b db6c babc
00000110: 69d1 6dbd aa5f 773c baa6 8e3c e559 afbc
00000120: 4cb2 c03c c415 3b3d f6f9 27bc a611 273c
00000130: 7415 3ebd ae0f 8c3c 490d a13d 97ed 713c
00000140: bf14 913c 7606 333d 1162 2e3d b644 58bc
00000150: b810 02bd dd21 b73e 829f b53c 2380 1dbd
00000160: a85d 88bc 2755 833e 48b7 22bd f487 ec3c
00000170: 9aea 943a 2bf6 2ebd 9c34 55bb 9c52 2e3c
00000180: 3cb3 6c3c 16f5 23bd b5ac ec3a b106 e3bb
00000190: 5c52 813f b5d1 10bd 423b ddbc e7e8 d4bb
000001a0: de8a 723c c0ea 6cbd 14a0 463b 11ac 71bc
000001b0: 7d06 323c 466d b23a c5c5 8cbd bdb5 65bd
000001c0: 08c2 67bc 6a7b 83bb 3265 8ebb 6ddf 86bc
000001d0: aef3 babc 425b e7b9 399e 97bd e292 a03d
000001e0: 24af 7cbc fb56 98bd 99c7 afbc 7a05 523b
000001f0: 5ed0 b43d b3e4 4e3c a3fb 083d 97b9 ff3c
00000200: d327 e8bc b12f c8bc 1dac 84be e8bf 013e
00000210: 5507 cc3a 9126 57bd 3374 773c 6e4e 45bd
00000220: 5cb5 aabd 4bf2 433c 01bd d73b e7fd 2ebe
00000230: 7423 d63c eb3b 29bc c0ec 05bc 41a1 3fbc
00000240: 886e b2bb 2a09 afbc f05e 43bc c374 cabc
00000250: 11e0 aa3c a010 9a3b a704 90bb 3b69 bf3c
00000260: bfbd 60bc ceee 0f3d 174d 18bd f1aa a33c
00000270: a963 e1bc 0dbf 893c a57e e7bc bdcf 8b3d
00000280: b1b7 763d 4e09 cdbc ce45 5bbd 7e2a 4a3d
00000290: 339b 4ebc 28a9 6e3c 3bc5 533c aa40 0ebb
000002a0: 9e8b 68bc 6f62 24bd 316a 1fbd eec2 a0bc
000002b0: 892b 8bbc 863b 34bc 3ede b1bb 62d9 9e3c
000002c0: 6ed8 5c3d d7f2 e7bb dffa b23b 2601 54bb
000002d0: 9a90 96bc b508 b03c 9b63 043d 8223 adbc
000002e0: ed77 283c 1b97 443c 45ee 39bd 4417 36bd
000002f0: d4da 6abd 9cca dc3c 97d7 67bc 6de1 33bc
00000300: 7839 a93e 8892 51be e753 11bd d843 2cbd
00000310: 197c bdbc 689b 8dbb e86d ea3e 72b1 cfba
00000320: ce5f 6a3d c74b c8bb 4159 5dbd ceb4 263b
00000330: 6989 9f3b 7020 123d a98f 453d c9f7 3ebd
00000340: 4f2d 063d d4a2 80bd 07b5 063c dbc3 5ebd
00000350: c6d7 e3bc 5cef 9f3c 7e5f 723b 42e3 a03c
00000360: d31f eebc 95e4 173e 055e e6bc 35da 973c
00000370: c7e3 a73b 8248 c43c 51b7 333c bb86 ecba
00000380: 6ecd bfbc a914 f03a df51 ec3c 5416 3bbd
00000390: 1e30 e9bd 000c cfbb c0f6 513d d475 77bd
000003a0: b812 2a3d e5e6 c5b9 f368 5fbd 780b a6bd
000003b0: 9b91 9d3c 88d3 4fbd 36ee 2bbd 36b4 f3ba
000003c0: 0d78 deba 8d25 d0bc 9d4d 203d 28f7 c5bb
000003d0: d914 55bd c333 acbc 5cb7 863c 237c 783d
000003e0: 6a74 1a3d 60c5 d13c 2eaa 25bb aed7 7fbb
000003f0: 1606 8cbc f665 f53c 711d 393e e575 0a3d

p_conv1.bias f4 [4]
0.2018201 0.15453736 -0.13570078 0.21878146
00000000: eea9 4e3e 0b3f 1e3e 25f5 0abe 3f08 603e

p_fc1.weight f4 [64, 256]
-0.054970898 -0.014897963 0.009199466 0.053629156 -0.020272085 -0.029483832 -0.09501125 -0.011664193
0.07401994 -0.048273176 0.03113144 0.04808013 0.08264105 0.12745813 -0.009970553 0.03598529
-0.0037739861 -0.022025073 0.037894584 0.06169786 -0.011705015 0.06686683 -0.019315941 0.09182541
0.07152588 -0.049221274 0.067117564 0.006706202 0.07200395 0.04482656 0.05084856 0.028923452
0.057306454 -0.104095615 0.21083608 0.024779007 0.089245 0.026657943 0.0057819565 0.0672825
0.17764309 0.33323357 -0.107611015 -0.018580535 -0.0025960724 -0.045810144 -0.055051062 0.056364663
-1.1913097 0.1566014 0.043075338 0.103157505 -0.020822942 0.076466694 -0.056598753 -0.016274504
0.022534098 -0.039829656 -0.11883138 -0.010141675 0.008598624 0.00065880234 0.004155492 0.012073819
-0.011706137 0.03154809 -0.022568874 -0.0709666 0.03211685 0.045827117 0.02723331 0.0139961215
-0.002294853 -0.016935635 0.011125088 -0.045448296 0.0031008297 0.022584293 0.009642093 0.0054162927
-0.05552335 -0.046623472 -0.12508988 -0.08384548 -0.09277296 0.016030258 -0.07787733 -0.021850713
-0.07052038 0.031901155 -0.027515585 -0.17236969 -0.038624234 0.026142567 -0.09790774 -0.021860491
0.036770977 0.017374907 -0.12873915 -0.10794436 -0.04341155 -0.0027113927 -0.00919711 -0.0019317556
0.07448087 0.13807349 -0.16033168 -0.1034458 -0.0743184 0.03316731 -0.009984354 0.0005631946
0.3549326 -0.21890286 -0.13809016 0.1477552 -0.0039620716 -0.01718052 0.04263368 -0.009811286
-0.12881318 -0.22908199 -0.10626085 -0.10665152 0.054189716 0.05982818 -0.034264144 -0.023396866
0.022020092 0.0038542543 0.013534653 0.03396689 0.04403756 0.100137725 0.0499194 -0.0106828995
-0.027181145 0.005946716 0.046326563 -0.049611516 0.035019793 -0.018716227 0.030060628 -0.018536884
-0.02947377 0.015524032 0.02955057 0.086301394 0.018232305 -0.025432803 0.029538514 0.016704448
-0.05225399 -0.039399862 0.039433163 0.041148227 0.020641167 0.027395083 0.005890874 -0.010471245
-0.030134616 0.035360996 -0.025034353 -0.04357897 -0.090449154 0.055939537 0.053070974 0.016934708
0.06780339 0.032658692 -0.011696616 0.20696296 -0.038301047 0.08395252 0.07936064 0.042142607
0.18481761 0.28592688 0.34598726 0.018909477 -0.08013212 -0.063931234 0.011326819 0.025816228
0.15809382 0.12505528 -0.03049021 -0.056882933 0.01458409 -0.069421105 0.0043657394 -0.008736298
0.02851366 0.061528657 -0.0033282896 0.013672122 0.021715386 -0.036336 -0.046935212 -0.05827255
0.040856913 0.058915585 0.009201769 -0.02559819 -0.06421032 -0.116491005 -0.008148015 -0.01038169
0.0014016903 -0.013872685 -0.029376462 -0.021454528 -0.065957114 0.03167076 -0.011030021 -0.019520648
0.039358556 -0.008601928 -0.07053602 -0.19237904 -0.035190996 -0.16140126 -0.022826003 -0.023019893
-0.09288411 0.09535731 -0.09195463 -0.25599885 -0.1744011 -0.111608826 -0.10957021 -0.08102651
-0.12645248 0.124424115 -0.3074816 -0.02441831 -0.091614865 -0.083256535 -0.016195467 -0.04190319
-0.08957737 -0.3579568 0.08525596 -0.042969946 -0.013158329 -0.03691288 -0.038192894 0.0040885904
-0.27422518 0.24387038 0.10499554 0.07165017 -0.06437113 -0.043056 0.0034799438 0.04129111
00000000: 2a29 61bd 9616 74bc 5bb9 163c 3faa 5b3d
00000010: a511 a6bc 1488 f1bc 4295 c2bd 2c1b 3fbc
00000020: c497 973d 18ba 45bd 5d07 ff3c acef 443d
00000030: b63f a93d 6284 023e 885b 23bc 5065 133d
00000040: fb54 77bb ed6d b4bc 5a37 1b3d e5b6 7c3d
00000050: 64c6 3fbc 7af1 883d 773c 9ebc f60e bc3d
00000060: 297c 923d 3f9c 49bd ef74 893d b3bf db3b
00000070: cf76 933d 0e9c 373d 9446 503d e0f0 ec3c
00000080: 2cba 6a3d 1530 d5bd 6ae5 573e 58fd ca3c
00000090: 15c6 b63d c261 da3c 9176 bd3b 68cb 893d
000000a0: 12e8 353e 979d aa3e 2a63 dcbd 3536 98bc
000000b0: de22 2abb 6ba3 3bbd 397d 61bd a2de 663d
000000c0: d67c 98bf 1e5c 203e c46f 303d 3e44 d33d
000000d0: e094 aabc 929a 9c3d 18d4 67bd 1c52 85bc
000000e0: 6e99 b83c 6c24 23bd de5d f3bd 4529 26bc
000000f0: 3ee1 0c3c 7ab3 2c3a cb2a 883b 44d1 453c
00000100: 19cb 3fbc 9238 013d 5ce2 b8bc f056 91bd
00000110: f58c 033d 37b5 3b3d 6418 df3c fd4f 653c
00000120: 3f65 16bb 9abc 8abc 0046 363c fe27 3abd
00000130: 4a37 4b3b b202 b93c dff9 1d3c 287b b13b
00000140: 746c 63bd 41f8 3ebd 9017 00be 2eb7 abbd
00000150: c0ff bdbd e351 833c 267e 9fbd 4400 b3bc
00000160: fd6c 90bd c9aa 023d 5d68 e1bc ae81 30be
00000170: 7234 1ebd f028 d63c da83 c8bd c614 b3bc
00000180: 2a9d 163d d255 8e3c 32d4 03be ef11 ddbd
00000190: 4fd0 31bd 9fb1 31bb 7aaf 16bc f632 fdba
000001a0: 6d89 983d 2363 0d3e fd2d 24be 64db d3bd
000001b0: 3f34 98bd 72da 073d 6a95 23bc 5aa3 133a
000001c0: bab9 b53e 1228 60be 8267 0dbe 244d 173e
000001d0: 44d4 81bb 29be 8cbc a7a0 2e3d 84bf 20bc
000001e0: 9ae7 03be 7894 6abe 4a9f d9bd 1d6c dabd
000001f0: 09f6 5d3d 650e 753d 8f58 0cbd c9aa bfbc
00000200: 7b63 b43c a897 7c3b 73c0 5d3c de20 0b3d
00000210: ba60 343d 0215 cd3d 4978 4c3d 5407 2fbc
00000220: feaa debc abdc c23b ecc0 3d3d 7235 4bbd
00000230: ea70 0f3d c652 99bc b541 f63c aada 97bc
00000240: fa72 f1bc 8258 7e3c 0914 f23c c9be b03d
00000250: ea5b 953c 7458 d0bc c1fa f13c c4d7 883c
00000260: 4808 56bd c061 21bd ab84 213d 0b8b 283d
00000270: aa17 a93c a76b e03c 3c08 c13b 968f 2bbc
00000280: dfdc f6bc b1d6 103d d814 cdbc dd7f 32bd
00000290: 683d b9bd db20 653d f360 593d a8ba 8a3c
000002a0: 81dc 8a3d 1fc5 053d 2aa3 3fbc 19ee 533e
000002b0: 8fe1 1cbd 4cef ab3d d587 a23d ba9d 2c3d
000002c0: d440 3d3e 0265 923e 3e25 b13e 0ce8 9a3c
000002d0: 4f1c a4bd 61ee 82bd 1f94 393c 8e7c d33c
000002e0: 59e3 213e 7e0e 003e 9bc6 f9bc 14fe 68bd
000002f0: 1bf2 6e3c a72c 8ebd 7a0e 8f3b b122 0fbc
00000300: 7b95 e93c 7905 7c3d 6f1f 5abb 0901 603c
00000310: 77e4 b13c 0fd5 14bd 233f 40bd 33af 6ebd
00000320: 9459 273d 7851 713d 04c3 163c 4cb3 d1bc
00000330: b380 83bd d692 eebd 407f 05bc f717 2abc
00000340: ecb8 b73a 424a 63bc e8a6 f0bc 68c1 afbc
00000350: 8614 87bd 33b9 013d 43b7 34bc c4e9 9fbc
00000360: 7036 213d 1aef 0cbc 3075 90bd 03ff 44be
00000370: 6f24 10bd 5f46 25be 99fd babc 3794 bcbc
00000380: 063a bebd b14a c33d b652 bcbd 4812 83be
00000390: 3496 32be 2b93 e4bd 5966 e0bd 3af1 a5bd
000003a0: c27c 01be 12d2 fe3d 3a6e 9dbe e808 c8bc
000003b0: 93a0 bbbd 6782 aabd 5bac 84bc aea2 2bbd
000003c0: 5774 b7bd 1d46 b7be ad9a ae3d 4101 30bd
000003d0: 0896 57bc f631 17bd 2770 1cbd 95f9 853b
000003e0: 3e67 8cbe 28b9 793e e707 d73d 53bd 923d
000003f0: 03d5 83bd 7d5b 30bd c50f 643b de20 293d

p_fc1.bias f4 [64]
-0.021683032 -0.0805666 -0.05224287 -0.11511496 -0.14594088 -0.14215282 -0.060484927 -0.045491602
-0.040356394 -0.12880297 0.01801042 0.02037869 -0.026822519 -0.06562268 -0.13114378 -0.05031668
-0.08822765 -0.008910349 0.120665826 0.25038314 0.22048064 0.06580874 -0.048919503 -0.01968638
-0.09661525 -0.034536723 0.23568775 0.09936178 0.10273816 0.18509145 -0.063776456 -0.015242058
-0.10881181 -0.024788436 0.18719094 0.08233789 0.11923928 0.21822189 -0.012070895 -0.007711875
-0.104822315 -0.056421816 0.042653374 0.14602005 0.16153342 0.13238934 0.031623673 0.029306602
-0.08053784 -0.1512733 0.005144155 0.049290385 -0.025840083 0.018705769 -0.12192238 0.026161969
-0.02465823 -0.08559482 -0.07759105 -0.09508616 -0.055929594 -0.048988752 -0.023532515 0.13596353
00000000: 9da0 b1bc 1a00 a5bd 9ffc 55bd 64c1 ebbd
00000010: 8771 15be 8290 11be 0bbf 77bd 6755 3abd
00000020: bf4c 25bd ede4 03be 978a 933c 36f1 a63c
00000030: e6ba dbbc 2f65 86bd 8e4a 06be dd18 4ebd
00000040: b3b0 b4bd b6fc 11bc a51f f73d 3832 803e
00000050: adc5 613e bcc6 863d d15f 48bd 5545 a1bc
00000060: 37de c5bd 6176 0dbd 2158 713e 307e cb3d
00000070: 6268 d23d 9d88 3d3e 3b9d 82bd d3b9 79bc
00000080: bad8 debd 1e11 cbbc fbae 3f3e c5a0 a83d
00000090: b933 f43d 8f75 5f3e 01c5 45bc e5b3 fcbb
000000a0: 15ad d6bd 901a 67bd 4eb5 2e3d 4886 153e
000000b0: 0469 253e 1291 073e d387 013d 6614 f03c
000000c0: 06f1 a4bd 63e7 1abe 4d90 a83b b7e4 493d
000000d0: 95ae d3bc d73c 993c 71b2 f9bd a051 d63c
000000e0: 0e00 cabc 564c afbd 0ee8 9ebd 88bc c2bd
000000f0: 6e16 65bd 6ea8 48bd 43c7 c0bc 063a 0b3e

value_conv1.weight f4 [2, 128, 1, 1]
-0.7300282 -0.8178396 0.23595327 0.0448331 0.0999216 0.13572995 -0.3553426 0.08988019
0.1834907 0.12140045 -0.6891069 -0.09597671 0.17408915 0.2519522 0.06199057 -0.22861585
-0.48405653 0.26686215 0.054120243 -0.86585915 -0.6586093 0.1557393 -0.7637007 -0.95822895
0.0085673295 -0.73594254 0.0972727 -0.72441274 0.107114196 -0.55464125 -0.041591812 0.35987988
0.21633732 -0.6621139 -0.71963215 0.040626265 0.08392955 0.048800595 0.16731092 0.11242618
0.2019459 -0.7057599 0.28523916 -0.7448898 0.13794726 0.050665926 0.17383717 -0.75103474
-0.7341405 0.35779127 -0.13704869 -0.12293775 -0.06548347 0.13121884 -0.8388947 -0.77901906
-0.05130591 -0.68333685 0.009913784 -0.99005586 0.17074162 0.22990246 -0.68114525 -0.493908
0.031932592 -0.023845822 -0.0714386 -0.55390143 -0.63858813 0.2257961 0.029809048 -0.7037682
-0.8065876 0.2284494 0.36170813 0.10839291 0.080408014 -0.8861462 0.21736032 0.15776575
-0.294304 -0.22676334 0.008785264 0.2207594 -0.09017366 0.335626 0.026676405 -0.40669343
0.069333695 0.015410091 -0.095928155 0.010284486 -0.088505395 0.19919108 -0.7284137 0.12646969
-0.5764657 0.0840742 0.06567377 -0.50577736 -0.063445486 -0.6122134 -0.79693 0.3051852
0.09105614 0.10873666 -0.9047248 0.3342584 -0.75069666 -0.53192806 -0.9197028 -0.9349737
0.022924162 -0.2916659 0.052795503 0.038118944 -0.20906587 -0.5123826 -0.7991257 0.07666102
-0.724737 0.2420476 -0.42047915 0.30543897 0.2558915 -0.4529721 -0.38289034 -0.6763324
0.07644388 -0.13531518 0.33456734 0.24060842 -0.8877258 -0.83854437 -0.7008909 0.3689896
0.1441562 -0.7974136 0.028298447 -0.6577194 -0.36179018 -0.6176906 -0.75420135 -0.8223067
0.06826192 -0.44839174 -0.8160699 0.010481112 0.11500872 -0.5030265 -0.016081247 -0.010950059
-0.89959025 -0.032544952 -0.5839706 -0.09030533 -0.6900451 0.017138446 -0.6304444 0.28843543
-0.24207778 -0.6137206 0.108715855 0.023381343 -0.74391073 -0.5040143 0.31046787 -0.82249886
-0.5292755 -0.2105991 0.27478185 0.07907473 -0.9349435 -0.82632893 0.30628997 0.11182572
0.33197242 0.16097026 -0.6285293 -0.7467093 0.1346127 0.16011007 -0.048326757 0.04366898
-0.43516076 0.16023478 -0.55885243 0.0727811 0.28254557 0.29906893 0.044907168 0.107059844
0.026665991 0.023305388 -0.6950094 -0.06776276 0.02358452 0.096782535 -0.0015005737 0.13567385
0.044023525 0.26870984 0.051843572 -0.52599615 -0.9030976 0.16066365 -0.8200663 -0.79417646
0.11978087 0.25206283 -0.8972679 0.35192028 -0.739374 0.551842 -0.69126296 -0.1828318
-0.7934576 0.020922415 -0.8914682 -0.038039364 -0.6602093 -0.5730569 0.15425886 -0.7709622
-0.26898456 -0.8582538 -0.79754555 -0.6288429 -0.06259876 0.032726288 0.019142915 0.368598
-0.44061062 -0.8172239 -0.26888877 0.26765272 0.020235848 0.18279348 0.06305883 0.1062005
-0.654279 -0.18571924 -0.3046908 -0.7500223 0.04086793 -0.00024344066 0.16523589 0.504882
0.18187794 -0.6280955 -0.57402194 0.18746217 0.42940286 0.11237014 0.008226986 0.075767815
00000000: 21e3 3abf f05d 51bf bc9d 713e eaa2 373d
00000010: b2a3 cc3d cbfc 0a3e 77ef b5be 1b13 b83d
00000020: fce4 3b3e cda0 f83d 4f69 30bf 708f c4bd
00000030: 6d44 323e e1ff 803e d3e9 7d3d 461a 6abe
00000040: 42d6 f7be 28a2 883e 30ad 5d3d f2a8 5dbf
00000050: 9e9a 28bf 207a 1f3e e481 43bf 7e4e 75bf
00000060: fc5d 0c3c bb66 3cbf e936 c73d 1d73 39bf
00000070: b05e db3d f8fc 0dbf 2d5c 2abd 2d42 b83e
00000080: 8887 5d3e 4c80 29bf d039 38bf ba67 263d
00000090: 42e3 ab3d 22e3 473d 8e53 2b3e b23f e63d
000000a0: e8ca 4e3e aeac 34bf de0a 923e 19b1 3ebf
000000b0: 0c42 0d3e 1387 4f3d 5f02 323e d043 40bf
000000c0: a2f0 3bbf 6b30 b73e 7e56 0cbe c9c6 fbbd
000000d0: 331c 86bd 3b5e 063e cec1 56bf cb6d 47bf
000000e0: 2526 52bd 2aef 2ebf 6d6d 223c 4d74 7dbf
000000f0: e4d6 2e3e 8d6b 6b3e 895f 2ebf 82e1 fcbe
00000100: c0cb 023d 5058 c3bc 674e 92bd 7ccc 0dbf
00000110: 837a 23bf 1837 673e 1b32 f43c 272a 34bf
00000120: 867c 4ebf a4ee 693e cf31 b93e 1afd dd3d
00000130: f5ac a43d 7ada 62bf b493 5e3e 588d 213e
00000140: 04af 96be a634 68be 11f0 0f3c c10e 623e
00000150: f8ac b8bd 2cd7 ab3e 7a88 da3c 1f3a d0be
00000160: d3fe 8d3d 9b7a 7c3c fb75 c4bd 4380 283c
00000170: 5142 b5bd bff8 4b3e 5279 3abf 4581 013e
00000180: 4293 13bf 182f ac3d f87f 863d a07a 01bf
00000190: b5ef 81bd 04ba 1cbf 9b03 4cbf 3c41 9c3e
000001a0: a47b ba3d 53b1 de3d 0b9c 67bf eb23 ab3e
000001b0: a82d 40bf 702c 08bf a571 6bbf 705a 6fbf
000001c0: 74cb bb3c 3c55 95be 1940 583d 9c22 1c3d
000001d0: 5d15 56be 822b 03bf 8093 4cbf 7400 9d3d
000001e0: 5d88 39bf 53db 773e 0b49 d7be 7f62 9c3e
000001f0: 3604 833e f6eb e7be 340a c4be 1f24 2dbf
00000200: 9c8e 9c3d 1090 0abe 694c ab3e 0e62 763e
00000210: ff41 63bf d8aa 56bf 966d 33bf 34ec bc3e
00000220: af9d 133e 4c23 4cbf 25d2 e73c 4c60 28bf
00000230: 903c b9be f920 1ebf 5713 41bf b182 52bf
00000240: e8cc 8b3d 9a93 e5be f5e9 50bf f8b8 2b3c
00000250: b189 eb3d 58c6 00bf d2bc 83bc e067 33bc
00000260: 8c4b 66bf db4d 05bd 197f 15bf 00f2 b8bd
00000270: cca6 30bf ed65 8c3c ce64 21bf cfad 933e
00000280: 3de3 77be cb1c 1dbf 6ba6 de3d 3b8a bf3c
00000290: ef70 3ebf 1507 01bf a5f5 9e3e 498f 52bf
000002a0: 997e 07bf 4aa7 57be 35b0 8c3e eff1 a13d
000002b0: 7558 6fbf 4b8a 53bf 0ad2 9c3e e204 e53d
000002c0: 4af8 a93e 63d5 243e 4ce7 20bf 5728 3fbf
000002d0: e9d7 093e e5f3 233e 47f2 45bd 3fde 323d
000002e0: 64cd debe 9614 243e f410 0fbf 420e 953d
000002f0: d0a9 903e 901f 993e 94f0 373d 3142 db3d
00000300: a372 da3c f1ea be3c 23ec 31bf 34c7 8abd
00000310: 5334 c13c ec35 c63d e6ae c4ba 16ee 0a3e
00000320: 0352 343d 5694 893e ed59 543d afa7 06bf
00000330: 6831 67bf 0385 243e ddef 51bf 264f 4bbf
00000340: ac4f f53d 610e 813e 59b3 65bf e52e b43e
00000350: 9d47 3dbf 8445 0d3f 9cf6 30bf 4238 3bbe
00000360: 0a20 4bbf 7c65 ab3c 4337 64bf 2acf 1bbd
00000370: 7a03 29bf dbb3 12bf 09f6 1d3e c75d 45bf
00000380: 58b8 89be 85b6 5bbf f22b 4cbf d9fb 20bf
00000390: c733 80bd 000c 063d 9ad1 9c3c e1b8 bc3e
000003a0: b797 e1be 9635 51bf caab 89be c709 893e
000003b0: a6c5 a53c 372e 3b3e fd24 813d a67f d93d
000003c0: d47e 27bf 2f2d 3ebe 6f00 9cbe 7601 40bf
000003d0: 2165 273d 1b44 7fb9 9933 293e f23f 013f
000003e0: 363e 3a3e deca 20bf 1af3 12bf 15f6 3f3e
000003f0: b1da db3e 5122 e63d 7bca 063c 282c 9b3d

value_conv1.bias f4 [2]
0.07598232 0.15983209
00000000: 9e9c 9b3d 06ab 233e
