model/cnn/8x8/2/8.pt (torch_old, 478657 bytes, 15 tensors)

conv1.weight f4 [32, 4, 3, 3]
-0.34158975 0.4227528 0.5873435 -0.037486635 0.011613328 -0.21509974 -0.06641071 -0.26401722
-0.020822886 0.21153915 -0.059193064 -0.38943496 -0.08309465 -0.28307983 -0.062078636 0.18437667
-0.12211834 0.0712058 -0.14956973 -0.16313994 0.0755277 -0.20859978 -0.22140953 -0.028204717
0.18662044 -0.15052316 -0.026018396 0.18158959 0.30762035 -0.39692053 0.16544078 0.27816883
-0.3242629 0.15484414 0.11562552 -0.583901 0.49925798 -0.080742516 -0.15519398 -0.40421915
0.26570362 0.21338834 -0.041712217 -0.19221143 0.0066696843 0.19610202 0.1387904 1.1269767
-0.44656223 -0.20026253 0.0049338937 0.34621602 0.11048901 -0.15275703 0.20219001 0.08661571
0.26674798 -0.045264743 -0.06575033 0.052283105 0.0010756843 -0.17786066 -0.045805205 -0.24385759
0.00058749877 0.15524626 -0.15621015 0.19308335 0.22171709 -0.2096146 0.15442811 0.08164316
0.013224356 0.44318414 -0.11811809 -0.24399056 0.17260274 -0.7223333 -0.13200204 0.37905806
-0.31628054 -0.34025928 -0.23524351 0.38859764 0.31604344 -0.58518636 -0.18751225 -0.0678691
-0.4988813 -0.008917218 -0.118998654 0.18184528 0.15265258 -0.1342414 -0.089877136 0.06846805
-0.042906824 -0.0633594 -0.031415097 -0.07093979 0.06786051 -0.17955576 0.045164265 -0.081022575
0.18810585 -0.06964611 0.06318803 0.025635857 -0.80257857 0.08366413 0.0030472009 0.05041747
0.21654825 0.111783594 0.99223757 -0.873301 -0.7746907 0.2624656 -0.35115156 -0.7206022
-0.58924484 0.08045523 -0.09332563 -0.445407 -0.124645546 -0.30383265 -0.007070707 0.13246968
-0.15884258 -0.049630124 0.053104877 0.0066584484 -0.16128972 -0.109004855 0.094619475 0.058994148
0.033200704 0.21937211 -0.15478261 -0.013197126 0.10114569 0.10000018 0.31107688 0.2918445
-0.6471281 0.41025785 0.55254805 0.5466102 -0.2816129 0.17748868 -0.3254168 0.60560286
0.12855312 -0.65353334 -0.56753117 -0.24784909 -0.30332288 -0.22543369 0.044076692 -0.32091576
-0.16240874 -0.26427364 0.12046525 0.06615642 -0.03812836 -0.04072573 -0.022106625 -0.036036663
-0.063456304 0.08661812 -0.14003976 -0.08869571 -0.12786256 0.038642395 -0.17187546 -0.14915444
-0.044234246 -0.123203054 -0.067258045 -0.21221116 -0.13773023 -0.21988936 0.26276907 0.41548762
-0.34038588 0.36681658 -0.21746145 -0.34839526 0.034924418 0.48410007 -0.17450564 -0.36542457
-0.2427641 0.43868688 -0.25121072 0.24958177 -0.4480546 -0.28109407 0.070068054 0.48064813
-0.0007322237 0.11430013 0.25051254 0.1572686 0.19159295 0.038649946 0.20019887 -0.19210581
-0.12796055 -0.1041791 -0.12861584 -0.11838529 -0.12934706 -0.13745129 -0.120422184 -0.05894483
-0.49756965 0.27233693 -0.47554484 -0.5072877 -0.36386463 -0.1376182 -0.46114618 0.026132962
-0.44055662 0.22320879 -0.18389799 -0.18005271 0.47070283 0.24274784 0.5241964 -0.2940591
-0.10418647 0.3452551 -0.15752912 -0.16106927 0.26356497 0.019442504 0.42069352 0.42846513
-0.1143652 -0.039035212 0.118662894 -0.2083598 0.020782238 -0.058976445 -0.014546565 0.16005607
0.07503843 0.055508953 0.023960749 0.117540084 0.37439698 -0.35396332 0.12784937 -0.028079128
00000000: dae4 aebe 0e73 d83e 255c 163f 968b 19bd
00000010: d445 3e3c 1b43 5cbe 5702 88bd 442d 87be
00000020: c294 aabc b89d 583e 6d74 72bd 0564 c7be
00000030: 872d aabd d7ef 90be 2b46 7ebd 3dcd 3c3e
00000040: 2e19 fabd 59d4 913d cf28 19be 280e 27be
00000050: 44ae 9a3d 2e9b 55be 2eb9 62be 940d e7bc
00000060: 6e19 3f3e be22 1abe 8824 d5bc 9ff2 393e
00000070: 6a80 9d3e 2b39 cbbe 4f69 293e 256c 8e3e
00000080: c905 a6be 768f 1e3e 13cd ec3d 897a 15bf
00000090: be9e ff3e 555c a5bd 2ceb 1ebe d0f5 cebe
000000a0: 4e0a 883e 7982 5a3e 6eda 2abd 13d3 44be
000000b0: 5e8d da3b f8ce 483e 121f 0e3e c640 903f
000000c0: cea3 e4be 9f11 4dbe 80ac a13b 3a43 b13e
000000d0: 1048 e23d 576c 1cbe e60a 4f3e 9463 b13d
000000e0: 3193 883e 8667 39bd 1ca8 86bd cf26 563d
000000f0: fafd 8c3a 1b21 36be 3d9e 3bbd ceb5 79be
00000100: 6002 1a3a e0f8 1e3e 8ef5 1fbe a4b7 453e
00000110: ce09 633e 36a5 56be 6722 1e3e 8734 a73d
00000120: f8aa 583c 08e9 e23e e6e7 f1bd a9d8 79be
00000130: c6be 303e d6ea 38bf 8b2b 07be e613 c23e
00000140: 86ef a1be 7736 aebe ade3 70be 45f6 c63e
00000150: 72d0 a13e c6ce 15bf 3603 40be f4fe 8abd
00000160: 5f6d ffbe 8619 12bc 91b5 f3bd a635 3a3e
00000170: f550 1c3e 9476 09be 8111 b8bd fa38 8c3d
00000180: 11bf 2fbd 93c2 81bd 1ead 00bd e148 91bd
00000190: 73fa 8a3d 77dd 37be 2afe 383d 2aef a5bd
000001a0: d29e 403e 9fa2 8ebd ba68 813d 4a02 d23c
000001b0: ca75 4dbf 1958 ab3d 8cb3 473b 8d82 4e3d
000001c0: d3be 5d3e ccee e43d 4803 7e3f a890 5fbf
000001d0: 2152 46bf e461 863e 23ca b3be 6379 38bf
000001e0: c0d8 16bf b6c5 a43d 8221 bfbd 630c e4be
000001f0: 2a46 ffbd f48f 9bbe 64b1 e7bb 22a6 073e
00000200: a1a7 22be f548 4bbd 8084 593d 1d2f da3b
00000210: 2229 25be f03d dfbd dbc7 c13d d9a3 713d
00000220: 76fd 073d 15a3 603e 557f 1ebe c238 58bc
00000230: 7925 cf3d e5cc cc3d 7845 9f3e a46c 953e
00000240: 30aa 25bf 510d d23e ca73 0d3f a5ee 0b3f
00000250: 912f 90be 98bf 353e 089d a6be ca08 1b3f
00000260: 6ea3 033e f64d 27bf b949 11bf 27cc 7dbe
00000270: 234d 9bbe 17d8 66be c389 343d 124f a4be
00000280: 7a4e 26be e04e 87be 7cb6 f63d 047d 873d
00000290: 7c2c 1cbd 06d0 26bd f418 b5bc 2e9b 13bd
000002a0: 61f5 81bd d764 b13d 9566 0fbe 19a6 b5bd
000002b0: 67ee 02be 7d47 1e3d 1f00 30be f1bb 18be
000002c0: f82e 35bd e251 fcbd 96be 89bd e24d 59be
000002d0: 2709 0dbe ad2a 61be ab89 863e cbba d43e
000002e0: 0f47 aebe 62cf bb3e 37ae 5ebe dd60 b2be
000002f0: e80c 0f3d f7db f73e 9bb1 32be ee18 bbbe
00000300: 2797 78be 919b e03e b19e 80be 5d92 7f3e
00000310: 6a67 e5be 90eb 8fbe d77f 8f3d 8317 f63e
00000320: b3f2 3fba 3016 ea3d 2e43 803e 050b 213e
00000330: f130 443e 684f 1e3d ef00 4d3e 63b7 44be
00000340: 1708 03be da5b d5bd dfb3 03be fd73 f2bd
00000350: 8e73 04be 08c0 0cbe e89f f6bd 2270 71bd
00000360: 73c1 febe bf6f 8b3e 9d7a f3be 9bdd 01bf
00000370: 774c babe c9eb 0cbe 5a1b ecbe cb14 d63c
00000380: a390 e1be d890 643e c14f 3cbe bd5f 38be
00000390: f6ff f03e e492 783e bc31 063f ea8e 96be
000003a0: b75f d5bd 47c5 b03e 504f 21be 58ef 24be
000003b0: fdf1 863e e345 9f3c 2465 d73e c85f db3e
000003c0: 4d38 eabd 63e3 1fbd 8805 f33d 455c 55be
000003d0: 833f aa3c 4991 71bd b754 6ebc bde5 233e
000003e0: c0ad 993d 5b5d 633d 5549 c43c dbb8 f03d
000003f0: f6b0 bf3e ae3a b5be f2ea 023e 3306 e6bc

conv1.bias f4 [32]
0.22081633 -0.25154668 0.167059 0.16400345 0.05620398 -0.016272908 0.040030245 0.21909519
0.34641472 -0.50367874 -0.2039893 -0.001917945 -0.14876647 -0.16464621 0.18128163 -0.0033494364
-0.014597198 -0.16707924 -0.027678905 0.021850416 -0.06554924 -0.35777816 -0.15574376 0.04966724
-0.25704753 -0.26153722 -0.1000174 -0.013012093 -0.2631292 0.23322311 0.0077136196 -0.22988413
00000000: ad1d 623e baca 80be 8411 2b3e 85f0 273e
00000010: 2536 663d c34e 85bc c1f6 233d 7d5a 603e
00000020: 455d b13e 17f1 00bf 92e2 50be 8e63 fbba
00000030: 3d56 18be 0499 28be e4a1 393e 3882 5bbb
00000040: 1629 6fbc d216 2bbe dfbe e2bc a5ff b23c
00000050: ae3e 86bd b32e b7be 4b7b 1fbe e06f 4b3d
00000060: bc9b 83be 35e8 85be ecd5 ccbd ac30 55bc
00000070: dfb8 86be 0ad2 6e3e 88c2 fc3b bf66 6bbe

conv2.weight f4 [64, 32, 3, 3]
-0.062058225 -0.05465337 0.029059745 -0.05190056 -0.07557939 -0.0029258535 -0.14727129 -0.20913549
-0.26262248 -0.03692612 0.17073418 0.16394657 -0.26230294 -0.34611133 0.08212099 -0.26374876
-0.37487677 -0.3878514 -0.056392334 0.14992002 -0.15778145 0.15064178 0.17503455 -0.040524658
-0.16668373 0.07029658 -0.052050833 -0.17094363 0.13289125 -0.054358304 -0.22780447 -0.56552404
0.51190525 0.1856407 0.4569575 0.41224873 0.12894852 0.059932254 0.11885031 -0.17795831
-0.024734786 -0.11395988 0.064320214 0.038477175 -0.06347276 -0.03455215 -0.053562008 -0.12150759
0.052227538 -0.013004073 -0.15252106 0.03732966 0.014421717 0.18094674 -0.03301104 0.034009535
-0.18242182 0.02539408 -0.11032341 -0.08139583 0.059103902 -0.09371841 -0.057127632 -0.06684076
-0.024213629 -0.15823083 -0.07630656 -0.19082874 -0.2373187 0.10809122 -0.20071107 0.039988305
-0.12439996 0.0919356 -0.054684974 0.07485788 -0.17744786 -0.12205245 -0.21088831 -0.1049397
-0.10766891 0.05059378 0.15836191 0.11923343 -0.079641074 0.052434113 0.15884171 0.05206452
0.12214842 0.13566162 0.03444615 -0.18255489 -0.0426403 0.3074122 -0.046310138 -0.15759058
-0.14876132 0.02949553 -0.19304267 0.33073512 0.23144045 -0.12118602 0.24517436 0.04113831
-0.051681463 0.25481924 -0.17860214 -0.18287626 -0.25112185 0.2956439 -0.043161515 0.4068607
0.023688775 -0.07405406 0.12375658 0.3042016 -0.0897411 -0.08261203 0.06299408 0.11770868
-0.15017222 -0.31552598 0.18193364 0.13573197 -0.5793712 -0.47557163 0.13056105 0.015053746
0.07257985 -0.070462145 0.046461448 0.007961396 0.04816967 0.13329768 -0.16666676 0.101143986
-0.1969263 -0.07324872 0.3335228 -0.34043294 0.043083563 -0.2781573 0.17237756 0.16057995
-0.012919225 -0.24198866 0.102284856 -0.21618754 0.06839479 -0.07204916 -0.035120085 -0.07394492
-0.09613281 0.26756617 0.0193968 -0.2509426 0.075516105 -0.09120695 -0.15528123 0.010283386
-0.49218765 -0.040700953 4.669429e-10 1.7199952e-11 2.288063e-15 -3.3132636e-10 9.458649e-12 2.6577086e-15
-2.3811285e-11 -8.94052e-14 -6.486827e-17 -0.08089416 0.06902014 -0.07865602 0.021857759 0.033176307
0.12926081 0.017364457 0.09205445 0.06948253 -0.094406016 0.04220103 0.2909895 0.024908623
0.19614565 0.022609398 0.03318292 -0.01848048 -0.053300165 -0.0319649 -0.079279214 0.14324425
0.10635617 -0.07223758 0.018926479 -0.07430138 -0.29797143 0.20091549 -0.15006012 -0.16406207
0.24784322 0.12138438 -0.15606324 0.5425528 0.10044129 -0.053031188 0.34509808 0.0036176986
-0.018968325 -0.057586033 -0.016259003 0.08617499 0.14467135 0.10956177 -0.11324621 -0.040125094
0.057887252 0.0076726773 -0.26393944 0.08186011 0.11283127 -0.1879417 -0.16091295 -0.031591997
-0.35813597 0.16117537 -0.1330676 0.1637004 -0.116989695 -0.10875916 -0.05566705 0.30045453
-0.06264011 -0.16077657 -0.27494934 -0.024770688 -0.26742405 -0.12665561 -0.18787685 -0.024686143
-0.10824715 -0.23160838 -0.5528692 0.18599811 0.122336335 -0.05265351 0.2428028 -0.28728774
0.27741608 0.15468557 0.22288755 -0.0220441 -0.060347386 -0.12118423 -0.11344076 0.04893898
00000000: c430 7ebd 36dc 5fbd b40e ee3c ae95 54bd
00000010: 5ec9 9abd adbf 3fbb 49ce 16be 9d27 56be
00000020: 7476 86be d83f 17bd f1d4 2e3e 9ce1 273e
00000030: 924c 86be 8135 b1be 0d2f a83d 140a 87be
00000040: d9ef bfbe 7594 c6be a6fb 66bd a284 193e
00000050: 7691 21be d741 1a3e 423c 333e 2ffd 25bd
00000060: 24af 2abe a7f7 8f3d 4133 55bd d90b 2fbe
00000070: a514 083e d0a6 5ebd 9345 69be 2fc6 10bf
00000080: 390c 033f 9818 3e3e 55f6 e93e 4412 d33e
00000090: 150b 043e 867b 753d cb67 f33d b43a 36be
000000a0: 9ba0 cabc cc63 e9bd 51ba 833d 3e9a 1d3d
000000b0: 02fe 81bd 8e86 0dbd d663 5bbd f9d8 f8bd
000000c0: 8bec 553d 090f 55bc 7b2e 1cbe fce6 183d
000000d0: 1149 6c3c 1a4a 393e 9636 07bd 954d 0b3d
000000e0: c9cc 3abe 3f07 d03c 3df1 e1bd dbb2 a6bd
000000f0: ef16 723d 70ef bfbd aafe 69bd cfe3 88bd
00000100: a95b c6bc 4307 22be 9d46 9cbd 9c68 43be
00000110: ac03 73be ee5e dd3d 3487 4dbe c7ca 233d
00000120: 68c5 febd bb48 bc3d 5afd 5fbd 174f 993d
00000130: e4b4 35be a3f6 f9bd 1bf3 57be a0ea d6bd
00000140: 8481 dcbd 6c3b 4f3d a029 223e a830 f43d
00000150: dc1a a3bd 27c5 563d 67a7 223e 9b41 553d
00000160: f328 fa3d e1ea 0a3e 6817 0d3d abef 3abe
00000170: 98a7 2ebd 2265 9d3e b3af 3dbd 6d5f 21be
00000180: e354 18be 9ca0 f13c faac 45be 1d56 a93e
00000190: bafe 6c3e 6030 f8bd fd0e 7b3e a580 283d
000001a0: f1af 53bd ab77 823e 7be3 36be ea43 3bbe
000001b0: 0b93 80be a35e 973e 21ca 30bd 0c50 d03e
000001c0: f60e c23c a8a9 97bd 1774 fd3d 50c0 9b3e
000001d0: 2fca b7bd 7f30 a9bd 0a03 813d 4011 f13d
000001e0: bfc6 19be 9f8c a1be d04c 3a3e 52fd 0a3e
000001f0: ac51 14bf 207e f3be ccb1 053e fda3 763c
00000200: bfa4 943d 754e 90bd 5c4e 3e3d 8470 023c
00000210: 8f4d 453d 307f 083e b1aa 2abe 9424 cf3d
00000220: 0ca7 49be 6d03 96bd 80c3 aa3e 3a4d aebe
00000230: 6478 303d a26a 8ebe be83 303e 126f 243e
00000240: 28ab 53bc e0cb 77be b97a d13d 4460 5dbe
00000250: 9112 8c3d 838e 93bd 14da 0fbd 6f70 97bd
00000260: 47e1 c4bd 6ffe 883e 0ae6 9e3c 8c7b 80be
00000270: 30a8 9a3d b6ca babd 0b02 1fbe a67b 283c
00000280: 0500 fcbe 0bb6 26bd 2f5a 0030 d94a 972d
00000290: 50df 2427 0a26 b6af f865 262d 1282 3f27
000002a0: 3f72 d1ad 9752 c9a9 7893 95a4 d6ab a5bd
000002b0: 6e5a 8d3d 6816 a1bd 0b0f b33c e1e3 073d
000002c0: f25c 043e e83f 8e3c 0b87 bc3d db4c 8e3d
000002d0: f157 c1bd fdda 2c3d 93fc 943e 2b0d cc3c
000002e0: 68da 483e 5837 b93c d0ea 073d 6064 97bc
000002f0: 4651 5abd a1ed 02bd 245d a2bd 9fae 123e
00000300: 43d1 d93d 4cf1 93bd b40b 9b3c 522b 98bd
00000310: b68f 98be cabc 4d3e 5ca9 19be e3ff 27be
00000320: 9dca 7d3e 6098 f83d 0bcf 1fbe bee4 0a3f
00000330: 2ab4 cd3d 3b37 59bd b2b0 b03e e916 6d3b
00000340: 7663 9bbc 55df 6bbd 9a31 85bc 837c b03d
00000350: ba24 143e ec61 e03d a1ed e7bd 365a 24bd
00000360: 2f1b 6d3d 156b fb3b 1223 87be 46a6 a73d
00000370: 1514 e73d ca73 40be 5dc6 24be 9c66 01bd
00000380: 995d b7be 280b 253e df42 08be 14a1 273e
00000390: 4b98 efbd 1fbd debd 2203 64bd 2dd5 993e
000003a0: 7549 80bd 9da2 24be 29c6 8cbe e6eb cabc
000003b0: ceeb 88be 02b2 01be ca62 40be 983a cabc
000003c0: afb0 ddbd bf2a 6dbe d688 0dbf 4a76 3e3e
000003d0: 798b fa3d 35ab 57bd 4ca1 783e 6117 93be
000003e0: 7b09 8e3e e565 1e3e a23c 643e d495 b4bc
000003f0: d22e 77bd 702f f8bd a153 e8bd 3d74 483d

conv2.bias f4 [64]
-0.050431594 -0.2134213 -0.31381735 0.0072755343 -0.16674744 -0.060419854 0.10569715 -0.15258415
-0.017678542 -0.06415521 -0.0032428103 -0.027049977 -0.07515673 -0.09968849 -0.046527434 -0.03193626
-0.15523264 -8.533692e-08 -0.17992462 -0.001316601 -0.08730163 -0.16645041 0.18711476 -0.2859234
-0.16993959 -1.4663787e-16 -0.12746008 -0.015361906 -0.072628714 -0.0076774783 -0.31414485 -0.18947001
-0.08817153 -0.053883303 -0.2282982 -0.111006595 -0.105394736 -0.047336854 0.014232731 0.08369437
-0.024659734 -0.13007346 -0.08254323 -0.16353443 0.09559083 -0.08049364 -2.901951e-23 -0.08242148
-1.3537251e-19 0.13252981 -0.13564481 -0.110979035 0.12547977 -5.2143656e-07 -0.26094076 -0.061156537
-0.027884668 -0.21878386 -0.08089972 -0.09112398 -0.14692557 -0.01664263 -3.8118906e-06 -0.21678665
00000000: 5c91 4ebd 1d8b 5abe abac a0be 9b67 ee3b
00000010: d7bf 2abe cf7a 77bd bf77 d83d 053f 1cbe
00000020: 97d2 90bc cf63 83bd 5485 54bb ea97 ddbc
00000030: c6eb 99bd 7b29 ccbd 8d93 3ebd 99cf 02bd
00000040: 4ef5 1ebe 7842 b7b3 293e 38be cc91 acba
00000050: 32cb b2bd fa71 2abe 039b 3f3e 8d64 92be
00000060: a504 2ebe dc0f 29a5 e584 02be 81b0 7bbc
00000070: 5dbe 94bd 5b93 fbbb 98d7 a0be 6d04 42be
00000080: 4693 b4bd bdb4 5cbd 01c7 69be 6d57 e3bd
00000090: 32d9 d7bd 4ae4 41bd 6730 693c f467 ab3d
000000a0: 3603 cabc fa31 05be 6d0c a9bd 9275 27be
000000b0: 20c5 c33d d9d9 a4bd 6a54 0c9a 98cc a8bd
000000c0: d5d1 1fa0 e5b5 073e 79e6 0abe fa48 e3bd
000000d0: c57d 003e d9f8 0bb5 079a 85be 477f 7abd
000000e0: 636e e4bc e008 60be c1ae a5bd 369f babd
000000f0: a873 16be 2056 88bc c8cf 7fb6 52fd 5dbe

conv3.weight f4 [128, 64, 3, 3]
0.040257692 0.30706215 0.0059130844 -0.048483513 0.037725814 -0.00791531 0.0888145 -0.18046938
0.019313555 -0.27501532 -0.057278838 0.39516452 -0.16131438 0.12443137 0.29031962 -0.13164915
-0.011980326 -0.16663079 0.021387367 0.09294286 -0.007641807 0.17006457 0.059799906 0.013199184
-0.06779156 0.033532392 -0.014258208 -0.39026412 0.048020106 0.26865056 -0.32956994 0.10537879
-0.18813756 0.22340588 -0.040732607 -0.2694562 0.13946307 0.106820665 0.071487725 -0.09739574
-0.20243251 0.17220046 -0.08357442 0.04121904 -0.057901565 0.008925705 0.12471158 0.017031759
0.05277638 -0.09364148 0.19585718 0.370024 0.19136345 0.3437817 0.03858223 -0.1541168
-0.18942373 -0.17581266 0.016014565 -0.20509596 -0.10655204 -0.019186528 0.0765502 -0.21249056
0.08047475 0.06900674 0.057984997 -0.012690099 0.04963601 6.568464e-05 -0.06854025 0.041119404
3.301236e-39 -1.870075e-39 -4.422781e-39 -5.32123e-40 2.430406e-39 7.319243e-39 -5.94739e-40 1.901514e-39
1.838497e-39 -0.12818035 -0.0009745655 0.06736261 -0.01769927 -0.1939966 0.15141639 0.07558687
-0.084389746 0.05358167 0.011101241 0.031852376 0.006832524 0.024035765 -0.098909676 -0.109577455
0.0098652225 -0.24609995 0.057581652 0.042427123 -0.027555756 -0.022719366 -0.021480616 -0.01797098
0.045771185 0.09644019 -0.06211652 -0.010432053 0.095606945 0.15775368 0.053552803 -0.12642075
0.17973441 -0.018147262 0.09281052 -0.09335427 0.1487319 0.078161135 -0.15610224 0.054129865
-0.20056912 -0.057363167 -0.013183258 0.14851087 0.032064345 0.15282111 -0.13024187 0.1978461
0.026978353 -0.029553192 -0.111645155 -0.107481524 -0.0015137434 0.20750177 0.008415012 -0.20801221
-0.016530076 -0.05655499 0.093255736 -0.2984416 -0.049512926 0.073903345 -0.14311075 -0.011194703
-0.11680409 -0.1002047 -0.043637563 -0.028197039 0.22219296 -0.078493655 -0.0069210683 0.08085423
0.12412817 6.142466e-39 6.911291e-39 5.142257e-39 6.537343e-39 1.085988e-39 -5.178583e-39 5.140201e-39
-1.95089e-39 -4.020765e-39 0.28838834 -0.1238403 -0.041432798 -0.05092611 -0.07148398 0.055683587
0.01675791 0.26901275 -0.12574126 -0.19170299 -0.1757453 -0.0027644238 0.044256184 -0.15207419
0.11547337 0.03284196 0.14160979 0.05315582 0.019067084 0.24372134 -0.17714974 0.181751
-0.044865523 -0.0051870416 -0.053719483 0.11396652 -0.0283621 -0.05509452 -0.1706312 0.24183324
-0.044612706 0.13810104 0.23653002 -0.028755657 0.025951281 -0.10057977 0.027447987 0.07689407
0.034853417 -0.13989246 0.12543689 -0.11915638 0.009327498 0.021660859 -0.09397825 -0.31056997
0.07141226 0.050083943 0.06520673 -0.07662583 -0.24761404 -0.10240192 0.042130753 0.051190555
0.10017439 -0.048749328 0.031066237 0.11630985 -0.11095168 0.22946219 0.053955283 -0.03683453
-0.08686269 3.113388e-39 -3.237746e-39 -1.829235e-39 -2.064676e-39 1.715897e-39 -1.32937e-39 -5.568966e-39
-6.844031e-39 3.248145e-39 -0.07812816 0.09736764 -0.090706795 0.110272035 0.029172655 -0.006713554
-0.10174437 0.15288085 0.05471939 4.1879553e-05 7.2803756e-05 1.7557861e-06 0.00010324015 7.282986e-05
8.0604644e-07 2.7582892e-05 2.7466328e-06 6.168519e-08 -0.035051648 0.17469403 -0.037454043 0.07028174
00000000: 40e5 243d 4037 9d3e 8cc2 c13b a696 46bd
00000010: 6286 1a3d 37af 01bc 60e4 b53d f7cc 38be
00000020: 7637 9e3c cfce 8cbe 379d 6abd 0153 ca3e
00000030: 992f 25be e0d5 fe3d c6a4 943e 09cf 06be
00000040: 2149 44bc 43a1 2abe 8f34 af3c d458 be3d
00000050: 2068 fabb 6825 2e3e bff0 743d 6441 583c
00000060: 4dd6 8abd 4359 093d 429b 69bc b3d0 c7be
00000070: bbb0 443d 918c 893e 64bd a8be d6d0 d73d
00000080: 22a7 40be 83c4 643e 3cd7 26bd 2af6 89be
00000090: 68cf 0e3e cbc4 da3d 2868 923d 6b77 c7bd
000000a0: 784a 4fbe 5155 303e 1129 abbd 4cd5 283d
000000b0: 312a 6dbd 1f3d 123c c968 ff3d 3086 8b3c
000000c0: 0c2c 583d 1bc7 bfbd c98e 483e c973 bd3e
000000d0: c8f4 433e 2804 b03e 6708 1e3d cbd0 1dbe
000000e0: 4bf8 41be 3c08 34be fa30 833c ad04 52be
000000f0: f537 dabd 112d 9dbc 5ac6 9c3d 2097 59be
00000100: f2cf a43d 6853 8d3d ad81 6d3d 22ea 4fbc
00000110: 214f 4b3d 2cc0 8938 d55e 8cbd d26c 283d
00000120: 81f2 2300 025d 1480 ea28 3080 58cb 0580
00000130: fc76 1a00 12b3 4f00 e479 0680 a6b4 1400
00000140: fb04 1400 b641 03be fc79 7fba 68f5 893d
00000150: 0ffe 90bc 0ba7 46be e60c 1b3e 4acd 9a3d
00000160: 88d4 acbd 7478 5b3d fbe1 353c a377 023d
00000170: 5ee3 df3b a7e6 c43c 2891 cabd 256a e0bd
00000180: bea1 213c a001 7cbe bdda 6b3d 10c8 2d3d
00000190: 9cbc e1bc f71d babc 1ef8 afbc e037 93bc
000001a0: 917a 3b3d 6f82 c53d e46d 7ebd 34eb 2abc
000001b0: 93cd c33d 2e8a 213e 2f5a 5b3d 7174 01be
000001c0: 4c0c 383e 91a9 94bc 7113 be3d 8630 bfbd
000001d0: 2d4d 183e f212 a03d 44d9 1fbe 47b7 5d3d
000001e0: fe61 4dbe a4f5 6abd 97fe 57bc 3c13 183e
000001f0: e755 033d 237d 1c3e 205e 05be 2b98 4a3e
00000200: b501 dd3c 8919 f2bc 37a6 e4bd 461f dcbd
00000210: cd68 c6ba 587b 543e 1edf 093c 2701 55be
00000220: 156a 87bc 35a6 67bd ddfc be3d 56cd 98be
00000230: 11ce 4abd a35a 973d a08b 12be fd69 37bc
00000240: fc36 efbd 1f38 cdbd 4dbd 32bd 7afd e6bc
00000250: 8d86 633e 48c1 a0bd 21ca e2bb e796 a53d
00000260: e936 fe3d b2e2 4200 de41 4b00 85fe 3700
00000270: 742f 4700 4bd3 0b00 c863 3880 caf8 3700
00000280: 4a3e 1580 42c8 2b80 a3a7 933e fc9f fdbd
00000290: 70b5 29bd e697 50bd 3166 92bd 7914 643d
000002a0: e247 893c 0abc 893e 51c2 00be ca4d 44be
000002b0: 93f6 33be 562b 35bb f945 353d 56b9 1bbe
000002c0: 4d7d ec3d 4b85 063d 2802 113e ebb9 593d
000002d0: 9332 9c3c 1692 793e be66 35be ef1c 3a3e
000002e0: e9c4 37bd 0ff8 a9bb f608 5cbd 4767 e93d
000002f0: a257 e8bc cbaa 61bd f2b9 2ebe 22a3 773e
00000300: d0bb 36bd 5c6a 0d3e ed34 723e fc90 ebbc
00000310: c897 d43c c4fc cdbd 9ada e03c a37a 9d3d
00000320: 75c2 0e3d f83f 0fbe 8772 003e 4308 f4bd
00000330: 5dd2 183c 1d72 b13c ab77 c0bd 0703 9fbe
00000340: 9740 923d d224 4d3d 1b8b 853d 01ee 9cbd
00000350: 898e 7dbe 19b8 d1bd 4c91 2c3d 30ad 513d
00000360: 3b28 cd3d 60ad 47bd 9f7e fe3c dc33 ee3d
00000370: a23a e3bd 23f8 6a3e 3700 5d3d cedf 16bd
00000380: 11e5 b1bd dce6 2100 8541 2380 2aeb 1380
00000390: 7a7b 1680 39af 1200 be79 0e80 03a4 3c80
000003a0: 6086 4a80 825e 2300 a801 a0bd af68 c73d
000003b0: 7cc4 b9bd 4ed6 e13d 7efb ee3c 5ffd dbbb
000003c0: 5a5f d0bd cc8c 1c3e 7021 603d d4a7 2f38
000003d0: 38ae 9838 5aa8 eb35 a282 d838 3cbc 9838
000003e0: 175f 5835 cf61 e737 cb52 3836 cb77 8433
000003f0: 5192 0fbd fee2 323e 6969 19bd dfef 8f3d

conv3.bias f4 [128]
-0.18377051 0.5068405 -0.0781796 -3.9306903e-07 0.35955727 0.034649692 -0.05758281 -0.22862753
-0.2629647 -0.13377792 0.053167846 -0.028361259 0.047460277 -0.24527536 -0.27210456 0.0017365619
0.058020562 -0.028598214 -0.08367859 0.028402617 -0.035250966 -0.06291959 -0.07459809 -0.2003397
0.21089557 -0.12067523 -4.733587e-15 0.53016007 -1.872796e-19 -0.0037123403 0.05073404 -0.098758854
-1.4843413e-11 -0.15153363 -0.0703143 -0.028455049 0.037715636 -0.27474642 -0.03145021 -1.0369288e-22
0.086277746 -0.07496706 0.05191615 -0.04164399 -0.13066967 -0.08446881 -8.9395485e-14 -0.1593457
-0.011865452 -3.6037606e-17 -2.7925932e-12 -0.029406207 -0.109369405 -0.062912345 -0.051543925 -0.09100147
-7.0123315e-06 -7.560124e-17 -0.27314442 -0.024802452 0.058530163 -0.11945431 -0.12969394 -0.07297207
-0.019035127 -0.2695415 -0.033215843 -0.1524017 -3.9143365e-06 -0.046961244 0.19837151 -0.17324063
-0.08537002 -0.23783837 -0.04751242 -2.068124e-19 0.22660653 -0.10186867 -0.108303316 0.067932256
-0.07503937 -1.9640244e-13 -0.13046788 -0.2092294 -0.19850397 -0.0021094228 -0.16976772 -0.13583215
-0.17366435 -0.12637478 -0.29157192 -0.14024869 -0.07062891 -0.012424221 -0.10684646 -0.06021609
-0.12501721 -0.08611174 -0.112920284 0.03321054 -0.11862965 -0.17149416 -0.11362833 -0.14160831
-0.14702591 -0.04619983 -0.040221106 -5.2340416e-18 -0.19249763 0.013953024 -0.07758368 -0.17616574
-0.26010326 -0.023056472 -0.19789855 -0.13423295 0.048336245 -0.050772835 -0.2825189 -0.39113337
0.010018378 -0.09612125 -0.0151305795 0.036787756 -0.22903924 -0.11639598 -0.10755083 -0.077408396
00000000: 562e 3cbe 4dc0 013f a01c a0bd ff06 d3b4
00000010: e417 b83e d6ec 0d3d f4db 6bbd 561d 6abe
00000020: 4fa3 86be 14fd 08be 87c6 593d df55 e8bc
00000030: b565 423d 7729 7bbe 4a51 8bbe 599d e33a
00000040: f8a6 6d3d cd46 eabc ae5f abbd 9bac e83c
00000050: 5163 10bd fcdb 80bd e2c6 98bd da25 4dbe
00000060: 02f5 573e 9324 f7bd a28b aaa7 92b8 073f
00000070: c919 5da0 bc4a 73bb 7fce 4f3d 1542 cabd
00000080: 6590 82ad a22b 1bbe f200 90bd 901a e9bc
00000090: b67b 1a3d 90ab 8cbe efd1 00bd c9b6 fa9a
000000a0: 63b2 b03d 5488 99bd 07a6 543d e392 2abd
000000b0: 45ce 05be fcfd acbd fd4c c9a9 852b 23be
000000c0: 5067 42bc b231 26a4 e382 44ac 49e5 f0bc
000000d0: 11fd dfbd 30d8 80bd b91f 53bd fb5e babd
000000e0: 784b ebb6 1853 aea4 96d9 8bbe 832e cbbc
000000f0: 53bd 6f3d 76a4 f4bd 7dce 04be 6172 95bd
00000100: 8eef 9bbc 5801 8abe 560d 08bd 310f 1cbe
00000110: e557 83b6 6f5a 40bd e721 4b3e fe65 31be
00000120: 7ad6 aebd e78b 73be 629c 42bd 3629 74a0
00000130: 8b0b 683e 85a0 d0bd 21ce ddbd 1120 8b3d
00000140: 3eae 99bd 2621 5daa 5f99 05be 3b40 56be
00000150: a044 4bbe 3e3e 0abb 97d7 2dbe 9517 0bbe
00000160: 11d5 31be 6468 01be ea48 95be 5a9d 0fbe
00000170: e4a5 90bd f68e 4bbc 51d2 dabd 26a5 76bd
00000180: 8304 00be 5a5b b0bd c042 e7bd c607 083d
00000190: 1af4 f2bd 2a9c 2fbe f8b5 e8bd c501 11be
000001a0: f68d 16be 083c 3dbd e3be 24bd 201a c1a2
000001b0: 191e 45be 399b 643c 31e4 9ebd cb64 34be
000001c0: 412c 85be ede0 bcbc eba5 4abe 5d74 09be
000001d0: 3afc 453d 2df7 4fbd 51a6 90be a242 c8be
000001e0: 1f24 243c 38db c4bd 40e6 77bc c2ae 163d
000001f0: 4389 6abe 0461 eebd 9c43 dcbd 4b88 9ebd

p_conv1.weight f4 [4, 128, 1, 1]
0.03610273 0.14353509 -0.050764903 -4.7953745e-07 -0.10079376 0.0072753234 -0.060681332 -0.045088768
0.017186454 -0.007633026 0.22891925 -0.108667806 -0.04276036 0.0032457395 -0.013566067 0.0052462807
0.15115894 0.031612385 -0.003313402 -0.04674909 -0.00939621 -0.029313788 0.28225404 -0.058002055
-0.12638307 0.123691835 3.4826403e-10 0.02832941 4.3281922e-20 -0.048089627 0.00065254985 0.020227147
-1.633097e-39 -0.003911751 0.3780058 0.089266054 -0.041543864 0.44036514 0.02472056 6.162577e-39
-0.01950885 0.05141535 -0.0064473893 0.013690193 0.009315811 0.032757256 -1.966186e-39 0.0044103684
0.117905915 1.1573e-39 -0.00020900146 0.01798795 -0.018523803 0.0036617697 -0.022099553 0.12689742
-2.0531288e-06 -5.592245e-08 0.001880888 0.27214798 0.014863049 -0.015243265 -0.011629329 0.16453995
0.027910795 -0.012381617 0.023652725 0.017211055 -4.775032e-39 -0.31144792 0.0559577 -0.0058189677
0.08655707 -0.038418237 -0.023162257 2.935818e-39 0.078489535 -0.14558999 0.64475965 -0.02016798
-0.03152205 -1.530062e-39 -0.15822336 0.044909142 0.011833166 -0.01425205 -0.013379188 -0.04797339
-0.24030009 0.010796073 -0.004771256 0.0036836304 -0.0032595415 0.0048026945 0.050249573 -0.051672336
-0.009422559 0.03163349 0.118311584 0.021786012 0.098724395 -0.004316026 0.016214317 -0.034449358
4.700634e-05 -0.008212088 -0.028981606 2.8210783e-11 0.022254858 -0.28517124 0.11152236 0.022347579
0.042919967 0.0091402205 0.003855173 0.012176124 -0.032911528 0.030709768 0.009151899 -0.012870911
0.07436198 -0.041549657 0.07686852 -0.031120384 -0.08848727 -0.24454072 -0.048972685 -0.0026324114
0.00029717069 0.08172634 0.0860887 -2.1838749e-09 0.093733266 -0.021257857 0.0100135645 -0.07478054
0.0046516177 -2.2674954e-05 0.0046330686 0.04974776 0.16796426 -0.0036628623 0.0005366283 0.031847414
0.07718628 -0.007331663 -0.014357447 0.04832182 -0.013227145 -0.091965154 -0.0078009893 -0.056296412
0.07998135 -0.0019620392 1.2998271e-07 0.116424754 -1.16851e-40 -0.08715816 0.018726934 0.018040935
2.556159e-23 0.0006898649 -0.074379645 -0.31482247 0.11172036 -0.03595503 0.052407894 1.90048e-40
0.008579572 0.0026233292 -0.0045916582 0.0037694431 0.00035291695 -0.02268573 5.883154e-39 -0.0018002944
0.015328106 -3.2857777e-05 3.023568e-39 -0.0107265115 -0.009255539 0.014099924 0.004088256 -0.35157305
6.1935816e-09 1.0973235e-06 -0.079744756 0.050365333 0.00040713855 -0.008858932 0.021755863 0.0036909503
-0.016010504 0.01537306 0.016843949 0.0008748898 1.1067588e-05 0.042688314 0.078397796 0.0021506802
-0.016840389 -0.13586082 0.004723946 6.001411e-39 0.15892006 -0.06600318 -0.113356516 9.872734e-05
-0.03767906 6.259973e-39 0.023882292 -0.020951848 -0.00046194255 0.0031157108 0.023303693 -0.004138509
-0.049114037 -0.017472634 -0.0020050574 -0.004961752 -0.0029087865 -0.026363857 0.008655521 -0.061737116
0.013995221 0.044926666 -0.16698252 0.0043489453 0.004192993 0.006207485 -0.0015157951 0.014900334
0.0038722237 -0.020248016 0.042245794 7.586467e-07 -0.04847049 0.0036600616 -0.08564367 0.000588635
-0.010351798 0.12664057 0.0077581187 -0.019416714 -0.0026268247 0.03862876 0.015357716 -0.0015471427
0.1360349 -0.011197852 0.058093756 0.015668405 -0.26848656 -0.18170877 -0.13703258 0.02374487
00000000: 75e0 133d ddfa 123e dcee 4fbd 90b9 00b5
00000010: f56c cebd d665 ee3b fd8c 78bd 00af 38bd
00000020: 9bca 8c3c 771e fabb cf69 6a3e 3a8d debd
00000030: 7d25 2fbd 79b6 543b 3644 5ebc fee8 ab3b
00000040: 69c9 1a3e fd7b 013d a925 59bb f97b 3fbd
00000050: 90f2 19bc 7823 f0bc 9a83 903e 9093 6dbd
00000060: 906a 01be 2552 fd3d ce75 bf2f 1413 e83c
00000070: a264 4c1f a1f9 44bd e10f 2b3a 67b3 a53c
00000080: 69c8 1180 252e 80bb fa89 c13e 1fd1 b63d
00000090: e629 2abd 8a77 e13e c682 ca3c c21a 4300
000000a0: 06d1 9fbc e798 523d 9f44 d3bb d54c 603c
000000b0: 58a1 183c 792c 063d ed68 1580 da84 903b
000000c0: a878 f13d 159a 0c00 6727 5bb9 775b 933c
000000d0: 3bbf 97bc 4dfa 6f3b 1f0a b5bc 66f1 013e
000000e0: 7cc8 09b6 622f 70b3 2188 f63a fb56 8b3e
000000f0: 2584 733c e3be 79bc f188 3ebc 297d 283e
00000100: 2ea5 e43c 44dc 4abc 5cc3 c13c 33fe 8c3c
00000110: d9fe 3380 1a76 9fbe e733 653d 0aad bebb
00000120: d544 b13d 715c 1dbd c6be bdbc def7 1f00
00000130: 1fbf a03d 8b15 15be f80e 253f 5237 a5bc
00000140: 441d 01bd 31a9 1080 4e05 22be a6f2 373d
00000150: e5df 413c 6e81 69bc 6234 5bbc bf7f 44bd
00000160: 3a11 76be 03e2 303c 3258 9cbb 1069 713b
00000170: 089e 55bb ec5f 9d3b 7fd2 4d3d 5fa6 53bd
00000180: 1461 1abc 1e92 013d 584d f23d 9478 b23c
00000190: 0430 ca3d 736d 8dbb e3d3 843c c51a 0dbd
000001a0: ac28 4538 fe8b 06bc d56a edbc 0925 f82d
000001b0: d24f b63c f701 92be d665 e43d 4512 b73c
000001c0: d9cc 2f3d ddc0 153c 12a7 7c3b 5e7e 473c
000001d0: 3dce 06bd 0d93 fb3c d9f1 153c 83e0 52bc
000001e0: 184b 983d f92f 2abd 3e6d 9d3d 2df0 febc
000001f0: d038 b5bd e268 7abe 9597 48bd 8984 2cbb
00000200: 93cd 9b39 2460 a73d 464f b03d 2213 16b1
00000210: 3af7 bf3d f524 aebc ef0f 243c 8a26 99bd
00000220: 996c 983b 1836 beb7 ffd0 973b 4fc4 4b3d
00000230: d3fe 2b3e a20c 70bb 84ac 0c3a 6f72 023d
00000240: d713 9e3d 723e f0bb 7f3b 6bbc 1aed 453d
00000250: abb6 58bc 3a58 bcbd 719f ffbb 1197 66bd
00000260: 43cd a33d 8e95 00bb 6091 0b34 1a70 ee3d
00000270: bc45 0180 fa7f b2bd 3a69 993c 95ca 933c
00000280: 6e37 f719 0dd8 343a 5b54 98bd 6930 a1be
00000290: a5cd e43d 9545 13bd a9a9 563d c711 0200
000002a0: 5591 0c3c 29ec 2b3b 9f75 96bb c308 773b
000002b0: b607 b939 6dd7 b9bc d70f 4000 dbf7 ebba
000002c0: bc22 7b3c c5d0 09b8 7aec 2000 40be 2fbc
000002d0: 8ba4 17bc 5e03 673c c7f6 853b 6201 b4be
000002e0: 52cf d431 c047 9335 3851 a3bd e14b 4e3d
000002f0: 3675 d539 0e25 11bc 5a39 b23c dfe3 713b
00000300: 7628 83bc 49df 7b3c 52fc 893c dc58 653a
00000310: eeae 3937 f1d9 2e3d 068f a03d 6df2 0c3b
00000320: dbf4 89bc 191f 0bbe 55cb 9a3b 7e59 4100
00000330: f1bb 223e ad2c 87bd 7627 e8bd d60b cf38
00000340: 5c55 1abd 422a 4400 cca4 c33c 36a3 abbc
00000350: e130 f2b9 f430 4c3b 63e7 be3c 549c 87bb
00000360: cd2b 49bd c522 8fbc 4867 03bb 3196 a2bb
00000370: 57a1 3ebb 04f9 d7bc e3cf 0d3c 0fe0 7cbd
00000380: 364c 653c 0605 383d 77fd 2abe 9981 8e3b
00000390: 6065 893b 2968 cb3b a5ad c6ba 8820 743c
000003a0: 22c5 7d3b 2bdf a5bc ed09 2d3d cea5 4b35
000003b0: fe88 46bd a5dd 6f3b f365 afbd a04e 1a3a
000003c0: 969a 29bc 11ae 013e d137 fe3b cd0f 9fbc
000003d0: ce26 2cbb 3139 1e3d ee9e 7b3c 7fc9 caba
000003e0: bc4c 0b3e 3277 37bc b8f3 6d3d 075b 803c
000003f0: 1277 89be dd11 3abe 4552 0cbe 9a84 c23c

p_conv1.bias f4 [4]
0.16173108 0.76113105 -0.10583303 -0.17106636
00000000: d59c 253e 7cd9 423f fdbe d8bd 052c 2fbe

p_fc1.weight f4 [64, 256]
0.035400722 -0.02853318 -0.011760102 -0.0539573 -0.022632346 0.030965133 -0.051581506 -0.040483043
-0.11311824 -0.09872486 0.0061814417 -0.02650478 0.0039876914 0.037832186 -0.061346836 -0.15397902
-0.034319006 0.019362954 0.039580114 0.04112993 -0.068689294 0.022948785 0.011045132 0.026068017
-0.04545265 -0.003449081 0.0791306 0.024426268 0.041467458 -0.007660318 0.044315908 0.059764635
-0.023200389 -0.05238499 -0.027178036 -0.006717793 0.023313241 0.07810199 0.03462359 0.02577739
0.012677018 0.046736334 -0.14782341 0.012911365 -0.036050256 0.04427775 0.0046797697 -0.05016589
0.2611275 -0.34467474 -0.096678935 -0.037629053 -0.08406298 0.117159754 -0.08818721 -0.08795613
0.5323913 0.23433506 -0.12065231 -0.03566644 -0.018593946 0.08512778 -0.07430418 0.08545417
0.08888324 0.0053739846 0.033559952 0.05381835 0.07470974 0.17861383 0.046729952 0.030438857
-0.04615119 0.038169406 -0.0866376 -0.008663834 -0.045814823 0.07062406 -0.033247683 -0.11882529
0.10061334 0.018006569 -0.04212853 -0.05321207 -0.05857978 0.040744115 -0.06834236 -0.043637007
0.0033898503 -0.015533981 0.003291062 -0.05379428 -0.058751486 0.016537676 -0.06230556 -0.06002556
0.08869521 0.085133135 0.07817307 -0.06074585 -0.05026976 -0.06476671 -0.09505183 -0.009976102
0.31580675 0.02656314 0.024182692 0.027469255 -0.03917608 0.07651253 -0.15225253 -0.02059738
-0.19862488 0.015301607 0.034059644 0.041611277 -0.051394198 -0.029552424 -0.2108558 -0.13554576
-0.3238611 0.15611088 -0.12079714 0.0021970104 -0.13915439 -0.02572525 -0.30089125 -0.1277793
-6.90214e-40 -2.510743e-39 5.209829e-39 1.740798e-39 -2.652537e-39 -3.8465e-40 -3.024264e-39 -3.076116e-39
-4.1193e-41 2.412146e-39 -6.406249e-39 4.740039e-39 6.11446e-39 -8.2312e-41 4.459362e-39 6.94304e-39
-5.16395e-39 5.874654e-39 -9.9404e-40 1.456508e-39 -1.525431e-39 -4.897156e-39 -5.353736e-39 1.898674e-39
-3.1147e-39 2.492927e-39 6.262687e-39 -5.54043e-39 -2.299744e-39 6.626226e-39 4.46958e-40 1.467241e-39
-5.98192e-40 4.45092e-40 7.9539e-41 1.984445e-39 7.63258e-40 -5.683465e-39 3.80699e-40 -5.700217e-39
-4.395701e-39 7.055839e-39 2.0201e-40 5.488746e-39 6.224386e-39 -1.854941e-39 1.2875e-41 -2.239683e-39
4.634862e-39 -7.21145e-40 -1.648555e-39 -2.736695e-39 2.498095e-39 7.462862e-39 3.322048e-39 -4.289852e-39
-2.371074e-39 2.874107e-39 -3.537568e-39 -5.853169e-39 -4.23363e-40 -7.397261e-39 1.701402e-39 2.682632e-39
0.090549305 -0.048044205 0.011885111 -0.16907936 0.04266371 -0.06556565 0.06251891 -0.053780057
-0.056839556 -0.008807192 0.043104332 -0.113475695 -0.10451974 0.039197035 -0.064413495 -0.032251447
0.05453525 -0.10698528 -0.028264819 -0.061311916 0.032276142 -0.02607677 -0.0683696 -0.046050586
-0.10048944 0.027656276 0.028390469 -0.027643386 -0.065606534 -0.030330764 -0.06556684 -0.053661976
-0.052945826 0.04946601 -0.038033605 -0.10155575 0.062019005 -0.05318263 -0.10743696 -0.14196563
0.06975508 -0.042493235 -0.0698393 -0.04906921 -0.12526594 -0.104923934 -0.09306703 -0.07217435
0.023352215 -0.010091411 0.012022757 -0.13535525 -0.01739209 -0.12555797 0.037384473 -0.12787057
0.21133193 0.0054974374 -0.06244138 -0.051560447 -0.020108914 0.00051477674 -0.056801565 0.104062505
00000000: 5900 113d 6abe e9bc 71ad 40bc 5402 5dbd
00000010: 7867 b9bc 97aa fd3c 2147 53bd 8cd1 25bd
00000020: 89aa e7bd 4230 cabd b18d ca3b 8d20 d9bc
00000030: 2eab 823b ecf5 1a3d d246 7bbd adac 1dbe
00000040: 1692 0cbd 0f9f 9e3c c21e 223d dc77 283d
00000050: f9ac 8cbd 17ff bb3c a4f6 343c 988c d53c
00000060: 8f2c 3abd fa09 62bb 390f a23d 9919 c83c
00000070: c8d9 293d 6803 fbbb 9984 353d c3cb 743d
00000080: be0e bebc a591 56bd 79a4 debc ef20 dcbb
00000090: 69fb be3c f0f3 9f3d 77d1 0d3d 1b2b d33c
000000a0: 44b3 4f3c 996e 3f3d 055f 17be 318a 533c
000000b0: 6fa9 13bd 965c 353d c158 993b c07a 4dbd
000000c0: 81b2 853e 3579 b0be 9bff c5bd ec20 1abd
000000d0: 3629 acbd 74f1 ef3d 7f9b b4bd 5822 b4bd
000000e0: cc4a 083f 88f5 6f3e 8f18 f7bd f916 12bd
000000f0: 5552 98bc 7957 ae3d ca2c 98bd 9902 af3d
00000100: 6b08 b63d 4018 b03b 2976 093d a170 5c3d
00000110: 6c01 993d 8be6 363e e867 3f3d e95a f93c
00000120: 0809 3dbd 8657 1c3d 0e6f b1bd c1f2 0dbc
00000130: 53a8 3bbd 59a3 903d b92e 08bd ac5a f3bd
00000140: 5e0e ce3d 8382 933c f78e 2cbd e6f4 59bd
00000150: 5af1 6fbd 4de3 263d 14f7 8bbd b8bc 32bd
00000160: 4028 5e3b 3d82 7ebc dcae 573b 6457 5cbd
00000170: 66a5 70bd 057a 873c 1d34 7fbd 5ddd 75bd
00000180: d6a5 b53d 485a ae3d 3419 a03d a4d0 78bd
00000190: aae7 4dbd 69a4 84bd 89aa c2bd ce72 23bc
000001a0: 6cb1 a13e f19a d93c c81a c63c 3407 e13c
000001b0: 1977 20bd 9ab2 9c3d 16e8 1bbe d6bb a8bc
000001c0: 5264 4bbe 97b3 7a3c 2082 0b3d 9670 2a3d
000001d0: b982 52bd ed17 f2bc 95ea 57be 82cc 0abe
000001e0: 1fd1 a5be 88db 1f3e 7e64 f7bd b8fb 0f3b
000001f0: 7d7e 0ebe c2bd d2bc 6b0e 9abe 94d8 02be
00000200: 0984 0780 ee56 1b80 e2ba 3800 a3f4 1200
00000210: 32e2 1c80 3f30 0480 6bee 2080 f67e 2180
00000220: d472 0080 1544 1a00 04c2 4580 4d9d 3300
00000230: a094 4200 74e5 0080 e38e 3000 5f9a 4b00
00000240: fe3a 3880 25f8 3f00 fbd2 0a80 27dc 0f00
00000250: 489c 1080 4753 3580 0a4c 3a80 bbac 1400
00000260: 84ea 2180 4425 1b00 d331 4400 7754 3c80
00000270: c00a 1980 3927 4800 f0dd 0400 12fa 0f00
00000280: 8483 0680 bcd8 0400 b9dd 0000 d39b 1500
00000290: a74f 0800 30e3 3d80 3c25 0400 e311 3e80
000002a0: 6ddd 2f80 cfd4 4c00 1f33 0200 64c4 3b00
000002b0: 0ec7 4300 d232 1480 e423 0000 5363 1880
000002c0: 1c78 3200 42da 0780 80f3 1180 cbcc 1d80
000002d0: ac33 1b00 6c43 5100 852c 2400 5db6 2e80
000002e0: 97d1 1980 d74b 1f00 4d85 2680 41bc 3f80
000002f0: 2a9c 0480 8e8c 5080 d186 1200 1636 1d00
00000300: ea71 b93d 00ca 44bd c5b9 423c 2423 2dbe
00000310: 24c0 2e3d 4947 86bd ea09 803d 7a48 5cbd
00000320: 98d0 68bd 0a4c 10bc 2b8e 303d f265 e8bd
00000330: 720e d6bd 128d 203d 39eb 83bd 181a 04bd
00000340: 5b60 5f3d 191b dbbd 9f8b e7bc 3422 7bbd
00000350: fd33 043d f39e d5bc 5c05 8cbd 8a9f 3cbd
00000360: 68cd cdbd 6a8f e23c 2193 e83c 6274 e2bc
00000370: b85c 86bd 3978 f8bc e847 86bd a9cc 5bbd
00000380: b9dd 58bd df9c 4a3d 20c9 1bbd 76fc cfbd
00000390: a407 7e3d 08d6 59bd e907 dcbd 705f 11be
000003a0: c0db 8e3d 630d 2ebd e807 8fbd ccfc 48bd
000003b0: b745 00be 5ce2 d6bd ed99 bebd 25d0 93bd
000003c0: 254d bf3c 7256 25bc 19fb 443c 919a 0abe
000003d0: db79 8ebc 4592 00be 7620 193d 81f0 02be
000003e0: 6667 583e d923 b43b 88c2 7fbd 0c31 53bd
000003f0: 73bb a4bc 15f2 063a c2a8 68bd b91e d53d

p_fc1.bias f4 [64]
-0.3526483 0.047431592 0.009854925 -0.08811158 -0.11426232 0.012014329 0.03236106 -0.25738108
-0.06346228 0.15383269 0.2450032 -0.02227197 -0.0036401593 0.2660706 0.02481095 -0.039213195
-0.098772965 0.27538896 0.26336327 -0.06306502 -0.14777562 0.28676674 0.3183044 -0.0403363
-0.26619586 0.04524592 -0.08001032 0.26933897 0.26049778 -0.029994782 -0.03781073 -0.2102581
-0.17895977 0.110411905 -0.08222088 0.32945937 0.27081105 -0.08165476 0.031532697 -0.18579082
-0.08712015 0.2852776 0.2056691 -0.15427707 -0.1752804 0.32099125 0.22142625 -0.025804719
-0.046509773 0.23296921 0.11140405 0.061905757 -0.06209024 0.23876955 0.12445924 -0.01133339
-0.31820446 -0.14465569 -0.081759684 -0.21277452 -0.20842834 -0.06867577 -0.08690741 -0.3590431
00000000: 518e b4be a147 423d 8d76 213c d873 b4bd
00000010: 5d02 eabd c0d7 443c 088d 043d 74c7 83be
00000020: 83f8 81bd 5186 1d3e 1ee2 7a3e b573 b6bc
00000030: bd8f 6ebb 683a 883e 5540 cb3c 049e 20bd
00000040: 7b49 cabd c8ff 8c3e 8dd7 863e 3c28 81bd
00000050: 7e52 17be 17d3 923e cbf8 a23e ad37 25bd
00000060: d34a 88be c953 393d 73dc a3bd cce6 893e
00000070: f75f 853e 9eb7 f5bc 6ddf 1abd e64d 57be
00000080: 3b41 37be a31f e23d 6c63 a8bd e6ae a83e
00000090: bfa7 8a3e 9c3a a7bd 6e28 013d f33f 3ebe
000000a0: 0d6c b2bd e80f 923e ec9a 523e cffa 1dbe
000000b0: b57c 33be f758 a43e 90bd 623e 6b64 d3bc
000000c0: 0881 3ebd 7b8f 6e3e ce27 e43d e490 7d3d
000000d0: 5652 7ebd 0180 743e 7ce4 fe3d afaf 39bc
000000e0: b2eb a2be 9f20 14be 9f71 a7bd 90e1 59be
000000f0: 3d6e 55be e2a5 8cbd 83fc b1bd 7fd4 b7be

value_conv1.weight f4 [2, 128, 1, 1]
-5.106874e-36 -0.036930416 -0.0874193 2.36174e-39 -5.710673e-21 -4.845734e-39 -2.613066e-39 -1.47708565e-08
-1.338822e-10 -5.4943546e-11 0.022378057 -7.18025e-39 -7.450391e-39 -1.6569893e-06 -4.98697e-40 -9.924875e-17
-3.848183e-25 -0.015931387 0.0016223332 -2.1627688e-08 -0.0005951958 -1.7560518e-10 -4.2605686e-10 -1.231877e-39
-0.12930618 1.696961e-39 1.375582e-39 -0.05831994 1.890234e-39 2.275346e-39 -8.388319e-09 -1.704917e-15
-1.34646e-39 -0.08565989 -7.760202e-06 9.73747e-40 -3.447699e-39 -5.380628e-14 -6.7818956e-19 2.41597e-39
-0.030468902 -5.3211327e-08 -0.00039503165 6.349737e-34 1.1995772e-31 -0.00019169794 -1.68478e-39 3.594185e-21
-2.177095e-39 4.66498e-39 2.544901e-39 -0.001873899 -7.346135e-12 -3.466946e-39 -0.0650785 6.504211e-39
-3.095992e-39 4.175867e-39 -3.38989e-39 -6.058271e-36 -3.972951e-25 -0.015836004 -0.046528213 -0.079448074
2.046295e-39 -6.687635e-39 4.886403e-38 3.304335e-39 5.174599e-39 -8.050393e-12 -3.681119e-16 -0.08718889
2.728963e-39 2.89169e-39 -0.024569545 -6.412003e-39 4.781614e-38 -5.36774e-39 -2.2686277e-31 3.4792473e-36
-7.269251e-08 2.332593e-39 -1.3187408e-17 -1.435958e-39 1.435501e-39 1.947415e-39 3.068961e-39 -4.019955e-39
-0.034401856 7.099899e-39 -1.3269087e-16 -3.1396457e-13 -3.9648888e-17 -5.362241e-39 1.785609e-39 7.634927e-39
-7.93503e-40 -6.0966267e-06 -2.4865939e-16 -8.626012e-11 -6.724107e-39 -1.898995e-39 -0.00017895947 0.0020936874
-0.0038346783 1.679416e-39 3.795396e-39 3.222098e-39 -0.0010058907 -0.0036698785 -0.048678957 -9.6571e-12
-0.10798524 -1.744879e-39 -3.709597e-13 -0.0016992118 -0.005454445 -1.312303e-39 -1.9651992e-07 -5.532092e-10
-1.211498e-39 -0.022900226 -7.751872e-09 -0.026776616 -6.2838103e-13 -7.6524225e-13 -1.7101315e-11 -1.3163377e-17
0.1423693 -0.007107661 -0.12606122 -0.0010056723 0.027848033 -0.23973343 -0.051898804 0.1243922
0.3204266 0.16289291 0.004133713 -0.121321164 -0.22545576 0.089483336 -0.31345028 -0.15755008
0.07756679 -0.3513255 0.10522269 0.092144154 0.21380663 -0.40284872 0.28288126 -0.27475455
-0.0063508935 0.14962144 -2.7993872e-05 0.017200923 0.005508991 -0.33012125 -0.3917854 -0.22512104
-0.00033670495 -0.23920327 0.17214704 -0.054964803 -0.046196364 0.0712093 0.20747617 -0.0012095274
-0.38188773 0.1441227 -0.24066012 -0.23696935 -0.14526767 -0.23441933 -7.590708e-18 -0.3352528
0.13369006 0.0045495643 -0.03103048 -0.30147788 0.1628878 -0.5142246 -0.23813076 0.13198748
-0.0023994735 -0.00047951096 0.12839507 0.08777726 -0.7088777 -0.3687343 0.28663474 -0.18569198
-0.40151402 0.21530305 -0.0035454123 -0.34197253 -0.0002481127 0.17228593 -0.06165634 -0.56585014
0.052900515 -0.23664834 -0.27354437 -1.2220965e-05 -0.11700605 0.024414005 -0.30284417 -0.39337948
-0.20674281 0.0028358372 0.048482224 0.37329903 0.1827493 0.051261853 0.25237417 0.23305763
0.07341479 -0.26844144 0.2150513 0.17725816 0.2935061 -0.036715064 0.31368163 0.058318585
0.24796678 0.06765686 0.008245492 -0.2168769 -0.4395542 0.20280835 -0.5641797 0.21580176
-0.47766522 -0.15528001 0.006175311 0.0013198612 -0.29565933 -0.08123032 0.026691668 0.32080534
-0.29216778 0.045618504 0.30597386 -0.27622935 -0.3255479 -0.3051924 -0.19085035 0.28909335
0.08118402 -0.1078171 0.19451204 -0.5930028 -0.145335 0.034508627 0.16692224 0.2522748
00000000: ef38 d984 5944 17bd e408 b3bd 92b7 1900
00000010: 3ebe d79d efc3 3480 2a74 1c80 eac2 7db2
00000020: 7d34 13af efa4 71ae 3052 b73c 9e2f 4e80
00000030: a920 5180 b865 deb5 2a6e 0580 1fda e4a4
00000040: e530 ee96 8a82 82bc 78a4 d43a cac7 b9b2
00000050: ea06 1cba 7714 41af 2c3a eaaf f969 0d80
00000060: d768 04be 707a 1200 90fa 0e00 e4e0 6ebd
00000070: 3495 1400 bdc6 1800 381c 10b2 56b4 f5a6
00000080: 62a9 0e80 746e afbd d031 02b7 699a 0a00
00000090: c88a 2580 6b52 72a9 8e2a 48a1 be4e 1a00
000000a0: eb99 f9bc 798a 64b3 401c cfb9 9701 5308
000000b0: cab6 1b0c 8602 49b9 7b58 1280 d3c8 871d
000000c0: dbb4 1780 11cc 3200 26b6 1b00 9e9d f5ba
000000d0: 0d3c 01ad 6fc0 2580 e047 85bd 18d3 4600
000000e0: 5eb6 2180 9e78 2d00 a2e9 2480 5dd8 0085
000000f0: ece9 f596 82ba 81bc 5e94 3ebd acb5 a2bd
00000100: 3d48 1600 68d2 4880 4205 8501 24fb 2300
00000110: ad58 3800 bf9f 0dad ba33 d4a5 1790 b2bd
00000120: 3db7 1d00 db7c 1f00 1246 c9bc 0ed2 4580
00000130: fc2a 8201 1373 3a80 0b3e 938c a6fd 9304
00000140: 211b 9cb3 5266 1900 c643 73a3 dea2 0f80
00000150: 98a1 0f00 9a34 1500 046b 2100 00c6 2b80
00000160: f6e8 0cbd a14f 4d00 6ffb 18a5 10bf b0aa
00000170: 25d9 36a4 bf63 3a80 8d71 1300 1223 5300
00000180: f7a3 0880 a091 ccb6 a657 8fa5 21b0 bdae
00000190: 1338 4980 a0ad 1480 11a7 3bb9 3f36 093b
000001a0: 3a4f 7bbb 8749 1200 0554 2900 e615 2300
000001b0: 17d8 83ba 5882 70bb 9663 47bd b6e3 29ad
000001c0: 5e27 ddbd 0300 1380 edd4 d0aa 16b8 deba
000001d0: 33bb b2bb 2b4a 0e80 fc02 53b4 a310 18b0
000001e0: 2a31 0d80 4199 bbbc 182d 05b2 a25a dbbc
000001f0: a0df 30ab 8465 57ab bd6c 96ad 4ad2 72a3
00000200: 42c9 113e 62e7 e8bb 3116 01be c3d0 83ba
00000210: 8f21 e43c ae7c 75be d793 54bd 56c1 fe3d
00000220: f50e a43e 66cd 263e 1974 873b 3b77 f8bd
00000230: e0dd 66be 0a43 b73d 8e7c a0be cf54 21be
00000240: 56db 9e3d f0e0 b3be fe7e d73d 13b6 bc3d
00000250: 20f0 5a3e 3042 cebe d0d5 903e a1ac 8cbe
00000260: 281b d0bb 5d36 193e 62d4 eab7 f3e8 8c3c
00000270: c484 b43b a705 a9be 1998 c8be 2186 66be
00000280: c687 b0b9 b4f1 74be 5047 303e c622 61bd
00000290: 6638 3dbd 2ed6 913d a274 543e 0189 9eba
000002a0: ca86 c3be e794 133e 9b6f 76be 18a8 72be
000002b0: 0cc1 14be 9f0b 70be 1b06 0ca3 41a6 abbe
000002c0: 0ce6 083e 8314 953b a233 febc 4f5b 9abe
000002d0: 0fcc 263e 39a4 03bf 8dd8 73be ba27 073e
000002e0: 7c40 1dbb df66 fbb9 ff79 033e 90c4 b33d
000002f0: 0279 35bf beca bcbe cac1 923e 0a26 3ebe
00000300: 3f93 cdbe 6778 5c3e 265a 68bb 0617 afbe
00000310: 1f15 82b9 b96b 303e 5c8b 7cbd 8edb 10bf
00000320: 36ae 583d f153 72be 020e 8cbe a508 4db7
00000330: dea0 efbd e1ff c73c 640e 9bbe 0969 c9be
00000340: 63b4 53be 74d9 393b 4c95 463d 0d21 bf3e
00000350: a222 3b3e f3f7 513d 3037 813e a9a6 6e3e
00000360: 7e5a 963d 2871 89be 6836 5c3e 2a83 353e
00000370: 6e46 963e 8962 16bd e19a a03e 78df 6e3d
00000380: 01eb 7d3e ae8f 8a3d 1a18 073c fa14 5ebe
00000390: 400d e1be feac 4f3e 156e 10bf 23fb 5c3e
000003a0: 8990 f4be b901 1fbe 435a ca3b 31ff ac3a
000003b0: a960 97be 155c a6bd 7ca8 da3c 9940 a43e
000003c0: 0497 95be 78da 3a3d 9ba8 9c3e ef6d 8dbe
000003d0: 37ae a6be 2e42 9cbe 466e 43be 0b04 943e
000003e0: cf43 a63d 36cf dcbd 2a2e 473e 08cf 17bf
000003f0: b3d2 14be eb58 0d3d aaed 2a3e 2a2a 813e

value_conv1.bias f4 [2]
-0.057106737 0.20594698
00000000: c1e8 69bd c4e3 523e
