model/cnn/9x9/1pc/20000play/9.pt (torch_old, 526869 bytes, 15 tensors)

conv1.weight f4 [32, 4, 3, 3]
00000000: 2da1 14bc f821 d43e d8b2 593c b925 42be
00000010: 6e94 943e be96 76be 41b5 90bd ab11 233f
00000020: d0d1 bcbd f1b2 c7bd 1fdf e8be 8106 85bd
00000030: f228 f5bd 00e9 97be e96d 0dbe 934f b4bd
00000040: 7dd2 a0be 89a0 96bd 51d7 7f3d 1dca 61bc
00000050: 5caa 0e3e aa3e f53d 1fa0 8cbd 3fb2 d53d
00000060: b721 333e 9e3a 873d 94ac ef3d a1c4 ce3c
00000070: 2ae0 673d c7e8 37bd e2eb 02be 78cb 283b
00000080: 7dd1 5fbd aec4 babd 7b1f b63d d1e3 5a3c
00000090: 6947 d13e 5e99 753c bcd9 e63e 5d50 b8bc
000000a0: dab2 873d 707c 8abc 968f dd3e 3790 04bd
000000b0: 665e cb3e f1a4 39bd e683 00be 2c4a 5fbd
000000c0: 7d05 27be bb60 d2bc a875 19be a137 80bd
000000d0: d361 49be 3fcf 78bd a05a f53d c5a1 013e
000000e0: 460e 1d3e a16c 283e 96f7 9a3e 6cd0 1e3e
000000f0: e758 1c3e 1d96 043e eaed 413e c340 d4bd
00000100: 36ac b1bd a029 87bd 29fb d6bd e32f 25be
00000110: 727a c6bd f0c7 ffbd b87b dbbd f53a 0cbe
00000120: a7bf 513d 9fde f5bd 2290 483d 1f88 96bd
00000130: 3c59 02be 916b 2ebd c979 a7bd 3b7b 083d
00000140: 2465 72bd 14a6 713d 7bc6 72bd a7dd 263d
00000150: 9a8a 62be 1e7c 25be 79e4 50be 5324 45be
00000160: 58e5 663f e2ce 0ebe 4341 423c 80ea 9e3a
00000170: 238c 2a3d 058a 9abc adf6 10bd 6290 61bd
00000180: 5147 70bd 3f57 8d3e a887 3ebd 4e01 4bbd
00000190: 2f3d 403d a681 873d 7561 8dbd ff7f 7b3d
000001a0: 83eb e9bc 4042 da3c fb0e cf3d 11f7 2abd
000001b0: a446 163f 00ca 733e fda9 233f b0a1 623e
000001c0: 61e2 7b3e 4263 4f3e a2e8 083f 2fb3 683e
000001d0: d45c 0c3f 0d20 f7be be17 88bd 7a41 e4be
000001e0: 7601 85bd 9a4c 01bf 2c56 b5bd e2bf ebbe
000001f0: 84f2 3abd 9faa dcbe 15c6 833e 78a9 b63d
00000200: 1df2 813e 30bf a43d 9a21 b33e 175a 163e
00000210: b654 973e 77c5 cd3d 6605 803e 398b 853d
00000220: be66 203d c916 de3c bf4b 30bd bba4 5bbd
00000230: c4f2 c53b caf8 c63d b541 cd3d 9e67 ed3c
00000240: d7be 0fbd 5f69 2abd f7d8 9cbc 6735 b63c
00000250: c062 f7bd 7058 0e3d 7f02 b73e 602c c43e
00000260: 6888 a23e 82de 5f3c 55a1 5c3d 4bf7 543c
00000270: 8ca3 ec3b 640b 02bd a891 ccbb 7b41 cfbe
00000280: b4e2 b6be 072b e9be ac4f 7ebc 075f 94bb
00000290: e231 e6bc 05e4 213d 75f7 3b3d 02b6 ac3d
000002a0: 0e76 043e 6320 9cbb 63b4 1a3e 5a22 723c
000002b0: f31f e6bd 0d95 6f3c 8dbe 203e 941f f63c
000002c0: 5f5b 5b3e 7bea 16be 60a6 3dbe 2d5a debd
000002d0: 3542 9dbd e9da 3dbc decc 0bbe 261c 4dbe
000002e0: 2ca2 10be 5138 43bd 7cd6 13bd 4477 9cbe
000002f0: fa74 32be f780 dcbd 7532 37bd 1224 c5bd
00000300: 6f7d 353b 5d9d 503e 2861 8abb 8d96 0d3f
00000310: db5e 80bd 7aac bebc 2395 c53a 8a46 2c3e
00000320: b55b e53d 61a0 53be 55c6 ecbd 0265 0e3c
00000330: fef5 cfbe d82f 19be 9f62 c1ba f6ba d73c
00000340: bb21 873d 5fdc 873c 0606 2e3d 28e7 02be
00000350: d463 ae3d 8e4d 92bd 5434 bbbc 0e9a 083e
00000360: 59ea 50be 5be3 56be bbe6 70be e532 40be
00000370: c029 16bf b560 6bbe ee98 88be 7c7e 59be
00000380: ee6a 51be 26b7 923e 76c8 933d b0e0 973e
00000390: adef 893d 68a0 b43d a60f 9a3d 678d 963e
000003a0: e804 3c3d e649 963e f530 4abe 6573 e3bd
000003b0: 3111 08be 2e5d 44be a3ad 8cbe 43d7 13be
000003c0: 89b8 19be 4ff8 15be 540c 22be c2b3 89bc
000003d0: 4b1a 41bd c669 96bc ed12 7cbd 80d6 c6bd
000003e0: 61e5 87bd da6c 90bc 6f3b 62bd 03e5 f6bc
000003f0: e7eb 6dbe 24a3 9abd 7a12 69be 2712 d7bd
-0.00907163 0.41432166 0.013287269 -0.18959703 0.29019493 -0.24080941 -0.070658214 0.63698834
-0.09219706 -0.09750927 -0.45482728 -0.06495381 -0.119707 -0.29669952 -0.13811459 -0.0880424
-0.3141059 -0.073548384 0.0624612 -0.013781098 0.13932174 0.11974843 -0.06866478 0.10434388
0.1749333 0.06602977 0.117028385 0.025240244 0.056610264 -0.04489973 -0.12785295 0.0025756042
-0.054643143 -0.09119545 0.08892723 0.01335998 0.40874794 0.014990179 0.45087993 -0.022499258
0.0662591 -0.01690504 0.4327361 -0.032364096 0.39720458 -0.045323316 -0.12550315 -0.054514095
-0.16310687 -0.02568089 -0.14986289 -0.0626061 -0.19666223 -0.06074452 0.11980176 0.12659366
0.15337476 0.16447689 0.30267018 0.15509194 0.15268289 0.12947889 0.18938413 -0.10363915
-0.08675425 -0.06599736 -0.10497124 -0.16131549 -0.09691323 -0.12489307 -0.10716957 -0.13694365
0.051208165 -0.12005352 0.04896558 -0.07350182 -0.12729353 -0.042583052 -0.081775256 0.033320647
-0.059178486 0.058996275 -0.059271317 0.040738728 -0.22123185 -0.16160628 -0.20399655 -0.19252138
0.901937 -0.13946107 0.01185638 0.001212433 0.04163755 -0.018864641 -0.0353915 -0.055069335
-0.058661763 0.27605626 -0.04651609 -0.04956179 0.04693335 0.06616525 -0.06903354 0.061401363
-0.028554684 0.026642919 0.10110279 -0.041739527 0.5870154 0.23807526 0.63931257 0.22131991
0.24598075 0.20252708 0.5347997 0.22724603 0.54829144 -0.4826664 -0.066451535 -0.44581205
-0.06494419 -0.5050751 -0.088543266 -0.46044832 -0.045641437 -0.43098924 0.25737062 0.08919042
0.2538003 0.080442786 0.34986573 0.14682804 0.29556817 0.10047429 0.2500412 0.06520695
0.039160483 0.027110474 -0.043040987 -0.053623896 0.006040903 0.097154215 0.10022298 0.028980073
-0.03509411 -0.041604396 -0.019146426 0.022242261 -0.12079382 0.03475231 0.35744092 0.38315105
0.31744695 0.01366389 0.053864796 0.012998412 0.0072216447 -0.031749144 -0.0062429495 -0.40479645
-0.35719836 -0.4554064 -0.015521925 -0.0045279297 -0.028099958 0.039524097 0.04589029 0.08433153
0.1293566 -0.004764603 0.15107875 0.014778698 -0.112365626 0.014622939 0.1569769 0.030044354
0.21421574 -0.14737885 -0.18520498 -0.108570434 -0.076786436 -0.011587837 -0.1365237 -0.20030269
-0.14124364 -0.04766113 -0.03609322 -0.30559742 -0.17427436 -0.107667856 -0.044725854 -0.096260205
0.0027693172 0.2037253 -0.0042230077 0.5530785 -0.06268092 -0.023275603 0.0015074353 0.16823784
0.11199132 -0.20666648 -0.11561266 0.008691074 -0.40617365 -0.14959657 -0.0014754123 0.026334267
0.065982305 0.016584573 0.042486213 -0.12783492 0.085151345 -0.07143699 -0.0228521 0.13340017
-0.20401897 -0.20985167 -0.23525517 -0.18769415 -0.58657455 -0.2298611 -0.26679176 -0.21239656
-0.20450947 0.28655356 0.07215969 0.2966361 0.06735168 0.088196576 0.07522516 0.29404756
0.045903116 0.29353255 -0.19745238 -0.11105994 -0.13287808 -0.1917617 -0.27476224 -0.14437585
-0.15011801 -0.14645503 -0.15825015 -0.016809348 -0.047144216 -0.018360984 -0.061541487 -0.097088814
-0.066355474 -0.01763003 -0.05523246 -0.030138498 -0.23234521 -0.07550648 -0.22760954 -0.10501509

conv1.bias f4 [32]
00000000: d781 14be 6801 05bb c1a3 1fbe 92b6 0fbe
00000010: f982 80be 33c5 53be bba3 53bc 7441 1c3f
00000020: 9621 79be bd58 f8bc 33fb 19be a33c 26bd
00000030: 5d91 a1be 1ae7 90be 7a1d 27be 90fe 1abe
00000040: e19e 8dbe 42de 06bf 6759 1d3d 622f dabe
00000050: 7539 1ebe 6f5d 39bd fb2d 873d e857 18be
00000060: b5bb 6fbd 8bf9 73be 237d 95be 8804 abbe
00000070: 9c19 073f 53c1 34be b8dd 97be bbf7 c8bd
-0.14502655 -0.0020295028 -0.15589811 -0.14034489 -0.25099924 -0.20680694 -0.012917454 0.61037374
-0.24329218 -0.030315751 -0.15037231 -0.04058517 -0.31556216 -0.28301316 -0.16319838 -0.1513617
-0.27660277 -0.5268289 0.03841534 -0.42614275 -0.15451606 -0.04525512 0.06600567 -0.14877284
-0.05852862 -0.23825662 -0.29197034 -0.33401895 0.5277345 -0.17651872 -0.29661345 -0.09812876

conv2.weight f4 [64, 32, 3, 3]
00000000: a6f1 e7bb 1b4d 093d 62be f43c 6ddf e8bc
00000010: 9194 81bd cfc9 3e3d fefc 243c 6911 9abd
00000020: 3430 b9bc ff94 a9bb dc03 423c db61 39bd
00000030: 0d33 c8bd d164 613c a112 49bd 0777 8fbc
00000040: 61bc 54bd a0a8 1fbd 9267 393e 5458 5e3d
00000050: a2ab 533d def1 303d 87ad 063d a770 e9bc
00000060: 6fbb aabd 34a5 40bb 1646 c0bd 6582 0bbd
00000070: 131a 30bd 41d6 6bbd 409b 40bd 6d80 85bc
00000080: ba7a 143d e7ba fbbc 7e8e 8cbd 3b5c 4dbd
00000090: 214b 09bc ad66 a2bc 0e66 02bd c276 32bd
000000a0: b4f4 1dbd 3c3a dbbc a14d 6cbc 5a05 1e3d
000000b0: 62a2 d93b d56b 34bc 5f61 0a3e b586 af3c
000000c0: d309 3cbd 259d ca3c 9fcd 82bd 218a 22bd
000000d0: 2c4a 40bd 293f 02bd 0b63 f83c a16e 723d
000000e0: 57c7 fbba 7d10 3cbc b2ca c53c 514e f53c
000000f0: e3df 573c eda1 13bc 8da4 bebc 8e51 84bd
00000100: 91fe c5bc c86b d5bc 03b7 9fbd d2b7 d4bc
00000110: 4c27 2abd 3e94 1dbb b927 423d 29d3 bebd
00000120: e30d bbbc 6b6e daba 27dc a53c f3b4 89bd
00000130: e74a b9bc adcb 303c eb5f 2bbd 2eab 2abd
00000140: 6711 8a3b 865a 043d 2a5b 2abc b529 2ebc
00000150: 120b 88bd 1d82 21bd ca59 503c df63 203b
00000160: 6876 c7bc 8212 503d 660e dd3c f0ea 413c
00000170: 13b5 a9bc 397b 45be 14ea 49bd 64d0 473d
00000180: d104 dcbc 32dd d9bd 4d03 edbd e105 f7bd
00000190: de68 69bd 6a22 d2bb 7ecf 03bb f0c8 34bd
000001a0: 46d6 1139 5792 c3bd 6020 e1bc a3da 6cbc
000001b0: 5450 0a3d 871f dabd 107f efbc 79e1 cebc
000001c0: 2a16 babb 60c4 563d 1d49 9b3b 6913 f6bb
000001d0: 427a 743b 4480 72bb c582 fcbc 843c 173c
000001e0: 7177 f43c d8bc 4abd 1089 74bc 029f 9dbd
000001f0: d1b3 20be c0f9 28bd 3192 bdbc 90e5 c23d
00000200: 7a1e c6bc 85b0 653c 7153 7e3d 9af1 41bd
00000210: 31e9 a8bd 644e db3d 410c efbc a6cd abbd
00000220: 3a52 423d b597 93bd 24c0 d43b ec9a 283d
00000230: 016f 6ebc a60f 83bc da13 853d 5916 143c
00000240: 070b 5bbd 67e9 14bd cef9 b23b 0bba c0bc
00000250: ad43 e53c a4cd f1bd 04d3 03be 29b5 583c
00000260: 1832 a9bb b2b1 9e3b 7e2a 01bd 6e42 dbbb
00000270: ab32 ab3c cccd 94bc 906a c2bc 7296 cc3c
00000280: d152 92bd e319 133b 863d babd d4e7 31bc
00000290: 5857 01bc 6bc7 2bbd 50f7 8abd 40e8 a9bd
000002a0: 15de 633b 79e0 f1bc b0d1 bebc 917c 413d
000002b0: 06d0 d3bd 90a8 00bd 44f4 073d 93ac f7bc
000002c0: 3041 573d 9090 203d 8039 8bbd 7a70 4f3d
000002d0: cf09 babc b932 b33d dfe7 103e 1fc0 d2bd
000002e0: 3c82 493d d6c9 2f3e 7efc 9a3d 088a 0b3d
000002f0: 7e51 613e a879 123c 803a 503a 750b ffbb
00000300: bb3e 1ebc 632e 8ebb b4bd 93bc 0301 a53a
00000310: f1d4 1bbd 2966 0fbc 3f55 853c 46c6 23bd
00000320: 0896 813d c946 6fbd defe a7bd d45c 30bc
00000330: c276 b9bd c8cd 0abe b82c 1f3c 671d 88bd
00000340: 2455 9e3d 16b1 10bc 1313 d3bd e65b 47be
00000350: 5938 38bd ee34 09be 5a8e 7f3d 41a0 c7bd
00000360: f6c5 52bc d9ee 7f3d 3861 6f3d f09d f2bc
00000370: 3773 0e3d 646d a03c 1122 9e3c cc71 ffbc
00000380: a02f 0ebd 09f7 67bd 50ed 6a3e 02f3 1b3c
00000390: 016d d3bd 90e3 c2bb 9c3a f33b 46b1 efbd
000003a0: 0479 49be fd02 a4bd a17f 16bd f240 39bd
000003b0: cc2b aabd eaed 08bd da30 f5b9 5cc9 853c
000003c0: e408 de3c aeb4 6d3b b0cb d7bc 207e 253c
000003d0: cc55 bbbc 0cbd 043c c849 e63c 0da4 9e3b
000003e0: 9583 243d fe6e 4b3b f67a 50bd 0fcb 313c
000003f0: 2c5f b8bd b035 2b3d fd78 9f3a 7d1f 2abe
-0.0070783673 0.0335208 0.029875938 -0.02842685 -0.06327165 0.04657918 0.010070084 -0.07522852
-0.022605993 -0.0051752324 0.01184174 -0.045259338 -0.09775362 0.013756947 -0.04909003 -0.017512811
-0.051937465 -0.038979173 0.18105915 0.054283455 0.051677354 0.043199413 0.032880332 -0.0284961
-0.08336531 -0.0029395344 -0.09388368 -0.0340599 -0.042993616 -0.057577375 -0.047023058 -0.01629659
0.036249854 -0.03072877 -0.06863116 -0.050136786 -0.0083797285 -0.01982435 -0.03183561 -0.043570288
-0.038563445 -0.026761167 -0.014422805 0.038579322 0.006641672 -0.011012037 0.13513707 0.021426538
-0.045907807 0.024733135 -0.06386875 -0.03968251 -0.046945736 -0.031798515 0.030320665 0.059187535
-0.0019209188 -0.0114785405 0.024144504 0.02994457 0.013175937 -0.009010774 -0.023271823 -0.06460868
-0.024169238 -0.02605237 -0.077985786 -0.025966559 -0.041541383 -0.0024044658 0.047401164 -0.09317619
-0.02283377 -0.0016664987 0.020246578 -0.067239664 -0.022618724 0.010790748 -0.04183952 -0.041667156
0.0042135003 0.032312892 -0.010397712 -0.010630061 -0.066427365 -0.039430726 0.01271672 0.002447359
-0.024348453 0.0507989 0.026984405 0.011835799 -0.020716226 -0.19285287 -0.0492955 0.04878272
-0.026857765 -0.10637893 -0.11572895 -0.12061668 -0.056984775 -0.006412794 -0.0020112689 -0.04413694
0.000139081 -0.095493965 -0.027481258 -0.014456424 0.033768013 -0.106505446 -0.029235393 -0.025253998
-0.0056789117 0.05243337 0.0047389404 -0.007509638 0.0037304317 -0.0037002722 -0.030824075 0.009230737
0.02984211 -0.0494965 -0.014925256 -0.07696344 -0.15693595 -0.041253805 -0.023140999 0.09516442
-0.024184454 0.014019136 0.062091295 -0.04734955 -0.08247603 0.10708311 -0.029180648 -0.08388834
0.0474417 -0.0720667 0.0064926315 0.04116337 -0.014552833 -0.015998673 0.06497927 0.009038531
-0.053477313 -0.036355402 0.005461908 -0.023526212 0.027986372 -0.11806801 -0.12873465 0.013226786
-0.0051634423 0.0048429603 -0.031534664 -0.0066912686 0.020898184 -0.018164538 -0.023732454 0.024974082
-0.07144702 0.002244585 -0.09093766 -0.010858495 -0.0078943595 -0.041938227 -0.06785452 -0.08296251
0.0034769822 -0.029525982 -0.023293346 0.047237936 -0.10342412 -0.031410754 0.033191934 -0.030233657
0.052552402 0.039200366 -0.06798077 0.050644375 -0.022709755 0.08749909 0.14150952 -0.102905504
0.049196467 0.17166838 0.0756769 0.034067184 0.22003743 0.008940138 0.00079432875 -0.007783348
-0.009658511 -0.004339026 -0.018034793 0.0012588802 -0.038044874 -0.008752384 0.016276 -0.03998401
0.06327444 -0.058417115 -0.08202909 -0.010764319 -0.090558544 -0.13555062 0.009715252 -0.06646233
0.07731083 -0.008831283 -0.103063725 -0.1946865 -0.044975612 -0.13399097 0.062391616 -0.09747363
-0.01286458 0.062483642 0.058442324 -0.029616326 0.034777846 0.019583412 0.019303354 -0.031182192
-0.034713387 -0.056632075 0.2294209 0.009518387 -0.10323525 -0.0059475377 0.0074227583 -0.11703734
-0.1967507 -0.080083825 -0.03674281 -0.045227952 -0.08309135 -0.033430018 -0.0004676644 0.016331367
0.027103849 0.0036271024 -0.026342243 0.010100871 -0.02286806 0.008101713 0.028111354 0.0048413337
0.04016455 0.0031041498 -0.050898515 0.010851636 -0.090025276 0.041799247 0.0012166795 -0.16613574

conv2.bias f4 [64]
00000000: 3284 2a3d 26bd 14bf b452 01be 07a0 10be
00000010: 4d92 09be 1ef9 27be 4cde 19bf 2861 a23e
00000020: 68a6 0a3f 4bf3 5dbe 4d99 17be 52be 16bd
00000030: 06dd 7bbe 9493 82bd 1792 833c 3f20 00be
00000040: 1ab2 5cbe 4030 19be 7930 51bf 037c 11be
00000050: 1fa6 ef3c 3a5b 46be 0e58 f6bc 5ce8 0bbe
00000060: d87f f4bd 1326 31be 5f02 f1bd bc3b 1cbe
00000070: 14d3 1ebe 883b a7bd 7c62 6fbe 100a 18bf
00000080: 7676 d4bd b889 67be 1139 0bbf 470c 75be
00000090: e5fd 73be ed56 42bf d779 30be ff00 2fbf
000000a0: 143a 44be 4519 51be 5328 b4bd ec1a 7bbe
000000b0: 2564 89be 28ce 08be 5942 45bd e90e 4ebe
000000c0: 9a14 35be e31c 1bbe 2744 0abe dadc 13bf
000000d0: 521f 6fbe 6d9a 24be 94f6 4dbe 5114 22be
000000e0: 1dcf bcbd 2f03 6abe 8439 7ebd 0e5c 0dbd
000000f0: 2336 babd 2e96 ecbd 195a 45be 0647 1bbe
0.041629978 -0.5810112 -0.12629205 -0.14123546 -0.13434716 -0.16403624 -0.60104823 0.3171475
0.54160166 -0.2167484 -0.14804573 -0.036802597 -0.24596033 -0.063758045 0.016060872 -0.12512301
-0.21552315 -0.14959812 -0.8171459 -0.14207463 0.029254017 -0.19370738 -0.030071285 -0.13662857
-0.11938447 -0.1729968 -0.117680304 -0.15257162 -0.15510207 -0.081656516 -0.23377413 -0.59390354
-0.10374157 -0.2261113 -0.5438395 -0.23930465 -0.23827322 -0.7591389 -0.17233978 -0.68360895
-0.1916278 -0.20419796 -0.08796754 -0.24521989 -0.26834217 -0.13359892 -0.048158977 -0.20122875
-0.1768364 -0.15147738 -0.1350256 -0.5775887 -0.23351792 -0.16074534 -0.20113593 -0.15828063
-0.09219191 -0.22852777 -0.06206657 -0.03451162 -0.09092357 -0.11552082 -0.19272651 -0.15163812

conv3.weight f4 [128, 64, 3, 3]
00000000: aa3b 133d 73f1 4c3d 393e 253d c2fa 81bd
00000010: c35c 1e3c e669 c9bc e26a 4b3a 8dc2 46bc
00000020: ef05 21bc 2cf3 c33d bc6c abbc 1bf5 6ebc
00000030: 91f5 79bd e9c4 733a 8d9d 8d3d 38cb 41bd
00000040: 00ad 9abd 2f33 183c 5168 b13d a750 093d
00000050: b892 623d 0d86 8cbc 19ec 053d e176 2cbd
00000060: f17f 8b3d ca32 14bd 97c8 3f3c 1a0f a4bd
00000070: b7ad 6bbd 5786 9fbd f148 01bd d060 36bd
00000080: 193d 6abd d9fe 0d3c b4fe 1e3d 4c29 033d
00000090: 95ad 09bd 5250 25bb 824c 5ebc 1185 bebc
000000a0: 3211 383c 65b2 bbb9 7c51 a93b ee00 ebbb
000000b0: 19da 0a3d 04a6 7abd 60c0 533d 2805 62bd
000000c0: c01e 4cbd 4169 ae3c b575 a9bd a27c 8a3d
000000d0: 2bdf 64bd f27c f73b 1ee6 84bd 3b65 bc3d
000000e0: 694f a2bc 8388 913d 7d92 aabd ac3c 823a
000000f0: 9fb7 d63c cc0b f33d 9ff8 923d 5fbd 05bd
00000100: 93a6 d9bd 80d6 8cbc 313f a6bd 791d a8bc
00000110: c7d7 e9bc 0552 98bd ac19 58bc 771b e7bc
00000120: 6af2 893d 1037 e8bd 71db 9bbc 69b8 6b3d
00000130: 6129 0cbe 62f3 dc3c 7bcd 63bc da01 92be
00000140: 0acb 60bd 78fd a23d 4cc7 17bc 8fed 053e
00000150: 37a7 153d 1ddf 07bd e398 9f3d 18b0 0bbd
00000160: ec1c 0b3d 6427 8f3d b99c 36bc edb8 42bd
00000170: 6536 a3bb c16e fb3d 458f 7fbb 5acf 8f3d
00000180: abcb 463d 9161 403d 6521 733d 8ea2 593c
00000190: e8f5 96bd 10f1 55bd ce7d 77bd 1ee1 b5bc
000001a0: 33e9 a23c ecdd 50bc 84a3 9c3c 378b 823c
000001b0: 5616 8e3b 73b2 99bc 3838 9cbc bacd aa3c
000001c0: e9c7 fa3c beda 073d 1dc5 a8bc 70b5 063d
000001d0: 3ff6 123d b4d7 443d d6e4 bdbc c90b 9d3d
000001e0: 9817 dbbd 369d 08bc ce88 c8bc fa48 dbbc
000001f0: 031d bdbd 97d1 003d 86f0 75bc 4f9d 223c
00000200: 85c7 90bc db48 0cbb 9764 0c3d 1943 dd3c
00000210: 97f4 c0bc b9db 7f3c 1f03 a1bc 282c 0fbd
00000220: 09be 223d 8ad5 1fbc 2702 c13c cc6a d13c
00000230: a340 17bd 639f 103e a7bd 2e3d b965 90bc
00000240: 81f0 93bb 9ae5 bc3c cf5d debb d520 e23c
00000250: 164e 2b3b 852c 5abb 3374 3bbd 557f d5bc
00000260: d315 abbb 4aeb d5bc 6328 303c 5420 b33d
00000270: c5fe 4c3d 5ff5 85bd 53d8 b0bd ab5b 023b
00000280: 36be 40bc 7a48 f33c 35f8 fa3d 94d6 063e
00000290: adf8 4c3d dfdf 4bbd 23d2 663d af4b 51bd
000002a0: abe7 24bd e497 283d 2c9e b0bd 9e99 6d3c
000002b0: b277 2f3d ece2 943c a456 bfba abfa b3bc
000002c0: e6cf 903c d32a 58bc 63a8 373d 5433 6fbd
000002d0: 1aa6 c63b c40a 87bd 2eb6 24bd fa04 58bd
000002e0: 77cc 863c 93f7 64bd 3ee9 d0bd 506c cbbd
000002f0: eca9 65bd 3e38 99bc c746 acbb 1902 f83b
00000300: a5c8 b6bd c219 8c3c 1fc4 d5bc 2001 ec3b
00000310: 65c6 bbbb e27d 02bd ca47 323d dc0b 623d
00000320: a3e0 193b b750 863c d122 95bc 7f09 cbbd
00000330: 9d91 c8bb 5214 bc3c 73a6 a23c e712 82bc
00000340: fc9c 083e 67a7 14bb e2ad 6abc 27a5 b5bc
00000350: a2c1 dcbb dadf 36bc 6aca 343e a476 dabc
00000360: 6cc1 b33d 42fc 6e3d 0157 e63d fc55 1a3e
00000370: 9e62 a63d 6ea1 df3d 1c77 ee3c b37b 953d
00000380: 1414 a13d 2a38 75bd 0538 853b e59e eebc
00000390: 0167 063e 59a5 313d 12dd 693d 8de8 e2ba
000003a0: 4d81 813d 013b a83d f374 913a 7263 5dbd
000003b0: e0a2 96bc 7249 b13b 2b5f 65bd bb07 9f3d
000003c0: 76f9 403d 5c24 a63b b446 a5bc c25b 0bbc
000003d0: 1590 85bd c6ba 473a b7d5 d5ba bff8 70bd
000003e0: 06e6 233d e4e3 a93b f0a5 81bc 3832 0b3d
000003f0: ea96 55bc 082c 053d 9432 45bb 78a1 393c
0.035945572 0.05003495 0.040342543 -0.063466564 0.009665671 -0.02458663 0.0007759762 -0.012131345
-0.009828075 0.09567866 -0.020925872 -0.014584805 -0.061025206 0.0009299056 0.06914816 -0.047312945
-0.075525284 0.009289547 0.08662475 0.03352418 0.055315703 -0.017153764 0.032695863 -0.04210556
0.06811512 -0.03618125 0.011705539 -0.08010693 -0.057538714 -0.07789295 -0.031563703 -0.04452592
-0.057187174 0.008666717 0.038817123 0.032021806 -0.033612806 -0.0025224877 -0.013568046 -0.02325681
0.011234568 -0.00035800334 0.0051671844 -0.0071717417 0.0338994 -0.06119348 0.051697135 -0.0551807
-0.049834013 0.021290423 -0.08274404 0.06762053 -0.055876892 0.0075527364 -0.06489204 0.09198996
-0.019813256 0.07106116 -0.08328722 0.0009936295 0.026210604 0.118674845 0.07176327 -0.0326513
-0.10627475 -0.017192125 -0.081175216 -0.020521866 -0.028545273 -0.07437519 -0.013189714 -0.028211338
0.0673569 -0.11338627 -0.019025536 0.057548914 -0.1368766 0.026971523 -0.013903971 -0.28517038
-0.054881133 0.079585016 -0.009263825 0.13078903 0.03653642 -0.03317176 0.07792833 -0.034103483
0.03396313 0.06989935 -0.011145764 -0.04753964 -0.0049808496 0.12276984 -0.0038995307 0.07021971
0.048534077 0.046968047 0.05935802 0.013283385 -0.07371122 -0.05223185 -0.06042271 -0.02220207
0.019886589 -0.012748223 0.01912094 0.015935523 0.0043361587 -0.018761849 -0.019069776 0.020850051
0.030612903 0.033167593 -0.020601803 0.032887876 0.03587937 0.048057273 -0.023180407 0.076682635
-0.106978595 -0.008338263 -0.024479296 -0.026768196 -0.09234049 0.03144988 -0.015010959 0.009925201
-0.017673263 -0.002140573 0.034275617 0.027009534 -0.02355413 0.015616351 -0.019654809 -0.03495422
0.039732013 -0.0097555015 0.023560597 0.02556362 -0.036926877 0.14123301 0.042661335 -0.01762663
-0.0045147543 0.023058701 -0.006786085 0.027603546 0.0026139072 -0.0033290696 -0.045765113 -0.026061693
-0.0052211075 -0.026113171 0.010751816 0.087464005 0.050047655 -0.065409414 -0.086350106 0.0019891064
-0.0117641 0.029697645 0.12254373 0.13167793 0.050041843 -0.049774047 0.056352746 -0.051097568
-0.04026 0.04116048 -0.08623919 0.014501957 0.04283876 0.018174611 -0.0014597964 -0.021970114
0.017677259 -0.013193804 0.04483832 -0.05839856 0.0060622813 -0.0659385 -0.040212803 -0.05273912
0.016454918 -0.055900168 -0.102007374 -0.09932768 -0.056070253 -0.018703576 -0.0052574608 0.0075686094
-0.08924989 0.017102126 -0.026094494 0.0072022825 -0.0057304376 -0.031858332 0.043525495 0.05518709
0.0023479841 0.01639591 -0.018205078 -0.099139206 -0.006120874 0.022958908 0.01985476 -0.015878154
0.13341135 -0.0022682787 -0.014323683 -0.022173477 -0.00673695 -0.011161769 0.1765534 -0.0266679
0.08777127 0.05834604 0.112470634 0.15071863 0.081242785 0.10919462 0.02910953 0.072989844
0.07865158 -0.059868015 0.004065516 -0.029128501 0.1312523 0.04337058 0.057095595 -0.0017311737
0.0632349 0.08214379 0.0011097476 -0.054049917 -0.018388212 0.0054103667 -0.055998962 0.07765146
0.047112904 0.0050702523 -0.020175315 -0.0085057635 -0.06521622 0.0007619079 -0.0016314302 -0.058830973
0.04001429 0.0051846374 -0.015826195 0.03398344 -0.013036469 0.032512695 -0.0030089961 0.011330001

conv3.bias f4 [128]
00000000: c643 23bd 9986 aabe bc05 c9bc 33cf c4bb
00000010: e39b aabd 679a edbd bd4f 6fbc 6e83 f8be
00000020: a4b7 b8bb 146a bcbe 10c7 babb c5d6 7dbd
00000030: 93c0 0bbd 180f 0a3f e2dd 39be 5891 21be
00000040: 7821 75bd 618c bcbd fb7f 5cbe 76e8 1abc
00000050: e9fa 8cbd 90a2 a8bd 36cb 3fbe 69a9 133b
00000060: 0aac fabc cbe9 fcbd db6d a9bd 3a8f 65be
00000070: 604e 88bc 4882 9cbd 861f 3cbd bef1 0ebe
00000080: 1c9d 5cbb da51 273e e2ee 4abd 1dd2 0cbe
00000090: b9b9 ffbd ca07 453d aaf3 8abd d7ca b4bd
000000a0: b94c bcbd ab65 aebe 2070 2f3d 093a f3bd
000000b0: 174d f7bc 36f3 54bd 9155 cdbd f8ba f2bc
000000c0: 0666 703e 027c 87be 823b 0bbc 1e85 e4bc
000000d0: 0646 3cbe 7cd6 26be cccb 69bd c594 cebc
000000e0: 3395 2abe 17c5 01be f25c 7abd a47a d1bd
000000f0: 93e4 45be edc7 c53c eb49 50be 40cf fdbd
00000100: d2c0 aabd 7e68 acbd 5dc9 f7bd 5889 29be
00000110: 5949 6abe fe77 0cbb e12e 33bd 7717 bbbc
00000120: 2545 b3bd 39b7 0fbe 84b4 e0be 8939 f5bd
00000130: f58f 19be d134 7dbe 4d88 01be cc94 ddbe
00000140: 8c04 abbd 1057 42bd 8f08 76bd b86d 32be
00000150: 20c9 4f3c 4c28 b2be 561d 6abd 6299 06be
00000160: 0c5b b8bd 9b96 91bb 5de6 cbbd 8575 ccbd
00000170: bf39 2abe 74be 47be 7bf1 61be 697f 47be
00000180: 7d59 85bd 8235 b6bd f6f6 1dbc 7c20 74be
00000190: 03e3 08be 9215 3cbd 008c 37bd 8311 76bd
000001a0: 3877 bcbe 2140 2abd 2805 e8bc b5a6 b7bc
000001b0: 220e 45be 09a9 34bd b094 09be 5329 c5bd
000001c0: 6d29 02bf 0009 df3e 3e2f 67be 5212 f4bc
000001d0: 599b 85be 3fe9 6ebd cd13 0dbe 3e9d 7bbe
000001e0: 8879 01be 3bd7 ffbd 3cdd b4bd a7cf 5bbd
000001f0: f387 4fbd 5b9c 66bd f0e0 b9bd d841 82bd
-0.039859556 -0.33305815 -0.024538867 -0.0060061454 -0.08330514 -0.116017155 -0.014606413 -0.48537773
-0.005637126 -0.3679968 -0.0056999996 -0.0619724 -0.0341192 0.5392928 -0.18151048 -0.157781
-0.05984637 -0.09206463 -0.21533196 -0.009454837 -0.06883795 -0.08234131 -0.18729863 0.0022531396
-0.030599613 -0.1234928 -0.082729064 -0.22417918 -0.016638935 -0.07642037 -0.0459285 -0.13959405
-0.003366298 0.16339818 -0.049544223 -0.13752027 -0.12486596 0.04810313 -0.067847565 -0.08827751
-0.09194321 -0.34061942 0.04283154 -0.11876304 -0.030188126 -0.051989757 -0.10026086 -0.02963017
0.23476419 -0.26461798 -0.0084980745 -0.027895506 -0.18386087 -0.16292757 -0.05707912 -0.025217423
-0.16658477 -0.1267284 -0.061123796 -0.1022847 -0.19325475 0.024143184 -0.20340697 -0.123930454
-0.08337559 -0.08418368 -0.12098954 -0.16556299 -0.22879542 -0.0021433826 -0.04374588 -0.022838337
-0.08753423 -0.14034738 -0.43887722 -0.119738646 -0.14996321 -0.24727179 -0.12649651 -0.43277586
-0.083504766 -0.04744631 -0.060066756 -0.17424667 0.012682229 -0.3479637 -0.057156883 -0.13144448
-0.09001741 -0.0044430024 -0.09956048 -0.099833526 -0.16623591 -0.19506246 -0.22064774 -0.19482197
-0.06511209 -0.088969246 -0.0096414 -0.23840517 -0.13367848 -0.04591901 -0.04481125 -0.060075294
-0.36809707 -0.041565064 -0.028322771 -0.02241836 -0.19243672 -0.044106517 -0.13435626 -0.096270226
-0.5084446 0.43561554 -0.22576615 -0.029793892 -0.26095083 -0.05832791 -0.13777085 -0.24571702
-0.12644017 -0.12492224 -0.088312596 -0.05366483 -0.05066676 -0.056301456 -0.090761065 -0.06360215

p_conv1.weight f4 [4, 128, 1, 1]
00000000: fc4b 12bd 1255 cc3e 9438 2f3c 555f 30bc
00000010: d812 733c 867c b03d 4a61 47bd b59b b8be
00000020: 4b21 3e3e e6c0 303f dcfa 063c 9308 1dbc
00000030: 975e 08bf 41fa 453c c8c3 703e 9810 dd3e
00000040: 545c ea3e 0a39 b93e 1153 403c 4fca fe3b
00000050: d1f4 723c 8ee2 f2b9 a9a6 be3d 469d be3c
00000060: 7e16 81bd 8a3b 9bbe 4047 e43e 628c 03be
00000070: b787 0abe d51e 9eb8 492d c43d 9cb2 503d
00000080: 8e90 10bd c370 e4ba 563a ba3d d4ed 94be
00000090: fe45 35bd 0a60 813b fb86 80bb 0507 083e
000000a0: 9dbb 893d 8ffe 3ebd e72b 7abd 68af 403d
000000b0: fcb0 65bd d649 5fbd d5d3 073d 2467 c13c
000000c0: d9f6 f63d bd1e 11be 4968 693d 01c0 5e3d
000000d0: e9c8 64be 2dfa 87be 4487 f03c 31e8 7c3e
000000e0: 072a 0abe 697b 5d3d fcd9 4fbc 2cf4 88bc
000000f0: bec2 bf3c 2496 babe 86d0 173e 8bb6 60bd
00000100: 5c73 8ebc 8e27 903c 5656 1a3c 095f 65bd
00000110: 9bb8 f63e cbcb 4f3e 1430 52bd 64fa 173c
00000120: 2642 44bd 4299 88bd cbc3 663f 0828 273f
00000130: 19db 013e c9e3 40be be11 8dba 1c25 11bf
00000140: e35d 373d 09cb 853b ad3c 2c3d 09d2 23be
00000150: 4c6c bebc 3509 7ebe 21c8 003d 8277 683e
00000160: 8c10 a439 7635 0d3e ed3b 993d a143 9f3c
00000170: 2cf1 1dbc cc59 953e 9017 5e3e 5732 2e3e
00000180: 06a5 b9bd 0c57 e2bd f439 92be bec2 ac3e
00000190: fe31 213c 5196 eb3b 1723 903b 4bbe 833d
000001a0: ba7f b5bd 1659 ea3c e766 c33c 1624 c23c
000001b0: 4e91 3d3f b80e 76bd de42 92be 311b 1a3e
000001c0: ed54 a13f 57f7 193d fc22 f8bd 61f8 873c
000001d0: 17ec 8b3e bd6f 623e d282 10bd f696 2cbd
000001e0: 3634 a93d 2ccc 073f 547f a3be 797a 073d
000001f0: 54c1 f4bb c7db d93c 6e3c ba3d b979 373e
00000200: 37d3 a23d d1f1 f53e a940 973b 9777 e7bc
00000210: c3be 53bd f703 043e 89a9 a0bc 0bbc ca3e
00000220: 84ae b33b a3c2 50bd dd87 8bbc 0634 f63c
00000230: 5a60 be3b b2fd 77be ee2c 013e 94ed 593d
00000240: 498c bfbd f29e 053e 1426 c8bd 562f 8c3c
00000250: 2ad6 a03c 6616 b1bc 3fbe d0bc 9ecb 1c3d
00000260: ba93 8cbd 6792 f53c 5697 f73c cf79 bbbd
00000270: 3abb 04be 63cb 3dbc aaa9 193d 6357 91bd
00000280: b600 d83d 8e77 9cbf b0ee 4a3d 0538 84bd
00000290: 7947 f33b 3214 81bd 04e7 01bc f155 2e3d
000002a0: a699 adbc 10fd 2cbd 47ef 0b3d 173f 18be
000002b0: 926d 1fbd dd75 cebc 1040 8fbc d658 fe3c
000002c0: 2f4f 983d 3713 f13c 66e0 a4bd 11b9 a0bd
000002d0: 46ea 1e3d 9a30 47bd f0f7 4d3d f9d0 3a3c
000002e0: 7f96 823e 3c7e 30bd 10f8 f03b 4f65 7ebc
000002f0: df31 f33d a11e 1f3e 0916 6bbc 66e1 1c3d
00000300: 3d16 803d 179d 703d 3cc9 d93c 8d19 0c3e
00000310: 98b1 88be 62ac 9d3e 3e70 ddbd bb49 b43d
00000320: c431 c1bd d611 fabe fc90 4b3d 6d48 89bd
00000330: 2e4c 5d3e cbb4 fbbd d122 4abe d942 90be
00000340: afe3 023c a46d b2bd a934 ce3d 6543 863e
00000350: 417c a63d fa20 69be a732 dc3c ebb6 d63e
00000360: c31d 24bd eb97 dd3d 7de5 3ebd c0b9 b5bc
00000370: afe9 70bd 8c74 0bbe a71c 873e 5b37 78bc
00000380: b6ec 6ebc b2e8 073b fc19 1f3e 9517 53be
00000390: b1ec 953c f9ad d03b 49fb 09bd 9ee0 04bd
000003a0: 80a6 923e b035 013e e95d a83c 807d e73d
000003b0: 3ea6 fa3e 6da3 73bd 46a9 ccbd 4bb2 773e
000003c0: f26b bebe 8412 9a3f c2d1 e63d 30a3 77bc
000003d0: bb40 cf3d d7c1 583d 4a90 533e 64bd 62be
000003e0: 71d2 72bd 119a 5cbd 962a 71bc 8bc2 a6bd
000003f0: efce fdbc 1508 923c a9c4 2bbc 34b4 57bb
-0.035716996 0.39908653 0.010694642 -0.010764916 0.014836036 0.08617501 -0.048676766 -0.36056295
0.18567388 0.6904434 0.0082385205 -0.009584564 -0.5326933 0.012083591 0.23512185 0.43176723
0.45773566 0.3617633 0.011738555 0.007775582 0.014828877 -0.00046326633 0.09309132 0.023268353
-0.06303118 -0.30318862 0.4458561 -0.1284652 -0.13528334 -7.53977e-05 0.0957895 0.050951585
-0.035294108 -0.0017428625 0.09093158 -0.29087698 -0.044256203 0.0039482163 -0.003922341 0.13283928
0.067252375 -0.046629485 -0.061077025 0.04704228 -0.05607699 -0.054513775 0.033161003 0.023608752
0.12058801 -0.14171882 0.05698422 0.054382328 -0.22342266 -0.26558056 0.029361375 0.24697949
-0.13492595 0.05407277 -0.012686249 -0.016717993 0.02340829 -0.36442673 0.14825639 -0.054861587
-0.017388992 0.017596986 0.009419998 -0.055998836 0.48187718 0.20292585 -0.051315382 0.009276006
-0.047914647 -0.066698566 0.90142506 0.6529546 0.12681235 -0.18836893 -0.0010762734 -0.5669725
0.04476727 0.0040830416 0.042050052 -0.15998091 -0.023245 -0.248082 0.031440858 0.22701839
0.00031292846 0.13789925 0.07482133 0.019441428 -0.009640019 0.29170072 0.21688676 0.1701139
-0.09064679 -0.11051759 -0.2855984 0.33742326 0.009838579 0.00718955 0.0043987143 0.0643278
-0.088622525 0.028606933 0.023852779 0.023698848 0.7404984 -0.06007263 -0.2856664 0.15049435
1.2604042 0.037589397 -0.12116048 0.016597928 0.2732856 0.22112937 -0.03528101 -0.042136155
0.082619116 0.53045917 -0.3193308 0.033075783 -0.0074693356 0.026594056 0.09093557 0.17917527
0.07950442 0.48036054 0.0046158624 -0.028255267 -0.051695596 0.12892137 -0.01961209 0.3959659
0.0054834504 -0.05096687 -0.017032558 0.030054104 0.005809826 -0.24217871 0.12614796 0.053205088
-0.09352929 0.13048914 -0.09772888 0.017112415 0.019633371 -0.021617126 -0.025481341 0.038280122
-0.06864114 0.029977037 0.03022353 -0.091540925 -0.12962046 -0.011584136 0.03751532 -0.07096746
0.105470106 -1.2223985 0.049544036 -0.064559974 0.0074242917 -0.0630268 -0.007928614 0.04256243
-0.02119143 -0.042233527 0.03416374 -0.14867817 -0.038922854 -0.025202686 -0.017486602 0.03104822
0.07436978 0.029428108 -0.08050613 -0.078477986 0.03879764 -0.048630334 0.05028528 0.011402362
0.25505444 -0.043089136 0.00735379 -0.015527084 0.118747465 0.15539028 -0.014348515 0.038300894
0.062542416 0.058743563 0.026585214 0.13681622 -0.26697993 0.3079558 -0.10812424 0.088031255
-0.0943332 -0.48841733 0.049698815 -0.06703267 0.21611091 -0.12290343 -0.19739844 -0.28176
0.007988854 -0.087123185 0.10068638 0.26223293 0.08129168 -0.22766486 0.026879622 0.4193643
-0.040067445 0.10819992 -0.046605576 -0.022183299 -0.058816608 -0.13618678 0.26389048 -0.0151499165
-0.0145828035 0.0020738062 0.15537256 -0.20614465 0.01830134 0.0063683954 -0.03368691 -0.032440774
0.28642654 0.12618136 0.020552592 0.11303234 0.48954958 -0.059482027 -0.09993224 0.24189107
-0.3719173 1.20369 0.11270477 -0.0151145905 0.10119768 0.052919235 0.2066051 -0.2214256
-0.059282724 -0.053857867 -0.014719626 -0.08142575 -0.030982463 0.01782612 -0.010483899 -0.0032913806

p_conv1.bias f4 [4]
00000000: 5e87 eebe b720 da3e 400f dabe 0065 aa3d
-0.46587652 0.42603084 -0.4258976 0.083200455

p_fc1.weight f4 [81, 324]
00000000: 46b1 3f3c f3f1 c2ba 44ab 5b3d d885 f7bb
00000010: 950b 4d3d 1001 30bd e5e4 8bbd b046 043d
00000020: 1a7f e0bb d5b8 61bd f2c8 bdbb 81cb 6d3c
00000030: ba74 863a b419 71bd 40ae 2dbd 856a 9bbd
00000040: 42c1 f8bc fb0c 803c afeb dfbb 0300 093c
00000050: 2860 503d 6a02 89bc a6ae 183d 5faa 3c3c
00000060: 4550 eb3b e39b 06bd 992f 66bc 0dcd 2dbb
00000070: 8308 d8bc b3d8 7cbd 1cbb 4c3d 28d3 2e3d
00000080: a650 973d 7d4c bcbc 19c9 36bb 49a1 b03b
00000090: 263e 14bd 257b bbba 126c faba 3250 aa3d
000000a0: 13c1 ac3d 56ed 363c 2d0d c83c 72ce 14bb
000000b0: 1afc 99bc 64cc c5bc 4e68 a8bb c48b bdba
000000c0: 90af aa3c ad93 07bc 671b 9d3d 390e 803d
000000d0: fcba a83d f01f 68bd 09a3 9e3c 9008 90bd
000000e0: c02b 59bd 1758 4b3e e1f1 243d 042d 7e3d
000000f0: 5786 d1bb f262 85bc 99ec ec3c ffc1 b73d
00000100: ff18 aa3d b05d 823e 484a 2dbc afbc 3dbb
00000110: 99f4 fcbb 7e81 d1bc fffc 453d b4b3 ba3c
00000120: ac6f 903d 70d5 a03e 78d0 2d3d 6845 89bd
00000130: 04ba c3bc 1c0b 2ab7 08d3 ebbb 4211 f6bc
00000140: ca06 eabb 3fb6 f93c 22aa 4a3c bbfd e2ba
00000150: 19d4 ebbc 0c08 9dba 246f 5bbb 073d 13bd
00000160: e42e 0e3d 8c7a a93c e35d 2abb 279d 2c3d
00000170: 42b3 813c a038 26bb 681b d43c a70d 09bc
00000180: 07b6 2fbd d9ad 21bd 61fe df3b bd63 883c
00000190: 6729 d33b 42e7 103c b19d 13bc c9dd e0bc
000001a0: b982 99bc 1e0a 16bb 44bd f73b c1c6 7b3c
000001b0: ea96 2f3d 86c0 d53b 39ac cdbc 7567 5abd
000001c0: 3244 07be 2b3e 32bd ec6f c73c 85e9 b43c
000001d0: 6a02 653c ba58 853d d715 fdbc a665 c9bc
000001e0: 2182 25bd 3685 2ebd 9d68 45bc 6970 e43b
000001f0: b222 df3b aebf 843c 459f c53d b117 883c
00000200: bdb7 fa3d fe3b 63bd 99d5 ffbc bfdc 56bb
00000210: 00ee 88b9 00d1 e13b 9308 fe3b 366d e93d
00000220: d851 683e be92 7abd f261 49bd a492 8dbb
00000230: 7028 153b ad5e 0b3d 83eb 2b3c 13bd 1ebc
00000240: 6af8 8fbf 8d59 fb3d d626 053e a63d e43d
00000250: 1474 dc3c f6df 8e3c c419 c8bb 74e8 c13c
00000260: 2d7e 043d e1aa a9bc a8e9 9bbb 8d2d 4b3c
00000270: 014d 063c a089 e8bb cdce 86bc a307 38bb
00000280: b9c1 d93b eced b3bb 0558 0f3d 6c80 01bb
00000290: f739 80bc d1d0 dd3c 2930 c43c 6ceb 013d
000002a0: c11b 233c e09b 5d3c 064e 503d 15ce 063d
000002b0: bd1d fcbc fd2c 04bd 9e01 29bc 9152 bdbc
000002c0: 83de 41bd 41f5 0c3d d056 18bd 2136 35bd
000002d0: 542c 793b 474c b63b dd6a c7bb c3ca 9e3c
000002e0: 42ae 803c fcf8 37bd cbaf 5fbc 76a5 073c
000002f0: c602 1fbc 8cd1 82bd ba32 9a3b da03 19bd
00000300: 4b83 e13c 7547 7abc 09ca b63b 3702 f8bc
00000310: 0305 66bd 401d 133c 90d1 20bc 9984 91bc
00000320: 65aa 4a3d 5a80 a2bd 15fa c53c 777a bc3c
00000330: 920a 43bd 1d5d 8ebd 0734 08bd 1a08 e53c
00000340: 3a7b d83c 9fd6 a83e 696e 99bc 4573 95bc
00000350: 3823 e9bb a938 17bc d20c 09bc b8d4 863c
00000360: 0084 15bd 8f75 b73e 01fd cdbb 5aaf b23c
00000370: aec1 853d 976b 97bc 4249 b33b cab6 98bc
00000380: 06c7 8c3b 124c ea3d 2399 983c d08d 043c
00000390: 629e 4dbd 802f acbc d755 773c 30e8 cf3b
000003a0: bccb 8539 c9ab 56bc fbdc fcbc 0e83 9e3b
000003b0: a8cb d0bd 9141 76bd 9a3b 0ebd 6a50 a1bb
000003c0: 9625 183d 7666 053d 78bd fe3a e38c c1bc
000003d0: 333f d93c 6357 8e3c a44a a73c ad6c 83bd
000003e0: c0c2 afbc eb2f 89bc 04c6 8dbc 9050 f2bc
000003f0: f952 09bd e2a5 fcbb 9ee7 dabb 4a08 aebc
0.01169998 -0.0014873132 0.05363013 -0.007553797 0.050059874 -0.042969763 -0.068307675 0.032293975
-0.006851089 -0.05510791 -0.005791777 0.014513851 0.0010258176 -0.058862403 -0.042402506 -0.07588676
-0.03036559 0.01563119 -0.0068335156 0.008361819 0.05087295 -0.016724784 0.037275933 0.011515229
0.0071811997 -0.03286351 -0.014049434 -0.0026519925 -0.026371246 -0.061730098 0.04998313 0.042681843
0.07388429 -0.022985691 -0.002789086 0.0053903204 -0.036192082 -0.0014303668 -0.0019105694 0.08316077
0.084352635 0.011164984 0.024420345 -0.0022706059 -0.01879697 -0.024145313 -0.005139387 -0.0014461209
0.020835668 -0.008274955 0.07671242 0.06252713 0.082387894 -0.056671083 0.01936485 -0.07032883
-0.05302024 0.19857822 0.040269736 0.06205465 -0.0063941884 -0.016282532 0.028921412 0.08972549
0.08305549 0.25462103 -0.010576792 -0.0028951576 -0.007719588 -0.025574442 0.04833698 0.022790767
0.0705255 0.3141284 0.04243514 -0.06702691 -0.02389241 -1.0135376e-05 -0.0071967877 -0.030037526
-0.0071419226 0.03048241 0.012369664 -0.0017318049 -0.02878766 -0.0011980548 -0.0033482993 -0.035946872
0.034712687 0.020688318 -0.0025995902 0.04214206 0.015832547 -0.002536334 0.025891975 -0.008365071
-0.042898204 -0.039472435 0.0068357443 0.016649121 0.0064441445 0.008844199 -0.0090097645 -0.027449505
-0.018739091 -0.0022894214 0.007560404 0.015367211 0.042868532 0.0065231947 -0.025106536 -0.05332132
-0.13209608 -0.04351632 0.02434536 0.022084007 0.013977626 0.06511064 -0.030894203 -0.024584603
-0.040407304 -0.04260751 -0.0120488675 0.006971408 0.006809556 0.016204681 0.09649519 0.01661286
0.122420765 -0.055477135 -0.031229781 -0.0032785384 -0.00026117265 0.00689137 0.007752487 0.113977835
0.22687471 -0.0611751 -0.049165674 -0.0043204594 0.0022759698 0.034025837 0.010493162 -0.0096886335
-1.1247685 0.1227294 0.13003096 0.11144571 0.02691082 0.017440777 -0.006106587 0.023670413
0.032346893 -0.020711364 -0.0047580786 0.012400997 0.00819707 -0.0070964843 -0.016456032 -0.0028080724
0.006645408 -0.005491009 0.03499605 -0.0019760383 -0.01565264 0.02707711 0.023948746 0.031718656
0.0099553475 0.013525933 0.05085566 0.03291138 -0.030775899 -0.032269467 -0.010315327 -0.02311066
-0.047331344 0.03441358 -0.037192166 -0.044241074 0.0038020806 0.005563292 -0.006085737 0.019383794
0.015708093 -0.044915184 -0.013652752 0.008279195 -0.009705251 -0.06387624 0.004705754 -0.03735719
0.027528426 -0.015275826 0.0055782837 -0.030274494 -0.056157123 0.008979142 -0.009815589 -0.017763423
0.049478907 -0.07934637 0.0241671 0.023007615 -0.047617503 -0.06951354 -0.033252742 0.027957965
0.026425947 0.32976243 -0.018729405 -0.018243441 -0.007114794 -0.009229817 -0.008364873 0.016458854
-0.036502838 0.35831878 -0.006286264 0.02181213 0.06531082 -0.01848392 0.0054713795 -0.018641848
0.0042961864 0.114402905 0.018627709 0.008090451 -0.050199874 -0.021018744 0.015096149 0.0063448176
0.0002551953 -0.01310248 -0.03086709 0.0048374003 -0.10195094 -0.060121123 -0.03472481 -0.004922916
0.03714522 0.032568417 0.0019435128 -0.02362675 0.026519394 0.017375654 0.020421334 -0.06417213
-0.021455169 -0.016746482 -0.017306335 -0.02957943 -0.033526395 -0.0077102045 -0.006680443 -0.021244187

p_fc1.bias f4 [81]
00000000: 2acc 60bd 38c3 70bd d03c 48bd c97f 1bbd
00000010: 6cae 91bd e434 09bd 76c3 30bd 72fd 40bd
00000020: ca10 50bd be1b 45bd 5f2a 9c3b d5df 06bd
00000030: 0e5c 0cbd 1e63 953d da1e 57bc f055 24bd
00000040: 3749 56bb f2d4 32bd 15d8 58bd 90d3 3fbd
00000050: 7455 3dbd 3590 fd3c 47c3 f13d 5004 803d
00000060: 516e 22bd 0098 0abd bace 46bd 6248 4cbd
00000070: b573 0cbd 1e09 9c3d 6455 ef3d 9f49 fd3d
00000080: f11c dc3d c1cf bf3d 6a8a 23bc 9022 32bd
00000090: 2e2e 31bd 3c47 dc3d 2dc2 d93d 5057 193e
000000a0: c8fa 16bc 0b89 113e c602 033e fec0 ee3d
000000b0: d22a 23bd a8b4 f4bc e096 aabc 092f ac3d
000000c0: 808a fb3d 679e db3d c9e8 d03d ddd3 ad3d
000000d0: a032 b7bc b188 b1bc ad92 3cbd 2749 06bd
000000e0: 70c7 3ebd 9ba4 ba3d ad6e c03d 8608 ad3d
000000f0: ce65 24bd 4575 e6bc 2ba2 33bd 8a09 77bd
00000100: 7b41 87bc 9eb4 f7bc a320 11bd 00ef 853d
00000110: caac 12bd 9807 e3bc 9fe1 8bbc dfcf 44bd
00000120: bbcf 4fbd cff7 44bd f558 b1bc 32c5 b8bc
00000130: 566a 91bd de3e 26bd 56f8 25bd 2d37 49bd
00000140: c70e 51bd
-0.054882206 -0.058779925 -0.04888612 -0.037963662 -0.071133465 -0.033497706 -0.043155156 -0.047116704
-0.05079726 -0.04812216 0.004765793 -0.032928307 -0.034267478 0.07294296 -0.013129914 -0.04012102
-0.0032697448 -0.04366011 -0.052940447 -0.04683262 -0.046224073 0.030952552 0.11804824 0.062508225
-0.039655987 -0.033836365 -0.048536994 -0.049873717 -0.034290034 0.076189265 0.11686209 0.12367558
0.10747708 0.09365798 -0.009981731 -0.043489993 -0.04325693 0.107557744 0.10632739 0.14974713
-0.009215064 0.14212434 0.12794027 0.11657904 -0.03983576 -0.0298713 -0.020823896 0.08407409
0.12282276 0.10723572 0.1020065 0.08487675 -0.022363007 -0.021671625 -0.04603832 -0.032784607
-0.046576917 0.09113427 0.0939611 0.08448891 -0.04013615 -0.02813209 -0.043855827 -0.06031183
-0.016510716 -0.030237492 -0.035431515 0.06539726 -0.035809316 -0.027713582 -0.017075358 -0.048049804
-0.050735217 -0.04808789 -0.021648863 -0.022554968 -0.0710036 -0.0405873 -0.040520035 -0.049124885
-0.051039483

value_conv1.weight f4 [2, 128, 1, 1]
00000000: dfcc 313e 2156 093f da77 bdbd 4d17 87be
00000010: 3e16 303e bb05 653e 2f3c b0be a782 9d3e
00000020: b8a9 7ebe f826 2dbc d290 87be ed2b 663e
00000030: 0187 703e c2f2 2fbe 9e6d d13e 48c4 9d3e
00000040: 4a67 fc3c 970d 45be 94b7 2e3e c979 c8bc
00000050: dd1d a6be 268f b4be 4e02 4b3e 1cfd 8fbe
00000060: b70d 8c3e 5905 b3be 305a 3e3e ac56 6abe
00000070: 438d 40be 1cb2 97be 0242 893e d822 ac3e
00000080: 60fd 89be d1b8 c03d b043 b9bd 8551 10be
00000090: 6227 38bd c45d 0a3c 177f a6be 69a0 823e
000000a0: e393 f13c b764 e83e b51b dfbe c4f2 82be
000000b0: 3729 bbbe 9dd0 84be cf09 1bbe 9714 303e
000000c0: 59f2 1c3d 187f 9b3e 5041 973e 945a 203e
000000d0: a4af 7c3e 5e21 9c3d 1b1f 083e a94e 423e
000000e0: 0b7a 41be 3fb7 573e 8c16 c03e e216 02be
000000f0: b8b8 2a3e 6e73 66bd e39a 2e3e fb18 eebd
00000100: 535c a43d 20ef dc3c 65cd 0ebe c619 c63e
00000110: fd96 d93d 0407 853d ce20 6dbd 9d3a 0c3e
00000120: db01 8dbe 253e 3f3e ab73 923e ad8b 11be
00000130: 2573 53bd 2066 df3e a9a2 87be 3256 f3be
00000140: cf82 16be f739 4e3e e903 533e 29d0 c43e
00000150: a18d 73be 8600 aa3d 2ec3 85be b23a 133f
00000160: d0a0 c33d d89c 95be 7efa c53d 83d6 b3be
00000170: aead d8bd 9284 253e 471e 6dbe f1f1 a83e
00000180: f815 03bf 6847 a9be 110f b0be a1b7 a5bd
00000190: 472b 43be 164a dcbd 2db9 813d aeba c6be
000001a0: 8311 163f 324f 803c a70d 6abe c4da 9d3e
000001b0: 13b4 273e ac6f 293e c165 01bf 443e c8bd
000001c0: a885 aa3e a073 c23c b2ba c03e ddb0 2fbb
000001d0: 6464 ca3e dc6e 1ebe ae6c 8e3e 779e 9dbd
000001e0: 3c9f 2c3d b2c6 693e 9e6a 91be 4820 c3be
000001f0: ab71 bebe c777 8bbe 51e7 6fbe 19b0 8abe
00000200: 190b 933e d966 593e 8967 48be 7024 b6bd
00000210: d17a 94be 8f23 873e dc37 d13d d857 233e
00000220: f497 4f3e d3c8 f9bc 1e45 1abe 9ec1 803e
00000230: 561b 5abe df0c 03be e170 85be 6a63 c1be
00000240: 498d 36be eb1c 643d 3ad5 c1be 6eaf 93be
00000250: bd6f 69be ce42 60bd 7b4d d5be 1add 6b3e
00000260: ecb8 ad3e 322d 893e 7429 96be b014 b63e
00000270: b034 71be 829c a73d 5dfb db3e f073 dbbc
00000280: debb 593e 8c53 f93d 7f6c 9cbe 09c7 9d3e
00000290: f755 a4be a2f1 c1be 36ac b43d ee1a e33e
000002a0: b0cb 3dbe 080c b8bd 3ac1 db3c da96 64be
000002b0: 9954 39bc 1d84 6b3d 46a2 c6bd d1b8 a3be
000002c0: 4cdf e33c 6f9b 3cbe 5774 c33e d763 d43e
000002d0: de51 75be e030 8cbe 02f2 893e c53a bf3e
000002e0: 13a5 183d ecab 6dbe c4bd c13d 99c5 b13e
000002f0: ff29 aabe 1df9 793e bcd3 b1be 724a c1be
00000300: 879f 4abe cedb cebc 33eb cdbe d768 23be
00000310: 79b0 b53d 2e78 793d 0814 abbe 9f4e 35be
00000320: 9628 51be db94 453e 3399 b03c 1b2a f93d
00000330: c475 91be 3694 4cbd 5a6d 803e f4bc c53e
00000340: 3663 9dbe c64a 9cbe 04e6 b73e 2724 b6bd
00000350: ed05 62bd e708 7f3e 280d c3be 8317 8cbe
00000360: e10f 68be cd81 cf3d e1e6 84be b57f d2bd
00000370: f98e d5be bcb4 873e 8c62 f4bd d3c6 eabd
00000380: 4457 74bd f06b 693d fe3b 31be 8805 533e
00000390: b88b 493e b39a 8abe d779 97be 8da2 afbe
000003a0: 456e 96be 0a28 eabe bc10 0a3e ed9e a13e
000003b0: 0d2e 343d b22b 7b3e 67c3 c7bd dcbe 4bbe
000003c0: bfb8 283e a689 b83d 9192 91be 4167 923a
000003d0: b127 b0bd 9f44 f53d 0317 a5be 991b bfbd
000003e0: c414 cbbe 076f c0bd 30b5 9b3d 412b 093e
000003f0: a06d 08bb 703f 1f3e 0250 75be e5fa 2a3e
0.17363308 0.5364705 -0.092513755 -0.26384965 0.17195985 0.22365467 -0.34420916 0.30763742
-0.2486943 -0.010568373 -0.26477677 0.22477694 0.23489 -0.17182449 0.40903944 0.30813813
0.03081097 -0.19243465 0.17062217 -0.024472134 -0.3244466 -0.35265464 0.19825098 -0.28122795
0.27354214 -0.34965017 0.18589091 -0.22884625 -0.18803887 -0.29628074 0.26808172 0.33620334
-0.26951122 0.09410251 -0.090461135 -0.14093597 -0.044959433 0.008445207 -0.32518837 0.25513008
0.029489463 0.4538934 -0.43575826 -0.2557584 -0.36554882 -0.2594041 -0.1514046 0.17195354
0.03831706 0.30370402 0.29542017 0.15659553 0.24676377 0.07623552 0.13293116 0.18975319
-0.18894212 0.21065997 0.37517202 -0.12704042 0.16672027 -0.056262426 0.17051272 -0.116258584
0.08025422 0.026969492 -0.1394554 0.3869154 0.10624502 0.06495479 -0.057892613 0.13694234
-0.27540478 0.1867605 0.28603873 -0.14213438 -0.051623482 0.43632603 -0.26491287 -0.475267
-0.14698337 0.201393 0.2060696 0.38440064 -0.23784496 0.08300881 -0.26125473 0.57511437
0.09552157 -0.29221225 0.09666918 -0.35124597 -0.10580002 0.16163853 -0.23156081 0.32997087
-0.51205397 -0.3306229 -0.34386495 -0.08091665 -0.19059478 -0.10756318 0.063341476 -0.388143
0.5862047 0.015662763 -0.2285677 0.30830967 0.16377287 0.16546506 -0.5054589 -0.09777501
0.33305097 0.023736775 0.37642437 -0.00268083 0.39529717 -0.15471977 0.2781729 -0.076962404
0.042144045 0.22829702 -0.28401655 -0.38110566 -0.37196097 -0.2723982 -0.23428084 -0.27087477
0.28719404 0.2123064 -0.19570746 -0.08893669 -0.2899995 0.26394317 0.102157325 0.15951478
0.2027281 -0.030491268 -0.15065429 0.25147718 -0.2129949 -0.12797879 -0.26062682 -0.3777116
-0.17827334 0.05569164 -0.3785799 -0.2884478 -0.22796531 -0.05475121 -0.41660675 0.23033562
0.33930147 0.26792294 -0.293285 0.35562658 -0.23555255 0.08184148 0.42965212 -0.026788682
0.21263072 0.121741384 -0.30551526 0.30815914 -0.32096836 -0.37879664 0.08821909 0.44356483
-0.18534732 -0.0898667 0.026825536 -0.2232317 -0.011311674 0.05749904 -0.0969892 -0.3197694
0.027816437 -0.18418668 0.38174698 0.41482422 -0.23957011 -0.2738104 0.2694245 0.37349525
0.037266802 -0.23210114 0.09460023 0.34721068 -0.33235165 0.24411435 -0.34731853 -0.3775211
-0.19787417 -0.025251295 -0.40218505 -0.15957962 0.0887155 0.060905628 -0.3341372 -0.17705773
-0.20425639 0.19295065 0.021557426 0.12166234 -0.2841016 -0.049946032 0.2508343 0.38620722
-0.30739754 -0.30525798 0.35917675 -0.08893614 -0.055181433 0.2490574 -0.38095975 -0.27361688
-0.22662307 0.101321794 -0.25957397 -0.102782644 -0.41710642 0.26505077 -0.11932859 -0.11463704
-0.059653535 0.056987703 -0.17308041 0.20607579 0.19682205 -0.2707115 -0.29585144 -0.34303704
-0.29381004 -0.45733672 0.13482946 0.31566563 0.04398923 0.24528387 -0.09754067 -0.19897026
0.16476725 0.09010629 -0.28432134 0.0011169688 -0.086013205 0.11975979 -0.3224412 -0.09331436
-0.3966428 -0.09396177 0.07602918 0.13395406 -0.0020817295 0.15551543 -0.23956302 0.16697271

value_conv1.bias f4 [2]
00000000: 683e 393e a193 543e
0.18090212 0.20759441
