model/cnn/8x8/test/latest.pt (torch_old, 478657 bytes, 15 tensors)

conv1.weight f4 [32, 4, 3, 3]
000000 fe 90 27 3e bf 08 63 bc 49 00 3a 3d 23 34 3a bc
       0.16363904 -0.013857066 0.04541043 -0.011364969
000010 20 31 93 bd 3d ed 0a 3e 71 5b 8d bd 89 62 84 bd
       -0.07187104 0.13567062 -0.06902207 -0.064641066
000020 1b 94 25 be 8c fb 42 3c bf 54 2d bd 2e dc 1a 3e
       -0.16169779 0.011900794 -0.04231715 0.15123054
000030 41 57 6c bd 31 c8 97 bc 2e b9 01 be d8 01 68 3d
       -0.0577004 -0.018528076 -0.12668297 0.056642383
000040 a7 d3 24 be 12 b9 94 3d bd da d2 3d ac dd e8 3d
       -0.16096364 0.07261862 0.10295627 0.113704056
000050 a2 9f 97 3d 9e 65 9e 3c 7b 4c b4 3d 75 36 23 3d
       0.074034944 0.019335564 0.0880365 0.039846856
000060 3a 24 10 bd c8 96 0b 3e 3d e7 d2 3d 29 aa 22 3e
       -0.0351908 0.13631737 0.102980115 0.15885223
000070 a0 9e 05 3e 1a 48 ad bd bb 24 48 3d ed 75 59 3d
       0.13048792 -0.08461018 0.048863154 0.05309098
000080 d7 bc a9 bd a6 92 c9 bd f6 49 3e bc 5c 07 ec 3d
       -0.082879715 -0.09842424 -0.011614313 0.11524841
000090 d2 c9 bd 3d af 60 fe 3d c3 04 aa bb da 7b e8 3c
       0.0926701 0.12420785 -0.005188556 0.02837937
0000a0 df a5 ac 3d ae 05 9d 3d f7 94 23 3e 44 7f 08 be
       0.08430075 0.07667099 0.15974794 -0.13329798
0000b0 c5 9d 71 3a 1f 78 1f be b6 84 06 bd b8 aa e4 3b
       0.000921693 -0.15573166 -0.032841407 0.006978359
0000c0 d4 4f cc 3c 0f 64 ba bd 6c f4 23 3e e9 10 89 3d
       0.024940409 -0.09101116 0.16011208 0.066926785
0000d0 8a e3 d1 bd 98 26 3c 3d 76 e1 0b 3e 5c 6d 1d 3e
       -0.10248478 0.045935243 0.13660225 0.15373749
0000e0 09 ac f7 3c 00 f5 29 bd 37 bc 0b be 22 37 e5 3d
       0.0302334 -0.041493416 -0.13646017 0.111921564
0000f0 7a 0d 1c bd 30 f7 13 bb fc f2 3b bd 61 1b c9 bb
       -0.03809879 -0.0022577755 -0.045886025 -0.006137297
000100 7f 16 fb bd 0d 59 5d bd 21 4e 0f be 72 de 71 3c
       -0.1226015 -0.054040004 -0.13994648 0.014762508
000110 fd f7 0f be e5 47 f3 3c ce 9e b9 3d 15 a9 38 3c
       -0.14059444 0.029697368 0.09063493 0.011270781
000120 88 80 92 bc 7f 2e 08 be 1a 60 fe bd 42 94 ef bc
       -0.017883554 -0.13298987 -0.12420674 -0.0292455
000130 c5 56 58 3d 7b b5 39 3d aa d5 ca bd e3 f4 bf 3c
       0.052817125 0.04533909 -0.099040344 0.0234322
000140 13 78 2d bd 69 3f 9e 3d a9 73 dd bd 9d 7b 38 3b
       -0.04235084 0.07726938 -0.10813076 0.002814985
000150 5b b1 21 be 4c 44 43 3d ff bb 6b bd 79 9d 23 3e
       -0.15790312 0.047672555 -0.057552334 0.1597804
000160 4d ae de 3d 59 d5 20 be 13 32 d0 bb 56 9e 1e 3e
       0.10873089 -0.15706386 -0.0063536256 0.15490088
000170 8f dc 8c bc a7 8d 7f 3d 2e 20 b0 bd 35 ec 6e bc
       -0.017195014 0.06239095 -0.08599888 -0.014582683
000180 12 71 8c 3d d0 65 65 bd 34 ae f8 bd 01 5a 2b 3c
       0.06857504 -0.0560053 -0.121426016 0.01045847
000190 ee 5e a8 bd 28 4e 24 be 3a d8 0b 3e ce 81 46 bd
       -0.082212314 -0.16045439 0.13656703 -0.048463635
0001a0 73 80 fc 3c cf ec 33 3d 97 3b 0e 3e 51 fd ae bd
       0.030822968 0.04392701 0.13889919 -0.0854441
0001b0 6c 63 8a bd b9 96 ae bd f4 28 0f be 4e 6c 47 bd
       -0.067572445 -0.08524842 -0.13980466 -0.04868727
0001c0 12 1d d8 3d d2 1e b6 3a 08 53 17 be 0f 09 00 be
       0.1055242 0.0013894683 -0.14777768 -0.12503456
0001d0 2e ba f4 bd b7 61 c4 bc d0 06 ef 3d a2 d0 7b bd
       -0.119495735 -0.023972375 0.11671221 -0.061478265
0001e0 ff a8 22 be 32 1d 1c be be 36 ce bd a5 f6 12 be
       -0.1588478 -0.15245512 -0.10069035 -0.143519
0001f0 a6 0f fe 3d 97 54 86 bd d0 7d 1e bd f0 16 c6 3c
       0.124053285 -0.06559103 -0.038694203 0.02418086
000200 84 d5 4f 3d af de 05 3d 2c f1 ea bd b8 26 6c bd
       0.050740734 0.03268307 -0.11471781 -0.057654113
000210 2d 95 f3 3d 66 c9 e3 3d a9 ef 35 3d 47 be 8b 3d
       0.118936874 0.11122398 0.04441801 0.06823402
000220 50 9f 2b be 20 28 27 3e 48 ee a9 3c 39 bb 9e 3d
       -0.16759992 0.163239 0.020743504 0.07750554
000230 3a fd 3b 3d c4 e3 f7 3b 48 66 50 3d b1 68 e9 bd
       0.045895793 0.0075649936 0.050878793 -0.113969214
000240 e7 41 26 3e f1 b7 0b 3d 4a 56 1d 3e 52 21 25 be
       0.16236077 0.034110967 0.15364948 -0.16125992
000250 56 c1 63 3d 4a 57 fa 3d c6 5e 1a bd 92 a2 9e bd
       0.0556043 0.1222368 -0.03768804 -0.077458516
000260 ae fc ef bd 87 5f 66 3d 4a 6a a0 bd 61 0c 01 3e
       -0.11718117 0.056243446 -0.07832773 0.12602378
000270 a0 91 73 3c eb 7a 0a be 68 60 b4 bd f1 6d e2 3c
       0.014866263 -0.13523452 -0.088074505 0.027640315
000280 55 c2 a4 3d 5a 40 8c 3d a6 71 07 3e 56 93 c0 bc
       0.080448784 0.068482116 0.13226947 -0.023507755
000290 41 01 73 3d 35 34 95 3d 46 cb 0a bc 08 b7 94 bd
       0.059327368 0.07285348 -0.008471316 -0.07261473
0002a0 0e 63 fe bd fc cd d6 bd 0e dc ff bd 24 40 1c bd
       -0.12421237 -0.10488507 -0.12493144 -0.038147107
0002b0 ae 97 22 3d ee 48 05 3e d4 0b 03 be c3 f3 c9 3d
       0.039695434 0.13016102 -0.12797481 0.09860947
0002c0 ae 35 fa 3d 21 33 42 bd 8c 81 bf 3d 2e c7 36 bd
       0.1221727 -0.04741204 0.09350881 -0.044623546
0002d0 b8 9e bf 3d 27 68 35 bd 0b 84 76 3d 78 23 e9 bc
       0.09356445 -0.04428878 0.06018452 -0.028459296
0002e0 66 fb 68 3d 0e f1 02 3e bd cf 9c 3d cd 35 04 3e
       0.056880377 0.12787268 0.076568104 0.12911148
0002f0 c5 4e 10 3d 9f 5a bf bd 49 83 2a be e5 a7 aa bd
       0.03523137 -0.093434565 -0.16651644 -0.083328046
000300 c4 ef d9 bd a5 0d 04 be ab 48 a0 3d a1 e8 02 be
       -0.10641435 -0.1289583 0.0782636 -0.12784053
000310 af 9e aa bd 38 fe ed bd b8 7f f8 bd 98 54 ff bc
       -0.08331048 -0.11620754 -0.121337354 -0.031168267
000320 77 5e 5e bd fe f6 2e bb e6 41 6c 3d b0 23 43 bd
       -0.054289307 -0.0026697512 0.057680033 -0.047641456
000330 f7 f9 84 3d 08 56 c9 bd c5 7f 06 3c a4 3a cd bd
       0.064929895 -0.09830862 0.008209174 -0.100209504
000340 03 db c8 3d da 88 13 be 5e c0 fd 3d e5 86 b4 bd
       0.09807398 -0.14407673 0.12390207 -0.088147916
000350 44 c0 aa 3d 28 95 a5 3d 9a df ca bd 8e 30 23 3e
       0.08337453 0.0808509 -0.0990593 0.15936491
000360 42 9e 87 3d 57 f2 24 3e 6c b6 ee 3b 60 da 95 3b
       0.06621982 0.1610807 0.00728493 0.0045731515
000370 98 cb e5 3d 91 92 2c be a1 49 1e 3e 8e d2 53 bd
       0.11220473 -0.16852786 0.15457775 -0.051714472
000380 0f a4 e3 3d 73 c0 25 3e cc 63 b5 3d 57 bf 12 3e
       0.11115276 0.16186695 0.08856925 0.14330803
000390 e2 30 04 bc 82 18 c4 3c 16 94 28 3e 05 c8 9d bd
       -0.008068295 0.023937467 0.1646274 -0.07704166
0003a0 00 8d 27 3c 57 25 83 3d 4f dd 0d 3e e1 f7 bc 3c
       0.010226488 0.064036064 0.13853954 0.023067417
0003b0 07 c3 a7 3d 6c 14 35 bd 94 d7 c2 3d 5d 75 d7 bd
       0.081914954 -0.04420893 0.095137745 -0.10520432
0003c0 e0 3f 22 bc 5a 42 13 3e b3 f6 43 3d 83 65 cf 3d
       -0.009902924 0.1438078 0.047842693 0.10126784
0003d0 f9 19 86 3d 5e c9 64 3c e9 a2 1c 3e c0 38 70 bc
       0.06547923 0.013964025 0.1529652 -0.014661968
0003e0 d1 e3 04 be 6b 8d 34 bd 26 94 b8 3d 08 44 8d 3d
       -0.1297753 -0.04408018 0.09012632 0.068977416
0003f0 a4 a8 4c bd 2a cd dc bd a7 77 25 3d 41 1a 91 bd
       -0.049965516 -0.107813194 0.040397312 -0.07085086

conv1.bias f4 [32]
000000 4b 2c 03 3d 13 61 b2 bd 28 03 d4 bd 30 76 21 3d
       0.032024663 -0.08709922 -0.103521645 0.039419353
000010 36 e9 f9 bd 1b 1a 92 bd 48 7e c8 3d f9 a2 4e 3c
       -0.122026846 -0.071338855 0.09789711 0.012612098
000020 12 a2 b1 bd 76 72 66 3d 06 50 ed 3c 0f fc c3 bd
       -0.086734906 0.056261502 0.028968822 -0.09569561
000030 de 1d 06 be ef 1e 21 bd 5d 5f a5 bd 0a 35 70 bd
       -0.13097331 -0.03933614 -0.0807483 -0.058644332
000040 89 46 e3 bc f2 38 19 3e b4 4d 5b bd 80 ee ae bc
       -0.027743595 0.14963129 -0.0535409 -0.02135396
000050 a9 b9 7f 3d 29 dc 17 be d4 12 47 bc 56 cf 45 ba
       0.06243292 -0.14830078 -0.012150485 -0.0007545849
000060 21 50 20 be 36 8f e7 bd be ef d7 bc 12 75 1c 3d
       -0.15655567 -0.11306612 -0.026359435 0.038197584
000070 8c 5a d8 bd 58 8d 8c bd b7 ed 90 bd da c0 15 3e
       -0.105641454 -0.06862897 -0.070765905 0.14624348

conv2.weight f4 [64, 32, 3, 3]
000000 5c 3d 08 bc b9 3f f1 bb c5 be 98 3c d8 d4 52 bd
       -0.00831541 -0.0073623327 0.018645654 -0.051472515
000010 3b 37 f5 bc 95 27 b3 bb fa 0a 9a 3c d0 8f eb 3b
       -0.029933563 -0.005467365 0.018804062 0.0071887746
000020 45 ce 0b 3c 57 89 5d bd 18 7f dd 3c df af 36 bd
       0.008533065 -0.054086056 0.027038142 -0.044601317
000030 6f 63 29 bd 1e f1 4c 3d 95 de 31 3b 24 51 a2 3b
       -0.041354593 0.050034635 0.0027140726 0.0049535204
000040 a2 97 52 3c 85 12 30 3c 21 94 60 3d 06 88 16 bd
       0.012853535 0.010746603 0.054828767 -0.036750816
000050 87 ac cb bc b1 e8 46 bd 0c 21 26 3d 5c 73 0e bc
       -0.02486254 -0.048561756 0.04055886 -0.008694496
000060 8c e1 02 3d 80 1c 70 bc dc 4e 8d 3c ae 17 33 3d
       0.03195338 -0.014655232 0.017249517 0.043723755
000070 91 eb 4f bd 3f b1 19 bd fb 43 38 3d 34 71 95 ba
       -0.050761763 -0.03752255 0.044986706 -0.0011401535
000080 7d da 10 bd 54 ce b9 3c 8d 8f 58 bd c2 59 53 bd
       -0.035364617 0.022681393 -0.052871276 -0.05159927
000090 c5 be 57 3d 07 79 b6 3c e5 83 0e 3d f4 11 72 bd
       0.052672166 0.022274507 0.034793753 -0.059099153
0000a0 ef e9 6d bd bd ce a6 3c 47 9f 36 3b ca 34 f1 bc
       -0.058084425 0.020362252 0.0027865933 -0.029444117
0000b0 d0 31 4b 3d c5 1e 84 3c f1 71 f1 3c c5 9b b3 3c
       0.04960805 0.016127953 0.029473277 0.021924863
0000c0 5f dc 15 bc 7e 94 d1 3b fa fa 98 3c 6b f0 0d bd
       -0.009146779 0.0063958755 0.018674362 -0.03465311
0000d0 d5 66 51 3d c8 dd 11 bd 12 d8 8e bc 4c c4 45 3d
       0.05112346 -0.035611898 -0.017437015 0.048282906
0000e0 9e 80 dc 3c 48 74 55 bd e7 44 5a 3d 84 0f b3 bc
       0.026916798 -0.052112848 0.053288367 -0.021857984
0000f0 71 f3 de bc 1f c4 29 3d 77 5d 32 3d 51 9a 45 3d
       -0.027215691 0.0414468 0.043546166 0.04824287
000100 ab cc 58 3d 29 b3 22 bc 08 58 c9 bc ae 44 25 3c
       0.05292956 -0.00993041 -0.02457811 0.010087175
000110 5f a1 44 3d c9 5d 99 3c 3d ab 1f 3d 89 5d 5a ba
       0.048005458 0.018721478 0.038981665 -0.0008329978
000120 80 52 f8 bb c2 a0 fd bc 8a 58 83 bc ce 8f f8 b9
       -0.007578194 -0.030960444 -0.01603343 -0.0004740939
000130 dc 5c fd b9 87 9d f6 bc 30 ca 93 38 9b 5b 3d 3d
       -0.00048325106 -0.030104412 7.0471666e-05 0.04622994
000140 fd b3 ba bc fb 60 02 bd 63 b1 40 bc 5f 77 53 bd
       -0.022790903 -0.03183077 -0.011761042 -0.051627513
000150 14 84 d7 bc 4b 20 dd bc fe ac 99 3c e2 69 8c 3c
       -0.026308097 -0.026992938 0.018759247 0.017140333
000160 01 68 18 bd b2 66 93 3c a4 3d 2f bd bf 0d 88 3a
       -0.03720856 0.017993305 -0.042783394 0.0010380073
000170 0f 63 78 bd a7 d6 4b 3d 3e 34 09 3d 95 57 09 3d
       -0.060641345 0.049765255 0.033497088 0.03353079
000180 24 c8 4e 3b 0d f5 73 3c 20 1f e6 bc cb 76 98 bb
       0.0031552399 0.014889968 -0.028091013 -0.004652833
000190 f9 7a 6a bd af 25 20 3d 0e 32 81 bc ff e8 80 3c
       -0.057246182 0.039098438 -0.015770938 0.015736101
0001a0 1f b0 3b 3d b5 6d 9f 3c 15 34 b8 3c 4d 4a 4b bd
       0.04582226 0.019461492 0.022485772 -0.049631406
0001b0 11 3d 2d bd 06 9e b0 3c 43 b4 7d bc 82 9f 44 bc
       -0.042294566 0.021559726 -0.015484872 -0.01200092
0001c0 08 78 ab bc 4f 95 0e 3d 13 d5 24 bc 3a a6 37 3d
       -0.020931259 0.03481036 -0.0100605665 0.04483626
0001d0 19 1b a2 bc d3 90 59 bd d2 fc 06 3d a8 06 5b bd
       -0.019788312 -0.05311663 0.032955952 -0.053473145
0001e0 3a c6 9f 3b 17 12 44 bd c2 ae 33 bd d2 ee 42 bd
       0.0048759254 -0.047868814 -0.043867834 -0.047591038
0001f0 13 85 98 3c 5c fa 21 bd 8c 3b 52 3d 38 69 82 3c
       0.018618142 -0.039545402 0.05132632 0.015919313
000200 3f e1 29 bc 16 f1 e6 bc 7e cd 74 3d 35 68 ff 3c
       -0.010368644 -0.02819113 0.059766285 0.03117762
000210 c2 69 4d bd f8 3e 4a 3d 44 dd 35 3d be f8 bd 3c
       -0.050149687 0.049376458 0.04440047 0.023189899
000220 06 51 2b bd 9e 94 41 bb 19 a2 b4 bc c8 40 5f bb
       -0.041825317 -0.0029538046 -0.02204995 -0.0034065712
000230 d5 19 a6 bc 11 2f 0b bb 69 a8 1d bd 8e 15 51 3d
       -0.02027599 -0.002123777 -0.038490687 0.051045947
000240 0c d1 db bc 54 00 10 3b 09 c3 9c bc dc 24 5c 3d
       -0.02683308 0.0021972852 -0.019135969 0.05374609
000250 bf 97 73 3d d1 3a 0e 3d bd c1 c3 3b 4c 49 33 3c
       0.05947089 0.03472406 0.005974023 0.010942768
000260 c7 73 28 bd f6 7a e0 3c 91 8b d2 3c 44 42 38 bd
       -0.04112604 0.027402382 0.025701316 -0.04498507
000270 58 67 1e bb 05 79 d2 3c 40 63 91 bc ce fd 40 3d
       -0.0024170484 0.025692472 -0.017747521 0.047117047
000280 f2 30 d2 bc 62 88 e6 ba 55 01 18 bd 9a bf 07 3c
       -0.025658105 -0.0017588253 -0.037110645 0.0082854275
000290 a8 95 0a 3d ee 3b 12 3d 4a e6 55 bd e2 54 2a 3d
       0.03383413 0.035701685 -0.052221574 0.041584857
0002a0 85 48 e6 bc c0 18 db bc 26 bf 48 bb 2e 81 15 3c
       -0.028110752 -0.0267452 -0.0030631511 0.009125037
0002b0 2c 2f 39 bd 5f 20 25 3d 6c cc c2 3c 4d 7d 5b 3c
       -0.045211002 0.040314075 0.023779117 0.013396573
0002c0 5b 13 3b bd 6e 0f 3c bc 1d 0a ab 3c 80 f5 8c bc
       -0.045672756 -0.011478288 0.020878846 -0.017206907
0002d0 4a 0c 30 3d ba 0b 0b ba 09 16 92 bc 18 da 57 bd
       0.04298047 -0.00053041766 -0.017832773 -0.052698225
0002e0 43 18 de 3c 01 00 1f bc 13 4e f3 3b 7b 51 11 3d
       0.027111178 -0.009704591 0.0074250787 0.035478096
0002f0 5c 03 d8 bc 1a bd 52 bd e2 d3 4a 3d dd 26 41 3d
       -0.02636879 -0.051449873 0.049518473 0.047156204
000300 4b 43 6b bd 8c 06 58 3c 64 33 2d bd 99 95 23 3d
       -0.057437222 0.013185155 -0.042285338 0.03993759
000310 7c a2 16 3a bb 62 16 3c 49 2a 9f bc c5 07 11 bc
       0.0005746258 0.009178813 -0.019429343 -0.00885195
000320 02 bc 89 bd bf 67 6b bd 60 c7 32 bd de bf 22 bd
       -0.06725313 -0.057471987 -0.04364717 -0.03973376
000330 32 34 5f bd fd 72 04 3c 00 2b 06 3d 0d 48 5c 3d
       -0.054493137 0.008084056 0.03275585 0.05377965
000340 18 76 6f 38 42 6e 32 bd d7 e9 e8 3c 19 b7 9a bc
       5.7092024e-05 -0.04356218 0.028431816 -0.018886136
000350 e8 e3 0e 3d f9 08 e7 bc 6e c0 5a 3d 4e f7 5c 3d
       0.034885317 -0.02820252 0.05340617 0.053946786
000360 76 84 34 bc 33 20 25 bd 51 6e 5e bd 5f aa 77 bd
       -0.011017909 -0.04031391 -0.054304425 -0.060465213
000370 3a c5 10 bb 68 e0 43 3c 04 f2 08 bd dc 82 ba 3b
       -0.0022090212 0.011955358 -0.03343393 0.005691869
000380 f3 00 92 bc 20 1d 07 bd 1e 18 98 bc 2c a3 88 3c
       -0.017822718 -0.03298676 -0.018566187 0.016679369
000390 59 ba 52 ba 8c 68 17 bd 0f 84 14 3d 9c b6 20 bc
       -0.0008038632 -0.036964938 0.036258753 -0.0098091625
0003a0 8e 64 33 3d ce d5 dc 3c 45 b8 80 bd 00 52 20 bd
       0.04379707 0.026957419 -0.062851466 -0.0391407
0003b0 5a ca 0b 3d 59 60 35 bd c6 3c fc 3b 2e e5 c7 bc
       0.034128524 -0.044281337 0.0076976744 -0.024401274
0003c0 72 0a 5c 3d c4 8e af bb 4e e5 2b 3d 53 1b 22 3c
       0.0537209 -0.005357595 0.04196673 0.00989421
0003d0 2c 5e 46 bd 80 59 6a bd 19 dc 31 3d 13 31 97 3c
       -0.048429653 -0.05721426 0.043422792 0.018456018
0003e0 c2 ef 45 3d 6a d7 2c bd 70 cb 24 bd 75 11 2b 3d
       0.048324354 -0.042197622 -0.040233076 0.041764695
0003f0 6e 09 bd bb c0 a5 06 bd bc 2e 2d 3d 8d 51 1d bd
       -0.0057689464 -0.032872915 0.042280897 -0.03840785

conv2.bias f4 [64]
000000 7f 92 c6 3c 5e 07 8d bc 1f 01 b4 3b 2b 8f 48 3d
       0.024239777 -0.017215427 0.0054932977 0.04896466
000010 a4 06 93 3c c2 e8 5e 3d 93 33 22 bd c8 e8 df 3c
       0.017947502 0.054421194 -0.039599966 0.027332678
000020 1b fb ec 3c aa 3a 5d 3d 86 bc de bc 23 20 21 bc
       0.02892833 0.054011025 -0.027189504 -0.009834322
000030 d0 b2 8c bc f4 6f 77 bc 00 79 9a 3c d3 f8 42 3c
       -0.017175108 -0.015102375 0.018856525 0.011900145
000040 75 93 36 3d ec 6f ad 3b 86 a2 42 3d b4 69 e3 3c
       0.04457422 0.005292883 0.047518276 0.027760364
000050 ec d3 30 bd 18 48 59 3d 6a 11 0d bd a1 a7 c2 bc
       -0.043170854 0.05304727 -0.034440435 -0.023761572
000060 e0 f3 6e 3d bf c5 4b bc 91 41 34 3d 13 93 18 3d
       0.058338046 -0.012437283 0.04400784 0.037249636
000070 e5 d4 4e 3c 27 a6 e8 3c 9c df 6a 3d eb 6b 16 3c
       0.012624 0.02839954 0.057342157 0.009181003
000080 93 fa 16 bd c2 01 c0 bc c2 6f 61 bb 7d 89 21 bd
       -0.03686006 -0.023438338 -0.0034398888 -0.03943776
000090 c2 ea a8 bc 91 a2 df 3c 07 de d6 bc 0b 84 50 3d
       -0.020619754 0.027299197 -0.026228918 0.050907176
0000a0 e9 64 db 3c fa a4 dd 3c b3 79 b2 3b 08 af b1 3c
       0.026781516 0.027056206 0.0054466366 0.021689907
0000b0 15 87 56 bd db 3b d0 3b 20 67 51 bd 92 66 56 bd
       -0.052374918 0.0063547916 -0.05112374 -0.052343912
0000c0 85 d6 5c bc ef 15 7f 3d ec bc 27 3c d0 0f 4c 3d
       -0.01347888 0.062276777 0.010237914 0.049819767
0000d0 b5 d7 38 bd 14 9a 52 3d 1c 1c a3 3c 7a 7b 21 3c
       -0.04512759 0.05141647 0.019910865 0.009856099
0000e0 79 03 3f bd da 46 7d bc e1 c9 14 bd aa a5 5d 3d
       -0.04663417 -0.015458787 -0.03632534 0.054113068
0000f0 6f 72 55 3c 83 99 cb 3c df 42 3f 3d e2 9a e3 bb
       0.013027771 0.024853474 0.046694633 -0.0069459537

conv3.weight f4 [128, 64, 3, 3]
000000 93 52 fe 3c 47 e9 bc 3c 38 aa 45 3c 40 ef e5 3c
       0.031045234 0.023060454 0.012064509 0.028068185
000010 6a 24 0c 3d 01 7e cd bc e7 ca c3 bc 02 ac 87 3a
       0.034214415 -0.025084497 -0.023900462 0.0010350945
000020 b3 bd 8f bc 86 bf d3 bc 6a ed bd 3b 77 95 d0 3c
       -0.01754651 -0.025848161 0.005796124 0.025461895
000030 a6 d0 ba bc 4c 61 8b 3c 58 d2 c0 bc 79 65 a3 bb
       -0.02280457 0.017014168 -0.0235378 -0.0049864617
000040 bc 7e b7 3a a2 46 10 bd 82 0d 70 3c bd 8c 9b bb
       0.0013999562 -0.03522361 0.014651658 -0.004747002
000050 c5 28 f0 bc 5d de a2 3c d6 53 06 bc 97 02 da 3c
       -0.029316315 0.019881422 -0.008198699 0.026612563
000060 76 a6 61 3a f3 22 80 bb fc 7b e5 bc 2b d6 bf 3c
       0.00086078735 -0.0039104163 -0.028013222 0.023417553
000070 df 19 6d 3c cd ac 0b 3c 90 21 92 38 5b 9d a6 3c
       0.0144715 0.008525086 6.968074e-05 0.020338705
000080 84 c5 f4 ba eb 7e ea bc b0 87 50 bc 54 f8 7d 3c
       -0.0018674587 -0.028624972 -0.012727663 0.015501101
000090 1e 29 9f 3c a8 3e 1b b9 20 44 16 38 6b 07 eb 3c
       0.019428786 -0.00014805293 3.5826233e-05 0.02869006
0000a0 75 ec 16 bc 3c 09 bc ba 46 eb 77 3c 3d 8d df bc
       -0.009211649 -0.0014346014 0.015131777 -0.027289027
0000b0 01 4d 8d 3b 2b 30 07 3d 6b a2 80 3c 88 bb 1c bb
       0.004312158 0.03300492 0.015702447 -0.0023915488
0000c0 07 3e 07 bd f1 b6 4a 3b 0b d3 4b 3b 57 e7 4b 3c
       -0.03301814 0.0030931795 0.0031101133 0.012445292
0000d0 bb 8a fc bc e0 8e 80 3c 9b 2d ae bc 16 86 0b bb
       -0.03082787 0.015693128 -0.02126198 -0.0021289638
0000e0 40 69 68 39 22 b3 31 bc c3 27 15 bd de c0 cf bc
       0.00022164453 -0.010845931 -0.036414873 -0.02536052
0000f0 e8 ab 12 bc 03 c2 ce bb a3 b3 47 bc 5d ff 03 3d
       -0.008952118 -0.006309749 -0.012188825 0.032225955
000100 86 bd 3a bc 57 96 03 3d 67 16 5f bc 39 a1 8f bc
       -0.011397725 0.032125797 -0.013616181 -0.017532932
000110 79 2e e5 bc 32 69 54 3a a4 e1 c9 bc 3d c0 c9 bb
       -0.027976261 0.00081028335 -0.024643727 -0.00615695
000120 38 45 77 bb 1c 1b f3 bc 56 4c 42 3c 9f b6 d5 bc
       -0.0037730467 -0.029676013 0.01185902 -0.026088057
000130 bb ab e0 3c 62 36 b4 3c fb 8a 90 3c 1b 4c ec bc
       0.027425637 0.021998588 0.017644396 -0.028844884
000140 50 57 c3 bc 16 d3 17 bd 59 06 12 3c ce f4 b5 3c
       -0.023845345 -0.03706654 0.008912646 0.022211459
000150 7e a4 12 3d 46 6a df 3c 88 dc 90 3c a5 aa d1 3c
       0.035801403 0.027272355 0.017683282 0.025594065
000160 c1 cd 34 bc 89 7d fe bc 0f 55 af bc 4a 5d 95 39
       -0.011035384 -0.03106572 -0.021402864 0.00028489
000170 87 f7 93 bc ce 9e 47 bc 69 6b ab 39 90 8e b1 ba
       -0.018062366 -0.012183858 0.00032695688 -0.0013546515
000180 90 bf 82 bb ca 29 83 3c 52 16 2d 3b 15 c5 3e bc
       -0.003990121 0.016011138 0.002641101 -0.011643668
000190 dd 43 05 3d 91 c4 1f 3c c0 9c f5 3c 3f 37 b9 3c
       0.032535423 0.009751455 0.02998197 0.022609351
0001a0 57 11 da bc 56 e2 95 3c d7 4e f6 bb ec fc 09 3d
       -0.026619596 0.018296402 -0.0075167227 0.03368847
0001b0 47 27 93 bc f6 34 d2 ba a7 b8 aa 3b a6 02 66 bc
       -0.017963065 -0.0016037512 0.0052100006 -0.014038717
0001c0 02 c2 31 3b db 0e da bc e6 93 a7 ba 93 b5 47 3c
       0.0027123694 -0.026618412 -0.0012785166 0.012189287
0001d0 3d 64 49 3a 1c bf 12 bd 6e 63 10 bd e7 1a ee bc
       0.0007682478 -0.035826787 -0.035251074 -0.029065562
0001e0 ca ef e8 bc 3f 4b 03 3d ff f1 64 bc 42 dc 16 bc
       -0.028434653 0.032054182 -0.013973712 -0.009207787
0001f0 ca d3 b0 bc 4f 1a 9c bb fe d8 9d 3b ef 10 1b 3b
       -0.021585364 -0.0047638784 0.0048171273 0.0023661216
000200 a0 7d 30 bc 7f 18 d3 bc 82 1a f6 3c 50 86 de 3a
       -0.010772139 -0.025768517 0.030041937 0.0016977284
000210 1f 9f 46 3c 33 da ac bc 28 53 5f 3c 21 0f 0e bd
       0.012122898 -0.02110014 0.013630666 -0.034682397
000220 4b bb 8f ba 04 50 66 3c 0d 6a f9 bc 85 0c a1 3a
       -0.0010965852 0.014057163 -0.030446077 0.0012287056
000230 21 35 d3 3c 80 cb 4e 3c 77 a6 91 bc b2 91 02 3d
       0.02578217 0.01262176 -0.017779572 0.031877227
000240 e0 5d a3 3c df 10 bd bc 07 74 01 3c bc 18 40 bc
       0.019942224 -0.023079334 0.007901198 -0.011724647
000250 d4 52 92 bc e1 61 02 3d 54 cd 3e bb 02 84 d4 3c
       -0.017861761 0.031831626 -0.0029114084 0.025941852
000260 88 ed 9c 3b 9d b2 59 bb 5f 47 a8 3a 12 57 90 bc
       0.004789058 -0.0033218034 0.0012838653 -0.017619643
000270 78 93 ee bc d4 44 85 bc 08 ea 91 3a e2 67 f1 bc
       -0.029123053 -0.016268171 0.0011132369 -0.02946848
000280 8a 15 bf bb 46 0a 2b 3b fe ca 3d bb 92 dd 9a 3c
       -0.005831425 0.0026098653 -0.0028960104 0.018904481
000290 de 62 cf bc 94 91 64 bc 58 80 96 bb 39 42 d8 3c
       -0.025315698 -0.013950724 -0.0045929365 0.026398765
0002a0 e0 0b 6e bc 2a b6 73 3c b2 8c a9 3b 26 cc 18 bb
       -0.014529198 0.014874974 0.005174243 -0.0023315041
0002b0 09 15 10 bd ab 4f 1e bb 59 47 0e 3a ad 88 70 bc
       -0.03517631 -0.0024156373 0.0005427502 -0.014681024
0002c0 a9 12 0f 3d 70 c3 0d bd e9 50 0b bd aa e2 6b 3b
       0.034929905 -0.03461021 -0.03401271 0.0035993257
0002d0 01 6e 03 bb 56 03 15 3c be ea a3 3c c1 d0 c3 bb
       -0.002005458 0.009095034 0.020009395 -0.005975813
0002e0 37 f6 5d bc 4e 2e c8 bc 8f fa 8d 3c 63 aa 92 bc
       -0.013547472 -0.024436142 0.01733139 -0.017903512
0002f0 70 ce 9c 3c 39 54 02 3d 58 ca 85 bc f8 b9 86 bc
       0.019141406 0.031818602 -0.016331837 -0.016446099
000300 e2 4d ae bc 90 c8 03 bd 37 d1 cb bc 24 2c cf 3c
       -0.021277372 -0.032173693 -0.024880035 0.025289603
000310 fb c5 e9 3b eb 61 34 ba 90 bb 92 3c ff 7a 10 bc
       0.007134197 -0.0006881046 0.017911702 -0.008818387
000320 fa 0f 7e bc e2 2a 3c bc e8 18 fe bc be 1e 04 3d
       -0.015506739 -0.011484833 -0.031017736 0.03225588
000330 14 f8 a6 3b 4d 03 9f bc 2e 88 12 bd cb bd 35 3c
       0.005095491 -0.019410754 -0.035774402 0.011092613
000340 af d7 b8 bb c5 5d f6 3c 0c 01 4f 3a 13 8c c4 3c
       -0.005640946 0.03007401 0.00078965793 0.023992574
000350 b4 95 71 3c 6a 99 da bb 8a b3 aa 3c 44 99 91 3c
       0.014745165 -0.0066711204 0.020837564 0.017773278
000360 96 fb c5 3c 2e 0a f6 bc 94 cc 03 bd 1d 6e e0 3c
       0.024167817 -0.03003415 -0.032177523 0.027396256
000370 ca 11 a3 3c 1a 8b 0f bd 58 9f bb bb 07 72 fd 3c
       0.019905943 -0.035044767 -0.0057257824 0.030938162
000380 ba 1e ea bc 00 df 9d b6 d7 0b da bb 14 52 9e bc
       -0.028579105 -4.7049252e-06 -0.0066542435 -0.019326247
000390 61 a3 12 3d 45 ad 8b ba 34 a2 33 3c 5d ce 9e bb
       0.03580034 -0.0010656497 0.010963965 -0.0048463778
0003a0 0e 99 84 3c 80 8b 8f 3c aa c9 85 3b 4a d4 b5 3b
       0.016186263 0.017522573 0.004082878 0.0055489885
0003b0 0b 86 02 bd 58 d0 b2 bc e7 4d 01 bd 8b 52 e8 bc
       -0.031866115 -0.021827862 -0.031568434 -0.028359672
0003c0 a6 e6 a7 bc c6 2d af 3c 9d 89 9e bc 12 d6 90 bc
       -0.020495724 0.021384131 -0.019352729 -0.017680202
0003d0 a3 83 dc 3c e0 19 32 3c 65 2e e1 bc 00 6e 4a 3c
       0.026918238 0.010870427 -0.027487943 0.012355328
0003e0 96 67 94 bc 3e 3c fb bb f3 44 87 bc d8 91 a5 bb
       -0.0181158 -0.0076670935 -0.01651237 -0.0050527863
0003f0 81 e3 0d bc 1a 21 7d bb 4d ed ae bc e5 b0 77 3c
       -0.008660198 -0.0038624466 -0.021353388 0.015117859

conv3.bias f4 [128]
000000 82 95 27 bd f1 cd 8f 3c 8f 30 2a 3d 94 27 50 bc
       -0.040914066 0.017554255 0.041550215 -0.012704749
000010 8a a1 05 bd 4b 99 26 bb 86 6c a1 3c 29 03 c1 bc
       -0.03262476 -0.002542096 0.019705068 -0.023561077
000020 b6 a3 95 3b 6c 57 86 bb ea d3 9b bc c0 78 a2 3a
       0.004566635 -0.004099777 -0.019021947 0.0012395605
000030 a6 7c 8e bc bc 9c e0 bb cd ac ec bc 72 32 a7 bb
       -0.017393421 -0.0068546217 -0.028890992 -0.005102449
000040 55 e9 31 3c 86 f0 96 bc 0b 79 9e 3a 33 05 f7 ba
       0.010858853 -0.018425237 0.0012090517 -0.0018846154
000050 ad e1 97 3b c8 5a d1 bc 19 17 d2 bc 59 a9 88 3c
       0.004635057 -0.025555983 -0.02564578 0.016682314
000060 7d 4b 8d 3c 9e 3e 2c 3d 72 10 92 3c 8a d4 f5 3c
       0.01724791 0.042051904 0.017830107 0.030008573
000070 dd 44 3a 3d b0 d8 e3 bb 23 73 77 3b 83 81 b2 bc
       0.04547583 -0.0069533214 0.0037757836 -0.021790272
000080 c5 f6 3f 3d 0a e8 76 3c 94 22 15 3d d9 dc 01 3c
       0.046866197 0.015069971 0.03640993 0.007926189
000090 b0 95 5a bc bd 5e d4 3b 82 8a 90 3c f2 c8 8e bc
       -0.013341352 0.0064810202 0.01764417 -0.017429803
0000a0 d0 af 2a 3c f9 55 04 bc 4d 4b d7 bc f3 60 70 3a
       0.0104178935 -0.008077138 -0.026281023 0.000916972
0000b0 3d c9 d0 3c f1 3d 8b bb ed 07 b9 bc c2 01 e9 bc
       0.025486583 -0.0042493274 -0.022586787 -0.028443221
0000c0 e5 2d cc 3b c8 80 b7 bb 06 0f 54 bc a3 6b 6b bb
       0.006231057 -0.0056000687 -0.012943035 -0.003592231
0000d0 9f cb 23 3d c3 48 06 bb 2f ae 04 bd 48 95 91 3c
       0.03998911 -0.0020490147 -0.032392677 0.017771378
0000e0 f2 83 19 3d ae 56 41 3c d7 18 1f bc 2c d0 82 3c
       0.03747935 0.011800451 -0.009710512 0.015968405
0000f0 d1 13 99 3c 55 32 fc bc 9d de 7c bc be e3 03 bd
       0.018686207 -0.030785719 -0.0154339345 -0.032199614
000100 f4 85 0d 3d d8 cc be 3c 70 fe 35 3d e1 76 e0 3c
       0.034551576 0.023291036 0.044432104 0.027400436
000110 bd 0e 8f 3c 82 43 7d bc bc 47 92 bc cf 29 12 bc
       0.017463082 -0.01545799 -0.017856471 -0.008921101
000120 ee 68 36 3d 9e 84 b6 3c bd d8 a7 3c a5 86 e3 bc
       0.044533662 0.022280034 0.020489091 -0.027774164
000130 48 1f 9f bc e7 9e e9 3c 03 0e 55 bb 1e 6e 85 3c
       -0.019424096 0.028518153 -0.0032509572 0.01628786
000140 fe e9 11 3d 12 3e 9e 3c 34 9e 0d bd fb 7a a6 3c
       0.035623543 0.019316707 -0.034574702 0.020322314
000150 71 e1 22 3d 8f 85 03 3d 90 9e 04 bd 88 16 15 3c
       0.03976578 0.032109793 -0.03237778 0.00909961
000160 70 4b ce 3c 6d 4a 7f bc 9f 9f 7c 3b 69 53 50 bc
       0.025182456 -0.015581709 0.003854729 -0.012715199
000170 f6 4b d6 3c c8 20 90 3c 3d bc b4 3c d0 ec cd b9
       0.026159268 0.017593756 0.022062415 -0.00039277086
000180 51 0e 52 bc d9 63 9b bb 94 d1 e4 bc 5d fc c2 3c
       -0.012820796 -0.0047421274 -0.027931966 0.023801977
000190 5b 1e df bc 27 97 28 3d 23 d8 4b 3c 2f 02 fa ba
       -0.027236154 0.041159775 0.012441668 -0.0019074137
0001a0 61 2b b4 bc 42 5d d2 bc 46 aa 45 3c bf 3a a0 3c
       -0.02199334 -0.025679234 0.012064522 0.019559262
0001b0 92 5a 9e bc 12 26 29 3c 47 c7 0d bc 04 79 8d bc
       -0.019330297 0.010324018 -0.008653468 -0.017269619
0001c0 0d bc d3 3c 1e cd d7 3c b0 8f 36 3d ad a5 3e bc
       0.025846506 0.026342925 0.044570625 -0.01163618
0001d0 0a c1 0f bd 47 5d fb bc 58 0d 0d ba e5 41 19 bd
       -0.035096206 -0.030684127 -0.00053807115 -0.037416358
0001e0 67 5a 04 bd e9 f1 d9 3c ee fe d3 3b 6f c3 8f 39
       -0.032312777 0.02660461 0.006469599 0.00027420695
0001f0 4f 26 88 3c 39 d2 ac bc 54 ed fd b8 14 00 f5 3a
       0.01661983 -0.021096336 -0.00012108186 0.001869204

p_conv1.weight f4 [4, 128, 1, 1]
000000 29 ed 84 bd 31 0b 36 bd d3 d6 29 3d d6 c0 24 3d
       -0.06490547 -0.044444267 0.041464638 0.040222965
000010 b4 34 b0 bc 34 9f 49 3d 19 6a 05 bd 27 6a 5b 3c
       -0.021509506 0.049224094 -0.032571886 0.013392008
000020 99 5f 9c 3d 82 b4 94 3b b9 27 4e bd 7e be 84 bd
       0.07635421 0.00453812 -0.05033085 -0.06481646
000030 93 07 63 bd 4d b6 30 3c 07 2f 88 3c cf 1a cc bc
       -0.055427145 0.010785651 0.016623987 -0.024915127
000040 29 76 a9 bc 50 cd c3 bc 95 cf 71 bd f6 5d fb 3c
       -0.020686226 -0.023901612 -0.059035856 0.030684453
000050 e6 e7 b3 bd b6 40 06 3d 8a f5 39 3c fa fc e8 3b
       -0.087844655 0.032776557 0.011350045 0.0071102353
000060 00 4b 88 bd ba 27 96 3d 48 af 4f 39 93 50 cf 3c
       -0.0665493 0.07331796 0.00019806356 0.025306975
000070 07 dd a5 3d a0 92 93 bd d0 61 1b bd 2f 52 3f bc
       0.08098798 -0.07205701 -0.03793508 -0.011677309
000080 f1 fa 18 3d 95 a8 99 3d 4d 33 aa bb 7b 32 a9 3d
       0.03734869 0.075028576 -0.005194104 0.082615815
000090 97 51 88 3d 96 b8 25 bd 7b 0d ad bb 1b 4b 41 bd
       0.06656187 -0.040459238 -0.005281148 -0.047190767
0000a0 b7 be 23 3d dc 7f 72 bc ef bb 6a 3c 2b b3 e5 3b
       0.0399768 -0.014800992 0.014327033 0.007009884
0000b0 d0 2a c1 bc 72 8f a0 bd ba c6 6b 3d f8 88 a2 bb
       -0.023579985 -0.0783986 0.057562567 -0.0049601756
0000c0 c8 53 a2 bd b8 3f 8a 3d d8 5b 7e bd 1f 2e 69 3c
       -0.07926136 0.06750435 -0.062099308 0.0142321875
0000d0 32 1b b3 3d 67 31 c3 3c 64 80 b1 bc 1e d3 1f bd
       0.087454215 0.023827268 -0.021667667 -0.039019696
0000e0 af d4 b6 3d 2a db 81 bc bb 20 4e bd ff 35 92 3d
       0.08927285 -0.015851576 -0.050324183 0.07139205
0000f0 67 74 bb 3c 83 08 57 bd 3c dd 1c bd b4 e7 9a 3d
       0.022882653 -0.05249835 -0.038296923 0.07563725
000100 59 f3 61 bd 39 8a aa 3d 16 c6 a8 3d 9e 5f 78 bc
       -0.055163715 0.08327145 0.08240907 -0.015159516
000110 3f f8 fa bc 9d e6 d0 3b 10 00 91 bd db f7 7d bd
       -0.030635951 0.0063751475 -0.0708009 -0.06200395
000120 db 91 fb 3b 17 40 9c 3d 7a b0 3a bc 96 ff 40 bd
       0.0076772994 0.07629412 -0.011394614 -0.047118746
000130 5c ad 1b 3d a8 01 46 bd d9 aa a9 3d ca 26 29 bd
       0.038007125 -0.048341423 0.0828454 -0.041296758
000140 73 00 98 bd 85 30 6c bd d6 d4 f2 3c af 6b 9e bd
       -0.07421961 -0.05766346 0.029642504 -0.07735383
000150 b7 59 8c bb a9 8e c5 3d 07 82 6d 3d 75 42 5c bd
       -0.004283156 0.09646351 0.057985332 -0.053774316
000160 2a 23 c2 3c 7c 78 90 bb 12 ff 4b bd 3c b9 7d bc
       0.023698408 -0.004408894 -0.0498038 -0.015486058
000170 11 61 74 3d b6 31 78 3b f4 bc 51 bd ec 6f a8 bd
       0.059662882 0.0037871427 -0.05120559 -0.082244724
000180 7e 08 84 3d 48 6c 79 bd e3 fb 6c bd 37 9b 74 bd
       0.06446932 -0.06089428 -0.057857405 -0.059718337
000190 90 6c 8a 3d 20 87 8b 3d 44 1c 84 3d 5c 71 a1 3d
       0.06758988 0.068128824 0.06450704 0.0788295
0001a0 7e ab 50 3d a2 0d b7 3d bd 4b a6 bc 59 c6 9c bc
       0.050944798 0.08938147 -0.020299787 -0.019137548
0001b0 2e 71 97 bd 9b e9 89 3d 3a 15 aa bd e5 5d c0 3b
       -0.07394634 0.0673401 -0.0830483 0.005870568
0001c0 f6 5f 61 3d 25 a0 7c 3d e3 4e 81 3d 57 a9 bb 3c
       0.055023156 0.061676163 0.063138746 0.022907896
0001d0 e3 ad 93 3d 07 90 38 3c f6 bd 74 3d 00 a2 47 3b
       0.07210901 0.011264808 0.059751473 0.003046155
0001e0 e9 16 39 3d db 75 96 3c c0 4f 59 3d f6 7c 43 bd
       0.045187864 0.018366745 0.05305457 -0.047726594
0001f0 e4 56 92 bd 14 ee 97 3a ae 1c 14 3c ee 0d aa 3c
       -0.07145479 0.0011591339 0.009040041 0.020758595
000200 d2 33 29 bd 3e 33 8e bd 11 2c 66 3c dd 35 95 3d
       -0.041309185 -0.069433674 0.014048592 0.07285664
000210 ec f6 b1 3d ae 2a 88 3d 27 92 82 3d 53 41 9e bd
       0.08689675 0.066487655 0.063755326 -0.07727303
000220 0e a8 81 bd d7 40 a7 3c ba a7 d2 3b 7a 37 6d bc
       -0.06330882 0.02041666 0.006428686 -0.014478559
000230 93 51 6a bd 58 f5 ad bc 9e 46 62 3d fe c7 53 bd
       -0.0572067 -0.021235153 0.055243127 -0.0517044
000240 83 45 6d bd 7f f1 68 3d 0e af 14 3d fd 2a 5a bc
       -0.05792762 0.056870934 0.036299758 -0.013315913
000250 20 f9 23 bd b2 11 a3 3d f7 32 85 bd 42 ee 8a bc
       -0.040032506 0.079623595 -0.065038614 -0.016959313
000260 cb 64 4e bd 7c 06 0a 3d 3f ab 62 3d 64 ff 6b 3d
       -0.050389092 0.03369759 0.055339094 0.057616606
000270 17 d9 b8 3b 27 bf 8c bc 85 ac d4 bb 1a a3 80 3d
       0.0056411135 -0.017180992 -0.0064902925 0.06281109
000280 c0 82 bf 3d ae 15 7b 3c 29 71 c3 3c 1a 02 08 3d
       0.093511105 0.015324993 0.02385767 0.03320513
000290 3a 79 1d bd 6b d5 fb 3c c7 b0 3c bc 1a f7 9e 3d
       -0.03844569 0.030741414 -0.011516756 0.07761975
0002a0 7a 8e bc bb 97 ca 90 3d 54 ea 4c 3d 6c 46 92 3d
       -0.005754289 0.07069891 0.05002816 0.07142338
0002b0 e7 c9 a1 3d a6 71 4c 3d ab f0 3c bd 49 fc 8b 3d
       0.07899838 0.04991307 -0.046127956 0.06835229
0002c0 d6 2e a5 3d 9a 53 83 3d f0 62 b2 3d 16 25 95 3c
       0.08065574 0.0641243 0.08710277 0.01820616
0002d0 92 7b 5e bd 1a 81 a5 3c bb 55 36 bd 75 f4 43 bd
       -0.054317065 0.020203162 -0.044515353 -0.047840554
0002e0 f6 6f 3b bd 6a 7b ac 3b 8e b2 a0 bd 01 cf 3d bd
       -0.04576107 0.0052637355 -0.078465566 -0.046339992
0002f0 02 16 62 bd 97 ec 20 bd 07 95 5d bd ce d3 0a bd
       -0.05519677 -0.03928813 -0.0540972 -0.0338934
000300 61 5c 92 3d 48 4a b3 3d a0 2a da 3b 2f a1 ad 3c
       0.07146526 0.087544024 0.0066579133 0.021195022
000310 2b ac 7c bc b5 d7 b0 3d 48 9b 8c 3c c0 ff 06 bd
       -0.015421907 0.08634893 0.017163888 -0.032958746
000320 47 f7 c2 3d 28 ee 9b 3d d3 f7 33 3c a6 44 26 3d
       0.09519821 0.07613784 0.010984379 0.040592812
000330 9d 62 6b bd f5 6b 73 bd 1c c5 39 bd e2 5e 4e bb
       -0.05746709 -0.059429128 -0.045353994 -0.003148966
000340 f3 d5 c5 3c 20 76 91 bd 25 d2 b3 3c d0 98 ea 3c
       0.02414987 -0.07102609 0.02195079 0.02863732
000350 c8 a3 9e 3d 8b 28 b6 3b ef af c3 bc f8 fb f2 bc
       0.077460825 0.0055590323 -0.023887603 -0.029661164
000360 e6 e3 0e bc 10 76 74 3c 9a be 24 bd da a2 9b 3d
       -0.008721327 0.014920726 -0.040220834 0.07599421
000370 b8 ba ba bb b8 15 58 3c 7e b7 79 3d 36 bb 69 bd
       -0.005698528 0.013188772 0.060966007 -0.057063304
000380 33 48 18 3d cb 17 73 bd f8 6d 95 3d cd 6d 86 bd
       0.03717823 -0.059348863 0.072963655 -0.065639116
000390 96 14 bc bc e3 82 71 3d 9e 28 6c bd 45 1e f7 bc
       -0.022959035 0.058962714 -0.057655923 -0.0301658
0003a0 c6 b8 2f 3b 2d 6d a1 3d e1 5f 70 3d 11 fa 57 bd
       0.0026813014 0.07882152 0.058685187 -0.052728716
0003b0 a3 48 63 3c 42 bc 12 3d 49 c7 0c 3d 21 8d 4b 3c
       0.013872298 0.035824068 0.03436974 0.0124237845
0003c0 a5 31 f0 bb cc 7c 80 bd 74 06 09 bd 60 f0 35 b9
       -0.007330137 -0.06273803 -0.03345342 -0.00017351052
0003d0 78 45 b8 3b d1 16 f5 3c 69 bb 85 bd 10 72 04 bc
       0.0056235157 0.029918106 -0.06529886 -0.008083835
0003e0 e1 a2 78 bd 53 60 62 3c 3c 21 73 bd 04 8b a0 bd
       -0.06070221 0.013816911 -0.059357867 -0.07839015
0003f0 0f d0 cb bc f2 71 10 bd 0a 31 c1 3b 0d 1d 4e 3d
       -0.024879484 -0.035264917 0.0058957385 0.050320674

p_conv1.bias f4 [4]
000000 1e 8d 63 3d c1 d7 02 3d fb e5 83 bc 9b af 80 3c
       0.0555545 0.03194404 -0.016100874 0.015708735

p_fc1.weight f4 [64, 256]
000000 b1 c6 b4 3c 1c 09 ef 3c 80 a5 43 3d fa c3 11 3b
       0.0220674 0.029179148 0.047765255 0.0022242055
000010 92 5b 13 3d b0 85 25 3d bb 73 fe 3b 3c f7 0c bb
       0.035976 0.040410697 0.007765261 -0.0021509668
000020 21 a7 1f 3d c9 bd 0f bd d5 68 2f 3d c4 5d 60 3d
       0.038977746 -0.035093103 0.042824585 0.054776922
000030 53 96 58 3d d9 47 49 3d 00 fa 6a bd 1b 30 26 3c
       0.052877735 0.049140785 -0.057367325 0.010143305
000040 6f 69 22 3b f9 74 37 3d 37 41 78 bd b4 92 92 3c
       0.0024782082 0.04478929 -0.06060907 0.01789222
000050 18 e8 b4 3c d9 6e 68 3d f2 e3 f2 3b 7a e2 64 3d
       0.022083327 0.056746338 0.007412427 0.055880047
000060 a1 50 2a 3d 5b 32 71 3c 7a 24 0f bd 99 29 cf bc
       0.0415808 0.014721478 -0.034946896 -0.02528839
000070 64 74 a7 bc c9 de 59 bd d1 7e 59 bd 9f d8 72 3d
       -0.020441242 -0.05319098 -0.053099457 0.059288617
000080 2f 7d 9d 3c 07 8e e4 3c 4a 26 18 bc 18 e5 2e 3d
       0.019224731 0.027899755 -0.009286473 0.04269895
000090 bf 18 49 bd 0b f3 d9 3c 22 9f 5f 3d 52 af 3b 3d
       -0.049095865 0.02660515 0.05459512 0.045821495
0000a0 b7 f1 5f 3d 0e 06 88 3c bd 6c 9a 3c a3 10 ad bb
       0.054673877 0.01660445 0.018850679 -0.0052815243
0000b0 d3 1a 10 3d 64 2d 05 3d b9 79 4e 3d 73 44 a5 3c
       0.03518183 0.03251399 0.050409053 0.02017424
0000c0 56 40 47 3d 61 d0 49 3d f8 b8 72 bd 22 a9 69 3c
       0.04864534 0.04927099 -0.05925843 0.014261516
0000d0 7a cd 0c 3b f4 1d 80 bc ee 43 37 bd 62 cb 3d bc
       0.0021484778 -0.015639283 -0.044742517 -0.011584135
0000e0 9c 44 bc bc e4 75 a5 3c 6f 6d 2a bd f2 7e 33 bd
       -0.022981934 0.020197816 -0.04160827 -0.043822236
0000f0 05 0c 79 bd 96 54 68 3d c1 6a af 3c d0 76 b3 3b
       -0.06080248 0.056721292 0.021413209 0.00547681
000100 32 d3 97 3c af e0 9b 3c 0f 5c 23 bc 7b 92 78 3c
       0.018533323 0.019028036 -0.009970679 0.015171642
000110 2e fa 17 bc 86 a9 c8 3c 3d 6b 48 bd 34 87 00 bd
       -0.009275956 0.024494898 -0.048930395 -0.03137894
000120 aa a5 29 bd 11 25 63 bd f1 55 14 bc 30 8f 3a 3c
       -0.041417755 -0.05545527 -0.009053693 0.011386678
000130 5e 9c aa 3c bc 88 ba 3c 50 99 68 3d fa 90 82 bc
       0.020826515 0.022770278 0.056786835 -0.01593827
000140 7c a7 b1 3b 94 8a b8 39 05 33 a0 bc 7b 2f f3 3c
       0.005421577 0.00035198464 -0.019555578 0.029685726
000150 6c b0 23 3c 06 6a 5e bc 9e f1 38 bd b4 65 7d bd
       0.009990793 -0.013575083 -0.0451523 -0.06186457
000160 db ec 01 bd f4 0a 23 bc 52 5a 53 bb 61 6a 57 bd
       -0.031720024 -0.009951342 -0.003224988 -0.052591685
000170 68 6e f6 3c 58 22 38 3c 7a d6 0b 3c 7b bc 36 3d
       0.030081943 0.011238657 0.008535022 0.044613343
000180 37 51 5f 3d 4a 36 52 bd be f2 be bc c3 8a 41 bb
       0.054520812 -0.051321305 -0.023309108 -0.0029532171
000190 e4 0d 61 bd 36 1e 55 bd b9 90 71 bc 6e b0 05 bd
       -0.054944888 -0.052030765 -0.014743977 -0.03263896
0001a0 bf 4f 61 3d 9c b7 3e 3d df d2 71 3c c9 ed 54 3d
       0.055007692 0.046561822 0.014759748 0.051984582
0001b0 26 cf 9a 3c 56 3b 1c bc a6 79 67 3d 0c 9f 3a 3d
       0.018897604 -0.009535631 0.056512497 0.045561835
0001c0 bf 34 73 3d 51 f5 22 3d 64 cd 86 bc 12 af 8c 3c
       0.059376474 0.039784733 -0.01645536 0.017173324
0001d0 1a 58 60 bd 0c 85 0f bd db 41 74 bd 26 ef 46 bb
       -0.05477152 -0.035038993 -0.059633117 -0.0030354946
0001e0 c9 16 2f bc ec 8b a5 3c fc 95 3e 3d c0 cb 11 3d
       -0.010686585 0.020208322 0.046529755 0.0355947
0001f0 62 2c 27 bd 3b 57 fc 3c 43 cc 0b bd fe 86 49 bd
       -0.04081381 0.030803313 -0.034130346 -0.049201004
000200 6c 6f 5d 3a 00 17 af bc 28 bf 8b 3c d9 12 40 bd
       0.0008447084 -0.021373272 0.017058924 -0.046892975
000210 4d 2d 28 3d a7 d6 01 3a a5 08 4a bd 2a bc f8 3c
       0.041058827 0.0004952945 -0.04932465 0.030363161
000220 e6 ee 3b bc c6 45 bf 3c e6 a5 1d 3d 34 92 0c bd
       -0.011470532 0.0233487 0.03848829 -0.034319118
000230 e8 8c 2c bd ac bc f0 bb 1e 93 91 3c 4b a1 11 bd
       -0.042126566 -0.00734671 0.017770346 -0.03555421
000240 bf 06 47 bd c2 b9 b2 3c 1e 6d eb bc 73 53 c6 3c
       -0.048590418 0.021817092 -0.028738555 0.024209714
000250 28 73 86 bc 1f 57 3d 3d c4 5e 8d bc cc d7 2b bd
       -0.016412333 0.046225663 -0.017257102 -0.041953847
000260 10 c6 35 b8 ef b8 06 bd 63 c9 44 3d bc 0a 7e 38
       -4.3338223e-05 -0.03289121 0.04804362 6.0568316e-05
000270 52 29 c0 3c 6b 5f 45 bd b6 ac c8 bb 91 86 40 3d
       0.023457203 -0.0481867 -0.0061241044 0.047003333
000280 52 49 e9 bc d1 0e d5 ba a8 63 4e 3c bb 15 32 3d
       -0.028477345 -0.0016255026 0.012597002 0.043477755
000290 35 4f 3a bd d7 16 ee bc 71 d1 ce b9 9d a9 11 3d
       -0.045485694 -0.029063625 -0.00039447428 0.035562146
0002a0 91 5e ae bb 74 a4 36 ba e3 5a 44 3d 97 1a 76 b9
       -0.005321332 -0.00069672544 0.04793824 -0.00023470294
0002b0 a1 5a 0b bd 15 35 1d bc 32 4b e8 b9 b9 c9 95 bc
       -0.034021977 -0.009595175 -0.00044306513 -0.018284665
0002c0 5c 24 2a 3a 00 ba 73 b5 b6 5f 50 ba bd 93 d3 3c
       0.00064904033 -9.079522e-07 -0.00079488324 0.025827283
0002d0 24 4b 14 bd 53 6c af bc dc bb 00 3c 4e 95 dc bc
       -0.036204472 -0.021413958 0.007857289 -0.026926663
0002e0 d0 96 8a b8 07 c2 a2 b9 12 dc e1 3a f7 78 3e 3d
       -6.608444e-05 -0.0003104361 0.0017231724 0.04650208
0002f0 3f ee dd bc cd a9 90 ba 9c b2 03 ba b2 35 20 3d
       -0.027091144 -0.0011036933 -0.0005023868 0.039113708
000300 81 02 18 3a e5 15 2d 3d b1 df ae bb ac 12 21 3d
       0.0005798713 0.04225721 -0.0053367247 0.039324448
000310 51 c8 11 3c ec 55 1b 3d a4 a6 c5 bc e6 9b 1d bd
       0.008897857 0.03792374 -0.024127312 -0.038478754
000320 ee 4d fc 3c 0a 6a ae 3b 8d 2b da 3c 8f 00 59 bc
       0.030798879 0.0053226994 0.026632095 -0.013244762
000330 9f 6c 80 bc 43 92 11 bd cd 04 33 bd 76 e2 61 bd
       -0.015676795 -0.035539877 -0.04370575 -0.05514761
000340 97 20 48 3d 8e 8e 42 bd 81 65 18 bd 4e 06 be bc
       0.048859205 -0.047499232 -0.037206177 -0.023196366
000350 14 d8 3f bd 41 3e 25 3d 7f 9b cb bb 54 3b 31 3d
       -0.046836928 0.040342573 -0.006213605 0.04326947
000360 d6 9f 3c bd ca af 04 bb 28 a3 a8 3c 17 08 96 bc
       -0.04605087 -0.002024638 0.020585611 -0.018314404
000370 44 2a dc bc 46 dc 88 3b bc 58 75 3b fc 30 4e bd
       -0.026875623 0.0041766493 0.0037436923 -0.050339684
000380 d7 da 3f 3d 2a d1 38 bd 4e 61 1f bd d4 ae 4e bd
       0.04683956 -0.04512135 -0.038911156 -0.050459698
000390 0e b1 81 bc eb 27 ba 3c 42 a5 42 3b ea bd 46 3d
       -0.015831497 0.022724112 0.0029700552 0.04852096
0003a0 9c 77 31 bd ae a4 64 bd 71 80 05 bc 2c f9 32 3c
       -0.04332696 -0.055821113 -0.008148299 0.010923665
0003b0 90 1c 11 3d e5 45 6d 3d 32 b0 83 3c 86 b6 2a 3d
       0.03542763 0.057927985 0.016075227 0.041677974
0003c0 d0 42 07 bd 07 7e 5d 3c df e9 19 3d 43 4e 73 bc
       -0.0330227 0.013518817 0.037576552 -0.014850202
0003d0 55 24 0c bd 5d 64 71 3d 12 14 4b 3c 29 df 16 bd
       -0.034214336 0.058933605 0.012394922 -0.036833916
0003e0 f4 6c df 3a 2a 78 52 3d ad f9 c8 bc 16 fc 41 bd
       0.001704602 0.05138413 -0.024533117 -0.04735955
0003f0 4d bb ed bc 4f 4f d6 3c 3b 48 ca bc 2a 8b 4c 3d
       -0.029019976 0.026160864 -0.024692645 0.049937405

p_fc1.bias f4 [64]
000000 ed f3 d8 3c 59 b9 88 3c 35 70 1f 3d 42 84 28 3b
       0.0264835 0.016689943 0.03892537 0.0025713597
000010 31 b0 2e 3d bb 1c 0c bd d5 60 0b bc 8e ae 1e 3c
       0.042648498 -0.034207087 -0.008506973 0.009685172
000020 4f b8 6e 3d 73 09 f0 bc bf 60 5e bd 3e 67 97 bb
       0.05828124 -0.02930138 -0.054291483 -0.0046204617
000030 bd 13 12 bc 04 6a f9 bb 7b 5e 41 bd 9e 9b fe 3c
       -0.008915839 -0.007611515 -0.047209244 0.031080063
000040 4d 81 23 bc a9 3f 4d 3c 0f cc 6c 3d 57 9e bc 3c
       -0.009979558 0.012527385 0.057811793 0.023024721
000050 2a d2 5c bd 7b ab f0 3c a4 d3 55 3d c3 0c 79 bb
       -0.053911366 0.029378643 0.05220379 -0.0038001991
000060 4d 60 08 3d 60 13 c4 3b 0d 3c 09 bd ea 9f ff bc
       0.033294965 0.005983755 -0.033504535 -0.031204183
000070 3a 40 43 3d 4b ab d6 bb 47 ad 0f 3d d9 73 a8 3c
       0.047668673 -0.0065511814 0.03507736 0.020563053
000080 04 9f a5 3c 92 35 32 bc 69 7c 16 bb 53 81 27 3d
       0.020217426 -0.01087703 -0.0022962338 0.040894818
000090 a8 bc 54 bc 86 0e 80 bb 40 a9 cf 3c 55 e4 8c 3b
       -0.012984432 -0.0039079813 0.02534926 0.0042996802
0000a0 b9 d4 66 3d 4f 24 3b 3d c5 6f 50 3b 5c d2 23 bd
       0.056355212 0.045688923 0.00318049 -0.039995536
0000b0 10 f8 0f 3c 40 e1 be 3b 38 27 88 bc d5 9c 14 3d
       0.00878717 0.0058251917 -0.016620263 0.03628238
0000c0 65 92 40 bd fa 24 00 3d 02 7d 85 3c 4a 10 02 3c
       -0.047014613 0.031285264 0.01629496 0.007938454
0000d0 9a f7 60 bd d3 e8 17 3d 13 ea 1e 3d a7 57 52 3d
       -0.05492363 0.037087273 0.03879745 0.051353123
0000e0 6e 7f 94 bb 8d 0c 9b bc 7c 99 e4 bc 71 f8 01 3d
       -0.0045317924 -0.018926883 -0.027905218 0.031731073
0000f0 36 32 74 3c f4 56 41 bd f1 6a 33 3d 35 9b 81 bc
       0.014904549 -0.047202066 0.04380316 -0.015821079
