model/cnn/8x8/4aw/other1/8.pt (torch_old, 478657 bytes, 15 tensors)

conv1.weight f4 [32, 4, 3, 3]
0	0xbe390c51	-0.18071105
1	0x3ddcb68b	0.10777005
2	0x3e1abdaa	0.15111414
3	0x3ee0e7a5	0.4392673
4	0xbe79b043	-0.24383645
5	0xbf12d2c6	-0.57352865
6	0xbe939bf6	-0.28829926
7	0x3da3c358	0.07996243
8	0x3e2df7d5	0.16989072
9	0x3d7c7007	0.061630275
10	0xbe54e86a	-0.20791784
11	0xbc98ee7d	-0.018668408
12	0x3f0e0ba5	0.5548652
13	0xbdfa2303	-0.12213709
14	0xbec91c56	-0.3927943
15	0xbd127e36	-0.035764895
16	0x3e4ecc84	0.20195204
17	0x3e7e22e8	0.24818003
18	0x3e83f97b	0.25776276
19	0x3d8a7a32	0.06761588
20	0xbe19201d	-0.14953656
21	0xbd4d33eb	-0.05009834
22	0x3cd9a9ce	0.026570227
23	0x3dc94290	0.09827149
24	0xbdbe2561	-0.09284473
25	0xbd88d5f0	-0.0668143
26	0xbd597c33	-0.05309696
27	0xbe6f14b3	-0.2334774
28	0xbe42ead9	-0.190349
29	0xbe580f66	-0.21099624
30	0x3d687235	0.05674954
31	0x3d7dd358	0.06196913
32	0x3e64d6cf	0.22347568
33	0x3cc3841e	0.02386671
34	0x3d2f6d39	0.042828772
35	0x3dfe3342	0.124121204
36	0x3f60e055	0.87842304
37	0x3df99ea4	0.121884614
38	0x3e8189a3	0.2530032
39	0x3d6ee04e	0.058319382
40	0xbdd822e2	-0.10553528
41	0xbbb0220a	-0.0053751515
42	0x3d5e22c5	0.054232378
43	0xbeb6d896	-0.35712117
44	0xbebc3601	-0.36759952
45	0xbf4d0b2c	-0.8009517
46	0x3ec8d606	0.39225787
47	0xbe289d1e	-0.16466185
48	0x3d40a934	0.047036365
49	0x3eb9087c	0.36139286
50	0x3d0d9f10	0.034575522
51	0x3d493499	0.049122427
52	0x3d98c6f6	0.07459824
53	0x3dc07344	0.09396985
54	0xbd71504b	-0.058914464
55	0x3d641b6d	0.055690218
56	0x39c0cc5e	0.0003677336
57	0x3cd94239	0.026520835
58	0xbd4dc5ed	-0.050237585
59	0x3b211633	0.0024579882
60	0x3bb0ff03	0.0054014935
61	0xbc04eba8	-0.008112825
62	0xbd5cafb6	-0.05387851
63	0xbd27a744	-0.040931
64	0x3d1f9ffc	0.038970932
65	0x3dd573be	0.10422467
66	0xbc815c28	-0.015791014
67	0x3dbe87ea	0.09303267
68	0xbc36cab4	-0.011156727
69	0x3d1e1104	0.038590446
70	0x3d1dfaed	0.03856938
71	0x3d73672c	0.059424564
72	0x3cdf8396	0.027284425
73	0x3f2e5680	0.6810074
74	0x3d894621	0.06702829
75	0x3e67d065	0.2263809
76	0xbe31e85f	-0.17373799
77	0x3d999b2d	0.075003006
78	0x3dcd0cbd	0.10012195
79	0x3ef77b66	0.48336333
80	0xbd37f360	-0.044909835
81	0xbe5cabb7	-0.21549879
82	0xbc97c67a	-0.018527258
83	0xbdcbec1c	-0.09957144
84	0x3e88e3bc	0.26736248
85	0xbd531367	-0.051532175
86	0x3ee7c06b	0.4526399
87	0xbe8cb1fb	-0.27479538
88	0xbe56bfa5	-0.20971544
89	0xbda9f8f2	-0.08299436
90	0xbcedb2a0	-0.02901584
91	0xbd7d06b5	-0.061773974
92	0xbd869551	-0.065714486
93	0x3da6d891	0.081467755
94	0x3cc8da35	0.024518112
95	0xbb48b51d	-0.003062553
96	0xbcfac0ba	-0.030609477
97	0xbc2c6f69	-0.010524609
98	0x3cb453fb	0.022012701
99	0xbc28af67	-0.010295725
100	0x3e5e02cf	0.21680759
101	0xbd6759d5	-0.056482155
102	0x3def9fde	0.11700414
103	0x3d360c78	0.044445485
104	0xbe691657	-0.22762428
105	0x3d8211d0	0.06351054
106	0x3dffc553	0.124888085
107	0xbcd11300	-0.025521755
108	0x3c26448a	0.010148177
109	0x3def49b2	0.11683978
110	0x3e4f4d33	0.20244293
111	0x3e8be2b0	0.27321386
112	0x3f1b75bc	0.60726523
113	0xbdb8fa8d	-0.09032164
114	0x3f1463c4	0.5796473
115	0x3ee89c27	0.45431635
116	0x3ba03bf5	0.00488996
117	0x3d28dacd	0.04122429
118	0x3dae3125	0.08505467
119	0x3dff343f	0.12461137
120	0xbd0dd82c	-0.034629986
121	0x3da23f49	0.07922227
122	0x3d83c227	0.06433516
123	0xbef498f3	-0.4777294
124	0xbd97d6a8	-0.07413989
125	0x3e0728d9	0.13199176
126	0x3dc46247	0.095890574
127	0xbc1f41bc	-0.009720262
128	0x3df32152	0.1187159
129	0xbd123305	-0.035693187
130	0xbe0b23c7	-0.13587867
131	0x3be3fc26	0.0069575487
132	0xbcf15cdc	-0.029463224
133	0xbd5d4446	-0.05402019
134	0x391288de	0.00013974632
135	0xbb463e4f	-0.003024954
136	0xbdcd0786	-0.100112006
137	0xbe15c26a	-0.14624944
138	0x3d3c8cd7	0.046032753
139	0x3dad4300	0.08460045
140	0x3e211731	0.15731503
141	0x3c57731b	0.013150002
142	0x3e0a3b53	0.13499193
143	0x3e01f3f5	0.12690718
144	0xbe8dc99b	-0.27692875
145	0xbd88787b	-0.06663605
146	0xbdce8b24	-0.10085133
147	0xbe7f0501	-0.24904253
148	0xbc6ddbb1	-0.014517711
149	0xbe982f0e	-0.297234
150	0xbeee15c1	-0.46500972
151	0x3f14989d	0.5804537
152	0xbd283f77	-0.04107615
153	0xbe00e4b8	-0.1258725
154	0xbd20a8ef	-0.039223608
155	0xbeb3cd5c	-0.35117614
156	0xbde96b28	-0.113973916
157	0x3e641ad2	0.22275856
158	0x3e91455b	0.28373227
159	0x3dbb841e	0.09156059
160	0xbdef5c96	-0.11687581
161	0x3d8da2f1	0.06915844
162	0xbdbc04ba	-0.09180589
163	0x3e52c2c0	0.20582104
164	0x3dd5501d	0.10415671
165	0xbbad437e	-0.0052875867
166	0xbd5a0d9f	-0.053235646
167	0xbe129165	-0.14313276
168	0x3e1c5047	0.15264998
169	0x3d4bb9ed	0.04973786
170	0xbd515da4	-0.051114693
171	0xbe79513d	-0.24347396
172	0x3d201a64	0.039087668
173	0x3e18ecfc	0.14934152
174	0xbeaf6ff0	-0.3426509
175	0x3d6ac920	0.057320714
176	0x3dca748c	0.09885511
177	0xbe889215	-0.26673952
178	0x3dbc4ed3	0.09194722
179	0x3cc8a1d6	0.024491232
180	0x3e94c454	0.29056036
181	0xbe8b73c5	-0.27236763
182	0xbe71ebab	-0.23625056
183	0xbb039999	-0.0020080565
184	0x3d793b07	0.06084731
185	0x3e9a5764	0.301448
186	0xbcc81e49	-0.024428504
187	0x3e2045f1	0.1565168
188	0xbe6d79e7	-0.23191033
189	0xbe1f0125	-0.1552778
190	0xbe4795cf	-0.19490741
191	0x3d612ebc	0.05497621
192	0xbdd9e173	-0.10638704
193	0x3e159b6c	0.1461007
194	0xbcdd7f40	-0.027038217
195	0xbe4f5172	-0.20245913
196	0x3d80b222	0.06283976
197	0x3f14805a	0.5800835
198	0xbe80c027	-0.251466
199	0xbd6b83a8	-0.057498604
200	0xbe3b6a96	-0.18302378
201	0xbdb840e2	-0.089967504
202	0xbe1df5e6	-0.15425834
203	0xbd0c34d5	-0.034230072
204	0xbde207c1	-0.11036635
205	0x3c4bb4e5	0.012433265
206	0xbec8d42b	-0.3922437
207	0xbea0dd91	-0.31419042
208	0xbedaf2e9	-0.4276345
209	0xbebc7659	-0.36809042
210	0x3e943728	0.2894833
211	0x3d00effe	0.031478874
212	0xbd02bed1	-0.031920258
213	0x3e82e9f0	0.25569105
214	0x3d55a942	0.05216337
215	0x3e34a20f	0.17639945
216	0xbdebaa19	-0.11507053
217	0x3e8b1a0f	0.2716832
218	0x3c330f03	0.010928872
219	0xbde631d4	-0.11239973
220	0x3f1054b3	0.5637924
221	0xbe347c3a	-0.17625514
222	0x3e66366f	0.22481702
223	0x3d949584	0.0725508
224	0xbe07d84b	-0.13266103
225	0xbbb51b87	-0.005526963
226	0xbe9740d3	-0.29541644
227	0xbe27d70c	-0.16390628
228	0x3f27cd6b	0.6554782
229	0x3cc977b6	0.024593215
230	0xbe90f039	-0.28308275
231	0xbda83e14	-0.082149655
232	0xbe56a452	-0.2096112
233	0xbed18220	-0.4091959
234	0x3d209fe8	0.039215
235	0xbdf10529	-0.11768562
236	0x3d094db9	0.033521388
237	0xbeb22063	-0.34790334
238	0x3de6043e	0.11231278
239	0xbc75a479	-0.014992827
240	0x3db980e8	0.0905779
241	0x3d5f191f	0.054467317
242	0x3dd3ce26	0.10342054
243	0x3d1106af	0.035406765
244	0x3dc009f2	0.09376897
245	0x3da635ca	0.08115728
246	0xbb3ea437	-0.002908958
247	0xbdca4104	-0.09875682
248	0x3da2ea26	0.079548165
249	0xbdaab3c6	-0.0833507
250	0xbd83ed6c	-0.06441769
251	0x3d2f95dc	0.042867526
252	0x3eb5b238	0.35487533
253	0xbd96dd5c	-0.0736644
254	0x3eeb97db	0.46014294
255	0x3d90ef7c	0.07076928

conv1.bias f4 [32]
0	0xbc5fa878	-0.013651006
1	0xbe12a439	-0.14320458
2	0xbe570cf7	-0.2100104
3	0xbea8f789	-0.33001354
4	0x3e5480ec	0.20752305
5	0x3e68774d	0.2270176
6	0xbe42dadb	-0.19028799
7	0xbdac6d8c	-0.08419332
8	0x3e06b3ef	0.13154577
9	0x3e2420a4	0.16028076
10	0xbe19f6d3	-0.15035562
11	0xbe11dd97	-0.14244686
12	0xbeaa9af0	-0.33321333
13	0xbe7a4b00	-0.24442673
14	0xbdaf3650	-0.08555281
15	0xbdb31ad1	-0.08745349
16	0xbdde45c3	-0.1085315
17	0xbcd1d7da	-0.025615621
18	0xbdc5bdfe	-0.09655379
19	0x3eab66c5	0.33476844
20	0xbd234944	-0.039864793
21	0x3ed0be9a	0.40770417
22	0xbe5d9c86	-0.2164174
23	0xbec02d6a	-0.37534648
24	0xbcf986ac	-0.030459724
25	0xbca896f4	-0.020579793
26	0xbe7c6d3d	-0.24651046
27	0xbe213505	-0.15742882
28	0x3b3f4361	0.0029184448
29	0xbdb59c24	-0.08867672
30	0xbe098bc8	-0.13432229
31	0xbe4703b4	-0.19435006

conv2.weight f4 [64, 32, 3, 3]
0	0x3e6688d6	0.22513136
1	0xbdcf6ca0	-0.101281404
2	0x3cb44fab	0.022010645
3	0xbe80d3d6	-0.25161618
4	0xbe5786bc	-0.21047491
5	0x3e5b780d	0.21432514
6	0xbdfe8935	-0.12428514
7	0x3e6d8159	0.23193873
8	0xbcb2af62	-0.021812145
9	0x3dbc472b	0.09193262
10	0xbe25fcb4	-0.1620968
11	0xbe10aec9	-0.14129175
12	0xbe541972	-0.20712832
13	0xbe5e67e2	-0.21719316
14	0xbe251c8d	-0.16124173
15	0xbcdf0f51	-0.027228983
16	0x3dc48a9a	0.09596749
17	0x3df76761	0.12080265
18	0x3dad0f01	0.084501274
19	0xbd53e92a	-0.051736034
20	0xbd96a859	-0.073563285
21	0x3e0cde7b	0.13756745
22	0xbd138650	-0.036016762
23	0xbeac90fc	-0.33704364
24	0xbd9cc1f8	-0.07654184
25	0x3e51ee5a	0.2050108
26	0x3b4897a9	0.0030607975
27	0x3de4bf06	0.11169247
28	0xbd8ff90e	-0.07029925
29	0xbe250efa	-0.16118994
30	0x3d98713a	0.07443471
31	0xbd4a13d0	-0.0493353
32	0xbeb2599b	-0.3483399
33	0x3ad4a88a	0.0016224545
34	0xbc10cb69	-0.008837559
35	0xbe2fd428	-0.17170775
36	0x3cbd23c5	0.023088345
37	0x3e889f68	0.26684117
38	0x3d639326	0.055560254
39	0xbe06b3e2	-0.13154557
40	0xbd27ceb8	-0.040968627
41	0xbe23eee2	-0.16009095
42	0x3ccf5aeb	0.025311908
43	0xbb1e71ee	-0.0024176794
44	0x3e1610f1	0.146549
45	0x3e4603ad	0.1933734
46	0x3e05a18b	0.13049905
47	0xbe2bdd64	-0.16783673
48	0xbdf2003b	-0.1181645
49	0xbc337a78	-0.010954492
50	0xbe54e633	-0.20790939
51	0x3e75c4da	0.24000874
52	0x3d7e6f20	0.062117696
53	0xbd0be29b	-0.034151655
54	0x3de7cc63	0.113182805
55	0x3dca9f8f	0.09893715
56	0x3d9275e2	0.071513906
57	0xbe394e87	-0.18096362
58	0xbde63d04	-0.112421066
59	0xbd9f484a	-0.0777746
60	0x3c274856	0.010210117
61	0xbccd09c6	-0.025029074
62	0x3bb9c929	0.005669732
63	0x3df4eb94	0.119589955
64	0xbd47e5de	-0.048803203
65	0x3d3498d1	0.04409105
66	0x3d9f41bc	0.0777621
67	0x3950b180	0.0001990255
68	0xbc02fcdc	-0.007994857
69	0x3e3f6c6f	0.18693708
70	0xbe2ab8a4	-0.16671997
71	0xbe9366d1	-0.2878938
72	0xbd2c3814	-0.042045668
73	0xbe076255	-0.13221104
74	0x3e4c39c9	0.19943918
75	0x3d0ecc70	0.034862936
76	0x3d004b70	0.031321943
77	0xbda6e18e	-0.0814849
78	0x3d10a7b7	0.035316195
79	0x3e96a064	0.29419243
80	0x3d1c9813	0.038230967
81	0xbd6f4c2e	-0.05842226
82	0xbe46267d	-0.1935062
83	0x3c441ca5	0.01196972
84	0x3befb345	0.0073150718
85	0xbd192136	-0.037385188
86	0xbe251510	-0.16121316
87	0x3d410990	0.04712826
88	0xbcf58abf	-0.029973386
89	0x3e690a0e	0.22757742
90	0xbd6a5a61	-0.0572151
91	0x3e3c51ce	0.18390581
92	0xbd3cc1dd	-0.04608332
93	0x3d421486	0.047382854
94	0xbd609bc6	-0.054836057
95	0xbe828d48	-0.25498414
96	0xbe025519	-0.12727775
97	0x3da35c71	0.07976616
98	0x3e9623ff	0.29324338
99	0x3d949c83	0.07256415
100	0x3d9c1512	0.07621206
101	0xbd866528	-0.06562263
102	0x3d7087bb	0.058723193
103	0x3e14ed83	0.14543729
104	0xbee095a8	-0.4386418
105	0xbcc71e44	-0.024306424
106	0xbcf056c2	-0.029338244
107	0xbea4c44b	-0.3218101
108	0x3d1f078e	0.038825564
109	0x3cd4cba9	0.025976019
110	0x3d752023	0.0598451
111	0xbc4f77a2	-0.0126628
112	0xbe821c86	-0.25412387
113	0xbd8550a3	-0.06509521
114	0xbd8b8fbe	-0.06814526
115	0x3d68a3f1	0.05679697
116	0xbdd89833	-0.10575905
117	0xbd67811a	-0.056519605
118	0x3e162265	0.14661558
119	0xbd8eec5f	-0.06978678
120	0xbd708a46	-0.058725618
121	0x3d5c6f1b	0.053816896
122	0xbdf48367	-0.119391255
123	0xbe2faf22	-0.17156652
124	0x3aa729aa	0.0012753506
125	0xbca1c9d2	-0.019749556
126	0xbe66ed57	-0.22551475
127	0x3dcb0bce	0.09914361
128	0x3db6e57b	0.08930489
129	0x3b64e69b	0.003492749
130	0xbde0b419	-0.10971851
131	0x3e1530aa	0.14569345
132	0x3da41bdf	0.080131285
133	0xbe0209ab	-0.12699
134	0xbdb65c4d	-0.08904324
135	0xbdac8f01	-0.08425713
136	0xbd225b9b	-0.039638143
137	0xbd4d3727	-0.050101425
138	0x3e669ddf	0.2252116
139	0xbcec7432	-0.028864
140	0x3d8af6a3	0.067853235
141	0xbd696fb6	-0.0569913
142	0xbe367537	-0.17818151
143	0x3df66d4b	0.12032565
144	0xbe05f7ab	-0.13082759
145	0xbddb3e5f	-0.10705256
146	0xbe082ecf	-0.13299106
147	0xbd06fa58	-0.03295359
148	0x3e3486ca	0.17629543
149	0xbe9f3798	-0.31097102
150	0xbdb3552d	-0.0875648
151	0x3d6c1543	0.057637464
152	0xbdac77f9	-0.084213205
153	0x3cfd70de	0.030937608
154	0x3d8a25f2	0.06745519
155	0x3d9294bd	0.07157276
156	0xbde048f0	-0.10951412
157	0x3da83dbb	0.08214899
158	0x3e42dddd	0.19029947
159	0xbe3a93e3	-0.18220477
160	0x3ca88bcb	0.020574471
161	0x3e995e8a	0.2995494
162	0x3da8cc67	0.08242112
163	0x3c837180	0.016045332
164	0x3d12807a	0.035767056
165	0xbe052a2a	-0.13004366
166	0xbe190bc3	-0.14945893
167	0xbeb8d80a	-0.36102325
168	0xbdaf0f92	-0.08547892
169	0xbc85fa7b	-0.01635479
170	0x3e18112f	0.14850305
171	0x3dba582b	0.09098848
172	0x3e3e30a0	0.18573236
173	0xbe859db7	-0.2609689
174	0x3e675398	0.22590482
175	0x3db24a61	0.08705593
176	0xbdb146fd	-0.08656118
177	0xbdd3155c	-0.10306808
178	0x3d854055	0.06506411
179	0xbdd9218a	-0.106021
180	0xbe1c55e8	-0.15267146
181	0x3e813253	0.25233707
182	0x3c0567b0	0.008142397
183	0xbe4ef155	-0.20209248
184	0xbd07a5bd	-0.033117045
185	0xbd1b5606	-0.037923835
186	0x3d93e043	0.07220509
187	0xbe4ae402	-0.1981354
188	0xbe033d46	-0.12816343
189	0x3e095774	0.13412267
190	0x3d733b96	0.059382997
191	0xbd402940	-0.04691434
192	0xbd331cf1	-0.043728773
193	0xbe1da66d	-0.15395518
194	0x3cf89495	0.030344287
195	0x3e22fd50	0.15916944
196	0xbd8ecc0b	-0.06972512
197	0x3d28d9da	0.041223384
198	0xbe7f8bd4	-0.24955684
199	0xbea658d3	-0.32489643
200	0xbca84a99	-0.020543383
201	0xbe04c3ca	-0.12965313
202	0xbd8c1b48	-0.06841141
203	0x3d8bb9c1	0.06822539
204	0x3db843de	0.0899732
205	0xbc5240f6	-0.012832871
206	0xbe34c282	-0.17652324
207	0xbd915d80	-0.07097912
208	0xbe1fbc20	-0.15599108
209	0xbe56e3eb	-0.20985381
210	0x3cdd4a2a	0.027012903
211	0xbd9517dd	-0.07279942
212	0xbd4fcc84	-0.05073215
213	0x3e3b0b65	0.18266065
214	0xbe184fd2	-0.14874199
215	0xbe47bb3e	-0.19505021
216	0xbd626037	-0.05526754
217	0xbde4c58a	-0.1117049
218	0xbe628e74	-0.22124654
219	0x3e1d21bf	0.15344904
220	0x3d354c22	0.04426206
221	0xbe5ca405	-0.21546943
222	0xba832933	-0.0010006785
223	0x3e5243f6	0.20533738
224	0x3dd8a099	0.105775066
225	0x3d8f6c9c	0.070031375
226	0x3e505105	0.20343406
227	0x3d29f9a3	0.041497838
228	0x3eb8b956	0.360789
229	0xbdbd8000	-0.0925293
230	0xbe2232fe	-0.15839764
231	0xbc8f23b6	-0.017473083
232	0xbdec969c	-0.11552164
233	0xbecf9623	-0.40544233
234	0xbd664d07	-0.056225803
235	0xbeb7a991	-0.35871556
236	0x3bd45789	0.0064801616
237	0xbe9583ff	-0.29202268
238	0x3d00cbcf	0.031444367
239	0xbe48ca31	-0.1960838
240	0x3c572328	0.0131309405
241	0xbe57a16d	-0.21057673
242	0xbd9b23dc	-0.07575199
243	0x3e3e7f65	0.18603285
244	0x3e4923e3	0.19642596
245	0xbeb51cae	-0.35373443
246	0xbd88feae	-0.06689201
247	0xbe9993f7	-0.299957
248	0x3d92e287	0.07172113
249	0x3d368d24	0.044568196
250	0x3e055ed5	0.13024457
251	0x3d6ad8d3	0.057335686
252	0xbddd0895	-0.107926525
253	0x3e251801	0.16122438
254	0xbdbe84c2	-0.09302665
255	0xbe550150	-0.20801282

conv2.bias f4 [64]
0	0xbe248f3c	-0.16070265
1	0xbc93d968	-0.018048003
2	0xbde56075	-0.11200038
3	0xbbbb7759	-0.0057210145
4	0xbe5489ed	-0.2075574
5	0xbe2fa564	-0.17152935
6	0x3cd8669a	0.026416112
7	0xbe511c43	-0.20420937
8	0xbeae0ceb	-0.3399423
9	0xbdf8150c	-0.121133894
10	0xbcacfcd2	-0.021116648
11	0xbe6eefc6	-0.23333654
12	0xbe7b1057	-0.24517952
13	0xbc7d8740	-0.015474141
14	0xbe47bbf7	-0.19505297
15	0xbda9b1fb	-0.082859
16	0xbf08ae43	-0.533909
17	0x3d8a032c	0.06738886
18	0xbe3544de	-0.17702052
19	0xbe2952b0	-0.16535449
20	0xbd673a15	-0.056451876
21	0x3cdffa11	0.02734092
22	0xbe933227	-0.287492
23	0x3e2104ba	0.1572446
24	0x3dfd85e7	0.123790555
25	0xbe06ce69	-0.13164677
26	0xbe63f133	-0.22259979
27	0x3dcf1b02	0.10112573
28	0xbda05c5a	-0.07830115
29	0xbdb5d4ee	-0.08878504
30	0xbd9f2082	-0.07769872
31	0xbe7b4b4c	-0.24540442
32	0xbe083e89	-0.13305105
33	0xbd50797f	-0.050897118
34	0xbe018fbf	-0.12652491
35	0xbd38c6a5	-0.045111317
36	0xbead6d4c	-0.3387245
37	0xbe93d590	-0.28873873
38	0x3cdf27af	0.027240602
39	0xbdbfd074	-0.09365931
40	0xbe88df26	-0.2673275
41	0xbe9d66ae	-0.307424
42	0xbe98be0c	-0.29832494
43	0xbe1807ec	-0.14846772
44	0xbec87e09	-0.39158657
45	0xbdfa6b4a	-0.12227495
46	0xbe1c2258	-0.15247476
47	0xbec129c5	-0.3772718
48	0xbd1f2671	-0.03885502
49	0xbe1ead13	-0.1549571
50	0xbdedbb51	-0.116079934
51	0x3e5d35a1	0.21602489
52	0xbe8f4274	-0.27980387
53	0x3a004564	0.00048931525
54	0xbe52f7c9	-0.20602335
55	0x3ccafb07	0.024777902
56	0xbe915676	-0.28386277
57	0xbe11c786	-0.14236268
58	0xbe10c2dc	-0.14136833
59	0xbe30b852	-0.17257813
60	0xbeb3c8f5	-0.35114256
61	0xbd67895d	-0.056527484
62	0xbc93c457	-0.018037958
63	0xbe123cb1	-0.14280964

conv3.weight f4 [128, 64, 3, 3]
0	0xbdb4da74	-0.08830729
1	0x3da4b138	0.08041614
2	0xbd88aef8	-0.06673998
3	0xbcd7dff5	-0.026351908
4	0x3cdc94d8	0.026926443
5	0x3e7afa28	0.2450949
6	0xbe11dd69	-0.14244618
7	0x3d2f218b	0.0427566
8	0xbe47d579	-0.19515027
9	0xbe1391ab	-0.14411037
10	0x3e2d46f1	0.16921593
11	0xbdd26a06	-0.102741286
12	0x3db29c29	0.087211914
13	0x3e0e28f7	0.13882814
14	0xbe046616	-0.12929568
15	0x3d80bfbd	0.06286571
16	0x3e62de88	0.22155201
17	0xbe90f91b	-0.28315052
18	0x3dfe5408	0.124183714
19	0x3e05a0f5	0.13049681
20	0xbcc1476a	-0.023593623
21	0xbe881c89	-0.2658427
22	0xbd30d398	-0.04317054
23	0x3d11ce2d	0.035597015
24	0xbe504c68	-0.20341647
25	0x3d6137f8	0.054985017
26	0xbdd1138a	-0.10208805
27	0x3e61cd37	0.2205094
28	0x3e0c1f50	0.1368382
29	0xbdf26f5e	-0.11837648
30	0xbe391de4	-0.18077809
31	0xbd448136	-0.047974788
32	0xbd8d7a09	-0.06908042
33	0x3dbd57ee	0.09245287
34	0x3d38f7ab	0.04515807
35	0x3e06fdd2	0.13182762
36	0xbdc91160	-0.09817767
37	0x3e4c733e	0.19965836
38	0x3d40b4f6	0.047047578
39	0x3d7fe65e	0.062475555
40	0x3def8ebd	0.11697147
41	0xbce8d04e	-0.02841964
42	0xbdcbec46	-0.09957175
43	0x3e7809ed	0.24222536
44	0xbe37105f	-0.17877339
45	0x3e0b1544	0.13582331
46	0xbdae24e5	-0.08503131
47	0xbde4ddc1	-0.11175109
48	0xbd685998	-0.05672607
49	0xbe22f181	-0.15912439
50	0x3b8b5913	0.004252562
51	0xbe861e5c	-0.26195037
52	0x3d0148a1	0.031563405
53	0xbd9b44df	-0.075814955
54	0x3c21e07d	0.009880182
55	0x3d925648	0.07145363
56	0xbe0da98a	-0.13834205
57	0xbe940225	-0.28907886
58	0xbe97f9ea	-0.29682857
59	0x3d868890	0.06569016
60	0x3e1dcba3	0.15409712
61	0xbe386fb8	-0.18011367
62	0x3d41a105	0.0472727
63	0xbd917a0b	-0.07103356
64	0xbcba6617	-0.022753758
65	0xbe97dc6e	-0.29660362
66	0xbe76e109	-0.24109282
67	0x3dc8e3e5	0.098090924
68	0x3d87e270	0.066349864
69	0x3d2dfeef	0.04247945
70	0xbe36b5c6	-0.17842779
71	0xbe9edb65	-0.3102676
72	0x3d071c14	0.03298576
73	0x3e077ca5	0.13231142
74	0x3e19b45a	0.15010205
75	0xbd9bb89d	-0.076035716
76	0xbd2630ff	-0.04057407
77	0xbe17e937	-0.14835058
78	0x3c10bfba	0.008834774
79	0xbe27b126	-0.1637617
80	0xbe24b48b	-0.16084497
81	0xbda65993	-0.08122554
82	0x3d729782	0.05922652
83	0x3e6fc82b	0.23416202
84	0xbe6d9474	-0.23201162
85	0xbc05cd1a	-0.008166576
86	0xbe30fc6b	-0.1728379
87	0xbec793ae	-0.38979858
88	0x3be2c168	0.0069200285
89	0xbc84a744	-0.01619304
90	0xbbff6597	-0.007794093
91	0xbd99ca26	-0.0750926
92	0xbd2db8e3	-0.04241265
93	0xbe806e7c	-0.25084293
94	0xbe465355	-0.19367726
95	0xbe71befd	-0.23608012
96	0x3d856d35	0.0651497
97	0xbe92b0f7	-0.28650638
98	0xbe6c94b1	-0.23103596
99	0xbb925c02	-0.0044665346
100	0x3e14c1cc	0.14527053
101	0x3d22b5de	0.039724223
102	0xbe09a2b9	-0.1344098
103	0xbd6ff46e	-0.058582716
104	0xbd4e6f42	-0.050399072
105	0x3e1271cd	0.14301224
106	0x3dfdd4fb	0.123941384
107	0x3a3cb38f	0.0007198387
108	0x3d3a133b	0.045428496
109	0xbc5d0d6d	-0.0134919705
110	0x3d21b9da	0.039483882
111	0xbdc4ec94	-0.09615436
112	0xbd5f3ecb	-0.054503243
113	0x3b817be4	0.0039515365
114	0x3c595480	0.013264775
115	0x3de12aaa	0.10994466
116	0x3deb5cb7	0.11492293
117	0xbd0acb5c	-0.033885345
118	0x3dfa3203	0.1221657
119	0x3da26c83	0.07930853
120	0x3d154e50	0.036451638
121	0x3e07d6e8	0.13265574
122	0x3dc7ee20	0.097622156
123	0x3db521e6	0.08844356
124	0x3db14cdd	0.08657239
125	0xbd2b2782	-0.041785724
126	0xbdf45435	-0.11930124
127	0x3cb6372d	0.022243107
128	0xbe9dacb5	-0.30795828
129	0x3dac624e	0.08417188
130	0xbe7c3598	-0.2462982
131	0xbcd5497b	-0.026036015
132	0xbc833d1b	-0.016020348
133	0xbe9b7e47	-0.3036978
134	0xbe1fd11b	-0.15607111
135	0x3e3d60dc	0.1849398
136	0xbe3696df	-0.1783099
137	0xbe69716d	-0.22797175
138	0xbd92c06b	-0.07165607
139	0xbd56ab9c	-0.052409753
140	0xbe731244	-0.23737437
141	0x3e316172	0.17322329
142	0x3e6df0db	0.2323641
143	0x3e3757e6	0.17904624
144	0xbdea0774	-0.11427203
145	0x3e1e3744	0.1545077
146	0x3d992502	0.07477762
147	0x3d2da1d1	0.04239065
148	0xbae41d91	-0.0017403831
149	0x3e5b496b	0.21414725
150	0x3e222e72	0.1583803
151	0x3d889ff6	0.06671135
152	0x3dd1764d	0.10227642
153	0xbe0e3ae3	-0.13889651
154	0xbd8b8dea	-0.06814177
155	0xbdfb6aa4	-0.122761995
156	0xbe0aa22d	-0.13538428
157	0xba9b3f01	-0.0011844338
158	0x3e34822f	0.17627786
159	0x3e957eb8	0.2919824
160	0xbb4fe1d6	-0.0031720302
161	0x3cb9dd9d	0.022688681
162	0x3db068e6	0.08613758
163	0x3c1fb328	0.009747304
164	0xbd37fe49	-0.04492024
165	0x3dde8531	0.10865248
166	0x3c09a63e	0.008401452
167	0xbd9f1550	-0.07767737
168	0xbe4a47cd	-0.19753952
169	0x3c267c80	0.010161519
170	0x3d8250fc	0.06363103
171	0x3ddc4458	0.10755223
172	0xbe44f66a	-0.19234625
173	0x3dfee660	0.12446284
174	0x3e8af46e	0.2713961
175	0xbe3f3eb5	-0.18676265
176	0xbd41c7c6	-0.04730966
177	0xbbd64e1d	-0.0065400735
178	0xbe69d6c5	-0.22835834
179	0xbd8a1753	-0.0674273
180	0xbdb085c7	-0.08619266
181	0xbe777d3f	-0.24168871
182	0x3e16aa44	0.14713389
183	0xbd9ecf51	-0.07754386
184	0x3db1a722	0.08674456
185	0x3cd71039	0.026252853
186	0xbe124459	-0.14283885
187	0x3dd66d74	0.10470095
188	0x3e2d84f4	0.16945249
189	0xbe1b8205	-0.15186317
190	0xbec2ee2c	-0.38072336
191	0xbe71ee4d	-0.23626061
192	0xbb5d8640	-0.0033801943
193	0xbcd2c79e	-0.02572995
194	0x3e120e73	0.14263324
195	0xbd5fa1db	-0.054597717
196	0x3dca4abd	0.098775364
197	0xbe399374	-0.18122655
198	0xbe47b346	-0.19501981
199	0xbe2c3801	-0.16818239
200	0xbd96b923	-0.07359531
201	0xbdb083e9	-0.0861891
202	0x3dc596f6	0.09647934
203	0x3e3279fa	0.17429343
204	0x3de942a9	0.113896675
205	0xbd00ea09	-0.031473193
206	0xbe8007b9	-0.25005892
207	0xbe027e4c	-0.12743491
208	0xbdd5b5a5	-0.104350366
209	0x3e075ad0	0.13218236
210	0x3b267e39	0.0025404824
211	0xbdc7ae8c	-0.09750089
212	0xbd9a04b9	-0.07520432
213	0xbd93fc95	-0.072259106
214	0x3d8293d2	0.06375851
215	0xbe0bbcd4	-0.13646251
216	0xbcd33f19	-0.025786923
217	0x3d7e23e5	0.06204595
218	0x3ea0a1e1	0.31373504
219	0x3d8878ef	0.06663691
220	0xbdd1f669	-0.10252077
221	0x3dc4f01d	0.096161105
222	0xbde65b64	-0.112479
223	0xbe9b9d7c	-0.3039359
224	0x3cf89931	0.030346485
225	0xbddca171	-0.1077298
226	0xbcb3fc4a	-0.021970887
227	0x3d731b71	0.059352342
228	0xbb9129f9	-0.0044300524
229	0x3d5528f2	0.052041
230	0x3e7a97d8	0.24471986
231	0xbe026a4a	-0.12735859
232	0xbda82649	-0.08210427
233	0xbca079d0	-0.019589335
234	0xbda26656	-0.07929675
235	0x3c2b644f	0.010460927
236	0x3d9c3491	0.07627214
237	0x3d2367e8	0.039894015
238	0x3d0753a1	0.03303874
239	0xbe07c6ec	-0.13259476
240	0xbd4ef174	-0.050523236
241	0xbe174c9b	-0.14775316
242	0x3e46f9a8	0.19431174
243	0x3e6d1aff	0.2315483
244	0xbc9a78b4	-0.018856384
245	0x3d226480	0.039646626
246	0xbe0cceaf	-0.13750719
247	0x3e029d91	0.1275542
248	0xbd95d638	-0.073162496
249	0xbd885bc1	-0.06658126
250	0x3e664721	0.22488071
251	0x3d23df08	0.04000762
252	0xbcc39444	-0.02387441
253	0xbdaa288a	-0.083085135
254	0xbb82ea8b	-0.003995245
255	0x3d6d5c04	0.05794908

conv3.bias f4 [128]
0	0xbe38dcda	-0.18052998
1	0xbdbdf09c	-0.09274408
2	0xbee842ec	-0.45363557
3	0xbdc2059b	-0.094737254
4	0xbd4e0f1e	-0.050307386
5	0xbe130c52	-0.14360169
6	0xbe8b2dee	-0.2718348
7	0xbe9c26da	-0.3049839
8	0xbeaf9749	-0.3429511
9	0xbe8cf27f	-0.2752876
10	0xbe030310	-0.12794137
11	0xbdce763b	-0.100811444
12	0xbcb83364	-0.022485442
13	0xbe9e52a7	-0.30922434
14	0xbdb7d974	-0.08977023
15	0xbda59b6d	-0.08086286
16	0xbe37c0e3	-0.17944674
17	0xbe195067	-0.14972077
18	0xbe60fb40	-0.21970844
19	0xbda5dbc7	-0.0809856
20	0xbe6dc46e	-0.23219463
21	0xbe56933a	-0.209546
22	0xbd14ea32	-0.03635616
23	0x3cd0655b	0.025438955
24	0xbe3413fe	-0.17585751
25	0xbc340483	-0.010987404
26	0xbcda337f	-0.026635883
27	0xbe180370	-0.14845061
28	0xbdefc0fc	-0.11706731
29	0xbe3b36eb	-0.18282668
30	0xbe680b8a	-0.22660652
31	0xbec2763c	-0.3798083
32	0xbe7b89ee	-0.24564335
33	0xbe35ad6e	-0.1774194
34	0xbe58ee4f	-0.21184658
35	0xbd10febf	-0.035399195
36	0xbe386a34	-0.18009263
37	0xbe2a4001	-0.16625978
38	0xbea0d2a2	-0.314107
39	0xbded2084	-0.115784675
40	0xbeacfb6a	-0.33785564
41	0xbdbaadec	-0.09115204
42	0xbcad9a13	-0.021191632
43	0xbe347e8f	-0.17626403
44	0xbe93548b	-0.2877544
45	0xbe2af6d4	-0.1669572
46	0xbe5bf515	-0.2148021
47	0xbe36515d	-0.17804475
48	0xbe676f33	-0.22601013
49	0xbe57d04a	-0.2107555
50	0xbd5580cc	-0.052124783
51	0xbd04a611	-0.032384936
52	0xbe0d2d5e	-0.13786837
53	0xbe91642e	-0.28396744
54	0xbe651f2c	-0.22375172
55	0xbe544229	-0.20728363
56	0xbde0440b	-0.10950478
57	0xbe5a4090	-0.21313691
58	0xbe20d3e3	-0.15705828
59	0xbe72799d	-0.23679204
60	0xbe886fb6	-0.2664773
61	0xbeb914af	-0.36148593
62	0xbe99b412	-0.30020195
63	0xbecaf0d8	-0.39636874
64	0x3e836799	0.25664976
65	0x3e481973	0.19540958
66	0xbe28b40e	-0.16474935
67	0xbdcf88cf	-0.10133516
68	0xbdc0ef55	-0.09420649
69	0xbea87010	-0.32897997
70	0x3e739a78	0.23789394
71	0xbd72917d	-0.05922078
72	0xbe17d9d5	-0.1482919
73	0xbe44bec6	-0.192134
74	0xbe865fb5	-0.26244894
75	0xbd847f14	-0.06469551
76	0xbe88f046	-0.26745814
77	0xbe2e1d52	-0.17003372
78	0xbe24b479	-0.1608447
79	0xbeb68011	-0.35644582
80	0xbd4e9354	-0.05043347
81	0xbe0e2ea7	-0.13884984
82	0xbe16f7c4	-0.14742953
83	0xbe55dcdd	-0.20885034
84	0xbdd2aff0	-0.10287464
85	0xbf5192f2	-0.81864846
86	0xbe07a3c2	-0.13246062
87	0x3ca534b1	0.020166727
88	0xbe2a54b1	-0.1663387
89	0x3e4b8567	0.19875108
90	0xbe2dd99b	-0.16977541
91	0x3e26d77c	0.16293138
92	0x3cfaf179	0.030632721
93	0xbe9f6c68	-0.31137395
94	0xbe22add0	-0.15886617
95	0xbe6f6a7f	-0.23380469
96	0xbe0bfd91	-0.13670947
97	0xbe1a3f20	-0.15063143
98	0xbec13836	-0.37738198
99	0xbe0f97f0	-0.14022803
100	0xbf44adc7	-0.76827663
101	0x3d69e446	0.057102464
102	0xbe92abec	-0.2864679
103	0xbe4c0b96	-0.19926295
104	0xbe1b3e8e	-0.15160581
105	0xbe840f35	-0.25792852
106	0xbe8c4b65	-0.2740127
107	0xbe9912b4	-0.29897082
108	0x3cd6d501	0.026224615
109	0xbedba92d	-0.42902508
110	0xbe83f1bc	-0.25770366
111	0xbe01953d	-0.12654586
112	0xbe3a6948	-0.18204224
113	0xbe938cd1	-0.28818372
114	0xbd973957	-0.073839836
115	0xbd77f787	-0.060538795
116	0xbca3a0be	-0.019974109
117	0xbe087626	-0.1332632
118	0xbe601afe	-0.21885297
119	0xbf0753d4	-0.52862287
120	0xbe31deb5	-0.17370112
121	0xbe72d87c	-0.23715395
122	0xbe05a953	-0.13052873
123	0xbeaaa674	-0.3333012
124	0xbe4c8087	-0.19970904
125	0xbd8c60d3	-0.06854405
126	0xbd9c94db	-0.076455794
127	0xbea90077	-0.33008167

p_conv1.weight f4 [4, 128, 1, 1]
0	0x3b97ce5a	0.0046327533
1	0x3c9a18b0	0.0188106
2	0xbd2a0ff7	-0.04151913
3	0x3d735293	0.05940492
4	0xbc958f39	-0.01825677
5	0x3cf5950d	0.0299783
6	0x3c8fde65	0.0175621
7	0x3d4721d5	0.04861625
8	0xba358ef6	-0.0006925905
9	0xba17481d	-0.00057709386
10	0x3cf0ee3f	0.02941048
11	0x3cacd65e	0.021098312
12	0xbc4ec356	-0.012619814
13	0x3d1def65	0.038558383
14	0xbc9d7e34	-0.019225217
15	0x3b949675	0.0045345374
16	0xbd07332c	-0.033007786
17	0x3c040e80	0.008060098
18	0x3cd13c75	0.025541523
19	0x3aeaa833	0.001790291
20	0x3b4956da	0.0030721934
21	0xbc3c18c7	-0.011480517
22	0xbcd76223	-0.026291912
23	0xbce4060c	-0.027834915
24	0x3ce4df7a	0.027938593
25	0xbcc95f8f	-0.024581699
26	0x3c245e6d	0.0100322785
27	0xbc4f31fc	-0.012646195
28	0xbcc4e61d	-0.024035508
29	0x3c8b046c	0.016969882
30	0x3d85efea	0.065399006
31	0xbcdd4132	-0.027008627
32	0x3cb8e55c	0.022570305
33	0xbe7bb1b7	-0.24579512
34	0x3c8fe608	0.017565742
35	0x3c0a7ee4	0.008453105
36	0xbb81409e	-0.0039444705
37	0xbc8be9d6	-0.017079275
38	0x3b600062	0.0034179916
39	0xbc94bba6	-0.018155884
40	0xbc8d0956	-0.017216366
41	0x3c6e3d46	0.014540976
42	0x3b9a612b	0.0047112904
43	0xbcbe97f9	-0.023265826
44	0x3cf1dbfc	0.029523842
45	0xbc88323d	-0.016625518
46	0x3b81f1a9	0.0039655757
47	0x3bfd5085	0.007730546
48	0xbc5d7abf	-0.0135180345
49	0x3cf94d4c	0.030432366
50	0xbb83c540	-0.0040213168
51	0x3c83032d	0.015992725
52	0xbc20308b	-0.009777199
53	0xbc4cf358	-0.01250919
54	0x3ab2f358	0.0013652844
55	0xbc051bf5	-0.008124341
56	0x3c2c3492	0.010510581
57	0xbc3e7510	-0.01162459
58	0xba926e8e	-0.0011171864
59	0x3c3d4375	0.011551728
60	0xbcfc86a8	-0.030825928
61	0x3d4dd67e	0.050253384
62	0x3ca37a40	0.019955754
63	0x3d068418	0.03284082
64	0xbec0340c	-0.3753971
65	0xbd56c132	-0.05243034
66	0x3c1b2bd6	0.0094709005
67	0xbd0da471	-0.03458065
68	0xbc6b9526	-0.0143788215
69	0x3d6c78d7	0.05773243
70	0x3bd8fb51	0.006621756
71	0x3bfdba16	0.0077431304
72	0x3bc5e9e4	0.006039845
73	0x3d34e0f2	0.044159837
74	0xbd13fef9	-0.036131833
75	0xbb0f9bde	-0.0021912972
76	0xbd290b91	-0.041270796
77	0xbc399eb2	-0.01132934
78	0x3d5698a0	0.05239165
79	0x3cf599c6	0.029980551
80	0x3cacc8f7	0.021091921
81	0xbc272599	-0.010201835
82	0x3c3c09e2	0.011476966
83	0xbc8001d5	-0.015625874
84	0xbd235f39	-0.039885733
85	0x3f1dbe44	0.6161845
86	0x3cbe46a1	0.023227038
87	0xbc07f06a	-0.008297065
88	0x3b00835a	0.0019609542
89	0x3e6d07fa	0.23147574
90	0xbc82d23e	-0.015969392
91	0x3cbc9fb9	0.02302538
92	0x3c81fc66	0.015867423
93	0xbbfeaf1c	-0.0077723395
94	0xbcd96b27	-0.026540352
95	0xbc9bdf5f	-0.01902741
96	0x3ca3c023	0.019989079
97	0xbcbbcba2	-0.022924248
98	0x3cbc2c7e	0.022970434
99	0x3c9ae6f0	0.018908948
100	0x3f8cb6ec	1.0993323
101	0x3bcb2580	0.0061995387
102	0xbc0ccfdc	-0.008594479
103	0xbba48b67	-0.005021501
104	0xbc0c8847	-0.008577413
105	0xbcd9e48e	-0.026598241
106	0x3cf5ccf9	0.030004965
107	0xbc9bade6	-0.01900382
108	0x3cb3bca4	0.021940537
109	0xbd25a485	-0.0404401
110	0xbb37ed58	-0.0028065052
111	0xbca89a65	-0.020581434
112	0x3d091871	0.033470575
113	0x3b5259ac	0.0032096906
114	0xbc0fe2fb	-0.008782144
115	0xbd7bae52	-0.06144554
116	0x3d7f7d75	0.062375505
117	0x3c0eca6d	0.008715254
118	0xbc98df91	-0.018661292
119	0x3c7945fc	0.0152144395
120	0x3cd12516	0.02553038
121	0xbc6b3b06	-0.014357334
122	0x3c77a3df	0.0151147535
123	0x3d21e9ab	0.039529484
124	0xbc8dae46	-0.017295014
125	0x3d121383	0.03566314
126	0xbbb361ea	-0.0054743188
127	0xba875451	-0.0010324811
128	0xbd5594e6	-0.052143954
129	0x3cda7225	0.026665756
130	0xbe81bee0	-0.2534094
131	0x3dd698c8	0.104783595
132	0xbce2d367	-0.027688695
133	0x3cc16378	0.023607
134	0x3c07ce42	0.008288922
135	0xbc70b625	-0.014691864
136	0xbd963ebe	-0.07336186
137	0xbb0131fa	-0.0019713626
138	0x3dda3590	0.106547475
139	0x3c164147	0.009170837
140	0xbcdd0be9	-0.026983218
141	0xbe15603f	-0.14587496
142	0xbd4780e3	-0.0487069
143	0xbd271844	-0.040794626
144	0xbd5e76d7	-0.054312553
145	0xbd54e1f6	-0.051973306
146	0xbc34f5f8	-0.011044972
147	0xba55be00	-0.00081536174
148	0xbc901325	-0.017587254
149	0x3d503aa6	0.05083718
150	0x3d0cbade	0.034357898
151	0xbd1e5de9	-0.03866378
152	0xbcf2242c	-0.029558264
153	0xba9d70d1	-0.0012011771
154	0xbcad7a31	-0.02117643
155	0xbd025280	-0.03181696
156	0x3cfd9025	0.030952523
157	0xbcca4535	-0.024691204
158	0xbc968a79	-0.018376576
159	0x3de39a16	0.11113374
160	0x3d8d7422	0.06906916
161	0xbe813cb1	-0.25241616
162	0x3b8fbdf4	0.004386658
163	0x3cc0b886	0.023525488
164	0xbcbfd890	-0.023418695
165	0xbc15c793	-0.0091418205
166	0xb9dc7e1b	-0.00042055626
167	0xbceac888	-0.028660074
168	0x3c2486e9	0.010041931
169	0xbc2f25e7	-0.010690189
170	0xbb7be7b1	-0.003843766
171	0xbc3ab203	-0.01139498
172	0x3b934896	0.004494737
173	0x3cec30b3	0.028831815
174	0xbbf78ccc	-0.007554626
175	0x3d517b87	0.051143195
176	0x3c6755aa	0.014119545
177	0x3c495ff2	0.012290942
178	0x3d4bcd55	0.049756367
179	0xbcd13289	-0.025536792
180	0xbd4b2a41	-0.049600843
181	0xbcaef6c2	-0.021357898
182	0xbb9eaa5a	-0.004842085
183	0x3cd313e2	0.025766317
184	0xbd3fc89b	-0.04682217
185	0xbd4a988e	-0.049461894
186	0xbd532b53	-0.05155499
187	0x3ccb8336	0.02484284
188	0x3b04ea83	0.0020281381
189	0xbd4128cc	-0.047158048
190	0xbd478694	-0.048712328
191	0xbd648925	-0.055794854
192	0x3e73407e	0.2375507
193	0xbe2c2c8b	-0.16813867
194	0xbd36906c	-0.044571325
195	0xbc38ceb2	-0.011279749
196	0x3a245902	0.0006269367
197	0x3aacf5ca	0.001319581
198	0x3eb4846c	0.3525728
199	0x3d17c673	0.03705449
200	0xbcef72b8	-0.029229507
201	0xbb9d1130	-0.0047933087
202	0xbdaa69a7	-0.08320933
203	0xbd3a76e5	-0.045523543
204	0x3be35b11	0.006938346
205	0xbd75f589	-0.060048614
206	0x3d8746ff	0.06605338
207	0xbd0996b8	-0.033591002
208	0xbba966a3	-0.005169706
209	0xbe23a4a9	-0.15980782
210	0x3c39ceac	0.011340778
211	0xbcb1aef0	-0.021689862
212	0xbbc52985	-0.0060169124
213	0xbd54a050	-0.0519107
214	0xbd446e2d	-0.047956634
215	0xbddcf849	-0.10789544
216	0xbd387c3e	-0.04504036
217	0x3e4d8e32	0.20073774
218	0x3c9b8901	0.018986227
219	0xbbbba78c	-0.0057267603
220	0xbcb07736	-0.02154122
221	0xbd065f7b	-0.0328059
222	0xbcd22369	-0.02565165
223	0x3b079516	0.0020688227
224	0xbd28abc6	-0.04117944
225	0xbd065801	-0.03279877
226	0x3c33f9e2	0.01098487
227	0xbd2b34fc	-0.041798577
228	0xbdcf4c5b	-0.101219855
229	0x3c34f67f	0.011045097
230	0xbd129ec8	-0.035795957
231	0x3ac84371	0.0015278888
232	0xbbc0f10c	-0.00588811
233	0xbc8eb860	-0.017421901
234	0xbb9c14f2	-0.004763239
235	0xbd9f7a81	-0.07787038
236	0xba536b01	-0.0008064956
237	0xbcc06f26	-0.0234905
238	0xbc89d045	-0.016822943
239	0xbd821d78	-0.06353277
240	0x3d0c8594	0.034307078
241	0x3ba2a8fe	0.004963993
242	0x3aa9850f	0.0012933331
243	0xbd8c4992	-0.0684997
244	0xbdf7bb0b	-0.120962225
245	0x3d78fe88	0.060789615
246	0x3d1ee1a6	0.038789414
247	0xbd2e1400	-0.042499542
248	0xbb05c5e8	-0.002041215
249	0x3bf8fbb5	0.007598365
250	0xbd06d1ff	-0.03291511
251	0x3d27eab7	0.040995326
252	0xbd75fb81	-0.060054306
253	0x3d3aa385	0.0455661
254	0x3eacc7ad	0.3374609
255	0x3c0cf8a0	0.008604199

p_conv1.bias f4 [4]
0	0x3e2cd0e5	0.16876562
1	0x3e294ed8	0.16533983
2	0xbe21fe88	-0.15819752
3	0x3e8a6688	0.2703135

p_fc1.weight f4 [64, 256]
0	0xbbc8f884	-0.006133141
1	0x3c0dfc07	0.008666045
2	0x3d2ad2b1	0.041704837
3	0x3cb6af4c	0.022300385
4	0xbaa0b0f6	-0.001225977
5	0x3c8b82b1	0.017030092
6	0xbc126154	-0.008934338
7	0x3c326cb1	0.010890172
8	0x3d950cab	0.07277807
9	0x3c9c9c89	0.01911761
10	0x3d0e7736	0.034781657
11	0x3d31046c	0.043217108
12	0x3d5e127e	0.054216854
13	0x3e05a458	0.13050973
14	0x3c259455	0.010106166
15	0xbcbbc84c	-0.022922657
16	0x3d8832df	0.06650328
17	0xbcf64829	-0.030063706
18	0x3cb7519b	0.02237778
19	0x3d80638d	0.06268988
20	0x3ba26591	0.0049559553
21	0x3ce840d1	0.02835122
22	0xba63295d	-0.00086655264
23	0x3d578cff	0.0526247
24	0x3d383daf	0.0449807
25	0xbd10c910	-0.035348
26	0x3ca616b4	0.020274498
27	0x3d123a47	0.03570011
28	0x3d50a222	0.050935872
29	0x3cd21972	0.025646899
30	0x3cbbb994	0.022915639
31	0x3bfa08ec	0.007630458
32	0x3db1e732	0.08686675
33	0xbda76a62	-0.08174588
34	0x3e4eefd5	0.20208676
35	0x3cbdc206	0.023163807
36	0x3ce8c4f4	0.028414227
37	0x3ca31f66	0.019912433
38	0x3d130cf0	0.03590101
39	0x3bf61578	0.0075098835
40	0x3d34c752	0.0441354
41	0x3e4f9bfe	0.2027435
42	0xbd069721	-0.03285897
43	0x3ae3684b	0.0017349807
44	0xbd03282d	-0.032020736
45	0x3b8fe1f9	0.0043909517
46	0x3bca3838	0.0061712526
47	0xbd4252b8	-0.047442168
48	0xbf821311	-1.0162069
49	0x3df29d16	0.11846368
50	0x3ddae226	0.10687666
51	0x3d660fde	0.056167476
52	0x3d855113	0.06509604
53	0x3d85335f	0.06503939
54	0xbbc6b453	-0.006063977
55	0x3aaff3c5	0.0013424089
56	0x3c61bd10	0.013777986
57	0x3d59924a	0.053118028
58	0x3db06837	0.086136274
59	0x3ce5e28a	0.028062124
60	0x3cfc9cca	0.030836482
61	0xbd517b13	-0.051142763
62	0xbc54b326	-0.012982165
63	0xbd167680	-0.036734104
64	0xbd59fb03	-0.0532179
65	0xbd08d12e	-0.033402614
66	0xbdb2ef6b	-0.087370716
67	0xbdae3be9	-0.08507521
68	0xbd4053b6	-0.046954833
69	0xbc9ebbf0	-0.019376725
70	0x3bd0de86	0.006374183
71	0xbd2cc06c	-0.042175695
72	0xbc909f1f	-0.017654
73	0xbcb636d1	-0.022242935
74	0xbdbbda04	-0.091724426
75	0xbc803386	-0.015649568
76	0xbcd3048a	-0.025759
77	0xbc69615e	-0.014244406
78	0xbc29a2fd	-0.010353801
79	0x37094e00	8.183997e-06
80	0xbd0a004d	-0.033691693
81	0xbcca3967	-0.024685575
82	0xbdf4e37f	-0.11957454
83	0xbd3db983	-0.046319496
84	0xbde74f51	-0.11294425
85	0xbd139a04	-0.036035553
86	0xbd8fa5c2	-0.07014038
87	0xbc5f6834	-0.013635684
88	0xbdba0a84	-0.09084037
89	0x3cff9a4e	0.031201508
90	0xbcea7c69	-0.028623777
91	0xbe451738	-0.19247139
92	0xbd08a4a4	-0.03336014
93	0x3d80eeaf	0.06295525
94	0xbd800721	-0.0625136
95	0xbd150779	-0.03638408
96	0x3d029eef	0.031889852
97	0x3c30fe98	0.010802887
98	0xbd7f3fd3	-0.062316727
99	0xbd83c881	-0.064347275
100	0xbd68dfd8	-0.0568541
101	0xbbf968d4	-0.0076113734
102	0xbd0bbedc	-0.034117565
103	0xbd6b546b	-0.057453554
104	0x3e5f02a7	0.21778356
105	0x3dc0fbbd	0.09423015
106	0xbe0ed718	-0.13949239
107	0xbe298862	-0.16555932
108	0xbd60a413	-0.054843973
109	0xbce4f17a	-0.027947176
110	0xbcddeb85	-0.027089844
111	0xba843818	-0.0010087518
112	0x3ea8c5cd	0.3296341
113	0xbe09c2b7	-0.13453184
114	0xbde21aa5	-0.11040238
115	0x3d5dfa71	0.054193918
116	0x3bf8e8de	0.0075961193
117	0x3c1a6663	0.009423825
118	0xbd4d4c52	-0.050121613
119	0x3cdd045d	0.02697962
120	0x3c7a0c51	0.0152617255
121	0xbe9a5e15	-0.30149904
122	0xbe2b236d	-0.16712733
123	0xbdc47bf1	-0.095939524
124	0x3d749cd5	0.05971988
125	0x3d573c94	0.052548006
126	0x3ca9fc1e	0.020750102
127	0xbd1ca972	-0.038247533
128	0xbc38c820	-0.011278182
129	0x3c259622	0.010106595
130	0x3cf6e2d8	0.030137464
131	0x3d2ac173	0.041688394
132	0x3d7bb265	0.061449427
133	0x3d900146	0.07031493
134	0x3d05340a	0.03252033
135	0x3d2cf3e6	0.042224787
136	0xbd35f5ca	-0.044423856
137	0xbd3d98e7	-0.046288397
138	0x3d608108	0.054810554
139	0x3c846c44	0.016164906
140	0x3d0b18c3	0.03395916
141	0xbc132e52	-0.008983212
142	0xbcab5b31	-0.020917507
143	0x3dca85e9	0.098888226
144	0xbc247db7	-0.010039738
145	0xbd020771	-0.031745378
146	0x3c7c7837	0.015409521
147	0xbc821797	-0.01588039
148	0xbc916f9c	-0.017753415
149	0x3d167008	0.036727935
150	0x3d2a6035	0.041595656
151	0xbccda4ca	-0.025102992
152	0xbcc7c845	-0.024387488
153	0xbcf2e770	-0.029651374
154	0xbc6e539d	-0.014546302
155	0x3d7db915	0.061944086
156	0xbc7afa3f	-0.015318452
157	0xbd18ed12	-0.037335463
158	0x3d532c6d	0.05155604
159	0xbd4df4a1	-0.050282124
160	0xbdb066dd	-0.086133696
161	0x3d2816c1	0.041037325
162	0x3c9cfd76	0.019163828
163	0xbd37367b	-0.04472969
164	0xbdccc17e	-0.09997843
165	0xbc23b02a	-0.009990731
166	0x3d418d51	0.04725391
167	0xbc44f720	-0.01202181
168	0x3d429983	0.04750968
169	0xbc9fb842	-0.01949704
170	0xbe019e5c	-0.12658066
171	0x3e1ad72b	0.15121143
172	0xbc922c72	-0.017843459
173	0x3da50838	0.08058208
174	0x3d3b2711	0.045691554
175	0x3c331c29	0.010932007
176	0x3ea290a3	0.31750974
177	0x3eb6daf5	0.35713926
178	0x3e8c0c93	0.27353343
179	0x3cf82a13	0.0302935
180	0xbd75468d	-0.059881736
181	0x3b543080	0.003237754
182	0x3c64a71f	0.01395586
183	0xbc03bcf3	-0.0080406545
184	0x3e3e2e96	0.18572459
185	0xbd95f797	-0.07322615
186	0x3c79d198	0.015247725
187	0xbd9a3fdb	-0.07531711
188	0x3d53b32e	0.05168455
189	0xbd1604e4	-0.036625758
190	0x3d048a8d	0.032358695
191	0x3d0a1cbb	0.033718806
192	0xbce320ca	-0.027725596
193	0x3ba9e4a3	0.0051847263
194	0xbd59879b	-0.05310784
195	0xbd9d68ad	-0.07685981
196	0xbd46073f	-0.048346754
197	0xbda429cf	-0.08015787
198	0xbd5c8678	-0.053839177
199	0xbba546ad	-0.0050438256
200	0xbcd0022c	-0.02539166
201	0xbc89ec56	-0.016836327
202	0xbc9383dd	-0.018007213
203	0xbd6c4dae	-0.05769127
204	0xbdab8c05	-0.08376316
205	0xbdd6ca84	-0.104878455
206	0xbd3aff5d	-0.04565369
207	0xbcb71319	-0.022347974
208	0xbcf7071a	-0.030154753
209	0xbda132bb	-0.07871004
210	0xbd3faea3	-0.046797406
211	0xbd24dbee	-0.040248804
212	0xbd79713c	-0.060899004
213	0x3d5caa92	0.053873606
214	0xbd89c556	-0.06727092
215	0xbc4a16e5	-0.01233456
216	0x3d4821bb	0.048860293
217	0x3b75f015	0.0037527133
218	0xbd1039d4	-0.0352114
219	0xbe02ffc7	-0.12792884
220	0xbd8003c8	-0.06250721
221	0xbe332c30	-0.17497325
222	0xbda1f25a	-0.07907553
223	0xbca69f47	-0.020339621
224	0xbdf4094f	-0.11915838
225	0x3dbee0e0	0.09320235
226	0xbdeb73c0	-0.11496687
227	0xbe8abcde	-0.2709722
228	0xbe316c44	-0.17326456
229	0xbd44a215	-0.048006136
230	0xbd9c0bb0	-0.07619417
231	0xbd5a5bf7	-0.05331036
232	0xbe3c893c	-0.18411726
233	0x3df37ea8	0.11889392
234	0xbe93610a	-0.28784972
235	0xbd127e25	-0.035764832
236	0xbdcbf8cb	-0.09959563
237	0xbd945d3d	-0.07244346
238	0xbe085d17	-0.13316761
239	0xbcee2aea	-0.029073197
240	0xbe2d7fcc	-0.16943282
241	0xbed8644a	-0.42264014
242	0xbcd7c4a7	-0.026338888
243	0xbd6a6319	-0.057223413
244	0x3c1e7b78	0.009672992
245	0xbd4ca1b6	-0.049958907
246	0xbccaa399	-0.024736213
247	0x3c4f031a	0.012635017
248	0xbe718b26	-0.23588237
249	0x3e8a55bf	0.27018544
250	0x3e341c42	0.17588905
251	0xbc3d4b45	-0.01155359
252	0xbcba9803	-0.022777563
253	0xbd72103a	-0.059097506
254	0xbc458cba	-0.012057478
255	0x3bd4f261	0.0064986204

p_fc1.bias f4 [64]
0	0xbdf79b1b	-0.12090131
1	0xbd882874	-0.06648341
2	0xbd651f60	-0.055938125
3	0xbd9cd454	-0.07657686
4	0xbe15a65e	-0.14614245
5	0xbdfc8c57	-0.12331455
6	0xbdb9a7d0	-0.09065211
7	0xbe1a8bfa	-0.1509246
8	0xbcc15191	-0.023598464
9	0xbd5c6acb	-0.053812783
10	0x3c8ce578	0.017199263
11	0x3d358c3e	0.0443232
12	0xbca33f84	-0.019927748
13	0xbd9c3a1b	-0.0762827
14	0xbdf37192	-0.11886896
15	0xbd0e8e08	-0.03480342
16	0xbcb4e1c2	-0.022080306
17	0x3d0efd66	0.03490963
18	0x3e429b80	0.19004631
19	0x3dfe652f	0.12421643
20	0x3de4ff8d	0.11181555
21	0x3e377bf3	0.17918377
22	0xbd85b616	-0.06528871
23	0xbd0755e1	-0.033040885
24	0xbd706c63	-0.058697116
25	0xbb8d69f2	-0.004315608
26	0x3e33144e	0.17488214
27	0x3e174dbc	0.14775747
28	0x3e038b5c	0.1284613
29	0x3df5b864	0.1199806
30	0xbcf48914	-0.02985052
31	0xbcdc3791	-0.026881965
32	0xbd974276	-0.07385723
33	0xbce04e16	-0.027380984
34	0x3daee38a	0.085394934
35	0x3e3bd906	0.18344507
36	0x3e26feb5	0.163081
37	0x3dde9338	0.108679235
38	0xbc360ed0	-0.01111193
39	0xbcb9b7ef	-0.022670714
40	0xbd954e21	-0.072902925
41	0xbd619d12	-0.055081435
42	0x3e1a9ac9	0.15098108
43	0x3d71aec3	0.059004556
44	0x3d8fd587	0.07023149
45	0x3e77eb7d	0.24210925
46	0x3c98b8b5	0.018642763
47	0xbbcace7d	-0.006189166
48	0xbd34f625	-0.044180054
49	0xbdb71943	-0.08940365
50	0x3c97fa97	0.018552108
51	0x3d711dc4	0.058866277
52	0x3b1e46f2	0.0024151173
53	0x3cf3b958	0.029751465
54	0xbd94f3ae	-0.07273041
55	0xbac53fe5	-0.0015048949
56	0xbe10aef0	-0.14129233
57	0xbde640cb	-0.11242827
58	0xbdc3d12a	-0.09561379
59	0xbdc7100e	-0.09719859
60	0xbdb50e52	-0.08840622
61	0xbd320f9a	-0.04347191
62	0xbd975a68	-0.073902905
63	0x3c88d90d	0.01670506

value_conv1.weight f4 [2, 128, 1, 1]
0	0xbf1a656a	-0.60310996
1	0xbf4337a7	-0.76256794
2	0x3e58635c	0.21131653
3	0x3d715516	0.058919035
4	0x3d35e40c	0.044406936
5	0xbd7e2e64	-0.06205596
6	0xbe6b62d8	-0.22986925
7	0x3da737d7	0.081649475
8	0x3e8298a3	0.25507078
9	0x3e648037	0.22314535
10	0xbef97867	-0.48724672
11	0xbe38836b	-0.18018882
12	0x3e37696e	0.17911312
13	0x3e0586e9	0.13039745
14	0x3ca8bd52	0.020598087
15	0xbe32cf47	-0.17461883
16	0xbed4d186	-0.41566104
17	0x3e31cae4	0.17362553
18	0x3e876cc6	0.26450175
19	0xbf3c06db	-0.7344796
20	0xbf273baa	-0.65325415
21	0x3e87bb24	0.26509964
22	0xbf2c7b39	-0.6737552
23	0xbf5f14e9	-0.8714128
24	0xbe0c8fd4	-0.13726741
25	0xbf394858	-0.7237601
26	0xbc871d60	-0.0164935
27	0xbed17357	-0.4090831
28	0xbb7835db	-0.0037873897
29	0xbf27da96	-0.6556791
30	0xbbe617fc	-0.007021902
31	0x3e8a5830	0.27020407
32	0x3e4f01f1	0.20215584
33	0xbe8a38bd	-0.26996413
34	0xbf2ca653	-0.6744129
35	0x3dac4b42	0.08412792
36	0xbdfd52ad	-0.12369285
37	0x3d8cfac2	0.06883766
38	0x3e85eb6e	0.2615618
39	0x3da1a36f	0.078925006
40	0x3e450aff	0.19242476
41	0xbf17c0ef	-0.5927877
42	0x3e6e69e1	0.23282577
43	0xbf119443	-0.56866854
44	0x3df9930f	0.12186252
45	0xbd78476c	-0.06061499
46	0x3e889951	0.2667947
47	0xbf4f293f	-0.8092231
48	0xbf24beae	-0.64353454
49	0x3e27bff7	0.16381823
50	0xbd87da82	-0.06633474
51	0xbdcf1720	-0.101118326
52	0x3e2f513f	0.17120837
53	0x3e740208	0.238289
54	0xbf08af8b	-0.5339286
55	0xbf21b364	-0.63164353
56	0xbdafe5f2	-0.085887805
57	0xbf02f182	-0.5114976
58	0x3d5c1468	0.0537304
59	0xbf2ea3c5	-0.6821864
60	0x3dd11947	0.102098994
61	0x3ec44015	0.3833014
62	0xbf0bb714	-0.5457623
63	0xbec922b3	-0.39284286
64	0x3b2fe28d	0.0026837916
65	0x3dbcfac8	0.0922752
66	0xbdc3bfc9	-0.095580645
67	0xbf06d83d	-0.52673703
68	0xbe4faf19	-0.20281638
69	0x3e7e5ba6	0.24839649
70	0x3b8ec810	0.0043573454
71	0xbf2088d6	-0.62708795
72	0xbf35b00c	-0.7097175
73	0x3e2ac1f3	0.16675548
74	0x3e9ccc0f	0.30624434
75	0x3dcbd421	0.0995257
76	0x3e0ab0b4	0.1354397
77	0xbf6b6921	-0.9195729
78	0x3cc627b1	0.024188848
79	0x3ea3270e	0.31865734
80	0xbda47914	-0.08030906
81	0x3dde1979	0.10844702
82	0x3dd688e6	0.1047533
83	0x3e613cfa	0.21995917
84	0xbda81c57	-0.082085304
85	0x3e8db73d	0.27678862
86	0x3dc17843	0.09446766
87	0xbe649417	-0.22322117
88	0x3dc6efc1	0.09713698
89	0x3c759ed6	0.014991483
90	0xbdc6832d	-0.096929885
91	0xbcdad279	-0.02671169
92	0xbd24f2b9	-0.04027054
93	0x3dbbac09	0.091636725
94	0xbf23e058	-0.64014196
95	0x3e762200	0.24036407
96	0xbf0a7a34	-0.5409272
97	0xbcbc5990	-0.022991925
98	0x3db80b45	0.089865245
99	0xbe4a2de6	-0.19744071
100	0xbdb312e7	-0.0874384
101	0xbeec6cfe	-0.46176904
102	0xbf2aa33d	-0.6665533
103	0x3d8cab3c	0.06868598
104	0x3cfbfd4a	0.030760426
105	0xbd8fa769	-0.07014353
106	0xbf724d1c	-0.9464891
107	0x3eaec0ab	0.3413137
108	0xbf49db04	-0.78849816
109	0xbe9b87a0	-0.3037691
110	0xbf39d08d	-0.7258385
111	0xbf4455b8	-0.76693296
112	0x3bfad96c	0.0076553132
113	0xbe57fecb	-0.2109329
114	0x3d9cfa3e	0.076649174
115	0x3dd8ad9c	0.10579988
116	0xbdea5cd2	-0.11443485
117	0xbe8e1943	-0.27753648
118	0xbf2e64b9	-0.6812244
119	0x3b6debe9	0.0036303943
120	0xbf49ad9c	-0.7878053
121	0x3db8dc24	0.090263635
122	0xbed2b9d9	-0.41157416
123	0x3e86df49	0.26342228
124	0x3e6aae0e	0.22917959
125	0xbeb42a34	-0.35188448
126	0xbe2bd1fd	-0.16779323
127	0xbf58d3c3	-0.8469812
128	0x3d989ef3	0.07452192
129	0x3d876062	0.066101804
130	0x3e89a170	0.2688098
131	0x3dede1cb	0.11615332
132	0xbf61ecd0	-0.8825197
133	0xbf54690b	-0.8297278
134	0xbf32dedc	-0.69871306
135	0x3e85acad	0.26108304
136	0x3e28a5fc	0.16469568
137	0xbf1c050a	-0.6094519
138	0x3d8abe72	0.06774606
139	0xbf43481b	-0.762819
140	0xbefbdfa5	-0.49194065
141	0xbf1cca6c	-0.6124637
142	0xbee0bf4e	-0.43895954
143	0xbf26a36f	-0.6509313
144	0x3cd151b8	0.025551662
145	0xbea30f2f	-0.31847522
146	0xbf1ba79e	-0.6080264
147	0x3db7d990	0.08977044
148	0x3daf228b	0.085515104
149	0xbf012f5c	-0.5046289
150	0xbc9d9805	-0.019237528
151	0xbe7a6ccf	-0.2445557
152	0xbf3a66a9	-0.72812897
153	0xbd7b4c0a	-0.061351813
154	0xbe88c2f4	-0.26711237
155	0x3ce4c7c9	0.027927296
156	0xbf3fc438	-0.7490878
157	0x3d8c86da	0.068616584
158	0xbecec666	-0.4038574
159	0x3ec1015c	0.3769635
160	0xbdf0f09b	-0.11764642
161	0xbf5221ce	-0.8208283
162	0x3d886eac	0.06661734
163	0x3c441113	0.011966961
164	0xbf1f3168	-0.6218476
165	0xbf04b455	-0.51837665
166	0x3e9476b3	0.2899681
167	0xbf33bda5	-0.7021125
168	0xbf18e195	-0.5971921
169	0x3d2b8963	0.04187907
170	0x3e8494bd	0.25894728
171	0x3e0d5e09	0.13805403
172	0xbf54a22e	-0.83059967
173	0xbf38e4a8	-0.722239
174	0x3e1ea06e	0.15490887
175	0x3ce52a06	0.02797414
176	0x3d0ade89	0.033903632
177	0x3dd0e1dd	0.1019933
178	0xbf2ee7c2	-0.68322384
179	0xbf506a57	-0.8141226
180	0x3e038d11	0.12846781
181	0x3e623558	0.22090662
182	0x3b0ddeda	0.0021647722
183	0x3d64f3a9	0.055896435
184	0xbe8b7590	-0.2723813
185	0x3e2d9554	0.16951495
186	0xbf10aaf3	-0.5651085
187	0xbe8802bf	-0.26564595
188	0x3e777b48	0.24168122
189	0x3e7a2006	0.24426278
190	0xbc5fc097	-0.013656757
191	0x3edb9cde	0.42893118
192	0x3d64d66c	0.05586855
193	0x3cd38845	0.025821814
194	0xbf298972	-0.6622535
195	0xbd234492	-0.039860316
196	0x3e4d74c2	0.20064071
197	0xbe037de1	-0.12840988
198	0xbcb671a2	-0.022270981
199	0x3e28deda	0.16491261
200	0x3d45a29a	0.048250772
201	0x3e570903	0.20999531
202	0xbe44fb8a	-0.1923658
203	0xbf017fb6	-0.50585496
204	0xbf471850	-0.7777147
205	0x3e53013e	0.20605943
206	0xbf117052	-0.5681201
207	0xbf1b2326	-0.6060051
208	0x3e0c9cee	0.13731739
209	0x3e82b37b	0.25527558
210	0xbf651672	-0.89487374
211	0x3ebf78ff	0.37397
212	0xbf3c9f9c	-0.73681045
213	0x3ede84cb	0.43460688
214	0xbf1f2176	-0.6216043
215	0xbdddc94b	-0.10829409
216	0xbede47d3	-0.43414173
217	0xbd06e35e	-0.032931678
218	0xbf2280a3	-0.63477534
219	0xbc92bc8b	-0.01791217
220	0xbf1f0a95	-0.6212552
221	0xbf3bdb58	-0.73381567
222	0xbd8ccb09	-0.068746634
223	0xbf2bb820	-0.6707783
224	0xbe33b1ed	-0.17548342
225	0xbf3b8058	-0.7324271
226	0xbf47e69e	-0.7808627
227	0xbf411316	-0.7541975
228	0xbccb7d6a	-0.024840076
229	0xbd68c434	-0.05682774
230	0x3dc59d7f	0.096491806
231	0x3e302666	0.17202148
232	0xbedc4fc8	-0.43029618
233	0xbf24e877	-0.64417213
234	0xbe145111	-0.1448405
235	0x3e70351a	0.23457757
236	0xbdbd34e5	-0.092386045
237	0x3e698efb	0.22808449
238	0x3bdef07b	0.00680357
239	0x3dad9eea	0.08477576
240	0xbf556ecf	-0.83372205
241	0xbe3ab934	-0.18234712
242	0xbee37895	-0.44427934
243	0xbf051786	-0.5198902
244	0x3e1acf7e	0.15118214
245	0x3e823473	0.2543064
246	0x3e4a8870	0.1977861
247	0x3eccffaf	0.4003882
248	0x3ea49176	0.32142228
249	0xbf30e06a	-0.6909243
250	0xbe966ef7	-0.29381534
251	0x3e942f64	0.28942406
252	0x3ea5ae3c	0.32359493
253	0x3e02ddcd	0.12779923
254	0xbccd0dd7	-0.025031013
255	0x3e7f2de0	0.24919844

value_conv1.bias f4 [2]
0	0x3da3e2aa	0.08002217
1	0x3e089034	0.13336259
