model/cnn/8x8/4aw/other0/8.pt (torch_old, 478657 bytes, 15 tensors)

conv1.weight f4 [32, 4, 3, 3]
-0.3028905 0.14412135 0.12798826 0.34691757 -0.0422581 -0.47504455 -0.29667172 0.2225027
-0.08453696 0.076006696 -0.2515653 -0.058941945 0.6009299 -0.24364617 -0.23132944 0.25804886
0.14536345 0.3127648 0.1861211 0.06604965 -0.2960371 -0.03287478 0.16812505 0.07189145
0.032513607 -0.05977478 0.019717954 -0.15659311 -0.058777507 -0.08374399 -0.013449442 0.031053176
0.20249186 -0.012345595 0.035042208 0.11565796 0.7784159 0.1580087 0.36393404 0.13414907
-0.053587697 0.02197585 -0.049626872 -0.2361715 -0.26524982 -0.7429018 0.27365646 -0.531443
0.102236465 0.44167128 0.05310626 0.12259737 0.07852477 0.016447352 -0.022706762 0.15436271
-0.23384787 -0.0797986 -0.024021361 -0.044316977 -0.02125896 0.075774126 0.008720141 -0.07827362
-0.028124636 0.06527067 -0.03824293 0.040727273 -0.036689114 0.011740099 -0.013066194 0.03002841
0.116613746 0.73938566 -0.029621396 0.20488846 -0.38828972 0.03256617 0.035426952 0.42797703
0.11313616 -0.114731856 -0.031290125 -0.15996702 0.16604535 -0.0133817615 0.39784595 -0.2005507
-0.10729492 -0.017535869 0.04172482 -0.15451649 -0.018263374 0.16232984 0.115853764 -0.06708581
-0.06604496 -0.13220832 0.004222777 -0.0741256 0.16196953 -0.07166372 0.04187587 -0.036056623
-0.2708409 0.033789787 0.08834577 -0.053051114 0.051243898 0.07669525 0.13390781 0.35268626
0.5858065 -0.07436804 0.562736 0.5414698 -0.014202564 0.033786174 0.11404874 0.06374371
-0.062203404 0.22031401 0.026760425 -0.4243857 -0.046908844 0.22255331 0.048797037 0.027027901
0.13195427 0.0046276413 0.038645085 0.08897415 -0.0129044335 -0.10382824 0.03960261 0.041249774
-0.07298747 -0.12649222 0.028588006 0.04113735 0.10694525 -0.0012902486 0.10237172 0.08772323
-0.33717373 -0.027958099 -0.046933554 -0.32748625 -0.13176362 -0.35621455 -0.2502396 0.4431104
-0.08595144 -0.039668746 -0.18858683 -0.19196479 -0.19004971 0.17358375 0.1984894 0.0061412742
-0.43838575 -0.051426332 0.005800522 0.22403373 0.21872556 -0.0039882804 -0.006493761 -0.2517145
0.007958852 -0.0409264 -0.027166236 -0.29805982 0.019373504 0.15505321 -0.33546498 0.058168307
0.11591223 -0.2596492 0.08032755 0.02429935 0.1691728 -0.37985703 -0.09087724 -0.026331421
0.050678246 0.28150296 -0.1410189 0.09827101 -0.290217 -0.21653412 -0.052550673 0.081097215
-0.002008663 0.13566226 -0.054758247 -0.20212726 0.09563711 0.60561186 -0.30085468 -0.18623091
-0.07085058 0.0030879935 -0.18294935 -0.010961975 0.02881068 -0.0539526 -0.23993002 -0.24345462
-0.35387737 -0.2387498 0.2955945 0.009059601 -0.023207992 0.26513672 0.034796245 0.19775403
-0.2393476 0.05223058 -0.04305106 -0.26954708 0.65364563 -0.33098137 0.4402871 0.06736641
-0.12797211 -0.14008516 -0.39944455 -0.08106164 0.6544311 -0.059431385 -0.28412798 -0.05859556
-0.31263793 -0.17055932 -0.0026767645 0.15372543 0.0020401122 -0.03729938 0.10517288 0.012042135
0.12229837 -0.119660236 0.1534271 0.008232231 0.086115435 0.066778466 -0.025134444 -0.12351787
0.059589777 -0.095919356 -0.08057372 0.030575426 0.25892386 0.018296769 0.53364164 0.12531796
00000000: 7714 9bbe 8c94 133e 5b0f 033e 2e9f b13e
00000010: d416 2dbd 0a39 f3be 5be5 97be bfd7 633e
00000020: b721 adbd 66a9 9b3d 2bcd 80be 1c6d 71bd
00000030: 8bd6 193f 627e 79be a0e1 6cbe fb1e 843e
00000040: 28da 143e b522 a03e 8896 3e3e 0a45 873d
00000050: 2d92 97be b5a7 06bd f928 2c3e d33b 933d
00000060: fd2c 053d 66d6 74bd 8c87 a13c f259 20be
00000070: afc0 70bd f881 abbd 0c5b 5cbc 3b63 fe3c
00000080: 075a 4f3e 2e45 4abc 6b88 0f3d 15de ec3d
00000090: 4446 473f 08cd 213e 9055 ba3e 605e 093e
000000a0: c67e 5bbd b306 b43c 8c45 4bbd f1d6 71be
000000b0: d3ce 87be d02e 3ebf b31c 8c3e a60c 08bf
000000c0: 5a61 d13d bd22 e23e f385 593d 5414 fb3d
000000d0: 98d1 a03d 99bc 863c 8803 babc 4211 1e3e
000000e0: d175 6fbe 736d a3bd 72c8 c4bc b885 35bd
000000f0: 4527 aebc 772f 9b3d ecde 0e3c eb4d a0bd
00000100: a365 e6bc a1ac 853d 9ea4 1cbd a4d1 263d
00000110: 5347 16bd 8b59 403c 9713 56bc 24fe f53c
00000120: 30d3 ee3d 6148 3d3f 92a8 f2bc 48ce 513e
00000130: e9cd c6be 1b64 053d da1b 113d ce1f db3e
00000140: eeb3 e73d 89f8 eabd 132a 00bd 65ce 23be
00000150: cb07 2a3e 2d3f 5bbc 77b2 cb3e 2a5d 4dbe
00000160: 70bd dbbd 62a7 8fbc a5e7 2a3d 9239 1ebe
00000170: 129d 95bc cb39 263e bd44 ed3d 4964 89bd
00000180: 9442 87bd 9e61 07be 395f 8a3b 2acf 97bd
00000190: 57db 253e 6ec4 92bd 0886 2b3d 1cb0 13bd
000001a0: a9ab 8abe 2967 0a3d a1ee b43d 204c 59bd
000001b0: 1fe5 513d 6612 9d3d 211f 093e 4b93 b43e
000001c0: 6af7 153f 454e 98bd 770f 103f c49d 0a3f
000001d0: dfb1 68bc 5f63 0a3d 6392 e93d 108c 823d
000001e0: ffc8 7ebd ff99 613e ae38 db3c 1549 d9be
000001f0: 7d23 40bd 04e5 633e 67df 473d 9e69 dd3c
00000200: 051f 073e 78a3 973b 4f4a 1e3d 1438 b63d
00000210: 1e6d 53bc e6a3 d4bd 5936 223d 86f5 283d
00000220: 747a 95bd 2d87 01be 6531 ea3c a37f 283d
00000230: 1c06 db3d 8f1d a9ba 44a8 d13d 3da8 b33d
00000240: 09a2 acbe 6208 e5bc 663d 40bd 47ac a7be
00000250: 0bed 06be c161 b6be 681f 80be 5edf e23e
00000260: 4f07 b0bd b27b 22bd e81c 41be 6b92 44be
00000270: 649c 42be f0bf 313e ce40 4b3e be3c c93b
00000280: 1974 e0be 6ba4 52bd 4e12 be3b 1969 653e
00000290: 98f9 5f3e 1fb0 82bb 9ec9 d4bb b9e0 80be
000002a0: d865 023c 71a2 27bd ba8b debc 4c9b 98be
000002b0: 2fb5 9e3c 45c6 1e3e 11c2 abbe e441 6e3d
000002c0: 6463 ed3d bdf0 84be c582 a43d 6e0f c73c
000002d0: a23b 2d3e 9f7c c2be d91d babd feb4 d7bc
000002e0: fe93 4f3d 2821 903e 4267 10be 5042 c93d
000002f0: 5397 94be 1fbb 5dbe 603f 57bd 4c16 a63d
00000300: c6a3 03bb 0ceb 0a3e 2f4a 60bd 73fa 4ebe
00000310: 64dd c33d 6109 1b3f a009 9abe 51b3 3ebe
00000320: 1c1a 91bd ef5f 4a3b 1357 3bbe db99 33bc
00000330: 6004 ec3c 67fd 5cbd 37b0 75be 2b4c 79be
00000340: 6a2f b5be d47a 74be 2a58 973e b96e 143c
00000350: b01e bebc 00c0 873e 8286 0e3d 0880 4a3e
00000360: 8a17 75be bcef 553d 4f56 30bd 1302 8abe
00000370: 5255 273f 6476 a9be 506d e13e 66f7 893d
00000380: 1f0b 03be 7c72 0fbe ff83 ccbe a503 a6bd
00000390: cc88 273f 536e 73bd 3979 91be e601 70bd
000003a0: 1412 a0be 1aa7 2ebe a86c 2fbb 336a 1d3e
000003b0: 67b3 053b 3cc7 18bd e164 d73d 604c 453c
000003c0: 9177 fa3d 6d10 f5bd fe1b 1d3e 7be0 063c
000003d0: 4a5d b03d 26c3 883d c0e6 cdbc f0f6 fcbd
000003e0: 6914 743d 5e71 c4bd d603 a5bd 5179 fa3c
000003f0: ab91 843e 1be3 953c bd9c 083f 5a53 003e

conv1.bias f4 [32]
0.024394426 -0.118555285 -0.15078124 -0.35516456 0.13972494 0.25250265 -0.1124765 -0.09813127
0.07184947 0.13536145 -0.10983961 -0.1827007 -0.32308495 -0.2714982 -0.06528617 -0.05393173
-0.030314136 0.041590422 -0.08984864 0.21855523 -0.02006267 0.32184744 -0.15333295 -0.28718895
-0.028059013 -0.017468035 -0.21984105 -0.12865125 -0.024294814 0.012163165 -0.08184372 -0.15908927
00000000: d2d6 c73c 1dcd f2bd 6666 1abe 21d8 b5be
00000010: 0e14 0f3e 0748 813e 145a e6bd 0cf9 c8bd
00000020: d125 933d 319c 0a3e 97f3 e0bd e415 3bbe
00000030: 646b a5be d001 8bbe c1b4 85bd 85e7 5cbd
00000040: 5a55 f8bc b85a 2a3d 9002 b8bd f1cc 5f3e
00000050: 785a a4bc 30c9 a43e 5003 1dbe 6e0a 93be
00000060: 04dc e5bc 2019 8fbc 031e 61be 27bd 03be
00000070: eb05 c7bc 0348 473c ae9d a7bd 4ce8 22be

conv2.weight f4 [64, 32, 3, 3]
-0.015941463 -0.040674895 0.1268904 -0.0064427913 -0.2763832 0.053582698 -0.08901014 0.1871792
0.41579935 -0.017503787 -0.016363924 -0.21893838 -0.12401138 -0.06227493 0.05695902 -0.015237323
0.105634086 0.16731587 0.19138113 -0.13118473 0.0122438455 0.15422745 0.10606003 -0.24739832
-0.047442947 0.15998651 -0.07561279 0.18159176 0.043124564 -0.029838791 -0.07257018 -0.060806446
-0.21672171 -0.19577008 -0.039343704 -0.3466552 0.14852181 0.027546016 0.21192713 -0.103067495
-0.020419067 -0.00478735 -0.09079627 -0.117388085 0.00701773 0.111808576 0.15416072 -0.2282037
-0.094661176 -0.109360985 -0.18789291 0.27216193 0.106369406 0.03177742 -0.109022215 0.08538057
0.25344437 -0.18279241 -0.20158471 -0.2845496 -0.09938194 -0.11644424 0.1319156 0.013701321
-0.010471172 -0.077177115 -0.07679248 -0.05995154 0.1406399 0.07720278 -0.1967674 -0.1336396
0.26111037 -0.11531602 0.18456858 0.07753471 0.022532409 -0.11765036 0.17732967 0.20924136
0.089976095 -0.050835684 -0.28235942 -0.021490129 -0.060058147 0.045482032 0.09156637 -0.04867757
0.11658824 0.22622028 -0.067822754 0.014799336 -0.07288964 0.02294273 -0.027300762 -0.19808562
-0.06934263 0.05777058 0.29183266 0.19984265 0.12538423 0.043131143 -0.051193565 0.0651575
-0.4439903 0.017929578 0.12206051 -0.010448331 0.057365797 0.050904334 0.008078855 0.036967125
-0.23198229 -0.05971098 -0.20859635 0.0006770132 -0.094830565 -0.0998731 0.11738619 0.04106296
-0.051718418 0.17786601 -0.17124769 -0.24349979 0.18756682 -0.02969589 -0.15485969 0.33808804
-0.17381915 -0.040179934 -0.029584149 0.13769838 -0.028657643 -0.07692088 0.17039126 0.03470007
-0.03536671 -0.03642514 0.36091125 -0.045106705 0.22280553 -0.21328472 0.047651574 0.16779222
0.056345105 0.04822395 -0.06641454 -0.12309828 0.04950199 -0.19140491 0.051042557 0.18409365
0.052690785 -0.05587641 0.24724148 0.12515612 -0.28715083 0.22816399 0.25296688 -0.028396336
0.03974771 0.11667638 0.10333115 0.12427578 -0.016699279 -0.19423935 -0.06597128 -0.1530571
-0.03188253 0.02837329 -0.04719518 0.094184525 0.31648573 0.0070600114 0.01527879 -0.007279566
0.039141722 -0.16188097 -0.06388309 -0.16713376 -0.06249889 0.30534634 -0.0842641 0.07512927
-0.16303006 0.034302346 -0.09278582 0.2526047 -0.19574556 0.15643671 0.04816928 -0.09838494
0.012642981 -0.19699259 0.07167795 -0.056824584 -0.17345554 0.033561356 -0.093589015 -0.17109273
0.1385299 -0.06603575 -0.017541708 -0.11053767 0.23306467 -0.043603424 0.026728634 -0.09529011
0.17093968 -0.39849064 -0.030475331 -0.082352616 0.06904323 0.13244268 -0.1300276 -0.043061495
0.024001505 -0.035623096 -0.12016813 0.03433328 0.11331868 -0.1677781 -0.009787767 0.10842539
0.21686882 0.0026992704 0.37554154 -0.08620503 0.20829542 -0.129672 -0.09386699 -0.004440264
-0.15135364 -0.028191425 0.01646021 -0.06987889 -0.16525023 -0.22483982 -0.054595947 0.09725986
-0.0037031183 -0.023299398 0.11361578 -0.023366095 0.064093396 -0.11495021 0.07306571 -0.21562336
-0.07732586 0.12251587 0.054819115 0.12874195 -0.059158757 0.13392372 -0.18756612 -0.067334086
00000000: ac97 82bc b89a 26bd 8fef 013e 0d1e d3bb
00000010: 1982 8dbe 8879 5b3d f34a b6bd e7ab 3f3e
00000020: a7e3 d43e 1a64 8fbc a30d 86bc 6231 60be
00000030: aef9 fdbd ff13 7fbd dd4d 693d f7a5 79bc
00000040: af56 d83d da54 2b3e 6af9 433e 4a55 06be
00000050: 699a 483c cded 1d3e 0036 d93d fc55 7dbe
00000060: 8953 42bd 81d3 233e e1da 9abd 31f3 393e
00000070: 62a3 303d 7b70 f4bc ad9f 94bd 2e10 79bd
00000080: 4cec 5dbe f477 48be dd26 21bd ca7c b1be
00000090: 1a16 183e 2fa8 e13c 6d03 593e 0d15 d3bd
000000a0: e345 a7bc 34df 9cbb 65f3 b9bd 2a69 f0bd
000000b0: fcf4 e53b e5fb e43d 4fdc 1d3e 3bae 69be
000000c0: b8dd c1bd a7f8 dfbd 0067 40be cf58 8b3e
000000d0: 34d8 d93d 0a29 023d 0a47 dfbd 02dc ae3d
000000e0: 76c3 813e ef2d 3bbe 396c 4ebe 7cb0 91be
000000f0: c288 cbbd 517a eebd e214 073e 817b 603c
00000100: 478f 2bbc 090f 9ebd 6045 9dbd bf8f 75bd
00000110: e803 103e 7e1c 9e3d 657d 49be d2d8 08be
00000120: 42b0 853e ce2a ecbd 8cff 3c3e 85ca 9e3d
00000130: e395 b83c acf2 f0bd e995 353e 5e43 563e
00000140: 6345 b83d 1439 50bd 6a91 90be 110c b0bc
00000150: 88ff 75bd 5e4b 3a3d 2687 bb3d 2262 47bd
00000160: d1c5 ee3d 4aa6 673e a8e6 8abd ea78 723c
00000170: 2a47 95bd 64f2 bb3c d9a5 dfbc f5d6 4abe
00000180: 8203 8ebd d8a0 6c3d 176b 953e 8da3 4c3e
00000190: b964 003e 48aa 303d 58b0 51bd 4c71 853d
000001a0: b252 e3be 0de1 923c dcfa f93d 7a2f 2bbc
000001b0: 66f8 6a3d 1081 503d 2d5d 043c d76a 173d
000001c0: c48c 6dbe 8093 74bd 489a 55be 9679 313a
000001d0: 8736 c2bd 458a ccbd 2c68 f03d a231 283d
000001e0: b1d6 53bd 8222 363e 8e5b 2fbe 0258 79be
000001f0: 8411 403e cc44 f3bc 8a93 1ebe e019 ad3e
00000200: a6fd 31be b793 24bd 755a f2bc ce00 0d3e
00000210: 6fc3 eabc b288 9dbd 0c7b 2e3e a921 0e3d
00000220: afdc 10bd 8732 15bd 5cc9 b83e cfc1 38bd
00000230: 2227 643e 4f67 5abe 4c2e 433d b9d1 2b3e
00000240: 20ca 663d 7a86 453d 5904 88bd f31a fcbd
00000250: 99c2 4a3d a6ff 43be 0012 513d 0c83 3c3e
00000260: 4bd2 573d aade 64bd df2c 7d3e ed28 003e
00000270: 6f05 93be d2a3 693e e084 813e 6f9f e8bc
00000280: 7fce 223d 07f4 ee3d 489f d33d 4d84 fe3d
00000290: edcc 88bc aee6 46be f31b 87bd 00bb 1cbe
000002a0: 4197 02bd 1a6f e83c bc4f 41bd d1e3 c03d
000002b0: 6b0a a23e ab57 e73b e453 7a3c 6d89 eebb
000002c0: 1253 203d 20c4 25be 23d5 82bd 1d25 2bbe
000002d0: d6fe 7fbd 5b56 9c3e a892 acbd 60dd 993d
000002e0: 5af1 26be 9e80 0c3d 7e06 bebd 6755 813e
000002f0: 8671 48be f230 203e 274d 453d 0b7e c9bd
00000300: 8124 4f3c 6db8 49be e4cb 923d e5c0 68bd
00000310: 549e 31be a277 093d 99ab bfbd ef32 2fbe
00000320: c8da 0d3e c03d 87bd a1b3 8fbc 9361 e2bd
00000330: 81a8 6e3e 8199 32bd 02f6 da3c 7627 c3bd
00000340: d00a 2f3e f706 ccbe 67a7 f9bc 7da8 a8bd
00000350: 8966 8d3d 0e9f 073e f525 05be 4061 30bd
00000360: ce9e c43c 86e9 11bd b51a f6bd 0ea1 0c3d
00000370: a013 e83d 06ce 2bbe df5c 20bc 220e de3d
00000380: dc12 5e3e 3ee6 303b fb46 c03e 438c b0bd
00000390: 654b 553e bdc8 04be 563d c0bd a27f 91bb
000003a0: 73fc 1abe b4f1 e6bc 90d7 863c aa1c 8fbd
000003b0: 5b37 29be 693c 66be 00a0 5fbd 2d30 c73d
000003c0: 04b0 72bb 61de bebc 64af e83d 416a bfbc
000003d0: 6643 833d 046b ebbd 7aa3 953d 5fcc 5cbe
000003e0: 055d 9ebd 9ae9 fa3d 028a 603d eed4 033e
000003f0: 7450 72bd 4d23 093e 5511 40be 74e6 89bd

conv2.bias f4 [64]
-0.16239834 -0.02945653 -0.12730248 0.03384943 -0.1809947 -0.092301294 -0.017527401 -0.12805194
-0.34382495 -0.10723407 -0.020389946 -0.1875515 -0.12874123 0.0049878196 -0.26189196 -0.11212011
-0.38219076 0.025034476 -0.1121365 -0.08806461 -0.0134918615 0.0058600055 -0.28116387 0.06873837
0.094336316 -0.10179588 -0.11259532 0.06203747 -0.038814917 -0.043983873 -0.04633646 -0.13178998
-0.032115426 -0.112215124 -0.08788444 -0.0589641 -0.25183004 -0.1543242 0.014069799 -0.027704239
-0.16062911 -0.12423537 -0.2412566 -0.1415349 -0.37732214 -0.13492568 -0.035852917 -0.31164482
-0.07657015 -0.17081453 -0.07833235 0.12069051 -0.16771363 -0.008631921 -0.23686197 0.06359598
-0.2770876 -0.07055301 -0.20214285 -0.14867902 -0.15084283 -0.0056080315 0.03861116 -0.0071892235
00000000: c04b 26be d24e f1bc 955b 02be b3a5 0a3d
00000010: ad56 39be 7608 bdbd a095 8fbc 0c20 03be
00000020: d309 b0be 899d dbbd d108 a7bc 800d 40be
00000030: bed4 03be dd70 a33b b416 86be 3a9f e5bd
00000040: 82ae c3be 1a15 cd3c d2a7 e5bd 385b b4bd
00000050: f80c 5dbc 4a05 c03b b6f4 8fbe b4c6 8c3d
00000060: 6633 c13d 5c7a d0bd 6098 e6bd 011b 7e3d
00000070: 64fc 1ebd 6f28 34bd 4dcb 3dbd f4f3 06be
00000080: 778b 03bd 0bd1 e5bd c2fc b3bd 5784 71bd
00000090: deef 80be 2a07 1ebe 0485 663c 00f4 e2bc
000000a0: f57b 24be 1d6f febd f80b 77be 86ee 10be
000000b0: 5e30 c1be f529 0abe 82da 12bd e98f 9fbe
000000c0: d0d0 9cbd 01ea 2ebe b66c a0bd 962c f73d
000000d0: 1fbd 2bbe e76c 0dbc f28b 72be 9c3e 823d
000000e0: 6dde 8dbe 197e 90bd 89fe 4ebe 503f 18be
000000f0: 8b76 1abe 94c3 b7bb bc26 1e3d 9493 ebbb

conv3.weight f4 [128, 64, 3, 3]
0.04900755 0.01670251 0.04472629 0.21479747 0.20838217 0.046166 -0.22500636 0.06891623
-0.24153194 -0.25192857 0.00230205 0.14726157 -0.11452186 0.25356278 -0.23354319 -0.04825069
0.21325533 -0.11621722 0.006913607 -0.11417422 -0.0033071158 0.05007731 -0.005922996 0.14634533
0.13507517 -0.06542602 -0.021453071 0.06698468 0.24756762 0.0401829 0.041204598 -0.021855496
-0.027489776 0.08450698 -0.008990371 -0.004713486 -0.09599357 0.0959423 -0.0033622985 0.09853202
-0.049026057 -0.0008631217 0.09079164 0.040398356 0.11308457 0.18658715 -0.0030599937 0.112640604
0.082509525 -0.071308844 -0.02099161 -0.13914199 -0.059077576 -0.17028092 -0.023004465 0.19448978
0.09528239 -0.23139492 -0.15868388 0.22646722 0.16307382 0.032940876 -0.021566337 -0.014059108
-0.2698204 -0.23661822 -0.23110227 0.07490849 -0.0015097201 0.148452 -0.044498622 0.0050100987
-0.072012275 -0.07768272 0.13396679 -0.025669465 -0.10039213 -0.05002893 -0.36471942 0.12641202
-0.11576146 -0.014814501 0.08938135 0.26397443 -0.20698686 0.06985829 -0.17859976 -0.21007802
-0.104113065 0.2271086 0.08859073 0.037439466 -0.36844808 -0.02509591 -0.09129086 0.046661306
0.0662124 -0.026087876 -0.2745014 -0.18968238 0.19137676 -0.059623092 -0.18920308 -0.22761644
-0.012830503 0.10387324 0.1626658 0.028441915 -0.018711124 0.11876644 -0.17825286 0.14442945
-0.024213128 0.009370927 0.044847995 -0.082217984 0.04559836 -0.044796165 0.077896096 0.07424506
0.16299856 0.24038249 0.1270464 0.16909361 0.16493148 -0.11084353 0.050453644 0.10675732
-0.18760955 0.06582139 -0.2608215 -0.0523971 0.146439 -0.27762556 -0.29157034 0.10374947
-0.18043444 -0.03885136 -0.030259723 -0.022014776 -0.045984495 0.12647119 0.20399582 0.09993565
-0.19551872 0.15700997 -0.08326563 0.0003412763 0.033662774 -0.0075927377 -0.1458357 -0.10398285
0.08660215 -0.1091851 -0.20594588 0.04969144 0.026140781 0.042451404 0.10753849 0.14935412
0.03267648 -0.042481035 0.25085542 -0.001954473 -0.17806363 -0.070190296 0.09596297 -0.21700019
-0.1184887 0.09422497 0.15359662 -0.14831722 -0.04891546 0.14142326 0.08746883 -0.09904273
0.21899398 -0.0597685 0.0686938 0.007824721 -0.21509153 -0.15558134 0.010474024 0.18488142
0.025148222 0.1175631 0.12497597 -0.2791515 -0.14432502 -0.30340567 -0.20474812 -0.1254991
0.037658714 -0.019930579 0.16631827 -0.05139235 -0.09676525 0.048464887 -0.05597717 0.0144562945
0.029620212 0.22698818 -0.106319286 0.0740384 -0.120089844 -0.06809757 -0.099578284 -0.05830131
0.077323005 0.057004396 0.11152099 0.03795149 0.11264528 -0.2624399 -0.051376693 -0.14237021
0.0056979214 -0.043716826 0.19904368 0.06597233 0.0161304 0.10074013 -0.16545361 -0.16618727
0.017089948 0.15955344 -0.109310605 0.03234536 -0.3424716 -0.016211566 -0.08529234 -0.23965152
-0.09010644 -0.07649695 -0.11603458 0.05122121 -0.08565002 0.10409657 0.1463338 -0.07649446
0.0032973902 -0.14451715 -0.046382263 -0.010656365 0.15763581 -0.12842117 -0.13930263 0.013202517
-0.3188908 -0.11926632 0.18367387 -0.15871903 0.102909185 -0.0432074 -0.20687445 -0.15804635
00000000: 24bc 483d b4d3 883c ea32 373d def3 5b3e
00000010: 2362 553e 8f18 3d3d 1168 66be f423 8d3d
00000020: 2654 77be c8fc 80be fddd 163b bdcb 163e
00000030: 708a eabd fbd2 813e f225 6fbe 84a2 45bd
00000040: 9b5f 5a3e 4b03 eebd 8a8b e23b 2cd4 e9bd
00000050: 32bc 58bb de1d 4d3d b115 c2bb 8ddb 153e
00000060: 2551 0a3e 14fe 85bd 5abe afbc 442f 893d
00000070: 5e82 7d3e d396 243d 27c6 283d 4c0a b3bc
00000080: 3d32 e1bc ff11 ad3d 594c 13bc 9673 9abb
00000090: 4798 c4bd 667d c43d 025a 5cbb 28cb c93d
000000a0: 8ccf 48bd 1e43 62ba f8f0 b93d bf78 253d
000000b0: e298 e73d b410 3f3e 2d8a 48bb 1eb0 e63d
000000c0: c1fa a83d 5f0a 92bd 99f6 abbc 3d7b 0ebe
000000d0: 54fb 71bd 1f5e 2ebe dc73 bcbc 5428 473e
000000e0: 6a23 c33d caf2 6cbe 077e 22be 06e7 673e
000000f0: d3fc 263e 03ed 063d e3ab b0bc 2c58 66bc
00000100: e625 8abe 0c4c 72be 13a6 6cbe 9f69 993d
00000110: cde1 c5ba cd03 183e 3044 36bd c12b a43b
00000120: 2c7b 93bd 1e18 9fbd 972e 093e c548 d2bc
00000130: 649a cdbd 23eb 4cbd 81bc babe 2772 013e
00000140: 5814 edbd 85b8 72bc 920d b73d a827 873e
00000150: 5df4 53be dd11 8f3d dbe2 36be b11e 57be
00000160: 3b39 d5bd 288f 683e 0f6f b53d 205a 193d
00000170: 3aa5 bcbe f095 cdbc b4f6 babd ed1f 3f3d
00000180: 5e9a 873d 3eb6 d5bc 738b 8cbe 193c 42be
00000190: 45f8 433e 5837 74bd 74be 41be 4914 69be
000001a0: 0837 52bc 7ebb d43d dd91 263e 05ff e83c
000001b0: 1248 99bc d23b f33d eb87 36be 50e5 133e
000001c0: 9c5a c6bc 8488 193c 88b2 373d e761 a8bd
000001d0: 59c5 3a3d 2f7c 37bd fd87 9f3d cb0d 983d
000001e0: 18e9 263e d426 763e 7418 023e e026 2d3e
000001f0: cce3 283e ef01 e3bd 7ba8 4e3d 95a3 da3d
00000200: b81c 40be 5dcd 863d 658a 85be 579e 56bd
00000210: 1bf4 153e f024 8ebe b548 95be 9a7a d43d
00000220: cec3 38be 9b22 1fbd 3de3 f7bc 5558 b4bc
00000230: 3d5a 3cbd aa81 013e 48e4 503e 10ab cc3d
00000240: 0f36 48be 39c7 203e 2c87 aabd 54ed b239
00000250: fae1 093d 80cc f8bb f455 15be f6f4 d4bd
00000260: 785c b13d 709c dfbd 7ae3 52be 4089 4b3d
00000270: 3125 d63c 86e1 2d3d 243d dc3d 49f0 183e
00000280: c6d7 053d 9800 2ebd 1f70 803e 9e16 00bb
00000290: 5056 36be eebf 8fbd 3c88 c43d 4c35 5ebe
000002a0: 34aa f2bd 05f9 c03d 6f48 1d3e 78e0 17be
000002b0: 945b 48bd 42d1 103e dc22 b33d ead6 cabd
000002c0: f53f 603e d1cf 74bd 56af 8c3d 4233 003c
000002d0: f440 5cbe b750 1fbe 3e9b 2b3c 8e51 3d3e
000002e0: a503 ce3c ecc4 f03d 67f3 ff3d f2ec 8ebe
000002f0: f0c9 13be fd57 9bbe 7ea9 51be d682 00be
00000300: 0640 1a3d 7445 a3bc 564f 2a3e c980 52bd
00000310: dc2c c6bd 1e83 463d 5148 65bd 18da 6c3c
00000320: 16a6 f23c 976f 683e edbd d9bd 72a1 973d
00000330: aaf1 f5bd bd76 8bbd b3ef cbbd 5bcd 6ebd
00000340: 865b 9e3d 717d 693d 1e65 e43d 0673 1b3d
00000350: 92b2 e63d 865e 86be 5e70 52bd 7fc9 11be
00000360: a1b5 ba3b 6a10 33bd 1bd2 4b3e 801c 873d
00000370: e723 843c d750 ce3d ac6c 29be ff2c 2abe
00000380: 3800 8c3c fa61 233e 3dde dfbd 917c 043d
00000390: 7058 afbe 1ece 84bc c0ad aebd 3567 75be
000003a0: ba89 b8bd 6faa 9cbd 8aa3 edbd 55cd 513d
000003b0: 4769 afbd 9530 d53d 87d8 153e 21a9 9cbd
000003c0: 0719 583b 4efc 13be 54fb 3dbd 0998 2ebc
000003d0: 486b 213e d780 03be 59a5 0ebe 5f4f 583c
000003e0: a845 a3be e641 f4bd 0115 3c3e 3e87 22be
000003f0: 0dc2 d23d 3efa 30bd e5d6 53be e7d6 21be

conv3.bias f4 [128]
-0.05233381 -0.13514248 -0.30221128 -0.08211828 -0.08989555 -0.15090989 -0.13046545 -0.20874727
-0.22362679 -0.14431141 -0.13314584 -0.019939046 -0.019770157 -0.23679166 -0.11858729 -0.052644588
-0.17640376 -0.0587767 -0.18293604 -0.012770851 -0.24507836 -0.16542749 -0.10461869 0.06741116
-0.15043879 -0.007438595 0.047265094 -0.17720687 -0.14082198 -0.15380412 -0.20785032 -0.19065663
-0.1589366 -0.03889419 -0.18977726 -0.059256215 -0.09004781 -0.18383469 -0.22561392 -0.060249418
-0.28343475 -0.10908316 0.11729888 -0.059317194 -0.19391355 -0.081132956 -0.18584807 -0.0809523
-0.13188817 -0.08084526 -0.02698637 -0.004473247 -0.086129144 -0.1828323 -0.24585675 -0.15694284
-0.07663275 -0.11709315 -0.19056438 -0.17127715 -0.21181424 -0.2381876 -0.14554502 -0.29810804
0.13586497 0.13220535 -0.071999244 -0.061596647 -0.01502995 -0.3012701 0.20647475 -0.11055597
-0.1660868 -0.060284246 -0.11606493 0.04943078 -0.2186183 -0.12320341 -0.033799965 -0.29587153
-0.08489297 0.036214996 -0.18298085 -0.08240108 -0.045392506 -0.6475883 -0.1348711 0.009444998
-0.2135654 0.22236042 -0.08363383 0.20648234 -0.09039672 -0.21973634 -0.14974256 -0.14232728
-0.08529218 -0.11384698 -0.2759078 -0.08127308 -0.63361293 0.106759354 -0.26919866 -0.14585917
-0.082117215 -0.23652768 -0.2407252 -0.1516395 0.05580555 -0.3847855 -0.14553355 -0.029983588
-0.17672105 -0.25135028 -0.030894868 0.11612489 0.029587746 -0.11891229 -0.23990478 -0.3580742
-0.13679919 -0.19175659 -0.06346406 -0.3248803 -0.11986082 -0.048455328 0.035665747 -0.2972677
00000000: fa5b 56bd ca62 0abe 70bb 9abe a12d a8bd
00000010: 281b b8bd 1f88 1abe bc98 05be d8c1 55be
00000020: 6cfe 64be 5fc6 13be 6257 08be 3657 a3bc
00000030: 06f5 a1bc 8379 72be e5dd f2bd daa1 57bd
00000040: 30a3 34be d6bf 70bd 9653 3bbe d53c 51bc
00000050: d2f5 7abe d365 29be 5342 d6bd dd0e 8a3d
00000060: a00c 1abe 75bf f3bb 0b99 413d b875 35be
00000070: a333 10be d47e 1dbe b7d6 54be 7e3b 43be
00000080: 47c0 22be 844f 1fbd f854 42be a5b6 72bd
00000090: fc6a b8bd 293f 3cbe 5607 67be 18c8 76bd
000000a0: 5c1e 91be fe66 dfbd 653a f03d 96f6 72bd
000000b0: 4691 46be 0929 a6bd f54e 3ebe 52ca a5bd
000000c0: b10d 07be 3392 a5bd 8512 ddbc 5194 92bb
000000d0: 7a64 b0bd 6438 3bbe dfc1 7bbe a0b5 20be
000000e0: a2f1 9cbd 89ce efbd 4f23 43be 4763 2fbe
000000f0: d5e5 58be 73e7 73be c109 15be 9ea1 98be
00000100: 3020 0b3e d760 073e 5774 93bd c44c 7cbd
00000110: 2e40 76bc 1340 9abe 1e6e 533e 2b6b e2bd
00000120: a812 2abe 9dec 76bd 73b3 edbd ee77 4a3d
00000130: 7add 5fbe 1252 fcbd d571 0abd 797c 97be
00000140: 5edc adbd 2d56 143d 555f 3bbe e6c1 a8bd
00000150: 7eed 39bd 59c8 25bf a61b 0abe 31bf 1a3c
00000160: e3b0 5abe 73b2 633e 3748 abbd 1b70 533e
00000170: ea21 b9bd 9002 61be 1d56 19be 3ebe 11be
00000180: abad aebd 9b28 e9bd ca43 8dbe 8072 a6bd
00000190: 7534 22bf a6a4 da3d 68d4 89be 1b5c 15be
000001a0: 122d a8bd 5034 72be ab80 76be 6347 1bbe
000001b0: 5c94 643d 9b02 c5be bf06 15be 24a0 f5bc
000001c0: 5df6 34be fcb0 80be 3c17 fdbc e3d2 ed3d
000001d0: 0062 f23c 4988 f3bd 99a9 75be 8055 b7be
000001e0: 1615 0cbe d75b 44be 72f9 81bd b656 a6be
000001f0: 9779 f5bd 1879 46bd 3f16 123d 7933 98be

p_conv1.weight f4 [4, 128, 1, 1]
-0.0062291874 0.011744678 0.0104566505 -0.019231446 -0.019851098 0.03452165 -0.054194536 0.023933822
0.0018280972 -0.012034072 -0.0020174917 0.043835074 -0.040229674 -0.03986772 0.051960528 -0.06389508
-0.00267252 -0.016038492 -0.030761007 0.019424474 -0.039075416 -0.04680555 0.0138002345 -0.052802596
-0.0020809774 -0.0011147332 0.005542878 -0.0212131 -0.009764133 -0.003959588 -0.00061085494 -0.043954656
-0.022449376 -0.10400051 -0.00974433 -0.017123451 0.010813383 0.01384591 -0.0013491644 -0.0040309723
0.027008146 0.025551794 -0.009613781 0.026838211 0.06299822 0.016424468 -0.0074566086 0.009160676
0.0010940004 -0.01475907 0.0007393643 -0.00050072226 0.032390215 0.005747959 -0.011147658 -0.012516093
0.018601086 0.0011899958 0.0060817497 -0.011560362 0.035139248 0.010332973 -0.023406483 0.048668146
-0.3219602 -0.01629023 0.007570736 -0.03680683 -0.049140304 0.5322308 -0.014850964 0.06686035
0.10540154 -0.0016081884 0.008474514 0.02823492 0.07079822 -0.092328236 0.0033383772 0.03886139
0.0072300653 0.04479157 0.021224184 0.019167267 0.005318648 0.85692424 -0.01254171 0.0056227697
0.037678245 0.25416553 0.0035845703 0.02148579 0.008241645 -0.051196948 0.051605508 -0.022455366
-0.009210912 -1.8592975e-05 -0.03686692 0.01003123 1.0338995 0.007851868 -0.008294698 0.054156926
-0.001315599 -0.0117547205 0.053781603 -0.029188415 0.04024833 0.22303805 -0.022365753 -0.03881728
0.009745189 -0.003922105 0.033825062 -0.004041862 0.0049761245 -0.0117349485 -0.012741384 -0.012025309
-0.034751892 -0.043759 0.012787753 0.04016903 -0.0025891752 -0.03351726 0.012891065 0.010643078
-0.021876626 0.111801505 -0.2740299 0.10766458 -0.00938112 -0.007616945 0.01031326 -0.0044190367
-0.054363552 0.049950004 0.035499074 -0.05033982 0.021271037 -0.065373234 -0.03886271 -0.11376297
-0.014855737 0.015402588 0.0029134676 0.041081026 0.007245527 -0.012040678 0.018211141 -0.008544879
-0.042787023 -0.033831976 0.009378764 0.00017805066 -0.01888074 -0.008433114 -0.029974362 0.06116048
0.058051083 -0.10268902 -0.057556216 0.06225061 -0.017219262 0.010412482 -0.060674872 -0.011358341
0.016102673 -0.035720542 0.019084336 0.015515511 -0.030536432 0.04354927 -0.0012729575 0.012367144
-0.07451018 0.040782038 -0.027897693 0.012676389 -0.061972044 -0.016388971 -0.026410826 0.0066352678
0.0071000485 -0.036334015 -0.013775891 -0.03688391 -0.05861721 -0.008370354 -0.07305687 0.011448638
0.19567823 -0.15602316 -0.025086032 0.025285387 -0.013970694 -0.081604846 0.25229484 0.0089219455
-0.06269912 -0.03248315 -0.016008971 -0.024490766 -2.2053558e-05 -0.06307274 0.0315986 -0.07477088
0.03618173 -0.39668873 -0.016367448 -0.010414614 0.020950504 -0.05201943 -0.059458196 -0.24225147
-0.060645085 0.19173634 0.054145183 -0.07085293 0.009714746 0.0707639 -0.101519674 -0.022122992
-0.0035273402 -0.1088934 -0.055186413 0.044623516 -0.052316345 0.060600948 -0.0034150367 -0.06032923
-0.02425855 0.029801574 -0.06742081 -0.039616577 0.0625744 0.008561093 -0.064212814 -0.039358884
0.052039277 0.011853687 0.023784827 -0.0074240314 -0.13400576 0.06729704 -0.0010917922 0.07979348
-0.0073871226 0.05028764 0.06706869 0.029065836 -0.032898135 -0.0078522675 0.27209035 -0.00797519
00000000: 361e ccbb c06c 403c 5f52 2b3c 448b 9dbc
00000010: c59e a2bc 9366 0d3d 17fb 5dbd dd10 c43c
00000020: c39c ef3a 8e2a 45bc e537 04bb 688c 333d
00000030: dfc7 24bd 564c 23bd 90d4 543d 6cdb 82bd
00000040: 7225 2fbb 2863 83bc 82fe fbbc 1320 9f3c
00000050: 8b0d 20bd 2db7 3fbd 611a 623c 8947 58bd
00000060: 0261 08bb 3d1c 92ba 08a1 b53b 18c7 adbc
00000070: bef9 1fbc 6ebf 81bb c821 20ba cc09 34bd
00000080: c1e7 b7bc 38fe d4bd afa6 1fbc 7b46 8cbc
00000090: 9e2a 313c f5d9 623c 72d6 b0ba 3f16 84bb
000000a0: 3040 dd3c ff51 d13c 1f83 1dbc cfdb db3c
000000b0: 3605 813d 9b8c 863c 9156 f4bb a916 163c
000000c0: 9064 8f3a 07d0 71bc e6d1 413a e742 03ba
000000d0: 9aab 043d 6059 bc3b aba4 36bc 4d10 4dbc
000000e0: 4e61 983c a2f9 9b3a 6a49 c73b ac67 3dbc
000000f0: 2cee 0f3d a14b 293c f4be bfbc 4058 473d
00000100: f8d7 a4be 1773 85bc f013 f83b c2c2 16bd
00000110: 5847 49bd 4740 083f 7551 73bc 14ee 883d
00000120: c3dc d73d d9c9 d2ba b0d8 0a3c eb4c e73c
00000130: a8fe 903d 9616 bdbd adc8 5a3b 1f2d 1f3d
00000140: 2fea ec3b 5e77 373d 57de ad3c ac04 9d3c
00000150: 0e48 ae3b 635f 5b3f bf7b 4dbc 363f b83b
00000160: 8154 1a3d fc21 823e 1ceb 6a3b f802 b03c
00000170: f707 073c e4b3 51bd 4c60 533d 51f4 b7bc
00000180: 5de9 16bc 1cf8 9bb7 c401 17bd 075a 243c
00000190: d256 843f 1fa5 003c 7ce6 07bc a7d3 5d3d
000001a0: 2d70 acba df96 40bc 194a 5c3d 8b1c efbc
000001b0: 6fdb 243d 1664 643e 6238 b7bc defe 1ebd
000001c0: 49aa 1f3c 0085 80bb 268c 0a3d 9971 84bb
000001d0: c20e a33b f143 40bc 3dc1 50bc cd05 45bc
000001e0: 0058 0ebd a33c 33bd b983 513c 4888 243d
000001f0: 27af 29bb 6549 09bd 0c35 533c 4e60 2e3c
00000200: 9c36 b3bc 30f8 e43d a64d 8cbe 3f7f dc3d
00000210: 45b3 19bc 9197 f9bb f3f8 283c 91cd 90bb
00000220: 51ac 5ebd 6098 4c3d 7a67 113d 2131 4ebd
00000230: 9940 ae3c 67e2 85bd 812e 1fbd 8ffc e8bd
00000240: 7a65 73bc 235b 7c3c e0ef 3e3b 9444 283d
00000250: e36b ed3b 4446 45bc 882f 953c d2ff 0bbc
00000260: 7241 2fbd 6693 0abd 63a9 193c 1cb3 3a39
00000270: c8ab 9abc 0b2b 0abc cb8c f5bc 6983 7a3d
00000280: f9c6 6d3d 9f4e d2bd 11c0 6bbd 7ffa 7e3d
00000290: 690f 8dbc 1d99 2a3c 3786 78bd 5618 3abc
000002a0: c1e9 833c b44f 12bd c156 9c3c c534 7e3c
000002b0: 8a27 fabc b860 323d 5ed9 a6ba 909f 4a3c
000002c0: cb98 98bd 110b 273d b489 e4bc a1b0 4f3c
000002d0: 66d6 7dbd 2a42 86bc 845b d8bc a96c d93b
000002e0: 86a7 e83b fad2 14bd 46b4 61bc 9513 17bd
000002f0: 9918 70bd cf23 09bc d79e 95bd 1193 3b3c
00000300: e05f 483e 89c4 1fbe 3981 cdbc 4d23 cf3c
00000310: 56e5 64bc 7120 a7bd ca2c 813e 5a2d 123c
00000320: 6568 80bd 0d0d 05bd 3f25 83bc dca0 c8bc
00000330: a8ff b8b7 482c 81bd 896d 013d 7a21 99bd
00000340: 4b33 143d c91a cbbe 0715 86bc 0fa2 2abc
00000350: 64a0 ab3c 5312 55bd 708a 73bd c510 78be
00000360: fb66 78bd 8856 443e 57c7 5d3d 571b 91bd
00000370: 992a 1f3c aaec 903d 8ce9 cfbd 473b b5bc
00000380: f32a 67bb 8103 dfbd 260b 62bd 26c7 363d
00000390: aa49 56bd b338 783d cfce 5fbb c81b 77bd
000003a0: deb9 c6bc 6e22 f43c ec13 8abd fe44 22bd
000003b0: 0227 803d d443 0c3c 0282 83bd c836 21bd
000003c0: 2327 553d f835 423c 66d8 c23c 4a45 f3bb
000003d0: ce38 09be 08d3 893d 781a 8fba c46a a33d
000003e0: ad0f f2bb 6afa 4d3d 4f5b 893d 7a1b ee3c
000003f0: 32c0 06bd cca6 00bc 6d4f 8b3e 5faa 02bc

p_conv1.bias f4 [4]
0.12316335 0.12840647 -0.09695049 0.25972554
00000000: 113d fc3d fc7c 033e fa8d c6bd bffa 843e

p_fc1.weight f4 [64, 256]
-0.017920483 0.019299783 0.024252757 0.012861434 0.00776506 -0.017861923 -0.030363016 0.061139815
0.048161577 -0.025443744 0.009815004 0.025609959 0.011780604 0.10899227 -0.017905798 0.011839612
-0.001735419 -0.05790514 -0.014901561 0.030449798 -0.005731123 0.041023493 0.017524505 -0.06976459
0.014877958 -0.042593926 0.034185037 0.010077008 0.046775002 0.027128471 0.00048043195 -0.022055943
0.07840802 -0.06837196 0.16879368 0.020091653 0.034326795 0.018584214 0.028450029 -0.05249907
0.095809825 0.22393216 -0.085211545 0.041056402 0.00038660885 -0.004958213 0.0048841694 -0.011471514
-1.0112257 0.1530992 0.106731124 0.015168692 0.009126646 0.027011383 -0.0018034747 -0.011703155
-0.054539498 0.09022565 0.11329995 0.08000697 0.036079884 0.0457496 0.021156112 0.021934805
-0.014670432 -0.0321059 -0.11173623 -0.08231974 -0.10678237 -0.10350742 0.014110175 0.069468714
-0.0058557065 -0.028720476 -0.11405792 -0.04820862 -0.11226366 -0.07784589 -0.032886483 -0.00097955
-0.077883616 -0.030693963 -0.06966999 -0.12034373 -0.10895963 0.0035690009 -0.040211707 0.0066603413
-0.16642116 -0.01718752 -0.016114471 -0.21552777 -0.06764066 0.045301348 -0.015418845 -0.037389614
-0.034912113 0.02805165 -0.03623054 -0.06995015 -0.013101176 -0.06340139 -0.01059485 -0.06267337
0.08874194 0.113545425 -0.1508287 -0.15560913 -0.041992344 -0.037486084 0.015546324 -0.05077526
0.23914748 -0.099132024 -0.22276159 -0.013259985 -0.027847204 0.02057947 -0.050531704 -0.059860308
-0.07500837 -0.39599776 -0.21536735 -0.09745555 -0.00192933 -0.039089687 -0.034608245 -0.024560874
0.08645545 -0.0042976867 -0.050274167 0.030356858 -0.016546315 -0.06737357 0.05251874 0.08910464
0.047436573 -0.056000166 -0.033230163 -0.11668253 -0.07881296 -0.08046202 -0.019726 -0.04813846
0.06962919 -0.07127214 -0.01389414 0.002659248 -0.0021519132 -0.048008345 -0.09297956 -0.061409507
-0.054247882 0.015393727 -0.032482825 -0.015289939 0.011801645 -0.06485591 -0.10746519 -0.03512105
0.0032785304 -0.0675859 -0.0038765105 -0.0097919535 -0.05165914 -0.061873153 -0.04461785 -0.054741208
0.16088091 0.017938877 -0.13701358 0.15562914 -0.051312402 -0.060715728 -0.041465536 -0.07008175
0.35510832 0.25717717 0.29983422 -0.08735382 -0.11077632 -0.05735827 -0.027232883 0.012790707
0.18375681 -0.010370385 -0.121447995 -0.072965585 -0.028201887 -0.039454207 -0.0053989287 0.031836014
0.02703535 -0.009957914 -0.02973325 0.061797723 -0.0024676914 0.008405484 0.052227724 -0.03738982
0.0061006784 -0.01980249 -0.006790748 -0.0076021296 -0.015227163 -0.041303772 0.024553739 0.07986457
-0.010960239 -0.043882474 -0.004417067 -0.057106357 -0.11465193 0.10883835 -0.07550712 -0.0376676
0.04500292 0.030687854 -0.03889061 -0.06064419 0.017160347 -0.14342402 -0.09226699 -0.08895103
-0.10389527 0.06714131 0.003683426 -0.15567622 -0.11662443 -0.058888238 -0.030006401 -0.13112698
-0.1945117 0.091588005 -0.33442995 -0.014305876 -0.028849332 -0.029625569 -0.0713927 -0.053940173
-0.025296643 -0.47196722 -0.02144525 -0.016578238 0.0049778307 0.0048143733 0.03759282 -0.0337896
-0.3089116 0.31873557 0.17718984 0.030113397 0.06435959 0.017643275 0.03363095 0.018111465
00000000: facd 92bc 941a 9e3c b8ad c63c c4b8 523c
00000010: 0b72 fe3b 2b53 92bc dcbb f8bc be6d 7a3d
00000020: 1345 453d 666f d0bc 1ccf 203c facb d13c
00000030: 6f03 413c 5737 df3d 2eaf 92bc effa 413c
00000040: 0077 e3ba f12d 6dbd ad25 74bc db71 f93c
00000050: 25cc bbbb 4008 283d 8d8f 8f3c bde0 8ebd
00000060: aec2 733c f876 2ebd 9c05 0c3d 091a 253c
00000070: 2597 3f3d 873c de3c 7ce2 fb39 aaae b4bc
00000080: 6294 a03d 9906 8cbd 40d8 2c3e 4097 a43c
00000090: 419a 0c3d ec3d 983c 0910 e93c 4409 57bd
000000a0: f137 c43d 794e 653e 6483 aebd c22a 283d
000000b0: c3b1 ca39 8178 a2bb 620b a03b 04f3 3bbc
000000c0: d86f 81bf 09c6 1c3e d995 da3d 1b86 783c
000000d0: ee87 153c fa46 dd3c 9262 ecba 97be 3fbc
000000e0: cf64 5fbd 3ac8 b83d ce09 e83d b2da a33d
000000f0: 80c8 133d ef63 3b3d 954f ad3c 9fb0 b33c
00000100: 405c 70bc 7a81 03bd f7d5 e4bd 4097 a8bd
00000110: b7b0 dabd b3fb d3bd 5d2e 673c 9d45 8e3d
00000120: 3ae1 bfbb 3447 ebbc 3397 e9bd 6776 45bd
00000130: 7dea e5bd aa6d 9fbd fab3 06bd 3e64 80ba
00000140: 7281 9fbd e871 fbbc 24af 8ebd c676 f6bd
00000150: 3a26 dfbd e6e5 693b 08b5 24bd fe3e da3b
00000160: 4f6a 2abe d8cc 8cbc 7f02 84bc 50b3 5cbe
00000170: 3087 8abd e88d 393d 539f 7cbc da25 19bd
00000180: 0100 0fbd 93cc e53c 7a66 14bd 0642 8fbd
00000190: 51a6 56bc 97d8 81bd 0696 2dbc e55a 80bd
000001a0: 56be b53d 818a e83d d772 1abe 0058 1fbe
000001b0: 2a00 2cbd 028b 19bd 02b6 7e3c b8f9 4fbd
000001c0: 14e3 743e bb05 cbbd 9d1b 64be 6840 59bc
000001d0: d21f e4bc 4796 a83c 55fa 4ebd 1530 75bd
000001e0: fd9d 99bd 38c0 cabe 4289 5cbe c796 c7bd
000001f0: 93e1 fcba 821c 20bd 60c1 0dbd e333 c9bc
00000200: 8e0f b13d 9cd3 8cbb 49ec 4dbd f2ae f83c
00000210: 238c 87bc 27fb 89bd e41d 573d 7e7c b63d
00000220: da4c 423d 6e60 65bd 5a1c 08bd 40f7 eebd
00000230: b068 a1bd 46c9 a4bd 6c98 a1bc d52c 45bd
00000240: c099 8e3d 21f7 91bd 3fa4 63bc c746 2e3b
00000250: 1d07 0dbb 66a4 44bd 116c bebd 8988 7bbd
00000260: 0733 5ebd f935 7c3c b60c 05bd a782 7abc
00000270: b05b 413c 2dd3 84bd b616 dcbd 17db 0fbd
00000280: 9ddc 563b 7a6a 8abd 0e0d 7ebb 6e6e 20bc
00000290: 8998 53bd b46e 7dbd 35c1 36bd 5138 60bd
000002a0: f7bd 243e 8df4 923c 4a4d 0cbe 3f5d 1f3e
000002b0: f42c 52bd 0eb1 78bd c4d7 29bd 0587 8fbd
000002c0: c2d0 b53e baac 833e df83 993e 8fe6 b2bd
000002d0: b2de e2bd 81f0 6abd 7f17 dfbc 1d90 513c
000002e0: bf2a 3c3e 8ce8 29bc bab9 f8bd fb6e 95bd
000002f0: a507 e7bc bc9a 21bd 7fe9 b0bb 7b66 023d
00000300: 3d79 dd3c 8526 23bc 2593 f3bc 9c1f 7d3d
00000310: feb8 21bb 28b7 093c bdec 553d 1126 19bd
00000320: 33e8 c73b d538 a2bc ec84 debb 491b f9bb
00000330: 5a7b 79bc 252e 29bd ec24 c93c 0990 a33d
00000340: 9392 33bc 1cbe 33bd 0bbd 90bb 5be8 69bd
00000350: a2ce eabd a4e6 de3d 7aa3 9abd 5749 1abd
00000360: fb54 383d 1865 fb3c c34b 1fbd 0b66 78bd
00000370: db93 8c3c bfdd 12be 7af6 bcbd f52b b6bd
00000380: 0bc7 d4bd 6281 893d a265 713b 9669 1fbe
00000390: cad8 eebd cb34 71bd fccf f5bc 2746 06be
000003a0: 132e 47be 7e92 bb3d 673a abbe 3163 6abc
000003b0: 6f55 ecbc 52b1 f2bc 5636 92bd 5ff0 5cbd
000003c0: e83a cfbc b0a5 f1be f3ad afbc 16cf 87bc
000003d0: 121d a33b e4c1 9d3b eefa 193d f766 0abd
000003e0: a929 9ebe 4f31 a33e 4171 353e 5fb0 f63c
000003f0: f6ce 833d a188 903c 9bc0 093d 7f5e 943c

p_fc1.bias f4 [64]
-0.06404934 -0.08102758 -0.1116143 -0.060632758 -0.136356 -0.14703572 -0.09159159 -0.08437041
-0.04169777 -0.073602155 0.05092642 0.06608495 0.0031127876 0.0029157149 -0.164022 -0.034133077
-0.061090566 0.05784329 0.26711422 0.073086694 0.024065703 0.23237742 -0.004399295 -0.051775895
-0.10002205 0.025026055 0.11718175 0.17622079 0.15421021 0.033648673 0.028614514 -0.061400622
-0.08411223 -0.048788145 0.025876785 0.21639536 0.18659712 0.034532752 -0.025281042 -0.046406407
-0.09200743 0.006233458 0.28088772 -0.0219665 0.0006374335 0.3182462 0.043098 -0.015336864
-0.070397526 -0.11485518 0.06609178 0.029440075 0.008023267 0.03703506 -0.10394081 0.017281402
-0.09289384 -0.13455352 -0.16551693 -0.13186096 -0.1003699 -0.0811235 -0.059369415 -0.006683696
00000000: 4d2c 83bd caf1 a5bd 0a96 e4bd 0e5a 78bd
00000010: e8a0 0bbe 8890 16be 5f94 bbbd 65ca acbd
00000020: 48cb 2abd babc 96bd 3998 503d 8c57 873d
00000030: e9ff 4b3b 9415 3f3b 62f5 27be 20cf 0bbd
00000040: 1a3a 7abd 16ed 6c3d 32c3 883e 7aae 953d
00000050: 7025 c53c 59f4 6d3e f627 90bb f612 54bd
00000060: 5cd8 ccbd 7103 cd3c fcfc ef3d 3973 343e
00000070: 48e9 1d3e 31d3 093d fc68 ea3c 387f 7bbd
00000080: 0843 acbd 14d6 47bd 8dfb d33c bf96 5d3e
00000090: 5113 3f3e 3772 0d3d 301a cfbc a514 3ebd
000000a0: 646e bcbd 0942 cc3b 84d0 8f3e 17f3 b3bc
000000b0: 7019 273a 2af1 a23e 8787 303d 7847 7bbc
000000c0: 942c 90bd 3139 ebbd 215b 873d 502c f13c
000000d0: 0574 033c 13b2 173d ebde d4bd ba91 8d3c
000000e0: 203f bebd 66c8 09be 457d 29be 8f06 07be
000000f0: bc8e cdbd 1424 a6bd 582d 73bd e802 dbbb

value_conv1.weight f4 [2, 128, 1, 1]
-0.44833404 -0.83288276 0.089999214 0.057427622 0.09313422 -0.2745337 -0.3790669 0.1071902
0.16630882 0.12246048 -0.18509129 0.058132175 0.2876632 0.18660167 -0.010103903 -0.16834539
-0.051505126 0.0649476 0.27709526 -0.55507374 -0.45704362 0.32619745 -0.6238882 -0.81623054
0.022529557 -0.4579366 -0.042964675 -0.14565922 0.14344783 -0.58529735 0.13223255 0.09118327
0.12171984 -0.18477944 -0.45493123 0.04747736 0.005587845 0.07604486 0.33294046 -0.042548377
0.23856987 -0.5827477 0.09783918 -0.67107284 0.34116685 -0.37964162 0.28333536 -0.72965217
-0.6292707 0.108468205 -0.107080385 -0.25855014 0.16132277 0.17980394 -0.4883629 -0.58756924
-0.079255976 -0.55987555 0.06636749 -0.4509719 0.20579974 0.26221004 -0.16436702 -0.26601467
-0.016806962 0.055548623 -0.062604815 -0.49512586 -0.04956714 0.23838572 0.026960447 -0.49254048
-0.54337156 0.21515118 0.2966855 0.14557439 0.25947455 -0.6759441 -0.10049346 0.2804974
-0.3995093 0.040395204 0.32122216 0.27492553 0.062714666 0.18455282 0.041374046 -0.05947833
0.09258672 0.017011382 0.100521274 0.012123364 0.12835786 0.14701344 -0.47478113 0.011440671
-0.610623 0.005872925 0.08917219 -0.22785698 -0.038176708 -0.33045217 -0.61794335 0.1687331
0.064155534 -0.024022399 -0.6692647 0.27129486 -0.6123487 -0.1650628 -0.56906384 -0.6218493
0.09539475 -0.19648142 -0.0038009807 0.22260576 -0.019428194 -0.20263286 -0.49383995 0.08292082
-0.6850175 0.054369498 -0.440788 0.24462031 0.07878206 -0.32049286 -0.04358562 -0.79010254
-0.13147473 0.063264385 0.18652743 0.122372724 -0.7252034 -0.61618143 -0.82664824 0.14640678
0.019700456 -0.4879142 0.16431357 -0.6569541 -0.36629936 -0.5763108 -0.4429289 -0.6459857
0.18976314 -0.28737292 -0.44805995 0.048257817 0.14682369 -0.38633737 0.048157226 -0.013891763
-0.68445057 0.042214684 -0.33489317 0.12234193 -0.6803397 0.11170382 -0.48570356 0.22102
-0.031612363 -0.83758545 0.08865473 0.08154492 -0.6191415 -0.41152704 0.3463821 -0.60635847
-0.47470137 0.03386226 0.2791029 0.1007077 -0.5981676 -0.35930443 0.14855148 0.074629866
0.055007238 0.083952054 -0.6298121 -0.6759393 0.047136515 0.15684 -0.039397124 0.088817075
-0.5669444 -0.03794637 -0.5185356 -0.3056468 0.1825847 0.2490526 -0.076556616 0.51465875
-0.0002921653 0.03250292 -0.39984983 -0.02047125 0.14271258 -0.07039072 0.0012479007 0.17643031
0.07747098 0.23077975 0.19169466 -0.2781912 -0.6271479 0.45490894 -0.78520995 -0.5287996
0.09933974 0.090979025 -0.61542434 0.27380663 -0.6718908 0.28589305 -0.31042525 -0.04179331
-0.41354588 0.025620945 -0.49025822 0.020008545 -0.68834704 -0.7699715 0.07540963 -0.50415814
-0.0661702 -0.5352404 -0.54328483 -0.5110975 -0.011197865 0.047234423 0.09958025 0.36012018
-0.51349545 -0.76781285 0.05182123 0.288042 -0.11066025 0.05051217 0.0011146099 0.15044504
-0.6408766 -0.24246249 -0.3078769 -0.34538734 0.13815817 0.27646708 0.37262678 0.33597577
0.30348888 -0.49506605 -0.38923326 0.24839078 0.287057 0.14709496 -0.048400015 0.23773819
00000000: 0a8c e5be ce37 55bf 8251 b83d 3a39 6b3d
00000010: 27bd be3d ae8f 8cbe 0f15 c2be 8986 db3d
00000020: dc4c 2a3e 8fcc fa3d 9288 3dbe 011c 6e3d
00000030: 9748 933e 8214 3f3e d78a 25bc bc62 2cbe
00000040: 0af7 52bd 3f03 853d 6edf 8d3e 5019 0ebf
00000050: 9f01 eabe 5a03 a73e 23b7 1fbf 7cf4 50bf
00000060: e88f b83c ab76 eabe bafb 2fbd b127 15be
00000070: fde3 123e 0cd6 15bf f867 073e 4bbe ba3d
00000080: 4048 f93d d236 3dbe bfec e8be 9f77 423d
00000090: 3e1a b73b 68bd 9b3d 2c77 aa3e 3547 2ebd
000000a0: a94b 743e f42e 15bf e85f c83d 6ecb 2bbf
000000b0: 6cad ae3e 6360 c2be 5511 913e 7cca 3abf
000000c0: e217 21bf 9424 de3d f64c dbbd af60 84be
000000d0: cc31 253e 861e 383e b40a fabe f06a 16bf
000000e0: f550 a2bd 0154 0fbf aeeb 873d cae5 e6be
000000f0: 2bbd 523e 6540 863e d44f 28be 1333 88be
00000100: c1ae 89bc f486 633d f436 80bd 2381 fdbe
00000110: ea06 4bbd 631b 743e 28dc dc3c 442e fcbe
00000120: 661a 0bbf 9750 5c3e 29e7 973e 7411 153e
00000130: d9d9 843e ac0a 2dbf 84cf cdbd 5b9d 8f3e
00000140: 7c8c ccbe 7175 253d 3b77 a43e 0ac3 8c3e
00000150: 8c70 803d 6afb 3c3e d577 293d 8d9f 73bd
00000160: 1b9e bd3d 745b 8b3c 19de cd3d 13a1 463c
00000170: 3e70 033e b18a 163e 8316 f3be a771 3b3c
00000180: ca51 1cbf aa71 c03b e99f b63d 5753 69be
00000190: 2e5f 1cbd 0731 a9be 8931 1ebf 5fc8 2c3e
000001a0: fa63 833d 9fca c4bc ee54 2bbf 29e7 8a3e
000001b0: e2c2 1cbf 3906 29be 2bae 11bf 8431 1fbf
000001c0: 535e c33d 6d32 49be e019 79bb c4f2 633e
000001d0: e027 9fbc fd7e 4fbe 97d8 fcbe 64d2 a93d
000001e0: 4f5d 2fbf 8db2 5e3d f7ae e1be bf7d 7a3e
000001f0: 7d58 a13d a417 a4be d686 32bd 2944 4abf
00000200: 50a1 06be c290 813d 0c01 3f3e 8d9e fa3d
00000210: eea6 39bf 11be 1dbf 389f 53bf a9eb 153e
00000220: da62 a13c e4cf f9be d141 283e 252e 28bf
00000230: 978b bbbe 1b89 13bf 94c7 e2be 525f 25bf
00000240: 4551 423e 8b22 93be 1d68 e5be fda9 453d
00000250: f358 163e 03ce c5be 8340 453d 479a 63bc
00000260: 2738 2fbf 4ee9 2c3d 1e77 abbe 688e fa3d
00000270: be2a 2ebf f9c4 e43d 23ae f8be 1153 623e
00000280: f77b 01bd 006c 56bf 9c90 b53d 0601 a73d
00000290: 0f80 1ebf acb3 d2be ff58 b13e 4f3a 1bbf
000002a0: 0f0c f3be 27b3 0a3d 93e6 8e3e d73f ce3d
000002b0: 8321 19bf c0f6 b7be e11d 183e 8bd7 983d
000002c0: 454f 613d 0eef ab3d 5e3b 21bf 5c0a 2dbf
000002d0: 3812 413d aa9a 203e e15e 21bd bae5 b53d
000002e0: 4523 11bf a76d 1bbd c0be 04bf bd7d 9cbe
000002f0: 7cf7 3a3e a507 7f3e b7c9 9cbd adc0 033f
00000300: c32d 99b9 c821 053d 1eb9 ccbe 53b3 a7bc
00000310: 3f23 123e 0329 90bd 9990 a33a 26aa 343e
00000320: 1ba9 9e3d 8751 6c3e 9b4b 443e 146f 8ebe
00000330: c48c 20bf d3e9 e83e 8503 49bf 695f 07bf
00000340: a272 cb3d 3653 ba3d 738c 1dbf 6230 8c3e
00000350: 0901 2cbf 9360 923e 0ff0 9ebe 762f 2bbd
00000360: 49bc d3be 04e3 d13c 2003 fbbe f6e8 a33c
00000370: 8337 30bf da1c 45bf 5d70 9a3d 8210 01bf
00000380: 3e84 87bd 8405 09bf b714 0bbf 49d7 02bf
00000390: 4077 37bc e278 413d bbf0 cb3d ac61 b83e
000003a0: 7074 03bf 628f 44bf 8042 543d 3e7a 933e
000003b0: d7a1 e2bd d9e5 4e3d 1a18 923a 440e 1a3e
000003c0: 7d10 24bf 1648 78be 0ba2 9dbe 9cd6 b0be
000003d0: 5679 0d3e 188d 8d3e f0c8 be3e 0405 ac3e
000003e0: e562 9b3e 4c79 fdbe 9549 c7be 275a 7e3e
000003f0: 23f9 923e 10a0 163e 183f 46bd a471 733e

value_conv1.bias f4 [2]
0.04854933 0.16922562
00000000: aadb 463d 7b49 2d3e
