model/cnn/8x8/4aw/other0/_8.pt (torch_old, 478657 bytes, 15 tensors)

conv1.weight f4 [32, 4, 3, 3]
000000 78 c6 c4 be d6 e8 0f 3e ee d6 05 3e 85 38 b9 3e
       -0.3843267 0.14053664 0.1307027 0.36175933
000010 f1 a5 a3 bd 81 35 f2 be 54 67 82 be 7f 37 87 3e
       -0.07990635 -0.47306445 -0.25469458 0.26409528
000020 f6 dd 1e 3c 94 7d 82 3d 26 5c 70 be 1c 54 b6 3b
       0.009696474 0.063716084 -0.23472652 0.005564226
000030 ae f4 18 3f 92 34 69 be 24 53 8d be a4 10 86 3e
       0.5974835 -0.2277396 -0.27602494 0.2618457
000040 8b 5f 1f 3e e0 3e a9 3e 1a 08 14 3e 97 39 e8 3c
       0.1556379 0.33055782 0.14456216 0.028347773
000050 c8 c7 74 be 7c a1 af 3b 07 d0 35 3e 0c 5f 5a 3d
       -0.23904335 0.0053598266 0.17755137 0.0533133
000060 cc f5 79 3b 22 89 f6 bc 59 a7 f0 3c d6 db 20 be
       0.003814089 -0.030094687 0.029376673 -0.15708861
000070 0f 3c 91 bd 5b 24 c7 bd 12 57 89 bc 97 25 89 3c
       -0.070915334 -0.09723731 -0.016765151 0.016741557
000080 cf 5e 42 3e 1c 5c 16 bb 32 93 0b 3d 2e c4 f8 3d
       0.18981479 -0.0022943085 0.034075923 0.12146793
000090 22 b4 47 3f cd 16 0f 3e 4f 5b af 3e 52 42 d4 3d
       0.78009236 0.13973542 0.3424935 0.10364212
0000a0 0d 87 8c bd cc 9f e5 bc e7 33 13 bd 0e 9a 87 be
       -0.068616964 -0.028030299 -0.03593817 -0.26484722
0000b0 ff 24 68 be 68 9a 55 bf 00 b3 8e 3e f6 d3 07 bf
       -0.22670363 -0.8343873 0.2787094 -0.530578
0000c0 9e 9e a1 3d 8e 91 c9 3e 01 ec 9e 3d 51 57 fa 3d
       0.07891582 0.39368862 0.07759858 0.122236855
0000d0 a3 36 1d 3d ba dc 54 bd 6e fa 54 3c be c4 04 3e
       0.038382184 -0.051968314 0.01299916 0.12965676
0000e0 64 6f 87 be eb b7 1b be d1 9f bc bd 0a f7 a2 bd
       -0.26452172 -0.15206878 -0.0921017 -0.07957275
0000f0 7c 15 83 3c 7f a6 97 3c bb f5 ab 3d 23 62 b8 bd
       0.016001455 0.018512009 0.08396479 -0.09003093
000100 d4 14 04 bc 07 14 bd 3d 7f 6a 2d bd b6 3e 8f 3d
       -0.008061606 0.092323355 -0.04233789 0.06994383
000110 80 4a dd 3a 88 19 7d bc eb cd f9 b8 92 d6 58 3d
       0.0016883165 -0.015447982 -0.000119116004 0.052939005
000120 e3 0e ac 3d 5e 6a 37 3f 81 17 62 bd bf 66 6a 3e
       0.08401277 0.7164668 -0.055198196 0.22890757
000130 1b b0 c6 be d4 c2 ef 3c 4e 48 1c 3d de 3a ec 3e
       -0.38806233 0.029267706 0.038154893 0.46138662
000140 63 34 76 3d a2 b3 f0 bd 57 20 c2 bc 9c e2 e7 bd
       0.060108554 -0.11753012 -0.023697061 -0.11322519
000150 39 ce b4 3d 56 cd aa bb 37 9d e5 3e fc 45 62 be
       0.08828396 -0.005212466 0.44846508 -0.2209701
000160 d5 2a e6 bd 7d 80 48 bc 2b 48 1f 3b 0d 95 f7 bd
       -0.11238638 -0.012237665 0.002430449 -0.12088976
000170 b7 27 be bd 9a d9 04 3e 56 01 8f 3d e8 18 3e bd
       -0.09284919 0.12973633 0.06982677 -0.04641047
000180 d0 44 9e bd d5 4d e4 bd 60 5c de bc 06 e4 95 bd
       -0.07727969 -0.11147658 -0.027143657 -0.07318883
000190 1e 1e 31 3e 59 ef 87 bd 73 f8 03 3d fc 4e 10 bd
       0.17296645 -0.06637449 0.03221936 -0.035231575
0001a0 b1 bd 85 be f6 3b 16 3d af d8 ce 3d f2 63 06 bd
       -0.26121286 0.036678277 0.10099923 -0.03281016
0001b0 dc e4 56 3d f7 ef 2d 3d 4a a4 eb 3d e1 17 bf 3e
       0.05246435 0.042465176 0.11505945 0.37322906
0001c0 2e 45 18 3f 93 0a b4 bd e5 6f 0d 3f 03 7f 12 3f
       0.5948056 -0.08791079 0.5524886 0.57225055
0001d0 31 eb a4 3c 6f ac ae 3d 1e 34 0c 3e 33 d3 d8 3d
       0.02013168 0.08528983 0.13691756 0.10587158
0001e0 94 56 fe bc b4 bf 2e 3e c0 44 02 3d 90 c2 ca be
       -0.031047143 0.17065316 0.031803846 -0.39601564
0001f0 e2 a0 98 bd 87 a6 6e 3e bf d7 6c 3d 71 f1 88 3d
       -0.07452561 0.23305713 0.05782294 0.06686676
000200 df a6 17 3e cb 3f 34 bd 5e ca 1f be bc e8 d8 3b
       0.1480975 -0.04400615 -0.1560454 0.006619541
000210 de 68 d6 bd c2 e7 b4 bd b2 10 8a bc e2 4f 16 3d
       -0.104692206 -0.08833267 -0.016853664 0.036697276
000220 80 d2 9a bd da 59 09 be 8a bb e8 3c 1a 71 33 3d
       -0.07559681 -0.13413182 0.028409738 0.043809034
000230 67 11 db 3d c3 a5 1a bb 90 ad d6 3d 67 7c b3 3d
       0.106966786 -0.0023597337 0.10482323 0.08763962
000240 b4 f4 86 be ae a4 a0 bc 34 65 28 be 08 98 5c be
       -0.2635857 -0.019609775 -0.16444856 -0.2154237
000250 c4 44 e8 bd df ae a1 be 09 f3 7d be 9c 03 e0 3e
       -0.11341241 -0.3157873 -0.24799742 0.43752754
000260 22 e4 17 3c e8 b0 b1 bd 3d 64 80 be 01 4c 86 be
       0.0092707 -0.0867632 -0.25076476 -0.2622986
000270 24 bc f8 bd fe 2c 29 3e 96 79 7d 3e df fc 37 3d
       -0.1214526 0.1652107 0.24753413 0.04491889
000280 51 fe df be 68 b2 a6 bb 91 ee 06 3d cc 87 3c 3e
       -0.43748716 -0.0050871857 0.03294236 0.18411177
000290 13 63 11 3e 88 98 e6 3c b7 8c 9d bc f3 64 67 be
       0.1419795 0.028148904 -0.019232137 -0.22597103
0002a0 be e3 82 3b 2c 18 60 bd 89 e3 e0 bc f7 0e 7c be
       0.003994434 -0.054710552 -0.027452247 -0.24615084
0002b0 47 09 1c 3d b2 93 32 3e 82 2e a1 be d2 6e 7c 3d
       0.038094785 0.17439154 -0.31480795 0.061629124
0002c0 84 9a 00 3e 5b 48 7b be 27 26 93 3d 26 ba af 3c
       0.12558943 -0.2453932 0.07185011 0.021451067
0002d0 ce 8f 54 3e 39 51 77 be c3 4e c1 bd 03 5a 45 bc
       0.20757982 -0.24152078 -0.09438851 -0.012045386
0002e0 5a c0 b2 3c 09 33 a0 3e 3f 24 32 be 6b 02 1c 3e
       0.021820236 0.31288937 -0.1739664 0.15235297
0002f0 7f 6a a4 be 49 7a 1f be f8 fe 00 bd 9b 5c 92 3d
       -0.321125 -0.15573992 -0.031493157 0.07146569
000300 6c 27 d5 3a 0e 07 15 3e 7f 53 24 be 85 bc 77 be
       0.0016262359 0.14553472 -0.16047476 -0.24193008
000310 21 39 91 3d b3 1c 1e 3f 0d 54 65 be a6 68 f5 bd
       0.070909746 0.6176254 -0.22395344 -0.11982851
000320 6f ec 4a bd 42 65 80 bb e5 f3 2b be fb ad 70 bc
       -0.049541887 -0.003918321 -0.16792257 -0.014689918
000330 98 f2 28 bd fa 7f 75 3c 4e f6 96 be 12 cf 75 be
       -0.04124698 0.014984125 -0.2948479 -0.24004772
000340 5e 79 ad be d5 0f 55 be 3a 10 8b 3e 09 81 10 bc
       -0.33881658 -0.2080682 0.27160817 -0.008819827
000350 fc b4 12 bd ba 32 74 3e c8 99 6b 3c 63 32 3e 3e
       -0.03581713 0.23847476 0.014379926 0.18573909
000360 25 62 70 be 8b 15 a0 3c eb cd 3a bd c4 8f 80 be
       -0.23474939 0.019541522 -0.045606535 -0.25109684
000370 51 22 1b 3f 27 61 b1 be 83 cf e5 3e 5b ae d8 3d
       0.6059924 -0.34644434 0.4488488 0.10580131
000380 d4 96 a2 bd bf 60 cd bd e0 30 d9 be 16 7c 89 bd
       -0.079389244 -0.100282185 -0.424201 -0.06713121
000390 9e bf 33 3f 9b b0 b2 bd 41 b9 72 be d4 6f 66 3d
       0.7021426 -0.08725091 -0.23703481 0.05625899
0003a0 8c 5a 96 be a0 52 22 be 44 e9 a5 3d c6 5d 13 bd
       -0.29365957 -0.15851831 0.081011325 -0.0359781
0003b0 8a 83 31 bd 49 64 fc bd b1 8a dc 3d fb 4e b3 bc
       -0.043338336 -0.123238154 0.10768641 -0.021888247
0003c0 25 6d 03 3e 6b f0 2d bd bc 25 26 3e 36 e6 e1 3c
       0.12834604 -0.04246561 0.16225332 0.027575593
0003d0 a4 cd cf 3d 92 9c a2 3d 45 3a f7 3a 55 00 d4 bd
       0.10146645 0.0794002 0.001886197 -0.10351626
0003e0 c3 32 a1 3d 4f 6c d6 bd af 6b c4 bd a6 ea 84 3c
       0.0787101 -0.10469877 -0.095908515 0.01622517
0003f0 fa da 95 3e 2f bd 15 bd 56 84 05 3f 3a fe 6d 3d
       0.29268628 -0.036557373 0.52155054 0.058103777

conv1.bias f4 [32]
000000 c8 31 d8 3c f7 2f cd bd 1c 85 15 be ef 6b b7 be
       0.026390925 -0.10018914 -0.14601558 -0.35824534
000010 12 be 23 3e 2d 3f 7f 3e 3e a6 cd bd 5a 22 bf bd
       0.15990475 0.24926443 -0.10041474 -0.09332724
000020 39 51 ea 3d 07 d9 f6 3d 39 2a f4 bd 43 fd 27 be
       0.11441273 0.120531134 -0.11922116 -0.16405205
000030 f2 01 a4 be 5d 7d 6d be 90 1c 20 bd 3b 4a b0 bd
       -0.32032734 -0.23192354 -0.03908974 -0.08607908
000040 81 a3 1d bd 15 8c 27 3c 53 39 be bd 6c 8b 80 3e
       -0.038486008 0.010226269 -0.092882775 0.2510637
000050 55 67 6a bc df 57 ac 3e 2c 22 24 be 01 46 95 be
       -0.014306863 0.3366079 -0.1602866 -0.2915497
000060 17 d7 4c bd be 41 e2 3b f0 2d 57 be 03 5c 08 be
       -0.050009813 0.0069048097 -0.21013618 -0.1331635
000070 ab 7c 1b 3c a2 99 e1 3c 37 b7 a7 bd 08 f9 1b be
       0.009490172 0.027539078 -0.08189242 -0.15231717

conv2.weight f4 [64, 32, 3, 3]
000000 95 c7 a4 3d 24 46 a0 bd 57 e2 e8 3d 5c eb 5b bd
       0.0804588 -0.07825878 0.11371296 -0.053691253
000010 55 e6 68 be 2b 7f 90 3d 7f 9a 86 bd 92 c4 24 3e
       -0.22744115 0.07055505 -0.065724365 0.1609061
000020 0c 95 a2 3e 0c 22 3b 3d 74 23 d4 bd 9c 7f 61 be
       0.3175434 0.045686767 -0.10358325 -0.22021335
000030 bd 42 1b be 8e 46 9c bd b0 d6 7a bc 1a 3f 89 bd
       -0.15162177 -0.07630645 -0.015309975 -0.06701489
000040 0e 68 c1 3d ab 9d 1a 3e 19 93 05 3e b7 f0 fd bd
       0.09443675 0.15099208 0.13044395 -0.12399428
000050 de ed d4 bc 08 cb 37 3e 3e ea 0c 3e ff 8b 89 be
       -0.02599233 0.17948544 0.13761231 -0.2686462
000060 30 3f 19 bd c9 7c 23 3e 6f 82 b2 bd 99 77 2d 3e
       -0.037413776 0.1596557 -0.087162845 0.16940154
000070 3e 8e 77 3c 09 c8 f6 bd a4 62 88 bd 1a 5f ba bd
       0.015109597 -0.120498724 -0.06659439 -0.091001704
000080 73 9b 4d be d0 99 35 be b8 84 b0 bc d9 41 a9 be
       -0.2007883 -0.17734456 -0.02154766 -0.3305805
000090 96 b1 f6 3d 51 1b 20 3d 36 2a 5e 3e bf 23 e3 bd
       0.120455906 0.03908855 0.2169579 -0.110908024
0000a0 44 76 18 3d b3 a5 95 bc 77 5c bf bd 09 23 ad bd
       0.037222162 -0.018267488 -0.09343808 -0.08453948
0000b0 49 48 82 3d 26 a6 18 3e e1 38 21 3e 53 1e 77 be
       0.063614435 0.1490713 0.15744354 -0.24132662
0000c0 42 88 af bd af ba 20 bd e5 49 a4 bd c4 0f 88 3e
       -0.08570911 -0.039240535 -0.08021907 0.26574528
0000d0 b5 2c 20 3e 2f 79 ab 3c ca c8 a8 bd 61 9e a4 3d
       0.15642054 0.020931808 -0.082414225 0.08038021
0000e0 11 f1 07 3e 79 e6 fa bd 9a ec 96 be 69 1f 7c be
       0.13275553 -0.122509904 -0.29477388 -0.24621357
0000f0 6a ff 85 bd 1e 56 bf bd 90 83 ce ba fd 2e 85 bd
       -0.06542857 -0.093425974 -0.0015755761 -0.06503103
000100 a8 06 b2 bb 0b a3 e6 bd 03 70 24 bd 3e 25 d0 bd
       -0.0054329224 -0.11261567 -0.040145885 -0.101633534
000110 1d 3a 10 3e 61 a4 d9 3c 1e 3d 40 be 27 a5 57 be
       0.14084668 0.02656764 -0.18773314 -0.21059094
000120 f2 65 21 3e b5 76 1b be 37 83 42 3e ee 80 e6 3d
       0.15761545 -0.15182002 0.18995367 0.1125506
000130 23 cb 5d 3c 9c 33 de bc e3 5f 3e 3e dc b3 64 3e
       0.013537201 -0.027124219 0.18591265 0.22334236
000140 2f bc 9b 3d 81 ce 31 bd 89 5c 86 be 7a 2a 6c bd
       0.076042525 -0.043409828 -0.26242474 -0.057657696
000150 45 7d c2 3b 90 76 5f 3d d7 ab 8d 3d 87 7a 91 bd
       0.0059353434 0.05455643 0.069175415 -0.07103448
000160 6e 1f e3 3d 8a 60 72 3e 2c 00 47 bd ef e0 c7 bc
       0.11089979 0.23669639 -0.04858415 -0.024399249
000170 c8 51 5b bd a9 d4 ad 3c b6 b2 03 bd bc 1e 90 be
       -0.05354479 0.021219568 -0.032152854 -0.28148448
000180 14 6e 66 bd 9b ce 25 bb 59 f3 7d 3e 8b ce 63 3e
       -0.056257322 -0.0025300148 0.24799861 0.22246759
000190 bf 05 d2 3d 7f 6a 03 bd e1 a4 8a bd 5c 45 f6 3d
       0.10255002 -0.032083984 -0.067697294 0.12024948
0001a0 c1 33 fb be da 30 76 3d 67 a3 f1 3d 2a 8f cd bd
       -0.49062923 0.060105182 0.11798745 -0.10037072
0001b0 49 e0 d3 3a ed 76 ce 3d 3a 79 f3 bc 65 83 95 bc
       0.0016164865 0.10081277 -0.029720891 -0.01825113
0001c0 47 f5 89 be a7 11 8d bd 54 22 7e be 59 b0 83 3a
       -0.26944944 -0.068881325 -0.24817783 0.0010047063
0001d0 16 7f fb bc 7b 86 18 bd f9 87 6e 3d c5 c9 25 bd
       -0.030700248 -0.037237626 0.058235142 -0.040475626
0001e0 7f 14 4a 3c fe 85 20 3e 2f c0 24 be b7 1b 87 be
       0.012333988 0.15676114 -0.16088937 -0.26388332
0001f0 8e 34 24 3e 62 5b 05 be 39 c5 2b be c3 2f 8e 3e
       0.16035673 -0.13023141 -0.16774453 0.27770814
000200 bb 6e 8f bd 18 ea 9b bd f9 2d 6e bd f6 8d bb 3d
       -0.07003542 -0.07613009 -0.05814931 0.09157936
000210 23 60 38 bd 5e da e5 bd f8 42 2c 3e 77 6d 55 3d
       -0.045013558 -0.11223291 0.16822422 0.052106347
000220 de b0 c4 bd ef 0b b9 bd 0e 07 9e 3e d4 2b d3 bc
       -0.09604047 -0.09035479 0.30864757 -0.025777735
000230 24 94 4e 3e 9d d4 30 be 81 66 eb 3c fd 77 59 3e
       0.20173699 -0.17268606 0.028735401 0.21237178
000240 13 a2 d4 bb 1f 4b 8c 3d c0 95 0e be 28 bc e6 bd
       -0.0064890473 0.06850266 -0.13924313 -0.11266357
000250 38 4a cd 3d 35 c8 65 be 9c 8b 3d 3d 81 4b 02 3e
       0.10023922 -0.22439654 0.04627572 0.12724115
000260 97 42 34 3d ed 8d 86 bd ef c1 33 3e a0 cb 04 3e
       0.044008818 -0.06570039 0.17554449 0.12968302
000270 86 39 5f be a4 f0 54 3e 43 d7 5a 3e 67 d3 c4 bc
       -0.21799287 0.20794922 0.21371178 -0.024026586
000280 55 11 9a bb 2e 22 92 3d 0f 31 c7 3d cb 35 05 3d
       -0.004701773 0.071354255 0.09726154 0.032522004
000290 2a 31 7e bd 5d 75 44 be 2c d0 9a bd 21 da 22 be
       -0.062058605 -0.19185396 -0.07559237 -0.15903522
0002a0 83 13 cf bc dc 53 42 3d ce 37 69 3d 95 e7 f8 3d
       -0.025277859 0.047443256 0.056937985 0.12153546
0002b0 6a 3b ba 3e 45 ab 4b bd 08 d4 ac 3d 7c e8 69 3d
       0.36373454 -0.049723882 0.08438879 0.05710648
0002c0 ed b5 48 bc 5e d8 28 be 81 e7 5e bd 9e d8 88 be
       -0.012250406 -0.16488788 -0.054419998 -0.26727766
0002d0 36 79 49 bd 13 00 3f 3e fd eb aa bd 2c c7 a5 3d
       -0.04918786 0.18652372 -0.083457924 0.0809463
0002e0 17 22 38 be 53 5f d0 3d dc a5 8b bd 92 c1 57 3e
       -0.17981754 0.10174432 -0.068187445 0.21069935
0002f0 85 29 fe bd 85 87 14 3e 54 8e bf 3d 50 85 00 be
       -0.12410263 0.14504822 0.09353319 -0.12550855
000300 1a 6b 95 3c 6c 1c fe bd 25 4c a0 3d 38 72 51 bd
       0.018239547 -0.12407765 0.078270234 -0.051134318
000310 e6 62 e0 bd fa be ac 3c b6 bd 0f be d7 15 42 be
       -0.109563634 0.021087158 -0.14037213 -0.18953644
000320 0e 13 4e 3d 4d 16 b6 bd 53 fe b5 3c c2 97 ad bd
       0.05031114 -0.08890972 0.022215998 -0.08476211
000330 65 17 2b 3e 37 c6 d8 3a 88 73 28 3d bd a4 ad bd
       0.16708143 0.0016538565 0.041125804 -0.08478687
000340 d6 b0 ad 3d 02 df ac be 5e 08 cb bc 2f 6f a8 bd
       0.084809944 -0.3376389 -0.024784263 -0.082243316
000350 dc 0a 2c 3d 92 0b f1 3d d5 af 0d be 10 2f 35 bc
       0.042002544 0.11769785 -0.13836606 -0.011058584
000360 81 ed 46 bc 86 13 be bd 98 83 30 be 91 0c 18 3d
       -0.012141586 -0.092810676 -0.17237699 0.03712136
000370 93 68 ca 3d 4a 37 40 be 31 7c 67 3c 9e b8 0e 3e
       0.09883227 -0.18771091 0.014128731 0.13937613
000380 84 3e 88 3e 2a a8 b5 bb 3c 09 c2 3e c1 d6 b2 bc
       0.26610196 -0.0055437284 0.3789767 -0.021830918
000390 d5 3b 7a 3e 69 64 43 be f8 c2 05 be d8 74 c0 bd
       0.24436887 -0.19081272 -0.13062656 -0.09397286
0003a0 91 b8 41 be 2b 61 ad bd b9 43 93 3d 8a 3b f2 bd
       -0.18918063 -0.08465799 0.071906514 -0.118277624
0003b0 48 45 21 be 48 d5 29 be ee 13 aa 3a 18 60 ba 3b
       -0.15749085 -0.16585267 0.001297591 0.005687725
0003c0 80 46 27 3d 8c 5f 26 bd 31 86 91 3d 31 6f d4 3c
       0.04083872 -0.040618464 0.07105673 0.025931926
0003d0 98 a3 6a 3d b4 b5 1b be 7a 2f ca 3d 2a 55 2f be
       0.05728492 -0.15206033 0.09872337 -0.17122331
0003e0 85 ed aa bd 4d 94 a7 3d ac 3f 00 3e 2e 04 c7 3d
       -0.083460845 0.08182583 0.12524289 0.09717594
0003f0 e9 b8 2a bd 46 35 39 3e ea 0a 3a be f4 8e af bd
       -0.04168025 0.18086728 -0.18168226 -0.08572188

conv2.bias f4 [64]
000000 3c a8 fe bd 7e 28 2d bd 5a 21 0c be 2d c8 2a 3d
       -0.12434432 -0.042274944 -0.13684598 0.04169481
000010 98 59 31 be 20 1e ed bd 1d b1 0d bc cc dd e7 bd
       -0.17319334 -0.115780115 -0.008648184 -0.11321601
000020 68 be c0 be 4d 53 11 be e1 e0 e2 bb c6 49 37 be
       -0.37645268 -0.14191933 -0.0069237803 -0.17899236
000030 a1 57 f8 bd 8d 01 1f 3c 41 aa 61 be 3f 7c 03 be
       -0.12126089 0.00970496 -0.22037603 -0.12840365
000040 44 7c bc be d4 8d 65 3d 5f 82 f9 bd 2c b4 a5 bd
       -0.36813557 0.05604346 -0.121830694 -0.08091006
000050 9b 17 08 ba 31 2f 0a 3c 89 24 82 be d6 21 71 3d
       -0.0005191506 0.008434103 -0.254185 0.05887016
000060 09 3c dd 3d 5c 95 9e bd bb d6 13 be 0e 31 43 3d
       0.108024664 -0.07743332 -0.14437382 0.047654204
000070 47 74 1b bd be ca 21 bd f0 a9 a9 bd ae cb f9 bd
       -0.037952688 -0.03949999 -0.08284366 -0.12197052
000080 b7 6f f3 bc b4 75 8a bd e9 ec c5 bd a2 19 2a bd
       -0.029716356 -0.06760731 -0.09664328 -0.04152835
000090 04 7b 7c be f0 c0 1f be b1 f5 fa 3c 80 7b 43 bd
       -0.24656302 -0.15600944 0.030634733 -0.0477252
0000a0 50 27 35 be 4f 74 f1 bd 38 33 6f be 94 e6 ca bd
       -0.17690778 -0.11789762 -0.23359382 -0.099072605
0000b0 63 76 ca be 70 c7 05 be cb ea 87 bc 7b 4b 99 be
       -0.39543447 -0.1306436 -0.01659145 -0.299404
0000c0 e0 b7 d9 bd 22 06 21 be 64 23 96 bd 22 df 23 3e
       -0.106307745 -0.15724996 -0.07330969 0.16003087
0000d0 9e 32 37 be e7 cb d8 bb 86 b9 6d be 94 6d 7a 3d
       -0.17890403 -0.006616104 -0.23215303 0.061139658
0000e0 44 63 95 be 29 01 63 bd 72 08 1d be d1 9b 1f be
       -0.29177296 -0.05542103 -0.15335253 -0.15586783
0000f0 f4 38 17 be bd 98 ba 3c 80 6a db 3c d1 9b ce bc
       -0.1476782 0.02277791 0.026784182 -0.025220783

conv3.weight f4 [128, 64, 3, 3]
000000 04 96 a2 3d f0 a3 37 3d 4e b3 d7 3d 3e dd a8 3d
       0.079387695 0.044834077 0.105322465 0.082453236
000010 85 7d 45 3e fe 04 07 3d c6 46 79 be 95 ec c1 bb
       0.19286163 0.032963745 -0.24343404 -0.0059180954
000020 3a a5 99 be 75 ac f4 bd bc e4 bd bc 63 c5 fc 3d
       -0.3000887 -0.11946956 -0.023180358 0.12342336
000030 0e 16 97 bd 7c da 50 3e 7e 69 71 be 89 62 71 bd
       -0.073772535 0.20395845 -0.23575398 -0.05893186
000040 03 9a 75 3e 0c a1 0a be d0 22 55 3c 6a 4f 77 bd
       0.23984532 -0.13537997 0.013008788 -0.06037847
000050 be 53 08 bd 3d c1 77 bd a4 0d af 3c 0c b4 16 3e
       -0.033282988 -0.06048702 0.021368809 0.1471712
000060 1b 7d 09 3e 7f d1 57 bd 73 86 10 3d be 52 12 3d
       0.1342663 -0.052690025 0.03528447 0.03572344
000070 1b 74 68 3e 6c b2 27 3d 91 ab b3 bd 2d dd a2 bd
       0.2270054 0.04094164 -0.08772958 -0.07952342
000080 d2 a0 fd bb ce 9f ac 3d 87 60 4f 3d 78 62 cd bd
       -0.0077401185 0.08428918 0.050629165 -0.10028547
000090 34 ca ca bd 85 a9 cb 3d b4 07 94 bd 3a 3a f7 3d
       -0.099018484 0.09944443 -0.07228032 0.12071653
0000a0 a5 20 f8 bc c1 d3 1a be 54 c2 d4 3c 64 fa 9e 3d
       -0.030289004 -0.1511984 0.02597157 0.07762602
0000b0 b2 29 29 3d 92 46 1f 3e 4a f7 2c 3c 9b c2 56 3d
       0.04129953 0.15554264 0.010557005 0.052431684
0000c0 f7 e7 be 3d 1e ef ab bd bd 5b 25 3d 13 2e f9 bc
       0.093215875 -0.08395217 0.04037069 -0.030417478
0000d0 54 5f a5 bd b0 c1 ad bd 25 09 46 bd 6d 53 07 3d
       -0.08074823 -0.084842086 -0.048348565 0.033038545
0000e0 03 09 bf 3c 98 d9 e7 bd 06 3d 3c be bb 8f 63 3e
       0.023319727 -0.113207996 -0.18382654 0.22222798
0000f0 02 11 1a 3e 89 4f 19 3d b5 61 86 3d 0e 8d 6c bd
       0.1504555 0.037429366 0.06561605 -0.057751708
000100 49 3b 62 be 9a c1 8e be eb ba 74 be 55 9f d3 3d
       -0.22092928 -0.2788208 -0.23899429 0.103331245
000110 f5 65 69 bd e0 d7 0f bd 98 ed 03 be 62 72 c0 bd
       -0.056982 -0.035117984 -0.12883604 -0.09396817
000120 43 f5 04 bd c4 3f 11 bd f0 fe 03 3e 56 cb b4 bd
       -0.032460462 -0.035461202 0.1289022 -0.08827846
000130 79 ad ce bd 63 87 f2 bc 20 7d b2 be 0b b9 2d 3e
       -0.10091681 -0.029605573 -0.34861088 0.1696512
000140 23 45 c5 bc 4b 4c f4 bd e5 5e 08 3e 5b 1c 94 3e
       -0.024080819 -0.11928614 0.1331745 0.28927884
000150 3c 5c 59 be 7a 35 9d b9 ac 3b 0a be c7 2a 33 be
       -0.21226591 -0.00029985217 -0.13499326 -0.17496787
000160 a1 3f b3 bb d2 56 3f 3e 89 18 18 3e b3 60 04 3d
       -0.0054702316 0.18685463 0.1485311 0.032318782
000170 b4 49 92 be ca 25 08 3c 62 6c a8 bd c3 b5 b7 bd
       -0.28571856 0.008309791 -0.082237974 -0.08970215
000180 88 45 03 bd cf f6 17 bd 4e dc a6 be 2b 73 c9 bd
       -0.032048732 -0.03710061 -0.32589954 -0.0983642
000190 c4 d8 ff 3d c8 c4 7d bd da 88 17 be 5b ee 5d be
       0.12492517 -0.061955243 -0.14798298 -0.21672957
0001a0 a1 1f 87 bd 55 56 13 3e cc 9e f3 3d 0b 59 0b bc
       -0.065978296 0.14388402 0.118955225 -0.008505116
0001b0 0a f4 59 bb fa 67 15 3d 03 8e 55 be fa 11 1a 3e
       -0.003325703 0.036476113 -0.20854954 0.1504592
0001c0 01 ee c5 bc 60 5a 0f 3d 77 49 f5 3b aa c2 85 3d
       -0.02416134 0.034998298 0.0074855643 0.0653127
0001d0 18 1f dc 3c ff 22 b3 bd ff 14 c1 3d 85 66 b1 3d
       0.026870295 -0.08746909 0.09427833 0.08662132
0001e0 cd be 86 3d ff 33 3d 3e 6b ed f0 3d 96 52 fb 3d
       0.06579361 0.18476866 0.11764034 0.122716114
0001f0 fe 4c 6c 3e fb 67 23 be a9 55 bc 3d d3 bb 00 3d
       0.23076245 -0.15957634 0.09196026 0.031429123
000200 9a 03 2c be c5 c0 9f 3d 01 1b 85 be af 58 fe bd
       -0.16798249 0.0780044 -0.25997165 -0.12419259
000210 e2 5e 9a 3d af c3 76 be ac 41 a0 be 8f 2c 40 3e
       0.07537629 -0.24098085 -0.31300104 0.18766998
000220 57 cd e2 bd be d1 24 bd 99 b4 29 3b 7d 5e 0e bc
       -0.11074322 -0.04023909 0.0025894998 -0.00868952
000230 ed 70 0c be 12 b9 00 3e fb 1d 55 3e 3a 4b b4 3d
       -0.13714953 0.12570599 0.20812218 0.08803411
000240 31 c5 4a be 8b d0 da 3c bc 74 4b 3b bc 8f 02 bc
       -0.19801785 0.02671077 0.003104492 -0.007968839
000250 5f 20 21 be 90 f5 5c 3d f9 a6 05 be f5 0b de bd
       -0.15735005 0.053945124 -0.13051976 -0.108421244
000260 da 52 cd 3d 21 4a 9f bd a1 b9 53 be 87 d4 76 3d
       0.10025568 -0.07777811 -0.2067628 0.060261276
000270 b0 ab b5 bd fe 13 07 bd 13 83 ea 3d 5f d5 1c 3e
       -0.088706374 -0.03297805 0.11450782 0.1531577
000280 27 15 a8 3b a9 2c 97 bd d8 dd 73 3e 04 75 8f 3d
       0.0051294747 -0.07381565 0.23815095 0.07004741
000290 26 bc 9f bd 65 32 88 bd b0 86 8b 3c 79 23 09 be
       -0.07799558 -0.06650237 0.017031997 -0.13392438
0002a0 47 4a 63 be 11 9c 64 3d 8b 60 f5 3d 21 70 d5 bd
       -0.22196303 0.0558129 0.11981305 -0.104217775
0002b0 08 8d 8c bd 81 74 86 3a 9f 41 9e 3d 43 32 40 be
       -0.06862837 0.001025811 0.0772736 -0.18769173
0002c0 52 03 db 3d 6d a2 a9 bd 10 8f 47 bc 72 5e c2 3d
       0.10693993 -0.082829334 -0.012180105 0.0949067
0002d0 e9 74 63 be c0 44 3e be 78 7b 1c bc f3 63 21 3e
       -0.22212566 -0.18580914 -0.009550922 0.15760784
0002e0 a6 b5 05 3d d7 40 92 3c ef f6 fa 3d a1 6c 88 be
       0.032643937 0.017853184 0.1225413 -0.26645377
0002f0 fc a3 6e bd 5e 2e 9d be a1 25 7b be 81 4c 3c be
       -0.058261856 -0.30699438 -0.24526073 -0.18388559
000300 71 d4 78 bd c4 bf 7b bd 18 b1 4a 3e a8 70 96 bc
       -0.060749475 -0.06146218 0.19794118 -0.018364266
000310 24 b7 8b bd 3b ea 9c 3d e0 1c 9b bb 51 c8 2d 3c
       -0.06822041 0.076618634 -0.004733667 0.010606841
000320 14 7d bc 3d 5a 17 2f 3e 5f d3 44 bd ce 54 f4 3d
       0.09203544 0.17098752 -0.04805314 0.11930238
000330 01 09 d6 bd cd 40 1f bc d6 90 d5 bd 2c 35 e6 bd
       -0.10450936 -0.00972004 -0.10428016 -0.112406105
000340 0a e5 17 3e 60 c8 d5 3d 99 55 9e 3d 5e 5b 89 3d
       0.14833465 0.10438609 0.0773117 0.0670688
000350 a9 08 72 3d bb 7d 44 be 65 4d 2a bd 99 08 dd bd
       0.05909029 -0.19188587 -0.041577715 -0.107926555
000360 e2 c1 d7 bc ee b5 24 3c c3 55 e0 3d e6 bb a8 3d
       -0.026337568 0.010053141 0.10953858 0.08238964
000370 ca 81 c3 bd e5 3c b0 3c 26 84 18 be 99 c4 45 be
       -0.0954624 0.021513412 -0.1489416 -0.19313277
000380 a3 67 24 bd 33 f6 cc 3d 5e d6 3a be c5 2a ff 3a
       -0.0401379 0.10007896 -0.18245837 0.0019467702
000390 92 b8 83 be 62 8a a5 bb 48 31 b1 bd d1 66 70 be
       -0.25726753 -0.005051897 -0.08651978 -0.23476721
0003a0 c8 3a 1a be 53 0a 72 bd 9d ca f9 bd e7 39 6c 3d
       -0.15061486 -0.059091877 -0.121968485 0.057672407
0003b0 e2 c5 56 be 01 e2 1e bd 1e 28 0d 3e 57 28 a5 bd
       -0.20973924 -0.038789753 0.13784835 -0.08064335
0003c0 07 5f 04 3d b3 36 13 be 92 c8 69 3b 14 b1 8f 3d
       0.032317188 -0.14376335 0.0035672528 0.07016197
0003d0 6d 8d 9e 3d 05 79 b5 bc e6 61 17 be 58 25 36 3d
       0.077418186 -0.022152433 -0.14783439 0.044469208
0003e0 44 a9 79 be 69 69 e9 bc 70 a1 26 3e 20 c7 52 bd
       -0.24380976 -0.028492646 0.16272521 -0.05145943
0003f0 5b 53 b5 3d 8c 6e c7 bd 61 d7 e6 bd 52 9d 96 bd
       0.088537894 -0.09737882 -0.11271549 -0.07354225

conv3.bias f4 [128]
000000 e8 d9 c0 bd bf dc ee bd dc 3e 9c be 31 b5 9c bd
       -0.09416562 -0.11663198 -0.30516708 -0.07651747
000010 e3 7f b7 bd 22 46 2a be 21 65 04 be 84 55 5f be
       -0.08959939 -0.16628316 -0.12929203 -0.21809965
000020 f4 20 5f be 7e 1b 0e be 38 d0 e8 bd da 79 6e bd
       -0.21789914 -0.13877675 -0.113678396 -0.058221675
000030 39 e9 47 3c 24 3d 5c be 65 0b 90 bd f9 10 83 bd
       0.012201601 -0.21507698 -0.07033423 -0.06399722
000040 25 c1 15 be 50 c1 8b bd f2 46 23 be 20 d3 c8 bb
       -0.1462446 -0.06823981 -0.15945032 -0.0061286837
000050 6c 4a 53 be 2f d3 11 be c3 81 67 bd 12 97 94 3d
       -0.20633858 -0.14240716 -0.056520235 0.07255377
000060 f6 6d 0b be 68 d4 3c bb 45 fc 7f 3d 69 76 38 be
       -0.13616166 -0.0028813127 0.062496442 -0.1801392
000070 5e 4c e7 bd 6b 62 31 be e8 a3 5f be fc 0a 46 be
       -0.11293863 -0.173227 -0.21839869 -0.19340128
000080 97 99 14 be 3f 22 2b bd 21 6e 2c be 90 fe 46 bd
       -0.14511715 -0.041780706 -0.16838886 -0.048582613
000090 6a 63 d0 bd 11 1e 2f be 91 1a 7a be f6 e6 45 bd
       -0.10175212 -0.17101313 -0.24424197 -0.048315965
0000a0 5d c9 70 be 98 ac 0b be f9 08 aa 3d 2b 0f 7f bd
       -0.23514314 -0.13640058 0.08302493 -0.062270325
0000b0 47 b5 51 be f4 f1 e1 bd be c2 1d be 0d 11 a1 bd
       -0.20479308 -0.11032477 -0.1540632 -0.0786458
0000c0 f1 ac db bd db f4 f3 bd 54 d7 8f 3c d7 33 c7 3c
       -0.10726345 -0.11911937 0.017558731 0.024316711
0000d0 34 2d c0 bd c3 d0 0d be 07 49 5f be 95 c4 22 be
       -0.09383622 -0.13849168 -0.21805201 -0.15895303
0000e0 ba e5 d6 bc 5c af 98 bd 69 99 13 be b3 7d 31 be
       -0.026232589 -0.07455322 -0.1441399 -0.17333107
0000f0 ad 23 43 be a9 5d 71 be af 5f ef bd 93 38 99 be
       -0.19056578 -0.23570885 -0.11688172 -0.29925975
000100 e1 5d c5 3d bf 7e 0a 3e 4c 7b 54 bd 88 1e 97 bd
       0.096370466 0.13524912 -0.051875398 -0.0737887
000110 af 64 51 bc b4 8e 8d be ba 61 44 3e 45 64 e7 bd
       -0.0127803525 -0.27647936 0.19177905 -0.11298422
000120 25 47 c2 bd 44 92 93 bd e7 52 eb bd 38 91 82 3d
       -0.09486226 -0.07205632 -0.11490422 0.063753545
000130 54 35 5a be a7 86 01 be ba aa 96 bd 61 5e 9a be
       -0.21309406 -0.12649022 -0.07356782 -0.3015013
000140 5f 5d 92 bd 60 d9 42 3c 74 d3 21 be fb c3 82 bd
       -0.071467154 0.011892647 -0.15803319 -0.063850366
000150 c5 a1 66 bd 6c 3a 1d bf cc 7a 04 be 2d f6 06 3d
       -0.05630662 -0.6141727 -0.12937468 0.032949615
000160 57 a4 31 be 35 14 85 3e ce 42 9d bd 88 bb 5f 3e
       -0.17347847 0.2599198 -0.076787576 0.21848881
000170 db 88 00 bd 64 61 79 be 44 ab 0c be 38 24 9c bd
       -0.031380516 -0.24353558 -0.13737208 -0.07624096
000180 aa 4e 29 bd 39 05 a4 bd 1f e4 96 be 73 7f b3 bd
       -0.041334786 -0.08008809 -0.29470918 -0.087645434
000190 c1 ec 19 bf 67 4d c4 3d eb d7 77 be b1 d1 21 be
       -0.6012688 0.09585076 -0.2420346 -0.15802647
0001a0 8c eb b2 bd e2 d7 4c be e6 3b 54 be b8 ed 0f be
       -0.08736333 -0.20004228 -0.20725974 -0.14055526
0001b0 ce 32 f7 3a 6d d5 b8 be 72 3f f0 bd 10 d2 67 bd
       0.0018859745 -0.3610033 -0.11730851 -0.056596816
0001c0 c3 20 0b be 38 ae 86 be 4d 7e 05 bd 46 76 0c 3e
       -0.13586716 -0.26304793 -0.032591153 0.13716993
0001d0 18 6f 54 3a 01 dc de bd b2 84 69 be 59 47 a7 be
       0.00081037125 -0.10881806 -0.22804525 -0.3267162
0001e0 27 17 d2 bd fd 4a 2a be 1e fb d4 bc e5 8a 8f be
       -0.10258322 -0.16630168 -0.025998648 -0.28035656
0001f0 61 f7 af bd 33 6e 07 bd a8 d2 9b 3d 91 af 98 be
       -0.08592106 -0.03306408 0.07608539 -0.29821447

p_conv1.weight f4 [4, 128, 1, 1]
000000 3d 7a 1f bd bf 77 ed 3b 7a f7 cc 3b 16 2e 49 3c
       -0.038934935 0.007246941 0.0062550874 0.012279054
000010 53 7f 58 bc 08 4c 82 3c 04 9d a3 bb f5 f4 a1 3c
       -0.01321395 0.015905395 -0.004993083 0.019770125
000020 c3 fa ba 3c 21 a8 f1 3b 6c 4a 18 bb a0 df 62 3c
       0.02282465 0.007374779 -0.0023237718 0.013847262
000030 eb 22 4a bc 06 df 13 3d ca 0d f4 3c af 68 12 bd
       -0.012337427 0.036101364 0.029791731 -0.035744365
000040 a0 d0 68 39 32 8a 71 3b ec 26 16 bc 1f b5 bd 3b
       0.00022202963 0.0036856052 -0.009164553 0.0057894136
000050 6a d7 74 3c 82 59 9e 3c 28 24 17 bc f6 c2 33 bc
       0.014943937 0.01932979 -0.009224929 -0.010971775
000060 69 0c d9 3c 3e 9e d0 bb 0a 7e 06 bc 31 d8 91 3b
       0.026495175 -0.00636652 -0.008208761 0.004450821
000070 ec 01 76 bc f5 12 28 bc db 45 9f bc b0 c6 e5 3c
       -0.015015107 -0.010258426 -0.01944249 0.028048843
000080 ae 88 37 bd 1c 55 08 be d1 cc 8b b8 a7 d4 de 3c
       -0.044808082 -0.13313717 -6.6661865e-05 0.02720101
000090 73 73 11 bb 24 99 88 ba 00 6a 99 3d 5d b2 e6 3b
       -0.0022194057 -0.0010421616 0.07490921 0.0070403055
0000a0 08 18 93 3c 36 f8 1e bc 24 95 85 3c 34 2a e1 3b
       0.017955795 -0.009702733 0.016306467 0.006871486
0000b0 8b 61 a4 3d 27 4b 0f 3c da bd b7 39 28 5b d3 bc
       0.08026417 0.008745945 0.0003504593 -0.025800303
0000c0 9e 46 57 3c 56 4d bf bc 33 8e e6 3c d8 d9 3c bd
       0.013139395 -0.023352306 0.028143978 -0.04610619
0000d0 31 3e 84 3c 27 6a dc 3b 4a 9e 23 bd 6e 4e c6 3b
       0.016142936 0.0067265215 -0.039945878 0.00605183
0000e0 24 82 b1 3c 8d 82 59 bc 4b 14 86 3b 60 1e 89 3c
       0.021668501 -0.013275755 0.0040917746 0.016738117
0000f0 0c e6 ee ba 0b 14 23 3d 55 b8 1f 3b 35 01 b0 3b
       -0.0018226518 0.039814036 0.0024371345 0.0053712376
000100 47 3f ad be e1 86 a9 3b f7 83 84 bc 0b 0e 98 3b
       -0.3383734 0.0051735495 -0.016176207 0.004640346
000110 76 26 f8 bc 4a f9 08 3f 7a 2b c5 bc 05 a8 0d 3d
       -0.030291777 0.53505385 -0.024068583 0.034584064
000120 36 5c 8f 3d c1 9a 61 3b 24 1f 10 3b 55 b0 5f bc
       0.0700001 0.0034424516 0.0021991218 -0.013652881
000130 1d 23 58 3d 5a 96 cf bc 6e 2a e8 3c cc 36 79 3d
       0.05276786 -0.025340248 0.028340545 0.060843274
000140 2f b8 5a 3c 8a 12 09 3d ce 4e 99 3d f1 87 33 3d
       0.013349577 0.033464946 0.07485734 0.043830816
000150 69 b5 ec 3c 9e 45 69 3f c3 d2 47 3c 19 ca 26 3c
       0.028895097 0.9112185 0.012196246 0.01018002
000160 cb 47 0e 3c 6a 12 8d 3e 14 c8 e7 bb 1a 03 b9 3c
       0.008684109 0.2755311 -0.0070734117 0.022584487
000170 47 eb ac 3c 01 00 a7 3c e5 c9 da 3b 60 b8 86 3b
       0.021108283 0.020385744 0.0066768997 0.0041113347
000180 8e 5d 15 3c cf 1a e9 3c 1a 72 8f bc 37 b4 c8 3c
       0.009116543 0.028455166 -0.017510463 0.024499996
000190 29 27 86 3f 50 32 31 3d 6d b3 3c 3c 14 48 cd 3c
       1.0480701 0.043260872 0.011517388 0.025058784
0001a0 95 da 52 3c 2f 4e 6d bc d1 24 d5 3c e1 26 04 bd
       0.012869497 -0.014483972 0.026018532 -0.03226364
0001b0 a8 39 d5 bc f9 c9 82 3e be 5b 33 bd 44 c5 e4 3c
       -0.02602847 0.25544718 -0.043788664 0.027926095
0001c0 2a 25 b9 bb a1 a2 09 3c f6 7a c3 3c 63 0c 2c bc
       -0.0056501823 0.00840059 0.023862343 -0.010501
0001d0 fe dd ef 3c 8d eb 40 bc b5 4f 4d bd d6 06 9c bc
       0.029280659 -0.01177491 -0.050124843 -0.019046228
0001e0 a0 7a 1a bb e1 d8 92 bd 9f d2 b3 bc 63 cf 31 3c
       -0.0023571625 -0.071702726 -0.021951018 0.0108526675
0001f0 86 84 3e 3c 96 5b ca bc 48 6c 15 3d db 60 24 3c
       0.011628276 -0.024701875 0.03648022 0.010032858
000200 ef 11 25 bd 4a 1e e1 3c 98 d3 96 be dd a5 c6 3d
       -0.040300306 0.027480263 -0.29458308 0.09699605
000210 10 e1 04 bd 6e ec e3 bc 19 6e 05 3d 43 16 70 3c
       -0.0324412 -0.0278227 0.0325757 0.014653745
000220 ff 28 89 bd 7d e6 35 3d 08 7a 15 3d ec 7a 78 bd
       -0.066972725 0.044409264 0.03649333 -0.060664102
000230 08 72 1b bd 43 51 a8 bd 46 cd ef bc 50 74 18 be
       -0.037950546 -0.082186244 -0.029272687 -0.1488812
000240 09 e6 8e bd b2 6d 22 bc fa d4 37 3d e1 f4 93 bb
       -0.069774695 -0.009913849 0.044880845 -0.004515276
000250 15 c5 16 bd b2 2f 4f 3c 77 f8 19 3d fd af 11 bc
       -0.036809046 0.012645649 0.03759047 -0.0088920565
000260 d9 e6 99 bd b4 a0 bf 3c 3f 00 b3 3b 4c 59 c0 3c
       -0.07514734 0.023392059 0.005462676 0.02348008
000270 09 ba 2b bd 26 ff 15 bd 5b eb 0c bd 10 99 8e 3d
       -0.041925464 -0.03662028 -0.03440414 0.06962788
000280 dd 0f 53 3d 5b ad 12 be 37 8e fd bb 27 7b 8f 3d
       0.0515288 -0.14323942 -0.0077379006 0.07005911
000290 8b 89 52 3c 54 ce d5 3c 36 fc e6 bd 1b 9c 22 3d
       0.012850176 0.026099361 -0.11278574 0.039699655
0002a0 1c 3d b5 b8 87 93 fc bc df 65 af 3d 43 c7 b7 3b
       -8.642135e-05 -0.030832065 0.08564352 0.0056084706
0002b0 78 c4 37 3c 4b bc 68 bd a9 d2 c4 bd a6 50 84 3c
       0.011216275 -0.056820195 -0.09610493 0.016151737
0002c0 29 0d 8b bd 73 42 7c bc af e4 9a 3c 76 4a 84 3c
       -0.067896195 -0.015396702 0.018907873 0.016148787
0002d0 57 63 c2 bd c6 60 16 bd 81 fa 94 bc 9f 2b 87 3c
       -0.09491604 -0.036713384 -0.018185856 0.016500292
0002e0 b9 dc 98 3c 3a 5c f8 bc c7 28 3b 3d 72 21 31 3d
       0.018659936 -0.030317415 0.045693185 0.043244787
0002f0 04 e5 81 bc 22 5a 08 3d a1 05 51 bd e8 29 d0 3b
       -0.015856273 0.033289082 -0.05103076 0.006352652
000300 2c 62 39 3e 77 f6 0e be 61 15 10 3d 6d ea ee 3c
       0.18103856 -0.13961206 0.03517664 0.029164517
000310 d5 28 82 bd 6c 8d a0 bd 9b f9 84 3e fd 2f 32 3c
       -0.06355444 -0.07839474 0.25971684 0.010875699
000320 dd 33 c5 bc cc 89 04 bd 00 5b db bb 7f 09 8d bd
       -0.024072582 -0.032357976 -0.0066941977 -0.06886577
000330 55 e2 50 bc de b2 a5 3c c6 8d 26 3c ca dc c0 bd
       -0.012749274 0.020226892 0.010165637 -0.09417112
000340 a7 29 8c 3c 80 20 a6 be fa 53 c2 3c 4e 6c be bd
       0.017109705 -0.3244667 0.023721684 -0.09298001
000350 e6 ba 60 bc f9 6b 7f bd 0a 32 13 bd 13 f0 39 be
       -0.013716435 -0.06235883 -0.035936393 -0.18157987
000360 4a 41 89 bd ab 18 41 3e ff 72 46 3d dd 40 46 bd
       -0.06701906 0.18857066 0.048449513 -0.048401702
000370 db f6 98 bc 9a 1a d8 bc 46 7b e0 bc c6 cf ac bc
       -0.018672397 -0.026379872 -0.027402531 -0.021095168
000380 23 44 cc ba a3 bb 87 bd b0 f3 bc bd e0 18 bf bc
       -0.0015584271 -0.06627586 -0.09226167 -0.023327291
000390 e6 af db bc 2e 15 c3 3d 09 86 87 bb c9 a2 25 bd
       -0.026817273 0.09525524 -0.0041358513 -0.040438447
0003a0 85 8d ab bc e7 5b 68 3c 79 18 81 bc 77 8c 5d 3b
       -0.020941505 0.0141820675 -0.01575874 0.0033805647
0003b0 03 a2 a5 3d 72 4e 82 3c 52 07 71 bc eb 5b 0b bc
       0.08087542 0.015906546 -0.014711218 -0.008505802
0003c0 8c ef 2c 3d 53 43 44 3d a7 69 c3 3c 37 3e e0 bc
       0.042220637 0.047915768 0.02385409 -0.027373416
0003d0 82 ee 39 be 89 53 44 3d 38 28 2c 3d ca 13 87 3c
       -0.1815739 0.047931228 0.042030543 0.016488928
0003e0 0b 62 36 3d c8 e7 90 3d 7f 37 15 3d 7a c3 59 3d
       0.044527095 0.07075459 0.03642988 0.053164937
0003f0 83 9b 10 bd 15 66 ce 3c dd 2a 8e 3e 86 ec bd bc
       -0.035304558 0.02519516 0.27767077 -0.023184072

p_conv1.bias f4 [4]
000000 00 c6 1d 3e 02 03 ec 3d a3 e3 c8 bd 8d 66 88 3e
       0.15407562 0.11524011 -0.09809043 0.2664074

p_fc1.weight f4 [64, 256]
000000 d6 06 9e 3c 63 3b 3b 3d 7c 2d d9 3b b8 ef 8a bc
       0.019290369 0.045710932 0.0066277366 -0.01696001
000010 0a cb fe bc a7 f3 95 bc 94 b0 ee 3b 8b 97 09 3c
       -0.031102676 -0.018304659 0.0072842333 0.008397947
000020 77 31 2c 3d ea 77 0b bb c8 cc b9 3c eb 71 80 3c
       0.04203936 -0.002128119 0.022680655 0.01567932
000030 59 4e ee bb 10 af b1 3d a7 c1 9a bc 2b 48 93 3c
       -0.0072725234 0.08675969 -0.018891169 0.017978748
000040 bc b2 db 3c 6b 19 23 bc 3d c7 b7 3b 0b a7 51 3d
       0.026818626 -0.009954791 0.005608468 0.051184695
000050 53 56 40 3b 98 93 63 3c d9 07 bd bb 02 17 6e bd
       0.0029348328 0.01389017 -0.005768758 -0.05812741
000060 99 22 e6 3c f3 50 48 bd f2 e9 49 3d 56 2e 71 3d
       0.02809267 -0.048905324 0.049295373 0.05888208
000070 a0 07 49 3d 1d 46 96 ba 31 70 5f bc 5e af a7 3c
       0.049079537 -0.0011464987 -0.013637588 0.020469364
000080 e1 fa c6 3d 0e 89 66 bd 31 22 2f 3e 97 75 3c 3c
       0.0971582 -0.05628305 0.17102887 0.011502645
000090 91 79 b9 3c f6 0d 7f b9 09 7a 6a 3c 05 9b 25 bd
       0.022640975 -0.00024323896 0.014311322 -0.04043104
0000a0 5b f8 56 3d b2 41 83 3e 36 f2 b8 bd e7 68 2d 3d
       0.052482944 0.2563606 -0.09030573 0.04233637
0000b0 3d 11 7b bc db 76 64 bc 97 73 94 3c af 93 09 bd
       -0.015323934 -0.013944353 0.018121524 -0.033588108
0000c0 fd fc 94 bf a1 07 21 3e 69 78 ff 3d ab d4 59 3d
       -1.1639706 0.15725566 0.12474138 0.05318133
0000d0 e9 fc 2d 3c 5e 0d 58 3d e7 f9 14 3c ae 9a 24 bd
       0.0106193805 0.052747123 0.0090927845 -0.040186577
0000e0 51 99 98 bd b2 50 0b 3e bf b3 a2 3d b2 5a eb 3c
       -0.07451118 0.13605002 0.0794444 0.02872977
0000f0 d1 81 ac bc 03 3d eb bc 6d b6 9e 3c 74 cd db 3c
       -0.021057995 -0.028715616 0.019374097 0.026831366
000100 23 c6 3b bd 7d c5 3b bd 01 00 94 bd ff 49 1f bd
       -0.045843255 -0.045842636 -0.07226563 -0.038888928
000110 2a c8 6a bd fc a9 b4 bd 51 77 31 3d c7 80 c8 3d
       -0.057319798 -0.088214844 0.04332668 0.09790187
000120 1f d6 cc bc 98 40 38 bc 7c e6 a9 bd f9 d2 5d bc
       -0.025004445 -0.011245869 -0.082959145 -0.013539069
000130 bf 9d 3e bd b8 9a f3 bc 83 72 69 3c 5f 06 44 3d
       -0.046537157 -0.029736862 0.014248493 0.04785764
000140 24 9e 8f bd d6 1c 65 bc ed 2f 45 bd bc 14 a4 bd
       -0.07012585 -0.013983926 -0.04814141 -0.08011767
000150 e2 2c 94 bd 36 d4 04 bc 34 3b c7 bc 80 bf a1 3d
       -0.07235123 -0.008107236 -0.024320222 0.07897854
000160 4d ca 03 be 16 00 a3 bc c5 d1 51 3c 5e c1 5b be
       -0.1287014 -0.019897502 0.012806361 -0.21460482
000170 0f 08 51 bd f6 f0 ee 3c 7f 05 e3 bc 95 5f 07 bd
       -0.051033076 0.029167634 -0.027712582 -0.03305014
000180 ac a5 1d bc 29 f7 22 3c cc 9c 00 bc 4e 27 88 bd
       -0.009622019 0.009946623 -0.007849883 -0.06648122
000190 d6 c4 ec 3b 30 5d b1 bd 98 12 3d bb 35 00 3f bd
       0.007225613 -0.08660352 -0.0028850194 -0.046631057
0001a0 35 6f d2 3d e6 65 cb 3d b1 3c fc bd 05 8e dd bd
       0.10275117 0.09931545 -0.123162635 -0.10818104
0001b0 48 ed f4 bb 0a 93 ae bc ef 61 a6 bc 8f 5b b6 bc
       -0.007474575 -0.021310348 -0.02031037 -0.022260455
0001c0 a5 8d 78 3e 76 45 a5 bd 21 6d 24 be ab 3c 22 bc
       0.24272783 -0.08069889 -0.16057254 -0.00990216
0001d0 be 29 02 3c 96 ab ad ba 2b ae 48 bd f0 69 12 bd
       0.007944522 -0.0013249989 -0.048994225 -0.03574556
0001e0 79 08 88 bc 0a 1f b8 be 51 3f 2e be 98 4e a7 bd
       -0.016605603 -0.3596118 -0.17016341 -0.081692874
0001f0 15 0f 86 bc 25 bd 4a bc fa 7c f6 b9 69 d6 62 3b
       -0.016364614 -0.012374197 -0.0004701389 0.0034612662
000200 e0 57 9c bc 40 a9 a2 bd 22 fc 7a bd 5a e5 ac bc
       -0.01908487 -0.07942438 -0.06127561 -0.021105457
000210 10 41 83 3d f1 29 6e bc c8 91 3a 3d 1d f5 66 3c
       0.06408894 -0.014536367 0.045549184 0.0140965255
000220 4b 16 57 3d b4 32 c9 bc cc cb 8c bc d2 49 71 bd
       0.052511495 -0.02456031 -0.017187022 -0.05890829
000230 e3 ad d1 bc 46 8e e9 bd 08 e1 b9 bc 86 99 1d 3d
       -0.025595611 -0.1140409 -0.022690311 0.03847649
000240 8c 6c 60 3d 64 4d 9d 3b e2 42 84 bb ac 90 9c 3c
       0.05479102 0.0048004854 -0.0040362934 0.019111954
000250 25 0d cb 3c 81 c6 be bc e2 b6 a4 bd 66 e3 87 bb
       0.024786541 -0.023288013 -0.08042695 -0.004146981
000260 62 c4 2e bd e7 4d 52 3c 86 04 c8 3c 84 be 96 bc
       -0.042667754 0.012835956 0.02441622 -0.018401392
000270 bc 62 ed 3c ac 51 69 bd 5f fa 60 bd f9 a9 ad bc
       0.028977744 -0.056962654 -0.054926272 -0.021199213
000280 fd 4f 27 3d 3b 81 26 bd 9a 27 e1 bc 8f c1 98 bd
       0.040847767 -0.040650588 -0.027484704 -0.07458793
000290 85 04 66 bc c7 65 f8 bc c5 e7 22 3b eb a4 a9 bd
       -0.0140391635 -0.030321969 0.0024857384 -0.08283409
0002a0 92 af 62 3e e5 5a 3c 3d a7 3e 24 be 49 dd 1b 3e
       0.22137287 0.04598512 -0.16039525 0.15221132
0002b0 12 b1 cc bc 17 7a 67 bb c9 9d 56 bd b3 83 17 bd
       -0.024986777 -0.0035320574 -0.05239657 -0.036990833
0002c0 5e d4 a8 3e 37 e9 8f 3e 3e ec 8b 3e 94 1d df bd
       0.32974523 0.28107616 0.27328676 -0.108943135
0002d0 51 35 63 bc a4 99 73 3c bf 38 94 bc c4 07 4f bd
       -0.013867692 0.014868174 -0.018093465 -0.050544515
0002e0 f0 8a 0d 3e a1 4f 9d bc 38 6c d2 bd 2d 74 11 bd
       0.13822532 -0.01920301 -0.10274547 -0.035511184
0002f0 75 9b b8 3c 56 0b 4a 3b 83 f5 97 3c 90 fb b9 bc
       0.022535065 0.003082951 0.018549686 -0.022702962
000300 c0 4d 1c bd 16 35 ca bc 04 f7 03 bd 81 52 14 bc
       -0.038160086 -0.024683516 -0.032217994 -0.009052874
000310 d4 da 62 bd 22 c1 c7 3c 3c c1 c6 3c 1b af 67 3c
       -0.055384472 0.024384085 0.024262063 0.0141408695
000320 82 4a 0f bd 34 fd 86 bd da 0b 87 bd 04 7f 2e bd
       -0.034983166 -0.065912634 -0.065940574 -0.0426016
000330 a3 2b c8 ba 97 7c 3a bd 0a 1a 87 3c 81 7b 3a 3d
       -0.0015271794 -0.045528974 0.016491909 0.04552794
000340 de ff a3 bc 5a 6b 04 bd 25 50 e5 bc 68 54 99 bd
       -0.020019468 -0.03232894 -0.027992317 -0.07486802
000350 0f f2 03 be 04 7f dd 3d 84 81 70 bd 18 4a 2a bd
       -0.12885307 0.10815242 -0.058717266 -0.041574568
000360 d3 63 35 3c 6d 4c 72 3d b8 32 24 bc 81 31 a9 bd
       0.011071163 0.059154917 -0.010021858 -0.08261395
000370 9c 88 35 3d 40 db 13 be f8 b7 7c bd a9 5a 03 bd
       0.044319734 -0.14439106 -0.061698884 -0.032068882
000380 d9 ad 08 be d7 d5 4b 3d a0 87 f3 bc 94 ef 2a be
       -0.13347568 0.04976448 -0.029727757 -0.16692954
000390 57 87 15 be 73 0a d3 bb 74 67 0e 3a 95 f0 bf bd
       -0.1460241 -0.0064404546 0.0005432286 -0.09372059
0003a0 72 cf 5d be a6 b0 a1 3d 66 57 b6 be 99 79 79 bd
       -0.21661165 0.07895021 -0.35613555 -0.06090698
0003b0 4b a3 b6 bc ae 95 93 bb ee a1 8b bd 08 2a a3 bc
       -0.022294661 -0.004503927 -0.06817995 -0.019917503
0003c0 5c 38 28 bd bf b9 02 bf e7 32 d7 bd 6f 62 ae bd
       -0.041069373 -0.51064676 -0.10507756 -0.085148685
0003d0 6d 6b 87 bb 5a e6 65 3b b1 cf 12 3d cb 87 1c bd
       -0.004132679 0.0035079927 0.0358426 -0.03821544
0003e0 d7 5c d1 be 03 31 a4 3e f3 db 84 3d 30 6d 58 3c
       -0.40891144 0.32068643 0.064872645 0.013209626
0003f0 cb 8b 1c b9 97 fd 1e bd e1 dc f1 bb 9d 7f 08 3c
       -0.00014929396 -0.03881606 -0.007381067 0.008331207

p_fc1.bias f4 [64]
000000 b4 86 9a bd 71 10 43 bd 05 51 eb bd e6 52 ec bc
       -0.07545224 -0.0476231 -0.114900626 -0.028848123
000010 71 c0 f5 bd fd 5c 0d be 1a 2c 94 bd 0c b6 c9 bd
       -0.11999596 -0.13805003 -0.07234974 -0.09849176
000020 45 1d 44 3a 99 a2 90 bd da fe 9a 3d 00 3a 35 3d
       0.0007481168 -0.07062263 0.0756814 0.044244766
000030 33 65 c9 bc ed d5 65 3c 15 35 29 be 5b 80 10 bd
       -0.024584388 0.014028055 -0.16524155 -0.03527866
000040 e2 5d 2e bd 77 e1 a8 3d 35 ef 80 3e 3b 90 59 3d
       -0.042570002 0.08246129 0.251825 0.053116065
000050 71 1b c1 3c e1 37 72 3e 58 1c 85 3b 07 07 68 bd
       0.023572655 0.23654129 0.0040622167 -0.056647327
000060 38 5f 7f bd 26 59 05 3c 9f 2c cb 3d 7e de 38 3e
       -0.062346667 0.00813893 0.0992062 0.18053624
000070 2d 89 1c 3e b4 43 e4 3c 5d a1 55 3b f7 d5 1e bd
       0.15286703 0.027864315 0.00325974 -0.03877827
000080 f7 ad 72 bd 8c 84 80 bd a4 cf 82 3c 0c 70 5d 3e
       -0.059247937 -0.06275281 0.015968151 0.21624774
000090 9a 0e 41 3e 3e 41 b5 3c 64 5a 68 bd 1b 1a c8 bc
       0.18853226 0.022125836 -0.05672683 -0.02442651
0000a0 e8 e2 b9 bd 61 c4 84 3b 97 46 89 3e d2 f8 0e bd
       -0.09076482 0.0040517305 0.26811668 -0.034905262
0000b0 49 e2 83 bb fc a4 9d 3e 2e dc 7d 3d 72 1d c6 bc
       -0.004024778 0.30789936 0.061977558 -0.024183962
0000c0 ce d2 71 bd 33 f0 fc bd f4 9d 9e 3d ba 75 ad 3b
       -0.05903893 -0.12350502 0.07744971 0.005293575
0000d0 ce b4 4f bc 01 7d 2d 3d 0b 77 e7 bd 37 70 ca 3c
       -0.012677385 0.04235554 -0.113020025 0.024711711
0000e0 d1 cc c4 bd c3 98 f5 bd 6d 3b 22 be 7e 7a e4 bd
       -0.09609378 -0.119920276 -0.15842982 -0.11156176
0000f0 8e 31 b9 bd a2 1e cb bd 62 21 11 bd 14 a5 a8 bc
       -0.09042655 -0.09917952 -0.035432227 -0.020586528
