model/resnet/8x8/2/good_64f_2b_8.pt (torch_old, 648550 bytes, 40 tensors)

common_layer.0.weight f4 [64, 4, 3, 3]
000000 20 57 f1 3d ba cf 66 3e fe c3 a0 be 5f 00 27 bd
       0.11784196 0.22540179 -0.3139953 -0.04077184
000010 67 c0 7d bd 6e 8f 30 be 0c fb 94 be 2c 4c 1b be
       -0.061951067 -0.17242214 -0.29097784 -0.15165776
000020 1b bd 4f 3e 7c 4a b6 bb e8 fd 49 3e 7b 0c cc bd
       0.20286982 -0.0055630784 0.19725764 -0.09963318
000030 c9 0c 4d be 87 a7 4a 3e 14 cf 42 3c 83 a1 ca 3d
       -0.20024408 0.19790469 0.011890192 0.09894087
000040 cd bf b8 3d 5f c1 a9 be 63 98 b1 3d 4d c3 9f 3d
       0.09020958 -0.33155343 0.086716436 0.078009225
000050 e1 77 03 3d 6e b3 70 3b 98 f6 02 3e d4 0e 88 bd
       0.032096747 0.0036728042 0.1278938 -0.06643453
000060 65 ee a0 3d 88 18 1a 3d 6c b9 b2 bc ba 36 4c 3e
       0.0785797 0.03762105 -0.021816932 0.19942752
000070 ea db a0 3d 99 a2 7e bd e5 a7 94 bc 34 7d 01 3e
       0.07854445 -0.062166784 -0.018146465 0.12645417
000080 c3 e2 cc bd 16 76 12 bd bf a5 3f be b3 c6 a8 bd
       -0.10004189 -0.035757147 -0.18715571 -0.08241024
000090 ed 06 2e be 8b d8 73 bd 94 0c 1a be 50 b4 84 3d
       -0.1699483 -0.059532683 -0.1504386 0.064797044
0000a0 4d 96 a9 3e 00 79 00 be cb f5 06 bd f5 f2 2f be
       0.33122483 -0.12546158 -0.03294925 -0.17182525
0000b0 d5 97 f1 3d 2d 5f 65 bd 64 f4 ed bd d8 56 34 bb
       0.11796538 -0.05599897 -0.116188794 -0.0027517583
0000c0 a5 ef 9a 3d b0 19 9e 3e 7e 79 49 3e 21 70 22 be
       0.0756524 0.30878973 0.19675252 -0.15863086
0000d0 76 6e c1 be 50 22 91 3d 42 54 a7 bb de 69 e6 bc
       -0.37779588 0.07086623 -0.00510648 -0.028126653
0000e0 14 e4 e9 bb f2 47 12 be 3f df 97 bc db 25 e5 bd
       -0.0071377847 -0.14285257 -0.01853907 -0.11188861
0000f0 28 fa 08 bd 77 0c ad 3c 6e 27 8c bd 12 e2 7a 3d
       -0.033441693 0.021124108 -0.06843458 0.061250754
000100 73 5b af 3c 4e 04 ca 3c 33 7f 1c 3e 0a fe 76 bd
       0.021405911 0.024660256 0.15282898 -0.060300864
000110 74 b1 9f bc cd 22 a8 bd 9c d3 0e be 73 c1 09 be
       -0.019493796 -0.08209763 -0.1394791 -0.13452701
000120 f8 ee 9a 3e c4 72 34 bb 61 e7 bf 3e cd d4 ac bd
       0.30260444 -0.0027534226 0.37481216 -0.08439026
000130 8b 9a db bc bc f7 41 3e 7e 16 6a 3e 62 7d cd bd
       -0.02680709 0.1894216 0.22860143 -0.100336805
000140 9c 92 8c bc 9d cf 03 3e 96 c7 52 bd a6 ee 1b be
       -0.017159753 0.12872167 -0.05145987 -0.15227756
000150 9f af e2 bd 1b f0 df be 38 33 d9 bc 16 3b 8e be
       -0.11068653 -0.43737873 -0.02651368 -0.27779454
000160 7d a0 da 3c 1a bf 00 3d 67 9a 72 3d ac 3f f2 3b
       0.026687855 0.03143225 0.05922928 0.007392844
000170 31 f1 3d 3e fe 3c ea 3d b2 2c a9 3b a3 d1 1e bd
       0.18549038 0.114374146 0.005162799 -0.038774144
000180 b8 88 68 3e 57 4e 9f 3c 17 78 a0 3d 67 cb 67 bd
       0.22708404 0.019446535 0.07835405 -0.056590464
000190 88 2d 3d 3d 99 84 95 bc b8 5a d4 bb 44 f8 8a 3d
       0.046186 -0.018251704 -0.006480541 0.06785634
0001a0 17 75 93 bd d4 89 8b 3d 85 b4 a7 bd 9c 0c 9c 3d
       -0.072000675 0.06813398 -0.08188728 0.076195925
0001b0 c5 52 55 3e bf 15 43 3e 9c cb d7 be 12 1a 19 3d
       0.20832355 0.19051264 -0.4214753 0.03737838
0001c0 e6 79 1b bd 3c bc 18 3d bc 88 7e be ea d9 f0 3b
       -0.03795805 0.03728889 -0.24856848 0.007350196
0001d0 7a bb 6a be 27 e4 86 3e 0d 33 51 3d 85 10 9d be
       -0.22923079 0.2634594 0.051074076 -0.30676666
0001e0 17 c0 d3 3d 14 37 6a bb dd 60 78 3e c6 a0 87 be
       0.103393726 -0.0035738396 0.242557 -0.26489848
0001f0 17 cd 7e 3d 9a af 73 3e 09 e4 26 bc 6d 90 06 3d
       0.062207308 0.23797455 -0.010186204 0.03285258
000200 ce f5 7a bd 00 31 f2 bd dc ff 7a 3d 10 1d b2 bd
       -0.061269574 -0.11825752 0.061279163 -0.086969495
000210 7c 63 c0 3b 28 8c 26 3d a8 e1 49 bd a8 c7 6b 3d
       0.0058712345 0.040661007 -0.04928747 0.057563454
000220 92 34 c7 3d 46 c2 99 bd 5a ef 54 bd 40 da 0a 3d
       0.09726824 -0.07507758 -0.051986076 0.033899546
000230 c7 67 ef bd 5b d3 f1 bc dd 04 60 bd 29 de 7c 3d
       -0.11689716 -0.029519727 -0.054692138 0.061735306
000240 7c a9 8c 3e 41 ff fa 3d 56 33 e4 bd c3 34 52 bd
       0.27473056 0.12255717 -0.11142604 -0.05131985
000250 c0 b1 92 3e b3 1c d2 bd 02 5f 8d bd 95 e3 6e 3d
       0.28651237 -0.1025938 -0.06902887 0.058322508
000260 41 29 61 be 4b 23 89 be 06 bd 9a be 36 ea e2 be
       -0.21988393 -0.2678474 -0.30222338 -0.44319314
000270 7e 4f a0 3c 22 fc 11 3e f8 14 0c 3e 0f 88 29 3d
       0.019569155 0.14256337 0.13679874 0.04138952
000280 3f b7 63 be 93 d1 08 3e 4e ca 13 3d 40 59 e6 3d
       -0.22237872 0.13361196 0.036081605 0.11247492
000290 2e 9e 50 3d 24 43 91 3d 71 e5 07 bd 3e a2 0a 3d
       0.050932102 0.07092884 -0.033177797 0.033846132
0002a0 fc ec 6d 3c af 8d e5 3d 83 c3 3e bd b4 98 08 3e
       0.0145218335 0.112086646 -0.046573173 0.13339502
0002b0 62 30 1b 3e 90 03 b0 bc a9 f6 b7 bd 48 eb 13 be
       0.15155175 -0.021486074 -0.089825936 -0.14445221
0002c0 50 28 68 3d 81 2b 4f bd b9 52 08 be 6d 3c 1a 3e
       0.05667907 -0.050578598 -0.13312806 0.15062113
0002d0 95 b5 7c be 42 af 72 be bc 71 60 3e 40 9a ff bd
       -0.24678643 -0.23699668 0.21918386 -0.12480593
0002e0 9a 24 7c 3d f3 31 b5 be f1 4a 9e bc 78 a4 4f 3d
       0.061558343 -0.3538967 -0.019322844 0.05069396
0002f0 d0 2b 7c 3e 91 c7 e6 bd f8 64 bb bc 55 42 35 bd
       0.24626088 -0.11268533 -0.022875294 -0.044252712
000300 8c 83 da bd d6 19 60 3e c3 0b 3f be de cb 9c be
       -0.10669622 0.21884856 -0.1865683 -0.30624288
000310 f3 eb 8c be 94 25 7e be 88 e0 10 3e 60 22 6e 3d
       -0.27523765 -0.24819022 0.14148152 0.05813825
000320 c8 71 91 3d dd 63 7e 3d 51 cf 28 be a3 73 8c 3c
       0.0710178 0.062106956 -0.16485335 0.017144984
000330 91 c4 0a 3e 40 2b 84 bb d4 03 29 3d a3 88 dc 3b
       0.13551547 -0.004033476 0.041263416 0.0067301556
000340 10 1a 29 bd e3 60 85 bc 74 c8 e3 3d d3 88 cc 3d
       -0.04128462 -0.01628155 0.11122218 0.09987035
000350 d3 60 ac bd 1e 64 c6 bd f0 e8 cc bc 83 77 55 bd
       -0.08416905 -0.096870646 -0.025013417 -0.05211593
000360 87 e3 82 3d 44 b0 0d 3e 08 c8 2d be a6 27 2f be
       0.06391054 0.13836771 -0.16970837 -0.17104968
000370 94 72 fc 3d 21 1f 83 3e 94 6f 6c be 5e be bb be
       0.123265415 0.25609687 -0.23089439 -0.36668676
000380 56 4b bb bc d0 a2 9a bd a4 ca 16 be 1c 47 09 3c
       -0.022863071 -0.07550585 -0.14725739 0.00837877
000390 4b 85 d4 bc 5e 8a 58 3e b6 bd 0d 3d 6d da c5 3d
       -0.025942465 0.21146533 0.03460475 0.09660802
0003a0 cd db 13 3e 9a 1f c9 3e 27 3e 04 3d 19 ce 08 be
       0.14439316 0.39281923 0.032285836 -0.1335987
0003b0 e3 fc ce bd af 2b fc bd b8 f2 61 3d 94 b6 c7 bc
       -0.10106828 -0.123130195 0.055163115 -0.024379052
0003c0 86 59 7e 3d 4d be db 3b e9 28 44 bd 61 d3 59 3d
       0.062097095 0.006706035 -0.047890577 0.053180102
0003d0 d0 51 e8 bd 76 9d 17 be 23 f0 4e 3d 79 cb a6 3c
       -0.113437295 -0.1480616 0.05052198 0.020360695
0003e0 00 81 2c be 5c c8 da bd 75 f0 c5 3d 29 a5 5c bd
       -0.16846085 -0.10682747 0.09665004 -0.053868446
0003f0 a0 97 4e bb 63 9e ca bd c5 c1 8a 3e e1 b5 18 bd
       -0.003152348 -0.09893491 0.2710096 -0.03728283

common_layer.0.bias f4 [64]
000000 1d 50 48 39 5a 96 20 39 1c 75 e0 39 ac 76 2b b9
       0.00019103331 0.000153148 0.00042811863 -0.0001635204
000010 ea ab 01 b9 5e 42 3a b7 f0 c7 01 36 d6 44 ef 39
       -0.00012366442 -1.1101916e-05 1.9338877e-06 0.0004563692
000020 bb 89 77 39 91 27 31 39 ec a5 61 b8 60 70 46 37
       0.00023607064 0.00016894775 -5.3798707e-05 1.1827884e-05
000030 da be fc 38 58 37 dc 37 6c f4 91 b8 f2 cb 57 39
       0.00012051845 2.6251815e-05 -6.959666e-05 0.00020579973
000040 2f 03 85 38 32 d2 36 b8 72 8e 01 39 66 e4 2c 39
       6.342527e-05 -4.358794e-05 0.00012355464 0.00016488283
000050 3a 93 ee 38 68 cf 9c 37 20 b5 ef 36 6c 9f 1e 39
       0.000113761474 1.869323e-05 7.143841e-06 0.00015127443
000060 84 b6 03 39 05 39 77 b8 0f 2d 40 b9 d7 62 8d 39
       0.00012561126 -5.8942493e-05 -0.00018327333 0.00026967257
000070 e5 22 b0 b8 ec dd 6f 39 4b 6a 98 b8 77 a7 ac b9
       -8.3988336e-05 0.00022875489 -7.2677234e-05 -0.00032931168
000080 a4 bd ac b9 24 26 4e b9 a2 1c f8 38 48 6b c4 37
       -0.0003294769 -0.000196599 0.00011830895 2.3414977e-05
000090 3e 67 a7 b8 15 1e ab 39 de df 0e b9 0a 34 f8 38
       -7.982411e-05 0.00032638074 -0.00013625572 0.000118352546
0000a0 6a de 7e 38 3c 67 de 38 8c f6 19 37 f3 6c c9 38
       6.076546e-05 0.00010605014 9.176914e-06 9.60472e-05
0000b0 44 b2 aa 38 64 de 09 b9 94 cd f7 b9 6c 16 69 b9
       8.139436e-05 -0.00013148185 -0.0004726468 -0.00022228964
0000c0 a3 a5 ae b9 5a 7a ac b8 f4 ac 0b 38 e0 5f 4d 39
       -0.00033311275 -8.224389e-05 3.3301258e-05 0.0001958604
0000d0 f4 b3 96 b8 80 ce 55 b6 e9 01 30 b9 10 69 7e 39
       -7.186076e-05 -3.1859672e-06 -0.0001678538 0.00024262466
0000e0 ce 30 c0 b9 5d ba b3 b8 5e 9b 28 39 d6 eb 8a b8
       -0.00036657456 -8.570098e-05 0.00016079607 -6.624281e-05
0000f0 40 d2 17 39 14 a5 4e b8 47 e8 80 39 53 f4 8f b9
       0.00014478806 -4.926797e-05 0.00024587123 -0.0002745712

common_layer.1.weight f4 [64]
000000 f5 eb 20 3f 68 1b 37 3f 4f aa 4e 3f a9 91 37 3f
       0.6286004 0.71526194 0.8072862 0.71706635
000010 a9 77 50 3f d5 e3 62 3f a7 76 2c 3f b2 40 6d 3f
       0.81432587 0.88628894 0.6736855 0.9267684
000020 2a 1d 32 3f 29 37 33 3f 05 84 37 3f 00 fc 4d 3f
       0.6957575 0.7000604 0.7168582 0.80462646
000030 1c df 44 3f 34 4f 2b 3f a6 d8 2f 3f 4f 14 35 3f
       0.7690294 0.6691773 0.68689954 0.70734113
000040 d4 25 2e 3f 1c 5d 2c 3f 8e 08 1c 3f ce 3c 40 3f
       0.6802647 0.67329574 0.60950553 0.7509278
000050 43 a7 47 3f f1 52 24 3f 84 62 38 3f 42 f3 2e 3f
       0.77989596 0.6418906 0.7202532 0.6833993
000060 13 17 46 3f 54 bf 1b 3f 15 06 42 3f be 19 31 3f
       0.7737896 0.6083882 0.7579053 0.69179904
000070 ea b5 33 3f 56 fb 34 3f 85 67 28 3f a7 ac 34 3f
       0.70199454 0.7069601 0.6578296 0.70575947
000080 33 c0 12 3f df 8f 38 3f 6c e2 58 3f 20 3e 20 3f
       0.5732452 0.7209453 0.8472049 0.62594795
000090 4f a8 2e 3f 2f 7f 2a 3f 55 8b 1e 3f e3 ef 1d 3f
       0.6822557 0.66600317 0.61931354 0.61694163
0000a0 c9 9b 45 3f b5 a7 30 3f 00 f6 3c 3f 53 c7 43 3f
       0.77190834 0.690059 0.73812866 0.7647602
0000b0 f0 5c 4f 3f 20 04 18 3f b9 8f 50 3f a6 75 35 3f
       0.81001186 0.59381294 0.81469303 0.7088264
0000c0 78 eb 41 3f 64 58 43 3f 56 d3 60 3f 1b c8 32 3f
       0.7574992 0.7630675 0.87822473 0.69836587
0000d0 0b 07 32 3f 9b 5c 30 3f 9e f6 4c 3f d9 7c 3a 3f
       0.69541997 0.68891305 0.8006381 0.7284675
0000e0 72 95 70 3f 26 7f 37 3f 0f 28 4a 3f 61 65 19 3f
       0.93978035 0.7167839 0.78967375 0.59920317
0000f0 1d 45 4a 3f b8 1d 24 3f d0 1c 39 3f cc 54 1d 3f
       0.7901171 0.6410785 0.7230959 0.61457515

common_layer.1.bias f4 [64]
000000 74 37 70 be 9d 37 52 be 65 34 0f be f4 b6 a2 bd
       -0.23458654 -0.20529027 -0.1398483 -0.07945052
000010 77 3b 72 be 60 3c 15 be 99 40 9f be 34 93 9a be
       -0.23655497 -0.14573812 -0.31103972 -0.30190432
000020 e6 9a 6e be da c6 54 be 83 fc 85 be 76 00 84 be
       -0.23301277 -0.20778981 -0.26169214 -0.25781602
000030 c0 e3 7a bd fa 5e da bc 99 f2 a2 bd c6 35 a3 be
       -0.061252356 -0.026656616 -0.07956428 -0.31876963
000040 7d 51 75 be 14 db a8 be 7a 5c 52 be 00 62 dd bd
       -0.23956867 -0.32979643 -0.2054309 -0.10809708
000050 fa 83 ab be 86 85 cd bd 64 85 b1 be f2 0f 4e be
       -0.33499128 -0.10035233 -0.3467208 -0.2012327
000060 26 3f 2f be c6 a9 af be cf d6 c7 bd cb 67 a1 be
       -0.17113933 -0.34309214 -0.09757768 -0.315245
000070 87 7a 96 be d5 17 c6 be 85 da 7f be ab f5 bb be
       -0.29390356 -0.38690057 -0.24985702 -0.36710867
000080 2d d9 8a be 9d 98 4c be 48 a1 a4 3c 0a 14 c0 be
       -0.27118817 -0.19980092 0.020096436 -0.3751529
000090 93 7d f7 be 78 ad bf be c7 2d 96 be 16 f1 c1 be
       -0.48337993 -0.37437034 -0.293318 -0.37879246
0000a0 f1 6d 72 be f7 1d 6a be 55 cf 26 be 2a f9 1c be
       -0.23674752 -0.22862993 -0.16290028 -0.15329424
0000b0 c3 10 61 be b1 af 00 bf ae b2 8e be 30 94 a5 be
       -0.2197905 -0.50268084 -0.27870697 -0.3233962
0000c0 2f da 80 be 12 da 56 be 02 24 4e be 1f c1 88 be
       -0.2516646 -0.20981625 -0.20130923 -0.2670984
0000d0 a4 54 81 be 03 43 9c be 91 f2 87 be 48 20 de 3d
       -0.25259888 -0.30519876 -0.2655225 0.10846001
0000e0 52 9d 9e be a4 50 02 bf 33 f9 5d be 98 70 d2 be
       -0.309794 -0.509043 -0.21677093 -0.41101527
0000f0 26 b1 5e be 43 cd b3 be d0 ff 57 3d 46 b3 7d be
       -0.21747264 -0.3511754 0.052734196 -0.24775419

common_layer.1.running_mean f4 [64]
000000 b3 7c fd bd d6 87 16 be e8 14 6f bc 37 17 6d bd
       -0.123773 -0.14700255 -0.014592387 -0.057883468
000010 25 2b 8e bd 5a 27 86 be ad a8 4f be 6f 09 db bd
       -0.06941823 -0.26201898 -0.20279188 -0.10695159
000020 c7 73 ba bc a5 19 ec 3d 3e e7 9d bd 76 a9 a1 bd
       -0.022760285 0.11528329 -0.077101216 -0.0789365
000030 b9 58 34 be ac b1 79 be ea 5f 5d be 53 63 22 bd
       -0.1761197 -0.24384183 -0.2161862 -0.039645504
000040 b3 8c 43 be 65 d4 7d bc cc 16 57 3e fd 0d b6 be
       -0.19096641 -0.015492533 0.2100479 -0.35557547
000050 86 6a 0f 3e 6e 20 13 be 1e ad 61 3c 0d f2 20 3d
       0.14005479 -0.1436784 0.0137741845 0.039293338
000060 d7 45 58 be 30 29 39 3e 80 41 fe bd 20 a9 91 3d
       -0.21120392 0.18082118 -0.12414837 0.07112336
000070 53 ad 98 3d b5 45 b4 bc ec 1c a1 bd 11 5c 1a 3e
       0.07454934 -0.022005895 -0.078668445 0.15074183
000080 1a b2 bd bd 68 ed 1e be ee 4a 1c be c0 af c8 3d
       -0.09262486 -0.15520251 -0.15262958 0.09799147
000090 39 84 17 3d 6b c9 1a bb 8b 4b f8 3c 76 6e 90 b9
       0.03699133 -0.002361859 0.03030946 -0.0002754812
0000a0 86 25 39 be 91 95 7a 3c 54 09 be bd 0a e6 63 3d
       -0.1808072 0.0152944485 -0.09279123 0.055639304
0000b0 75 20 ce bc 1c 64 c3 be 42 8a 7d bd cc 6c 1c be
       -0.025161961 -0.38162315 -0.06189943 -0.15275878
0000c0 a2 64 90 3d b2 4b 16 be c9 c2 ba 3e 14 1e 53 3d
       0.07050444 -0.14677313 0.36476734 0.051542357
0000d0 22 d0 c3 bd 00 db fe be a2 42 a4 bd 35 95 8d 3d
       -0.095611826 -0.4977646 -0.08020522 0.069132246
0000e0 fe f9 59 bc cf a8 3d 3e e2 eb 19 bd d3 e8 69 3e
       -0.013304232 0.18521427 -0.03757847 0.22842722
0000f0 0e c0 b6 bc 78 b5 f3 3d ae 7f ab be c1 5a c3 bd
       -0.022308376 0.11899847 -0.3349585 -0.09538794

common_layer.1.running_var f4 [64]
000000 f4 32 bf 3d 6f e6 a7 3d 02 ea d7 3d 11 f6 8b 3d
       0.093358904 0.081982486 0.1054268 0.06834043
000010 6c e4 da 3d f0 15 ca 3d 7a f2 b0 3d d0 eb 15 3e
       0.10688099 0.098674655 0.08639999 0.14640737
000020 06 89 83 3d 40 0b bf 3d 42 2c d6 3d ce 70 cc 3d
       0.064226195 0.09328318 0.1045766 0.09982453
000030 01 e0 d5 3d 1a bc bf 3d d1 36 de 3d 01 6a d2 3d
       0.10443116 0.093620494 0.10850299 0.10274125
000040 f1 cb b9 3d 9c 32 e7 3d 95 fb 04 3e 1e 3c da 3d
       0.09072102 0.1128895 0.12986596 0.10655998
000050 8d 38 e2 3d 2f 94 f5 3d e1 ca a0 3d c1 6c c8 3d
       0.110459425 0.119911544 0.07851196 0.09786368
000060 4c 68 b5 3d d4 6c 85 3d d9 f8 e6 3d 8f a3 c0 3d
       0.08857784 0.06514898 0.11277933 0.09406196
000070 2e b0 bb 3d 31 70 b1 3d 7b cf 95 3d cf f3 be 3d
       0.09164463 0.08663977 0.073149644 0.093238465
000080 b5 69 f4 3d 40 b5 a8 3d cb 8f c6 3d 1a 94 af 3d
       0.119342245 0.08237696 0.09695395 0.0857317
000090 4f 81 d5 3d e7 f1 99 3d 4a 00 c3 3d 95 12 c5 3d
       0.10425054 0.07516842 0.095215395 0.09622685
0000a0 fa 1b 88 3d 96 c5 d0 3d 31 84 0c 3e 40 66 9a 3d
       0.06645961 0.101939365 0.13722302 0.07539034
0000b0 7d 9d bf 3d 9a 3e af 3d 76 54 fd 3d 9f 2b 71 3d
       0.093562104 0.08556862 0.12369625 0.05887949
0000c0 df 4d e9 3d c0 dc e3 3d 1d c6 99 3d d9 34 cb 3d
       0.11391806 0.11126089 0.0750849 0.09922189
0000d0 f8 96 b4 3d cf ea 98 3d b8 2e ba 3d a0 98 d2 3d
       0.088178575 0.07466661 0.09090942 0.10283017
0000e0 a5 af 97 3d 26 0a af 3d 51 c6 02 3e 8e c1 f5 3d
       0.074065484 0.085468575 0.12770964 0.11999808
0000f0 aa f7 d6 3d 50 15 f7 3d 01 fb 90 3d 9e a6 8d 3d
       0.10496457 0.12064612 0.07079125 0.06916545

common_layer.3.residual.0.weight f4 [64, 64, 3, 3]
000000 68 71 20 bd cd 8e 3c 3d ad 5c b5 bd 65 57 e4 3c
       -0.039170653 0.046034623 -0.08855567 0.027873704
000010 8b ab 73 3d eb 70 ea 3d dc 79 eb bc b1 7f dc bd
       0.059489768 0.11447319 -0.02874463 -0.10766543
000020 24 7c 0d be 9e e9 8e bc 0e e1 01 3e 46 20 93 bc
       -0.13816887 -0.017445382 0.12683508 -0.017959725
000030 05 dc 80 3c 85 e8 35 3d e3 7c 29 3e 14 c1 8a be
       0.015729913 0.0444112 0.16551547 -0.27100432
000040 11 a2 86 bd f7 96 81 bd dd 15 8f 3d 99 82 ba 3b
       -0.065738805 -0.063276224 0.06986592 0.005691838
000050 a9 8f a7 bd fe 1e d4 bb 83 d1 99 bd 22 79 27 3e
       -0.08181698 -0.006473421 -0.07510664 0.16354802
000060 08 72 b5 bd 38 9b 6f 3b 1e 1c 8a 3d 70 bc df 3d
       -0.0885964 0.0036561023 0.06743644 0.109246135
000070 83 47 a5 bd be 0f 9a bd 98 d7 7c bd d7 95 5a 3d
       -0.080702804 -0.07522534 -0.061729044 0.053365555
000080 c1 1a 2c bc 92 7e 0c be d2 19 78 3d e0 e7 e5 3d
       -0.0105044255 -0.13720158 0.0605715 0.11225867
000090 ba e5 8c be 59 98 93 bd ab 26 9c bd e9 da 3a bd
       -0.27519017 -0.072067924 -0.07624563 -0.045618925
0000a0 b5 16 0e be 62 71 d6 3d 35 5b b0 bd 19 96 41 3d
       -0.1387585 0.10470845 -0.08611146 0.047262285
0000b0 8f 6b ee bd 3f 47 7a bc eb c1 83 bd 47 ac 9f 3c
       -0.11641609 -0.015275775 -0.06433471 0.019491328
0000c0 99 8d d1 3d e7 16 16 3e 38 92 1f 3e 1c 73 c0 bc
       0.10232086 0.14657174 0.15583122 -0.023492388
0000d0 23 26 3e bd 86 65 0d be 99 60 e3 bd f7 5a a8 bd
       -0.04642309 -0.1380826 -0.11102409 -0.08220475
0000e0 54 a1 14 3e 41 c7 b7 3c 99 9d 02 be 53 1f eb 3c
       0.14514667 0.022433879 -0.12755431 0.02870146
0000f0 bf 7a 18 be fa 73 e7 3d 41 2b 4d bd 66 24 25 3e
       -0.14890574 0.11301418 -0.05009008 0.16127166
000100 ad 72 18 bc 3e 32 4f bd f3 5c 7a 3d 7b 55 25 3e
       -0.009304685 -0.050585024 0.0611238 0.1614589
000110 c1 84 f5 3c de 30 63 3e 57 59 d4 3c 6b b1 22 bd
       0.029970529 0.2218661 0.025921507 -0.03971998
000120 e4 fe 45 bd 1c 6e d4 bc f8 eb 91 3d f3 22 81 3d
       -0.048338786 -0.02593141 0.071250856 0.06305494
000130 91 56 96 bd 85 b3 a4 bd d9 77 70 3d 2f 8c cb 3d
       -0.0734073 -0.08042053 0.058708046 0.09938847
000140 35 86 cf bd 2d c3 03 3d 28 d3 8e bc 55 46 5d 3d
       -0.1013302 0.032168556 -0.017434672 0.054022152
000150 44 2e 4d bc 9c a3 d3 3d 43 b3 3e 3c b5 ff 65 3d
       -0.012523238 0.103339404 0.011639419 0.056152064
000160 99 ee 4f 3c 68 26 c8 bd f8 01 60 3e f8 df ea 3c
       0.012691163 -0.097729504 0.21875751 0.02867125
000170 c4 cb 64 3d 47 cc 29 be 1e 82 93 bd 57 19 8c bd
       0.05585839 -0.16581832 -0.07202552 -0.06840771
000180 6f 06 58 bd 2b 33 69 bd 97 94 fc 3c ef d3 59 bd
       -0.05274051 -0.056933563 0.030832572 -0.05318063
000190 3e c8 57 3d da 50 cd 3d bc c9 ed 3c b9 9e 49 be
       0.0526812 0.10025187 0.029026859 -0.19689454
0001a0 13 8c 82 3d 80 fa 75 bd 5a 14 89 3c 07 e9 89 bd
       0.06374373 -0.06005335 0.016733337 -0.067338996
0001b0 e1 d4 fa 3d f9 58 86 bd fd a4 d4 bd 2f 10 fb 3d
       0.12247635 -0.06559939 -0.103830315 0.12258946
0001c0 f1 d9 c1 3d 82 66 12 be 05 4f a4 3c f9 34 06 be
       0.09465397 -0.14296916 0.02005721 -0.13106145
0001d0 73 ca 69 3d bc 46 b6 3d 0a e2 cf bc ce 27 a1 bd
       0.057077836 0.0890021 -0.025376339 -0.0786892
0001e0 56 b2 0a bc 6a ed 36 bd ca 8c d3 3c 6a 82 6a 3d
       -0.00846537 -0.04466001 0.02582397 0.05725328
0001f0 1d da d7 3d 3f 4c 47 bd 94 3e 7a 3d eb f8 2c 3e
       0.10539649 -0.0486567 0.061094835 0.1689183
000200 15 c4 16 be dc ae 08 bc 01 24 f6 bd ff 26 bc bd
       -0.14723237 -0.008342471 -0.12018586 -0.091871254
000210 94 1c fb 3c 56 90 1c 3e 04 d5 0a 3c d2 44 41 3d
       0.030653276 0.15289435 0.008473638 0.047184773
000220 56 e6 d0 3c cb 84 ff bd 80 0a d1 bc ee ad 82 bd
       0.025500458 -0.124765 -0.025517702 -0.06380831
000230 06 8f a3 bd 1c 8d 1f 3e cd bd eb bc a2 02 4b 3d
       -0.07986264 0.15581173 -0.028777028 0.049563058
000240 7f 35 66 3d 91 e7 8b ba 2e 1f 83 3d 96 7f 2c 3d
       0.05620336 -0.001067387 0.064024314 0.042113863
000250 55 5e 8a bc f7 df d3 3d 5e ed 89 bd 19 60 14 be
       -0.016890684 0.10345452 -0.06734727 -0.14489783
000260 8e 4a ac 3d 72 99 48 3d c6 14 7a 3c 23 c5 98 3d
       0.08412658 0.04897446 0.015263742 0.07459476
000270 58 f3 06 bc 12 77 a2 3d 07 a3 af bd ab 54 b3 bd
       -0.008236729 0.07932867 -0.08576017 -0.087563835
000280 76 f1 03 bd 9b 4c 29 3e cb e7 2c 3d 65 fc 73 bd
       -0.032212697 0.16533129 0.042213243 -0.059566874
000290 50 3d e6 bd f8 d4 f9 bd a5 70 c2 bd 4b 65 cb 3d
       -0.11242163 -0.12198824 -0.094941415 0.099314295
0002a0 df f7 3b bd f9 c2 c0 3d fd 55 e9 bd fc 01 14 bd
       -0.045890685 0.09412188 -0.11393354 -0.036134705
0002b0 2e 6d e0 3d 17 90 3a 3c a5 1c bd 3c 39 37 17 3e
       0.109583244 0.011386893 0.023084948 0.1476716
0002c0 16 10 59 3e 7b 02 3a be aa 43 06 3e f0 ff 79 3d
       0.21197543 -0.18165009 0.1311175 0.061035097
0002d0 5a 27 30 3e 5b f7 71 3d 12 6a 16 bd 55 44 75 3d
       0.17202511 0.059073787 -0.03672225 0.05987962
0002e0 f8 5d 61 3b 90 02 c9 bd d3 6e 44 bd 50 46 69 bb
       0.0034388285 -0.09814942 -0.047957253 -0.0035594888
0002f0 f5 8b 3f bd 52 99 02 bd de 28 38 3d 52 99 f2 bd
       -0.046764333 -0.0318845 0.04496085 -0.1184565
000300 ce 03 cc bd 3a 6f c6 bd 96 44 ba bb 5e d5 4b 3c
       -0.09961663 -0.096891835 -0.0056844456 0.012441007
000310 f4 3b 47 bd 0d a5 53 bd 56 59 c9 bc fe a0 3e bd
       -0.04864116 -0.051671077 -0.024578732 -0.046540253
000320 b5 05 87 be 74 91 02 be f2 14 f0 3d 81 98 98 bd
       -0.26371542 -0.12750798 0.11722745 -0.07450963
000330 f7 d3 a9 3d 5e 73 d6 3d 00 cb b5 3d 1b 5b 4a bd
       0.08292382 0.10471223 0.0887661 -0.04940329
000340 cb 10 ad bc 64 b2 c3 bd e8 5d 08 be 90 e0 ba bd
       -0.021126172 -0.0955551 -0.13317072 -0.09124863
000350 5e 6c 08 be 6b f9 c6 bb fa ad 0a be 5c 19 73 bd
       -0.13322589 -0.0060722134 -0.1354293 -0.059350356
000360 75 22 9a be 65 e8 51 be b3 6d 5e 3d 27 a2 0e bd
       -0.30104414 -0.20498808 0.054303836 -0.03482261
000370 d2 6c 5e bc dd 26 bb 3d 17 ee 7c bd ea eb 0c 3d
       -0.0135757495 0.09138272 -0.061750498 0.034404673
000380 e1 00 11 3d 31 32 34 3e 00 fd e5 3c f0 60 a4 3c
       0.03540123 0.17597272 0.028074741 0.020065755
000390 e7 a1 66 bd 67 d8 0f be 64 1f eb bc 9d f3 2b be
       -0.056306746 -0.14047395 -0.028701492 -0.1679215
0003a0 73 72 40 3e c1 2e 86 3c 66 97 77 be af e6 08 be
       0.18793659 0.016379716 -0.24178848 -0.13369249
0003b0 52 f5 0a 3d bd ee fa bb d4 f9 83 bd 7b 49 88 3d
       0.033925362 -0.0076578544 -0.06444135 0.0665464
0003c0 4d 69 2e bd 0a 84 0c bd 1f f5 2a 3e 75 45 03 3e
       -0.04258089 -0.03430561 0.16695069 0.12819465
0003d0 1c 5d 1d bd e4 fd cd 3d 14 52 18 bc fb b0 2d bd
       -0.038418874 0.100581914 -0.009296913 -0.04240511
0003e0 90 21 5e 3d 1a ee 48 bd 96 fb d4 3d de 83 40 be
       0.054231226 -0.049055196 0.10399549 -0.18800303
0003f0 1d 95 3b 3d dc 83 a2 bd 12 bb ee bd fe 7d 06 bc
       0.045796502 -0.079353064 -0.116567746 -0.00820875

common_layer.3.residual.0.bias f4 [64]
000000 10 81 b8 36 94 1e 33 b7 44 6a 13 37 6e 9d 93 37
       5.498652e-06 -1.0676351e-05 8.786625e-06 1.7597074e-05
000010 54 51 4a b8 90 71 f9 35 ec ba 21 b6 a1 d8 7f 37
       -4.8236296e-05 1.8584997e-06 -2.4099672e-06 1.5249622e-05
000020 99 e2 6b 37 30 de 40 b5 f4 31 43 38 a8 b2 45 b6
       1.405985e-05 -7.18489e-07 4.6538145e-05 -2.945928e-06
000030 f5 38 8b b7 85 dd a2 37 a8 c9 8b 35 81 3a be 37
       -1.6596614e-05 1.9415058e-05 1.0414997e-06 2.2677008e-05
000040 6a 56 b4 b7 bb cb 3f b8 e3 96 9c 37 12 0a 01 b8
       -2.1497912e-05 -4.5727687e-05 1.8666911e-05 -3.0765375e-05
000050 20 ef 1c 35 97 53 42 37 dc 8d c0 b7 4c e5 1c 37
       5.84625e-07 1.1582763e-05 -2.2954242e-05 9.351712e-06
000060 0e a2 49 b7 52 dd 3a b7 38 43 26 36 00 44 d0 36
       -1.2018265e-05 -1.1137994e-05 2.4775054e-06 6.2067993e-06
000070 18 db 77 38 18 78 0b b8 ca 15 30 b8 73 c8 d9 b7
       5.9093436e-05 -3.325203e-05 -4.1981963e-05 -2.5961757e-05
000080 0c 2f 24 37 c4 ed 0f b7 c8 47 01 35 14 a7 f9 36
       9.786116e-06 -8.578823e-06 4.81607e-07 7.4402287e-06
000090 2a d9 a5 b7 ac f1 6c b6 e0 65 96 35 60 7f 84 37
       -1.9770658e-05 -3.5307412e-06 1.120552e-06 1.579494e-05
0000a0 ea 08 bb b7 d1 39 32 b8 b9 99 89 37 f6 0d 3c 37
       -2.2296288e-05 -4.2492353e-05 1.6403255e-05 1.1208924e-05
0000b0 12 1d 53 38 7e 44 51 b7 39 c5 8a b7 0a 1b 89 37
       5.0333394e-05 -1.2473318e-05 -1.6542721e-05 1.6344264e-05
0000c0 cc 35 bf b6 72 8e 61 36 b1 6d 82 37 d4 e9 83 37
       -5.6985064e-06 3.3610527e-06 1.5548287e-05 1.5725302e-05
0000d0 b0 8c 39 b6 3c 78 06 37 82 4c 16 b8 04 2e cc b7
       -2.764904e-06 8.015017e-06 -3.583404e-05 -2.4340123e-05
0000e0 9a 1c 58 37 13 a4 d8 37 54 0b c4 37 fe 62 3f b7
       1.2881263e-05 2.582561e-05 2.3370296e-05 -1.1407536e-05
0000f0 99 b3 88 37 6a f6 0f 38 f8 64 1d b8 ae 33 a0 37
       1.6296095e-05 3.4323348e-05 -3.752575e-05 1.9097552e-05

common_layer.3.residual.1.weight f4 [64]
000000 63 8f 59 3f b4 23 59 3f 4b c9 5f 3f 68 88 4d 3f
       0.84984416 0.84820104 0.87416524 0.80286264
000010 5e 02 5d 3f 60 da 78 3f e3 6c 43 3f 13 18 3e 3f
       0.8633174 0.97208214 0.7633802 0.74255484
000020 21 9d 5a 3f cb 92 4b 3f d9 75 65 3f 29 40 84 3f
       0.8539601 0.79520863 0.89632946 1.033208
000030 7a f6 5c 3f 55 1c 33 3f c2 0c 40 3f d8 ab 77 3f
       0.86313593 0.69965106 0.75019467 0.9674659
000040 5e b0 33 3f 99 98 6a 3f f7 37 4d 3f a5 b4 58 3f
       0.7019099 0.91639096 0.8016352 0.8465064
000050 37 03 65 3f 00 29 5c 3f ea 92 4a 3f a7 4a 54 3f
       0.8945803 0.8600006 0.79130423 0.8292641
000060 50 4e 41 3f 6f e7 4e 3f 18 4d 62 3f fb b4 45 3f
       0.7551012 0.8082189 0.88398886 0.7722928
000070 27 f2 49 3f 7e 14 33 3f 29 c8 72 3f 6f b9 4e 3f
       0.7888512 0.69953144 0.9483667 0.807517
000080 3c 3c 57 3f 41 db 52 3f 83 a5 58 3f 2b 40 60 3f
       0.84076285 0.82365805 0.8462755 0.8759791
000090 cf 66 6a 3f 3d 80 55 3f d5 d2 4c 3f 54 0f 35 3f
       0.91563123 0.833988 0.80009204 0.70726514
0000a0 a7 d8 68 3f 1b a7 52 3f ca e9 41 3f 86 68 55 3f
       0.90955585 0.8228623 0.7574736 0.83362615
0000b0 b1 a1 87 3f ac 93 4a 3f 3f 3d 85 3f 77 6f 76 3f
       1.0596219 0.7913158 1.0409316 0.9626383
0000c0 ea ad 4f 3f 43 0f 4c 3f 13 2a 52 3f 69 9f 64 3f
       0.81124747 0.7971079 0.8209545 0.8930574
0000d0 8b d3 57 3f 34 b1 89 3f 97 5a 5a 3f ce 91 64 3f
       0.84307164 1.0757203 0.8529448 0.8928498
0000e0 fe 88 53 3f ef 29 51 3f bc f9 8a 3f 95 11 59 3f
       0.8263091 0.8170461 1.0857463 0.84792453
0000f0 a1 8d 53 3f fb fe 76 3f 62 a5 60 3f 94 24 6b 3f
       0.82637984 0.9648282 0.87752354 0.9185269

common_layer.3.residual.1.bias f4 [64]
000000 eb 58 2e be b6 62 96 be 37 af 53 be c8 41 5c be
       -0.17026107 -0.29372185 -0.20672308 -0.21509469
000010 06 e7 93 be 12 f9 10 be 3d 3a 53 be e1 3b 84 be
       -0.28887194 -0.14157513 -0.20627685 -0.25826934
000020 a7 aa 9c be 82 3f ae be 37 a8 f8 be f3 c7 d9 be
       -0.30598947 -0.34032828 -0.48565838 -0.42535362
000030 cb a1 9e be 89 bd f4 be 73 4f 19 be b6 35 71 be
       -0.30982813 -0.47800854 -0.14971714 -0.23555645
000040 03 38 b0 be e9 65 9d be a8 c8 75 be a7 d2 5c be
       -0.34417734 -0.30741814 -0.24002326 -0.21564732
000050 5b 02 97 be 78 e3 6e be ee ec 91 be 06 75 79 be
       -0.29493985 -0.2332896 -0.28501076 -0.24361047
000060 87 5a cd be fb 76 5a be e7 a3 6f be dc 13 a0 be
       -0.4010813 -0.2133445 -0.23402368 -0.31265152
000070 e3 24 a5 be 31 8f d4 be b1 d2 bf be 0a 8a aa be
       -0.32254705 -0.41515496 -0.37465432 -0.3330844
000080 47 1e 44 be fe 19 80 be 6c e9 2e be 42 29 b6 be
       -0.19152175 -0.2501983 -0.17081231 -0.35578352
000090 e8 a4 b6 be 2a d3 5f be f8 bf 62 be 45 8a 43 be
       -0.35672688 -0.21857896 -0.22143543 -0.19095714
0000a0 6b 4b 03 bf d3 78 cf be ba 4f 9d be 71 88 89 be
       -0.51286954 -0.4052187 -0.3072489 -0.2686191
0000b0 59 99 82 be b1 fb aa bd c0 8c 04 be 8b 56 56 be
       -0.2550762 -0.083487876 -0.12944317 -0.20931451
0000c0 f1 ee 2b be cf eb 6a be 2d b5 34 be 19 06 a2 be
       -0.16790368 -0.22941516 -0.17647238 -0.31645277
0000d0 12 7f af be fd b0 a2 be d0 f4 95 be 0d 9c 8e be
       -0.34276634 -0.31775656 -0.2928834 -0.27853432
0000e0 9b 8d 8a be 38 a1 83 be 1c ce 5a 3e 26 11 91 be
       -0.2706116 -0.25708938 0.21367687 -0.28333396
0000f0 a4 d3 49 bd d9 43 71 be 1d 81 52 be dd 0a a5 be
       -0.0492741 -0.23561038 -0.20557065 -0.3223485

common_layer.3.residual.1.running_mean f4 [64]
000000 8d 50 9d bf dd 2e 15 bf b5 a8 4c bf 7e a9 b5 bf
       -1.2290207 -0.5827463 -0.79944927 -1.419235
000010 9e ea d6 be e8 ef c7 bf 11 c4 5b bf f5 93 7b bf
       -0.41975874 -1.5620089 -0.8584605 -0.9827264
000020 bf 71 09 bf b3 29 1e bf 40 71 1c bf c4 91 0e c0
       -0.5368919 -0.6178238 -0.61110306 -2.2276468
000030 4d 67 02 c0 f9 bd 87 3e 70 9f a0 3e aa 67 8f be
       -2.037555 0.26512125 0.3137164 -0.28008777
000040 e3 46 8e 3f 62 0e ae bf e4 05 a2 3e 9c 0a 1a bf
       1.1115383 -1.3598139 0.3164512 -0.6017244
000050 fe 67 89 be b7 b2 26 bf e3 00 2f bc 3e ae 08 bf
       -0.26837152 -0.6511645 -0.010681364 -0.5339087
000060 be cc 02 3f 37 cd a8 bf 1e 1b ad bf c3 e3 1b 3f
       0.5109366 -1.3187627 -1.35239 0.6089441
000070 c5 b4 98 bf 26 81 9f 3e 67 b2 1f bf 62 d6 45 bf
       -1.1930166 0.3115322 -0.62381595 -0.7728025
000080 ad f9 ba bf 1a b0 30 bf 8b e2 2e 3f ed fd 3e bf
       -1.4607445 -0.6901871 0.6831443 -0.7460621
000090 e6 96 f9 be 1e 3c a0 be 96 76 3a be b2 24 5d 3c
       -0.4874794 -0.31295866 -0.182093 0.013497518
0000a0 0f 50 8e bc 83 3a 76 bf 17 81 da be d2 df 5e bf
       -0.01737216 -0.9618303 -0.42676613 -0.8706027
0000b0 b5 6b 46 bf 6f f3 6d bf 2a fd a8 bf c3 10 a2 bf
       -0.775081 -0.92949575 -1.320226 -1.2661365
0000c0 71 1d e1 bf c7 14 8d bf f6 65 f2 be b5 dc a6 be
       -1.758711 -1.1021966 -0.47343415 -0.3259026
0000d0 6b 2c 58 bf cd 4b 8b bf bd 34 86 bf 61 ac 1b bf
       -0.84442776 -1.0882508 -1.0484844 -0.60809904
0000e0 c4 0e 93 bf a6 41 d9 be 9d 6c 90 be 46 9e a5 bf
       -1.1488881 -0.42432898 -0.28207865 -1.2938926
0000f0 b9 17 86 bf 27 09 84 bf 6b b8 a7 bf 67 9d 13 bf
       -1.047599 -1.0315293 -1.3103155 -0.5766205

common_layer.3.residual.1.running_var f4 [64]
000000 f3 b2 11 40 9d 61 e0 3f e9 4c ad 3f e7 fa 0f 40
       2.2765472 1.7529789 1.3539096 2.2496889
000010 af 34 de 3f 0a 3e 4d 40 4b 69 ca 3f 4c 50 fe 3f
       1.7359828 3.2069116 1.5813383 1.9868255
000020 70 d9 f8 3f e2 92 bd 3f 2b 08 fd 3f d2 8f ff 3f
       1.9441357 1.481045 1.9768118 1.9965765
000030 f7 38 98 3f 94 30 0e 40 40 a2 45 40 2a 8f ed 3f
       1.1892384 2.221715 3.088028 1.8559315
000040 b2 98 b4 3f fb 26 0c 40 20 2d c4 3f 6a f7 fe 3f
       1.4109099 2.1898792 1.5326271 1.9919255
000050 bb 3f 09 40 2c 53 d0 3f f3 e0 00 40 0b 1c cd 3f
       2.1445148 1.6275382 2.0137298 1.6024183
000060 b0 87 bf 3f db ab cb 3f 42 30 de 3f 7f 14 18 40
       1.4963284 1.5911821 1.7358477 2.376251
000070 fe ba e7 3f 7e a2 e8 3f 98 53 ae 3f 8b 09 e0 3f
       1.810394 1.8174589 1.3619261 1.7502912
000080 4e 7b 09 40 82 3d 75 3f 85 93 d4 3f 38 10 b0 3f
       2.148151 0.9579698 1.6607519 1.375495
000090 d4 a7 20 40 f8 cd 3f 40 47 d6 a7 3f 4c 9d e2 3f
       2.5102434 2.9969463 1.3112267 1.7704253
0000a0 b8 91 b9 3f 24 d9 07 40 d7 c3 c7 3f 84 2f 30 40
       1.4497595 2.1226282 1.560664 2.7529001
0000b0 70 77 86 3f 15 d2 c4 3f cb 22 06 40 ab 65 09 40
       1.05052 1.5376612 2.0958736 2.1468303
0000c0 65 89 f4 3f 46 b8 da 3f 24 2c 03 40 d0 58 94 3f
       1.910443 1.7087486 2.0495691 1.1589603
0000d0 28 67 08 40 b4 76 fa 3f 34 ea 46 40 09 42 f2 3f
       2.1312962 1.9567475 3.1080446 1.8926402
0000e0 cf 06 19 40 cc a9 d2 3f a1 94 11 40 43 5c 8e 3f
       2.3910406 1.6458068 2.2746966 1.1121906
0000f0 9c 30 ed 3f 64 2f d9 3f 12 3b df 3f db 22 06 40
       1.853046 1.6967587 1.7439902 2.0958774

common_layer.3.residual.3.weight f4 [64, 64, 3, 3]
000000 0d 74 1a bd 56 76 c8 bc 3b 9c fa bd 98 5f 0d bd
       -0.03770833 -0.02447049 -0.1223683 -0.034514993
000010 e8 de b7 bd 66 77 b9 3d 7d 73 20 3e 53 9b 31 3d
       -0.08978063 0.090559766 0.15669055 0.04336102
000020 3a e5 79 bd 5e 32 c3 3d a9 ff c8 3d c8 bb 0c be
       -0.061009623 0.09531091 0.09814388 -0.13743508
000030 21 6b 83 bd 2a ba 85 bd 82 01 07 bb e2 c8 b5 bd
       -0.064169176 -0.065296486 -0.0020600264 -0.08876206
000040 f4 f6 c1 bc f6 90 c2 bd 2e 19 d8 bc 4e 84 f8 bc
       -0.023677327 -0.09500305 -0.026379194 -0.030336525
000050 6a 63 42 be 5d d7 61 bd 46 77 35 3d 1e e5 df 3d
       -0.18983236 -0.055137027 0.0443032 0.109323725
000060 1b 2a 87 3d 88 00 91 3c e2 19 56 bd 14 30 c5 bc
       0.06599828 0.017700449 -0.052270778 -0.024070777
000070 27 91 13 3d 92 b2 0c 3e 9a 45 e7 3c 59 5c 49 3e
       0.0360271 0.13739994 0.02823143 0.19664134
000080 f7 89 7d bd 3c e4 82 3d 14 6a 50 3e 94 2f 5d 3e
       -0.06189915 0.063911885 0.20352966 0.21600181
000090 ef 27 a7 bc fc fb d2 3b 36 b6 51 38 c5 29 08 be
       -0.020404784 0.0064387303 4.999918e-05 -0.13297184
0000a0 c2 b2 cd 3d 57 3a 81 bd 13 d4 09 3e 3c b1 8e bd
       0.10043861 -0.063099556 0.13459806 -0.069673985
0000b0 f6 7c 09 3b 07 bd 4b bc 03 19 30 3e 54 00 c9 3c
       0.0020979024 -0.012435204 0.17197041 0.02453629
0000c0 80 35 b3 3d 05 e2 24 3e 78 a5 2f bc 5f 4c a0 3d
       0.08750439 0.16101845 -0.010720603 0.07827067
0000d0 3a 25 ae bd d8 f8 92 bc 64 ae bf bd 6b 55 87 bc
       -0.08503194 -0.017940924 -0.09359434 -0.016520223
0000e0 a1 41 6a bd 4b ef 9c 3d 23 ae d8 3d ac 89 03 bd
       -0.057191495 0.07662829 0.10580089 -0.032113716
0000f0 62 20 48 3e 8a 83 26 3d f7 b3 9d bc 44 11 a4 bd
       0.19543603 0.04065279 -0.019250853 -0.08011106
000100 48 b8 35 3d ab d8 e3 bd 56 72 ba bc c4 58 d5 3c
       0.044365197 -0.111253105 -0.022759598 0.026043303
000110 ed c1 49 bd f7 f7 8a bc f8 22 7f 3b 6a 42 b5 bd
       -0.049257208 -0.016963942 0.0038930755 -0.08850558
000120 24 10 db 3c e5 62 b6 3d bd 2f 3c 3e 78 24 19 be
       0.026741095 0.089055814 0.18377586 -0.14955318
000130 ad f5 c4 3d 22 5f 85 bd b2 7e ff bd c6 d4 22 3d
       0.096171714 -0.06512286 -0.12475337 0.039753698
000140 db dd d0 3d 84 3f 1f ba 76 00 44 3d 8e 06 bc 3c
       0.101985656 -0.0006074833 0.047852002 0.022952344
000150 df ee 39 be 14 b2 66 3d ea be c7 bd 7f 3d 9c bd
       -0.18157528 0.056322172 -0.09753211 -0.07628917
000160 07 4c 06 3d 34 b5 f9 3c e7 c8 07 be 75 aa f2 bd
       0.03278735 0.030481912 -0.13260232 -0.11848918
000170 3b 52 d5 bd df 8c 23 3e 83 91 1f 3e 60 74 8c 3e
       -0.10416075 0.15971707 0.15582852 0.27432537
000180 b6 0f cb bd 99 91 88 3d 54 82 30 bd 6c f9 92 3d
       -0.09915106 0.066683955 -0.04309304 0.0717648
000190 46 15 84 3d 97 d7 ab bc e0 14 3c bd 17 59 79 bd
       0.0644937 -0.020976825 -0.045918345 -0.06087598
0001a0 a6 26 43 be 38 2e 16 be 56 35 04 bd e4 17 a2 bc
       -0.19057712 -0.14666069 -0.032277428 -0.019786783
0001b0 f8 a3 97 3c 60 d9 92 3c 48 09 cf bc 48 51 d5 bc
       0.018510804 0.017925918 -0.02527298 -0.026039734
0001c0 c5 92 63 3e 4b 08 f5 bc ca 45 6b 3e 04 e4 1c be
       0.22223957 -0.029911181 0.22975841 -0.15321356
0001d0 7f 05 82 3c 19 f0 65 3d be 2f 25 3e 44 20 cc 3c
       0.015871761 0.056137178 0.16131493 0.02491773
0001e0 89 1f d3 3d b1 fd 2e 3e ba 8b 51 3d d7 32 8b 3b
       0.10308749 0.17088963 0.051158644 0.004248004
0001f0 99 34 3c 3d de 0b cc bc d6 ff 28 be 4b 60 ca 3d
       0.0459486 -0.024908002 -0.16503844 0.09881648
000200 8c d3 58 be a3 90 9f bd 69 80 0d bd ee 35 48 3d
       -0.21174449 -0.07791259 -0.03454629 0.048879556
000210 04 60 f8 3c ae 5a d0 3d 6b 1a 31 be ef f2 51 be
       0.030319221 0.10173546 -0.17295234 -0.20502828
000220 8b f8 94 bd 45 b7 15 bd f4 fb 1b 3d f4 2f 91 3d
       -0.07273968 -0.036551733 0.038082078 0.070892245
000230 32 8c a3 bc d9 b8 3f 3e d3 ca 91 3d 1d 27 dc bc
       -0.019964311 0.18722858 0.07118764 -0.02687412
000240 b5 6b 84 3c 27 ab d4 bc ae be 4a bc a9 f0 04 3e
       0.01616464 -0.025960518 -0.012374563 0.1298243
000250 ce 18 3c bd 50 f5 03 bd 2d a5 4b bd 1a 28 16 3e
       -0.045922093 -0.03221637 -0.04971807 0.14663735
000260 62 39 40 3e d7 a5 aa 3d 5a ec 14 3e 41 58 17 be
       0.1877189 0.08332413 0.14543286 -0.1477976
000270 76 b7 08 3e 34 ae ac 3d 51 b0 d7 3d 76 e3 5b bd
       0.13351235 0.08431664 0.105316766 -0.05368372
000280 59 e2 e8 3c f6 b7 2d b9 5d da 10 3e c9 aa 0d 3d
       0.028428243 -0.00016567096 0.14145799 0.0345867
000290 0c f2 3b bd b7 4e 83 bc 0c a5 7f bd 49 9f 79 bc
       -0.04588513 -0.016028745 -0.06241326 -0.01523573
0002a0 5e 8a 06 3d 23 73 8f bd 41 86 ec bc 1a 67 c0 bd
       0.0328468 -0.070043825 -0.028872611 -0.09394665
0002b0 48 6c 7c bd 08 38 2d bc 90 1c 3f 3d 6a 39 a0 3b
       -0.061626703 -0.010572441 0.0466581 0.004889657
0002c0 33 da 5a bb c9 a8 54 3e f9 c7 3e bc db 9e 98 bc
       -0.0033394217 0.20767511 -0.011644357 -0.018630436
0002d0 56 cf c0 3d 36 08 ea bc 9a f4 9d bb 10 74 0a 3e
       0.09414546 -0.028568368 -0.0048204185 0.13520837
0002e0 e7 65 79 3c f1 b5 f2 bd c6 e8 da bd ae d2 9d bd
       0.015222049 -0.11851109 -0.10688929 -0.077061996
0002f0 23 5a 27 be 10 42 61 bd 86 09 1c bd 56 2f f4 3c
       -0.16342978 -0.054994643 -0.03809502 0.029807728
000300 5b c4 5e 3d e6 72 94 bd e1 5b e7 3d cd 5b 51 bc
       0.054386478 -0.07248478 0.112968214 -0.012778235
000310 21 30 62 bd c3 5f b5 3b f6 31 7b bd 47 53 98 3d
       -0.05522168 0.0055350973 -0.061326943 0.07437759
000320 35 2c 1e 3e 00 cd 95 bd 69 e3 fb 3d 81 7f d2 3d
       0.15446551 -0.07314491 0.122992344 0.10278226
000330 2b b6 8f 3d f9 1b 0e be d1 06 42 3e 14 d7 fd 3d
       0.07017168 -0.13877858 0.18947913 0.123945385
000340 ba b5 8b bc 82 f6 99 bd a5 17 0e 3d 81 62 d1 bd
       -0.017054427 -0.07517721 0.034690518 -0.10223866
000350 53 ff 71 bc c0 47 5a bd d8 68 2e bd ed 23 16 be
       -0.014770347 -0.053291082 -0.042580456 -0.14662142
000360 44 84 52 bb 68 71 0e be ab a9 19 3d cc c7 ca 3d
       -0.0032122293 -0.13910449 0.037515324 0.099013895
000370 e7 d5 5a 3e 03 97 5b bc cc 6b bc 3d fa ef 9e 3d
       0.2137066 -0.013402703 0.09200248 0.07760616
000380 09 e1 99 bc 87 a3 0c 3e 25 62 66 3c 18 74 25 bd
       -0.018784063 0.13734256 0.014061485 -0.04039392
000390 37 9b 81 3d e2 7a cc bd fe 2a 1e 3e 95 a4 c0 3d
       0.06328433 -0.099843755 0.15446088 0.094063915
0003a0 00 42 20 3e 6e af 12 3e 5b 96 a1 3d 51 eb 1c 3c
       0.15650177 0.14324734 0.07890006 0.009577588
0003b0 a6 00 84 3c 4d 42 3a be 35 b8 82 bb 99 9c cb bd
       0.01611359 -0.18189354 -0.0039892443 -0.09941978
0003c0 9f 5e 0f bd 41 46 e1 bd 07 59 f2 bd e1 8e 95 bc
       -0.035002347 -0.10999728 -0.11833387 -0.018256607
0003d0 3f f4 d4 3c e6 66 4f 3e 21 84 f7 3d 80 44 20 3e
       0.025995372 0.20254096 0.120857485 0.1565113
0003e0 f3 77 bb 3c ea 39 35 3d 70 a4 a0 3c 63 a6 ca 3d
       0.022884345 0.044244684 0.01960966 0.09895017
0003f0 fe ee 86 bb af 1c 11 bd b8 c7 25 be 06 34 e6 bd
       -0.0041178456 -0.035427745 -0.16189468 -0.112403914

common_layer.3.residual.3.bias f4 [64]
000000 ce 4e bd b7 74 61 5a 37 4e 8a 69 37 c0 bc 31 35
       -2.2567252e-05 1.3016503e-05 1.3920084e-05 6.6212306e-07
000010 72 6e 0b 36 16 d0 9b b6 d4 20 8e b5 ab 1a e6 37
       2.0776902e-06 -4.6435844e-06 -1.0589379e-06 2.7430555e-05
000020 e0 7b d1 37 f9 b9 ec b7 2f 2f b7 37 e9 3d d9 b7
       2.4972425e-05 -2.8219993e-05 2.1837272e-05 -2.5897245e-05
000030 2c d6 59 b7 57 6f 0b 38 39 1e ce 37 74 3b e4 37
       -1.2984074e-05 3.3243876e-05 2.4571187e-05 2.7207403e-05
000040 83 56 0e 38 40 2d d2 b5 e4 00 8a 36 ef 06 4b 37
       3.393601e-05 -1.5659389e-06 4.112824e-06 1.2101357e-05
000050 00 3d 16 b7 3d cd c5 36 64 2e 0f b7 18 d5 01 37
       -8.954899e-06 5.8949504e-06 -8.534265e-06 7.738614e-06
000060 88 46 84 b7 f2 7a 33 b8 8c bc 80 b7 4e fd 8e b6
       -1.576847e-05 -4.2791427e-05 -1.5346588e-05 -4.2614183e-06
000070 92 13 91 b6 8c 6f db b6 50 4c fa b6 90 b7 36 b7
       -4.323615e-06 -6.5396944e-06 -7.4594645e-06 -1.0890784e-05
000080 5d 09 45 b8 b4 18 0d 37 70 1c 03 b7 20 27 c1 b7
       -4.697718e-05 8.410007e-06 -7.81483e-06 -2.3025612e-05
000090 32 25 ad 37 bf 45 2f b8 ef cc ee b7 b8 cb b1 36
       2.0640528e-05 -4.1788207e-05 -2.846724e-05 5.298727e-06
0000a0 8b ab c7 b7 ac fb 31 b8 33 58 d3 b7 b0 65 23 b8
       -2.380253e-05 -4.2434476e-05 -2.5194231e-05 -3.8956932e-05
0000b0 00 f0 4e 37 01 6f c8 37 68 10 a3 b6 9e 11 5e 37
       1.2334436e-05 2.3893548e-05 -4.8596885e-06 1.3236333e-05
0000c0 64 ef e2 37 c8 66 9c b7 6e e1 29 36 58 68 a6 b7
       2.7052774e-05 -1.864451e-05 2.531418e-06 -1.9837331e-05
0000d0 a2 73 84 b7 bf f4 e6 b7 2c 0d e5 b7 50 7d 47 b7
       -1.5789472e-05 -2.7532105e-05 -2.7305061e-05 -1.1890501e-05
0000e0 78 de c5 36 61 29 95 36 b0 c2 e0 b6 e0 d7 45 36
       5.8969563e-06 4.445363e-06 -6.698385e-06 2.9480943e-06
0000f0 00 20 78 34 36 01 52 b7 6c b3 17 36 00 c4 91 33
       2.3108441e-07 -1.2517257e-05 2.260519e-06 6.787741e-08

common_layer.3.residual.4.weight f4 [64]
000000 f3 fb 50 3f 0c bd 3d 3f d2 77 49 3f 88 5c 2d 3f
       0.81634444 0.7411659 0.78698456 0.67719316
000010 22 00 4c 3f eb 41 47 3f f0 11 53 3f 43 1f 6e 3f
       0.796877 0.7783496 0.82449245 0.9301645
000020 16 c6 57 3f b2 35 62 3f 72 9b 6e 3f 57 04 75 3f
       0.8428663 0.8836318 0.9320594 0.9570975
000030 ed 9f 7c 3f 3b c4 6f 3f 67 14 50 3f 94 d2 4b 3f
       0.9868153 0.936588 0.8128113 0.7961819
000040 dc de 5b 3f 06 e9 57 3f b4 79 4b 3f af cf 44 3f
       0.8588693 0.8433994 0.7948258 0.768794
000050 0f 7a 5b 3f ea 4d 83 3f c8 10 4e 3f 6b dc 4f 3f
       0.8573312 1.0258152 0.80494356 0.81195706
000060 26 d0 3f 3f 89 25 47 3f e5 57 44 3f a9 e0 5c 3f
       0.74926984 0.7779165 0.76696616 0.86280304
000070 19 cc 64 3f ce f5 87 3f 03 b2 55 3f ff a3 8b 3f
       0.8937393 1.0621889 0.8347475 1.0909423
000080 4c 4f 6a 3f 3a cb 33 3f e7 22 1e 3f 09 d1 66 3f
       0.9152725 0.70231974 0.61772007 0.9016271
000090 9b 60 53 3f 76 7a 4d 3f de 6a 5e 3f 46 22 53 3f
       0.82569283 0.80264986 0.86881816 0.8247417
0000a0 99 69 3e 3f c7 b7 6b 3f 04 ea 62 3f 62 1b 66 3f
       0.7437988 0.92077297 0.8863833 0.8988553
0000b0 12 d5 33 3f 76 d0 5e 3f 9d 13 83 3f 23 26 50 3f
       0.70246994 0.87036836 1.024036 0.8130819
0000c0 c9 2e 7c 3f 07 1a 7c 3f 12 eb 20 3f f9 e8 61 3f
       0.9850889 0.98477215 0.6285869 0.88246113
0000d0 f4 9e 3d 3f 6d d6 7c 3f 79 ba 4c 3f cb 96 1e 3f
       0.7407067 0.9876469 0.79972035 0.6194884
0000e0 d2 72 6a 3f 71 10 70 3f a9 63 59 3f 09 18 54 3f
       0.9158145 0.9377509 0.84917694 0.82849175
0000f0 c5 86 78 3f 11 d7 76 3f 74 ec 4a 3f f3 3b 7f 3f
       0.9708064 0.96421915 0.7926705 0.9970085

common_layer.3.residual.4.bias f4 [64]
000000 bf 86 ee be 90 ff 5f be 3d a1 9e be c0 0e ca be
       -0.46587178 -0.21874833 -0.3098239 -0.39464378
000010 ab 0d d2 be 60 60 7e be c9 bc b0 be 7e 69 94 be
       -0.41026053 -0.24841452 -0.34519032 -0.28986734
000020 ae 3d 57 be 92 da fd be d1 f7 e4 be 59 72 a8 be
       -0.21019623 -0.49580818 -0.4472032 -0.3289974
000030 0f 2e f5 be c0 2f 2b be 5b 89 e1 be b5 8f b8 be
       -0.47886702 -0.16717434 -0.44050106 -0.3604714
000040 e7 cf a5 be 05 62 ab be c0 81 f6 be ab c0 bf be
       -0.3238518 -0.3347322 -0.48145866 -0.37451681
000050 53 fa ad be 24 f6 fd be 96 35 c5 be d0 43 f1 bd
       -0.33980045 -0.49601853 -0.38517445 -0.11780512
000060 5c fb ec bd 78 d9 06 bf 36 e6 a3 be 13 f9 b6 be
       -0.115713805 -0.5267558 -0.32011575 -0.35736904
000070 9d 68 88 be 55 7d ea be ac 08 9c be 9e af a0 be
       -0.26642314 -0.45798746 -0.30475366 -0.31383985
000080 dc df 86 be 24 01 90 be 20 15 65 be 06 66 06 bf
       -0.26342666 -0.2812587 -0.2237134 -0.52499425
000090 6a 59 25 bf a0 22 a0 bd 4f b9 7d be a3 95 38 be
       -0.6458956 -0.07819104 -0.24777721 -0.18025832
0000a0 45 f0 90 be 6d d7 04 bf 43 8a ec be 67 b2 d3 be
       -0.2830831 -0.51891214 -0.46199235 -0.41347048
0000b0 38 ca 24 be e8 99 c8 be 63 3e f9 be 86 78 b2 be
       -0.16092765 -0.3917992 -0.4868041 -0.34857577
0000c0 e5 dd f5 be 0d 46 92 be f3 43 84 bc 46 55 94 be
       -0.48020855 -0.2856907 -0.016145682 -0.28971308
0000d0 c3 69 71 be 21 c3 7f be 17 46 b3 be 29 42 8a bb
       -0.23575501 -0.2497678 -0.35014412 -0.0042193127
0000e0 1a 87 f5 be 7b b7 08 bf d6 64 c4 be c6 b1 96 be
       -0.47954637 -0.5340497 -0.38358182 -0.29432505
0000f0 3e 34 e6 be 14 d0 c6 be 4e 95 73 be 1b c5 ad be
       -0.44961733 -0.38830626 -0.23787424 -0.33939442

common_layer.3.residual.4.running_mean f4 [64]
000000 d6 b5 97 bd c2 93 44 bf 89 d6 fd be a0 91 db be
       -0.07407729 -0.7678796 -0.4957774 -0.4288454
000010 64 3f e3 3d 68 7b dd be fe 02 3d bf 01 91 d5 bf
       0.11096075 -0.43258214 -0.7383269 -1.6684877
000020 7f d8 31 bc 3b c3 c4 be 3f 7a 0c 3e 66 9b 9c bf
       -0.010854839 -0.384302 0.13718508 -1.2234924
000030 19 f9 d8 3e 84 1e 08 c0 af 8e ad bf de de 42 be
       0.42377546 -2.1268625 -1.3559169 -0.1903033
000040 36 8e dc 3f a4 a2 b9 bf a6 40 a1 bc 4c 86 d2 bf
       1.7230899 -1.4502759 -0.019684147 -1.6447234
000050 ef d0 f7 bf 01 9b a0 bd 9b 6f e5 be bc 7c d6 3f
       -1.9360636 -0.07842065 -0.4481171 1.6756816
000060 c7 f2 3b 3f a9 a0 04 bf a9 02 f5 3e 62 1f 97 bf
       0.73417324 -0.5180765 0.47853592 -1.1806452
000070 ec ef d3 bf d4 f1 05 bf ed 95 a7 bd 4a 4c e8 bf
       -1.6557593 -0.52322125 -0.08182893 -1.8148282
000080 67 33 d9 bf 72 1d a4 bd 2d 74 d9 bf 7f aa 37 be
       -1.6968812 -0.08013429 -1.6988579 -0.17936133
000090 b8 f3 be 3e b4 0d 61 bf 13 bf 42 be dd 8a 84 3f
       0.37295318 -0.87911534 -0.19018202 1.0354878
0000a0 1c 4f a1 be 19 9c 69 bf c5 b5 2b 3e 5c 8a a7 3e
       -0.31505668 -0.9125381 0.16768558 0.32722747
0000b0 20 34 d0 bf 08 9b b2 bf 34 d5 0c bf 61 89 ff bd
       -1.6265907 -1.3953562 -0.5501282 -0.12477375
0000c0 1e 2b d7 be e5 34 91 bf 2b 89 1b c0 1a ac 8d be
       -0.42025083 -1.1344267 -2.430247 -0.27670366
0000d0 e8 4c 33 be c6 ab 6f bf ca cf 8f bf 2e 56 3d bf
       -0.17509806 -0.9362148 -1.1235287 -0.73959625
0000e0 0b 0a 25 3f 24 c8 65 bf d8 f0 84 bf 06 1f 76 bf
       0.6446845 -0.89758515 -1.0386 -0.9614109
0000f0 41 9f 28 3e 64 21 8a be 2b d2 e3 be d9 8c e6 bf
       0.16467 -0.269786 -0.44496283 -1.8011733

common_layer.3.residual.4.running_var f4 [64]
000000 97 f2 ab 3f 78 fc fc 3f 55 3d b5 3f 67 89 01 40
       1.3433408 1.9764547 1.4159342 2.0240114
000010 5d e8 d9 3f 43 7c e5 3f cc 90 ad 3f 90 01 e7 3f
       1.7024037 1.7928547 1.3559813 1.8047352
000020 45 d4 1b 40 cc a2 d6 3f 15 5f f3 3f bb ae af 3f
       2.434831 1.6768432 1.9013392 1.3725199
000030 1e 32 d7 3f 86 0f 2b 40 cc 78 cc 3f 25 90 9b 3f
       1.681217 2.6728225 1.5974364 1.2153364
000040 61 c1 f7 3f 6d ed c3 3f 0f 60 c4 3f fd 37 11 40
       1.935589 1.5306832 1.5341815 2.2690423
000050 42 8d b1 3f 06 80 02 40 05 3f f2 3f 1d 43 22 40
       1.3871233 2.039064 1.8925482 2.5353463
000060 f5 e4 c0 3f 75 02 94 3f bf ea 0a 40 0c 4f 02 40
       1.5069872 1.156325 2.1705778 2.0360746
000070 07 22 e5 3f 45 e1 d1 3f 1d c4 04 40 9c 19 2d 40
       1.7901009 1.6396872 2.0744698 2.704688
000080 46 52 04 40 38 d3 9e 3f 78 90 b6 3f 00 1c 17 40
       2.0675216 1.2408209 1.4262838 2.361084
000090 7d f1 cb 3f d8 ae e2 3f 9c 88 b4 3f d7 25 c1 3f
       1.5933071 1.7709608 1.410419 1.5089673
0000a0 3f 23 bd 3f dd 77 10 40 70 bf fc 3f e5 4c b8 3f
       1.4776381 2.2573159 1.9745922 1.4398466
0000b0 86 fb 05 40 78 3d a1 3f 32 07 bb 3f 02 99 aa 3f
       2.0934768 1.2596884 1.4611571 1.3327944
0000c0 42 4c d8 3f 05 4c fc 3f b1 4d 08 40 cb 59 9b 3f
       1.6898272 1.9710699 2.129742 1.2136778
0000d0 3f 0d 9d 3f fe e6 de 3f 31 0c 81 3f d9 64 1b 40
       1.2269667 1.7414243 1.0081846 2.4280303
0000e0 38 1f c4 3f 0d d0 8b 3f 05 f2 9d 3f 06 c7 06 40
       1.5322027 1.0922867 1.2339483 2.1058974
0000f0 18 8f f3 3f 67 21 d6 3f ae c7 c6 3f c2 49 20 40
       1.9028044 1.6728944 1.5529687 2.5045018
