model/resnet/8x8/2/latest_64f_2b_8.pt (torch_old, 648550 bytes, 40 tensors)

common_layer.0.weight f4 [64, 4, 3, 3]
000000 74 b2 f9 3d b3 53 6f 3e d6 ea a3 be ec cb ac bd
       0.1219224 0.23371772 -0.32015103 -0.084373325
000010 11 fc d6 bd c4 0b e9 bd 11 15 b0 be 05 04 09 be
       -0.104972966 -0.11379197 -0.34391072 -0.1338044
000020 0b f8 38 3e ae 65 18 3d c0 1d 23 3e c5 a1 ba bd
       0.18063371 0.037206344 0.15929317 -0.09112886
000030 55 ed 77 be 0b 50 53 3e 2f 55 ac 3a d7 c5 ec 3d
       -0.24211629 0.20636003 0.0013147945 0.115611725
000040 f9 1d 3f 3d d2 6a ad be 8d 8a b1 3d 5a e0 37 3d
       0.046659444 -0.3387056 0.086690046 0.044891693
000050 06 cd 90 3d 1f 2a a9 3b 3b ea bd 3d 69 1d bc bd
       0.07070355 0.005162492 0.092731915 -0.09185297
000060 5e 19 b0 3d 15 f4 9d bd 25 73 2e 3c 31 86 53 3e
       0.085985884 -0.077125706 0.01064757 0.20656659
000070 52 b0 a5 3d 23 dc c6 bd 3a 94 3d bc 79 c9 ff 3d
       0.08090271 -0.097099565 -0.0115709845 0.124896
000080 e7 e1 0c be 98 f3 d2 bc f5 ee 3e be 36 53 f2 bd
       -0.1375805 -0.02575092 -0.18645842 -0.118322775
000090 f9 7b eb bd 32 76 8f bd 4d b9 f0 bd f7 ec c5 3d
       -0.11498255 -0.07004966 -0.11754093 0.09664338
0000a0 0d db b3 3e 39 fa 11 be 88 e3 33 bc ef 7f 47 be
       0.3512806 -0.14255609 -0.010979541 -0.19482397
0000b0 c5 5a d9 3d 58 4f 24 bd d2 48 7b bd 14 2b 4b 3d
       0.10613016 -0.04011473 -0.061348744 0.04960163
0000c0 12 f5 26 3d 45 78 8b 3e 22 39 2f 3e c1 87 49 be
       0.04076106 0.27240196 0.17111638 -0.19680692
0000d0 94 27 bc be 00 14 9f 3d 19 b0 5f ba b5 4b 65 3c
       -0.36748946 0.077674866 -0.00085330155 0.013995101
0000e0 d7 50 de bc ba 5a 00 be 75 16 14 bd 90 5b ed bd
       -0.027138157 -0.1253461 -0.03615423 -0.1158973
0000f0 0d e9 88 bd 4e 4b 10 3d 42 5b 19 bc 37 60 79 3d
       -0.06685076 0.035228066 -0.009360136 0.060882773
000100 70 25 be 3c 5c 43 67 3c 4b 5c 19 3e 0e 52 77 bd
       0.023211211 0.014115181 0.14976613 -0.060380988
000110 89 cc 02 bd 2b 41 02 be 2c 76 3e be 2f a4 40 be
       -0.03193334 -0.12720172 -0.18599766 -0.18812631
000120 bc 35 a0 3e 26 1d bd 3c f7 50 cb 3e b5 71 31 bd
       0.31290996 0.023085188 0.3971021 -0.04332133
000130 1d 80 be bc 7e 09 28 3e 32 76 64 3e c4 e2 35 be
       -0.023254449 0.16409871 0.22310713 -0.17762285
000140 a2 72 d8 3c 5f 0d af 3d 9e a8 38 bd 60 ed de bd
       0.026421849 0.08547472 -0.04508268 -0.108851194
000150 1d fb 33 be 95 78 f0 be 01 dc 41 bc 32 c7 9b be
       -0.17576261 -0.46966997 -0.011832238 -0.3042541
000160 87 30 56 3d f8 72 0e 3d 9a b9 f5 3c 95 39 9e 3c
       0.052292373 0.03477761 0.029995728 0.019314567
000170 2e 66 5c 3e 88 e4 1e 3d eb 9e 78 bd 57 12 2a 3b
       0.21523353 0.038792163 -0.06069843 0.0025950873
000180 61 aa 61 3e c9 72 d5 3c 51 a8 a1 3d 97 ad 6f bd
       0.2203765 0.02605571 0.07893432 -0.058515158
000190 29 74 7e 3d 75 41 94 bb 5f 3c cf bc 91 ea 8e 3d
       0.062122498 -0.0045244046 -0.025297342 0.06978334
0001a0 df f5 92 bd 8a 84 39 3d 20 a6 a5 bd 82 22 98 3d
       -0.071758024 0.045292415 -0.080883265 0.07428457
0001b0 4f 01 89 3e 28 5f 19 3e f2 55 eb be f3 2a e1 3c
       0.2675881 0.14977705 -0.4596401 0.0274863
0001c0 e0 2c e0 bd 53 16 a8 3d 1f 32 73 be 29 54 86 bd
       -0.10946059 0.08207383 -0.23749588 -0.06559021
0001d0 4e fb 8d be 30 c0 83 3e 1e 62 a3 3d 84 ff 9a be
       -0.27730793 0.25732565 0.07977699 -0.30273068
0001e0 28 72 df 3d aa 1d 51 3b a5 a4 67 3e 13 52 77 be
       0.109104455 0.003190855 0.226214 -0.24152403
0001f0 35 2e 4c 3d c4 53 7d 3e 70 8f 09 bd e8 c2 1d 3d
       0.049848754 0.24738985 -0.03358406 0.038515955
000200 e5 3a 30 bd 18 f2 db bd e6 f3 09 bc fd 03 f9 bc
       -0.043024916 -0.10739535 -0.008419966 -0.03039741
000210 98 b1 d1 3c 93 1d 07 3d f0 ba 98 bd b8 4b 9a 3d
       0.025597379 0.03298719 -0.074575305 0.075339735
000220 e0 bf f9 3d 13 83 5f bd 56 d9 29 bd 37 74 4b 3d
       0.121948004 -0.05456836 -0.041467033 0.049671378
000230 95 f5 d9 bd 1d a9 cc bc 19 11 26 bd d4 af 7f 3d
       -0.10642544 -0.024982983 -0.04054365 0.062423542
000240 ff 61 97 3e 7e 9d 34 3e a0 70 79 bd 67 a3 00 bd
       0.29566953 0.17638204 -0.060898423 -0.031405833
000250 a4 63 9c 3e 5d d3 ea bd d7 12 82 bd 9a 33 b4 3c
       0.3054477 -0.114660956 -0.0635125 0.021997262
000260 ac 48 9b be 78 46 6b be c5 27 ac be cf 32 e5 be
       -0.30328882 -0.229761 -0.33624092 -0.44765326
000270 77 92 03 bd d1 a8 06 3e bb 65 b8 3d 53 c2 72 3d
       -0.0321221 0.13150336 0.090037785 0.059267353
000280 d1 32 3e be a6 e5 e3 3d a8 5c 66 3d c6 46 e4 3d
       -0.18574072 0.11127786 0.056240708 0.111463115
000290 81 0f 1c 3e a1 78 07 3b 97 f0 b8 bc 17 14 4b 3d
       0.1524029 0.0020671266 -0.02257566 0.049579706
0002a0 74 02 18 bd 67 b1 20 3e 0b 9a 16 bd 8e ba e1 3d
       -0.037111714 0.15692674 -0.036768 0.110219106
0002b0 98 14 1a 3e 15 eb e8 bc ee 85 ef bd d8 01 1e be
       0.15046918 -0.028432408 -0.11695467 -0.15430391
0002c0 25 6f 26 3d 29 de 80 bd 0a 92 fc bd a5 b0 1d 3e
       0.04063334 -0.06292374 -0.12332542 0.15399416
0002d0 12 75 62 be 24 49 84 be eb a9 2e 3e 3d 63 29 be
       -0.22114971 -0.25837052 0.17057006 -0.16541763
0002e0 bd b7 d6 3d 26 a4 b4 be f6 b9 52 3d d9 e2 a8 3c
       0.10484264 -0.35281485 0.051446877 0.020615982
0002f0 5a 9f 89 3e 00 dc f8 bd d9 26 b7 ba e4 a1 9f bd
       0.26879388 -0.12151337 -0.001397337 -0.0779455
000300 17 54 e5 bd 2b 24 5e 3e 98 55 52 be 8c 9a b2 be
       -0.111976795 0.21693484 -0.20540464 -0.34883535
000310 e1 54 9d be 5d c0 7c be 3f ba ce 3d f7 ae c6 3c
       -0.3072882 -0.24682756 0.100941174 0.024253352
000320 2a bc 3b 3d 82 83 a6 3d 85 ad 01 be ad 63 2b 3d
       0.045833744 0.08130552 -0.12663849 0.041843105
000330 37 94 b9 3d 42 30 c6 3c 1f dc f5 3d 5e 13 8f bc
       0.09061473 0.024192933 0.120048754 -0.01746529
000340 cc 5f 6e bd 1e ab eb bc d4 d4 b3 3d cc f8 ae 3d
       -0.058196828 -0.028768118 0.08780828 0.08543548
000350 b1 a3 cd bd 7a c4 fa bd a1 f3 26 bd 10 5d 99 bd
       -0.10040987 -0.12244506 -0.040759686 -0.074884534
000360 bf 0b 92 3d ed 4a e9 3d 28 e8 35 be f4 fa 1b be
       0.07131147 0.11391244 -0.17764342 -0.1523245
000370 fc 88 c2 3d 3c 80 7f 3e 53 40 76 be b2 00 b8 be
       0.09498784 0.24951261 -0.24047975 -0.3593803
000380 ce 86 10 bd 63 75 96 bd 5d 45 0b be 6d 1e 09 3d
       -0.03528481 -0.073466085 -0.13600679 0.033476282
000390 07 e9 f5 3b a0 4e 4c 3e fb 6e 33 3d 1f 7f c9 3d
       0.0075045857 0.19951868 0.04380701 0.098386995
0003a0 d0 03 2c 3e 03 29 ce 3e d4 d9 4a 3d bd ad 47 bd
       0.1679833 0.40265664 0.049524143 -0.048749674
0003b0 9b f1 e4 bc b3 29 a3 bd fc f8 58 3c ae 7d bf 3c
       -0.027947238 -0.07966938 0.013242956 0.023375358
0003c0 62 45 48 3d 83 14 51 bc fa ee 44 bd 28 b4 6b 3d
       0.048894294 -0.012761238 -0.04807947 0.057544857
0003d0 3c 4a d2 bd 76 e2 35 be 4b 27 08 3d d8 f6 cd 3b
       -0.10268065 -0.17762169 0.033240598 0.0062855296
0003e0 3c 3d 55 be 17 76 03 be d2 a8 9c 3d 8f 5d d5 bd
       -0.2082414 -0.12838016 0.076493874 -0.104182355
0003f0 51 a0 d7 bb ce 9a 7f bd ba 81 82 3e b1 1e 55 bd
       -0.0065803905 -0.062403493 0.254896 -0.052031223

common_layer.0.bias f4 [64]
000000 f8 2e cb b7 57 53 aa b7 74 67 55 39 50 2f 69 b8
       -2.4221357e-05 -2.0304387e-05 0.00020351802 -5.5595592e-05
000010 26 65 17 b9 c6 a9 6f b9 05 2a 2f b8 58 bf 7d 38
       -0.00014438163 -0.00022856062 -4.1762385e-05 6.0498103e-05
000020 ea 32 83 b9 19 c6 a1 b8 13 cf c2 38 28 86 36 b8
       -0.000250242 -7.713977e-05 9.2892114e-05 -4.3517124e-05
000030 fa b3 2f 39 c1 ff 73 38 04 ab 12 b9 a2 d5 0a b9
       0.00016756347 5.8173904e-05 -0.00013987353 -0.0001324029
000040 9d 45 73 b9 47 04 f3 38 a0 be c9 b5 37 52 cd 38
       -0.00023200219 0.0001158794 -1.5031146e-06 9.7904755e-05
000050 21 7b 05 ba 00 62 51 35 1a 84 5a b9 44 99 f6 b8
       -0.0005091895 7.8001176e-07 -0.00020839312 -0.00011758742
000060 de 0c e0 38 c8 f7 ae 38 1e 8b fc 38 b3 65 0e 38
       0.00010683549 8.3431194e-05 0.00012042209 3.3950153e-05
000070 ac 49 35 38 c6 34 3a 39 86 63 8a 38 f0 b3 ab 35
       4.3222375e-05 0.00017758002 6.5988905e-05 1.2792862e-06
000080 62 e8 25 b9 4c fe 72 b8 1d 32 24 39 10 da 22 b8
       -0.00015822196 -5.793413e-05 0.00015658927 -3.8826896e-05
000090 74 8a 66 b9 0e 7e 83 39 d8 29 ed 37 1e 7e a2 38
       -0.00021986087 0.00025080185 2.8272087e-05 7.748253e-05
0000a0 ec 20 79 b9 21 bb 0c 38 f8 b1 f2 b9 13 41 3b b8
       -0.00023758755 3.355288e-05 -0.00046290434 -4.464488e-05
0000b0 a2 f1 50 38 4a 75 a3 37 61 62 8e b9 cc 0b 82 39
       4.9816103e-05 1.9485731e-05 -0.0002715765 0.00024804322
0000c0 23 cb 13 38 68 37 67 b9 98 a7 00 b7 b9 e0 17 39
       3.5236717e-05 -0.00022050517 -7.6684155e-06 0.00014484198
0000d0 56 3e ba b7 48 ab 61 b7 c4 a0 82 37 fa 1d 25 39
       -2.2201955e-05 -1.3450925e-05 1.557207e-05 0.00015746793
0000e0 67 d7 d0 b8 d4 a9 a2 b7 17 ba 3a b9 3c 11 85 37
       -9.958335e-05 -1.9390987e-05 -0.00017807666 1.586286e-05
0000f0 e7 18 8b b9 d6 49 ae 36 d6 70 14 39 f6 0d 35 b8
       -0.000265307 5.1941997e-06 0.00014156415 -4.3166765e-05

common_layer.1.weight f4 [64]
000000 8b 3d 1a 3f 13 56 1e 3f 3f 39 48 3f 5e 59 28 3f
       0.6025016 0.6185009 0.7821235 0.65761364
000010 f9 ee 44 3f 15 7c 4d 3f aa 27 24 3f 27 7c 6c 3f
       0.76927143 0.8026746 0.6412302 0.9237694
000020 8a 15 36 3f 4d 8b 21 3f c9 74 32 3f be 0f 4f 3f
       0.71126616 0.6310318 0.6970945 0.80883396
000030 12 cb 3e 3f cb 3c 22 3f 60 ed 29 3f 96 17 3e 3f
       0.7452861 0.6337401 0.6637783 0.7425474
000040 4f ac 3b 3f b6 1d 2a 3f e9 ad 12 3f 78 7b 38 3f
       0.733098 0.66451585 0.57296616 0.720634
000050 1e a5 49 3f fc 92 29 3f f1 dd 3a 3f d3 e3 2c 3f
       0.78767574 0.66239905 0.72994906 0.6753513
000060 09 12 3f 3f 5f 92 24 3f 7e ae 30 3f 3c 6b 2c 3f
       0.74636894 0.64285845 0.69016254 0.67351127
000070 c4 27 2e 3f 48 7d 29 3f 6e a5 1d 3f 3b d4 29 3f
       0.6802943 0.6620679 0.6158055 0.66339463
000080 5f 87 09 3f a5 3f 3a 3f 86 31 50 3f 75 61 1b 3f
       0.53722185 0.72753364 0.81325567 0.6069558
000090 40 d5 29 3f 9d 08 21 3f 75 bb 16 3f a2 2b 21 3f
       0.6634102 0.6290377 0.58879787 0.62957203
0000a0 12 63 4b 3f 47 ab 2c 3f 48 96 3b 3f ca ff 37 3f
       0.79448044 0.6744885 0.73276186 0.7187468
0000b0 31 ef 4a 3f 4e 2c 1a 3f 94 27 4c 3f 1e 0d 29 3f
       0.7927123 0.60223854 0.7974789 0.6603564
0000c0 7a f6 3f 3f 09 b9 46 3f 6d 77 59 3f 4a 6b 30 3f
       0.7498547 0.7762609 0.84947854 0.6891371
0000d0 db 14 2d 3f a0 4e 25 3f cf 4c 49 3f 8c 34 33 3f
       0.6760995 0.645731 0.78632826 0.70002055
0000e0 63 a3 75 3f 0d e4 37 3f 86 b6 4b 3f e9 56 1b 3f
       0.95952433 0.7183235 0.79575384 0.6067949
0000f0 7b 19 54 3f ab ad 20 3f e1 9c 24 3f 0b b4 19 3f
       0.8285138 0.62764996 0.6430188 0.6004035

common_layer.1.bias f4 [64]
000000 e8 14 61 be 64 97 90 be 0d 73 24 be a1 0f b0 bd
       -0.21980631 -0.28240502 -0.16059513 -0.08596731
000010 94 99 74 be 0c 23 5d be 80 0d ae be 09 3a a3 be
       -0.2388671 -0.215954 -0.33994675 -0.31880215
000020 c7 9a 70 be ba 7e 8f be e0 8d 83 be 3f 3d 86 be
       -0.23496543 -0.28026372 -0.2569418 -0.26218602
000030 34 87 5b bd d9 c7 55 bd eb ed cd bd 7f c8 95 be
       -0.053595737 -0.052192543 -0.10055145 -0.2925453
000040 53 c9 3c be 8d bc b0 be 7b b9 66 be 79 cd 10 be
       -0.18436174 -0.34518853 -0.22531693 -0.14140882
000050 0c 9c 9f be 33 9c f5 bd f7 2f a2 be 79 3e 5b be
       -0.31173742 -0.11992683 -0.3167722 -0.2141055
000060 52 62 3b be de d1 91 be af 8d 2c be d6 17 bc be
       -0.18299225 -0.28480428 -0.16850923 -0.36736935
000070 d3 da b4 be b0 f8 e1 be 10 93 8f be 4d 2e dd be
       -0.353232 -0.44135046 -0.28041887 -0.43199387
000080 5e a8 94 be 42 ee 43 be 72 0c 1a 3d e9 fc c2 be
       -0.29034704 -0.19133857 0.037609525 -0.3808358
000090 0c 59 f8 be 9e 3a d1 be b2 81 97 be a5 98 b0 be
       -0.48505437 -0.40865034 -0.29591137 -0.3449146
0000a0 f1 e4 51 be 11 37 7c be 30 a4 fd bd 90 f5 37 be
       -0.2049749 -0.24630381 -0.12384832 -0.17964768
0000b0 c0 6d 65 be 3a 70 f9 be b6 11 96 be 86 3d b0 be
       -0.22405148 -0.48718435 -0.29310387 -0.3442194
0000c0 b5 bf 88 be db 5e 53 be e3 a6 3a be 03 03 89 be
       -0.2670876 -0.20641653 -0.18227725 -0.2676011
0000d0 b1 c0 95 be 13 b0 ad be f5 4d 8f be dc 74 a1 3d
       -0.29248574 -0.33923396 -0.27989164 0.07883617
0000e0 9a b7 83 be a9 ae f7 be 7b ec 37 be 3a 71 dd be
       -0.25726014 -0.48375443 -0.17961304 -0.43250448
0000f0 57 3c 4c be 51 0f be be 0d 84 cd 3b c1 bd 90 be
       -0.19944893 -0.3712106 0.006271845 -0.2826977

common_layer.1.running_mean f4 [64]
000000 e3 72 ea bd 93 52 11 be 1f 57 86 bb 1c 6d cc bb
       -0.11447694 -0.14191656 -0.004099741 -0.006238593
000010 f0 d1 a4 bd 06 a8 70 be 90 df 25 be 2b 93 20 bd
       -0.08047855 -0.23501596 -0.16198564 -0.03920285
000020 2d 40 f7 3b e7 d4 b0 3d 4e e1 5c bc 39 94 5c bd
       0.007545492 0.08634358 -0.013481451 -0.053852294
000030 52 1b 22 be c6 5e 14 be 8e fd 05 be 7f e0 97 bc
       -0.15830734 -0.14489278 -0.13085005 -0.018539665
000040 38 8e 01 be a5 7f 6d 3d 17 88 43 3e 3a e3 2e be
       -0.12651908 0.05798306 0.19094883 -0.17078868
000050 41 b1 30 3d e5 9d 05 be c3 dd ab bc ed c1 40 3d
       0.043137792 -0.13048513 -0.020979768 0.047059942
000060 cd d7 ee bd 3a 77 5e 3d 66 1f 21 be 5a 03 94 bd
       -0.116622545 0.054312922 -0.15734634 -0.07227202
000070 f5 ad 78 bc e6 38 3d 3d 33 34 af bd 73 05 44 bd
       -0.015178193 0.04619684 -0.08554878 -0.04785676
000080 65 d6 84 bd f2 d5 a1 bd 60 4d 2a be e8 19 13 3e
       -0.06486205 -0.07902135 -0.16631079 0.14365351
000090 d4 78 20 3c 89 df 6c bd 07 12 44 bb 08 a7 92 3c
       0.009794433 -0.057830367 -0.0029917972 0.017901912
0000a0 df 54 c8 bd da 33 6a bd 0c 29 04 bd e3 52 8a 3c
       -0.09781813 -0.057178356 -0.032265708 0.016885227
0000b0 02 64 a4 bc f6 58 53 be 71 6c 87 bd 61 c8 2a bd
       -0.020067219 -0.20639405 -0.066124804 -0.041695002
0000c0 e1 1b 2f bd 64 5c 8a bc 36 c7 78 3e 3b 38 ed bc
       -0.042751197 -0.016889758 0.24294743 -0.028957477
0000d0 5b 9f 1b 3a 01 79 91 be 7a 76 94 bd 26 cc 55 3d
       0.00059365266 -0.2841263 -0.0724916 0.052196644
0000e0 60 45 1e bc 0f 7f 43 3e 8e 5e 52 bc 3e 41 7b 3d
       -0.009660095 0.19091438 -0.012839926 0.061341517
0000f0 6e f8 99 3b b8 04 98 3d 79 f2 43 be 7c b0 27 be
       0.0046988046 0.07422775 -0.19135465 -0.16375917

common_layer.1.running_var f4 [64]
000000 87 1c a0 3d d2 36 7a 3d a8 60 80 3d ee e5 72 3d
       0.07817941 0.061087437 0.06268436 0.05930131
000010 e1 2a 86 3d ca 1a b1 3d 0d ba c3 3d 57 53 b5 3d
       0.06551147 0.08647688 0.09556971 0.088537864
000020 c8 91 73 3d 72 f1 87 3d 63 99 84 3d ab 95 89 3d
       0.0594652 0.06637849 0.06474569 0.06718
000030 f5 f0 bb 3d 29 85 92 3d 28 d6 9d 3d 6a 8f 8f 3d
       0.09176818 0.071543045 0.07706863 0.07009776
000040 e2 13 8d 3d 99 f7 8b 3d 49 f3 ac 3d ff 06 a6 3d
       0.06888558 0.06834335 0.084448405 0.08106803
000050 aa c4 8f 3d 5d e2 86 3d 02 43 5e 3d 31 cd a0 3d
       0.070199326 0.06586144 0.054263122 0.07851637
000060 2b 0a 8a 3d 70 94 54 3d dd b2 8f 3d e1 75 77 3d
       0.06740221 0.051899374 0.07016537 0.060415152
000070 24 31 68 3d bf cc 89 3d 2b 41 81 3d cc 64 9f 3d
       0.05668749 0.06728505 0.06311258 0.07782897
000080 5b bb 95 3d 59 b6 7c 3d 69 04 b4 3d 4b 19 6e 3d
       0.07311126 0.061697338 0.08789904 0.05812959
000090 f0 8b 96 3d 5f 92 8e 3d 60 52 8c 3d bc 14 a1 3d
       0.0735091 0.06961512 0.06851649 0.07865283
0000a0 7c bc a3 3d 0d 05 87 3d a3 48 aa 3d 27 ce 89 3d
       0.07994935 0.0659276 0.083146356 0.067287736
0000b0 19 4b 86 3d 49 40 a2 3d af ce a2 3d be 69 40 3d
       0.065572925 0.07922418 0.07949578 0.046975844
0000c0 da 69 9d 3d a9 d4 86 3d 94 2d 9a 3d 14 16 9c 3d
       0.07686205 0.065835305 0.075282246 0.076213986
0000d0 fb 5c 82 3d a9 ba bc 3d c0 1d 90 3d cd c8 7f 3d
       0.06365391 0.0921529 0.07036924 0.062447358
0000e0 14 c8 86 3d e0 a5 a6 3d 7e 52 8a 3d 5e 73 8d 3d
       0.065811306 0.08137107 0.067540154 0.0690677
0000f0 db ee 9f 3d 1d f1 95 3d f9 fd 9c 3d c0 0b 85 3d
       0.0780923 0.07321379 0.07665629 0.06496382

common_layer.3.residual.0.weight f4 [64, 64, 3, 3]
000000 df a8 cf bd 32 e3 4f 3c b7 c1 86 bd fb d2 98 3c
       -0.101396315 0.012688445 -0.06579917 0.01865529
000010 e5 4e 17 3d 6f d8 35 3d b1 05 17 bd c0 10 f9 bd
       0.036940474 0.04439586 -0.036870662 -0.12161398
000020 91 41 07 be 2b bf 73 bd 6c 83 b1 3d f5 b6 26 bc
       -0.13208605 -0.059508484 0.08667645 -0.010175456
000030 33 31 ea bc 41 da d0 bc ef d7 06 3e 06 c7 6d be
       -0.028587913 -0.025494697 0.1316831 -0.23220453
000040 97 bb a4 bd d2 8f af bd 77 47 15 3c 50 29 7b 3d
       -0.080435924 -0.085723534 0.009111277 0.061318696
000050 3e d8 9f bd b2 37 1e 3d af de 1a bc 1c ae 3f 3e
       -0.07804917 0.038627334 -0.009452506 0.18718761
000060 66 b1 ff bd 78 82 e7 3c 13 3e fe 3d e3 f9 e6 3d
       -0.12485008 0.028260455 0.124141835 0.11278131
000070 69 9c 12 be 57 00 d9 bd c6 b4 58 bd 0b af 85 3d
       -0.14317478 -0.10595768 -0.052906774 0.065275274
000080 4d 6e 8d bc fc 83 f2 bd 40 2b 8c 3b 21 2d 00 3e
       -0.01726451 -0.1184158 0.0042776167 0.12517215
000090 f6 15 36 be 6c 3b 9c bd 6b 0b a4 bd 6b ba 8e bc
       -0.17781815 -0.07628521 -0.0800999 -0.017422875
0000a0 da ac 1b be fe 11 f6 3d 2d 89 09 be e8 e7 ea 3c
       -0.15202656 0.120151505 -0.13431235 0.028675035
0000b0 ca f2 0e be 87 dc 9f bb 78 2d 2c bd 45 84 95 3c
       -0.13959804 -0.004878584 -0.04203555 0.018251548
0000c0 39 8f 99 3d 22 54 0b 3e 81 10 c0 3d 27 e9 5c 3c
       0.07498021 0.13606313 0.09378148 0.013483322
0000d0 ef c1 43 3d ae 70 b1 bd 96 fe fc bd 92 01 83 bd
       0.04779237 -0.0866407 -0.12353246 -0.06396784
0000e0 e6 a9 06 3e 2b ca af bc 9d 68 01 be ec e4 bb 3d
       0.13150749 -0.021458706 -0.12637563 0.09174523
0000f0 cd 56 10 be 6b 06 77 3d 6e e7 5a bd c5 d3 ce 3d
       -0.14095612 0.060308855 -0.053443365 0.100989856
000100 e4 8a 99 3d d1 52 a2 bd 17 3c a4 3d 02 4c 3e 3e
       0.074971944 -0.07925952 0.08019274 0.18583682
000110 f2 3c c5 3c e6 3c 88 3e d4 f6 5c 3d 7b bd 05 bd
       0.024076913 0.26608962 0.05394633 -0.032651406
000120 64 13 18 bd 4c c2 eb bd 47 c4 00 3e a3 12 e8 3d
       -0.037127867 -0.115116686 0.12574874 0.1133168
000130 e3 d6 34 be 0f 74 29 bc 57 96 06 bd b6 34 ed 3d
       -0.17660098 -0.010342612 -0.03285822 0.115823194
000140 cf e3 b7 bd 1a 42 af 3d f8 08 cb bc 21 39 05 3d
       -0.08978998 0.0855753 -0.02478455 0.032525185
000150 b7 35 1e 3d 44 1f d7 3d df f6 1b 3d 94 09 c9 3d
       0.038625445 0.1050401 0.03807723 0.0981628
000160 27 c5 11 3d c1 fb f5 bc 40 dc 1c 3e f1 1a cf bc
       0.03558841 -0.030027272 0.15318394 -0.025281401
000170 aa 69 b9 3c 6f 6d 0b be 69 6c d6 bd c9 92 85 bd
       0.022633392 -0.13615964 -0.10469896 -0.06522138
000180 68 9e 41 bd ad 0d be bc 26 37 61 3d 7d 15 d4 bc
       -0.04727021 -0.02319988 0.054984234 -0.025889153
000190 10 33 8a 3d ae 03 ce 3c 9f 9f 79 3d 29 d5 f6 bd
       0.06748021 0.025148239 0.060943242 -0.12052376
0001a0 fa 2a 4d 3d 66 c8 c8 bd db 30 da 3b 96 b3 7d bd
       0.050089814 -0.09803848 0.006658656 -0.061938845
0001b0 23 9b f3 3d 91 38 4d bd 24 e8 05 be 60 04 11 3e
       0.11894824 -0.050102774 -0.13076836 0.14161825
0001c0 61 b1 9e 3d 06 05 3b be 28 b8 ee 3c be 2a ad bd
       0.07748676 -0.18263635 0.029140547 -0.08455418
0001d0 96 4a 7f 3d 88 24 94 3c 32 79 b3 bc 85 11 84 bd
       0.06232699 0.018083826 -0.021908376 -0.06448654
0001e0 61 93 36 bb e0 25 3e bd 59 30 89 3d 5a b2 e3 bc
       -0.002785884 -0.04642284 0.06698675 -0.027795006
0001f0 a7 a7 0b 3e 34 03 d2 bb fd f6 fb 3d 68 a8 32 3e
       0.13638173 -0.0064090732 0.12302969 0.17447054
000200 85 ee 0b be 1c a0 a4 bb cb 21 e8 bd 58 3b a0 bc
       -0.13665207 -0.0050239693 -0.113345705 -0.019559547
000210 d5 75 32 bd 22 e1 0b 3e cf 39 07 bd af 91 e1 3c
       -0.043569405 0.136601 -0.033014115 0.027535288
000220 a9 f6 75 3d 7e a2 1f be 40 58 72 bd ab 60 d7 bb
       0.060049687 -0.1558933 -0.059166193 -0.006572803
000230 3f 8b b2 bd 4d 04 03 3e 21 7b 90 3b 66 17 0f 3e
       -0.08717965 0.1279461 0.0044092094 0.1397377
000240 66 e2 bd 3d fd d7 80 bd c3 82 74 3d 71 1e ef 3c
       0.09271698 -0.062911965 0.059695017 0.02918932
000250 e6 16 a2 bd 98 2c 95 3d ce ac 08 be be 09 49 be
       -0.07914524 0.07283896 -0.1334717 -0.19632623
000260 92 ae 86 3d 12 67 c4 3d cb b3 b4 bc ad bf 31 3e
       0.065762654 0.095899716 -0.022058388 0.17358275
000270 f3 5f c7 3c 5c bf 72 3c 2e 6e 76 bd 79 31 86 bd
       0.024337744 0.014816131 -0.06016367 -0.06552405
000280 2c a4 73 bd fe bb 04 3e 6c c4 c5 3d 88 a2 46 bd
       -0.05948274 0.12962338 0.09656605 -0.048494846
000290 fd ce bc bd ed 43 36 bd dd 5b fc bc 8e 32 40 3e
       -0.092191674 -0.044498373 -0.030805523 0.18769285
0002a0 49 f0 8a bd 4b 71 fc 3d fc 8a b5 bd a4 9b b0 bd
       -0.06784112 0.123262964 -0.088644 -0.08623436
0002b0 8f ec a2 3d c6 44 c1 bb a5 09 ea bc 0d a1 d6 3d
       0.07955276 -0.005898091 -0.028569052 0.10479937
0002c0 63 91 5f 3e f0 8f 7a be 62 04 36 3e 64 ca 30 3d
       0.21832804 -0.2446897 0.1777511 0.043161765
0002d0 80 e7 17 3e ee d3 41 3d 6a af c0 bb 60 f5 ec 3d
       0.14834404 0.047321253 -0.005880286 0.11570239
0002e0 72 ed 26 3d a8 8c e9 bd 92 51 6f bc 5b 66 d0 3c
       0.04075379 -0.11403781 -0.01460685 0.025439432
0002f0 30 c5 bd bd 7c cd ab 3d e3 19 3c 3d 39 da 0c be
       -0.09266126 0.083888024 0.045923125 -0.1375512
000300 4a 6b 7f bd 84 1f dd bd 18 e3 2a bd 08 57 f7 3d
       -0.06235818 -0.10797027 -0.04172048 0.12077147
000310 50 00 d9 3b fd 83 20 bd 87 b5 4f bd db 3a da bd
       0.0066223517 -0.039188374 -0.050710227 -0.10655757
000320 73 12 35 be 66 11 ec bd eb 80 1d 3d 64 85 ce bd
       -0.17682819 -0.11526756 0.038453024 -0.10084036
000330 58 81 f8 3d 05 50 00 3e 38 13 45 3d 67 ce 66 bd
       0.12134045 0.12530525 0.04811403 -0.056349184
000340 b6 d5 a8 bd f5 55 e4 bd 85 58 f7 bd 54 e4 cc bc
       -0.08243887 -0.111492075 -0.12077431 -0.02501122
000350 85 39 cf bd 83 72 f1 3c 25 6e 9e bd 59 a6 8b bc
       -0.10118393 0.029473549 -0.07735852 -0.017047094
000360 b9 1c 8c be 35 61 2e be 8e 69 15 3d 92 92 81 bd
       -0.27365664 -0.17029269 0.036477618 -0.06326784
000370 b0 97 92 bd 9c fd d8 3d 27 2f a6 bd 32 c7 33 bd
       -0.07157838 0.10595247 -0.08114462 -0.04389114
000380 51 2c 97 3d 9d 21 3f 3e ef 01 91 bc 61 67 51 bc
       0.073814996 0.18665166 -0.017701117 -0.012780995
000390 85 94 20 bd 86 3e ed bd 69 60 fa bc ef bb 22 be
       -0.03920414 -0.11584191 -0.03056355 -0.15892003
0003a0 81 61 77 3e eb 50 f0 3d 07 6b 83 be 42 19 b4 bd
       0.24158289 0.11734184 -0.25667593 -0.0879388
0003b0 c1 aa 0b 3d 87 0d 2b 3c 4f 25 64 bd 06 7c 01 3e
       0.03409839 0.010440237 -0.055699643 0.12644967
0003c0 65 09 ba bd ff e9 4c 3d 1c aa 76 3e 10 fc ee 3d
       -0.09083823 0.050027844 0.24088329 0.11669171
0003d0 4b 20 aa bd 9d 31 b5 3d 19 38 72 bd e2 f3 1b bd
       -0.08306941 0.088473536 -0.05913553 -0.03807438
0003e0 e6 11 cd 3c 68 aa 36 bd bb c8 0d 3e 09 f0 22 be
       0.025032949 -0.044596106 0.13846104 -0.15911879
0003f0 b7 1d 05 3d 05 86 be bd 25 b8 c9 bd 48 ac d5 3c
       0.03249904 -0.09302906 -0.09849576 0.026083127

common_layer.3.residual.0.bias f4 [64]
000000 a0 49 0f b8 f5 52 94 37 1c 56 11 37 70 cb ab 35
       -3.4162425e-05 1.7681605e-05 8.662722e-06 1.2799701e-06
000010 5a 58 91 37 ed 7d 67 38 f4 39 56 b8 e5 1a 8b 37
       1.7326489e-05 5.519197e-05 -5.107555e-05 1.6582615e-05
000020 66 f6 72 37 54 3c 35 38 bb 5f 8f 37 c4 c9 d6 b7
       1.4481693e-05 4.3209948e-05 1.7091506e-05 -2.5604742e-05
000030 36 4d 2a b8 e5 c6 2f 38 43 55 da b6 14 c6 b3 37
       -4.0603067e-05 4.1908486e-05 -6.506832e-06 2.14307e-05
000040 30 da 5e 37 db 86 a7 37 54 77 a9 37 10 98 84 37
       1.3283032e-05 1.9970748e-05 2.0201936e-05 1.5806436e-05
000050 d5 2e f4 b7 7b 70 b2 b7 5c b7 9e b7 f0 81 87 b6
       -2.9108875e-05 -2.1271631e-05 -1.8920451e-05 -4.0384402e-06
000060 ae db f7 b7 72 2b fd b6 9e 94 4b b7 08 5f a4 35
       -2.954699e-05 -7.5450453e-06 -1.21343455e-05 1.224661e-06
000070 91 da 84 b6 3f cc 02 b8 c6 2b 25 38 1a cc 43 b7
       -3.959351e-06 -3.1184634e-05 3.9379833e-05 -1.1670427e-05
000080 4e 7c 38 b8 22 5a 9c 37 1d 7e 1d 37 1a 90 c4 37
       -4.3984786e-05 1.863862e-05 9.387292e-06 2.3432123e-05
000090 59 2e 0e b8 4e f5 ba 37 50 33 54 37 9c 89 b2 b7
       -3.3898603e-05 2.2287157e-05 1.2648132e-05 -2.1283333e-05
0000a0 4c ae 82 36 b0 5c fb b5 d0 88 d2 b6 e6 62 ed 37
       3.8945927e-06 -1.8727933e-06 -6.274415e-06 2.8298655e-05
0000b0 f8 51 16 37 d2 7f 6f 38 58 44 51 b7 03 71 e8 b7
       8.959782e-06 5.7101082e-05 -1.2473283e-05 -2.770918e-05
0000c0 1e 74 b7 37 aa ee 27 b7 54 f2 0c b8 61 4d aa 37
       2.1869371e-05 -1.0009544e-05 -3.3604287e-05 2.0301612e-05
0000d0 c0 95 43 b5 60 cd 0a b5 32 74 76 b7 70 c8 68 b7
       -7.2861076e-07 -5.1707866e-07 -1.4689796e-05 -1.3874946e-05
0000e0 0e 1c 96 36 a4 27 f2 36 4c df 58 b7 73 df 61 37
       4.4736144e-06 7.216777e-06 -1.2926594e-05 1.3463071e-05
0000f0 5b 2e 6d b8 d1 be 7e 38 3e cf 2e b7 ab ef de b7
       -5.6548375e-05 6.073603e-05 -1.04194605e-05 -2.6576066e-05

common_layer.3.residual.1.weight f4 [64]
000000 e0 49 5c 3f 52 0f 51 3f e7 43 5b 3f ac 5c 43 3f
       0.86050224 0.81664 0.85650486 0.7631328
000010 29 a8 56 3f ca af 6e 3f d4 4b 4a 3f 9c 73 40 3f
       0.8385034 0.9323698 0.79021955 0.75176406
000020 1a c3 52 3f ef cd 54 3f 2a a0 63 3f 11 7c 85 3f
       0.8232895 0.8312673 0.88916266 1.0428487
000030 90 68 60 3f 62 4f 33 3f 0c e7 3f 3f ce fc 6a 3f
       0.8765955 0.70043004 0.74961925 0.91792
000040 45 93 32 3f b2 0a 67 3f ee 19 4b 3f ca f8 4a 3f
       0.69755965 0.90250695 0.7933644 0.7928587
000050 d2 08 52 3f 18 6e 5b 3f 3d 10 3f 3f b1 28 53 3f
       0.8204471 0.85714865 0.7463415 0.82483965
000060 aa 51 43 3f 32 1f 59 3f ef c1 62 3f 61 89 4e 3f
       0.76296484 0.84813225 0.8857717 0.80678374
000070 a2 bf 52 3f 3c b1 36 3f f4 39 76 3f 40 5b 44 3f
       0.8232366 0.7136419 0.9618218 0.76701736
000080 8f e1 51 3f f7 4c 5b 3f 61 a7 48 3f 84 c4 61 3f
       0.819848 0.85664314 0.783804 0.88190484
000090 8a 67 6d 3f a1 10 52 3f 95 7c 4f 3f b1 05 3c 3f
       0.92736113 0.82056624 0.8104947 0.73446184
0000a0 02 0a 63 3f 13 39 55 3f 23 ff 3e 3f 8b 89 5a 3f
       0.88687146 0.83290213 0.7460806 0.85366124
0000b0 65 7e 84 3f cc 54 4a 3f 7d 0f 7c 3f 83 3f 7a 3f
       1.0351073 0.7903564 0.98461133 0.9775316
0000c0 1b bf 45 3f 6f 38 47 3f 61 f7 52 3f 30 12 61 3f
       0.7724473 0.77820486 0.8240872 0.87918377
0000d0 bb a8 5f 3f 67 68 85 3f 2b a7 58 3f f2 cc 64 3f
       0.8736684 1.0422486 0.8463008 0.8937522
0000e0 ae 18 54 3f 42 b2 42 3f c0 0a 86 3f c5 7d 4a 3f
       0.8285016 0.7605325 1.0472031 0.7909816
0000f0 8a 69 47 3f ac 51 72 3f b9 76 67 3f 8e 23 69 3f
       0.77895415 0.9465587 0.9041553 0.9106988

common_layer.3.residual.1.bias f4 [64]
000000 d5 7e 06 be 63 07 a3 be 7b 1e 77 be 23 e4 52 be
       -0.1313432 -0.31841573 -0.24132721 -0.2059484
000010 4f ce aa be 13 bb 26 be 69 ea 52 be 96 4f 84 be
       -0.33360526 -0.162823 -0.20597233 -0.2584197
000020 37 03 a8 be 3d 92 b2 be 34 87 07 bf 5f 56 cd be
       -0.32814953 -0.34877196 -0.5294068 -0.40104958
000030 7e 4d 8e be 72 87 e7 be 2a 6c 44 be 39 72 98 be
       -0.27793497 -0.45220524 -0.19181886 -0.29774645
000040 77 3c b8 be 39 38 98 be b2 8d 8f be 63 bf 82 be
       -0.3598363 -0.29730394 -0.28037792 -0.2553664
000050 14 77 b1 be 3a 9e 87 be 2c 2b aa be 53 c9 6f be
       -0.34661162 -0.26487905 -0.33236063 -0.23416643
000060 3f ae d0 be 2b 6a 41 be 51 c9 78 be ae 18 96 be
       -0.4075794 -0.18888156 -0.24295546 -0.29315704
000070 ab dd 88 be 54 aa c3 be 43 e7 ac be 67 03 db be
       -0.2673162 -0.38215888 -0.3377019 -0.42776033
000080 4d e2 67 be ad 44 87 be 68 e4 4b be c7 fc bb be
       -0.2264492 -0.26419583 -0.19911349 -0.3671629
000090 98 a7 b0 be 4e e2 67 be 76 59 3f be 1a e5 36 be
       -0.34502864 -0.22644922 -0.1868647 -0.17860833
0000a0 90 28 0f bf 8b cd ba be 1d 0f 9f be 29 fe ac be
       -0.5592127 -0.36484942 -0.31066218 -0.3378766
0000b0 79 3f 96 be 16 f7 be bd 3d 69 59 be 50 0e 4c be
       -0.293453 -0.09324472 -0.21231551 -0.19927335
0000c0 42 9c 23 be 81 fc 7d be e0 46 39 be a8 9c af be
       -0.15977576 -0.24803354 -0.18093443 -0.34299207
0000d0 ce c4 95 be 0d 9f b8 be f6 cf 9e be ef ee 8a be
       -0.29251713 -0.36058846 -0.31018037 -0.27135417
0000e0 89 9b a3 be d3 da 98 be 3c 9a 68 3e bb ba b0 be
       -0.319546 -0.2985445 0.22715086 -0.34517464
0000f0 56 7c 87 bd 35 17 84 be f8 20 31 be 4e c6 bc be
       -0.06615512 -0.25798956 -0.17297733 -0.36870044

common_layer.3.residual.1.running_mean f4 [64]
000000 25 78 5c bf 64 f1 36 bf 13 8a 04 bf 0f 77 ee bf
       -0.86120826 -0.7146208 -0.51773185 -1.8630084
000010 ae cf 4c bf f3 79 5e bf 15 23 e8 bd a8 c0 0e bf
       -0.80004394 -0.8690483 -0.11334816 -0.5576272
000020 33 66 f3 be f1 01 bd bd 99 4c 72 bf 86 56 cc bf
       -0.4753891 -0.09228886 -0.9464813 -1.5963905
000030 fe dc e2 bf d0 71 e6 3e 48 09 28 3d 1a 01 22 bf
       -1.7723691 0.45008707 0.041024476 -0.6328293
000040 0d b8 80 3e 0e 5d a9 bf 32 da 0a 3f 8d cf 3c bf
       0.2514042 -1.3231523 0.5423919 -0.737542
000050 a4 77 2b bf 8d a4 87 bf 6b 14 8f be 64 db 81 bf
       -0.6697943 -1.0597092 -0.27945265 -1.0145078
000060 31 62 76 3f 5a ef 86 bf eb f9 88 bf 23 7f 85 3f
       0.9624358 -1.0541794 -1.0701269 1.0429424
000070 a4 25 d2 bf ea 83 55 3f b8 ce 95 bd 65 10 a6 3e
       -1.6417737 0.8340441 -0.07314819 0.32434383
000080 be 79 7d bf ae 44 1b bf 81 1c 34 3f dd cf c9 bd
       -0.9901389 -0.6065167 0.70355994 -0.098541
000090 bc c9 77 be b8 5c 17 bf 85 0c 8f be f8 50 48 bf
       -0.2419805 -0.5912585 -0.2793924 -0.7824855
0000a0 42 71 41 3d 40 1e 35 bf 1c bc cc bd 21 cf f2 bc
       0.04722715 -0.7074928 -0.099968165 -0.029639782
0000b0 b4 44 16 bf e5 7b 1f bf ae a5 e5 bf a1 e8 ef bf
       -0.5869858 -0.62298423 -1.7941186 -1.8742868
0000c0 f1 9d 89 bf fa 18 95 bf 6a 3c 3e bf bb 34 f8 be
       -1.0751325 -1.1648247 -0.74310935 -0.4847773
0000d0 6f ed ba be 64 60 8d bf 87 11 8e bf 75 2f 5b bf
       -0.36509272 -1.1045041 -1.1099099 -0.8561929
0000e0 fa 1d 30 bf 2a 9d 5e bb 62 78 31 be 9e 87 89 bf
       -0.6879574 -0.0033968189 -0.17331079 -1.0744512
0000f0 86 e8 56 bf 70 8c 63 bf 89 ed 93 bf f6 40 b6 be
       -0.8394855 -0.88886166 -1.1556865 -0.35596436

common_layer.3.residual.1.running_var f4 [64]
000000 cd 73 f9 3f e2 c8 ff 3f d5 2b ab 3f 98 a7 65 40
       1.9488465 1.998318 1.3372751 3.588354
000010 84 76 c4 3f 20 1d 2f 40 72 58 b4 3f 57 01 01 40
       1.5348668 2.7361526 1.4089491 2.0157068
000020 f1 e1 00 40 d7 af ac 3f 18 3f fb 3f 33 fc 06 40
       2.0137904 1.3491162 1.962863 2.109143
000030 67 4a da 3f 34 a3 d6 3f 0d fe 23 40 87 da f1 3f
       1.7053956 1.6768556 2.562381 1.8894814
000040 ab 84 b8 3f 9e 9b 22 40 b6 99 04 40 ff 9d 30 40
       1.4415487 2.5407481 2.0718818 2.7596433
000050 44 68 3d 40 40 3c fa 3f 82 ec 01 40 ab e8 28 40
       2.9594889 1.9549637 2.0300603 2.639201
000060 c0 81 c4 3f 8f ff d5 3f 93 3c 11 40 a5 63 04 40
       1.5352097 1.6718615 2.2693222 2.0685818
000070 63 68 1c 40 6f 9b cd 3f d6 df b8 3f 26 c7 cb 3f
       2.4438713 1.606306 1.4443309 1.592015
000080 7e 4c 06 40 3d 05 c6 3f dc 2e f2 3f 45 c8 e6 3f
       2.0984187 1.5470349 1.892055 1.8029867
000090 f6 0b 03 40 13 f6 2c 40 57 f1 f3 3f 48 32 0e 40
       2.047605 2.7025192 1.9058026 2.221819
0000a0 7c 94 c6 3f d3 a7 01 40 fe 7d e4 3f c6 8c e1 3f
       1.5514064 2.0258682 1.785095 1.7621086
0000b0 0b ab c9 3f 91 d5 f4 3f 8b 2d 6c 40 55 54 34 40
       1.5755323 1.9127675 3.6902797 2.8176472
0000c0 89 66 06 40 f4 cc f8 3f 04 3a fe 3f 3e d8 f0 3f
       2.1000082 1.9437547 1.9861455 1.8815992
0000d0 30 7e f7 3f d8 3e e5 3f ef 89 fc 3f 4e f3 0d 40
       1.9335384 1.7909803 1.9729594 2.2179751
0000e0 2f da 00 40 2e 11 fe 3f 2b 03 13 40 18 3b b8 3f
       2.0133169 1.9848993 2.2970684 1.4393034
0000f0 88 ec 04 40 1f c8 12 40 32 eb fa 3f 29 9f f9 3f
       2.0769367 2.2934644 1.9603026 1.9501697

common_layer.3.residual.3.weight f4 [64, 64, 3, 3]
000000 d9 22 ce 3c cf 4e 6d bd 7d 85 dd bd 62 9d 75 bc
       0.025163101 -0.057936486 -0.108164765 -0.014991136
000010 e7 d6 ea bc 1f 26 11 3e 6f f9 34 3e a2 a1 ee 3d
       -0.028666927 0.14174698 0.17673276 0.11651923
000020 b8 7d 9f bd f1 c6 24 3e a4 c5 41 3e f6 ba e1 bd
       -0.07787651 0.16091515 0.1892305 -0.11021988
000030 a6 96 9f bd c6 75 8c 3d 50 ec 1e bd 24 c6 46 bd
       -0.07792406 0.06858401 -0.038799584 -0.048528805
000040 eb 32 f3 bc dd eb a1 bd 32 94 c6 bd 5d 82 63 bd
       -0.029687366 -0.079063155 -0.09696235 -0.055544246
000050 ca c2 89 be 17 89 e7 bd 2e 36 0e bc 21 75 d6 3d
       -0.26906425 -0.11305445 -0.00867991 0.10471559
000060 fd a2 ac 3d cc a5 03 3c 81 5e 49 bd 37 e3 76 bd
       0.08429525 0.0080351345 -0.04916239 -0.060275283
000070 9e 8d a0 3d 7b 7a 26 3e 5d 3a c3 bc 79 3d 02 3e
       0.07839511 0.1625766 -0.02383154 0.12718762
000080 da 7b 18 be 9f e4 18 3d 4d 4b 2f 3e 55 2f 77 3e
       -0.14890996 0.037327405 0.17118569 0.2413915
000090 15 c6 e5 bd 2f 3b 9a 3d c7 8d 65 3b ca 3c c8 bd
       -0.11219422 0.075308196 0.0035027133 -0.097772196
0000a0 6b 4c b7 3d 07 7e 3e bd 82 c2 16 3e bf 26 2e 3d
       0.089501224 -0.046506908 0.14722636 0.04251742
0000b0 f2 db cb bc c5 82 17 bd ce db 06 3e 1c 56 86 3d
       -0.024885152 -0.036989946 0.13169786 0.06559393
0000c0 f9 a6 f1 3d ed 63 19 3e 38 70 2b bd b6 ff e8 3d
       0.11799426 0.14979525 -0.041855067 0.11376898
0000d0 04 9c c5 bd 0b 6a 4b 3d ef 4f 7b 3c d7 fe 92 bc
       -0.09648898 0.049661677 0.015338882 -0.017943783
0000e0 f4 1f c8 bc d3 9c 02 3d 32 d5 80 3e a2 13 e0 bc
       -0.024429299 0.03188784 0.25162655 -0.027353112
0000f0 51 5a 3d 3e 69 a5 31 bc d8 2b 02 3e 44 12 8d bb
       0.18491484 -0.0108426595 0.12712038 -0.004305156
000100 ac 33 a6 3c 9a fa 8a bd ca 4f 77 3d 77 bc bf 3b
       0.020288311 -0.0678608 0.060378827 0.005851324
000110 df 74 00 be 2e b1 99 bd 6b 45 f9 bc 35 e5 34 be
       -0.12544583 -0.075044975 -0.030428609 -0.1766556
000120 7b 2c b0 3d 7a 2c 6e 3d 74 fc 72 3e bf a0 9d bd
       0.08602234 0.058147885 0.23729116 -0.076966755
000130 fa e5 af 3d 5a 37 05 3c 15 7a e0 bd ed 93 06 3d
       0.085887864 0.008130873 -0.10960785 0.032855917
000140 d1 7d 1f 3e 96 d0 10 3d d0 af 16 bc 4f 40 c8 3b
       0.15575339 0.035355173 -0.00919719 0.006111182
000150 4b 51 3b be e0 e4 ed 3d 79 20 e9 ba ad df bf bd
       -0.1829273 0.1161592 -0.0017786167 -0.09368835
000160 37 04 82 3d c7 fb 0a 3e 98 15 89 bd 0f e6 09 be
       0.0634846 0.13572608 -0.06693572 -0.13466667
000170 17 64 83 bd 55 64 46 3e 84 4e 0e 3e 52 d7 54 3e
       -0.06415575 0.19374211 0.13897139 0.20785263
000180 d4 e6 d1 bd 7c b7 34 3d 77 6a 4f bd c4 f6 a9 3d
       -0.10249105 0.044120297 -0.050638642 0.0829902
000190 4b 2b e9 3c 16 36 4c bc ae a1 95 bd 45 ca b6 bc
       0.028463027 -0.012464067 -0.073062286 -0.022313247
0001a0 95 62 25 be d2 83 ec bd 92 da 9e bd 8e fe b0 bd
       -0.16150887 -0.1154858 -0.07756533 -0.086423025
0001b0 08 6e 45 3c 23 81 e3 3c c6 f0 ef 3c a1 c6 26 bb
       0.012050159 0.027771538 0.029289614 -0.0025447982
0001c0 0e a8 11 3e 06 7b 83 bb 23 57 73 3e 1b d8 2d be
       0.14224264 -0.0040124683 0.23763709 -0.16976969
0001d0 50 b4 c4 b8 aa 37 a5 3d d7 e5 bc 3d b0 14 1f 3d
       -9.379594e-05 0.08067258 0.09223526 0.03883809
0001e0 4f 87 df 3d 6f 5e 2f 3e 73 9e 16 3d af e0 f4 3c
       0.1091448 0.17125867 0.036772203 0.029892294
0001f0 ad ba cd 3c a6 c3 8e bc 59 9b 47 be d1 01 94 3d
       0.025113428 -0.017427277 -0.19492854 0.07226909
000200 95 50 88 be b0 4c be bd 90 85 0a 3d e9 e1 89 3d
       -0.2662398 -0.09291971 0.03381878 0.06732542
000210 ce 57 1f bd a0 64 e0 3d 29 93 0d be 97 0f 49 be
       -0.038902096 0.10956693 -0.13825668 -0.19634853
000220 12 17 f9 bd c0 84 a1 bd 99 cd 82 3b ac a8 bb 3d
       -0.121626034 -0.07886648 0.0039917943 0.09163031
000230 ab c9 6f bd e2 a4 46 3e ad e0 c7 3d a6 1f 05 bd
       -0.058541935 0.19398835 0.097596504 -0.032500885
000240 d3 71 ae 3c 1c 7f 81 bd 2a a6 b0 3d ff ad 13 3e
       0.02129451 -0.06323072 0.08625443 0.14421843
000250 ca e3 a7 bc 33 8a 16 bd 45 1e 14 bd d3 31 37 3e
       -0.02049436 -0.03675289 -0.03616168 0.178901
000260 c7 6a f7 3d 40 78 bc 3d 01 a5 f4 3d 2a b2 0c be
       0.12080913 0.09202623 0.119455345 -0.13739839
000270 4b 48 4e 3e 51 24 d8 3d 89 6c 08 3e d4 88 bc bd
       0.20144765 0.10553802 0.13322653 -0.092057854
000280 1e 78 12 3c e3 18 cb bb 94 b0 50 3e 49 a4 2b 3e
       0.008939771 -0.006198035 0.20379859 0.16761889
000290 3d d8 64 bd 3b 49 2a bc c2 80 b3 bc 9d b8 e3 bc
       -0.055870283 -0.010393436 -0.021911982 -0.027797991
0002a0 9c 17 1d 3c df d8 a0 bd 94 a6 2f bc b8 e2 40 be
       0.009588148 -0.07853865 -0.010720868 -0.18836486
0002b0 7f c4 d4 bd 2d af 96 bc 63 ed b7 3d e9 c0 7b bc
       -0.10389041 -0.018394077 0.08980825 -0.015365818
0002c0 66 c7 c3 bc fd 14 74 3e 5d be 22 3d 32 05 9a 3d
       -0.023898792 0.23836131 0.039732326 0.07520522
0002d0 6d 6f a7 3d 26 09 d1 bc b1 ad 8c bd 77 05 12 3e
       0.0817555 -0.025517058 -0.068690665 0.14259897
0002e0 11 b9 b2 bb 8f 71 30 be b6 90 d5 bd bf 04 cd bd
       -0.0054541905 -0.17230819 -0.10427992 -0.10010671
0002f0 46 d7 ca bd 05 af d9 bc f0 cc ba bd 0d c7 9f 3d
       -0.099043414 -0.026572714 -0.0912112 0.07801638
000300 24 27 a7 3b 35 d3 89 bd c5 96 00 3e 92 1f 7b bc
       0.0051011015 -0.06729738 0.12557514 -0.015327351
000310 ea a9 b0 bd ae d6 84 ba 39 56 83 bd cd 42 f3 3d
       -0.086261585 -0.001013478 -0.0641293 0.118779756
000320 bc b7 de 3d 3d a9 de bd c5 d4 15 3e 41 90 b7 3d
       0.10874888 -0.108721234 0.14631946 0.08963061
000330 ce e0 d2 3d ea 28 1b be e4 8e 1a 3e b2 3f 86 3d
       0.10296784 -0.15152326 0.15093571 0.06555118
000340 5b 40 cf 3c 68 86 01 bd b3 55 d3 bb de 0d f4 3c
       0.025299242 -0.03162232 -0.006449425 0.029791769
000350 13 3c 09 3d cb d5 65 3d 0c 65 29 bc a7 34 0e be
       0.033504557 0.056112092 -0.010339033 -0.13887273
000360 ce d6 27 bd eb 08 4c be 37 60 8e bc 81 e7 f1 3d
       -0.040976338 -0.19925277 -0.017379863 0.11811734
000370 8c 88 89 3e f5 7c 0a 3d c6 47 0f 3e db 7a 15 3e
       0.2686199 0.033810575 0.13992223 0.14597647
000380 84 ef 93 bb 59 cc 15 3e 17 b7 5a bd 06 9c 24 bd
       -0.0045146365 0.14628734 -0.053397264 -0.040187858
000390 ee 17 9e 3d ee 31 2b bd 3c 3f d6 3d f1 57 9f 3d
       0.07719408 -0.041795664 0.1046128 0.07780445
0003a0 e7 12 9e 3d 75 fa 83 3e 68 15 ed 3d 98 f2 07 3d
       0.07718449 0.2577702 0.115763485 0.03319034
0003b0 20 b4 15 3d 72 9e 15 be 6a 7d 73 bd 5f dd 05 be
       0.036548734 -0.14611223 -0.059445776 -0.13072728
0003c0 7c be 74 bd 10 33 c3 bd 73 4a 8b bd 7c 75 7a 3d
       -0.059751973 -0.09531224 -0.068013094 0.061147198
0003d0 b4 f7 0d 3e 10 b7 85 3e 53 1d 0f 3e 21 74 04 3e
       0.13864022 0.26116228 0.1397603 0.12934925
0003e0 59 f4 ed 3c 3e 47 0f bc 65 13 f5 3b bd 5b b6 3d
       0.029047178 -0.008745013 0.0074791186 0.089042164
0003f0 73 1d 11 bc fc 9f e7 3b cb 70 28 be 82 ba 86 bd
       -0.008857119 0.007068632 -0.16449277 -0.06578542

common_layer.3.residual.3.bias f4 [64]
000000 60 7f 87 b5 98 e1 3f b7 62 c0 37 37 8e 8e 45 b8
       -1.0095355e-06 -1.1437012e-05 1.0952443e-05 -4.7101224e-05
000010 ef 7d e7 b7 d6 51 7f 37 4f a2 aa 37 2c 15 81 37
       -2.7595988e-05 1.5218238e-05 2.034116e-05 1.5387857e-05
000020 62 fb c7 37 c7 f5 18 38 6c d3 e1 b7 05 fc 13 38
       2.3839708e-05 3.6468522e-05 -2.6920541e-05 3.5282243e-05
000030 82 9b 28 b7 d0 38 55 b7 70 44 53 36 5f 06 db 37
       -1.0049787e-05 -1.2709017e-05 3.1481286e-06 2.6109801e-05
000040 b9 50 04 38 9c 88 4e 37 ee fe ff b7 a5 95 98 b7
       3.154643e-05 1.2310364e-05 -3.051708e-05 -1.8189496e-05
000050 07 b5 d3 37 9c 71 68 37 53 81 68 37 72 59 07 b7
       2.5237458e-05 1.3854729e-05 1.3858388e-05 -8.067453e-06
000060 f5 92 cd 37 78 b7 03 b8 75 e0 7b 36 e5 25 fa 37
       2.4506337e-05 -3.1403702e-05 3.7532566e-06 2.9819968e-05
000070 60 5e 1c b6 58 a7 cc b6 3a 02 b0 b7 75 94 14 37
       -2.3300745e-06 -6.099155e-06 -2.0981872e-05 8.856053e-06
000080 18 e3 d7 b6 9c 9d 56 38 4a 59 90 36 cc 56 db 37
       -6.4339365e-06 5.116836e-05 4.301929e-06 2.6147252e-05
000090 f2 b1 c3 37 3f 59 6e 37 3c 4f 83 b8 5e 2f b8 37
       2.3328674e-05 1.4206685e-05 -6.261325e-05 2.1956566e-05
0000a0 69 26 38 b7 55 f3 db b7 84 c3 bc b6 3c 19 a2 b6
       -1.0976198e-05 -2.6220145e-05 -5.6255976e-06 -4.830914e-06
0000b0 c3 98 0a 38 80 79 22 b7 06 0f a0 36 d5 c8 a2 b7
       3.3044034e-05 -9.684241e-06 4.7701205e-06 -1.9405425e-05
0000c0 fc bf 21 b8 06 fd 2c 38 a8 55 0a b8 96 6c 0a 38
       -3.856419e-05 4.1243642e-05 -3.2981538e-05 3.3002892e-05
0000d0 66 ab 80 b6 ba 16 68 37 f2 cd a1 b7 16 7e 82 36
       -3.8346507e-06 1.3833569e-05 -1.9288596e-05 3.8889802e-06
0000e0 58 9b d2 37 50 6e af b7 35 c4 c8 37 df 68 70 38
       2.5106288e-05 -2.0912994e-05 2.3933224e-05 5.7318128e-05
0000f0 84 11 f0 37 0e 59 42 b8 b3 13 81 b7 c0 cc 6c b8
       2.8618386e-05 -4.6336143e-05 -1.5387172e-05 -5.6457473e-05

common_layer.3.residual.4.weight f4 [64]
000000 54 27 4f 3f e5 0f 40 3f 19 79 4b 3f cf 18 37 3f
       0.80919385 0.75024253 0.79481655 0.7152223
000010 26 c1 4f 3f 01 0c 43 3f ff 1e 59 3f ed 16 79 3f
       0.81154096 0.7619019 0.8481292 0.97300607
000020 2a 10 64 3f f3 6d 57 3f dd a9 6f 3f 84 c0 6f 3f
       0.89087164 0.84152144 0.93618566 0.9365313
000030 fd e7 7d 3f 5c 14 68 3f be 2b 44 3f cf 37 48 3f
       0.9918211 0.90656066 0.76629245 0.7821016
000040 ba 64 5d 3f 64 80 4a 3f 38 0c 50 3f 6f de 45 3f
       0.8648182 0.7910216 0.81268644 0.7729253
000050 69 b6 5e 3f 53 2d 82 3f ce ad 43 3f f6 2b 50 3f
       0.86997086 1.0170082 0.7643708 0.8131708
000060 46 f7 39 3f ad 7e 3a 3f ba 61 38 3f 08 e8 58 3f
       0.72642934 0.7284954 0.7202412 0.8472905
000070 a6 bf 65 3f 5f e1 81 3f da 83 54 3f 1f af 8c 3f
       0.8974556 1.0146903 0.8301369 1.0990943
000080 6c be 6c 3f 07 36 39 3f ce 5b 23 3f 66 04 72 3f
       0.9247806 0.72348064 0.6381196 0.9453796
000090 c8 c5 55 3f 0b 03 46 3f a2 5e 55 3f ad 9e 4d 3f
       0.83504915 0.77348393 0.83347523 0.80320245
0000a0 81 bd 43 3f 15 40 68 3f 77 79 63 3f ba 1d 64 3f
       0.76461035 0.9072278 0.88857216 0.8910786
0000b0 ec ad 2e 3f 81 7d 50 3f da 00 81 3f 25 f2 4f 3f
       0.68234134 0.81441504 1.0078385 0.8122886
0000c0 3f bd 6b 3f a7 d5 6f 3f 23 fa 08 3f aa b7 5d 3f
       0.9208564 0.9368538 0.5350668 0.86608374
0000d0 e8 5d 3a 3f 1a 70 7d 3f 91 79 53 3f 9c fb 15 3f
       0.7279954 0.9899918 0.8260737 0.5858705
0000e0 8f f9 6e 3f 1d 64 73 3f 8f 7f 4e 3f 82 a3 4b 3f
       0.93349546 0.95074636 0.8066339 0.7954637
0000f0 39 1e 70 3f 4e 79 72 3f f6 0c 44 3f 8c 30 7d 3f
       0.93796116 0.94716346 0.76582277 0.989022

common_layer.3.residual.4.bias f4 [64]
000000 79 e6 fc be f8 4b 8b be 60 9a b3 be f8 86 b6 be
       -0.49394587 -0.27206397 -0.35078716 -0.35649848
000010 6e 25 d4 be 9e 95 90 be 9b c5 b4 be 8f bb 63 be
       -0.41434807 -0.2823915 -0.3530701 -0.22239517
000020 00 d5 18 be a3 d1 0c bf cc ed d9 be 60 35 bb be
       -0.14925003 -0.5500738 -0.42564237 -0.3656416
000030 39 b4 d9 be d9 47 57 be f7 2b eb be 4b 8f ae be
       -0.4252031 -0.21023501 -0.4593198 -0.340937
000040 bd 31 9c be 76 61 c8 be c7 74 fc be a3 2f bb be
       -0.30506697 -0.39136857 -0.49307844 -0.3655978
000050 e8 27 ae be 6c af 06 bf b5 37 e5 be ef 01 af bd
       -0.3401482 -0.5261142 -0.44769064 -0.08545291
000060 e4 c0 21 be e4 0a 03 bf 51 73 bd be ba 13 c0 be
       -0.15796238 -0.5118849 -0.37002042 -0.3751505
000070 7a 32 9f be 13 57 f8 be 6d 05 9d be 3c 91 a1 be
       -0.31093198 -0.48503932 -0.30668202 -0.31556118
000080 b9 af 7e be f6 17 83 be 46 d6 72 be f3 df 05 bf
       -0.2487172 -0.25604218 -0.23714551 -0.52294844
000090 d7 ba 24 bf b1 bb 03 be 97 c6 96 be e2 70 29 be
       -0.64347595 -0.12864567 -0.29448387 -0.16546968
0000a0 eb 09 8a be 16 1c 0a bf 06 aa fa be db 92 ea be
       -0.26960692 -0.53949106 -0.48957843 -0.45815167
0000b0 24 a1 2c be 0e 0b dc be 1c b6 0e bf 92 d0 c6 be
       -0.16858345 -0.42977184 -0.55746627 -0.38831002
0000c0 0d 33 08 bf 11 c0 a0 be 02 ff ab bc e4 b3 97 be
       -0.532029 -0.31396535 -0.02099562 -0.29629433
0000d0 78 90 7f be bf 4d 76 be ff 15 a8 be 88 38 6c 3a
       -0.24957454 -0.24053095 -0.32829282 0.00090111094
0000e0 00 71 ea be 02 67 fa be 70 19 c8 be 14 a4 97 be
       -0.45789337 -0.48906714 -0.39081907 -0.2961737
0000f0 37 82 e3 be b0 36 d3 be 0c d3 a6 be a8 27 b9 be
       -0.44435284 -0.4125266 -0.3258289 -0.36163068

common_layer.3.residual.4.running_mean f4 [64]
000000 6b a7 1e 3f f2 2a 73 bf fa c5 19 bf 9d 9a ee bd
       0.6197421 -0.94987404 -0.60067713 -0.11650584
000010 e1 79 5b 3e d0 b1 11 bf f5 dc ab be da 3a d9 bf
       0.21433212 -0.56911945 -0.33567014 -1.6971085
000020 f3 66 a0 bd 90 82 15 bf 34 80 94 bc d6 74 d4 bf
       -0.07832136 -0.5840235 -0.018127538 -1.6598155
000030 46 a9 1f 3f e8 a1 07 c0 c3 64 85 bf aa b4 2f 3f
       0.62367666 -2.119257 -1.0421375 0.68635046
000040 f9 cf 9d 3f e6 3b ac bf 1a f5 ee 3e bf a3 a4 bf
       1.2329093 -1.345578 0.46671373 -1.2862471
000050 f5 9a d0 bf 40 f4 91 3d 6a e1 31 bf 27 be b8 3f
       -1.6297289 0.07126665 -0.6948458 1.443303
000060 bb 2b 03 3f c2 69 2f bf 64 8b d6 3e 1a 7e 90 bf
       0.512386 -0.6852075 0.41903222 -1.1288483
000070 a2 0a a6 bf 96 90 ad be 6f ed a9 3e fd 85 dc bf
       -1.2971995 -0.33899373 0.3318896 -1.722839
000080 24 53 e3 bf fb 5b 7c be 67 c2 ce bf 39 41 c9 be
       -1.7759748 -0.24644463 -1.6153077 -0.39307573
000090 66 60 d1 3d 8f af 94 bf 65 fe 08 bf f3 7a 54 3f
       0.10223465 -1.1616076 -0.53513175 0.83000106
0000a0 2d 88 d6 be 84 57 61 bf 3b e0 50 3e cc 4b 92 3d
       -0.4190077 -0.88024163 0.20398037 0.07143363
0000b0 30 56 c2 bf 83 e3 a3 bf a7 62 fd be 06 c7 3b be
       -1.5182552 -1.2803806 -0.49489328 -0.1833764
0000c0 23 ec da be 59 88 68 bf a4 43 fe bf ce 6b 24 bf
       -0.42758283 -0.9083305 -1.9864392 -0.64226997
0000d0 9d 3d 1c bf 7f c8 ef be bb 5b 5d bf 74 b9 19 bf
       -0.61031514 -0.46832654 -0.86468095 -0.60048604
0000e0 43 a7 07 3e 74 79 a0 be 61 95 47 bf f2 2c 99 bf
       0.13247399 -0.3134266 -0.7796231 -1.1966841
0000f0 6a b1 23 3f 1c d4 cd be d1 5b 1d bf c9 da dc bf
       0.6394259 -0.4020089 -0.61468226 -1.7254268

common_layer.3.residual.4.running_var f4 [64]
000000 85 9c a7 3f 2d 75 c3 3f 9c 96 bb 3f d7 49 cb 3f
       1.3094641 1.5270134 1.4655337 1.5881909
000010 ce 5a c6 3f 19 63 b0 3f 21 47 ed 3f c4 45 21 40
       1.5496461 1.3780242 1.8537332 2.5198832
000020 05 da ec 3f 9b 55 d2 3f e1 07 dd 3f f8 cf df 3f
       1.8504034 1.6432375 1.726803 1.7485342
000030 c3 1f ea 3f 42 0d 14 40 ae ce b2 3f 29 60 bd 3f
       1.8290943 2.3133092 1.3969324 1.4794971
000040 01 7e df 3f 91 ce b0 3f f0 52 ba 3f 7e 58 f1 3f
       1.7460328 1.3813039 1.455656 1.8855131
000050 1a 73 c3 3f 12 f3 db 3f 21 f8 f0 3f 46 84 01 40
       1.5269501 1.7183554 1.8825723 2.0236983
000060 c0 4c 04 40 78 b4 bf 3f 36 69 ef 3f 8c 2b d7 3f
       2.0671844 1.497695 1.8703983 1.6810164
000070 90 a5 d9 3f fe a9 ac 3f e9 68 ec 3f b2 47 2d 40
       1.7003651 1.3489377 1.8469516 2.707501
000080 b1 33 1e 40 85 64 b0 3f 38 e0 bc 3f 95 e5 00 40
       2.471905 1.3780676 1.4755926 2.0140126
000090 bb 2f a1 3f 81 bd d2 3f 51 e0 b3 3f bc 1b ba 3f
       1.2592691 1.6464082 1.4052831 1.4539714
0000a0 7b e7 a9 3f 75 3d f3 3f 0b a3 d4 3f de 8a c3 3f
       1.3273767 1.900313 1.6612257 1.5276754
0000b0 bd 92 c3 3f 78 c1 cb 3f 72 fa d2 3f e7 67 b7 3f
       1.5279156 1.5918417 1.648268 1.4328583
0000c0 ec 7f be 3f 58 0f de 3f d9 5e f0 3f ce ab b0 3f
       1.4882789 1.7348433 1.8778945 1.3802431
0000d0 f2 19 af 3f a0 a9 f2 3f 9c 76 a8 3f 11 77 dc 3f
       1.3679793 1.8958015 1.3161197 1.7223836
0000e0 a4 34 c4 3f 25 1c a5 3f 05 a0 b4 3f 43 f1 00 40
       1.5328565 1.2899214 1.4111334 2.0147254
0000f0 24 28 c1 3f 43 8b d7 3f 03 ff cf 3f 75 02 ce 3f
       1.5090375 1.6839374 1.6249698 1.60945
