model/cnn/8x8/3/_cnn_8.pt (torch_old, 478657 bytes, 15 tensors)

conv1.weight f4 [32, 4, 3, 3]
-0.26519647 0.3048152 -0.059660614 -0.04304263 0.10674096 -0.34212503 0.12190848 -0.24774392
-0.057676133 -0.30214107 0.0523122 0.0019237776 0.08130776 0.14266913 0.032915723 -0.2210163
0.029042624 1.29154 0.19868086 -0.14498508 0.11686527 -0.1745839 0.09865599 0.084883
0.014661017 0.09209039 -0.0277107 0.2028541 -0.28225908 -0.29110545 -0.20564982 0.18587962
0.18005405 -0.20743494 0.19187643 0.2005196 -0.33114433 -0.2057921 -0.3591953 0.4010081
0.42075026 -0.82614183 -0.10059538 0.13846157 -0.21490838 0.636211 0.19312172 0.59723884
-0.40695575 0.563492 -0.3920856 0.11290029 -0.31973252 0.08735003 0.044016942 0.18521109
0.3815342 -0.04086104 0.47643206 0.073827684 -0.06382848 -0.00898207 0.30161026 -0.039864678
-0.108721495 0.06852721 -0.039858613 -0.056868028 0.072198145 0.008198762 -0.0065784096 0.08687132
-0.03315918 -0.049292464 -0.22969574 -0.171877 -0.6225839 -0.28570193 -0.3811811 0.09598476
-0.089420035 0.10694562 -0.037232187 0.13957086 0.86309224 0.48216438 -0.2080138 0.11804653
-0.08716904 -0.12340355 -0.07842326 -0.023634942 0.043848313 0.051063742 -0.038774833 0.026213327
0.24651982 -0.05532077 -0.17833255 0.12774009 0.061129652 -0.044779267 -0.07509467 0.17651787
0.013127925 -0.020652158 -0.06284175 -0.27898884 0.02963236 0.18880564 -0.17642754 -0.10350366
-0.21063666 -0.2519298 0.15482312 -0.2498285 0.7029136 -0.13816118 0.14491409 -0.18317944
0.008213284 0.25057906 -0.013872002 0.031335626 -0.09392695 -0.08124155 -0.060533337 0.4838113
0.067465365 0.25594696 0.60795885 0.5461345 0.0011082699 0.15448694 0.022920601 0.08703434
0.044551563 0.13647619 0.0067056674 -0.06258212 -0.021851553 0.11512186 -0.047521967 -0.043926716
-0.25425524 0.08655872 -0.060995117 0.034287043 -0.15671632 -0.012283415 0.14253236 0.09992826
1.0353986 -0.09126863 0.104704194 -0.34797636 -0.14198895 -0.022420498 -0.2062688 -0.38904968
-0.6172768 -0.21662626 0.0729889 -0.2266885 0.029301915 0.038538244 0.033464912 -0.0051457095
-0.061377276 -0.074397765 0.079771146 -0.08410505 -0.07316014 -0.013542567 0.1283775 0.036852997
0.059260275 0.062062636 0.007879303 -0.09011806 -0.03974832 -0.06867568 -0.049731415 -0.07377105
-0.13588318 -0.098206535 -0.034977462 -0.0851479 -0.077153824 -0.07507023 -0.12303855 -0.1987945
-0.07464404 -0.03401742 -0.05892309 -0.027645439 -0.04619823 -0.06796381 0.07911753 0.033951525
0.029771322 -0.01127588 0.018710388 0.026559602 0.022599474 -0.03021735 -0.005320319 0.04812987
0.04203914 0.027831603 0.058153853 0.04864417 0.034381967 0.07173149 0.06044017 0.046806473
0.095065705 -0.30409226 -0.24686645 -0.16339314 0.24928012 -0.07194569 -0.10276876 -0.28077847
-0.0016453678 0.19583242 0.17338791 0.3473003 0.1608688 0.35161155 0.1562388 0.62117106
0.01632607 0.2599277 0.29836872 0.16379246 0.23569836 0.0593432 -0.122622244 -0.00026892225
0.20284759 0.17748195 0.10018451 0.048922166 -0.005114256 0.028875051 0.050554104 0.06060687
0.020895729 0.0064801937 0.018702518 0.007335746 -0.25237882 0.24626541 -0.09836828 -0.33806288
00000000: d5c7 87be bd10 9c3e b05e 74bd 784d 30bd
00000010: 019b da3d 032b afbe 27ab f93d 95b0 7dbe
00000020: cf3d 6cbd 3cb2 9abe 5145 563d 4427 fc3a
00000030: af84 a63d db17 123e a3d2 063d 1952 62be
00000040: ccea ed3c 2f51 a53f ff72 4b3e f876 14be
00000050: 0f57 ef3d 1fc6 32be 270c ca3d 23d7 ad3d
00000060: c334 703c e399 bc3d 8d01 e3bc fcb8 4f3e
00000070: 4384 90be c60b 95be de95 52be 3a57 3e3e
00000080: 1760 383e d369 54be 417b 443e 0355 4d3e
00000090: c08b a9be 2abb 52be 72e8 b7be ef50 cd3e
000000a0: 946c d73e 087e 53bf f304 cebd dfc8 0d3e
000000b0: f110 5cbe b9de 223f b3c1 453e a5e4 183f
000000c0: 815c d0be 0341 103f 72bf c8be 4438 e73d
000000d0: fbb3 a3be 93e4 b23d 1c4b 343d faa7 3d3e
000000e0: 7358 c33e e85d 27bd e7ee f33e f832 973d
000000f0: 82b8 82bd 8829 13bc a96c 9a3e 2549 23bd
00000100: 60a9 debd fe57 8c3d c942 23bd 73ee 68bd
00000110: 9fdc 933d 1a54 063c b38f d7bb 97e9 b13d
00000120: ecd1 07bd e5e6 49bd 5c35 6bbe 8600 30be
00000130: a961 1fbf 8647 92be 2b2a c3be a893 c43d
00000140: da21 b7bd 4e06 db3d c780 18bd aaeb 0e3e
00000150: 9df3 5c3f 40de f63e 9201 55be 61c2 f13d
00000160: af85 b2bd 00bb fcbd 609c a0bd 119e c1bc
00000170: 4a9a 333d 3728 513d 5cd2 1ebd 55bd d63c
00000180: b16f 7c3e 0898 62bd cf9c 36be 4cce 023e
00000190: 1663 7a3d 776a 37bd 3ccb 99bd 1ac1 343e
000001a0: 8216 573c b72e a9bc 2db3 80bd a0d7 8ebe
000001b0: 90bf f23c 4456 413e 6ca9 34be baf9 d3bd
000001c0: 23b1 57be f1fc 80be f489 1e3e 0bd3 7fbe
000001d0: 25f2 333f 207a 0dbe 5c64 143e 6493 3bbe
000001e0: 0391 063c e64b 803e 6547 63bc c959 003d
000001f0: c65c c0bd f861 a6bd cef1 77bd 1db6 f73e
00000200: 482b 8a3d 7b0b 833e 31a3 1b3f 78cf 0b3f
00000210: 5e43 913a d331 1e3e fcc3 bb3c 0f3f b23d
00000220: b37b 363d 6ac0 0b3e 37bb db3b 0e2b 80bd
00000230: 0702 b3bc 02c5 eb3d 65a6 42bd 80ec 33bd
00000240: be2d 82be b345 b13d 04d6 79bd 9270 0c3d
00000250: 3e7a 20be 6040 49bc 01f4 113e 30a7 cc3d
00000260: f187 843f 0ceb babd 276f d63d f529 b2be
00000270: 8d65 11be 31ab b7bc 2138 53be 8531 c7be
00000280: da05 1ebf 46d3 5dbe 347b 953d 0821 68be
00000290: 920a f03c 47da 1d3d 8112 093d 579d a8bb
000002a0: bd66 7bbd db5d 98bd 0e5f a33d 453f acbd
000002b0: fcd4 95bd a5e1 5dbc 6475 033e 2bf3 163d
000002c0: e7ba 723d 6435 7e3d 3118 013c d18f b8bd
000002d0: 22cf 22bd d6a5 8cbd 2bb3 4bbd 4715 97bd
000002e0: f624 0bbe 8220 c9bd 8744 0fbd 0662 aebd
000002f0: d302 9ebd 6cbe 99bd a3fb fbbd c990 4bbe
00000300: f9de 98bd da55 0bbd 5759 71bd b078 e2bc
00000310: 5b3a 3dbd 9c30 8bbd 5f08 a23d c110 0b3d
00000320: fde2 f33c 78be 38bc 8746 993c 8693 d93c
00000330: 8822 b93c 608a f7bc 1256 aebb d423 453d
00000340: 3c31 2c3d 1aff e33c bc32 6e3d 1c3f 473d
00000350: 1bd4 0c3d f6e7 923d 1d90 773d 25b8 3f3d
00000360: cfb1 c23d fbb1 9bbe 8fca 7cbe 8850 27be
00000370: 4a43 7f3e 4358 93bd 6d78 d2bd 32c2 8fbe
00000380: 62a9 d7ba 4b88 483e 9a8c 313e 58d1 b13e
00000390: caba 243e 6e06 b43e 10fd 1f3e 1105 1f3f
000003a0: 40be 853c 3e15 853e c9c3 983e 36b9 273e
000003b0: e95a 713e db11 733d 5f21 fbbd 22fe 8cb9
000003c0: 47b7 4f3e d4bd 353e 892d cd3d 9c62 483d
000003d0: 7d95 a7bb 5f8b ec3c d211 4f3d e93e 783d
000003e0: 852d ab3c ce57 d43b 0636 993c b360 f03b
000003f0: cc37 81be 002d 7c3e 4f75 c9bd 9416 adbe

conv1.bias f4 [32]
-0.09273102 -0.30598807 0.10393508 0.19148678 -0.092695035 0.018649276 -0.3583907 -0.033560608
-0.10950321 -0.102707334 -0.014318116 -0.063763395 -0.030491557 -0.12745722 -0.18265459 -0.18191884
0.042908948 -0.10336073 0.2604321 -0.18757123 0.29007438 -0.0062425234 -0.07741825 -0.11482474
-0.26439354 -0.1472166 0.5042832 -0.09560365 -0.18372963 -0.11019808 -0.29789305 0.28757694
00000000: c3e9 bdbd 78aa 9cbe eadb d43d 1c15 443e
00000010: e5d6 bdbd 5ec6 983c fc7e b7be d976 09bd
00000020: 3843 e0bd 3958 d2bd 8896 6abc 6296 82bd
00000030: 6ec9 f9bc 2584 02be ce09 3bbe ef48 3abe
00000040: 4bc1 2f3d caae d3bd 5b57 853e ac12 40be
00000050: a184 943e 158e ccbb 768d 9ebd 3c29 ebbd
00000060: 975e 87be f3bf 16be b418 013f d9cb c3bd
00000070: 9f23 3cbe 88af e1bd 7085 98be 493d 933e

conv2.weight f4 [64, 32, 3, 3]
0.10707041 -0.17808543 -0.24452707 -0.2423021 0.34167373 -0.08853697 -0.009640795 -0.03684575
0.004005708 -0.044521503 -0.120771736 0.008368242 0.25887433 -0.0738426 -0.06350477 -0.18040822
-0.028922025 -0.11973653 -0.2337616 0.0036943785 -0.114725724 -0.054638073 0.03811814 -0.27182212
0.11530661 0.026662381 -0.14067258 -0.032441795 -0.11410022 0.123958856 0.05258219 0.016307313
-0.063902766 0.1309701 0.11706389 0.098379135 0.0747954 -0.025506794 0.094478525 0.22746074
0.1499709 -0.09601646 -0.049786523 0.08310562 -0.0024718558 0.07014651 0.07517246 0.094319716
0.043542568 0.08485483 0.113443166 0.0044575175 0.05966092 0.10077444 -0.1125254 -0.08945433
0.095841356 0.06607878 0.102741994 -0.09854309 -0.16523351 -0.12972935 -0.07537725 -0.034073696
-0.008838184 -0.021808732 0.037843987 0.051952958 0.10268545 0.0020986216 0.047934003 0.07126425
0.06489087 0.18583974 0.03301153 0.1410154 -0.13896282 0.04423911 -0.20097081 -0.13126336
0.017857041 -0.0024038553 0.004820067 0.21538246 -0.29251903 0.23990536 0.20913649 0.17790742
0.08797098 -0.078758344 0.19635174 0.23212864 0.009726041 0.20167293 0.032314427 0.14008944
-0.009974944 -0.14238746 0.10327328 0.57364786 0.76702017 -0.45944178 0.3341072 -0.43395156
0.39050582 -0.017064106 0.17200446 0.29810122 0.10202476 0.23440354 -0.066864505 0.03513227
-0.0017033108 0.051263276 -0.15439989 0.17002118 -0.096183866 -0.08467732 -0.15180345 -0.17375505
-0.118387274 0.009044979 -0.08356986 -0.116968766 -0.18135566 -0.065942444 0.20805079 -0.14688331
-0.07313197 -0.020919334 0.06880452 -0.10307517 0.016369438 -0.23823857 0.01941134 -0.19887057
-0.15084344 -0.16548878 -0.3993298 -0.099244796 0.102636896 -0.08433858 -0.19113198 -0.09607835
0.048722606 0.036745094 0.07111977 -0.07323883 -0.082288615 0.13322178 0.07329308 -0.05342376
0.18558444 -0.0050615454 0.021593917 -0.19021584 -0.015020863 -0.036739677 0.06554673 -0.09356485
-0.24003577 0.05297013 -0.08809884 0.07178214 -0.69231755 0.2478779 0.08554535 -0.116806604
-0.3319826 -0.20423214 -0.2555693 0.076455355 -0.04372395 0.07364822 0.114581235 0.10549217
-0.05469521 -0.09501122 -0.16801155 -0.0008262203 0.033920094 -0.039510977 -0.12268727 -0.08774095
-0.12215386 -0.032238208 0.019395966 -0.02751163 0.09509922 -0.28170717 0.38602397 0.092638075
-0.16482368 -0.05346691 -0.19454286 0.10081133 0.5492328 0.4582409 -0.0687008 0.031805467
-0.14667173 -0.03476848 -0.003256591 0.002169277 -0.08606002 -0.0033989816 -0.051294025 -0.05627397
-0.01536639 0.080807716 -0.08686142 0.014932215 0.024095299 -0.03718205 -0.07691417 -0.12871186
0.103141926 0.026933242 -0.018304424 -0.17870295 -0.015932173 0.09999636 -0.022747349 -0.10377378
-0.0638136 0.026313955 -0.16553706 0.090180755 -0.27741784 -0.012278754 -0.1527493 -0.09434919
-0.079463616 -0.043686103 -0.1029792 0.052705254 -0.12732492 -0.06792777 0.008508733 -0.21592811
-0.09415857 -0.09466235 -0.10502762 -0.050049234 -0.0046322723 -0.0067218035 -0.13708036 -0.09266183
-0.05945908 -0.05856751 -0.025837805 -0.11032213 0.0014596311 -0.08191063 -5.016185e-05 -0.020314299
00000000: bb47 db3d 075c 36be 4e65 7abe 0b1e 78be
00000010: dcef ae3e df52 b5bd 6df4 1dbc 92eb 16bd
00000020: 5042 833b 2e5c 36bd 2c57 f7bd f31a 093c
00000030: 2d8b 843e ca3a 97bd ca0e 82bd efbc 38be
00000040: e2ed ecbc 6d38 f5bd 335f 6fbe 631d 723b
00000050: 52f5 eabd 2ccc 5fbd c421 1c3d 452c 8bbe
00000060: df25 ec3d 116b da3c 790c 10be b0e1 04bd
00000070: 60ad e9bd 24de fd3d 6c60 573d ea96 853c
00000080: 74df 82bd 071d 063e 31bf ef3d 007b c93d
00000090: 552e 993d a0f3 d0bc f57d c13d 78eb 683e
000000a0: f991 193e 47a4 c4bd f4ec 4bbd 4833 aa3d
000000b0: dcfe 21bb f9a8 8f3d 05f4 993d b22a c13d
000000c0: b159 323d 5ec8 ad3d e454 e83d 5e10 923b
000000d0: 025f 743d d462 ce3d b873 e6bd d533 b7bd
000000e0: 7948 c43d 5054 873d 656a d23d f6d0 c9bd
000000f0: f932 29be c5d7 04be 635f 9abd dc90 0bbd
00000100: 08ce 10bc 3aa8 b2bc 4c02 1b3d a0cc 543d
00000110: c04c d23d 0789 093b 7256 443d fef2 913d
00000120: 81e5 843d c64c 3e3e 1937 073d 5766 103e
00000130: 454c 0ebe 1234 353d 4bcb 4dbe e769 06be
00000140: ee48 923c 008a 1dbb a7f1 9d3b 388d 5c3e
00000150: 0ec5 95be c0a9 753e e027 563e 5d2d 363e
00000160: 212a b43d 0e4c a1bd 6e10 493e 21b3 6d3e
00000170: f959 1f3c 5983 4e3e 225c 043d 9b73 0f3e
00000180: f36d 23bc 05ce 11be f180 d33d 96da 123f
00000190: 6f5b 443f f43b ebbe 1910 ab3e e62e debe
000001a0: 61f0 c73e 06ca 8bbc f021 303e b9a0 983e
000001b0: 5bf2 d03d 7b07 703e 42f0 88bd dbe6 0f3d
000001c0: a041 dfba 71f9 513d 011b 1ebe 081a 2e3e
000001d0: 0cfc c4bd 4e6b adbd 5d72 1bbe d8ec 31be
000001e0: 0775 f2bd 6431 143c ad26 abbd 528d efbd
000001f0: 4cb5 39be d50c 87bd 440b 553e 9468 16be
00000200: 37c6 95bd 065f abbc 62e9 8c3d 1319 d3bd
00000210: 3319 863c d0f4 73be 8804 9f3c baa4 4bbe
00000220: b476 1abe e475 29be f574 ccbe db40 cbbd
00000230: 4b33 d23d b5b9 acbd 1ab8 43be bac4 c4bd
00000240: 5b91 473d 0682 163d 3ea7 913d 3dfe 95bd
00000250: ef86 a8bd 4a6b 083e af1a 963d dfd2 5abd
00000260: d909 3e3e 52db a5bb bae5 b03c f1c7 42be
00000270: 111a 76bc 587c 16bd 5d3d 863d ee9e bfbd
00000280: f0cb 75be 35f7 583d 2a6d b4bd 8402 933d
00000290: b93b 31bf b4d3 7d3e 6732 af3d 4d38 efbd
000002a0: a0f9 a9be 3b22 51be fbd9 82be a094 9c3d
000002b0: e217 33bd e1d4 963d 91a9 ea3d 470c d83d
000002c0: 1608 60bd 3e95 c2bd 380b 2cbe b596 58ba
000002d0: ccef 0a3d 43d6 21bd 7743 fbbd 87b1 b3bd
000002e0: ce2b fabd 360c 04bd 4ae4 9e3c 1260 e1bc
000002f0: 61c3 c23d ec3b 90be efa4 c53e 08b9 bd3d
00000300: 8ac7 28be 1e00 5bbd 3e36 47be 2c76 ce3d
00000310: 859a 0c3f 8d9e ea3e 01b3 8cbd 7346 023d
00000320: 1d31 16be 6569 0ebd 886c 55bb 6e2a 0e3b
00000330: 3c40 b0bd 73c1 5ebb af19 52bd 897f 66bd
00000340: 50c3 7bbc 847e a53d 66e4 b1bd 40a6 743c
00000350: 8163 c53c 354c 18bd 2d85 9dbd 0bcd 03be
00000360: 133c d33d 1aa3 dc3c 29f3 95bc e8fd 36be
00000370: 3084 82bc e4ca cc3d a658 babc 5987 d4bd
00000380: b4b0 82bd 5d90 d73c 8c82 29be b0b0 b83d
00000390: b609 8ebe d42c 49bc 506a 1cbe 263a c1bd
000003a0: d2bd a2bd 33f0 32bd c2e6 d2bd 77e1 573d
000003b0: 7761 02be b71d 8bbd 3668 0b3c 421c 5dbe
000003c0: 35d6 c0bd 56de c1bd b918 d7bd 6d00 4dbd
000003d0: 51ca 97bb 9342 dcbb cb5e 0cbe 7cc5 bdbd
000003e0: 5d8b 73bd 7ce4 6fbd cea9 d3bc 92f0 e1bd
000003f0: 1851 bf3a c3c0 a7bd e064 52b8 2c6a a6bc

conv2.bias f4 [64]
0.005452081 -0.11999378 -0.060435846 -0.10727955 -0.35493642 -0.15209082 -0.10990408 -0.029514777
0.089438595 -0.12817445 -0.018351894 -0.08331733 0.10365855 -0.15185286 -0.33517835 -0.10502532
-0.2658456 -0.07875008 -0.032199815 -0.104808375 -0.032129183 -0.17297424 0.05896958 -0.18008624
0.13798678 -0.4670175 -0.20607254 -0.021740235 -0.20423488 -0.14118856 -0.038725585 -0.09591964
0.25737557 -0.36049345 -0.014693727 -0.049327575 -0.017898256 -0.01740017 0.052155916 -0.14579557
-0.12585615 0.012896457 -0.107248925 -0.14831366 -0.0362978 0.028606106 -0.09361275 -0.29292962
-0.19526616 -0.235859 -0.014332094 -0.1901771 -0.103427485 0.020171113 -0.22417948 0.021221228
0.13097715 -0.017872019 -0.032457687 0.022244748 -0.05740586 0.042234212 -0.040342115 -0.40913433
00000000: 5fa7 b23b 4dbf f5bd 948b 77bd 61b5 dbbd
00000010: 3aba b5be b2bd 1bbe 6415 e1bd f9c8 f1bc
00000020: 952b b73d 2a40 03be b656 96bc 47a2 aabd
00000030: ef4a d43d 517f 1bbe 7f9c abbe 8417 d7bd
00000040: ea1c 88be b947 a1bd f4e3 03bd c6a5 d6bd
00000050: e499 03bd 2920 31be 168a 713d 8768 38be
00000060: 684c 0d3e eb1c efbe ae04 53be 9418 b2bc
00000070: f322 51be bc93 10be b89e 1ebd 8471 c4bd
00000080: bbc6 833e 9992 b8be f5bd 70bc b60b 4abd
00000090: 5d9f 92bc cd8a 8ebc 71a1 553d 6f4b 15be
000000a0: 6fe0 00be a94b 533c 53a5 dbbd 89df 17be
000000b0: 00ad 14bd 5a57 ea3c 0bb8 bfbd dffa 95be
000000c0: daf3 47be 0685 71be 29d1 6abc c9bd 42be
000000d0: cad1 d3bd e43d a53c 4e8f 65be 24d8 ad3c
000000e0: e01e 063e 5768 92bc 5af2 04bd 9e3a b63c
000000f0: 6822 6bbd c8fd 2c3d c63d 25bd 0e7a d1be

conv3.weight f4 [128, 64, 3, 3]
-0.078991346 0.02128658 0.14305654 0.0017616462 -0.06227205 -0.08534338 -0.11025446 0.0030996015
-0.04879122 -0.013350582 -0.09268328 0.00144271 -0.009921091 -0.12576173 -0.009081478 0.06958617
0.09034691 0.06873927 -0.085860975 -0.055734128 0.0025715441 0.014516423 0.015061126 -0.04817886
0.0814285 0.0055461964 -0.0017698231 0.049919426 0.031502273 -0.09257637 0.17639518 0.032657564
-0.013610666 0.027197575 0.06715233 0.08606626 -0.026069695 -0.024287736 -0.047525283 -0.02620358
0.106724046 0.07522246 -0.058058232 0.16629292 0.1705996 -0.043932423 -0.018230172 -0.028981585
0.04975745 0.15855022 -0.108502984 -0.011806205 -0.0063724727 -0.0060180956 0.09731796 0.0023304883
-0.013961845 0.039496385 -0.05717132 -0.047071125 0.059482936 -0.07662516 0.050396815 0.0032390393
0.0023706174 -0.039268814 0.14855275 0.018796196 0.031360958 -0.05418418 -0.08382274 -0.0969024
0.014433329 0.039360773 0.00045811964 0.021376207 -0.04508132 0.03825401 0.029788863 0.0145653775
-0.019559994 -0.012404912 -0.036027424 -0.035616174 0.06921887 0.049150404 -0.0010096146 0.08953986
-0.03631527 -0.03821773 -0.06564413 0.04636037 0.056245923 -0.046274137 0.008595694 0.023222959
-0.032307316 0.020794012 -0.05353402 -0.07904602 0.0053323335 -0.035830203 -0.01929097 -0.11990652
-0.019758154 -0.015749827 -0.09113533 -0.0690898 0.06642133 -0.05692699 0.00838863 0.009446124
0.12493674 -0.048357457 -0.0033623707 0.22809353 0.038514215 0.16735141 0.1080108 0.16494189
0.006666538 0.12891495 0.11012011 0.14290668 0.11962143 0.115445256 0.016470924 -0.081060246
0.11100542 0.013869153 -0.11339375 -0.045305405 -0.050634775 -0.049777854 0.019272057 -0.09388121
-0.112989426 -0.04345507 0.062678136 0.040983964 0.063746125 0.023870163 -0.034526996 -0.06587476
-0.12139698 -0.1384977 0.057142776 -0.014371854 0.026822269 -0.022286098 -0.04481256 0.018518826
0.0075449594 0.080918476 -0.03932344 0.06738989 0.026800705 -0.02506182 -0.04790987 0.042637907
-0.0029579606 0.056352932 -0.0024556387 -0.122737 -0.06710439 0.013851213 0.09451077 0.0006288413
0.08053109 0.10303722 -0.002539263 -0.22917575 -0.25256792 -0.21870105 -0.06472783 0.001364655
0.4163152 -0.17490277 -0.22211751 -0.29807538 0.06753901 0.0035953806 0.003598622 -0.00029971046
0.023300406 -0.033012535 -0.018827043 -0.07866434 -0.077967584 0.18512164 -0.05343302 -0.12312206
-0.001534051 -0.03430588 -0.06591645 0.15340984 0.037682418 -0.0052781566 0.038845647 0.06755095
-0.013317181 0.04831038 -0.0006587192 -0.05243864 0.057785973 -0.06374874 0.030013684 -0.049809325
-0.050811987 0.0027935198 0.047737744 0.032196578 0.30510718 0.075891666 -0.05387617 0.03649898
-0.004526707 0.0052049374 -0.11212942 0.083604895 -0.018717408 -0.08310104 0.10205449 -0.05027107
-0.04070437 -0.044076763 -0.010354461 -0.041721903 0.03335728 0.040579215 0.12629369 -0.07083973
-0.12779555 -0.107083775 0.07438723 0.015294555 0.05381961 0.100231916 0.015748305 0.015269409
0.16549666 -0.016719414 0.1394153 -0.055505663 -0.06588486 0.045662012 -0.051495794 -0.0027880087
-0.075121224 -0.04982343 -0.043210648 -0.04670695 0.09454336 0.0618339 0.085771486 0.038486008
00000000: 37c6 a1bd 3261 ae3c 6a7d 123e 0ae7 e63a
00000010: fa10 7fbd 83c8 aebd 17cd e1bd af22 4b3b
00000020: 4dd9 47bd 66bc 5abc bbd0 bdbd 5119 bd3a
00000030: 128c 22bc afc7 00be 7bca 14bc 3283 8e3d
00000040: cd07 b93d 2dc7 8c3d e1d7 afbd 7849 64bd
00000050: 5a87 283b 4bd6 6d3c f1c2 763c 3257 45bd
00000060: fcc3 a63d debc b53b 69f9 e7ba 5078 4c3d
00000070: 8708 013d ae98 bdbd f0a0 343e f0c3 053d
00000080: 45ff 5ebc 73cd de3c 2987 893d 8243 b03d
00000090: 1d90 d5bc 13f7 c6bc dfa9 42bd e4a8 d6bc
000000a0: 2392 da3d 3c0e 9a3d 78ce 6dbd b148 2a3e
000000b0: a9b1 2e3e 7cf2 33bd 7157 95bc ca6a edbc
000000c0: 78ce 4b3d fd5a 223e d036 debd d06e 41bc
000000d0: 2dd0 d0bb 7233 c5bb a34e c73d 1bbb 183b
000000e0: 39c0 64bc f6c6 213d 792c 6abd a7cd 40bd
000000f0: 61a4 733d a7ed 9cbd e46c 4e3d 1046 543b
00000100: 5c5c 1b3b 56d8 20bd 361e 183e 7bfa 993c
00000110: 5974 003d 3bf0 5dbd 42ab abbd c474 c6bd
00000120: c579 6c3c c338 213d c72f f039 281d af3c
00000130: 31a7 38bd 3db0 1c3d c607 f43c 9fa3 6e3c
00000140: 483c a0bc f93d 4bbc 7e91 13bd 44e2 11bd
00000150: 9fc2 8d3d ef51 493d 0b55 84ba ad60 b73d
00000160: 52bf 14bd 328a 1cbd 6e70 86bd 5fe4 3d3d
00000170: 2062 663d f389 3dbd f4d4 0c3c 133e be3c
00000180: ad54 04bd 3458 aa3c 7d46 5bbd e1e2 a1bd
00000190: dbba ae3b b1c2 12bd 1908 9ebc 8d91 f5bd
000001a0: dadb a1bc c805 81bc 29a5 babd f47e 8dbd
000001b0: e807 883d 472c 69bd 7770 093c eac3 1a3c
000001c0: d5de ff3d 7812 46bd 385b 5cbb 5a91 693e
000001d0: 15c1 1d3d 2b5e 2b3e c434 dd3d 87e6 283e
000001e0: f972 da3b 4802 043e a786 e13d 2156 123e
000001f0: 15fc f43d 906e ec3d 08ee 863c ea02 a6bd
00000200: cf56 e33d 723b 633c fb3a e8bd 2992 39bd
00000210: 6966 4fbd dde3 4bbd 6fe0 9d3c cb44 c0bd
00000220: 0067 e7bd f2fd 31bd 655d 803d cdde 273d
00000230: 548d 823d 5c8b c33c 2e6c 0dbd 59e9 86bd
00000240: fb9e f8bd 57d2 0dbe 8b0e 6a3d ed77 6bbc
00000250: 60ba db3c 5691 b6bc 608d 37bd cbb4 973c
00000260: b53b f73b 96b8 a53d 9e11 21bd b603 8a3d
00000270: 278d db3c 724e cdbc 243d 44bd 16a5 2e3d
00000280: 58da 41bb 55d2 663d c8ee 20bb 895d fbbd
00000290: 076e 89bd 33f0 623c dd8e c13d d3d8 243a
000002a0: 7ced a43d 2e05 d33d c469 26bb 0cad 6abe
000002b0: 9550 81be 2bf3 5fbe 0690 84bd 39de b23a
000002c0: 4427 d53e b619 33be c672 63be 569d 98be
000002d0: e451 8a3d 7aa0 6b3b dcd6 6b3b 7522 9db9
000002e0: 7ee0 be3c 2738 07bd 2c3b 9abc c51a a1bd
000002f0: 78ad 9fbd 8790 3d3e 95dc 5abd 6b27 fcbd
00000300: 3612 c9ba 5384 0cbd 34ff 86bd 7817 1d3e
00000310: e158 1a3d 63f4 acbb 9d1c 1f3d 2758 8a3d
00000320: 4e30 5abc 1be1 453d e6ad 2cba e6c9 56bd
00000330: fcb0 6c3d b38e 82bd 42df f53c dd04 4cbd
00000340: 3b20 50bd 7c13 373b a788 433d 8fe0 033d
00000350: 0237 9c3e 176d 9b3d 42ad 5cbd f47f 153d
00000360: c554 94bb 2e8e aa3b 1ca4 e5bd 0b39 ab3d
00000370: 4055 99bc e130 aabd f201 d13d 0ae9 4dbd
00000380: a0b9 26bd d689 34bd c2a5 29bc 96e4 2abd
00000390: a5a1 083d 6436 263d 2253 013e 6c14 91bd
000003a0: d6dc 02be bd4e dbbd 5558 983d 0396 7a3c
000003b0: f471 5c3d 6446 cd3d 9702 813c 8b2c 7a3c
000003c0: f577 293e 27f7 88bc e2c2 0e3e e859 63bd
000003d0: a4ee 86bd 1708 3b3d 41ed 52bd 06b7 36bb
000003e0: 28d9 99bd a713 4cbd a6fd 30bd c94f 3fbd
000003f0: f39f c13d 8b45 7d3d f6a8 af3d 81a3 1d3d

conv3.bias f4 [128]
-0.01441307 -0.027907938 -0.019059753 0.0036460361 -0.36794275 0.043845017 -0.29632553 -0.025004711
-0.08835313 -0.036505185 0.012247574 -0.2955183 -0.07654993 -0.05529111 -0.075536095 0.008840569
0.1761768 0.010430253 -0.12010102 -0.101152055 -0.011192194 -0.07191809 0.02403221 -0.22287723
-0.09618758 -0.39108124 -0.15513329 -0.11591094 0.061554693 -0.026611451 0.010301274 -0.099112526
-0.0054648113 -0.26664197 -0.0708158 0.071038105 -0.070021234 -0.09407129 -0.096938215 0.12566629
-0.05884589 -0.066940576 0.2163682 0.010838233 -0.10354647 -0.080187626 -0.051282935 -0.0012564154
-0.07040003 0.06472995 0.24370494 0.031810764 0.0931277 -0.04049038 -0.12348376 0.040267944
0.028647041 -0.07196537 -0.067326926 -0.25963816 -0.13354254 -0.12537654 0.037797444 -0.007905852
0.0020439106 0.001712605 -0.029993895 -0.16930918 0.037301306 -0.10582685 0.014965539 -0.059906613
-0.010383443 -0.043037783 -0.14596382 -0.026422007 -0.023821557 -0.07726409 -0.010436678 -0.033435404
-0.09096116 0.07955433 0.22259928 -0.010461114 -0.09501944 -0.06587241 -0.16450095 -0.17625901
-0.14100741 0.100820705 -0.049068924 -0.024620883 -0.116037175 -0.07689805 0.30612114 -0.0272946
0.17515309 0.08319689 -0.13182214 -0.14109917 0.02977676 -0.06651099 -0.08418578 0.0040846807
-0.032425664 -0.09555609 -0.058488086 0.005239968 0.08275029 -0.16497347 -0.023206694 -0.056700382
-0.033016264 -0.09082352 0.032900274 -0.060430344 -0.2694298 0.054393474 0.09097786 0.16843896
-0.051203765 -0.03127849 -0.066846326 -0.102746665 -0.14615579 -0.03509003 0.023276241 -0.08674961
00000000: cc24 6cbc 309f e4bc 3323 9cbc 56f2 6e3b
00000010: fe62 bcbe d596 333d fbb7 97be aed6 ccbc
00000020: 7cf2 b4bd 7686 15bd 0caa 483c 2d4e 97be
00000030: 36c6 9cbd ee78 62bd abb2 9abd 09d8 103c
00000040: b167 343e a7e3 2a3c 86f7 f5bd cf28 cfbd
00000050: 775f 37bc cb49 93bd 33df c43c ee39 64be
00000060: fefd c4bd cd3b c8be 43db 1ebe b762 edbd
00000070: c620 7c3d 4200 dabc adc6 283c 82fb cabd
00000080: 2912 b3bb 4c85 88be e007 91bd 6d7c 913d
00000090: 4b67 8fbd 73a8 c0bd 8b87 c6bd aaae 003e
000000a0: 6308 71bd 2418 89bd a08f 5d3e d892 313c
000000b0: 2c10 d4bd 6939 a4bd 0e0e 52bd 4eae a4ba
000000c0: e42d 90bd 2391 843d ca8d 793e 014c 023d
000000d0: bcb9 be3d 3ed9 25bd 0ee5 fcbd 00f0 243d
000000e0: 33ad ea3c 9462 93bd b3e2 89bd 4bef 84be
000000f0: 60bf 08be b562 00be 7ed1 1a3d 8c87 01bc
00000100: 21f3 053b 7d79 e03a c2b5 f5bc 635f 2dbe
00000110: 41c9 183d bfbb d8bd 0532 753c a360 75bd
00000120: 511f 2abc 6348 30bd 8a77 15be f772 d8bc
00000130: 6d25 c3bc a33c 9ebd 9afe 2abc 90f3 08bd
00000140: d849 babd 61ed a23d 11f1 633e 1865 2bbc
00000150: 8d99 c2bd 1de8 86bd f072 28be 3e7d 34be
00000160: 3f64 10be 167b ce3d 7ffc 48bd bcb1 c9bc
00000170: e6a4 edbd ba7c 9dbd e9bb 9c3e ed98 dfbc
00000180: 555b 333e 2263 aa3d 62fc 06be 4d7c 10be
00000190: 64ee f33c ea36 88bd 9869 acbd c9d8 853b
000001a0: c6d0 04bd e9b2 c3bd 3491 6fbd 0ab4 ab3b
000001b0: fc78 a93d ceee 28be f71b bebc a93e 68bd
000001c0: 103c 07bd af01 babd 70c2 063d cf85 77bd
000001d0: b4f2 89be b1cb 5e3d 9a52 ba3d 437b 2c3e
000001e0: 0abb 51bd e01d 00bd bae6 88bd d86c d2bd
000001f0: dda9 15be 90ba 0fbd d1ad be3c c8a9 b1bd

p_conv1.weight f4 [4, 128, 1, 1]
0.016094452 0.06381191 0.018856412 0.0037219792 -0.0532607 0.18457468 0.026073813 0.04335259
0.0050737835 -0.02138876 0.06815845 -0.051179525 0.2647843 0.50276154 0.021387128 -0.075250246
-0.04888797 0.07221028 -0.16211031 -0.0069702636 0.12377394 0.18669894 0.002650353 0.00096089515
0.36248553 0.0019061797 0.07740007 0.14707793 -0.018486036 -0.04217906 0.062233623 -0.02680482
0.011099108 0.13787742 -0.020252835 -0.0088422205 0.05247522 -0.01562115 0.09601362 0.06910812
0.03573188 -0.22346853 -0.006122766 -0.047315545 0.04178091 0.31558564 -0.051059276 0.0010586439
0.022144897 0.17145622 0.03316535 -0.02826307 0.036969494 0.027809894 -0.02239209 -0.0037077765
-0.0591966 0.11803842 0.011785335 -0.08586501 -0.06173679 0.013041682 -0.043446206 0.027584514
0.020161526 0.049839005 0.040198896 0.033750195 0.01224433 -0.0157002 -0.012679488 -0.018428644
0.11634332 -0.11836649 0.05135742 0.043297783 -0.014532563 0.14703052 -0.04809638 0.043141082
0.0067344755 0.05577112 -0.027480032 -0.03616984 -0.054475054 0.039774194 0.004776737 0.029732408
0.031109268 0.022476733 -0.029077861 0.008127802 0.01054972 0.013583362 0.051633384 0.012578769
-0.2038658 -0.018188938 -0.013359053 -0.0023635747 0.010825545 -0.04616432 0.06336798 0.010263773
0.009671309 0.003766874 0.0040628305 -0.0012572586 -0.006060678 -0.053240165 -0.0051796557 0.3476861
0.028611323 -0.19332527 0.039097346 -0.12823911 0.022959571 0.02504588 -0.030039893 -0.05648512
-0.0017119762 -0.051365696 0.07179394 -0.010083573 -0.030535916 -0.019701436 -0.09173772 0.015373679
-9.7562355e-05 0.0020835255 0.048548948 -0.006942425 0.03586707 -0.113265485 0.021552444 0.033866752
0.26507658 0.08505894 0.04669662 -0.050619952 0.3837332 -0.17482078 -0.41618994 -0.09491914
0.0016129058 0.027362559 -0.2926253 0.019450126 -0.051275786 0.11838178 -0.027132522 -0.004512911
-0.13068314 0.007289682 0.3200787 0.1755427 0.043651085 -0.03257905 0.05148522 0.034528147
-0.015272363 -0.036488216 -0.37824917 0.036627647 -0.038957894 -0.021851124 0.09440328 -0.012313669
0.1269446 -0.0027991398 0.06937994 0.13526398 0.0015794747 0.014673193 -0.044445667 0.2751343
-0.023365831 0.032579787 -0.10733357 -0.020463351 0.003030336 -0.07762935 -0.012007062 0.24750452
-0.02194318 0.21175371 -0.003313635 0.010696961 -0.043041818 -0.11778192 0.046962254 -0.0964455
0.007135373 0.015277175 -0.004716939 -0.04846993 0.0033095859 -0.0016335943 -0.013450842 -0.009299253
0.025363358 -0.06519356 0.012777801 0.014694401 -0.059138685 -0.14226112 -0.3344546 -0.07992901
0.014955904 -0.0022136674 0.056658067 -0.044992477 0.29983285 -0.010549766 0.006354991 -0.009144406
-0.017061241 0.050382886 -0.04776867 0.16274264 -0.03916687 -0.043215252 0.105523705 -0.037815537
0.03890048 -0.015724527 -0.007977156 -0.20636775 -0.0018416638 -0.020714965 0.19295664 0.0015152984
-0.009552976 0.01052346 -0.0043643713 0.04305603 0.020868413 -0.014152589 0.5790562 -0.060798172
-0.041806594 -0.095754355 -0.30286267 0.050226443 0.19555354 -0.05905438 -0.043673113 -0.061131448
-0.18019241 0.096422695 -0.03541637 0.13526645 -0.010400324 -0.006667339 -0.15187466 -0.30111456
00000000: 83d8 833c d2af 823d c378 9a3c 73ec 733b
00000010: e427 5abd 2501 3d3e c098 d53c 7c92 313d
00000020: fb41 a63b 7b37 afbc a896 8b3d 9fa1 51bd
00000030: cf91 873e fbb4 003f 0f34 af3c cd1c 9abd
00000040: c13e 48bd fce2 933d 3f00 26be cf66 e4bb
00000050: 317d fd3d 022e 3f3e 8bb1 2d3b 95e4 7b3a
00000060: b497 b93e c7d8 f93a ee83 9e3d 999b 163e
00000070: 0770 97bc f3c3 2cbd afe8 7e3d c895 dbbc
00000080: 08d9 353c bd2f 0d3e 46e9 a5bc f6de 10bc
00000090: 42f0 563d daef 7fbc caa2 c43d 8f88 8d3d
000000a0: 985b 123d efd4 64be 7ca1 c8bb f2cd 41bd
000000b0: 7622 2b3d 7194 a13e 8823 51bd 32c2 8a3a
000000c0: 3769 b53c 3892 2f3e 64d8 073d f487 e7bc
000000d0: 536d 173d 93d1 e33c 9e6f b7bc 2bfe 72bb
000000e0: 2278 72bd 21be f13d 4717 413c ffd9 afbd
000000f0: b7df 7cbd c7ac 553c a6f4 31bd ebf8 e13c
00000100: c929 a53c fc23 4c3d 99a7 243d a53d 0a3d
00000110: 719c 483c b59d 80bc a1bd 4fbc abf7 96bc
00000120: 6845 ee3d 216a f2bd 285c 523d 0459 313d
00000130: fd19 6ebc 2b8f 163e b600 45bd b4b4 303d
00000140: e0ac dc3b 4270 643d ce1d e1bc d326 14bd
00000150: 3c21 5fbd 44ea 223d 2d86 9c3b 6191 f33c
00000160: ddd8 fe3c 2021 b83c b234 eebc 792a 053c
00000170: bcd8 2c3c c08c 5e3c 877d 533d 2e17 4e3c
00000180: 32c2 50be f800 95bc eedf 5abc 34e6 1abb
00000190: a05d 313c cc16 3dbd 12c7 813d 6229 283c
000001a0: 6974 1e3c a9dd 763b 7e21 853b 99ca a4ba
000001b0: a798 c6bb 5c12 5abd 1aba a9bb ea03 b23e
000001c0: 4b62 ea3c 0ff7 45be 8a24 203d 1d51 03be
000001d0: b615 bc3c 042d cd3c 3916 f6bc f15c 67bd
000001e0: 6464 e0ba d664 52bd b408 933d 9235 25bc
000001f0: 7526 fabc e864 a1bc fce0 bbbd e2e1 7b3c
00000200: 649a ccb8 c28b 083b 43db 463d 487d e3bb
00000210: 59e9 123d bcf7 e7bd c08e b03c ddb7 0a3d
00000220: 1eb8 873e 6233 ae3d f444 3f3d de56 4fbd
00000230: ae78 c43e 3804 33be d916 d5be f764 c2bd
00000240: 2368 d33a 7227 e03c fcd2 95be df55 9f3c
00000250: 8f06 52bd 2672 f23d 0645 debc 0be1 93bb
00000260: cdd1 05be 49de ee3b 5be1 a33e 77c1 333e
00000270: 7bcb 323d 9c71 05bd 2be2 523d 636d 0d3d
00000280: ef38 7abc ab74 15bd e0a9 c1be df06 163d
00000290: 5092 1fbd 2101 b3bc 8256 c13d 45bf 49bc
000002a0: c4fd 013e c671 37bb 1217 8e3d a482 0a3e
000002b0: 6006 cf3a d567 703c a90c 36bd 67de 8c3e
000002c0: b369 bfbc 6272 053d b4d1 dbbd c2a2 a7bc
000002d0: 9a98 463b 23fc 9ebd 45b9 44bc d371 7d3e
000002e0: 2fc2 b3bc f7d5 583e 9229 59bb 4e42 2f3c
000002f0: 9e4c 30bd a637 f1bd 7e5b 403d 3885 c5bd
00000300: d9cf e93b 1e4d 7a3c 8d90 9abb 6888 46bd
00000310: a3e5 583b 541e d6ba ec60 5cbc e55b 18bc
00000320: d1c6 cf3c 3484 85bd fb59 513c c9c0 703c
00000330: 683b 72bd e6ac 11be a23d abbe d2b1 a3bd
00000340: 9c09 753c 2d13 11bb 4a12 683d 084a 38bd
00000350: b183 993e edd8 2cbc 873d d03b 6bd2 15bc
00000360: 04c4 8bbc 495e 4e3d 15a9 43bd 02a6 263e
00000370: 716d 20bd 7a02 31bd d01c d83d 77e4 1abd
00000380: 1c56 1f3d b9d0 80bc 9eb2 02bc 1152 53be
00000390: fc63 f1ba 6eb2 a9bc 6d96 453e fa9c c63a
000003a0: 1684 1cbc 976a 2c3c 0003 8fbb 855b 303d
000003b0: 3cf4 aa3c 43e0 67bc 073d 143f 8107 79bd
000003c0: 643d 2bbd dc1a c4bd d110 9bbe 3eba 4d3d
000003d0: 303f 483e 01e3 71bd 94e2 32bd f864 7abd
000003e0: 5c84 38be 4379 c53d c110 11bd 4a83 0a3e
000003f0: 1f66 2abc b179 dabb 0885 1bbe b02b 9abe

p_conv1.bias f4 [4]
-0.08024357 0.11590284 0.8763879 -0.042494107
00000000: be56 a4bd 785e ed3d f55a 603f 4d0e 2ebd

p_fc1.weight f4 [64, 256]
0.04688838 0.008920217 -0.041116755 -0.038732905 0.02241631 0.012989006 -0.008739033 0.03892265
0.033662442 -0.04806691 -0.010709377 -0.026210701 0.014049624 -0.0786524 -0.019033559 -0.0118215345
0.07862013 -0.09339419 -0.011881973 -0.050500542 -0.03898134 -0.0067137117 -0.07104414 0.0007280112
0.061040815 -0.06592568 -0.025697013 0.042777237 0.04969647 -0.07911018 0.021564366 0.0546619
0.17846192 -0.024101062 -0.018438686 -0.07789912 -0.014137089 -0.11551885 0.02610622 0.02462164
0.2823629 -0.038284674 -0.06959929 -0.035917446 -0.040023148 -0.06834572 -0.0143776415 0.005010641
0.19800586 0.02198179 0.0076988675 -0.0074940436 -0.105999835 -0.0402119 -0.045771394 0.029496929
-1.5907407 0.15108432 0.08228773 0.04300296 -0.03406977 -0.025210625 0.0026580715 -0.01234175
0.02124289 0.025277482 0.0434172 -0.04550278 0.019985903 -0.018475436 -0.028490659 0.021873191
0.0004791641 -0.038753923 -0.03411957 0.032103956 -0.04463737 -0.06526614 -0.03234011 0.003067362
-0.056393914 -0.0405 -0.03128322 -0.030405225 -0.057872687 -0.05630667 0.0031318485 -0.03570206
-0.0734466 0.0042890836 -0.06053914 -0.019948607 -0.03870686 -0.0053321924 -0.043193664 0.0075693275
0.007670104 -0.047608323 0.1261743 -0.0650013 -0.02428432 -0.048900284 0.027275091 0.010745983
0.019790161 0.12234523 -0.029436955 0.039498147 -0.032230884 -0.011757193 -0.011443421 -0.03579649
0.26849177 -0.105763696 -0.014333285 -0.052724764 -0.047547664 -0.0038709978 -0.0019432394 -0.0072273184
0.42121875 0.13400696 0.058964703 0.0039963764 0.07965224 -0.03617874 -0.016471248 -0.051219083
-0.10183152 -0.07076663 -0.09463934 -0.040558428 -0.08128924 -0.04768654 -0.0444175 -0.10148086
-0.016318124 -0.045148257 0.02702849 -0.046896257 -0.01582315 0.0034778512 0.12501301 -0.12785855
-0.01636955 -0.0639945 -0.043610126 -0.06788425 0.09259181 0.016649581 0.033149034 -0.030032586
-0.06551111 -0.21531649 0.0027935158 0.033185694 0.05733037 0.0022950824 0.0019308449 0.016312532
-0.07084369 -0.20060115 -0.0064523136 -0.017424105 0.032478854 0.0042339633 0.017646046 -0.036519047
-0.25080222 -0.0115941735 -0.06918278 -0.011674863 0.028697157 0.00678863 0.05578899 0.06140123
-0.1292079 0.034432806 0.029165165 -0.0029835086 0.03023649 0.048321962 0.06305229 0.04134268
-0.6947881 -0.08010171 0.06435864 0.13898236 0.0520609 0.07493976 0.07664931 -0.010211957
0.07243089 0.043619893 0.07153772 0.022941269 0.067170866 -0.010809883 0.0012653208 -0.11293527
0.037581336 -0.011747141 -0.023492755 0.008535245 -0.031277046 0.008573392 -0.03565509 0.0035691177
-0.00223627 0.018637437 -0.026442347 0.004512289 -0.0009261564 -0.05601641 -0.0036891869 0.016416585
0.014046824 0.058538813 0.007014409 -0.0048082303 -0.02096466 0.027699212 -0.013964769 -0.02921559
-0.028247254 0.057930887 0.090842195 0.05348466 -0.03229908 -0.0058575 -0.016250558 0.034248278
0.051547214 0.13749672 0.066216245 -0.0027744498 -0.0024575347 -0.027327038 -0.023959992 -0.03319622
0.12730643 0.00836184 -0.05933263 -0.021069545 -0.06967731 -0.016000107 0.0018951823 -0.052382927
0.086288534 -0.06565576 -0.087145545 -0.07977728 -0.011405277 -0.02075921 -0.02723285 -0.057368085
00000000: 080e 403d 1a26 123c 0b6a 28bd 65a6 1ebd
00000010: 69a2 b73c d7cf 543c 292e 0fbc 5b6d 1f3d
00000020: a1e1 093d cfe1 44bd 6276 2fbc d3b7 d6bc
00000030: 6530 663c 8214 a1bd 44ec 9bbc 1caf 41bc
00000040: 9703 a13d 7445 bfbd 9bac 42bc a8d9 4ebd
00000050: e6aa 1fbd b2fe dbbb 977f 91bd 01d8 3e3a
00000060: ef05 7a3d 0b04 87bd 8b82 d2bc 2f37 2f3d
00000070: 878e 4b3d 8504 a2bd c1a7 b03c 28e5 5f3d
00000080: b9be 363e 976f c5bc ba0c 97bc 9389 9fbd
00000090: 409f 67bc 2695 ecbd b6dc d53c 52b3 c93c
000000a0: df91 903e 64d0 1cbd 138a 8ebd 2c1e 13bd
000000b0: 50ef 23bd d7f8 8bbd 3390 6bbc 4e30 a43b
000000c0: 0cc2 4a3e 2813 b43c c846 fc3b 9890 f5bb
000000d0: 7116 d9bd 3cb5 24bd c97a 3bbd 8ba3 f13c
000000e0: 649d cbbf d9b5 1a3e 7886 a83d df23 303d
000000f0: be8c 0bbd 8386 cebc 0a33 2e3b 0d35 4abc
00000100: 9205 ae3c b912 cf3c 3cd6 313d 1f61 3abd
00000110: 7ab9 a33c cc59 97bc 3e65 e9bc 682f b33c
00000120: 5138 fb39 6fbc 1ebd f6c0 0bbd 707f 033d
00000130: add5 36bd 41aa 85bd 1077 04bd cb05 493b
00000140: 4efd 66bd 54e3 25bd d522 00bd 6114 f9bc
00000150: e90b 6dbd d3a1 66bd b33f 4d3b 533c 12bd
00000160: 2c6b 96bd 718b 8c3b e4f7 77bd 436b a3bc
00000170: 168b 1ebd acb9 aebb d7eb 30bd 1f08 f83b
00000180: 7f55 fb3b f200 43bd d633 013e 671f 85bd
00000190: e9ef c6bc aa4b 48bd 0370 df3c eb0f 303c
000001a0: fa1e a23c 2390 fa3d c525 f1bc cfc8 213d
000001b0: 8804 04bd 3ea1 40bc 307d 3bbc 579f 12bd
000001c0: c177 893e a39a d8bd 28d6 6abc ecf5 57bd
000001d0: 57c1 42bd 91b0 7dbb 4bb4 feba 24d3 ecbb
000001e0: fca9 d73e 1f39 093e f984 713d 09f4 823b
000001f0: b720 a33d 2930 14bd b6ee 86bc 1acb 51bd
00000200: 0b8d d0bd 18ee 90bd 45d2 c1bd 9820 26bd
00000210: f97a a6bd f652 43bd 20ef 35bd 32d5 cfbd
00000220: 96ad 85bc 61ed 38bd da6a dd3c 4a16 40bd
00000230: 8d9f 81bc a9ec 633b 6903 003e 5aed 02be
00000240: 6f19 86bc 8c0f 83bd 88a0 32bd e606 8bbd
00000250: c6a0 bd3d b464 883c 48c7 073d e606 f6bc
00000260: b02a 86bd ed7b 5cbe 6b13 373b b9ed 073d
00000270: 40d3 6a3d 1869 163b 6714 fd3a dca1 853c
00000280: 7f16 91bd 636a 4dbe ee6d d3bb ffbc 8ebc
00000290: 8c08 053d 0fbd 8a3b 718e 903c ff94 15bd
000002a0: 2669 80be 7df5 3dbc b4af 8dbd ed47 3fbc
000002b0: 4d16 eb3c 2873 de3b ff82 643d db7f 7b3d
000002c0: 134f 04be 6a09 0d3d c9eb ee3c f886 43bb
000002d0: 84b2 f73c 40ed 453d 8f21 813d f156 293d
000002e0: a2dd 31bf 5e0c a4bd 76ce 833d 6451 0e3e
000002f0: cf3d 553d 047a 993d 50fa 9c3d 0d50 27bc
00000300: a556 943d c6aa 323d 5e82 923d 54ef bb3c
00000310: e190 893d ef1b 31bc 1fd9 a53a 9b4a e7bd
00000320: e3ee 193d 1577 40bc e173 c0bc 6ad7 0b3c
00000330: 5c1c 00bd 6a77 0c3c 120b 12bd dce7 693b
00000340: 638e 12bb 8aad 983c 9f9d d8bc d3db 933b
00000350: 4ec9 72ba 7771 65bd 49c6 71bb 137c 863c
00000360: a624 663c 65c6 6f3d 21d9 e53b 5c8e 9dbb
00000370: 14be abbc 75e9 e23c 7dcc 64bc 8855 efbc
00000380: c966 e7bc f048 6d3d 790b ba3d bb12 5b3d
00000390: 0a4c 04bd 45f0 bfbb e41f 85bc ec47 0c3d
000003a0: 2c23 533d f1cb 0c3e 629c 873d 8bd3 35bb
000003b0: 970e 21bb f4dc dfbc bf47 c4bc c2f8 07bd
000003c0: 9e5c 023e 1900 093c c606 73bd 0a9a acbc
000003d0: fab2 8ebd a812 83bc c467 f83a 7b8f 56bd
000003e0: 0bb8 b03d 8776 86bd 5d79 b2bd 4562 a3bd
000003f0: 33dd 3abc 380f aabc 6d17 dfbc ccfa 6abd

p_fc1.bias f4 [64]
-0.36891687 -0.019687781 -0.36362857 -0.26584062 -0.29892153 -0.29111636 -0.019629901 -0.38566324
-0.032734796 0.57615346 0.35726705 -0.1956056 -0.23911406 0.40214524 0.4618464 -0.052778102
-0.23481937 0.40100408 -0.08064369 0.26816443 0.30842328 0.041707218 0.42144802 -0.30343527
-0.1460006 -0.2582327 0.18105201 0.15338409 0.12948315 0.23313555 -0.26775917 -0.3443935
-0.17470162 -0.18530084 0.2594883 0.17014799 0.14052069 0.24630296 -0.27374715 -0.2598807
-0.21234536 0.39443585 -0.040308952 0.2568547 0.22745155 -0.014993547 0.28002575 -0.30340263
0.06625503 0.47155154 0.2843401 -0.3102197 -0.32079142 0.26283726 0.33396807 -0.056375347
-0.3226195 0.054560535 -0.23151512 -0.2228408 -0.23544775 -0.2664086 0.019306552 -0.34983897
00000000: ace2 bcbe 4548 a1bc 862d babe 431c 88be
00000010: 3e0c 99be 340d 95be e3ce a0bc a775 c5be
00000020: ec14 06bd cb7e 133f b5eb b63e d64c 48be
00000030: 51da 74be fbe5 cd3e 2277 ec3e da2d 58bd
00000040: 7d74 70be 6850 cd3e 8528 a5bd d94c 893e
00000050: a8e9 9d3e 30d5 2a3d 09c8 d73e de5b 9bbe
00000060: 2e81 15be 1437 84be b365 393e b810 1d3e
00000070: 3b97 043e 16bb 6e3e bb17 89be 5854 b0be
00000080: fbe4 32be 81bf 3dbe a7db 843e 463b 2e3e
00000090: a8e4 0f3e d836 7c3e 9628 8cbe 150f 85be
000000a0: 1071 59be 7ff3 c93e 001b 25bd 7682 833e
000000b0: 0fe9 683e 7fa7 75bc 895f 8f3e 9757 9bbe
000000c0: b8b0 873d 346f f13e 0795 913e 1ed5 9ebe
000000d0: c63e a4be 9b92 863e ddfd aa3e d6e9 66bd
000000e0: 622e a5be de7a 5f3d 4d12 6dbe 6130 64be
000000f0: 3719 71be b566 88be c628 9e3c 181e b3be

value_conv1.weight f4 [2, 128, 1, 1]
-0.3753704 -0.26458544 0.0628384 0.0016553857 -0.55255115 -0.033392623 -0.53915256 0.13738549
-0.0419502 -0.0021796396 0.23297115 -0.3222918 0.018684937 -0.12423728 0.011527326 0.16148302
0.034955844 -0.10393949 -0.30958867 -0.15890144 -0.26815328 -0.096001334 -0.16689679 -0.07818385
-0.05170586 -0.34365857 -0.31407762 0.28771898 -0.12303488 0.039718594 0.15075102 -0.2700737
0.09956659 0.3504954 0.11531755 -0.32778418 0.020421237 0.32706505 0.29853776 0.34004062
0.36976796 -0.059455764 0.18181202 -0.02743305 0.17057255 0.25770825 -0.07362261 -0.09028947
0.31727818 -0.010593375 0.23626648 0.11322191 0.1946459 -0.20627835 0.112819575 -0.0008531627
-0.0016761019 0.07442856 0.31778958 -0.526551 -0.42826894 -0.02573076 -0.37997106 -0.13100785
0.13480316 -0.086953856 -0.046617348 0.41109022 0.19259012 0.4065808 -0.010401811 -0.44208294
0.028740488 0.17405736 0.034022458 -0.28945452 0.14794137 0.16702917 0.009847015 -0.14268549
0.38023445 -0.110915326 0.0019241482 -0.03111085 -0.285669 0.036346238 -0.057119004 -0.06857971
-0.27607605 -0.01339745 0.06912125 -0.026591703 0.19995297 -0.4511772 -0.010021243 -0.031873643
0.25075164 -0.10610244 -0.6532296 0.10756698 -0.6929609 0.063962966 0.20181389 -0.5639727
0.076293685 0.26394495 -0.29834053 -0.37416354 0.16188593 0.31092945 0.11055072 0.09071037
0.014689883 -0.116791375 -0.018542621 0.089247756 -0.512113 -0.19908544 -0.083328165 0.037948217
0.0828736 -0.49819282 0.13982664 -0.17195462 0.23678426 -0.019957626 0.24282059 -0.012717549
-0.011728724 -0.059727766 0.089957066 -0.5138181 0.28187424 0.23496515 -0.1639053 0.3409964
-0.04025375 -0.5004705 -0.033904217 -0.40882114 -0.15822354 0.019870332 0.026480643 0.1923385
0.00858494 0.24556428 0.09282577 -0.4309998 -0.037293106 -0.05577209 -0.4128073 0.334602
-0.11159427 -0.08160189 0.11469577 0.025139378 -0.31832752 -0.44008937 0.30289575 0.17915729
-0.24405058 -0.0481543 -0.16144 0.23654094 -0.3033446 0.24402386 -0.10507079 -0.28323933
-0.3584791 0.0045068962 0.1370752 0.1409039 -0.30652457 -0.2978752 -0.05534936 0.2933152
0.25493956 0.089818776 -0.33206192 -0.52568614 -0.2502133 0.23034248 0.19905055 0.13826065
0.07068299 0.12457349 0.19751248 -0.17207156 0.22301455 -0.2253225 -0.110482275 0.038002376
0.1422541 0.08209301 -0.5576051 0.10540141 0.097833365 0.0050096973 -0.34486234 0.004067533
0.24700704 -0.30783346 0.2620698 -0.22286363 0.28888565 -0.24489915 0.11389407 0.3059135
-0.13581678 -0.5283983 0.03892131 0.40315786 0.26932248 -0.34169284 0.53252405 0.5393617
-0.27810785 0.106333435 -0.19386238 -0.25282502 0.23543338 0.06718784 0.039778434 -0.41790605
-0.33151945 -0.2602108 0.06863456 -0.24239169 -0.04785855 -0.1713287 -0.09009178 0.24639933
-0.45717883 -0.42040867 0.41772586 0.1929357 0.052642632 0.17702506 0.25493035 -0.08128769
-0.25447592 -0.143561 0.019163515 -0.42065507 0.023145061 -0.065834545 -0.031234019 -0.38113245
-0.24376583 -0.2219921 -0.24487253 0.28227326 -0.17286131 0.30816725 -0.1678188 -0.14343975
00000000: 8d30 c0be be77 87be 6bb1 803d 87f9 d83a
00000010: fe73 0dbf b4c6 08bd e705 0abf c8ae 0c3e
00000020: f9d3 2bbd 49d8 0ebb fd8f 6e3e 6e03 a5be
00000030: 2711 993c 1d70 febd 1cdd 3c3c ce5b 253e
00000040: dc2d 0f3d 3ade d4bd 6882 9ebe 0fb7 22be
00000050: 634b 89be 599c c4bd fee6 2abe db1e a0bd
00000060: 86c9 53bd 04f4 afbe c8ce a0be e74f 933e
00000070: b6f9 fbbd f7af 223d 7a5e 1a3e 1a47 8abe
00000080: 91e9 cb3d 2274 b33e 9c2b ec3d 54d3 a7be
00000090: 704a a73c 1275 a73e f1d9 983e ce19 ae3e
000000a0: 3a52 bd3e e387 73bd ee2c 3a3e 47bb e0bc
000000b0: 92aa 2e3e 56f2 833e 73c7 96bd b0e9 b8bd
000000c0: 4972 a23e d68f 2dbc d7ef 713e e4e0 e73d
000000d0: 4151 473e a23a 53be f30d e73d c8a6 5fba
000000e0: a6b0 dbba 006e 983d 51b5 a23e 0ccc 06bf
000000f0: 1146 dbbe 51c9 d2bc 918b c2be ec26 06be
00000100: d709 0a3e dd14 b2bd d5f1 3ebd 6b7a d23e
00000110: 5836 453e 5c2b d03e 5c6c 2abc b258 e2be
00000120: 2c71 eb3c 183c 323e 225b 0b3d 6233 94be
00000130: f17d 173e b209 2b3e 6055 213c 251c 12be
00000140: 17ae c23e 9327 e3bd b333 fc3a 2edc febc
00000150: 3543 92be cbdf 143d 9ef5 69bd 8573 8cbd
00000160: d759 8dbe fa80 5bbc 718f 8d3d d8d6 d9bc
00000170: 79c0 4c3e b300 e7be 2430 24bc f08d 02bd
00000180: 8562 803e 3c4c d9bd 0e3a 27bf 144c dc3d
00000190: e365 31bf 04ff 823d 4da8 4e3e 8460 10bf
000001a0: dd3f 9c3d cb23 873e 17c0 98be 5d92 bfbe
000001b0: 6dc5 253e 2532 9f3e 6a68 e23d 5cc6 b93d
000001c0: d6ad 703c 5130 efbd b2e6 97bc 87c7 b63d
000001d0: d619 03bf 0edd 4bbe f5a7 aabd 976f 1b3d
000001e0: a2b9 a93d 2113 ffbe b72e 0f3e df14 30be
000001f0: 9377 723e 2d7e a3bc f6a5 783e 445d 50bc
00000200: d629 40bc 1aa5 74bd 693b b83d 9589 03bf
00000210: d251 903e b49a 703e cad6 27be 1597 ae3e
00000220: 1ee1 24bd d61e 00bf 26df 0abd 0151 d1be
00000230: 5a05 22be 1bc7 a23c efed d83c 62f4 443e
00000240: d9a7 0c3c 3475 7b3e 701b be3d 01ac dcbe
00000250: a8c0 18bd 4671 64bd 7a5b d3be f450 ab3e
00000260: 898b e4bd e41e a7bd 9ee5 ea3d 19f1 cd3c
00000270: d3fb a2be 6553 e1be 2715 9b3e 0275 373e
00000280: 65e8 79be 713d 45bd 8750 25be ca37 723e
00000290: fc4f 9bbe 64e1 793e 5b2f d7bd bf04 91be
000002a0: 938a b7be 96ae 933b 715d 0c3e 1d49 103e
000002b0: caf0 9cbe 1983 98be 03b6 62bd 692d 963e
000002c0: 7087 823e e8f2 b73d 0504 aabe 5e93 06bf
000002d0: f51b 80be e6de 6b3e e8d3 4b3e 3394 0d3e
000002e0: 3ec2 903d 6320 ff3d b640 4a3e 8733 30be
000002f0: ed5d 643e f1ba 66be 8844 e2bd 61a8 1b3d
00000300: 0fab 113e 6120 a83d 35bf 0ebf b2dc d73d
00000310: dc5c c83d 6328 a43b cc91 b0be f148 853b
00000320: 6aef 7c3e 599c 9dbe 032e 863e 5d36 64be
00000330: d2e8 933e d8c6 7abe 4b41 e93d b2a0 9c3e
00000340: 8e13 0bbe 1c45 07bf f46b 1f3d b56a ce3e
00000350: a3e4 893e 5df2 aebe 7f53 083f 9c13 0a3f
00000360: 2764 8ebe 58c5 d93d dc83 46be 4872 81be
00000370: 7315 713e c799 893d b6ee 223d c8f7 d5be
00000380: ebbc a9be 5a3a 85be 4790 8c3d 8735 78be
00000390: 5407 44bd ca70 2fbe 0a82 b8bd 1b50 7c3e
000003a0: 5813 eabe ce3f d7be 2ae0 d53e f090 453e
000003b0: cd9f 573d 0f46 353e 3b86 823e 297a a6bd
000003c0: ab4a 82be a801 13be cefc 9c3c 1a60 d7be
000003d0: b69a bd3c 43d4 86bd 7cde ffbc cb23 c3be
000003e0: c09d 79be e651 63be ddbf 7abe 1f86 903e
000003f0: 8e02 31be 19c8 9d3e b1d8 2bbe dfe1 12be

value_conv1.bias f4 [2]
-0.16400875 0.2475046
00000000: e9f1 27be d971 7d3e
