model/cnn/8x8/3/cnn_8.pt (torch_old, 478657 bytes, 15 tensors)

conv1.weight f4 [32, 4, 3, 3]
0	0xbe81afbe	-0.25329393
1	0x3e9d89d6	0.30769223
2	0xbd328c3c	-0.04359077
3	0xbcffc254	-0.031220593
4	0x3de43b8b	0.111441694
5	0xbea91af3	-0.33028373
6	0x3dfa8fed	0.12234483
7	0xbe6e438a	-0.23267952
8	0xbd89268d	-0.06696806
9	0xbe7e57a9	-0.24838127
10	0x3d7594db	0.059956413
11	0x3c87ff19	0.016601132
12	0x3da355ac	0.07975325
13	0x3e1b8adc	0.1518969
14	0x3d2ddefd	0.042448986
15	0xbe68ccc0	-0.22734356
16	0x3cac350b	0.021021387
17	0x3fa67b95	1.3006464
18	0x3e41e1f5	0.18933852
19	0xbe1bd009	-0.15216078
20	0x3de5d001	0.11221314
21	0xbe39c1d8	-0.18140352
22	0x3de2a353	0.11066308
23	0x3db67254	0.08908525
24	0xbc7ea66a	-0.015542606
25	0x3d9ff642	0.07810642
26	0xbd1390cc	-0.03602676
27	0x3e5ce1c0	0.21570492
28	0xbe8c6d86	-0.2742731
29	0xbe90bf58	-0.28270984
30	0xbe4c374f	-0.19942974
31	0x3e3b45fb	0.18288414
32	0x3e34cb50	0.17655683
33	0xbe4e820b	-0.20166795
34	0x3e40c8f7	0.18826662
35	0x3e4911a1	0.19635631
36	0xbe9ec3ef	-0.3100886
37	0xbe4908b5	-0.19632228
38	0xbea367b7	-0.31915066
39	0x3ecfdd95	0.4059874
40	0x3edb2e3e	0.42808717
41	0xbf50c11f	-0.8154468
42	0xbdefc3cd	-0.11707268
43	0x3e15e47b	0.1463794
44	0xbe7996fe	-0.24374005
45	0x3f2128e3	0.62953013
46	0x3e5cdc1a	0.21568337
47	0x3f193e62	0.59860814
48	0xbebe78b7	-0.37201473
49	0x3f13c62a	0.5772425
50	0xbeb6b2fa	-0.35683423
51	0x3dd1fcac	0.102532715
52	0xbe9dd1b2	-0.30824047
53	0x3dd40b96	0.10353772
54	0x3cae7429	0.021295624
55	0x3e46fd4e	0.19432566
56	0x3ebb924c	0.36635053
57	0xbd92c504	-0.07166484
58	0x3ef123c1	0.4709759
59	0x3dfd0897	0.12355154
60	0xbd169650	-0.036764443
61	0x3c708306	0.014679676
62	0x3e9d64d0	0.30740976
63	0xbd2469cf	-0.04013997
64	0xbdde225e	-0.10846399
65	0x3d8c4ff9	0.06851191
66	0xbd1aa92d	-0.037758995
67	0xbd5da5ed	-0.054113317
68	0x3d9998b2	0.074998274
69	0x3c439b4c	0.011938881
70	0xbb350fb8	-0.0027627777
71	0x3db8e1eb	0.090274654
72	0xbd0e8927	-0.034798767
73	0xbd691f87	-0.056914832
74	0xbe6d9b30	-0.2320373
75	0xbe263ab2	-0.16233328
76	0xbf24cab9	-0.6437183
77	0xbe9ab6fb	-0.30217728
78	0xbec7cffe	-0.39025873
79	0x3d9c76ad	0.07639823
80	0xbdb3d0b2	-0.0878004
81	0x3dc7125b	0.09720298
82	0xbd1152ec	-0.03547947
83	0x3e0c5a3a	0.13706294
84	0x3f595c3b	0.8490636
85	0x3ef900ca	0.48633415
86	0xbe4aefa2	-0.19817975
87	0x3df7cf85	0.12100128
88	0xbdac065e	-0.08399652
89	0xbe1bd6e6	-0.15218696
90	0xbdcf8d8d	-0.101344205
91	0xbcfee4ab	-0.031114897
92	0x3d6aefda	0.057357647
93	0x3ce23322	0.027612273
94	0xbc86e337	-0.016465766
95	0x3d67382a	0.056450047
96	0x3e7bf0af	0.24603532
97	0xbd855bce	-0.06511651
98	0xbe39122e	-0.18073341
99	0x3e167b84	0.14695555
100	0x3da016e8	0.07816869
101	0xbd114cc0	-0.035473585
102	0xbd5e7321	-0.054309014
103	0x3e460b05	0.19340141
104	0x3cb25566	0.021769237
105	0x3b7931c4	0.0038024047
106	0xbd27f113	-0.04100139
107	0xbe87df8e	-0.26537746
108	0x3d131622	0.03590978
109	0x3e32a3b9	0.17445268
110	0xbe2422bc	-0.16028875
111	0xbdcf7b91	-0.1013099
112	0xbe490a72	-0.19632891
113	0xbe8217e1	-0.25408843
114	0x3e1f6c5a	0.15568677
115	0xbe7cd887	-0.24691974
116	0x3f36f2bc	0.71464133
117	0xbe0f0e97	-0.1397041
118	0x3e0ae91d	0.13565488
119	0xbe4eb7c2	-0.20187286
120	0x3bebbca5	0.007194119
121	0x3e7e5407	0.24836741
122	0xbbb977ab	-0.0056600175
123	0x3cdac597	0.026705546
124	0xbda82960	-0.08211017
125	0xbdcf4d83	-0.10122206
126	0xbdab8cc1	-0.08376456
127	0x3ef199fc	0.47187793
128	0x3da0b2a7	0.07846575
129	0x3e80bba0	0.25143147
130	0x3f1de655	0.61679584
131	0x3f0bbf11	0.5458842
132	0x3c759332	0.014988707
133	0x3e25ecd3	0.16203623
134	0x3cb28f12	0.021796737
135	0x3d8b15e1	0.067912824
136	0x3cf169da	0.02946942
137	0x3dfd0976	0.1235532
138	0xbc060d1d	-0.008181837
139	0xbd977807	-0.0739594
140	0xbcfb6fad	-0.0306929
141	0x3dd0ad45	0.101892985
142	0xbd6a0905	-0.057137508
143	0xbd52771b	-0.05138312
144	0xbe848356	-0.2588145
145	0x3d8b62bf	0.06805944
146	0xbd950f40	-0.07278299
147	0x3d1dcf60	0.038527846
148	0xbe27e793	-0.16396932
149	0xbc88596d	-0.016644204
150	0x3e09f436	0.13472065
151	0x3dc3ad6e	0.095545635
152	0x3f850b75	1.0394121
153	0xbdc41227	-0.09573775
154	0x3dc025e0	0.09382224
155	0xbeba0147	-0.363291
156	0xbe0a4f7d	-0.13506885
157	0xbcf38614	-0.02972702
158	0xbe512f97	-0.2042831
159	0xbec4071f	-0.38286683
160	0xbf17a1ae	-0.5923108
161	0xbe759274	-0.23981649
162	0x3d06a729	0.03287426
163	0xbe667c5d	-0.22508378
164	0x3d153cea	0.036435045
165	0x3d3f5728	0.046713978
166	0x3d10739c	0.035266504
167	0x3c7e3b7f	0.015517115
168	0xbcb4a8ae	-0.022053089
169	0xbd099009	-0.03358463
170	0x3d602315	0.054720957
171	0xbdb3990d	-0.087694265
172	0xbd977f0e	-0.07397281
173	0xbc6af2fa	-0.014340157
174	0x3e0385d0	0.12844014
175	0x3d25179a	0.04030571
176	0x3d802324	0.062567025
177	0x3d817900	0.06321907
178	0x3c4ab81e	0.0123729985
179	0xbdaf0804	-0.08546451
180	0xbd1eb26d	-0.03874438
181	0xbda405ee	-0.080089435
182	0xbd3fc6da	-0.0468205
183	0xbd9181cc	-0.07104835
184	0xbe0a65bc	-0.13515371
185	0xbdc15ac5	-0.09441141
186	0xbc9183fb	-0.017763129
187	0xbdbcc521	-0.09217287
188	0xbd8f4e57	-0.06997364
189	0xbd8e9d5f	-0.0696361
190	0xbdc24658	-0.09486073
191	0xbe452b2a	-0.19254747
192	0xbd8e8f54	-0.069609314
193	0xbd0e071c	-0.03467475
194	0xbd62e4a8	-0.055393845
195	0xbd3287fa	-0.04358671
196	0xbd2d42e3	-0.042300116
197	0xbd7f3672	-0.062307782
198	0x3d8e164c	0.069378465
199	0x3d388584	0.045049205
200	0x3ceb5c83	0.028730636
201	0x3b0cec77	0.0021503249
202	0x3cd849c1	0.026402356
203	0x3cfc8bf7	0.03082846
204	0x3d1954c5	0.03743436
205	0xbce727b1	-0.028217169
206	0xbc12f7a1	-0.008970172
207	0x3d444635	0.047918517
208	0x3d31c8a1	0.043404225
209	0x3cfbd347	0.030740393
210	0x3d79c777	0.06098124
211	0x3d584e10	0.05280882
212	0x3d24feef	0.040282186
213	0x3d928b01	0.07155419
214	0x3d79ede8	0.0610179
215	0x3d48cabc	0.049021468
216	0x3dc0f1d1	0.09421123
217	0xbe988d09	-0.297951
218	0xbe7b938a	-0.24568
219	0xbe233e87	-0.15941821
220	0x3e82fc9b	0.25583348
221	0xbda43770	-0.08018386
222	0xbdc8d8f8	-0.098070085
223	0xbe89ef4a	-0.26940376
224	0x3c756540	0.014977753
225	0x3e5032cc	0.20331877
226	0x3e3b8366	0.18311843
227	0x3eb1d1cd	0.34730378
228	0x3e2e8580	0.17043114
229	0x3eb64bcd	0.35604706
230	0x3e333846	0.17501935
231	0x3f1f374e	0.62193763
232	0x3cb49798	0.022044942
233	0x3e819f1a	0.25316697
234	0x3e9f74e9	0.31143883
235	0x3e230eb5	0.15923579
236	0x3e6b17f5	0.22958358
237	0x3d1ba882	0.0380025
238	0xbe112337	-0.1417359
239	0x3c355cac	0.011069458
240	0x3e531cf0	0.20616508
241	0x3e37f7ab	0.17965572
242	0x3dfc7e07	0.12328725
243	0x3d4e0e37	0.050306525
244	0xbb4617f9	-0.003022669
245	0x3ceb7f60	0.02874726
246	0x3d515b91	0.051112715
247	0x3d7c84fc	0.06165026
248	0x3ca3bb64	0.019986816
249	0x3bdee0a9	0.006801684
250	0x3ca0b30c	0.019616626
251	0x3bc77a65	0.0060875886
252	0xbe82ffb3	-0.25585708
253	0x3e6f309f	0.23358391
254	0xbde2dc71	-0.11077202
255	0xbea1b122	-0.31580454

conv1.bias f4 [32]
0	0xbdbcb2e6	-0.0921381
1	0xbe93a091	-0.2883344
2	0x3dd87fc1	0.10571242
3	0x3e4316f9	0.19051732
4	0xbdb36209	-0.08758933
5	0x3cb5c244	0.02218736
6	0xbeb57cd7	-0.35446808
7	0xbcd5e1cd	-0.026108647
8	0xbde0b22c	-0.109714836
9	0xbdc44fb7	-0.09585517
10	0xbc506bdb	-0.012721027
11	0xbd8bd6ee	-0.06828104
12	0xbcc50cad	-0.024053896
13	0xbe01a291	-0.1265967
14	0xbe31fe53	-0.17382173
15	0xbe38d658	-0.18050516
16	0x3d2f63d4	0.042819813
17	0xbdd96fd8	-0.106170356
18	0x3e8553a5	0.26040378
19	0xbe3c653a	-0.1839799
20	0x3e92b61d	0.28654566
21	0x3a12d15b	0.00056006544
22	0xbda80850	-0.082047105
23	0xbdec00e8	-0.1152361
24	0xbe80dcda	-0.25168496
25	0xbe1cbf39	-0.1530732
26	0x3f01ed63	0.5075285
27	0xbdb9fd95	-0.0908157
28	0xbe36c568	-0.17848742
29	0xbddfdad7	-0.10930412
30	0xbe99b913	-0.30024013
31	0x3e924a43	0.28572282

conv2.weight f4 [64, 32, 3, 3]
0	0x3df16558	0.11786908
1	0xbe3136c8	-0.17306054
2	0xbe75498b	-0.23953836
3	0xbe703511	-0.23457743
4	0x3eac9d4f	0.33713767
5	0xbdc274b3	-0.09494915
6	0xbcd7f951	-0.026364
7	0xbc353c6b	-0.011061768
8	0x3bd5cde3	0.0065247878
9	0xbd156dbb	-0.0364816
10	0xbdf97d06	-0.121820495
11	0xbb91aa5e	-0.004445358
12	0x3e83eebe	0.25768083
13	0xbda97d69	-0.08275873
14	0xbd47afaf	-0.04875153
15	0xbe32add4	-0.17449123
16	0xbcb61d94	-0.0222309
17	0xbdfd5915	-0.12370507
18	0xbe726a96	-0.23673472
19	0xbc310cd4	-0.010806281
20	0xbdb38c9b	-0.08767053
21	0xbd9bbefa	-0.07604785
22	0x3c456c4b	0.012049745
23	0xbe7eed2e	-0.24895164
24	0x3df2adab	0.11849531
25	0x3b91d2ae	0.004450164
26	0xbe0ccd09	-0.1375009
27	0xbd033092	-0.032028742
28	0xbdf1f892	-0.11814989
29	0x3df7f9dd	0.121082045
30	0x3d33cadb	0.04389463
31	0x3baece29	0.005334635
32	0xbd84c233	-0.06482353
33	0x3de959af	0.11394059
34	0x3def0702	0.116712585
35	0x3dbea7f0	0.09309375
36	0x3da6c98e	0.08143912
37	0xbd04b7c8	-0.03240183
38	0x3dce80c0	0.10083151
39	0x3e62d5af	0.22151826
40	0x3e0487d1	0.12942435
41	0xbd9feff7	-0.078094415
42	0xbd8c9171	-0.06863678
43	0x3da723cd	0.08161125
44	0xbc5eb12c	-0.013592046
45	0x3d862814	0.06550613
46	0x3d88e539	0.06684346
47	0x3db58f74	0.08865252
48	0x3d1b49e3	0.03791226
49	0x3da70624	0.08155468
50	0x3de53ea9	0.11193592
51	0x3b0494fd	0.0020230405
52	0x3d7adcde	0.06124579
53	0x3dd76a5f	0.105183356
54	0xbe008fd6	-0.12554869
55	0xbdbc77dd	-0.092025496
56	0x3daf9b62	0.08574559
57	0x3d6a6161	0.057221774
58	0x3da742fe	0.081670746
59	0xbdb53ae8	-0.08849126
60	0xbe19d863	-0.15023951
61	0xbdfa75f1	-0.12229527
62	0xbd9acca5	-0.07558564
63	0xbd2721c6	-0.040803693
64	0x3baa32eb	0.005194058
65	0xbd0b3757	-0.033988323
66	0x3d06f432	0.032947727
67	0x3d5d9a16	0.054102026
68	0x3dd3d58f	0.103434674
69	0xbbaa50ba	-0.0051976116
70	0x3cfce1aa	0.030869324
71	0x3d4ca9fc	0.049966797
72	0x3d7d977a	0.061912037
73	0x3e2f9221	0.17145588
74	0x3cfd6c4c	0.030935429
75	0x3e1c4a0e	0.15262625
76	0xbe110b7e	-0.1416454
77	0x3d55e49d	0.052219976
78	0xbe5bf54f	-0.21480297
79	0xbdeb6f61	-0.11495853
80	0x3c86c146	0.016449582
81	0xbc3231bc	-0.010876115
82	0xbbf94d08	-0.00760806
83	0x3e490e78	0.19634426
84	0xbe91f094	-0.2850386
85	0x3e8604bd	0.2617549
86	0x3e4d04e3	0.20021395
87	0x3e3356e0	0.17513609
88	0x3dac3eed	0.0841044
89	0xbdb01c9e	-0.08599208
90	0x3e5c301f	0.21502732
91	0x3e62083b	0.22073452
92	0xba042011	-0.00050401787
93	0x3e438d1a	0.19096795
94	0x3d07a0f4	0.03311248
95	0x3deb0267	0.114750676
96	0x3c8d7e58	0.01727216
97	0xbe1151c9	-0.14191355
98	0x3dac2cb7	0.08406966
99	0x3f0ed097	0.5578703
100	0x3f41eab5	0.7574876
101	0xbeedba95	-0.46431413
102	0x3ea00d39	0.31260088
103	0xbedac378	-0.42727256
104	0x3ec4243d	0.38308898
105	0x3ba2a31d	0.0049632923
106	0x3e1e7731	0.15475155
107	0x3e8e0fdf	0.27746484
108	0x3dc15a20	0.09441018
109	0x3e63efd6	0.22259459
110	0xbd9f362e	-0.07774006
111	0x3d12d684	0.03584911
112	0xbc56e257	-0.013115487
113	0x3d0bc24a	0.034120835
114	0xbe0c4a2d	-0.13700171
115	0x3e17bd59	0.14818324
116	0xbde1a0a9	-0.110169716
117	0xbdbb98ae	-0.09159981
118	0xbe1dd0ff	-0.15411757
119	0xbe40385f	-0.18771504
120	0xbdf5b103	-0.11996653
121	0xbbaaa2d7	-0.0052074003
122	0xbd8f84f6	-0.07007782
123	0xbde3651f	-0.11103272
124	0xbe3d6360	-0.1849494
125	0xbd7b7804	-0.061393753
126	0x3e5540bc	0.20825475
127	0xbe1a9f82	-0.1509991
128	0xbdb20236	-0.08691828
129	0xbc8fd7d5	-0.017558971
130	0x3d8cda7b	0.06877609
131	0xbde2cf38	-0.1107468
132	0xbb8679b0	-0.0041038617
133	0xbe5f1aad	-0.2178752
134	0x3cd4301e	0.02590185
135	0xbe460a6e	-0.19339916
136	0xbe264fba	-0.16241351
137	0xbe20d8cc	-0.15707701
138	0xbed1c43a	-0.4097002
139	0xbdccc70f	-0.09998905
140	0x3daff237	0.08591121
141	0xbdbca733	-0.09211578
142	0xbe469b04	-0.19395071
143	0xbdc73b7f	-0.09728145
144	0x3d13aa50	0.036051095
145	0x3d3ab042	0.04557825
146	0x3cffb3b6	0.031213623
147	0xbd9bd9f4	-0.07609931
148	0xbd91bf01	-0.07116509
149	0x3e0166a7	0.12636815
150	0x3d9d3184	0.0767546
151	0xbd67cf56	-0.056594215
152	0x3e4fa0e5	0.2027622
153	0xbb820d49	-0.003968869
154	0x3b3b906e	0.0028620022
155	0xbe2e202a	-0.17004457
156	0xbc7cc14d	-0.015426946
157	0xbd614a30	-0.05500239
158	0x3d86e718	0.065870464
159	0xbdb7052f	-0.089365356
160	0xbe722d0c	-0.23649997
161	0x3d6e3437	0.058155265
162	0xbda5f22f	-0.081028335
163	0x3d816bd4	0.06319395
164	0xbf2fe229	-0.6870447
165	0x3e6e05b7	0.23244368
166	0x3da9528f	0.082677
167	0xbdd253d1	-0.10269893
168	0xbea0cd04	-0.31406415
169	0xbe52166e	-0.20516369
170	0xbe7b6b3d	-0.24552627
171	0x3d8f7861	0.07005382
172	0xbd1a24ab	-0.037632626
173	0x3d9424d1	0.07233585
174	0x3e0207ca	0.12698284
175	0x3dbb5f83	0.09149077
176	0xbd274d98	-0.040845484
177	0xbd9ffa27	-0.07811385
178	0xbe0ba48c	-0.13636988
179	0x3b9756aa	0.0046184855
180	0x3ceca2f8	0.028886303
181	0xbd16a58d	-0.036778975
182	0xbe0869db	-0.1332163
183	0xbdc1ef2e	-0.09469448
184	0xbdec6433	-0.11542549
185	0xbcfc6925	-0.030811856
186	0x3c11b689	0.008893617
187	0xbcba1ae4	-0.0227179
188	0x3dc75def	0.09734713
189	0xbe91211b	-0.2834557
190	0x3ebbcec0	0.36681175
191	0x3d9afce1	0.07567764
192	0xbe230380	-0.15919304
193	0xbd6dc6b0	-0.05805081
194	0xbe4562b3	-0.19275932
195	0x3dc44bfc	0.09584805
196	0x3f0afd10	0.5429239
197	0x3ee53740	0.44768715
198	0xbd9f50a1	-0.077790506
199	0x3d11e299	0.03561649
200	0xbe1c8989	-0.1528684
201	0xbd02431f	-0.031802293
202	0x3c003c6d	0.007826907
203	0xbc9594ac	-0.018259369
204	0xbd34c2c0	-0.04413104
205	0xbc4324ad	-0.0119106
206	0xbd9fc06a	-0.07800372
207	0xbd56b3d8	-0.052417606
208	0xbcbd870d	-0.023135686
209	0x3d84abe8	0.06478101
210	0xbd8b7253	-0.06808915
211	0xbbecc543	-0.007225664
212	0x3cdc1112	0.026863609
213	0xbd0788c9	-0.033089433
214	0xbda52bd5	-0.08065001
215	0xbe037360	-0.12836981
216	0x3e00f05e	0.12591693
217	0x3c0eb0bc	0.008709129
218	0xbcd93df4	-0.0265188
219	0xbe2f31bf	-0.1710882
220	0xbd590f31	-0.052993003
221	0x3db667a2	0.08906485
222	0xbcd3fadc	-0.025876455
223	0xbe08c96a	-0.13358083
224	0xbd52a28c	-0.051424548
225	0x3c0ff5b6	0.008786609
226	0xbe2b964a	-0.1675655
227	0x3db4c45a	0.088265136
228	0xbe8f2830	-0.27960348
229	0xbd23d2e0	-0.039996028
230	0xbe0b0b71	-0.13578583
231	0xbdb790f4	-0.089631945
232	0xbda1cc2b	-0.0790027
233	0xbd8c519e	-0.06851505
234	0xbdb23ad4	-0.08702627
235	0x3d768507	0.06018546
236	0xbdf329cf	-0.11873209
237	0xbd5f5b42	-0.05453039
238	0x3bfdb020	0.007741943
239	0xbe4b67fc	-0.19863886
240	0xbd99c40c	-0.07508096
241	0xbdc38148	-0.09546143
242	0xbdb1d0a1	-0.08682371
243	0xbd26a930	-0.040688694
244	0xbbfd75b4	-0.0077349786
245	0x3b4e0ac8	0.0031439532
246	0xbe076823	-0.13223319
247	0xbdc65f2a	-0.0968612
248	0xbd7c689a	-0.061623193
249	0xbd38f759	-0.045157764
250	0xbd0af62c	-0.033926174
251	0xbddb7efb	-0.10717579
252	0x3ca0b91e	0.01961952
253	0xbdcfbb38	-0.10143131
254	0xbbaa9e40	-0.005206853
255	0xbcadf2e4	-0.021233983

conv2.bias f4 [64]
0	0x3ba4094b	0.0050059906
1	0xbdf30f60	-0.11868167
2	0xbd95a9b2	-0.073077574
3	0xbdd261a8	-0.10272533
4	0xbeb8380b	-0.35980257
5	0xbe0cadd5	-0.13738187
6	0xbde5732c	-0.11203608
7	0xbce01c63	-0.027357286
8	0x3db67eee	0.08910929
9	0xbe00767e	-0.12545201
10	0xbc55e8bc	-0.0130559765
11	0xbdae1482	-0.08500005
12	0x3dcefd97	0.10106962
13	0xbe13b925	-0.14426096
14	0xbea78819	-0.32721022
15	0xbdd7ae1d	-0.10531256
16	0xbe86f573	-0.26359138
17	0xbdc29332	-0.095007315
18	0xbd206d06	-0.039166473
19	0xbde12b27	-0.10994559
20	0xbcea8760	-0.028629005
21	0xbe3241af	-0.17407869
22	0x3d6adfb6	0.057342254
23	0xbe38d9e8	-0.18051875
24	0x3e0ee51d	0.13954587
25	0xbef1e62d	-0.47245923
26	0xbe4ad0de	-0.19806239
27	0xbcb5653f	-0.022143004
28	0xbe524d05	-0.20537193
29	0xbe134b97	-0.14384304
30	0xbd2fc1e8	-0.042909533
31	0xbdc49afd	-0.09599874
32	0x3e837cf7	0.25681278
33	0xbeb79c43	-0.35861406
34	0xbbe79105	-0.007066848
35	0xbd4a13cd	-0.04933529
36	0xbb9d20ba	-0.004795161
37	0xbc84e752	-0.016223583
38	0x3d4b3aa5	0.049616475
39	0xbe17bdfc	-0.14818567
40	0xbe029da9	-0.12755455
41	0x3c68347c	0.0141726695
42	0xbdd9e69c	-0.106396884
43	0xbe0f4469	-0.1399094
44	0xbd340ca1	-0.043957356
45	0x3d06b47a	0.03288696
46	0xbdb9c534	-0.09070817
47	0xbe96034a	-0.29299384
48	0xbe50349a	-0.20332566
49	0xbe6be32d	-0.2303588
50	0xbc310fad	-0.01080696
51	0xbe444572	-0.19167116
52	0xbdcb2b6d	-0.09920392
53	0x3c31815b	0.010834063
54	0xbe6c8622	-0.23098043
55	0x3c9895cd	0.018626118
56	0x3e0b9360	0.13630438
57	0xbc7f386a	-0.015577415
58	0xbcabdff1	-0.020980807
59	0x3cb3d1bf	0.0219506
60	0xbd7556a0	-0.059897065
61	0x3d46147a	0.04835937
62	0xbd2e6f88	-0.042586833
63	0xbed69d98	-0.4191711

conv3.weight f4 [128, 64, 3, 3]
0	0xbda8d6e9	-0.08244116
1	0x3bf9c9b9	0.007622924
2	0x3dba4084	0.09094337
3	0xbc6f9502	-0.014622929
4	0xbd82416a	-0.06360133
5	0xbdebf4d2	-0.11521305
6	0xbde5bd15	-0.11217705
7	0xba8298b9	-0.0009963728
8	0xbcb43b3a	-0.022000898
9	0xbd1f5fd3	-0.038909744
10	0xbde3efa8	-0.11129695
11	0xbbc8a8bb	-0.00612363
12	0xbcb20b9e	-0.021734055
13	0xbe1471d3	-0.14496545
14	0xbcd06f9b	-0.025443843
15	0x3d847ea0	0.06469464
16	0x3dacb933	0.084337614
17	0x3d6e0dfe	0.058118813
18	0xbda184fb	-0.07886692
19	0xbd85e73d	-0.06538246
20	0xbd090952	-0.033456154
21	0x3bd01e9b	0.0063513047
22	0x3ba9780c	0.0051717814
23	0xbd74e578	-0.05978915
24	0x3d9fe98a	0.07808216
25	0x3be01536	0.006838466
26	0x3babcc66	0.005242872
27	0x3d351453	0.044208836
28	0x3ca633f6	0.020288449
29	0xbdddda77	-0.108326845
30	0x3e2e5af4	0.17026883
31	0x3d24cdc7	0.040235307
32	0xbce4f578	-0.02794908
33	0x3d19931d	0.037493814
34	0x3d822dbf	0.063563816
35	0x3ddf2650	0.108959794
36	0xbd0e50d6	-0.03474506
37	0xbc8296f4	-0.01594112
38	0xbce2f623	-0.027705258
39	0xbcd58e39	-0.026068794
40	0x3d9c3a62	0.07628323
41	0x3d848182	0.06470014
42	0xbda86846	-0.082230136
43	0x3e1410c4	0.1445952
44	0x3e22d873	0.15902881
45	0xbd4d8c74	-0.050182775
46	0xbd898aee	-0.06715952
47	0xbd46ecb6	-0.04856559
48	0x3d34e495	0.044163305
49	0x3e227603	0.1586533
50	0xbd9e7a86	-0.07738213
51	0xbcf9f7b1	-0.030513616
52	0xbc15531e	-0.009114055
53	0xbcee315b	-0.029076269
54	0x3dacae03	0.084316276
55	0xba91aa85	-0.0011113441
56	0xbcd0b296	-0.025475781
57	0x3d48e9b1	0.04905099
58	0xbd1edd92	-0.038785525
59	0xbd84da8c	-0.06486997
60	0x3d690f09	0.056899104
61	0xbd762778	-0.060096234
62	0x3db11fee	0.08648668
63	0xbb651125	-0.0034952846
64	0xbc73ca9a	-0.014879847
65	0xbd21dde1	-0.03951824
66	0x3e1b443b	0.15162747
67	0x3cdb349a	0.02675848
68	0x3d3016c8	0.042990476
69	0xbd131de3	-0.035917174
70	0xbd9ef8c6	-0.077622935
71	0xbd86011d	-0.06543181
72	0x3c8b4de6	0.017004918
73	0x3d4891ed	0.04896729
74	0xba0727d3	-0.00051557756
75	0x3ceddcc6	0.029035937
76	0xbcc95e41	-0.024581077
77	0x3d33c5a8	0.04388967
78	0xbb169f3f	-0.0022983102
79	0x3c8bba55	0.017056623
80	0xbcf25b75	-0.029584626
81	0xbd0f850b	-0.03503899
82	0x3bc25563	0.005930589
83	0xbb58d403	-0.0033085353
84	0x3d198419	0.037479494
85	0x3d915447	0.07096153
86	0x3d271016	0.040786825
87	0x3da0735d	0.07834504
88	0xbc29b8ce	-0.010359002
89	0xbd16f421	-0.036853913
90	0xbd6109ef	-0.054941114
91	0x3d10ca92	0.035349436
92	0x3d5f0a81	0.054453377
93	0xbce76a0b	-0.028248807
94	0x3c13dbd9	0.009024584
95	0x3c54589b	0.012960578
96	0xbc0eb723	-0.008710655
97	0x3ca3e5fa	0.020007122
98	0xbd42a37c	-0.047519192
99	0xbdad2989	-0.08455188
100	0x3c6d731b	0.014492775
101	0xbd5dd86e	-0.05416148
102	0xbcdf4de8	-0.027258828
103	0xbd9b57d6	-0.07585113
104	0xbceb74cb	-0.028742215
105	0xbcc5aa2e	-0.024129
106	0xbd800295	-0.062504925
107	0xbd83e321	-0.06439806
108	0x3d739eb5	0.059477527
109	0xbd763cec	-0.060116693
110	0x3bfbb7de	0.007681831
111	0x3cb47e80	0.022032976
112	0x3e005dba	0.12535754
113	0xbd91f2c6	-0.071263835
114	0xbc378180	-0.011200309
115	0x3e6172dd	0.22016473
116	0x3cefca5d	0.029271299
117	0x3e20c863	0.15701441
118	0x3da7d447	0.081947856
119	0x3e2f6083	0.1712666
120	0x3c2098a2	0.0098020155
121	0x3e07cbb7	0.13261305
122	0x3df815bb	0.1211352
123	0x3e0f4561	0.1399131
124	0x3de84cce	0.11342774
125	0x3ded93d7	0.11600464
126	0xbb81a65f	-0.0039566006
127	0xbddd3092	-0.1080028
128	0x3e0b03a2	0.13575605
129	0x3c815a4d	0.01579013
130	0xbdba181f	-0.09086632
131	0xbd521309	-0.051287685
132	0xbd829d17	-0.06377619
133	0xbd95b58e	-0.073100194
134	0xbb470bdb	-0.0030372057
135	0xbdca59c6	-0.09880404
136	0xbe016c2e	-0.12638924
137	0xbd4d35a5	-0.050099988
138	0x3d19db94	0.03756292
139	0x3cac7305	0.02105094
140	0x3d811a50	0.06303847
141	0x3c8d1be6	0.017225217
142	0xbd09d2a5	-0.033648152
143	0xbd7e38e7	-0.062065985
144	0xbe0073ef	-0.12544225
145	0xbe0e3d70	-0.13890624
146	0x3d540b11	0.051768366
147	0x3b42e133	0.002973628
148	0x3c8f0403	0.017457968
149	0xbc612ca0	-0.01374355
150	0xbcdbd0e8	-0.026833013
151	0x3d12cd07	0.03584006
152	0x3d4840c2	0.048889883
153	0x3d71106b	0.058853548
154	0xbcd65fae	-0.02616867
155	0x3d9f90fb	0.07791325
156	0x3c8b5359	0.017007517
157	0xbcbf39da	-0.023343015
158	0xbca86f0a	-0.02056076
159	0x3cf530f3	0.029930567
160	0xbbdc783a	-0.0067281993
161	0x3d866b10	0.06563389
162	0x3b53cc18	0.0032317694
163	0xbdf44ba4	-0.1192849
164	0xbd9aca16	-0.07558076
165	0x3c669b04	0.014075045
166	0x3dab0053	0.08349671
167	0xbc9b8c83	-0.0189879
168	0x3d9cb37d	0.07651422
169	0x3deaf578	0.11472601
170	0x3aed3444	0.0018097241
171	0xbe7338bb	-0.2375211
172	0xbe84f72a	-0.2596982
173	0xbe64d54f	-0.22346996
174	0xbd937940	-0.07200861
175	0xbc83ca72	-0.016087744
176	0x3ec21a60	0.37910748
177	0xbe3ba663	-0.1832519
178	0xbe62bb6c	-0.22141808
179	0xbe92e819	-0.286927
180	0x3da3407f	0.07971286
181	0x3a6425ec	0.00087031606
182	0x3c096b82	0.008387448
183	0xbc451608	-0.012029178
184	0x3c6edcd9	0.014579021
185	0xbce81902	-0.028332237
186	0xbcb3b9e3	-0.021939224
187	0xbd922398	-0.07135695
188	0xbda1eadf	-0.07906126
189	0x3e28aa42	0.16471198
190	0xbd2cd226	-0.0421926
191	0xbe08fbed	-0.13377352
192	0xbb5ef826	-0.003402242
193	0x3a27239b	0.000637585
194	0xbd13f31d	-0.036120523
195	0x3e124177	0.14282785
196	0x3d55f23c	0.052232966
197	0x3c083610	0.008313671
198	0x3c984068	0.018585399
199	0x3d8ac08e	0.06775008
200	0xbc72f1e2	-0.014828177
201	0x3d213e00	0.03936577
202	0x3c5163ad	0.012780112
203	0xbd449cfd	-0.04800128
204	0x3d7c4c73	0.061596345
205	0xbd80ea16	-0.06294648
206	0x3cff4203	0.031159407
207	0xbd56dce9	-0.05245677
208	0xbcd33605	-0.025782594
209	0x3b975df6	0.0046193553
210	0x3ce82dc9	0.028342145
211	0x3d43aa14	0.04776962
212	0x3e9ef289	0.31044415
213	0x3d81ec04	0.063438445
214	0xbd17c150	-0.03704959
215	0x3d2f84a7	0.042851117
216	0xbc9f28e5	-0.01942868
217	0xb966d41d	-0.00022013528
218	0xbdad3fdd	-0.084594466
219	0x3d7b3039	0.061325286
220	0xbd0e1f71	-0.034697954
221	0xbdb6a8d8	-0.08918923
222	0x3dabaa7d	0.083821274
223	0xbd8ffd9b	-0.07030793
224	0xbd203d34	-0.039120868
225	0xbd9a4c1f	-0.0753405
226	0xbcbf224b	-0.023331782
227	0xbd538dbe	-0.051648848
228	0x3cf84bd1	0.03030959
229	0x3d10ac64	0.035320655
230	0x3e082ec7	0.13299094
231	0xbdceb53c	-0.100931615
232	0xbe0d3604	-0.13790137
233	0xbe08be93	-0.13353948
234	0x3d83a6d9	0.06428308
235	0x3d6c2ff8	0.057662934
236	0x3dd3917a	0.10330482
237	0x3d9f811d	0.07788298
238	0x3cc58617	0.02411179
239	0x3cafef71	0.02147648
240	0x3e1131b0	0.1417911
241	0x3bfc14f5	0.007692928
242	0x3e035183	0.12824063
243	0xbd90866a	-0.070568874
244	0xbd0f4a7f	-0.034983154
245	0x3d1c3653	0.038137745
246	0xbcc06626	-0.023486208
247	0xbb860e49	-0.0040910584
248	0xbdb0de1e	-0.086361155
249	0xbd61acab	-0.05509631
250	0xbd45f43a	-0.048328616
251	0xbd2a73d8	-0.041614383
252	0x3db2e849	0.08735711
253	0x3d8eb0fb	0.0696735
254	0x3d50a383	0.050937187
255	0x3bd126ec	0.0063828137

conv3.bias f4 [128]
0	0xbc1a5ad7	-0.009421072
1	0xbcd3488c	-0.025791429
2	0xbcbcfbd6	-0.023069303
3	0x3c29e0bd	0.010368523
4	0xbebcadb9	-0.3685129
5	0x3d1432e3	0.03618134
6	0xbe93f25a	-0.28895837
7	0xbca3e80d	-0.020008111
8	0xbdb386d8	-0.08765954
9	0xbd120b16	-0.035655104
10	0x3c6d0ffa	0.014469141
11	0xbe899c21	-0.2687693
12	0xbda62cd0	-0.08114016
13	0xbd429d2b	-0.04751317
14	0xbd800d0b	-0.06252488
15	0x3b0063b5	0.001959068
16	0x3e310a35	0.1728905
17	0x3bd626ba	0.0065353783
18	0xbe047b46	-0.1293765
19	0xbda2cf6c	-0.07949719
20	0xbc379bc4	-0.011206571
21	0xbd904111	-0.070436604
22	0x3bf6e7ae	0.0075349426
23	0xbe68ba7e	-0.22727391
24	0xbdc776c3	-0.09739449
25	0xbec7e136	-0.3903901
26	0xbe20df88	-0.1571027
27	0xbde853b7	-0.11344092
28	0x3d6160ea	0.055024065
29	0xbd2c41e7	-0.042055037
30	0x3c38f7f3	0.011289584
31	0xbdaeb644	-0.08530858
32	0xbcb01af8	-0.021497235
33	0xbe89e1ca	-0.26930076
34	0xbd90fbb6	-0.0707926
35	0x3d90f25d	0.07077477
36	0xbd9c2526	-0.07624273
37	0xbdd1c40a	-0.102424696
38	0xbdc48140	-0.09594965
39	0x3e03b129	0.1286055
40	0xbd62a697	-0.055334654
41	0xbd8beae5	-0.06831912
42	0x3e510f82	0.20416072
43	0x3c2ca08c	0.010536324
44	0xbdc9cb17	-0.098531894
45	0xbdad40f6	-0.08459656
46	0xbd36aa60	-0.044596076
47	0xbc3ca973	-0.011515009
48	0xbd8d3651	-0.06895126
49	0x3d87c5ff	0.06629562
50	0x3e712d10	0.23552346
51	0x3cbf28ea	0.023334939
52	0x3db34116	0.087526485
53	0xbd58141e	-0.05275356
54	0xbdf39681	-0.11893941
55	0x3d30fe81	0.043211464
56	0x3d0597a5	0.032615323
57	0xbd963730	-0.07334745
58	0xbd880728	-0.0664199
59	0xbe875458	-0.26431537
60	0xbe09e25d	-0.13465257
61	0xbdf3956e	-0.11893736
62	0x3d455755	0.04817899
63	0xbb0aed87	-0.0021198706
64	0xbba3ab19	-0.0049947617
65	0xbb5770f4	-0.0032873722
66	0xbcdeb907	-0.027187837
67	0xbe272f9d	-0.16326757
68	0x3d305295	0.043047506
69	0xbde40def	-0.1113547
70	0x3c85bc93	0.01632527
71	0xbd3c2e1e	-0.04594242
72	0xbc290946	-0.010317152
73	0xbd4afb7f	-0.04955625
74	0xbe0b5bb5	-0.13609202
75	0xbb104a26	-0.0022016852
76	0xbca613a1	-0.020273032
77	0xbd9cbe58	-0.07653493
78	0xbc077371	-0.0082672695
79	0xbc89d321	-0.016824307
80	0xbda1af3d	-0.07894752
81	0x3d9f35fb	0.07773968
82	0x3e5df934	0.21677095
83	0xbb942b40	-0.0045217574
84	0xbdd594df	-0.104287855
85	0xbd8eb8e7	-0.06968861
86	0xbe2dd767	-0.169767
87	0xbe420a60	-0.1894927
88	0xbe08160b	-0.13289659
89	0x3dd43672	0.10361947
90	0xbd6727ea	-0.05643455
91	0xbcdf380c	-0.027248405
92	0xbe04963e	-0.12947938
93	0xbd954fa4	-0.07290581
94	0x3e99a115	0.30005708
95	0xbd065adb	-0.03280149
96	0x3e307824	0.1723333
97	0x3d9beeb4	0.076138884
98	0xbdfe3cb7	-0.12413924
99	0xbe0ff1cc	-0.14057082
100	0x3d00d6d8	0.03145489
101	0xbd810011	-0.06298841
102	0xbda6bbb0	-0.08141267
103	0x3b375129	0.002797196
104	0xbcfd76af	-0.030940382
105	0xbdad953b	-0.08475729
106	0xbd14cd63	-0.036328685
107	0x3bb95290	0.005655594
108	0x3dc120e4	0.094301015
109	0xbe29e95f	-0.1659293
110	0xbcabf30e	-0.020989921
111	0xbd6a9508	-0.057271034
112	0xbd305ff5	-0.04306026
113	0xbdd1cd5b	-0.102442466
114	0x3cde7126	0.027153563
115	0xbd962e62	-0.073330656
116	0xbe83f6b7	-0.25774166
117	0x3d412b78	0.047160596
118	0x3dbf72c7	0.09348064
119	0x3e1fa0d5	0.15588696
120	0xbd754b0f	-0.059886035
121	0xbc534680	-0.0128952265
122	0xbd6ba435	-0.057529647
123	0xbdd7a865	-0.105301656
124	0xbe1259b3	-0.1429203
125	0xbca129ea	-0.019673306
126	0x3ce5652c	0.028002344
127	0xbda9a5f6	-0.08283608

p_conv1.weight f4 [4, 128, 1, 1]
0	0x3d218f51	0.039443318
1	0x3d8830a4	0.066499025
2	0x3c3fb647	0.011701173
3	0x3c810f2a	0.015754301
4	0xbd89033e	-0.066900715
5	0x3e48f968	0.19626391
6	0x3d0492fd	0.03236674
7	0x3d7447c2	0.059638746
8	0x3ba49809	0.005023007
9	0xbc2ff8f4	-0.010740507
10	0x3d6f43e3	0.05841435
11	0xbd816a4e	-0.06319104
12	0x3e888bad	0.26669064
13	0x3f031179	0.51198536
14	0x3d286d2e	0.041119747
15	0xbd9b225b	-0.07574912
16	0xbd3ab968	-0.045586973
17	0x3d97c12d	0.07409892
18	0xbdc623db	-0.09674808
19	0xbcb4fcbe	-0.022093173
20	0x3e2951de	0.16535136
21	0x3e40de4f	0.18834804
22	0xbcf6ae54	-0.030112423
23	0x3902792b	0.00012442905
24	0x3ec40761	0.3828688
25	0x3c149fb7	0.009071282
26	0x3dae3c83	0.085076354
27	0x3e0d3ba8	0.13792288
28	0xbbff616f	-0.0077935974
29	0xbd0b09dd	-0.033944953
30	0x3d8c2f03	0.06844904
31	0xbc85d8b0	-0.016338676
32	0x3ba17140	0.0049268305
33	0x3e2c0dbd	0.16802116
34	0xbc9d8ca8	-0.01923211
35	0xbc5930a4	-0.013256226
36	0x3cf40a0f	0.029789953
37	0xbc907ab5	-0.017636636
38	0x3dbc82ee	0.0920466
39	0x3cb27b5f	0.021787344
40	0x3c04bfe3	0.00810239
41	0xbe6b0ec0	-0.22954845
42	0xbbaf6510	-0.0053526238
43	0xbd2536b4	-0.040335372
44	0x3c95f229	0.018303948
45	0x3ea7ec99	0.32797697
46	0xbd372b63	-0.04471911
47	0x3aa69ad7	0.0012710941
48	0x3cf3b2a2	0.029748265
49	0x3e37b514	0.1794017
50	0x3ce47789	0.02788903
51	0xbc67e8e4	-0.014154647
52	0xbcfa99ee	-0.030590978
53	0x3ca5f766	0.02025957
54	0xbc3c39f9	-0.011488431
55	0xbbff0d59	-0.0077835736
56	0xbd6839d4	-0.056695774
57	0x3de0b560	0.109720945
58	0x3bfdeed2	0.007749417
59	0xbd5cd677	-0.053915467
60	0xbd94bedd	-0.07262967
61	0x3cdc8cc7	0.026922597
62	0xbd1d0ebf	-0.03834414
63	0x3cf50578	0.029909834
64	0x3cb507ac	0.022098385
65	0x3d63a129	0.055573616
66	0x3d59ec5b	0.05320392
67	0x3d120f27	0.03565898
68	0x3c151552	0.009099321
69	0xbc498c1c	-0.012301471
70	0xbc7b9dab	-0.015357415
71	0xbc7e13b4	-0.015507627
72	0x3dfadf97	0.12249678
73	0xbdf8f43e	-0.121559605
74	0x3d707c28	0.058712155
75	0x3cbd5a04	0.023114212
76	0xbca48c4d	-0.020086432
77	0x3e2c6053	0.1683362
78	0xbd20d205	-0.03926279
79	0x3d28a819	0.041175935
80	0x3bbcb78e	0.005759186
81	0x3d82713e	0.063692555
82	0xbccf3429	-0.025293427
83	0xbd1f81b2	-0.038942046
84	0xbd6376f5	-0.05553337
85	0x3d012d05	0.031537075
86	0xbbf62de9	-0.007512797
87	0x3d44925b	0.047991138
88	0x3ca46b4d	0.020070696
89	0x3c9b90e7	0.018989993
90	0xbcc37363	-0.023858732
91	0x3bf92429	0.0076031876
92	0x3c1d28b4	0.009592224
93	0x3c0883ed	0.008332235
94	0x3d5ac795	0.053412993
95	0x3d1707f6	0.036872827
96	0xbe4e39fa	-0.20139304
97	0xbc13323d	-0.008984146
98	0xbc85ed91	-0.016348632
99	0xbbd25e0f	-0.006419904
100	0x3c93e9ab	0.018055758
101	0xbc9ac5b1	-0.018893095
102	0x3d2cacf6	0.042157136
103	0x3b1e942b	0.0024197202
104	0x3c5955aa	0.013265053
105	0xbd0bd374	-0.034137204
106	0xbb7d8135	-0.003868175
107	0x3abae6e8	0.0014259489
108	0xbad35a03	-0.0016124848
109	0xbdb23ce8	-0.08703023
110	0xbc0d9879	-0.008642309
111	0x3ec3c8ad	0.3823904
112	0x3d4cfb42	0.050044306
113	0xbe403b84	-0.18772703
114	0x3d305c8d	0.043057013
115	0xbe0e35d9	-0.13887729
116	0x3cce28f7	0.025166018
117	0x3cc993c4	0.024606593
118	0xbce5ef6a	-0.028068263
119	0xbd30efd5	-0.04319747
120	0x3cfcf8a6	0.030880284
121	0xbd9153e1	-0.07096077
122	0x3d896aac	0.06709799
123	0xbc210fea	-0.009830454
124	0xbd2306ad	-0.03980129
125	0xbcabee38	-0.020987615
126	0xbdd3e9bb	-0.10347315
127	0x3c6a3f4b	0.014297317
128	0x3be1ea4a	0.0068943845
129	0xbad2cbbe	-0.0016082448
130	0x3d33b90d	0.04387765
131	0xbc844f25	-0.01615102
132	0x3d2410fc	0.04005526
133	0xbdda3b9e	-0.10655902
134	0x3c88cd2e	0.0166994
135	0x3d46af50	0.048507035
136	0x3e8833bc	0.2660197
137	0x3dac1ecc	0.084043115
138	0x3d0cba97	0.034357633
139	0x3d67a2fd	0.056551922
140	0x3ecb0eba	0.39659673
141	0xbe2bd91a	-0.16782036
142	0xbedb36d0	-0.42815256
143	0xbde28758	-0.11060971
144	0xbb85c6e4	-0.0040825475
145	0x3cfb7632	0.030696008
146	0xbe9371e7	-0.28797838
147	0x3d264af1	0.040598813
148	0xbd49574d	-0.049155522
149	0x3de6f881	0.11277867
150	0xbd144410	-0.036197722
151	0xbbb79ad4	-0.0056031737
152	0xbdf9c248	-0.12195259
153	0xbc06674d	-0.00820334
154	0x3ea2db07	0.3180773
155	0x3e4721ae	0.19446442
156	0x3d696b3b	0.05698703
157	0xbd7953fb	-0.060871106
158	0x3d6af48c	0.057362124
159	0x3d81115a	0.06302138
160	0xbc7ad90c	-0.015310537
161	0xbd8a566d	-0.06754766
162	0xbec3e2c8	-0.38258958
163	0x3d174e2a	0.036939777
164	0xbd341a48	-0.043970376
165	0xbc003062	-0.007824035
166	0x3dbb591f	0.09147858
167	0xba1c0377	-0.0005951444
168	0x3e0f38af	0.13986467
169	0xbb92c4b4	-0.0044790152
170	0x3d9e3507	0.07724958
171	0x3e13cf91	0.14434649
172	0x3b15ae2c	0.002283941
173	0x3c487b76	0.012236467
174	0xbd2c4cce	-0.042065434
175	0x3e8e0db4	0.2774483
176	0xbd3d0ef6	-0.046156846
177	0x3caa9db9	0.020827161
178	0xbdcc8057	-0.099854164
179	0xbc558b74	-0.0130337365
180	0xbcf01aef	-0.029309718
181	0xbd9a1b68	-0.075247586
182	0xbbce2fb7	-0.006292309
183	0x3e7ccb67	0.24686967
184	0xbcc94501	-0.024569036
185	0x3e57d693	0.21077947
186	0xbbef68e6	-0.007306206
187	0x3bcdc367	0.0062793973
188	0xbd0c0380	-0.034183025
189	0xbdaeefee	-0.08541857
190	0x3d25bd71	0.04046387
191	0xbde09e42	-0.10967685
192	0x3ae318bc	0.0017326097
193	0x3cb1cb40	0.021703362
194	0x3b05349c	0.0020325547
195	0xbcff8375	-0.031190613
196	0xbc1ee9ed	-0.009699327
197	0xbcfdc131	-0.03097591
198	0xbc63aa3f	-0.01389557
199	0xbd2be69e	-0.04196798
200	0x3cf121d3	0.029435074
201	0xbd985c57	-0.074394874
202	0x3d3ccfb4	0.04609652
203	0xbb898e0d	-0.004197842
204	0xbd77a86a	-0.060463347
205	0xbdf880b5	-0.12133924
206	0xbeab186a	-0.33417064
207	0xbc7b5101	-0.015339137
208	0x3c4c676c	0.01247583
209	0xbc697806	-0.014249807
210	0x3d615d8b	0.05502085
211	0xbd15f790	-0.036613047
212	0x3ea62392	0.32449013
213	0xbc766a7e	-0.015040038
214	0xbbb8aada	-0.0056356015
215	0xbcbeae03	-0.023276335
216	0xbcccc814	-0.024997748
217	0x3d33eb38	0.043925494
218	0xbd366542	-0.04453016
219	0x3e271cad	0.16319533
220	0xbca52cbe	-0.020162936
221	0xbd3de44e	-0.046360306
222	0x3dd3e53e	0.10346459
223	0xbd195e56	-0.03744348
224	0x3d515b93	0.051112723
225	0xbcb08d04	-0.021551616
226	0xbc1aa341	-0.009438337
227	0xbe5d0f07	-0.21587764
228	0x3bf64ab2	0.0075162286
229	0xbcfa9201	-0.030587198
230	0x3e590613	0.21193723
231	0x3c4b54e1	0.012410373
232	0xbab78709	-0.0014002036
233	0x3ca38ede	0.019965585
234	0xbbeadb1d	-0.0071672336
235	0x3d23b790	0.03996998
236	0x3c9ce78e	0.019153383
237	0xbca37712	-0.019954238
238	0x3f19d610	0.6009226
239	0xbd9d62f3	-0.07684889
240	0xbd28162c	-0.04103677
241	0xbdd75079	-0.10513396
242	0xbe98af0d	-0.29821053
243	0x3d5dcfe1	0.054153327
244	0x3e4de4b4	0.20106775
245	0xbd5473a5	-0.0518681
246	0xbd4a4b0a	-0.04938797
247	0xbd4fd4d0	-0.050740063
248	0xbe259f23	-0.16173987
249	0x3d86c08d	0.06579695
250	0xbc143d39	-0.0090478
251	0x3e06e796	0.1317428
252	0x3be3d1d9	0.006952506
253	0x3b74564a	0.0037282878
254	0xbe1d8dbc	-0.15386099
255	0xbea7b212	-0.32753044

p_conv1.bias f4 [4]
0	0xbd9bd8f5	-0.07609741
1	0x3ded3421	0.115822084
2	0x3f5fd5b6	0.8743547
3	0xbd260a07	-0.040536907

p_fc1.weight f4 [64, 256]
0	0x3d336c9d	0.043804754
1	0x3c0f9cd7	0.008765421
2	0xbd4989af	-0.04920357
3	0xbc7c0ecf	-0.01538439
4	0x3ce60191	0.028076919
5	0x3c25fb6f	0.010130747
6	0x3b741f2c	0.0037250025
7	0x3d242ab8	0.040079802
8	0x3d01ed8d	0.031720687
9	0xbd79f02b	-0.061020058
10	0xbbcceccf	-0.0062538157
11	0x3c813ab4	0.015775062
12	0x3d04b926	0.032403134
13	0xbd7abe0f	-0.06121641
14	0xbcf176f7	-0.029475672
15	0xbd809a69	-0.062794514
16	0x3da434fa	0.08017917
17	0xbdddc37f	-0.108283035
18	0xbcd8ee19	-0.026480721
19	0xbda790a0	-0.08181882
20	0xbce002d5	-0.0273451
21	0xbc55a2d0	-0.013039306
22	0xbdc2daa2	-0.09514357
23	0xbc2919f4	-0.010321129
24	0x3d81601b	0.06317159
25	0xbd3eb3f3	-0.04655833
26	0xbd0b1f5c	-0.033965454
27	0x3c99998d	0.018749977
28	0x3ce8e4b7	0.028429372
29	0xbd91b088	-0.07113749
30	0x3d2acec3	0.04170109
31	0x3d89c005	0.06726078
32	0x3e335ae7	0.17515145
33	0xbd5abb65	-0.05340137
34	0x3c951dad	0.018202627
35	0xbd1f2428	-0.03885284
36	0xbaaad38a	-0.0013033014
37	0xbd9f35ac	-0.07773909
38	0xbc829f9f	-0.015945254
39	0x3c8db00d	0.017295862
40	0x3e8d5150	0.276011
41	0xbc01ae82	-0.007915141
42	0xbd2d6e15	-0.04234131
43	0xbc8bb8d9	-0.017055916
44	0xbcf7d3b1	-0.03025231
45	0xbd81aac8	-0.06331402
46	0xbcfa99b2	-0.030590866
47	0x3c2573dc	0.010098424
48	0x3e553d47	0.20824157
49	0x3d2d0c28	0.04224792
50	0x3b589c6d	0.0033052221
51	0xbc8af94c	-0.016964577
52	0xbd926465	-0.07148055
53	0xbd36ad9b	-0.044599157
54	0xbd197b92	-0.03747136
55	0x3bc1c035	0.0059128054
56	0xbfcbee62	-1.5932124
57	0x3e415513	0.1888011
58	0x3d8cfd14	0.06884208
59	0x3d48ade0	0.048993945
60	0xbc9faac9	-0.019490616
61	0xbd011f1b	-0.031523805
62	0xbc471f31	-0.012153433
63	0xbc4d746c	-0.012539964
64	0x3ca6f43e	0.020380136
65	0x3c0a1f6a	0.008430341
66	0x3d04c322	0.032412656
67	0xbd3a3b63	-0.04546679
68	0x3c59789c	0.013273384
69	0xbc853999	-0.016262816
70	0xbd0867fe	-0.0333023
71	0x3d1d9903	0.038476
72	0xbc1db815	-0.009626408
73	0xbd0ba168	-0.034089476
74	0xbcea1515	-0.028574506
75	0x3cfda316	0.030961554
76	0xbd319161	-0.043351535
77	0xbda466b8	-0.080274045
78	0xbd30c140	-0.043153048
79	0x3c0c98ca	0.00858135
80	0xbd20fac6	-0.039301656
81	0xbd506263	-0.05087508
82	0xbcacfa22	-0.021115366
83	0xbd034aa9	-0.032053623
84	0xbd81b7b5	-0.063338675
85	0xbd70223a	-0.05862639
86	0xbc2af705	-0.010434871
87	0xbc64e49e	-0.013970522
88	0xbd738d88	-0.059461147
89	0xbb1e7ddc	-0.0024183905
90	0xbce7a2e7	-0.02827592
91	0xbc86a1e8	-0.016434625
92	0xbd0f655f	-0.035008784
93	0xbb186523	-0.0023253642
94	0xbd225a82	-0.039637096
95	0x3af2dd57	0.0018529099
96	0x3af45da2	0.0018643627
97	0xbcf6e431	-0.030138107
98	0x3e0bd261	0.13654472
99	0xbd9002fe	-0.07031821
100	0xbce9f957	-0.028561277
101	0xbd21c252	-0.03949196
102	0x3c920a09	0.01782705
103	0x3d43acec	0.047772333
104	0x3d54b5ac	0.05193107
105	0x3e10d4a7	0.1414362
106	0xbd425b2b	-0.047450226
107	0x3d2281c8	0.03967455
108	0xbd28f416	-0.041248403
109	0xbb64fcae	-0.0034940648
110	0xbc93f71b	-0.018062165
111	0xbcf31c8a	-0.029676694
112	0x3e92b50a	0.28653747
113	0xbde8fef2	-0.11376752
114	0xbd144f2b	-0.036208313
115	0xbd506351	-0.050875966
116	0xbce12dfa	-0.027487744
117	0xbc27ba58	-0.010237299
118	0xbb58f89c	-0.0033107167
119	0xbd0bece1	-0.034161452
120	0x3edaccc8	0.4273436
121	0x3e0da7ac	0.13833493
122	0x3d5b98f5	0.053612668
123	0x3c0c0968	0.0085471645
124	0x3d9e2118	0.07721156
125	0xbcc74a45	-0.024327407
126	0xbc07855f	-0.008271544
127	0xbd0443a0	-0.032291055
128	0xbdccd8c3	-0.100022815
129	0xbd96bcb3	-0.0736021
130	0xbdc94679	-0.09827895
131	0xbd272c4f	-0.04081374
132	0xbda9d0e7	-0.08291798
133	0xbd2cc717	-0.042182054
134	0xbd34181a	-0.043968298
135	0xbdd3f246	-0.10348944
136	0xbcc3599b	-0.023846438
137	0xbd27b622	-0.04094518
138	0x3caeeb0d	0.021352315
139	0xbd3f1d04	-0.04665853
140	0xbc06a57a	-0.008218164
141	0xba544534	-0.000809747
142	0x3df747ff	0.12074279
143	0xbdff8f64	-0.124785215
144	0xbc9925b5	-0.018694738
145	0xbd94685a	-0.07246466
146	0xbd312c54	-0.043255165
147	0xbd8b789a	-0.06810112
148	0x3dbcd543	0.09220364
149	0x3c90ccb2	0.017675731
150	0x3d01ca0c	0.031686828
151	0xbcf7d1ca	-0.030251402
152	0xbd77207e	-0.06033372
153	0xbe5916be	-0.21200082
154	0x3b1f9a45	0.0024353426
155	0x3d06cb4b	0.03290872
156	0x3d6cb2ec	0.05778782
157	0x3b177722	0.002311178
158	0x3b8877df	0.0041646804
159	0x3c43ba0d	0.011946213
160	0xbda37066	-0.07980423
161	0xbe476b6a	-0.19474569
162	0xbbb7b5d6	-0.0056063933
163	0xbc8867a7	-0.016650988
164	0x3d0d0397	0.03442725
165	0x3b3cc402	0.0028803353
166	0x3c699141	0.014255823
167	0xbd20dcde	-0.039273135
168	0xbe7a01ab	-0.24414699
169	0xbc44a0f5	-0.012001266
170	0xbd941475	-0.07230464
171	0xbbba4e31	-0.0056855907
172	0x3cc485fa	0.023989666
173	0x3bcd12f7	0.0062583643
174	0x3d4b5af4	0.049647287
175	0x3d4d6067	0.050140765
176	0xbe099134	-0.13434297
177	0x3d15ffd7	0.03662094
178	0x3ccec8bc	0.025242202
179	0xbba9656e	-0.005169562
180	0x3d09e274	0.03366323
181	0x3d366b68	0.044536024
182	0x3d840d59	0.06447858
183	0x3d2473b6	0.040149413
184	0xbf30c203	-0.6904604
185	0xbda91c0b	-0.08257302
186	0x3d67053f	0.056401487
187	0x3e0cd002	0.13751224
188	0x3d5bddba	0.05367825
189	0x3da520d9	0.08062906
190	0x3d9a54eb	0.07535728
191	0xbc54289d	-0.012949136
192	0x3d94e062	0.0726936
193	0x3d14fd5d	0.03637444
194	0x3d8a55fc	0.067546815
195	0x3cd83aaf	0.02639517
196	0x3d7caad8	0.061686367
197	0xbbb3f6d4	-0.0054920707
198	0xba4b26f5	-0.00077496405
199	0xbde15fe2	-0.11004616
200	0x3cd15887	0.025554908
201	0xbb1a7344	-0.0023567239
202	0xbcf8c014	-0.030365027
203	0x3bfe0d35	0.0077530392
204	0xbcc5201c	-0.024063163
205	0xbb26ab87	-0.0025431828
206	0xbd2be227	-0.041963723
207	0x3cb71212	0.022347484
208	0xbc607386	-0.013699418
209	0x3bbe0af5	0.005799646
210	0xbccc2573	-0.0249202
211	0x3ba86b48	0.005139742
212	0x3a1b1f86	0.0005917478
213	0xbd6093cd	-0.054828454
214	0xbbf3b4f8	-0.0074373446
215	0xbc991349	-0.018685954
216	0x3c895d52	0.016768131
217	0x3d73e8b4	0.059548095
218	0x3c36f966	0.01116786
219	0xbbb6d05b	-0.005579037
220	0xbcc8e308	-0.02452232
221	0x3cd798c3	0.02631796
222	0xbc57364c	-0.013135504
223	0x3a190687	0.00058374595
224	0xbd0edebd	-0.03488039
225	0x3d8c03ae	0.06836639
226	0x3dc28fa2	0.09500052
227	0x3d53efd0	0.051742375
228	0xbd0215d1	-0.031759087
229	0xbc146bdd	-0.00905892
230	0xbcc129ac	-0.023579441
231	0x3cb89560	0.022532165
232	0x3d7c8c59	0.061657283
233	0x3e149b2c	0.14512318
234	0x3d794334	0.060855106
235	0x3b7f3221	0.0038939791
236	0xbc2f2ef6	-0.010692349
237	0xbcd91e8f	-0.02650383
238	0xbd168617	-0.03674897
239	0xbcf0ce6a	-0.0293953
240	0x3e0c3c5a	0.13694897
241	0x3c39f71a	0.0113504175
242	0xbd89196c	-0.06694302
243	0xbc888f51	-0.016669901
244	0xbd794ebc	-0.060866103
245	0xbca05e59	-0.019576238
246	0x3ba42a35	0.0050099143
247	0xbd8f8915	-0.07008568
248	0x3dc53b5a	0.09630461
249	0xbda2d549	-0.07950837
250	0xbdc36d3a	-0.09542318
251	0xbd97208c	-0.07379255
252	0xbc1decd2	-0.009638982
253	0xbc759b38	-0.01499062
254	0xbcd5d1b1	-0.026100965
255	0xbd43ff98	-0.047851175

p_fc1.bias f4 [64]
0	0xbebb10c6	-0.36536235
1	0xbcbd1bcb	-0.023084542
2	0xbeba2bc3	-0.36361513
3	0xbe870af8	-0.26375556
4	0xbe980acc	-0.29695737
5	0xbe9528db	-0.29132733
6	0xbcb1836a	-0.021669108
7	0xbec22847	-0.37921354
8	0xbcf52932	-0.02992687
9	0x3f1137b7	0.5672564
10	0x3eb4e52d	0.35331097
11	0xbe46099c	-0.19339603
12	0xbe6ea384	-0.23304564
13	0x3ecb1aa8	0.39668775
14	0x3ee9163f	0.45524785
15	0xbd5b3b04	-0.05352308
16	0xbe70ed36	-0.23527989
17	0x3ecc9d15	0.39963594
18	0xbd9f9f99	-0.07794113
19	0x3e8b70f4	0.27234614
20	0x3e9b4c61	0.3033171
21	0x3d37047f	0.044682022
22	0x3ed66b38	0.41878676
23	0xbe9ab6c6	-0.3021757
24	0xbe0f2743	-0.13979821
25	0xbe813a7c	-0.25239933
26	0x3e389194	0.18024284
27	0x3e185fed	0.14880343
28	0x3df7c3e5	0.12097911
29	0x3e71fbac	0.23631161
30	0xbe866387	-0.26247808
31	0xbeaf3bbe	-0.34225267
32	0xbe31be33	-0.17357711
33	0xbe3754af	-0.17903398
34	0x3e82f2a1	0.25575736
35	0x3e240b39	0.16019906
36	0x3e0b414c	0.13599128
37	0x3e799613	0.24373655
38	0xbe889d22	-0.26682383
39	0xbe8466ab	-0.2585958
40	0xbe596ed0	-0.21233678
41	0x3ec976d0	0.3934846
42	0xbd1432e9	-0.036181364
43	0x3e843e07	0.25828573
44	0x3e707f27	0.23486005
45	0xbc667326	-0.014065539
46	0x3e8d04fd	0.27542868
47	0xbe9a9da4	-0.30198395
48	0x3d89dee3	0.067319654
49	0x3eeb6b0a	0.45980102
50	0x3e90f32a	0.2831052
51	0xbe9b6e2b	-0.3035749
52	0xbea199d4	-0.31562674
53	0x3e8496da	0.2589634
54	0x3ea7ae1a	0.32750016
55	0xbd73fdf0	-0.059568346
56	0xbea36cbe	-0.319189
57	0x3d5f138b	0.054461997
58	0xbe6be16d	-0.23035212
59	0xbe61113d	-0.21979232
60	0xbe716d95	-0.23576958
61	0xbe88973d	-0.26677886
62	0x3c985a99	0.018597888
63	0xbeb00689	-0.34379986

value_conv1.weight f4 [2, 128, 1, 1]
0	0xbec096b0	-0.37614965
1	0xbe886583	-0.26639947
2	0x3d7d7019	0.061874483
3	0xbc69e3a0	-0.014275461
4	0xbf0d1089	-0.55103356
5	0xbc912b6f	-0.017720906
6	0xbf0aff93	-0.54296225
7	0x3e01ce44	0.1267634
8	0xbd2895a0	-0.04115832
9	0x3b6c3437	0.0036041865
10	0x3e8421e6	0.25807112
11	0xbeb2675d	-0.34844485
12	0xb9ac0c4f	-0.00032815567
13	0xbdd1ff01	-0.10253716
14	0x3ba5c3e3	0.005058752
15	0x3e254945	0.16141231
16	0x3d2243c0	0.039615393
17	0xbdb1f170	-0.08688629
18	0xbe9d3c94	-0.3071028
19	0xbde49872	-0.11161889
20	0xbe870d44	-0.26377308
21	0xbdd00341	-0.10156871
22	0xbe2dcc1d	-0.16972394
23	0xbda5a77f	-0.08088588
24	0xbd6284d6	-0.055302463
25	0xbeae6c22	-0.34066874
26	0xbea3d271	-0.31996492
27	0x3e8dd816	0.27703923
28	0xbdf71cb3	-0.12066021
29	0x3d816970	0.06318939
30	0x3e1367b2	0.14395025
31	0xbe8df4d3	-0.2772585
32	0x3de6e303	0.11273768
33	0x3eb53b8d	0.35396996
34	0x3dded42a	0.10880311
35	0xbea1a67f	-0.3157234
36	0x3c87a9f6	0.016560536
37	0x3ea94294	0.33058608
38	0x3e9430a0	0.28943348
39	0x3eaf7f58	0.34276843
40	0x3ebb75a7	0.366132
41	0xbd6cb3c0	-0.05778861
42	0x3e337eb8	0.17528808
43	0xbd0178d2	-0.031609364
44	0x3e580f3d	0.21099563
45	0x3e8389fe	0.25691217
46	0xbdab6cfb	-0.08370396
47	0xbdae2c32	-0.08504523
48	0x3ea2850a	0.31742126
49	0xbbed5650	-0.0072429553
50	0x3e5d7fa6	0.21630725
51	0x3dd482ed	0.103765346
52	0x3e447700	0.1918602
53	0xbe7ab995	-0.24484856
54	0x3de00a3f	0.10939454
55	0x3c8e5767	0.017375661
56	0x3c22ffce	0.009948684
57	0x3d88b911	0.066759236
58	0x3ea970ab	0.3309377
59	0xbf01c767	-0.5069489
60	0xbedcdba6	-0.43136328
61	0xbd1cb965	-0.038262744
62	0xbed07bfd	-0.40719596
63	0xbe3630f2	-0.17792109
64	0x3e1e3104	0.15448385
65	0xbdc8d163	-0.09805562
66	0xbd98652b	-0.07441171
67	0x3ecb7e1e	0.39744657
68	0x3e425534	0.18977815
69	0x3ed087e9	0.4072869
70	0xbc30b0ce	-0.010784341
71	0xbeecb211	-0.46229604
72	0x3ce09205	0.027413378
73	0x3e3146dd	0.17312188
74	0x3d4bdadf	0.04976928
75	0xbeb01fe4	-0.3439933
76	0x3e18d55c	0.1492514
77	0x3e2f2022	0.17102101
78	0x3c2f519f	0.010700612
79	0xbe2c3806	-0.16818246
80	0x3ec58ee8	0.3858559
81	0xbdb397c9	-0.08769185
82	0x3bbf18c0	0.005831808
83	0xbd2ef47a	-0.04271362
84	0xbe93d2b1	-0.28871682
85	0x3cf06861	0.029346647
86	0xbd599ff7	-0.05313107
87	0xbda653ce	-0.08121453
88	0xbe90cec9	-0.28282765
89	0xbc15990a	-0.009130726
90	0x3d6583a0	0.05603373
91	0xbd18c6dd	-0.037299026
92	0x3e43bfac	0.19116086
93	0xbeef0586	-0.46683902
94	0xbb99c9cf	-0.004693247
95	0xbd527cfc	-0.051388726
96	0x3e808ca0	0.25107288
97	0xbe07a454	-0.1324628
98	0xbf29b517	-0.66291946
99	0x3dfada7c	0.12248704
100	0xbf328a06	-0.6974186
101	0x3d7ee890	0.062233508
102	0x3e46a847	0.1940013
103	0xbf12310c	-0.5710609
104	0x3dc1bf0b	0.09460267
105	0x3e937cfc	0.28806293
106	0xbe92be2b	-0.28660712
107	0xbebc3a9e	-0.3676347
108	0x3e2a8842	0.1665354
109	0x3ea35a98	0.31905055
110	0x3e007152	0.12543228
111	0x3ddbd5a4	0.10734108
112	0x3c80bd38	0.015715227
113	0xbde32473	-0.110909365
114	0xbc869f13	-0.016433274
115	0x3dc99c1b	0.09844228
116	0xbefdba6d	-0.49556294
117	0xbe4515f0	-0.1924665
118	0xbd9ab731	-0.07554472
119	0x3d32a3fd	0.043613423
120	0x3dbe80c6	0.09301905
121	0xbef55bf8	-0.4792173
122	0x3e2fd442	0.17170814
123	0xbe240ea1	-0.16021205
124	0x3e6ce6ee	0.23134968
125	0xbce3eaf0	-0.027821988
126	0x3e73cb7f	0.23808096
127	0xbc4551c7	-0.012043423
128	0xbcb2c500	-0.021822453
129	0xbd777b62	-0.0604204
130	0x3dcd8158	0.10034436
131	0xbf020f11	-0.5080424
132	0x3e937303	0.28798684
133	0x3e7c93f9	0.24665822
134	0xbe38f79c	-0.18063205
135	0x3ebca729	0.36846283
136	0xbd1930bd	-0.037399996
137	0xbefc0eab	-0.4922994
138	0xbc7db84a	-0.0154858325
139	0xbed82387	-0.42214605
140	0xbe32ff15	-0.17480119
141	0x3d0b4040	0.03399682
142	0x3d1f71d0	0.0389269
143	0x3e3e30f1	0.18573357
144	0x3bd3e7d4	0.006466845
145	0x3e77f8ef	0.24216054
146	0x3df2c5c5	0.11854128
147	0xbebec4a3	-0.37259397
148	0xbc520a8b	-0.012819896
149	0xbd5fa306	-0.05459883
150	0xbec777b0	-0.38958502
151	0x3eafb4b6	0.3431756
152	0xbdafe410	-0.08588421
153	0xbda797e8	-0.08183271
154	0x3de4024f	0.11133253
155	0x3d08c01b	0.03338633
156	0xbea08efe	-0.31359094
157	0xbed4dcc0	-0.4157467
158	0x3e9a3999	0.3012207
159	0x3e52752a	0.20552507
160	0xbe820620	-0.25395298
161	0xbd84ce49	-0.06484658
162	0xbe171dbf	-0.14757441
163	0x3e6dd112	0.23224285
164	0xbe9b034f	-0.30275962
165	0x3e7927d7	0.24331604
166	0xbdc4673f	-0.09590005
167	0xbe8a1c01	-0.2697449
168	0xbebc6756	-0.3679759
169	0xbb3453c2	-0.0027515744
170	0x3e08fd1a	0.133778
171	0x3dfdb4e1	0.123880155
172	0xbeabd492	-0.33560616
173	0xbe94f997	-0.29096672
174	0xbd5168c0	-0.051125288
175	0x3e9736b4	0.29533923
176	0x3e8cf01c	0.2752694
177	0x3db9a0b4	0.09063855
178	0xbeb0c7fd	-0.3452758
179	0xbf0423a5	-0.5161689
180	0xbe817526	-0.2528469
181	0x3e5e81e5	0.21729238
182	0x3e49a525	0.19691904
183	0x3e189ed0	0.14904332
184	0x3d99dee9	0.0751322
185	0x3de280fe	0.110597596
186	0x3e5ebb8a	0.21751228
187	0xbe32cd00	-0.17461014
188	0x3e4d0e56	0.20025
189	0xbe6f533c	-0.23371595
190	0xbe0783e1	-0.13233902
191	0x3d81df58	0.063414276
192	0x3e1704b0	0.14747882
193	0x3daf7ee9	0.08569128
194	0xbf10b916	-0.5653242
195	0x3dcde093	0.100526
196	0x3ddaccb8	0.10683578
197	0x3c56c09e	0.013107447
198	0xbeaee950	-0.34162378
199	0xbb16cc1e	-0.0023009847
200	0x3e80ba87	0.2514231
201	0xbe97754b	-0.29581675
202	0x3e92a458	0.2864101
203	0xbe90f179	-0.2830923
204	0x3e97df7f	0.296627
205	0xbe779410	-0.24177575
206	0x3dde2cd7	0.10848396
207	0x3eacd949	0.33759525
208	0xbdf9c490	-0.121956944
209	0xbf0599d2	-0.52187836
210	0x3d09355f	0.033498164
211	0x3ecf76e7	0.40520403
212	0x3e87cb15	0.26522127
213	0xbeaf9e07	-0.34300253
214	0x3f03f809	0.51550347
215	0x3f059ec3	0.52195376
216	0xbe90789d	-0.2821702
217	0x3dd0bb1b	0.101919375
218	0xbe4b33a1	-0.19843914
219	0xbe906e85	-0.2820932
220	0x3e6d0432	0.23146132
221	0x3d7eda71	0.06222004
222	0x3d0b0bfb	0.033946972
223	0xbedce433	-0.43142852
224	0xbeacf09e	-0.33777326
225	0xbe81faae	-0.25386566
226	0x3d978ace	0.07399522
227	0xbe8d9011	-0.27648976
228	0xbd4d4d22	-0.050122388
229	0xbe38e898	-0.18057477
230	0xbdaadba0	-0.083426714
231	0x3e773b7f	0.2414379
232	0xbee45f9b	-0.4460419
233	0xbeda7d6e	-0.4267382
234	0x3ed4c123	0.41553602
235	0x3e400386	0.18751344
236	0x3d654968	0.05597821
237	0x3e3f93d4	0.18708736
238	0x3e58d6df	0.21175717
239	0xbdcda074	-0.1004037
240	0xbe8a2429	-0.26980713
241	0xbe027e41	-0.12743475
242	0x3c91ac1c	0.017782263
243	0xbed265de	-0.41093343
244	0x3c2b5bae	0.01045887
245	0xbd9240a6	-0.07141237
246	0xbd2a7541	-0.04161573
247	0xbec456be	-0.3834743
248	0xbe76da6d	-0.2410676
249	0xbe6fb9a1	-0.23410656
250	0xbe7f806f	-0.24951337
251	0x3e8d0f2f	0.27550647
252	0xbe32d08f	-0.17462371
253	0x3e9a2557	0.30106613
254	0xbe2709c5	-0.1631232
255	0xbe055ff6	-0.13024887

value_conv1.bias f4 [2]
0	0xbe23b2ec	-0.15986222
1	0x3e789020	0.2427373
