model/cnn/9x9/1pc/9.pt (torch_old, 526869 bytes, 15 tensors)

conv1.weight f4 [32, 4, 3, 3]
0	0xbdbca41e	-0.0921099
1	0x3ee0c4a0	0.43900013
2	0xbd8388bc	-0.064225644
3	0xbe3247d6	-0.17410216
4	0x3ea5399d	0.32270518
5	0xbe471818	-0.19442785
6	0xbdf0433c	-0.11731574
7	0x3f3832df	0.71952623
8	0xbda97afa	-0.08275409
9	0xbd961c0c	-0.07329568
10	0xbebf735a	-0.37392694
11	0xbcd820ab	-0.026382765
12	0xbdc99a7d	-0.098439194
13	0xbed32af5	-0.4124371
14	0xbe044698	-0.12917554
15	0xbdc31dc9	-0.095271654
16	0xbe5fa74a	-0.2184116
17	0xbcb75e0f	-0.022383718
18	0x3d9008df	0.07032942
19	0x3e8c721b	0.27430806
20	0x3d8a7724	0.067610055
21	0x3e400d4a	0.1875507
22	0x3bb4bd22	0.0055157105
23	0x3dc6b4a0	0.0970242
24	0x3e7f2bbd	0.24919029
25	0x3e7a1fda	0.24426213
26	0x3e25b328	0.16181624
27	0x3cd118c6	0.025524508
28	0x3d6e1763	0.058127772
29	0xbd6105c1	-0.054937128
30	0xbe0a8af4	-0.13529569
31	0x3c47395e	0.0121596735
32	0xbd543de0	-0.05181682
33	0xbdd6a023	-0.104797624
34	0x3dcaa038	0.098938406
35	0x3c981d6b	0.018568715
36	0x3ee5ad2d	0.44858685
37	0x3d8d56ae	0.069012985
38	0x3f015f59	0.50536114
39	0x3ce195ac	0.02753719
40	0x3c82ac76	0.015951376
41	0x3a22a40c	0.00062042545
42	0x3ed6fd94	0.4199034
43	0x3d785191	0.060624663
44	0x3ed2c6dd	0.41167346
45	0xbd1c2f2f	-0.038130935
46	0xbd2864ce	-0.04111176
47	0xbd245fed	-0.040130544
48	0xbe09d72a	-0.13460985
49	0x3dc22393	0.094794415
50	0xbdd32d85	-0.103114165
51	0xbd4266e1	-0.047461394
52	0xbdccd65c	-0.10001823
53	0xbd2bb289	-0.04191831
54	0x3e61cf6e	0.22051784
55	0x3e120028	0.14257872
56	0x3e1f128c	0.15534419
57	0x3e03376c	0.1281411
58	0x3edf800e	0.43652385
59	0x3de2ae4c	0.11068401
60	0x3e52d0c3	0.20587449
61	0x3e25c470	0.16188216
62	0x3e59e6b7	0.21279417
63	0xbd9be1db	-0.07611438
64	0xbd8ec36b	-0.06970867
65	0xbd212ac7	-0.039347436
66	0xbd7d00f2	-0.06176848
67	0xbe33ff1e	-0.17577788
68	0xbd898a5b	-0.06715842
69	0xbdd7a3b6	-0.10529272
70	0xbdc04eca	-0.09390028
71	0xbe11b2fa	-0.1422843
72	0x3da23e8a	0.07922085
73	0xbdaee7dc	-0.085403174
74	0x3d01614c	0.03158693
75	0xbd929924	-0.071581155
76	0xbd087313	-0.03331287
77	0xbce944ee	-0.028475251
78	0xbd6b6057	-0.057464924
79	0xbc093cef	-0.008376344
80	0xbc820437	-0.01587115
81	0x3b050005	0.00202942
82	0xbce80696	-0.028323453
83	0xbaf7e0b2	-0.0018911569
84	0xbe70dcca	-0.23521724
85	0xbd57a6e7	-0.052649405
86	0xbe3b51af	-0.18292879
87	0xbe25250c	-0.16127414
88	0x3f872e9c	1.0561099
89	0xbdce9046	-0.10086112
90	0xbd37ee3e	-0.04490494
91	0x3da9eb81	0.08296872
92	0xbd6c5439	-0.05769751
93	0xbd369e55	-0.04458459
94	0x3d4be709	0.04978088
95	0xbcf75fdb	-0.030197075
96	0x3ccf70a2	0.025322262
97	0x3e679515	0.22615464
98	0xbd677a2e	-0.056513004
99	0xbda76ef5	-0.0817546
100	0x3cb1768c	0.021662973
101	0x3d7c7f32	0.06164474
102	0xbd99275e	-0.07478212
103	0x3d4da59d	0.05020677
104	0xbcf4cb5c	-0.029882126
105	0x3d345725	0.04402842
106	0x3ddb6112	0.10711874
107	0xbd18a109	-0.03726295
108	0x3f1b9e3d	0.6078833
109	0x3e764ffc	0.24053949
110	0x3f3b85d7	0.732511
111	0x3e7d9180	0.24762535
112	0x3e587391	0.21137835
113	0x3e39324f	0.18085597
114	0x3f05f1f0	0.5232229
115	0x3e623c0f	0.22093223
116	0x3f084594	0.5323117
117	0xbeef542d	-0.4674391
118	0xbd757915	-0.059929926
119	0xbed2d911	-0.41181234
120	0xbd6746d1	-0.05646402
121	0xbef51655	-0.478686
122	0xbd8acf82	-0.0677786
123	0xbed595c5	-0.41715828
124	0xbce89b93	-0.028394496
125	0xbec8850e	-0.39164013
126	0x3e8671bf	0.26258656
127	0x3db750fa	0.08950992
128	0x3e757fb1	0.23974492
129	0x3dd0bdb2	0.101924315
130	0x3e850c69	0.2598603
131	0x3e1a29fe	0.15055081
132	0x3eac8f41	0.33703044
133	0x3d926feb	0.07150253
134	0x3e61b3ec	0.22041291
135	0x3d84c924	0.06483677
136	0x3d3ad7b5	0.04561587
137	0x3cd8740a	0.02642252
138	0xbd230d4d	-0.039807606
139	0xbd31d7f8	-0.043418854
140	0x3c50f550	0.0127538
141	0x3dece48c	0.11567029
142	0x3e0230e6	0.12713966
143	0x3d46c975	0.04853197
144	0xbc223834	-0.009901095
145	0xbcea2e4f	-0.028586535
146	0x3a92adfe	0.001119077
147	0xbd3df3d4	-0.04637511
148	0xbd85b122	-0.06527926
149	0xbb5fc1e1	-0.003414266
150	0x3ee74735	0.45171514
151	0x3eefaa82	0.46809775
152	0x3ec9df18	0.3942802
153	0x3cbd7456	0.023126762
154	0x3c3ef7b9	0.011655741
155	0x3b00f6bc	0.0019678315
156	0x3b5320a6	0.0032215505
157	0xbd1ba211	-0.037996355
158	0x3d22112f	0.03956717
159	0xbf1c08f0	-0.6095114
160	0xbf023ea4	-0.5087683
161	0xbf288d38	-0.6584048
162	0x3c9ca935	0.019123653
163	0xbd465ee2	-0.04843033
164	0xbcbfaea4	-0.023398705
165	0x3dbe07ba	0.092788175
166	0x3cc2233e	0.023698445
167	0x3d962de0	0.07332969
168	0x3ec072b1	0.37587503
169	0x3cd02fb9	0.025413381
170	0x3e8b81fe	0.27247614
171	0x3cf03855	0.029323736
172	0xbdc0b06c	-0.0940865
173	0x3d0fdb04	0.03512098
174	0x3e2996ef	0.16561483
175	0x3d4389b8	0.04773876
176	0x3e6ea496	0.23304972
177	0xbe2ba079	-0.16760434
178	0xbe417fcd	-0.18896408
179	0xbdf4a840	-0.11946154
180	0xbe1bd064	-0.15216213
181	0x3c065412	0.008198755
182	0xbd81d233	-0.063389204
183	0xbe29e40a	-0.16590896
184	0xbe94ca0d	-0.29060403
185	0xbdb97489	-0.090554304
186	0x3c289986	0.010290509
187	0xbea6aba2	-0.3255282
188	0xbe691a97	-0.2276405
189	0xbe17ffba	-0.14843646
190	0x3c31667e	0.010827659
191	0xbe4fd086	-0.20294389
192	0x3d17b51f	0.037037965
193	0x3eb199b3	0.34687576
194	0x3d9559b7	0.072925024
195	0x3f28b4a5	0.6590064
196	0xbcf24e32	-0.029578302
197	0xbb725c3c	-0.0036981246
198	0xbd785fa9	-0.060638104
199	0x3d90b7b7	0.07066291
200	0x3d8934fb	0.06699558
201	0xbdde7967	-0.108629994
202	0xbe0db151	-0.13837172
203	0x3dee07d7	0.11622589
204	0xbee00c52	-0.437594
205	0xbe3d8849	-0.1850902
206	0x3ab00af5	0.0013431
207	0x3cb99cd4	0.02265779
208	0x3dbfbb22	0.093618646
209	0xbc870b10	-0.016484767
210	0x3d87da94	0.06633487
211	0xbe0526fe	-0.13003156
212	0x3da968d6	0.08271949
213	0xbda30948	-0.07960755
214	0x3a0504eb	0.000507428
215	0x3e11d48c	0.14241236
216	0xbe6c20cd	-0.23059388
217	0xbe450e9d	-0.19243856
218	0xbe98061b	-0.29692158
219	0xbdf39a53	-0.118946694
220	0xbeff17da	-0.49822885
221	0xbe2fd6a6	-0.17171726
222	0xbe8050a8	-0.25061536
223	0xbe3042bf	-0.17212962
224	0xbe7582d6	-0.23975691
225	0x3e9998d8	0.29999423
226	0xbca7deba	-0.020491946
227	0x3ebb7305	0.3661119
228	0xbc71a799	-0.014749431
229	0x3dd2b75e	0.10288881
230	0x3ccb0418	0.024782225
231	0x3ebb0fff	0.36535642
232	0xbd0255b7	-0.031820025
233	0x3ea50a52	0.32234436
234	0xbe480d19	-0.19536246
235	0xbd42628b	-0.04745726
236	0xbe525b34	-0.20542604
237	0xbe167ab1	-0.1469524
238	0xbec5ab69	-0.38607338
239	0xbe5eb4a7	-0.21748601
240	0xbe573291	-0.21015383
241	0xbe5c622c	-0.21521825
242	0xbe7ef9f0	-0.24900031
243	0xbd8c3682	-0.06846334
244	0xbdc87344	-0.0978761
245	0xbd9aec65	-0.0756462
246	0xbde756c4	-0.11295846
247	0xbe12d701	-0.1433983
248	0xbdf25a6b	-0.11833652
249	0xbdac9b04	-0.084280044
250	0xbde2962b	-0.110637985
251	0xbdb2e6c0	-0.08735418
252	0xbe3afed0	-0.18261266
253	0xbce4ad34	-0.027914621
254	0xbe3f4a05	-0.1868058
255	0xbd8b544d	-0.068031885

conv1.bias f4 [32]
0	0xbe0f57f7	-0.139984
1	0x3cc9f119	0.024651097
2	0xbe35debf	-0.17760752
3	0xbe4eaefa	-0.20183936
4	0xbe591e5e	-0.2120299
5	0xbe6a3496	-0.22871622
6	0xbcba25a4	-0.022723027
7	0x3f013e08	0.5048528
8	0xbe69c282	-0.22828105
9	0xbd4eb129	-0.05046192
10	0xbe3b37ac	-0.18282956
11	0xbda8ec18	-0.08248156
12	0xbe934233	-0.28761443
13	0xbea07d22	-0.3134547
14	0xbe22a88d	-0.1588461
15	0xbe1646de	-0.14675471
16	0xbe89ae60	-0.2689085
17	0xbf0c33ad	-0.5476635
18	0x3da3d0e0	0.07998824
19	0xbeda95b0	-0.42692327
20	0xbe0cf0ac	-0.13763684
21	0xbd786e43	-0.06065203
22	0x3e1147b3	0.14187507
23	0xbe12e323	-0.14344458
24	0xbd16f1ea	-0.0368518
25	0xbe5cff59	-0.21581782
26	0xbe95eb13	-0.2928091
27	0xbeb819e2	-0.35957247
28	0x3f006f87	0.5017018
29	0xbe319b13	-0.17344312
30	0xbea0b0db	-0.3138493
31	0xbe0c4078	-0.13696468

conv2.weight f4 [64, 32, 3, 3]
0	0xbcaea85b	-0.021320513
1	0x3cd5aa44	0.026082166
2	0x3d44af8a	0.04801897
3	0xbc8084ce	-0.015688326
4	0xbd406329	-0.046969566
5	0x3c0ead1e	0.008708267
6	0x3c46f339	0.01214295
7	0xbd6cb7f5	-0.057792623
8	0x3c75d902	0.015005352
9	0x3c85e45a	0.016344238
10	0x3d404cf8	0.046948403
11	0x3dd293e6	0.10282116
12	0xbd8cead3	-0.06880727
13	0xbcf89154	-0.030342735
14	0xbd3f5018	-0.046707243
15	0x3ca2f104	0.019890316
16	0xbbd2b3d5	-0.006430129
17	0x3d4641d3	0.04840262
18	0x3e80a8bb	0.2512873
19	0xbdaa0b5d	-0.083029486
20	0x3c0e9f55	0.00870498
21	0xbd09b200	-0.03361702
22	0x3d9e1241	0.077183254
23	0x3bc97ecd	0.006149149
24	0xbd9b5386	-0.0758429
25	0xbc86e47e	-0.016466375
26	0xbd23298d	-0.039834548
27	0xbd1f6385	-0.03891327
28	0xbd2233cc	-0.03960018
29	0xbcde92f7	-0.027169688
30	0x3d07b057	0.033127155
31	0xbda35d10	-0.07976735
32	0xbc9bbc57	-0.019010706
33	0xbcc0cafe	-0.023534294
34	0xbdddfdab	-0.10839399
35	0xbe10ce0c	-0.141411
36	0xbdba3835	-0.09092752
37	0xbce53f81	-0.027984383
38	0xbb9774d1	-0.00462208
39	0x3b85c9f0	0.0040829107
40	0xbdd1a387	-0.102362685
41	0xbd4103cf	-0.047122773
42	0x3d568c1f	0.052379724
43	0xbd02491d	-0.031808008
44	0xbd2bc1ec	-0.041932985
45	0x3d8713d8	0.06595582
46	0x3dcf878b	0.10133275
47	0xbced9921	-0.029003682
48	0xbcd68acd	-0.026189232
49	0xbd541399	-0.051776502
50	0x3d92b5c0	0.07163572
51	0xbd8fdca9	-0.070245095
52	0xbbe96530	-0.007122658
53	0xbc554ef3	-0.013019311
54	0xbb88f328	-0.004179377
55	0x3dbc7341	0.092016704
56	0x3d537285	0.051622886
57	0x3c8168d8	0.015797064
58	0xbbcb8438	-0.00621083
59	0xbbe97e40	-0.007125646
60	0xbb721e73	-0.0036944419
61	0x3e0c41dd	0.13697
62	0xbbacf3e7	-0.005278099
63	0xbdb86e88	-0.09005457
64	0x3cae94ef	0.021311251
65	0xbd316a0c	-0.043314025
66	0x3d0d5bf6	0.03451153
67	0x3cb3cb8d	0.021947647
68	0x3cbf1d43	0.023329383
69	0xb9d48d22	-0.00040540943
70	0xbd03bbbd	-0.032161463
71	0xbbf372f6	-0.007429476
72	0x3c2a08fa	0.010378117
73	0xbcc72547	-0.024309767
74	0x3d54d6e0	0.051962733
75	0x3d644dd9	0.055738304
76	0xbc609e98	-0.013709687
77	0xbd1b3fd3	-0.037902664
78	0xbd21575b	-0.03938995
79	0xbcc30700	-0.023807049
80	0xbce6517e	-0.02811503
81	0x39cdd74a	0.0003926105
82	0x3d5cd1bb	0.053910952
83	0x3d45c29f	0.04828131
84	0x3d84d8e1	0.06486679
85	0x3d17a0f6	0.03701874
86	0xbda8e96f	-0.08247649
87	0xbceaef44	-0.028678544
88	0x3dec2e30	0.11532247
89	0xbd7717ec	-0.060325548
90	0x3cc1035a	0.023561168
91	0x3d5fd320	0.054644704
92	0xbd4dd856	-0.050255142
93	0xbdbf6c24	-0.09346798
94	0xbd63476e	-0.055488043
95	0xbdc8c930	-0.098039985
96	0xbe4d7be9	-0.20066799
97	0xbe05095f	-0.12991856
98	0xbe06b548	-0.13155091
99	0xbdd2663a	-0.102734044
100	0xbe2112d5	-0.1572984
101	0xbd28a18e	-0.041169696
102	0xbd127b7c	-0.035762295
103	0xbd9dcf33	-0.07705536
104	0xbc2fab23	-0.0107219545
105	0xbdab826c	-0.083744854
106	0x3c694d47	0.014239616
107	0x3d1661cc	0.03671436
108	0x3e6eedb6	0.23332867
109	0xbdf4558d	-0.1193038
110	0xbdf8f7b7	-0.12156623
111	0xbe36a188	-0.17835057
112	0x3b0253ac	0.0019886298
113	0xbcb7cb9a	-0.022435952
114	0xbdd3f3ee	-0.1034926
115	0x3c1dcc0b	0.009631167
116	0x3d6fa219	0.058504198
117	0xbdd84ff6	-0.10562126
118	0xbcbf1051	-0.02332321
119	0x3d88d55f	0.06681322
120	0x3dc0e654	0.094189316
121	0x3d6e11b7	0.058122363
122	0xbcf6cf66	-0.030128192
123	0xbd8658f3	-0.065599345
124	0xbcbc296c	-0.02296897
125	0xbca07b07	-0.019589914
126	0xbd13e55e	-0.036107413
127	0xbd5cab5a	-0.05387435
128	0xbcb3d605	-0.021952638
129	0xbcf36b18	-0.029714152
130	0x39179884	0.00014457299
131	0xbdbce6b9	-0.09223694
132	0xbe033c25	-0.12815912
133	0x3e1a4f6e	0.15069363
134	0x3d3850d3	0.044998955
135	0xbdeb1868	-0.114792645
136	0xbd4a2aac	-0.0493571
137	0xbca99e3a	-0.020705331
138	0xbd0512f2	-0.03248877
139	0xbd5ff57c	-0.05467747
140	0x3ddf184a	0.10893305
141	0x3d190358	0.037356704
142	0xbda000b3	-0.07812633
143	0x3bd5fd42	0.006530435
144	0xbbc74e82	-0.006082357
145	0xbdc60421	-0.09668756
146	0x3c88d41c	0.016702704
147	0x3de6297f	0.112383835
148	0xbc0954ab	-0.008382003
149	0xbdcc47b5	-0.099746145
150	0xbdee4007	-0.11633306
151	0x3c925f8a	0.017867822
152	0xbdcd6ecf	-0.10030901
153	0xbcec6910	-0.028858691
154	0xbda00aab	-0.07814535
155	0x3d5a3fdc	0.053283557
156	0x3da604ae	0.08106361
157	0xbdc680af	-0.09692513
158	0xbd23bfcb	-0.03997783
159	0xbd0763ea	-0.03305427
160	0x3dd1fca4	0.102532655
161	0x3c052130	0.008125588
162	0xbc1e6945	-0.009668653
163	0x3c9e78f1	0.019344779
164	0x3d9a6b55	0.07540003
165	0xbad768d9	-0.0016434445
166	0x3d40e872	0.047096677
167	0x3d9106cc	0.070813745
168	0x3a618f33	0.0008604407
169	0x3c3af332	0.011410521
170	0x3c281ad8	0.010260306
171	0xbc1ffb68	-0.00976453
172	0xbda71fbe	-0.08160351
173	0xbd020b19	-0.031748865
174	0xbdd6927a	-0.10477157
175	0xbc0bf1f1	-0.00854157
176	0xbd7c25cf	-0.061559495
177	0xbd9b41ed	-0.07580934
178	0xbc79247a	-0.015206451
179	0x3d837d1e	0.064203486
180	0x3c776049	0.01509864
181	0x3e155d2f	0.14586328
182	0x3dc6f677	0.09714978
183	0xbd92ff2e	-0.07177578
184	0x3dad8cdd	0.08474133
185	0x3e5749f4	0.21024305
186	0x3da10c5d	0.07863686
187	0x3d69a580	0.0570426
188	0x3e4a038d	0.19727917
189	0x3c159f39	0.0091322
190	0xbb76386e	-0.0037570256
191	0x3cc196af	0.023631422
192	0xbbea36e1	-0.0071476554
193	0xbc5e4602	-0.013566496
194	0x3ca089e6	0.019597005
195	0x3d065fbe	0.03280615
196	0xbc57fb9a	-0.013182545
197	0x3c27d5fb	0.010243888
198	0xbc0a2b34	-0.008433152
199	0xbd3202b6	-0.043459617
200	0xbc1a18a6	-0.009405291
201	0xbd863bf6	-0.065544054
202	0xbdb3a479	-0.08771605
203	0xbd81385e	-0.06309579
204	0x3d2a3f62	0.041564353
205	0x3c55b52d	0.013043684
206	0x3d6c8445	0.05774333
207	0xbde724aa	-0.1128629
208	0x3dcd734c	0.10031757
209	0x3da161e8	0.07880002
210	0xbdcf5dfb	-0.10125347
211	0xbe1b1b87	-0.1514722
212	0xbdd821a4	-0.105532914
213	0xbe122547	-0.14272033
214	0x3dfeb69e	0.12437175
215	0xbe1c2669	-0.15249027
216	0x3c313ccc	0.010817718
217	0x3e2c4625	0.16823633
218	0x3ca5316c	0.020165168
219	0x3cb18661	0.021670522
220	0xbc2ac67e	-0.010423301
221	0x3d4eb984	0.05046989
222	0x3dad9eb9	0.084775396
223	0xbdb0ce4e	-0.086330995
224	0xbd1f0452	-0.03882248
225	0xbc1b876f	-0.009492739
226	0x3e527c2b	0.20555179
227	0xbd960a7e	-0.0732622
228	0xbe02f195	-0.12787469
229	0xbd938d39	-0.072046705
230	0x3deaad48	0.11458832
231	0xbd8b1c0b	-0.06792458
232	0xbe0c8ee4	-0.13726383
233	0xbb629eea	-0.0034579583
234	0xbdbd57d0	-0.092452645
235	0xbdb2ae40	-0.08724642
236	0xbc8630c2	-0.016380671
237	0x3c8cc846	0.017185342
238	0xbcf7f561	-0.030268373
239	0xbaf664b5	-0.0018798324
240	0xbcaf0272	-0.02136347
241	0xbda8b067	-0.08236771
242	0x3cfd5813	0.030925786
243	0xbbf85bbf	-0.0075792964
244	0xbce06d28	-0.0273958
245	0xbd14448b	-0.03619818
246	0xbdbc1960	-0.091845274
247	0xbc7aed90	-0.015315428
248	0x3d00f724	0.03148569
249	0xbda6b72f	-0.08140408
250	0xbe08ff89	-0.13378729
251	0x3d6b4f67	0.05744877
252	0xbd3afe54	-0.045652702
253	0x3d2f0339	0.042727683
254	0x3dbd9e85	0.09258751
255	0xbe1fa282	-0.15589336

conv2.bias f4 [64]
0	0x3c9f5d9d	0.019453818
1	0xbf14c24d	-0.5810898
2	0xbdcb863b	-0.09937712
3	0xbe074045	-0.1320811
4	0xbe33fb08	-0.1757623
5	0xbdfea0f9	-0.12433047
6	0xbf1d1a35	-0.61368114
7	0x3eb018ad	0.34393826
8	0x3f09576d	0.53649026
9	0xbe74859c	-0.23879093
10	0xbddd3869	-0.10801775
11	0x3aefe798	0.0018303273
12	0xbe90ba9e	-0.28267378
13	0xbdc91d18	-0.09820002
14	0xbc92a605	-0.01790143
15	0xbdcfe2ff	-0.10150718
16	0xbe557697	-0.2084602
17	0xbe0f74bd	-0.14009376
18	0xbf4cedc8	-0.80050325
19	0xbe5e9aa9	-0.21738686
20	0x3c81785b	0.01580446
21	0xbe8d0681	-0.27544025
22	0xbdd3e32f	-0.10346066
23	0xbe3659b3	-0.17807655
24	0xbda6f340	-0.08151865
25	0xbe32c55e	-0.17458102
26	0xbe0414e4	-0.12898594
27	0xbe17cfba	-0.14825335
28	0xbdb7d977	-0.08977025
29	0xbd45da36	-0.048303805
30	0xbe5f36a7	-0.21798192
31	0xbf18ef40	-0.59740067
32	0xbe2cccab	-0.1687495
33	0xbe8d4b0a	-0.27596313
34	0xbf1332a4	-0.57499146
35	0xbe88acea	-0.26694423
36	0xbe8f4ca9	-0.27988175
37	0xbf3bb001	-0.73315436
38	0xbe1a5b62	-0.15073922
39	0xbf3470b3	-0.70484465
40	0xbe5ec991	-0.21756579
41	0xbe79be5a	-0.2438902
42	0xbe4e8c4b	-0.20170705
43	0xbe87a8bf	-0.2649593
44	0xbe9dfcac	-0.30856836
45	0xbe0f329d	-0.13984151
46	0xbd342d01	-0.04398823
47	0xbe848c74	-0.25888407
48	0xbe3ccc11	-0.1843722
49	0xbdf1cd6e	-0.11806761
50	0xbdf20302	-0.1181698
51	0xbf116ff6	-0.56811464
52	0xbebc512f	-0.36780688
53	0xbe57c906	-0.21072778
54	0xbe67ded8	-0.22643602
55	0xbe48daf0	-0.19614768
56	0xbe1b2e48	-0.15154374
57	0xbeaed7ad	-0.34148923
58	0xbdb514df	-0.088418715
59	0xbd8ab909	-0.06773574
60	0xbdda1474	-0.106484324
61	0xbe28a709	-0.16469969
62	0xbe9a2793	-0.30108318
63	0xbde6ed11	-0.112756856

conv3.weight f4 [128, 64, 3, 3]
0	0x3d160407	0.036624935
1	0xbd5615e7	-0.05226698
2	0x3e15f2d7	0.14643417
3	0xbdaa694b	-0.08320864
4	0xbd16372f	-0.03667372
5	0x3c866f51	0.016410502
6	0x3ca9e6df	0.02073997
7	0x3d8fa8cf	0.070146196
8	0x3d31b9e0	0.043390155
9	0x3d88ca06	0.06679158
10	0xbdb28cca	-0.0871826
11	0xbcf128db	-0.029438427
12	0xbdbbdea2	-0.09173323
13	0xbdce70ee	-0.100801334
14	0xbc732f3b	-0.014842804
15	0xbcddaf92	-0.027061258
16	0xbd86abe4	-0.06575754
17	0xbd455b55	-0.048182804
18	0xbd63c8bc	-0.055611357
19	0x3d9b0cf0	0.07570827
20	0xbb225354	-0.0024768906
21	0xbd3adf85	-0.04562332
22	0x3d30b0d9	0.043137405
23	0xbc5ba10d	-0.013405097
24	0x3ce11bd4	0.02747909
25	0x3d80bff8	0.06286615
26	0xba917e54	-0.0011100271
27	0xbd42064d	-0.04736929
28	0xbb6f07dd	-0.0036473193
29	0xbd923d57	-0.07140606
30	0xbdd5ffb1	-0.1044916
31	0x3cf07bd8	0.029355928
32	0xbc9a5ff8	-0.01884459
33	0xbc4f8e0d	-0.012668145
34	0xbcd47be7	-0.025937987
35	0x3d165659	0.03670344
36	0x3c97ed40	0.018545747
37	0xbcfa887a	-0.030582655
38	0x3d3c564c	0.045980737
39	0xbc371606	-0.011174684
40	0xbdb5d30b	-0.08878144
41	0xbdb117d2	-0.086471215
42	0xbc853888	-0.016262308
43	0x3ca8aef5	0.020591239
44	0x3c3d3330	0.011547849
45	0xbd8af408	-0.067848265
46	0x3ca8700e	0.020561244
47	0x3d04d180	0.032426357
48	0xbc5329c3	-0.012888375
49	0x3a9b273d	0.0011837255
50	0x3befc38d	0.0073170126
51	0x3c4029f6	0.011728754
52	0x3c13600c	0.008995067
53	0x3bfb1bdc	0.007663233
54	0xbdaddc58	-0.08489293
55	0x3d586a47	0.05283573
56	0x3dd9eab8	0.10640472
57	0x3d48cd0b	0.04902367
58	0x3d7c777f	0.061637398
59	0x3d28f660	0.041250587
60	0x3de187de	0.11012243
61	0xbcc463d2	-0.02397338
62	0x3d0c47ca	0.03424815
63	0xbe13b3f0	-0.1442411
64	0xbcad4522	-0.02115113
65	0xbe194475	-0.1496752
66	0xbc08dd78	-0.0083535835
67	0xbda41636	-0.08012049
68	0xbd1bd740	-0.038047075
69	0xbd7c971f	-0.061667558
70	0xbce38dbf	-0.02777755
71	0xbdf1fd41	-0.118158825
72	0x3e258c52	0.16166809
73	0xbdafa340	-0.08576059
74	0x3c9e7859	0.019344496
75	0x3cfabb40	0.030606866
76	0xbd52f7a2	-0.051505692
77	0xbca66877	-0.020313485
78	0xbded4e10	-0.11587155
79	0xbea0c149	-0.31397465
80	0xbe0f9954	-0.14023334
81	0x3cd5fe48	0.026122227
82	0x3db4aaa4	0.088216096
83	0xbd09e4f0	-0.033665597
84	0xbd1642d0	-0.03668481
85	0x3cb06fe0	0.021537721
86	0xbbf9ffd3	-0.0076293736
87	0x3d35fc2c	0.044429943
88	0xbcd15dbb	-0.02555739
89	0xbcf876e7	-0.030330135
90	0x3caa026f	0.020753114
91	0x3ba24d06	0.0049530296
92	0xbcc9c14f	-0.02462831
93	0x3b1028c9	0.0021996966
94	0x3c816a9c	0.015797906
95	0xbd91b194	-0.071139485
96	0xbcf638a5	-0.030056307
97	0xbcee9ae1	-0.029126586
98	0x3d48c9d7	0.049020614
99	0x3d7d9a05	0.061914463
100	0xbcc71946	-0.024304044
101	0xbc8675ae	-0.016413536
102	0x3da05e55	0.078304924
103	0x3bb20644	0.005432876
104	0xbd5f24a7	-0.054478314
105	0xbd92d243	-0.071690105
106	0x3b83a46c	0.0040174033
107	0xbd1729c5	-0.03690507
108	0x3ca4d2fa	0.020120133
109	0xbcde8a56	-0.027165573
110	0xbc7a6b33	-0.015284347
111	0x3c25dbc0	0.010123193
112	0x3d3df55e	0.04637658
113	0xbcfb4d02	-0.030676369
114	0x3d0659a3	0.032800328
115	0xbc14aa9a	-0.009073878
116	0xbcc6fb96	-0.024289887
117	0xbd37f4a6	-0.04491105
118	0x3cab22e6	0.020890664
119	0xbd2e77bd	-0.04259466
120	0xbce725f8	-0.028216347
121	0xbc6acc5a	-0.014330948
122	0x3b59e22c	0.0033246381
123	0xbca912f8	-0.020638928
124	0xbdab24c5	-0.083566226
125	0x3d96d95a	0.07365675
126	0xbd36b95d	-0.04461037
127	0x3cfff1e4	0.031243272
128	0xbccda451	-0.025102766
129	0xbcd546a7	-0.026034666
130	0xbc8b6223	-0.017014569
131	0x3cb9da34	0.022687055
132	0xba8a9405	-0.0010572678
133	0xbc0ac063	-0.00846872
134	0xbc373e0d	-0.011184228
135	0xbd2b19b7	-0.04177257
136	0x3d597e61	0.05309904
137	0xbd80a447	-0.062813334
138	0xbc93c37b	-0.018037548
139	0xbd289998	-0.041162103
140	0x3d18dc34	0.037319377
141	0x3c809dad	0.015700186
142	0xbc6c026d	-0.014404875
143	0x3d6e9555	0.058247883
144	0x3d49a9dd	0.04923426
145	0xba0e85a6	-0.0005436785
146	0x3cc6c23f	0.024262546
147	0x3d853ff2	0.06506337
148	0xbbc5527a	-0.006021795
149	0xbac3490c	-0.0014899089
150	0x3c9391a3	0.018013781
151	0xbd3d06bf	-0.04614901
152	0xbce48b28	-0.027898386
153	0xbc6e66b1	-0.014550851
154	0xbd799f55	-0.060942966
155	0xbd00bee7	-0.03143206
156	0xbce35964	-0.027752586
157	0xbcf3bd8c	-0.029753469
158	0xbd859a0f	-0.06523525
159	0xbd15830a	-0.03650192
160	0xbbbe8378	-0.005814012
161	0xbcdc116d	-0.026863778
162	0x3c027ef2	0.007964836
163	0x3d9d6197	0.076846294
164	0xbb9c6e48	-0.0047738887
165	0xbcfa4833	-0.030552005
166	0x3debc579	0.11512274
167	0xbd30c3ad	-0.04315536
168	0xbc98ffb8	-0.018676624
169	0x3deea01e	0.11651634
170	0xbd3126da	-0.043249942
171	0x3ae7357b	0.001763984
172	0x3dbd1ec9	0.092343874
173	0x3e285218	0.16437566
174	0xba90d9a4	-0.001105119
175	0xbc866862	-0.016407195
176	0xbcc9c06b	-0.024627885
177	0xbd1874e3	-0.037220847
178	0xbd581f3e	-0.05276417
179	0xbc82ac45	-0.015951285
180	0xbd637cf3	-0.055539083
181	0xbba9635e	-0.005169316
182	0xbc3543f5	-0.0110635655
183	0xbd201148	-0.03907898
184	0xbcaeea5f	-0.021351991
185	0xbc21068f	-0.009828224
186	0xbcef4b98	-0.02921085
187	0x3d326ad4	0.04355891
188	0xbc30d7f0	-0.010793671
189	0xbba5a181	-0.005054653
190	0x3d0b53a7	0.034015324
191	0xbd29cf67	-0.04145756
192	0xbbe649f9	-0.007027861
193	0x3cc9eab3	0.024648046
194	0xbe15f30e	-0.146435
195	0xbd11e2ea	-0.035616793
196	0xbc437d22	-0.011931689
197	0xbd0251ba	-0.03181622
198	0xb93e010a	-0.00018120199
199	0x3d04ee54	0.03245385
200	0xbd0e3e60	-0.034727454
201	0x3ced1f6d	0.028945649
202	0x3cc32862	0.023822967
203	0xbb32b3d1	-0.0027267823
204	0x3bc8bc38	0.006125953
205	0xbdd00bea	-0.101585224
206	0x3c2f6098	0.010704182
207	0xbd5f8d0a	-0.054577865
208	0xbcacab04	-0.02107764
209	0xbd6561c9	-0.05600146
210	0x3ccf6231	0.025315376
211	0xbb7faf4c	-0.0039014397
212	0xbcd9b030	-0.02657327
213	0xbaeef164	-0.0018229899
214	0x3d91e8b5	0.071244635
215	0xbbc3b643	-0.005972655
216	0x3bc918eb	0.0061370037
217	0x3d113683	0.035452377
218	0xbd77b980	-0.06047964
219	0x3c3bb7d8	0.011457406
220	0x3c0d368f	0.008618965
221	0xbd21ffd8	-0.039550632
222	0xbc41ceb6	-0.011829069
223	0xbdd610fd	-0.10452459
224	0xbd99514e	-0.07486211
225	0x3dbe7627	0.092998795
226	0x3d9517b3	0.07279911
227	0x3dd4ea6e	0.103962764
228	0xbd0a850f	-0.0338183
229	0x3d7f546f	0.06233638
230	0xbdaeab3b	-0.08528753
231	0x3bfa10ed	0.0076314122
232	0xbd16b2c2	-0.03679157
233	0xbc22f64a	-0.009946415
234	0xbc84749e	-0.016168889
235	0xbc0e63b5	-0.008690764
236	0x3d3605b8	0.044439048
237	0x3b034fe5	0.0020036635
238	0x3cbd9546	0.023142468
239	0x3d963c43	0.07335713
240	0xbd6e42d8	-0.058169216
241	0x3d89f5ea	0.067363575
242	0x3d8cb64b	0.06870707
243	0xbb91c148	-0.0044480897
244	0x3d040517	0.032231417
245	0xbd091796	-0.03346976
246	0xbbe0a0c1	-0.006855101
247	0x3d28238a	0.041049518
248	0xbd1d1803	-0.038352977
249	0xba83e24e	-0.0010061951
250	0x3d893d5b	0.06701156
251	0xbd2f6ef9	-0.04283044
252	0xbcfeef74	-0.03112004
253	0x3e11d027	0.1423956
254	0x3d0bcfcb	0.034133714
255	0x3ce0640a	0.027391452

conv3.bias f4 [128]
0	0xbd8fc89f	-0.07020687
1	0xbe87bcc6	-0.2651121
2	0xbd166748	-0.03671959
3	0xbd37b3dd	-0.044849265
4	0xbe2a2d62	-0.16618875
5	0xbe102074	-0.1407488
6	0xbda95c5c	-0.08269569
7	0xbf123bfe	-0.5712279
8	0xbc42b2dc	-0.011883464
9	0xbeaf3a80	-0.3422432
10	0xbdd801a2	-0.105471864
11	0xbdb4cce4	-0.08828142
12	0xbd8fc32b	-0.07019647
13	0x3ebc4670	0.3677249
14	0xbe35b0b4	-0.17743188
15	0xbe3bc063	-0.18335108
16	0xbda1a116	-0.07892053
17	0xbe3c7ca9	-0.18406929
18	0xbe6a53bb	-0.22883503
19	0xbc9028e4	-0.017597623
20	0xbd988afa	-0.07448383
21	0xbe1ed74e	-0.1551182
22	0xbe84a965	-0.25910488
23	0xbc881ef8	-0.01661633
24	0xbd4b020d	-0.049562503
25	0xbe20c170	-0.1569879
26	0xbe0183fa	-0.12648001
27	0xbe6a670d	-0.22890873
28	0xbd67f46b	-0.05662958
29	0xbdd36b87	-0.103232436
30	0xbdcda4a0	-0.10041165
31	0xbe0eeb75	-0.13957007
32	0xbbf13f9c	-0.007362319
33	0x3d8154d0	0.06315005
34	0xbdd7df2f	-0.10540616
35	0xbe37c281	-0.17945291
36	0xbdb9f2bc	-0.09079501
37	0x3cac4864	0.021030612
38	0xbe0535ff	-0.13008879
39	0xbe06b298	-0.13154066
40	0xbd9b3fcb	-0.07580527
41	0xbeb0e4f3	-0.34549674
42	0x3c89e16a	0.016831119
43	0xbe30cdd1	-0.17266013
44	0xbd2d32ba	-0.042284705
45	0xbd9e0d8f	-0.0771743
46	0xbe4364b7	-0.19081388
47	0xbdc51478	-0.09623045
48	0x3e38b1bd	0.18036552
49	0xbe95fe99	-0.29295805
50	0x3c7d8f0a	0.015475998
51	0xbdbd55fe	-0.09244917
52	0xbe3971a2	-0.18109754
53	0xbdbbc462	-0.091683164
54	0xbe0cbc8f	-0.13743804
55	0xbd2aaa67	-0.041666415
56	0xbe17d32f	-0.14826654
57	0xbe04ea59	-0.12980022
58	0xbe0f8f41	-0.14019491
59	0xbe1ed08d	-0.15509243
60	0xbe549955	-0.20761617
61	0xbb2e31ff	-0.0026580093
62	0xbe8ab7b4	-0.2709328
63	0xbe09adc2	-0.1344519
64	0xbd352a4f	-0.0442298
65	0xbdb0c4e2	-0.086313024
66	0xbe096f29	-0.1342131
67	0xbe52a662	-0.20571283
68	0xbe6c3c13	-0.23069791
69	0xbd6d2a51	-0.057901684
70	0xbda0aed5	-0.078458466
71	0xbdceafa2	-0.10092093
72	0xbdec32b8	-0.11533111
73	0xbda19060	-0.078888655
74	0xbeda6f59	-0.42663077
75	0xbe0fbf6d	-0.14037867
76	0xbe2d26e0	-0.16909361
77	0xbe83635e	-0.2566175
78	0xbdda50a7	-0.106599145
79	0xbebdbd52	-0.37058502
80	0xbd7693e9	-0.060199652
81	0xbd2302a3	-0.039797436
82	0xbdc9b377	-0.09848683
83	0xbe1c1193	-0.15241079
84	0xbd36ae70	-0.04459995
85	0xbe484b25	-0.19559915
86	0xbdf49090	-0.119416356
87	0xbd9fc42f	-0.07801091
88	0xbdc2306a	-0.094818905
89	0xbd3ef6c6	-0.04662206
90	0xbd9742fb	-0.073858224
91	0xbe20e072	-0.15710619
92	0xbe525a4b	-0.20542257
93	0xbe534f9e	-0.2063584
94	0xbe412cb3	-0.18864708
95	0xbe6e15df	-0.2325053
96	0xbdd8a372	-0.1057805
97	0xbddb760b	-0.10715874
98	0xbd2475d0	-0.040151417
99	0xbe79282d	-0.24331732
100	0xbe2ae3dd	-0.16688485
101	0xbdcd34ee	-0.10019861
102	0xbe18c679	-0.14919461
103	0xbd932414	-0.07184616
104	0xbeb8d8da	-0.36102945
105	0xbdb8c023	-0.09021022
106	0xbdef50b9	-0.116853185
107	0xbd6cb564	-0.057790175
108	0xbe3fc146	-0.18726072
109	0xbd9e0c67	-0.07717209
110	0xbe202b11	-0.15641429
111	0xbdc1f9b0	-0.09471452
112	0xbf0890e0	-0.5334606
113	0x3ebc1d61	0.36741164
114	0xbe53468c	-0.2063238
115	0xbd133da0	-0.035947442
116	0xbe8b9e82	-0.2726937
117	0xbd66aefe	-0.05631923
118	0xbe1b1e36	-0.15148243
119	0xbdfdd101	-0.1239338
120	0xbe27f056	-0.16400275
121	0xbe0f4574	-0.13991338
122	0xbd1c4854	-0.038154915
123	0xbdbe658e	-0.09296714
124	0xbd8064f7	-0.062692575
125	0xbdd10fdc	-0.10208103
126	0xbe1c610d	-0.15271397
127	0xbd994f87	-0.07485872

p_conv1.weight f4 [4, 128, 1, 1]
0	0xbcdd3d12	-0.02700666
1	0x3ee17991	0.4403806
2	0x3daf68df	0.085649244
3	0xbd6ab888	-0.05730489
4	0xbc43cd87	-0.011950857
5	0x3d1f42c8	0.038882047
6	0xbcc56357	-0.02409522
7	0xbe97d124	-0.2965175
8	0x3d932828	0.071853936
9	0x3f1e698b	0.61879796
10	0x3b880540	0.0041510165
11	0xbb2e6e4c	-0.0026616035
12	0xbec41bb2	-0.3830238
13	0xbbd5f9bd	-0.0065300153
14	0x3e4d3fd9	0.20043887
15	0x3eab7225	0.33485523
16	0x3eafb586	0.3431818
17	0x3e6bfa19	0.23044623
18	0x3c1d4ddd	0.009601084
19	0x3dd37b92	0.103263035
20	0xbccaa225	-0.02473552
21	0xbd181946	-0.037133478
22	0x3d3ee32a	0.04660336
23	0x3d0642af	0.03277844
24	0x3d2e71d5	0.042589027
25	0xbde6c7b4	-0.11268559
26	0x3ebf4677	0.37358448
27	0x3a7469dd	0.0009323636
28	0xbe3820f5	-0.17981322
29	0x3bbac3e0	0.0056996197
30	0xbdb0b511	-0.08628286
31	0xbda31764	-0.07963446
32	0xbb963068	-0.004583407
33	0xba637460	-0.0008676704
34	0x3cadce5d	0.021216566
35	0xbe117306	-0.14204034
36	0xbd38665c	-0.045019493
37	0xbc5eca53	-0.013598043
38	0xbc9b7ce4	-0.01898045
39	0x3e08e5bf	0.13368891
40	0x3de34cb0	0.11098611
41	0xbe17ae91	-0.14812686
42	0xbde722c3	-0.11285927
43	0x3cc7ce0d	0.024390245
44	0x3c803321	0.01564938
45	0xb93c630a	-0.00017965972
46	0x3dcd54ec	0.10025963
47	0x3b9da886	0.0048113493
48	0x3d915f1f	0.07098221
49	0xbe166e83	-0.14690594
50	0x3d1cce74	0.038282827
51	0x3dca1e7d	0.098690964
52	0xbe5d6587	-0.21620761
53	0xbe047664	-0.12935787
54	0xbd482883	-0.04886676
55	0x3e4ac572	0.19801882
56	0x3d9b6587	0.07587724
57	0x3ba0344c	0.004889047
58	0x3d110d05	0.035412807
59	0xbd536ae3	-0.051615607
60	0x3d343b41	0.04400182
61	0xbe2bc705	-0.16775139
62	0x3e1416d3	0.14461832
63	0xbcf8180b	-0.030284902
64	0x3d20a1d0	0.039216816
65	0x3c8abac6	0.016934764
66	0xbd047e3a	-0.03234694
67	0xbd3e6371	-0.046481553
68	0x3eebb5b1	0.46037057
69	0x3e5a44eb	0.21315353
70	0xbd15415b	-0.03643928
71	0xbbfab3b2	-0.007650816
72	0xbd881fcb	-0.06646689
73	0xbd9aacc8	-0.07552487
74	0x3f629285	0.8850482
75	0x3ede230f	0.43386123
76	0x3d88c5df	0.06678366
77	0xbd587bd3	-0.052852463
78	0xbdc8bb01	-0.09801293
79	0xbefc348f	-0.4925885
80	0xbd8d549d	-0.06900904
81	0xbcc2bb00	-0.02377081
82	0x3b480877	0.0030522624
83	0xbe508108	-0.20361722
84	0x3ca03e9e	0.019561108
85	0xbd9e88f8	-0.077409685
86	0xbc1efcd1	-0.009703831
87	0x3e68c147	0.2272998
88	0xbd3722f0	-0.044711053
89	0x3d7df207	0.061998393
90	0x3caddf04	0.021224506
91	0x3baa88bd	0.0052042888
92	0x3bafb15e	0.00536172
93	0x3e6beb7d	0.2303905
94	0x3e5d307f	0.21600531
95	0x3d3efacc	0.046625897
96	0xbc8c89ff	-0.017155645
97	0xbc0509e8	-0.008120038
98	0xbe342184	-0.1759091
99	0x3e5d9f22	0.21642736
100	0x3d1dc747	0.038520124
101	0x3b5d506c	0.003376986
102	0x3d1b0a6b	0.037851732
103	0xbc1a1f4c	-0.009406876
104	0xbe150fcc	-0.14556807
105	0x3cefef2c	0.02928885
106	0xbd9fdfa2	-0.078063264
107	0x3d44c435	0.04803868
108	0x3f13c76d	0.57726175
109	0xbc1ae44d	-0.009453845
110	0xbe5d95f1	-0.2163923
111	0x3de99f5d	0.11407349
112	0x3f8609cb	1.0471739
113	0x3ca7921a	0.020455409
114	0xbd1ecbfa	-0.038768746
115	0x3c2cf6d3	0.010556894
116	0x3e788068	0.24267733
117	0x3dcd464e	0.10023175
118	0xbc5d34fa	-0.0135014
119	0x3dcda24c	0.10040721
120	0x3cea5838	0.02860652
121	0x3e77d80f	0.24203514
122	0xbdf814ac	-0.12113318
123	0x3cef6ef5	0.029227713
124	0xbd34e078	-0.044159383
125	0xbb8eef58	-0.004362028
126	0x3ca3e987	0.020008815
127	0x3e40ea15	0.18839295
128	0x3c370408	0.011170395
129	0x3eb5232f	0.35378405
130	0x3c5cd0f8	0.013477556
131	0x3d0e119e	0.03468477
132	0xbcda3ceb	-0.026640376
133	0x3e2bb509	0.16768278
134	0xbcd0d3f3	-0.02549169
135	0x3ea9447a	0.33060056
136	0x3cf27d57	0.029600782
137	0xbdc846e3	-0.097791456
138	0x3d251682	0.04030467
139	0x3c6cec31	0.014460609
140	0x3db1f9ad	0.086902
141	0xbe236dd7	-0.1595987
142	0x3ddd8a2b	0.10817369
143	0x3c395f46	0.011314219
144	0xbe01a35c	-0.12659973
145	0x3c2ac174	0.010422099
146	0xbd4cabae	-0.049968414
147	0x3c4438cf	0.011976435
148	0xbc864a39	-0.016392814
149	0xba0795bc	-0.00051721535
150	0x3cf981aa	0.030457336
151	0x3c339f9c	0.010963347
152	0xbd1e9074	-0.03871198
153	0x3de7db85	0.11321167
154	0x3ceda057	0.02900712
155	0x3ce97e1d	0.028502518
156	0xbd88bad4	-0.0667626
157	0xbc93daa0	-0.018048584
158	0x3dbbc244	0.091679126
159	0xbd43304f	-0.047653493
160	0x3d93d34b	0.07218035
161	0xbf9ca705	-1.223847
162	0xbdf83bcd	-0.12120781
163	0x3d27319d	0.0408188
164	0x3da6db88	0.08147341
165	0xbdb470fa	-0.08810611
166	0xbc98457f	-0.018587826
167	0xbc12b760	-0.008954853
168	0x3c75b525	0.0149968015
169	0x3c5491a4	0.012974177
170	0x3d33c449	0.043888364
171	0xbde2a01d	-0.110656954
172	0x3c70bae4	0.014692996
173	0x3d0033e9	0.031299505
174	0xbda54fca	-0.08071859
175	0x3d58113c	0.05275081
176	0x3d19f17f	0.037583824
177	0xbd8bd954	-0.068285614
178	0xbdf38034	-0.11889687
179	0x3b856072	0.004070335
180	0x3bb03ff3	0.005378717
181	0xbd895db9	-0.06707329
182	0x3d640bc8	0.055675298
183	0x3cb9bdd3	0.022673523
184	0x3e1dc979	0.15408887
185	0x3d8efdbe	0.06981991
186	0xbcbd9fa0	-0.023147404
187	0xbd8d28b8	-0.06892532
188	0x3de36295	0.111027874
189	0x3e133df4	0.14379102
190	0x3b90ba36	0.0044167293
191	0xbd028bde	-0.03187167
192	0x3c8947c5	0.016757855
193	0xbbccee64	-0.0062540043
194	0x3cbc7500	0.023005009
195	0x3de2755c	0.11057541
196	0xbdf4b09b	-0.11947747
197	0x3e974004	0.29541028
198	0x3d4c90f4	0.049942926
199	0xbcb926e7	-0.022601558
200	0xbde5ef5b	-0.11227294
201	0xbeb8b64c	-0.3607658
202	0xbddbd5ab	-0.10734113
203	0xbce20f35	-0.027595142
204	0x3e63a990	0.22232652
205	0xbd8a3eca	-0.06750257
206	0xbdb71f94	-0.0894157
207	0xbeb80ed3	-0.3594881
208	0xbde55e28	-0.111995995
209	0xbcfae4ab	-0.030626616
210	0x3d343712	0.04399783
211	0x3e33e6e8	0.17568552
212	0xbcb74d5f	-0.02237576
213	0xbe582d9f	-0.21111153
214	0x3b9a931a	0.004717243
215	0x3ef54c14	0.47909606
216	0x3c45a774	0.01206385
217	0x3d9dc79a	0.077040866
218	0x3de39904	0.1111317
219	0xbd1b4884	-0.037910953
220	0xbcffda4c	-0.031232022
221	0xbe03a06b	-0.12854163
222	0x3e65bb54	0.22434741
223	0xbd726c93	-0.059185576
224	0xbc18ac98	-0.009318493
225	0xbb7f9a41	-0.0039001855
226	0x3dc56332	0.09638061
227	0xbde2a09b	-0.11065789
228	0xbd792ad8	-0.060831875
229	0xbc699a1f	-0.014257937
230	0x3c79dcaf	0.015250369
231	0x3cdba650	0.026812702
232	0x3e996c11	0.2996526
233	0x3db4da22	0.08830668
234	0x3d89262a	0.06696732
235	0x3e1c495c	0.1526236
236	0x3e911cfe	0.28342432
237	0xbd796aed	-0.060892988
238	0xbd67160e	-0.056417517
239	0x3d6c3c92	0.05767495
240	0xbea1d0f8	-0.31604743
241	0x3f91d418	1.1392851
242	0x3cb2e605	0.021838197
243	0x35a1da02	1.2058883e-06
244	0x3dcd59e9	0.100269146
245	0xbdd20973	-0.102557085
246	0x3e64e15b	0.22351591
247	0x3d1d28c8	0.03836897
248	0xbbd23150	-0.00641457
249	0x3a13584c	0.0005620762
250	0xbdbb1b18	-0.09136027
251	0xbd1e3fa9	-0.03863493
252	0xbd06806d	-0.03283732
253	0xbc592803	-0.013254168
254	0xbcd22d94	-0.025656499
255	0xbca53ae0	-0.020169675

p_conv1.bias f4 [4]
0	0xbef617ba	-0.48064977
1	0x3e8d18fe	0.2755813
2	0xbed9d2ad	-0.42543545
3	0x3c254033	0.010086107

p_fc1.weight f4 [81, 324]
0	0x3c69512b	0.014240543
1	0xbb3d759e	-0.0028909217
2	0x3bbfb424	0.005850332
3	0x3c5f2dc4	0.013621751
4	0xbc7fa3cc	-0.015603017
5	0xbd2294f0	-0.03969282
6	0xbc66f4fc	-0.014096495
7	0x3d57769a	0.05260334
8	0x3b824fef	0.003976814
9	0x3cb28488	0.021791711
10	0xbbf3aab4	-0.007436121
11	0xbc7f022c	-0.015564483
12	0xbd02528f	-0.031817015
13	0xbd565caa	-0.052334465
14	0xbd27b8d0	-0.040947735
15	0xbd67781a	-0.056511022
16	0xbc21b20a	-0.009869108
17	0xbcd6800d	-0.026184106
18	0x3c914c89	0.01773669
19	0xb932c8e1	-0.00017050236
20	0xbc1be7fc	-0.009515759
21	0x3cd52452	0.026018295
22	0x3d13ec11	0.036113802
23	0xbb4bcb46	-0.0031096502
24	0x3c300cf7	0.010745279
25	0x3d618031	0.055053893
26	0x3a06fedb	0.0005149671
27	0x3d10b7e6	0.03533163
28	0xbd02405f	-0.03179967
29	0x3d23ba5e	0.039972655
30	0x3d40f178	0.047105283
31	0x3b61ab79	0.003443448
32	0x3d9a1e48	0.07525307
33	0x3d13e2f3	0.036105108
34	0xbcbbd14e	-0.022926953
35	0xbc981a7e	-0.01856732
36	0xbd85c47e	-0.065316185
37	0xbd01d7d7	-0.03169998
38	0xbc883258	-0.016625568
39	0x3dbfcb45	0.093649425
40	0x3d4a58d7	0.04940113
41	0xbb104b7b	-0.0022017646
42	0x3cb1395f	0.021633802
43	0xbd07cab6	-0.033152305
44	0xbcd55f25	-0.026046345
45	0x3c1a396d	0.009413105
46	0xb886513e	-6.4047505e-05
47	0x3d282576	0.04105135
48	0xbb8373be	-0.0040116003
49	0x3d1c00ae	0.038086586
50	0x3db00e5e	0.0859649
51	0x3d42dd09	0.047574077
52	0x3cfd6fd7	0.030937118
53	0xbcd8dd55	-0.026472727
54	0xbc81e655	-0.015856901
55	0xbde86e72	-0.11349191
56	0xbd521e31	-0.051298324
57	0x3e213e77	0.15746485
58	0x3ce87ac1	0.028378846
59	0x3d0bdbe1	0.03414524
60	0xbca17b68	-0.019712165
61	0xbc8e9024	-0.017402716
62	0xbcee97a5	-0.029125044
63	0x3ddb93f2	0.10721578
64	0x3d797b30	0.060908496
65	0x3e7ebda0	0.24877024
66	0x3c1ed8fb	0.009695287
67	0x3d005139	0.03132746
68	0xbca45725	-0.020061085
69	0x3d0e353d	0.03471874
70	0x3b280e00	0.002564311
71	0xbc9f611c	-0.019455485
72	0x3d78136f	0.06056541
73	0x3e5fb4bd	0.2184629
74	0xbcb8110f	-0.022469072
75	0xbd843dc5	-0.06457094
76	0x3bf4cc97	0.007470678
77	0x3c9f4aaf	0.019444792
78	0xbcaa0e21	-0.02075869
79	0x3d4f9f14	0.050688818
80	0xbd52fdba	-0.051511504
81	0xbbd53a24	-0.006507175
82	0x3c2afdce	0.010436488
83	0xbb1bca43	-0.002377168
84	0xbcfd8159	-0.030945467
85	0xbad4d8b8	-0.0016238904
86	0xbc17e12b	-0.009269993
87	0x3c81888e	0.015812185
88	0x3bdda0d3	0.0067635565
89	0x3cad509d	0.021156603
90	0xbb4444a8	-0.002994815
91	0xbbc55bcc	-0.006022906
92	0xbd12055a	-0.035649635
93	0x3bf547a7	0.0074853483
94	0x3d0dff8b	0.034667533
95	0xbbffd69f	-0.0078075672
96	0xbd866a0c	-0.065631956
97	0x3c713bba	0.014723713
98	0x3b46ef94	0.0030355202
99	0x3d130414	0.03589256
100	0xbca40104	-0.020020016
101	0x3c8fc5a5	0.017550299
102	0xbc650dd8	-0.013980351
103	0xbcf8f823	-0.030391758
104	0x3c41b3f6	0.011822691
105	0x3c5469ea	0.012964705
106	0xbc13c8cf	-0.0090200445
107	0x3d1d656f	0.038426813
108	0x3d71da07	0.059045818
109	0x3cf53c10	0.029935867
110	0xbd0cd62f	-0.03438395
111	0xbcf66476	-0.0300772
112	0xbdef58fd	-0.11686895
113	0xbc9428d0	-0.018085867
114	0x3cb3510c	0.021889232
115	0x3c679d9a	0.014136696
116	0x3cba9328	0.022775248
117	0x3dafd7fc	0.085861176
118	0xbc38f838	-0.011289649
119	0xbc9bd14f	-0.019020705
120	0xbd4a3d1c	-0.049374685
121	0xbc35426a	-0.011063198
122	0xbc14121f	-0.0090375235
123	0x3c44c7c1	0.012010516
124	0xbbbb28fb	-0.0057116724
125	0x3ccfc4ab	0.025362333
126	0x3dbf61c2	0.09344818
127	0xbbb9fc9b	-0.005675865
128	0x3df31d58	0.11870831
129	0xbd1d5be0	-0.038417697
130	0xbd014d23	-0.031567704
131	0xbad79d5c	-0.0016450095
132	0xbc65d79e	-0.014028458
133	0xba46753b	-0.0007570569
134	0x3d022e37	0.031782355
135	0x3dc6c6a9	0.0970586
136	0x3e4faa1d	0.20279737
137	0xbd1047cd	-0.035224725
138	0xbcc45628	-0.023966864
139	0x3d12b8d8	0.035820812
140	0xbc58fb72	-0.013243543
141	0x3c5f66e5	0.013635372
142	0x3c54a8c5	0.012979691
143	0xba503bff	-0.00079435104
144	0xbfa5727f	-1.2925566
145	0x3e1149a7	0.14188252
146	0x3e1cc651	0.15310027
147	0x3e011bf2	0.12608317
148	0x3d510c71	0.051037256
149	0x3cbd6be5	0.023122737
150	0xbc3ea2c5	-0.011635487
151	0xbb0fc443	-0.002193705
152	0xbc5d12ec	-0.013493281
153	0xbb6cd28e	-0.0036136243
154	0xbc769710	-0.015050665
155	0xbd6ff398	-0.05858192
156	0xbd1ba874	-0.038002446
157	0xbcbcf084	-0.023063906
158	0xbcd05366	-0.025430392
159	0xbc37f818	-0.011228584
160	0x3c5589ba	0.013033325
161	0x3bd44c11	0.0064787944
162	0xbcffdbc0	-0.031232715
163	0xb9a0d987	-0.0003067965
164	0x3c2dd1fb	0.010609145
165	0x3c3f0814	0.011659641
166	0x3c8e2b69	0.017354684
167	0x3d359196	0.044328295
168	0x3c0120b2	0.00788133
169	0x3ca3560a	0.019938488
170	0x3db189b1	0.08668841
171	0x3c120323	0.008911881
172	0x3be0a81f	0.006855979
173	0xbd7124bf	-0.058872934
174	0xbd10833f	-0.035281416
175	0xbd0ee597	-0.034886923
176	0xbd04962f	-0.03236979
177	0xbc757c74	-0.014983285
178	0xbcaa622d	-0.020798767
179	0xbc7c4943	-0.015398326
180	0xbcd9d6ee	-0.026591744
181	0xbca2834a	-0.019837994
182	0x3cb32ab4	0.021870948
183	0x3d0090fa	0.03138826
184	0xbc19d3cd	-0.009388876
185	0x3c65d0c3	0.014026823
186	0x3ba4e3e4	0.0050320495
187	0xbb725b0b	-0.0036980535
188	0xbd06380c	-0.032768294
189	0xbbe57474	-0.0070024077
190	0xbcb266b6	-0.021777492
191	0x3bb28c01	0.0054488187
192	0x3c8f5656	0.017497223
193	0x3cf26cb3	0.029592847
194	0xbbfd226d	-0.007725051
195	0xb90424d0	-0.00012602215
196	0xbcc930ce	-0.024559405
197	0xbc8c57aa	-0.017131645
198	0xbc2a8e03	-0.010409835
199	0x3b58d18c	0.0033083884
200	0x3cf58116	0.02996878
201	0xbdb33550	-0.08750403
202	0x3da10262	0.078617826
203	0x3ca6ed68	0.020376876
204	0xbcf1d543	-0.029520636
205	0xbd9c18dc	-0.07621929
206	0x3b6341cd	0.0034676671
207	0xbc947da9	-0.018126326
208	0xbc66c4ce	-0.014085008
209	0x3eba6325	0.36403766
210	0xbd0353d3	-0.032062363
211	0x3c2757f3	0.01021384
212	0x3c0f86bf	0.008760153
213	0xbcf4e049	-0.029892104
214	0xbd4bd685	-0.04976513
215	0xbcb20a8b	-0.021733543
216	0xbd28febb	-0.041258555
217	0x3e9c5f63	0.30541524
218	0xbdaf03b4	-0.08545628
219	0x3c657b67	0.014006472
220	0xba52c4a4	-0.0008040166
221	0x3cdcf3ae	0.026971664
222	0xbc06c0c1	-0.008224667
223	0xbd3050a1	-0.043045644
224	0x3d2c65bd	0.042089213
225	0x3e25005c	0.16113418
226	0x3bf150f6	0.0073643876
227	0xbd82735f	-0.063696615
228	0xbd1e3451	-0.03862411
229	0x3c60f797	0.013730905
230	0x3d6431f4	0.0557117
231	0x3b1238ed	0.0022311762
232	0xbbc432ab	-0.0059874854
233	0xbd21f06c	-0.039535925
234	0xbcadc330	-0.021211237
235	0xbcf691ad	-0.03009876
236	0xbc184d01	-0.009295703
237	0xbcca40f9	-0.024689185
238	0xbbe3aaa2	-0.0069478313
239	0x3ce0cb99	0.027440833
240	0xbc11ae8d	-0.008891714
241	0xbc0ae44f	-0.008477285
242	0x3c5507bb	0.013002331
243	0xbcb62330	-0.022233576
244	0xbabc91e0	-0.0014386736
245	0xbca3b662	-0.019984428
246	0x3b58e57c	0.0033095768
247	0xbcea9e1e	-0.02863985
248	0xbd608448	-0.054813653
249	0xbd014c31	-0.031566802
250	0x3ced399b	0.028958132
251	0x3a7592c6	0.0009367879
252	0x3c23f4d8	0.010007106
253	0x3b730dfc	0.0037087193
254	0xbc378b1c	-0.0112026
255	0xbd6ec4d0	-0.058293164

p_fc1.bias f4 [81]
0	0xbd738921	-0.05945695
1	0xbd779693	-0.060446333
2	0xbd969763	-0.073530935
3	0xbd96af7c	-0.0735769
4	0xbdc021d5	-0.09381453
5	0xbd9c53d7	-0.07633179
6	0xbd513b77	-0.0510821
7	0xbd4bc7b6	-0.049751006
8	0xbd5ddfb3	-0.054168414
9	0xbd4335c8	-0.04765871
10	0xbd012591	-0.031529967
11	0xbd5a7711	-0.053336207
12	0xbd6e0134	-0.058106616
13	0x3d62d3a0	0.055377603
14	0xbcdb66de	-0.02678245
15	0xbd038658	-0.032110542
16	0xbcc78a0c	-0.024357818
17	0xbd26b89a	-0.040703394
18	0xbd3d0d05	-0.046154995
19	0xbd1c7c7a	-0.038204648
20	0xbd411d83	-0.047147285
21	0x3d5dc825	0.05414595
22	0x3e0b2dda	0.1359171
23	0x3dbcf082	0.09225561
24	0xbd19d633	-0.037557792
25	0xbcd04ced	-0.025427306
26	0xbd49a770	-0.049231946
27	0xbd517c4b	-0.051143926
28	0xbcdb626b	-0.026780328
29	0x3dd30155	0.103029884
30	0x3e0de352	0.13856247
31	0x3e170413	0.14747648
32	0x3e093e7f	0.13402747
33	0x3dfe2462	0.12409283
34	0xbd204c81	-0.03913546
35	0xbd8375f2	-0.06418981
36	0xbd247802	-0.04015351
37	0x3dafab5e	0.085776076
38	0x3e051397	0.12995754
39	0x3e45017e	0.1923885
40	0xbd3d41a6	-0.046205185
41	0x3e3ea877	0.18618952
42	0x3dffc393	0.12488475
43	0x3dd58d0b	0.104272924
44	0xbd68de8f	-0.056852873
45	0xbd1a4f19	-0.03767309
46	0xbd251aec	-0.040308878
47	0x3dbba8ec	0.09163079
48	0x3ddab88d	0.106797315
49	0x3e15c5f3	0.14626293
50	0x3debee4b	0.1152006
51	0x3ddbb6ca	0.107282236
52	0xbd0b1a29	-0.033960495
53	0xbd0b50df	-0.03401267
54	0xbd144f37	-0.036208358
55	0xbc315e7c	-0.0108257495
56	0xbd6ac904	-0.05732061
57	0x3ded10a2	0.11575438
58	0x3db8767b	0.09006973
59	0x3deaafa4	0.11459282
60	0xbd2fb506	-0.042897247
61	0xbc63dca2	-0.013907583
62	0xbd6d6b47	-0.057963636
63	0xbd1ea7ea	-0.038734354
64	0xbd4344a3	-0.04767288
65	0xbcc311ea	-0.023812253
66	0xbd654038	-0.055969447
67	0x3d4f4278	0.0506005
68	0xbd648cc2	-0.0557983
69	0xbc7a32f9	-0.015270942
70	0xbd4f5448	-0.050617486
71	0xbd44aa74	-0.04801412
72	0xbd4ca609	-0.04996303
73	0xbcf20b21	-0.029546322
74	0xbcb7ca34	-0.022435285
75	0xbd1844f1	-0.037175123
76	0xbd7e766d	-0.06212466
77	0xbd6fecbd	-0.05857538
78	0xbcf3b67a	-0.029750098
79	0xbd44a869	-0.04801217
80	0xbd67bd9d	-0.056577314

value_conv1.weight f4 [2, 128, 1, 1]
0	0x3e4fdf27	0.2029997
1	0x3eded57e	0.43522257
2	0xbe27474b	-0.1633579
3	0xbeedd181	-0.464489
4	0x3e6115b3	0.21980934
5	0x3e60d499	0.219561
6	0xbec64ce8	-0.3873055
7	0x3ea1a17c	0.31568515
8	0xbe9a4581	-0.30131152
9	0x3b7a1c2f	0.0038163771
10	0xbf053358	-0.5203147
11	0x3e75bc70	0.23997664
12	0x3e6b0d31	0.22954251
13	0xbea537ce	-0.32269138
14	0x3eab1671	0.3341556
15	0x3e64a880	0.22329903
16	0x3c993640	0.018702626
17	0xbe9c911c	-0.3057946
18	0x3e27ad27	0.16374646
19	0xbe5d6937	-0.21622168
20	0xbeae69e8	-0.34065175
21	0xbeee35af	-0.46525332
22	0x3e6ff9a6	0.23435077
23	0xbecd50a0	-0.40100574
24	0x3e79040d	0.24317952
25	0xbe980a2f	-0.2969527
26	0x3e18f8c7	0.14938651
27	0xbea1efeb	-0.31628355
28	0xbe5be0f0	-0.21472526
29	0xbed63386	-0.41836184
30	0x3ebfb0c1	0.3743954
31	0x3eb1ad72	0.3470264
32	0xbeb62fcf	-0.3558335
33	0x3dac5709	0.08415038
34	0x3c8a674e	0.016894963
35	0xbe042391	-0.12904193
36	0xbddbccd7	-0.107324295
37	0x3d04969b	0.03237019
38	0xbef18ae3	-0.47176275
39	0x3e8f6abc	0.2801112
40	0x3dda8dce	0.10671578
41	0x3ef7688c	0.4832195
42	0xbedd2823	-0.43194684
43	0xbe94ba24	-0.29048264
44	0xbeed3418	-0.46328807
45	0xbe937207	-0.28797933
46	0xbe9cc9a4	-0.3062259
47	0x3e5256be	0.20540902
48	0x3d3afcca	0.045651235
49	0x3e943908	0.2894976
50	0x3e7668f3	0.24063472
51	0x3e3d1b3d	0.18467422
52	0x3ec191c3	0.3780652
53	0x3e0a5147	0.13507567
54	0xbe81dd19	-0.25363997
55	0x3e49a846	0.19693097
56	0xbeb033fc	-0.3441466
57	0x3e8dd735	0.27703252
58	0x3e6de800	0.23233032
59	0xbec51efc	-0.38500202
60	0x3e87248c	0.2639507
61	0x3e31ce32	0.17363814
62	0x3e08c59f	0.13356636
63	0xbdfa7f9d	-0.122313716
64	0xbd1944e0	-0.0374192
65	0x3d26d52a	0.040730633
66	0xbe98b416	-0.29824895
67	0x3e605128	0.21905959
68	0x3e12c3e2	0.14332536
69	0x3dfde19c	0.12396547
70	0xbd4621bc	-0.048372015
71	0x3e2c47c5	0.16824253
72	0xbe70d35c	-0.23518127
73	0x3e47c0e3	0.19507174
74	0x3e3e5b26	0.18589458
75	0xbe4a94f8	-0.1978339
76	0xbc57381b	-0.013135935
77	0x3ef74e59	0.48301962
78	0xbed9106f	-0.4239535
79	0xbedae95b	-0.4275616
80	0xbe8aaf50	-0.27086878
81	0x3e2a0507	0.1660348
82	0x3e845eb2	0.25853497
83	0x3ee30e19	0.44346693
84	0xbecffbf0	-0.406219
85	0x3e2a03b7	0.1660298
86	0xbe3cb017	-0.18426548
87	0x3f19aad6	0.600263
88	0x3d44397f	0.047906395
89	0xbee19b04	-0.4406358
90	0x3d6d8e3f	0.057996985
91	0xbea6a80b	-0.32550082
92	0xbc92cdd8	-0.01792042
93	0x3e17d20c	0.1482622
94	0xbe414462	-0.18873742
95	0x3e951508	0.29117608
96	0xbf0eb720	-0.55748177
97	0xbeec1268	-0.46107793
98	0xbe7844c1	-0.24244978
99	0xbe1f3cf4	-0.15550596
100	0xbed0aa8e	-0.40755123
101	0xbde11af4	-0.10991469
102	0x3dfee0ae	0.12445198
103	0xbeb23ec8	-0.34813523
104	0x3efc6123	0.4929286
105	0x3e276082	0.16345409
106	0xbed6c4f6	-0.41947144
107	0x3ea535c8	0.32267594
108	0x3cee6cad	0.029104555
109	0x3e9c106b	0.30481276
110	0xbef7918f	-0.4835324
111	0xbdc9e6f1	-0.09858502
112	0x3ecc3ccc	0.39890134
113	0x3c03409d	0.0080110105
114	0x3ec7751b	0.38956532
115	0xbcc9429f	-0.0245679
116	0x3eb9f189	0.3631709
117	0xbedbebe4	-0.42953408
118	0x3e81d782	0.25359732
119	0x3d221746	0.039572977
120	0x3c94c79e	0.018161591
121	0x3e896222	0.26832682
122	0xbee621ef	-0.44947764
123	0xbec8a1f4	-0.3918606
124	0xbed6f591	-0.41984227
125	0xbef7b9af	-0.48383853
126	0xbe6febf6	-0.23429856
127	0xbeca0f52	-0.39464813
128	0x3eb42aa4	0.35188782
129	0x3e83817b	0.25684723
130	0xbec195d1	-0.37809613
131	0xbcae7cf9	-0.021299826
132	0xbe75a2dc	-0.23987907
133	0x3e537fdc	0.20654243
134	0x3e3717ca	0.17880169
135	0x3e380cd2	0.1797364
136	0x3e788c72	0.24272326
137	0xbcfbfdf8	-0.03076075
138	0xbdca8fac	-0.098906845
139	0x3e65c3ef	0.22438024
140	0xbe686de2	-0.22698167
141	0xbd901b62	-0.07036473
142	0xbea3afb8	-0.3197
143	0xbe8e65d6	-0.2781207
144	0xbe8115f2	-0.25212055
145	0x3ddcea8b	0.10786923
146	0xbef374f0	-0.47550154
147	0xbe417bde	-0.18894908
148	0xbe5fb68a	-0.21846977
149	0x3b82c99a	0.003991318
150	0xbf0548d7	-0.5206427
151	0x3e622dce	0.22087786
152	0x3ed808ed	0.4219431
153	0x3ed809f6	0.421951
154	0xbeb3cb23	-0.3511592
155	0x3ea7dd69	0.3278611
156	0xbe94cd66	-0.29062957
157	0x3dd9e0fc	0.106386155
158	0x3eacc133	0.3374115
159	0xbdd9c1fc	-0.10632703
160	0x3e16328c	0.1466772
161	0x3e2b22bb	0.16712467
162	0xbeafd539	-0.34342363
163	0x3efc0ead	0.49229947
164	0xbec0e571	-0.3767505
165	0xbeb5df9b	-0.3552216
166	0xbb95aeae	-0.0045679426
167	0x3ed81361	0.42202285
168	0xbea2635e	-0.31716436
169	0xbd9621b0	-0.07330644
170	0xbd8f3227	-0.06991988
171	0xbe968e15	-0.29405275
172	0xbd287475	-0.041126687
173	0xbda29b98	-0.079398334
174	0xbe63ed79	-0.22258557
175	0xbeb51eb0	-0.35374975
176	0x3d3d4ed9	0.046217773
177	0xbe66e502	-0.22548297
178	0x3ebd9c90	0.3703351
179	0x3ec25739	0.3795717
180	0xbe80d3b5	-0.2516152
181	0xbe758ad4	-0.2397874
182	0x3e866e7e	0.26256174
183	0x3edd3a48	0.43208528
184	0x3de093b2	0.10965671
185	0xbe9e3c8c	-0.3090557
186	0xbd74c596	-0.059758745
187	0x3eb44356	0.35207623
188	0xbebde069	-0.37085274
189	0x3e5c964d	0.2154171
190	0xbeb23c7c	-0.3481177
191	0xbec7dc32	-0.39035183
192	0xbef78be7	-0.48348925
193	0xbb8694ac	-0.0041070785
194	0xbeaab185	-0.33338562
195	0xbece70b0	-0.4032035
196	0x3d5be1df	0.053682204
197	0x3deafcdf	0.114740126
198	0xbed72afe	-0.42024988
199	0xbec52998	-0.38508296
200	0xbea7d32a	-0.32778293
201	0x3e2b6b51	0.16740157
202	0x3e1bdf24	0.1522184
203	0x3e96dc57	0.2946498
204	0xbec25f9f	-0.37963578
205	0x3e77d747	0.24203216
206	0x3e404bd8	0.18778932
207	0x3ee3e7eb	0.44512877
208	0xbe6b362e	-0.22969887
209	0xbe3b9d7d	-0.18321796
210	0x3ee3e8b2	0.4451347
211	0x3daa85bd	0.0832629
212	0x3e0e5ab5	0.1390179
213	0x3eba986b	0.3644441
214	0xbec72d09	-0.38901547
215	0xbec71ee6	-0.3889076
216	0xbe85c729	-0.2612851
217	0x3dec2b60	0.115317106
218	0xbe98af9f	-0.29821488
219	0xbe9cbc69	-0.30612496
220	0xbee7a413	-0.45242366
221	0x3eb30490	0.34964418
222	0xbdd0d4ac	-0.10196814
223	0xbe4d3435	-0.20039447
224	0xbe4ad050	-0.19806027
225	0xbd0a183b	-0.033714514
226	0xbdc541cc	-0.096316904
227	0x3e631610	0.22176385
228	0x3e7236ef	0.23653768
229	0xbe4d9a10	-0.20078301
230	0xbeda98a7	-0.4269459
231	0xbef07be2	-0.46969515
232	0xbd9d9b52	-0.076956406
233	0xbedbd361	-0.42934707
234	0x3c596391	0.013268367
235	0x3eadb714	0.3392874
236	0xbe15463a	-0.1457757
237	0x3e948ccc	0.2901367
238	0xbcfb8102	-0.030701164
239	0xbe8ff4f2	-0.28116566
240	0x3dac882d	0.08424411
241	0x3de955ae	0.11393295
242	0xbe8e967e	-0.2784919
243	0x3d3c6080	0.045990467
244	0xbd81adf1	-0.06332005
245	0x3ddbf6fe	0.107404694
246	0xbe675919	-0.22592582
247	0xbe8262f1	-0.2546611
248	0xbef1b04a	-0.4720481
249	0xbdea4ef2	-0.11440839
250	0x3d308094	0.04309137
251	0x3e00851a	0.12550774
252	0xbd661569	-0.056172762
253	0x3e11c509	0.14235319
254	0xbed0e4cc	-0.40799558
255	0x3e1ec9a8	0.15506613

value_conv1.bias f4 [2]
0	0x3e30dfdb	0.17272894
1	0x3e6443b4	0.22291452
