model/cnn/9x9/1pc/_9.pt (torch_old, 526869 bytes, 15 tensors)

conv1.weight f4 [32, 4, 3, 3]
-0.11280494 0.4079335 -0.047673464 -0.15361704 0.300584 -0.17925131 -0.13659896 0.7781932
-0.057704426 -0.09578253 -0.40026176 -0.06750071 -0.057559483 -0.41146904 -0.0696717 -0.06988882
-0.21089016 -0.013047981 0.16424422 0.1781969 0.10284438 0.084061325 0.12898424 0.009220598
0.28559622 0.23121344 0.18338197 0.035316907 0.07394915 -0.039799187 -0.13522884 0.024954475
-0.03741569 -0.10793733 0.11092902 0.03232486 0.4130745 0.15194507 0.56638235 0.05280894
-0.021091856 -0.005676548 0.3759643 0.08436026 0.41145307 -0.047535338 -0.021580903 -0.0547781
-0.08196151 0.067841575 -0.05040838 -0.017768063 -0.053408097 -0.04204504 0.1907229 0.15929282
0.15446883 0.09073271 0.26191297 0.18597025 0.15065031 0.26542398 0.17673159 -0.08672054
-0.07466022 -0.052974287 -0.07262564 -0.20099239 -0.08339602 -0.16858423 -0.14996971 -0.21390796
0.02278074 -0.077853926 0.062402926 -0.06601607 -0.010818613 -0.018054077 -0.0809943 0.01267379
0.0054271263 0.061240382 -0.011768997 0.06653584 -0.26447484 -0.044094637 -0.16946448 -0.13327469
1.106009 -0.086389326 0.026763067 0.118323945 0.005865344 -0.026241414 0.051284045 -0.051120598
0.009141366 0.19325246 0.0013856463 -0.10571768 0.0319564 0.03978694 -0.08138357 0.06929456
-0.048703685 0.049627163 0.13718045 -0.05076633 0.6075621 0.2615513 0.7626144 0.2683752
0.19175647 0.19604783 0.5027433 0.22822426 0.5007301 -0.48347414 -0.055848166 -0.4183098
-0.032726657 -0.46968034 -0.04407254 -0.4368174 -0.036358014 -0.37215525 0.26941437 0.09888004
0.23270443 0.06243181 0.2488872 0.12463732 0.2874745 0.006093257 0.19947408 0.05526756
0.037205774 0.018005956 -0.04704894 -0.05028686 0.007949172 0.119300395 0.13246582 0.053650502
0.00020040105 -0.04730162 -0.02706391 -0.026707273 -0.09271036 0.010020878 0.4871779 0.48736814
0.4081365 0.0042327517 0.024675582 0.0027517942 0.017225912 -0.029195553 0.039901473 -0.6713835
-0.49488422 -0.7356823 -0.02638085 -0.06200304 -0.055643544 0.08371061 0.030931335 0.08049621
0.3601596 0.123094134 0.25482357 0.04217047 -0.084370494 0.052007403 0.17009662 0.05204813
0.24317595 -0.17467286 -0.1934827 -0.12125067 -0.1336185 0.01005379 -0.04907217 -0.1809786
-0.26289555 -0.04556418 -0.015373415 -0.35974672 -0.24627237 -0.11063628 0.050809585 -0.3099409
0.13052239 0.40069294 0.0055634626 0.73466605 -0.0070509035 -0.026072035 -0.08560074 0.09581951
0.119436786 -0.057404287 -0.1863515 0.099369034 -0.48051098 -0.21328284 0.10268832 0.015604103
0.10771008 -0.02668565 0.076912776 -0.12504771 0.091561615 -0.076909065 0.02291295 0.16272739
-0.2081772 -0.17189613 -0.34738472 -0.08763678 -0.5904091 -0.13304342 -0.14435777 -0.14668944
-0.21719964 0.23810129 -0.086667314 0.34594733 -0.050974865 0.06051765 0.017049413 0.3953541
-0.07413007 0.33401278 -0.18610749 -0.069849044 -0.2250574 -0.11187155 -0.3649472 -0.17794852
-0.2178518 -0.18303874 -0.23785062 -0.10487275 -0.11880523 -0.10976089 -0.1450559 -0.15922995
-0.14686409 -0.14066583 -0.15167391 -0.13876304 -0.2702624 -0.10715748 -0.20012456 -0.15816748
00000000: 4706 e7bd a9dc d03e 4045 43bd c94d 1dbe
00000010: 25e6 993e a88d 37be 99e0 0bbe ab37 473f
00000020: 7a5b 6cbd a229 c4bd 1cef ccbe d03d 8abd
00000030: 7ec3 6bbd 12ac d2be 09b0 8ebd df21 8fbd
00000040: 97f3 57be 33c7 55bc a32f 283e 4079 363e
00000050: 13a0 d23d 5828 ac3d 7214 043e fe11 173c
00000060: ab39 923e 37c3 6c3e 7cc8 3b3e 76a8 103d
00000070: a772 973d 7904 23bd 6e79 0abe 546d cc3c
00000080: 3241 19bd 3f0e ddbd c12e e33d 1367 043d
00000090: 807e d33e 7d97 1b3e 6ffe 103f 304e 583d
000000a0: d4c8 acbc 5602 babb 657e c03e 12c5 ac3d
000000b0: faa9 d23e 6ab4 42bd 6fca b0bc 005f 60bd
000000c0: 70db a7bd 86f0 8a3d 0479 4ebd 548e 91bc
000000d0: 73c2 5abd 6b37 2cbd dd4c 433e a81d 233e
000000e0: 142d 1e3e 12d2 b93d 7519 863e fc6e 3e3e
000000f0: 1344 1a3e a7e5 873e 20f9 343e 8a9a b1bd
00000100: 75e7 98bd 91fb 58bd c0bc 94bd f3d0 4dbe
00000110: 88cb aabd 58a1 2cbe a991 19be b00a 5bbe
00000120: ad9e ba3c e171 9fbd 369a 7f3d 6f33 87bd
00000130: 8d40 31bc 25e6 93bc 57e0 a5bd baa5 4f3c
00000140: 09d6 b13b 32d7 7a3d c0d2 40bc f143 883d
00000150: 3f69 87be 949c 34bd 1988 2dbe 2979 08be
00000160: b491 8d3f e3ec b0bd 383e db3c d353 f23d
00000170: 1232 c03b 3cf8 d6bc 380f 523d d563 51bd
00000180: abc5 153c f9e3 453e 939e b53a 8382 d8bd
00000190: b7e4 023d a1f7 223d 6eac a6bd 4eea 8d3d
000001a0: 847d 47bd da45 4b3d 0879 0c3e 5bf0 4fbd
000001b0: 3189 1b3f 0dea 853e b33a 433f 7968 893e
000001c0: cf5b 443e c3c0 483e c9b3 003f 9fb3 693e
000001d0: d92f 003f ec89 f7be 0cc1 64bd b42c d6be
000001e0: 630c 06bd f179 f0be 6885 34bd 88a6 dfbe
000001f0: 24ec 14bd 228b bebe aef0 893e 9e81 ca3d
00000200: 124a 6e3e 7fb8 7f3d 49dc 7e3e da41 ff3d
00000210: dc2f 933e f2a9 c73b ef42 4c3e 3d60 623d
00000220: 1565 183d 3a81 933c 64b6 40bd 98f9 4dbd
00000230: 3e3d 023c c453 f43d 1fa5 073e a1c0 5b3d
00000240: bf22 5239 58bf 41bd 22b5 ddbc 36c9 dabc
00000250: eede bdbd 9c2e 243c 626f f93e 5188 f93e
00000260: 44f7 d03e e5b2 8a3b 7224 ca3c 7257 343b
00000270: 5b1d 8d3c 832b efbc ba6f 233d cadf 2bbf
00000280: 7761 fdbe ad55 3cbf a71c d8bc e6f6 7dbd
00000290: 7cea 63bd 7870 ab3d b663 fd3c 32db a43d
000002a0: d766 b83e c718 fc3d 3c78 823e f1ba 2c3d
000002b0: 70ca acbd b705 553d cf2d 2e3e 6c30 553d
000002c0: 1e03 793e 71dd 32be 5420 46be 4552 f8bd
000002d0: 4ad3 08be a7b8 243c e6ff 48bd 7452 39be
000002e0: 3f9a 86be 81a1 3abd c7e0 7bbc b930 b8be
000002f0: d32e 7cbe 4695 e2bd b61d 503d 93b0 9ebe
00000300: a9a7 053e a027 cd3e b54d b63b 1313 3c3f
00000310: 440b e7bb 0595 d5bc 714f afbd 053d c43d
00000320: 469b f43d c220 6bbd edd2 3ebe fe81 cb3d
00000330: 8905 f6be d166 5abe 414e d23d 5aa8 7f3c
00000340: 1a97 dc3d dd9b dabc 7284 9d3d 820c 00be
00000350: a884 bb3d 8082 9dbd f0b3 bb3c 02a2 263e
00000360: 672c 55be 8a05 30be 69dc b1be ea7a b3bd
00000370: 0d25 17bf 893c 08be 86d2 13be c235 16be
00000380: 9569 5ebe d3d0 733e a27e b1bd 0220 b13e
00000390: 05cb 50bd 5be1 773d 36ab 8b3c da6b ca3e
000003a0: 82d1 97bd b903 ab3e f692 3ebe 040d 8fbd
000003b0: 7275 66be e91c e5bd 5cda babe 2338 36be
000003c0: 8b14 5fbe 826e 3bbe 1d8f 73be 86c7 d6bd
000003d0: 2850 f3bd 51ca e0bd 8989 14be 2d0d 23be
000003e0: 8a63 16be b40a 10be 6850 1bbe e617 0ebe
000003f0: d55f 8abe 6275 dbbd 74ed 4cbe a8f6 21be

conv1.bias f4 [32]
-0.14056228 0.042376835 -0.1903051 -0.23245876 -0.21232983 -0.25240284 0.0060228305 0.4443647
-0.2222968 -0.0518209 -0.20710199 -0.120444305 -0.29816598 -0.3303606 -0.15395917 -0.10220922
-0.30136418 -0.5495653 0.07213504 -0.4196134 -0.105474874 -0.036595803 0.17692629 -0.12711331
-0.012983461 -0.23452695 -0.27575293 -0.3918337 0.47523397 -0.19661215 -0.3330873 -0.15561807
00000000: 8fef 0fbe 5593 2d3d 57df 42be ab09 6ebe
00000010: fe6c 59be f23a 81be 2a5b c53b c583 e33e
00000020: c6a1 63be 2742 54bd 8b12 54be 81ab f6bd
00000030: 36a9 98be 0625 a9be 79a7 1dbe 1153 d1bd
00000040: 684c 9abe 50b0 0cbf 89bb 933d 91d7 d6be
00000050: 3603 d8bd 7be5 15bd 2a2c 353e fe29 02be
00000060: 95b8 54bc d527 70be 7d2f 8dbe 6d9e c8be
00000070: de51 f33e b254 49be 6b8a aabe 585a 1fbe

conv2.weight f4 [64, 32, 3, 3]
-0.023647642 -0.015355778 -0.016886387 -0.016105235 0.0333071 -0.024248715 0.0443847 0.0321622
0.009241476 0.015066986 -0.007352743 0.08661332 -0.05749641 0.03634917 0.004494574 -0.0578931
0.037675776 0.04737277 0.2582523 -0.018515421 -0.01152758 -0.008685621 -0.015060347 0.021810967
0.026457574 0.032500476 -0.01790274 -0.10896425 -0.059036538 -0.03709035 0.07839133 -0.03777001
0.011858555 0.016170248 -0.067272864 -0.02720269 -0.03354366 -0.009508749 0.117149316 0.06340457
0.0062836627 -0.037754353 0.040038068 0.0009301833 -0.0054097692 0.035280667 0.15004091 0.018379338
0.027830228 -0.01823331 -0.006186169 0.0121411085 -0.015969988 0.013764259 -0.006134748 0.017002936
0.004408157 0.022987418 -0.023726223 -0.016707836 -0.01823058 0.0211179 -0.002506141 0.011094444
0.0020743767 -0.015795197 0.0023493483 -0.0102096675 -0.020337837 -0.0052456874 -0.002643337 -0.014612667
-0.042071253 -0.05526556 -0.0897022 -0.018366985 -0.04837716 -0.023240441 -0.041868247 -0.05810821
-0.03310688 -0.06690857 -0.008331093 0.08051208 -0.00646424 0.023129078 -0.060499426 0.0022669265
0.1604128 0.03480543 0.028770208 0.04281672 -0.038552716 -0.011361775 -0.02301708 -0.15005304
-0.076054834 -0.1428462 -0.110990874 -0.12398824 -0.13569808 -0.060423534 -0.037099812 -0.06334255
-0.0034808612 -0.036275048 -0.024498845 -0.0021847126 0.33494377 -0.02276304 -0.12929389 -0.14851445
-0.020600557 -0.06534019 -0.02741823 -0.028184157 -0.11043978 -0.03895492 -0.033951297 -0.09044418
-0.04638996 0.022115119 0.000892737 -0.03296209 -0.060363423 -0.01880415 0.050251167 -0.06576191
-0.023219699 -0.08344831 -0.05258392 -0.04502022 -0.058474567 0.0732888 -0.041667856 -0.11386139
-0.0851332 -0.06781761 -0.088790864 -0.051833164 0.07438538 0.009584989 -0.060250286 0.009071257
-0.028571436 -0.055192728 0.026321333 0.02511432 -0.025402838 -0.048693195 -0.07905946 0.001624601
-0.009164077 -0.057528496 -0.090799816 0.01633981 0.012710544 -0.07606972 -0.0067117196 0.023853503
0.07824717 -0.033028986 0.081974775 0.13502868 0.117117904 0.004544768 0.019619284 0.022147583
-0.066752635 -0.016446566 -0.021913003 0.06885549 0.041084524 -0.04351511 -0.09025231 -0.020635389
0.023128364 -0.009399347 -0.0028874604 0.0003907385 0.030056205 0.11591082 0.087678656 -0.03529452
0.026430883 0.18782885 0.017906724 0.026294291 0.16062276 -0.035356678 -0.02143648 0.040828615
0.026215918 0.010861674 0.018957404 0.010819675 0.017703539 0.0017063911 -0.019693576 -0.07460321
-0.11777561 -0.021723516 -0.062438086 -0.09881106 0.007712788 -0.038841225 -0.021192437 -0.078863814
0.072911285 0.12935017 -0.13545997 -0.15844758 -0.1617335 -0.0567176 0.14844994 -0.12672102
0.0036810345 0.1594281 0.0155674275 0.016553 0.07250444 -0.0503698 0.04989998 -0.034154125
-0.04647217 0.040837973 0.16666898 -0.049037687 -0.11235466 -0.04467485 -0.027306007 -0.027908487
-0.058033276 0.0010732746 -0.106502265 -0.030640846 -0.065416135 -0.008598646 -0.033967935 -0.019110957
-0.036659293 -0.022012027 -0.0006212598 0.03657813 0.021139292 -0.074288934 -0.11573679 -0.016532537
0.018769642 -0.043408837 -0.027815513 -0.026581889 -0.00087443047 0.020798445 0.046018444 -0.10718877
00000000: b3b8 c1bc cd96 7bbc 5255 8abc 20ef 83bc
00000010: 076d 083d 3ea5 c6bc bbcc 353d 83bc 033d
00000020: 8f69 173c 85db 763c 47ef f0bb 5362 b13d
00000030: 5b81 6bbd dee2 143d 3847 933b 5121 6dbd
00000040: ea51 1a3d f309 423d a539 843e a7ad 97bc
00000050: 2dde 3cbc 234e 0ebc acbf 76bc eaac b23c
00000060: 8ebd d83c 381f 053d c4a8 92bc a628 dfbd
00000070: 4cd0 71bd 0dec 17bd a28b a03d bab4 1abd
00000080: 624a 423c 7877 843c 5bc6 89bd 2dd8 debc
00000090: 1465 09bd 95ca 1bbc fbeb ef3d 41da 813d
000000a0: 2fe7 cd3b 4fa4 1abd f5fe 233d 8bd7 733a
000000b0: 6f44 b1bb 7682 103d 53a4 193e 4490 963c
000000c0: 38fc e33c 065e 95bc 59b5 cabb 80eb 463c
000000d0: 7ed3 82bc 7d83 613c ff05 c9bb be49 8b3c
000000e0: 4d72 903b 1c50 bc3c 7f5d c2bc dfde 88bc
000000f0: 4c58 95bc 72ff ac3c 123e 24bb 79c5 353c
00000100: 44f2 073b ee64 81bc 86f7 193b 7346 27bc
00000110: 899b a6bc 04e4 abbb d63b 2dbb f869 6fbc
00000120: e852 2cbd 245e 62bd c9b5 b7bd 5c76 96bc
00000130: 2127 46bd bd62 bebc 0a7e 2bbd e002 6ebd
00000140: 149b 07bd 5c07 89bd 237f 08bc 84e3 a43d
00000150: fad1 d3bb 3179 bd3c 3fce 77bd b790 143b
00000160: 4143 243e 2390 0e3d 80af eb3c 9660 2f3d
00000170: 74e9 1dbd bd26 3abc 518e bcbc 81a7 19be
00000180: a3c2 9bbd 4646 12be 2f4f e3bd 8ced fdbd
00000190: 70f4 0abe ab7e 77bd f9f5 17bd bdb9 81bd
000001a0: 291f 64bb 2595 14bd cdb1 c8bc 652d 0fbb
000001b0: c07d ab3e 8e79 babc 9e65 04be 2c14 18be
000001c0: 80c2 a8bc 14d1 85bd 329c e0bc 76e2 e6bc
000001d0: 402e e2bd 328f 1fbd 8410 0bbd cc3a b9bd
000001e0: 6603 3ebd c42a b53c 9106 6a3a 4203 07bd
000001f0: a33f 77bd 290b 9abc 2bd4 4d3d 2eae 86bd
00000200: 3d37 bebc f3e6 aabd 3d62 57bd 1f67 38bd
00000210: 0783 6fbd 7018 963d eaab 2abd 2930 e9bd
00000220: 515a aebd f6e3 8abd fcd7 b5bd 034f 54bd
00000230: 5d57 983d 5c0a 1d3c 01c9 76bd 9c9f 143c
00000240: a50e eabc c511 62bd d69f d73c 8cbc cd3c
00000250: 9d19 d0bc 8472 47bd ede9 a1bd 90f0 d43a
00000260: ed24 16bc 00a3 6bbd 41f5 b9bd 11db 853c
00000270: e33f 503c 71ca 9bbd fced dbbb 6c68 c33c
00000280: 0d40 a03d 6749 07bd 64e2 a73d f544 0a3e
00000290: 83db ef3d 47ec 943b 9fb8 a03c d96e b53c
000002a0: 9bb5 88bd f3ba 86bc e682 b3bc 1b04 8d3d
000002b0: 3f48 283d e63c 32bd 34d6 b8bd 8c0b a9bc
000002c0: b277 bd3c b8ff 19bc 8c3b 3dbb 09dc cc39
000002d0: 6e38 f63c a762 ed3d de90 b33d fd90 10bd
000002e0: 9485 d83c 3556 403e 1fb1 923c 2067 d73c
000002f0: 4b7a 243e 2ad2 10bd 8f9b afbc e83b 273d
00000300: c4c2 d63c 2af5 313c 8f4c 9b3c 0245 313c
00000310: 0307 913c fca8 df3a 6c54 a1bc 91c9 98bd
00000320: 5734 f1bd 84f5 b1bc 14bf 7fbd 745d cabd
00000330: 8ebb fc3b fa17 1fbd c39b adbc 5a83 a1bd
00000340: 8352 953d 5f74 043e 05b6 0abe 1540 22be
00000350: 779d 25be b750 68bd 4303 183e 28c3 01be
00000360: 833d 713b 1f41 233e 860e 7f3c 289a 873c
00000370: 357d 943d 9050 4ebd ec63 4c3d 32e5 0bbd
00000380: 9a59 3ebd b845 273d 46ab 2a3e bedb 48bd
00000390: 331a e6bd fafc 36bd d9b0 dfbc 57a0 e4bc
000003a0: 4db4 6dbd 1fad 8c3a dc1d dabd 8302 fbbc
000003b0: e5f8 85bd 56e1 0cbc f621 0bbd 958e 9cbc
000003c0: 0e28 16bd 9152 b4bc 0adc 22ba f3d2 153d
000003d0: 4f2c ad3c cc24 98bd 6907 edbd 3e6f 87bc
000003e0: cbc2 993c 77cd 31bd 5cdd e3bc 43c2 d9bc
000003f0: 093a 65ba 8061 aa3c d67d 3c3d c985 dbbd

conv2.bias f4 [64]
-0.01860942 -0.58098525 -0.08161021 -0.119253434 -0.2327629 -0.16785185 -0.6081861 0.34727362
0.4866309 -0.3460612 -0.08399042 -0.018038264 -0.29583552 -0.15569678 -0.033761952 -0.12616764
-0.22748521 -0.11571011 -0.78593373 -0.25038004 -0.0032740305 -0.32424635 -0.13785727 -0.19394995
-0.06005664 -0.17681004 -0.12994497 -0.14830403 -0.09410292 -0.0303576 -0.19497561 -0.59574515
-0.15252364 -0.2605652 -0.58856845 -0.2820058 -0.2561922 -0.7293938 -0.15860038 -0.70562696
-0.1981551 -0.2538812 -0.28278068 -0.25357 -0.2723552 -0.17068471 -0.0026810626 -0.24380879
-0.21595788 -0.130294 -0.13809764 -0.54951876 -0.37583175 -0.2175414 -0.22317192 -0.19521011
-0.20465404 -0.34194654 -0.109033905 -0.051526457 -0.13817134 -0.1604802 -0.32460257 -0.10325784
00000000: c872 98bc 73bb 14bf 4123 a7bd 253b f4bd
00000010: 6659 6ebe 5be1 2bbe 16b2 1bbf d9cd b13e
00000020: af27 f93e ef2e b1be 2b03 acbd fbc4 93bc
00000030: c177 97be fa6e 1fbe f949 0abd 1732 01be
00000040: e2f1 68be 6cf9 ecbd f432 49bf d031 80be
00000050: 1e91 56bb 9e03 a6be 752a 0dbe d19a 46be
00000060: f4fd 75bd b10d 35be 4b10 05be 03dd 17be
00000070: 08b9 c0bd 80b0 f8bc b0a7 47be c182 18bf
00000080: 282f 1cbe cd68 85be 6cac 16bf 1063 90be
00000090: a02b 83be 8db9 3abf 2368 22be f8a3 34bf
000000a0: 2ce9 4abe b7fc 81be a1c8 90be edd3 81be
000000b0: 2472 8bbe f9c7 2ebe c4b4 2fbb 03a9 79be
000000c0: 1024 5dbe ca6b 05be 7869 0dbe 43ad 0cbf
000000d0: 056d c0be 2cc3 5ebe 2e87 64be 29e5 47be
000000e0: d490 51be 9e13 afbe 2b4d dfbd 680d 53bd
000000f0: ca7c 0dbe ec54 24be 4f32 a6be d978 d3bd

conv3.weight f4 [128, 64, 3, 3]
-0.019000588 -0.053097337 0.062363207 0.0040533952 -0.0008217822 0.06356115 0.024006804 0.09775465
-0.03939645 -0.04922236 -0.044693936 0.04351318 0.009223645 -0.080116525 -0.046228204 -0.009592732
0.0125627285 0.07602583 -0.026020315 0.019916829 -0.03406501 0.01448067 0.0076926653 -0.007895568
0.09314501 0.092481494 0.011751732 -0.070617 0.051630877 0.0048766606 -0.0632793 0.084162496
-0.014275463 0.08470511 0.039687507 0.0014118092 0.12350437 0.043363895 0.1139718 0.039050892
-0.053095244 -0.030789638 0.04352042 0.009759869 0.068337485 -0.024266234 0.022959508 0.11687228
-0.094538 -0.057169266 -0.03254007 0.074814975 0.110734224 0.049675476 -0.056579757 0.15705879
0.08239835 0.0538358 0.0994735 0.09127681 0.06018365 -0.033492953 0.07730655 -0.18318541
0.09100187 -0.07382529 -0.014263471 -0.065931 -0.039399397 0.017195517 0.0652501 -0.075182274
0.19949922 -0.17672284 -0.07597939 0.0631956 -0.09389759 0.02112185 -0.17938703 -0.22308454
-0.061313346 0.01994018 -0.006915148 -0.006830719 0.027927738 0.02504274 -0.030733416 0.013147333
0.0037669754 -0.008753634 -0.01999483 0.027659846 0.060707755 -0.10684801 0.041715402 -0.025061809
0.050866522 0.013079321 0.12723948 0.035041507 0.015793385 -0.04086188 0.20423593 0.06832885
0.06106574 0.02611802 0.004007688 -0.023354603 0.057344135 -0.07258131 0.024914393 0.024029
0.114368275 0.098435774 -0.028807908 -0.058230285 0.027315877 -0.043603312 0.06629975 -0.080744594
-0.024803873 0.056237217 0.031614017 -0.036551185 0.04188288 -0.020645378 -0.023506612 -0.020116396
-0.03479306 0.07639722 0.060427096 0.018712293 -0.016384864 -0.029587762 0.006968716 0.026946831
0.04349207 0.028463583 -0.056687105 -0.09770445 0.07196078 0.010243582 -0.0049933153 0.036699776
0.013219074 0.11083413 0.12608145 -0.013394821 -0.038120374 0.026544074 0.04147406 0.024602583
0.0041232724 -0.005125152 0.033268824 0.011270563 0.06376044 -0.05058294 -0.020239474 0.06461727
0.014584048 0.034691237 -0.08015524 0.071944594 -0.02101301 -0.067494795 0.073203474 0.028663717
-0.066772275 0.1460791 -0.113947175 0.048989866 -0.025446344 -0.014483537 0.033009384 0.033782523
0.07418935 -0.046381872 -0.066547945 -0.026789237 -0.073241204 0.025177995 -0.08715636 0.018775713
0.098294795 -0.0012025218 0.0111387875 0.07411266 0.06374292 0.014098017 0.110421866 -0.012147498
-0.04870206 -0.0012902239 -0.051505953 -0.031562503 0.042952936 0.044313114 -0.03723519 0.081810065
-0.002333234 -0.05433793 0.00013716839 0.061710406 0.0022488004 -0.063343644 0.05226231 0.035764497
0.06233679 0.00215325 0.09155138 -0.013128182 -0.042223338 0.021331955 0.14418851 -0.031546418
-0.026474072 0.019430108 -0.011346485 -0.016774341 -0.049478125 -0.10150077 -0.07847995 -0.0064042727
-0.034750182 0.024125239 0.06651891 -0.05034141 0.04934874 0.06156791 -0.062404487 0.01738161
0.04002853 0.019140443 -0.06190128 0.09045243 0.023445802 -0.036156483 0.10964937 0.035213605
-0.07044658 0.054633364 0.0953191 -0.0528401 0.09244275 0.0476128 -0.07832036 0.07544562
0.031639256 0.081739806 0.08897632 0.032374553 -0.03874006 0.044730924 -0.020119775 -0.027769117
00000000: 1fa7 9bbc 987c 59bd 9070 7f3d 58d2 843b
00000010: df6c 57ba 592c 823d eba9 c43c 9733 c83d
00000020: 2c5e 21bd 639d 49bd fd10 37bd e03a 323d
00000030: c51e 173c 2214 a4bd c959 3dbd d62a 1dbc
00000040: e7d3 4d3c 6eb3 9b3d 8e28 d5bc 9e28 a33c
00000050: c087 0bbd 5540 6d3c c112 fc3b 6a5c 01bc
00000060: d0c2 be3d f066 bd3d 568a 403c a59f 90bd
00000070: e67a 533d 65cc 9f3b 9498 81bd 635d ac3d
00000080: a2e3 69bc df79 ad3d 5e8f 223d 750c b93a
00000090: dcef fc3d 579e 313d 0c6a e93d d4f3 1f3d
000000a0: 667a 59bd 8d3a fcbc 7842 323d dce7 1f3c
000000b0: 86f4 8b3d fbc9 c6bc 9415 bc3c bc5a ef3d
000000c0: 249d c1bd 522a 6abd bd48 05bd 9838 993d
000000d0: a0c8 e23d 8378 4b3d 2dc0 67bd 05d4 203e
000000e0: 77c0 a83d ee82 5c3d c3b8 cb3d 56ef ba3d
000000f0: 2283 763d e82f 09bd e652 9e3d f594 3bbe
00000100: 305f ba3d b731 97bd 55b1 69bc d506 87bd
00000110: 4361 21bd 9ddd 8c3c d8a1 853d 2af9 99bd
00000120: 8649 4c3e d5f6 34be 159b 9bbd b26c 813d
00000130: 614d c0bd bb07 ad3c 3cb1 37be 4670 64be
00000140: b423 7bbd 9759 a33c 7798 e2bb 39d4 dfbb
00000150: b6c8 e43c 6f26 cd3c a5c4 fbbc e967 573c
00000160: 5cdf 763b 676b 0fbc 33cc a3bc e796 e23c
00000170: b2a8 783d 21d3 dabd c5dd 2a3d 6c4e cdbc
00000180: 6a59 503d a64a 563c 114b 023e af87 0f3d
00000190: 2161 813c c95e 27bd 3923 513e ffef 8b3d
000001a0: 1220 7a3d 75f5 d53c ec52 833b 2752 bfbc
000001b0: afe1 6a3d 83a5 94bd 4519 cc3c 77d8 c43c
000001c0: ea39 ea3d b298 c93d 90fe ebbc e182 6ebd
000001d0: 8cc5 df3c 6399 32bd 2ac8 873d 6c5d a5bd
000001e0: 7e31 cbbc ff58 663d b37d 013d b2b6 15bd
000001f0: 628d 2b3d 7f20 a9bc f090 c0bc 24cb a4bc
00000200: 2b83 0ebd 2576 9c3d 6782 773d 864a 993c
00000210: 8d39 86bc 0962 f2bc d459 e43b 9abf dc3c
00000220: be24 323d 762c e93c bd30 68bd 4519 c8bd
00000230: 2c60 933d b2d4 273c f79e a3bb 8152 163d
00000240: d194 583c 01fd e23d 7f1b 013e f475 5bbc
00000250: 1c24 1cbd f572 d93c b4e0 293d 5b8b c93c
00000260: 841c 873b e4f0 a7bb e444 083d 2ba8 383c
00000270: d594 823d 0f30 4fbd 41cd a5bc 0f56 843d
00000280: eef1 6e3c 6618 0e3d 6e28 a4bd b057 933d
00000290: 7a23 acbc b63a 8abd b4eb 953d 2cd0 ea3c
000002a0: e7bf 88bd c295 153e 235d e9bd 99a9 483d
000002b0: da74 d0bc 5b4c 6dbc d934 073d 8b5f 0a3d
000002c0: 96f0 973d ebfa 3dbd 4a4a 88bd 1a75 dbbc
000002d0: 7cff 95bd 1542 ce3c 097f b2bd 86cf 993c
000002e0: c84e c93d f09d 9dba 767f 363c 61c8 973d
000002f0: a68b 823d 5efb 663c dc24 e23d 4d06 47bc
00000300: d07b 47bd bb1c a9ba e8f7 52bd af47 01bd
00000310: 6bef 2f3d ab81 353d ed83 18bd 098c a73d
00000320: 2ce9 18bb 7391 5ebd dcd4 0f39 0dc4 7c3d
00000330: 9c60 133b 50ba 81bd 0111 563d cb7d 123d
00000340: dd54 7f3d 8a1d 0d3b 4a7f bb3d 9617 57bc
00000350: 61f2 2cbd 5ac0 ae3c 27a6 133e d136 01bd
00000360: 27e0 d8bc e42b 9f3c 9be6 39bc 586a 89bc
00000370: 93a9 4abd a3df cfbd 19ba a0bd efda d1bb
00000380: 3556 0ebd 4ba2 c53c 113b 883d cb32 4ebd
00000390: e821 4a3d a22e 7c3d d99b 7fbd e163 8e3c
000003a0: f5f4 233d 6bcc 9c3c 328c 7dbd 203f b93d
000003b0: 6911 c03c d218 14bd d98f e03d 243c 103d
000003c0: 4c46 90bd 3cc7 5f3d a936 c33d dc6e 58bd
000003d0: a052 bd3d a405 433d 6d66 a0bd 3c83 9a3d
000003e0: 2a98 013d 3367 a73d 3839 b63d 2e9b 043d
000003f0: e6ad 1ebd c637 373d 3ad2 a4bc 0f7c e3bc

conv3.bias f4 [128]
-0.07743772 -0.21684127 -0.0016788758 -0.13097717 -0.19071822 -0.16400133 -0.056966532 -0.59290904
0.011213516 -0.31939098 -0.12777908 -0.13783847 -0.086847395 0.34439185 -0.15898615 -0.19690171
-0.07444529 -0.23137376 -0.24851379 -0.030153465 -0.06822668 -0.16127752 -0.23648602 0.015075739
-0.047480702 -0.16468742 -0.18077366 -0.28728428 -0.024796855 -0.13015334 -0.07128604 -0.13800512
-0.016376436 0.031276383 -0.1430875 -0.20761067 -0.10243253 -0.018561631 -0.20481032 -0.13978945
-0.08009754 -0.3283126 -0.030818379 -0.19362609 -0.10537748 -0.09352089 -0.13263415 -0.15433429
0.14835793 -0.27578646 -0.056252304 -0.15491693 -0.15823309 -0.087537825 -0.15883693 -0.098082006
-0.17799535 -0.15236267 -0.1575899 -0.18940765 -0.24885248 0.007505544 -0.3027668 -0.1641993
-0.080401324 -0.07386162 -0.22491418 -0.27016082 -0.2344223 -0.1251572 -0.054710627 -0.1384498
-0.1288172 -0.07838899 -0.3782854 -0.15567438 -0.16051622 -0.26406518 -0.09870596 -0.28572518
0.018268919 -0.035786334 -0.16275558 -0.15612629 -0.061961915 -0.15933633 -0.15249705 -0.11584108
-0.14262998 -0.08971109 -0.11516798 -0.15931675 -0.21395469 -0.21983886 -0.16187015 -0.25165844
-0.14986867 -0.111390516 -0.044586502 -0.23161398 -0.18054883 -0.1935917 -0.18598777 -0.10154557
-0.34319112 -0.16546065 -0.119097985 -0.11348732 -0.1594735 -0.14517175 -0.18759795 -0.09448101
-0.5327723 0.33849534 -0.19357426 -0.17206411 -0.26053157 -0.10317325 -0.16515262 -0.06644566
-0.19107346 -0.13711749 -0.024323927 -0.099329285 -0.08751427 -0.18237735 -0.18726924 -0.06447591
00000000: ab97 9ebd a30b 5ebe b90d dcba e11e 06be
00000010: a34b 43be f7ef 27be bd55 69bd e3c8 17bf
00000020: e5b8 373c 3787 a3be 85d8 02be 8725 0dbe
00000030: 0cdd b1bd 2154 b03e 44cd 22be 9aa0 49be
00000040: c676 98bd 3eed 6cbe 667a 7ebe 6604 f7bc
00000050: 6eba 8bbd ef25 25be 6429 72be 3b00 773c
00000060: 207b 42bd d2a3 28be bb1c 39be ed16 93be
00000070: c622 cbbc eb46 05be 6afe 91bd 3751 0dbe
00000080: e027 86bc aa1b 003d 8885 12be e497 54be
00000090: 25c8 d1bd 900e 98bc ccb9 51be f724 0fbe
000000a0: 2e0a a4bd 9718 a8be d376 fcbc eb45 46be
000000b0: 26d0 d7bd e187 bfbd 3fd1 07be cf09 1ebe
000000c0: 24eb 173e e233 8dbe d168 66bd 8ba2 1ebe
000000d0: db07 22be 0847 b3bd 26a6 22be 38df c8bd
000000e0: 6a44 36be f604 1cbe 3f5f 21be 14f4 41be
000000f0: 2fd3 7ebe 11f1 f53b 4004 9bbe dc23 28be
00000100: 73a9 a4bd c344 97bd e74f 66be 8552 8abe
00000110: 660c 70be 3629 00be 4018 60bd c9c5 0dbe
00000120: a8e8 03be 688a a0bd a0ae c1be 1b69 1fbe
00000130: 5d5e 24be 8d33 87be 5a26 cabd 924a 92be
00000140: b3a8 953c b194 12bd 66a9 26be 92df 1fbe
00000150: c7cb 7dbd 1029 23be 3028 1cbe 173e edbd
00000160: 980d 12be 73ba b7bd 31dd ebbd ee23 23be
00000170: f016 5bbe 701d 61be 4ac1 25be 60d9 80be
00000180: 2c77 19be b620 e4bd 56a0 36bd 372c 6dbe
00000190: cbe1 38be e73c 46be 9473 3ebe 20f7 cfbd
000001a0: bfb6 afbe 846e 29be a5e9 f3bd 0a6c e8bd
000001b0: 054d 23be e7a7 14be ad19 40be 437f c1bd
000001c0: c463 08bf 434f ad3e 5538 46be 9331 30be
000001d0: 6564 85be 7f4c d3bd c51d 29be aa14 88bd
000001e0: c3a8 43be 8768 0cbe f942 c7bc 276d cbbd
000001f0: ae3a b3bd 21c1 3abe 82c3 3fbe f20b 84bd

p_conv1.weight f4 [4, 128, 1, 1]
0.03539533 0.4205288 0.043114413 -0.019213347 0.0076688253 0.089710824 -0.013373859 -0.31535026
-0.08215197 0.58469284 -0.010712789 -0.058946244 -0.28798673 -0.05834095 0.14795026 0.16804264
0.23019077 0.14899923 -0.0040366803 0.11662223 -0.023382453 -0.06677212 0.05878638 -0.03514383
-0.020635879 -0.14624338 0.19439358 0.0038984942 -0.09358749 0.010138301 -0.05100951 -0.07223937
0.032958906 0.0034552342 -0.072367646 -0.11684522 -0.058552053 -0.01648947 -0.014832859 0.08780764
0.11090061 -0.10494446 -0.092562795 0.020352283 -0.040319137 -0.021632804 0.034226306 0.035458963
0.043250933 -0.06494358 -0.002911857 0.11657778 -0.17116955 -0.121180646 0.055553988 0.22089237
0.07984301 -0.010827786 -0.017217372 -0.0997846 0.01326013 -0.01985356 0.13140684 -0.01405634
-0.030716686 0.014532487 -0.024742495 -0.0326178 0.44423425 0.21079534 -0.0043526446 -0.048545953
-0.058134258 -0.07368141 0.78860545 0.27718115 0.0364357 -0.0034055747 -0.047828507 -0.32614356
-0.08569591 -0.07597474 0.020627724 -0.1146808 0.021481508 0.034626275 -0.00015198285 0.29462102
-0.034600202 0.044494987 0.033181872 0.011870304 0.011081816 0.145657 0.21828005 0.054013696
-0.024789413 0.0009597098 -0.053643566 0.1902308 -1.4806428e-05 0.028514836 0.022923598 -0.0014273053
-0.08979324 0.004198211 -0.029759778 0.061788633 0.45086062 -0.0058858283 -0.14251788 0.08595712
0.80984473 0.032320682 -0.10287841 0.09937291 0.20160952 0.11887043 -0.0024726263 0.0710539
0.02531746 0.12154882 -0.064854994 -0.009481232 -0.124937154 -0.032457005 -0.015852613 0.14235695
0.075467 0.25278187 0.070975244 0.027925966 0.024569705 0.13035813 -0.010961307 0.41461968
0.017226757 -0.109155476 0.0697831 -0.05405122 0.051122315 -0.1840849 -0.06133858 0.01765439
-0.15469433 -0.023958279 -0.099027686 0.018559955 0.047744803 0.0841222 0.0457632 0.006778775
0.023576433 0.11483939 0.007997972 0.013020731 -0.08054226 -0.013018578 0.085779935 -0.06696442
0.046595506 -1.0739774 -0.008718068 0.019862736 -0.033295646 -0.13083169 -0.025342219 -0.019906275
-0.052620817 -0.009014599 0.008437619 -0.08006662 -0.031244107 -0.03233901 -0.112584196 0.08470534
0.050828893 -0.012368574 -0.099288866 0.025703315 0.031219795 0.0820397 0.040036984 -0.003453896
-0.019305954 0.0037037458 0.014193585 -0.037892126 -0.031301342 0.14558947 -0.07480583 -0.04155581
-0.058115475 -0.040624674 0.016463526 0.10857084 -0.10151853 0.30110484 0.04975323 -0.031056417
-0.10749898 -0.30398735 -0.13804248 0.04226159 0.14064373 -0.047276057 -0.011178367 -0.25918612
-0.10582266 0.033965137 0.010510144 0.089989685 -0.006542127 -0.08133649 -0.04458459 0.5169819
-0.07405282 0.0783325 0.08889945 -0.024328526 -0.03259675 -0.08414776 0.25020826 -0.019201051
-0.011950193 -0.015655046 -0.016821278 -0.11484425 -0.038404662 -0.003415651 -0.02101757 -0.016628124
0.27829945 0.12633283 0.09279478 0.09865704 0.15559837 -0.020160817 -0.039609592 -0.11923055
-0.2510526 1.1011776 -0.0038596352 -0.07392339 0.07220754 -0.039197784 0.15954842 -0.0067566414
-0.016219676 0.007240624 0.05641284 -0.03055541 0.036210787 -0.030387687 -0.005295658 0.07166587
00000000: b2fa 103d 8d4f d73e bd98 303d 4f65 9dbc
00000010: c54a fb3b 4fba b73d 081e 5bbc 9775 a1be
00000020: 4b3f a8bd 6eae 153f b284 2fbc 9e71 71bd
00000030: ff72 93be ecf6 6ebd 4680 173e 5f13 2c3e
00000040: 21b7 6b3e 4193 183e 2146 84bb a3d7 ee3d
00000050: 8f8c bfbc d2bf 88bd fdc9 703d faf2 0fbd
00000060: 930c a9bc d3c0 15be 1c0f 473e e17d 7f3b
00000070: ccaa bfbd 1e1b 263c 59ef 50bd 3cf2 93bd
00000080: ebff 063d 3671 623b 7d35 94bd 8c4c efbd
00000090: 47d4 6fbd ed14 87bc 8505 73bc 7ed4 b33d
000000a0: dc1f e33d 1fed d6bd 9091 bdbd d5b9 a63c
000000b0: ae25 25bd 4737 b1bc e230 0c3d 6b3d 113d
000000c0: e427 313d 2401 85bd dbd4 3ebb 55c0 ee3d
000000d0: 1247 2fbe 8f2d f8bd 948c 633d 9c31 623e
000000e0: bb84 a33d 0767 31bc 720b 8dbc de5b ccbd
000000f0: 0441 593c efa3 a2bc 848f 063e 904c 66bc
00000100: 8fa1 fbbc ab19 6e3c c6b0 cabc 3e9a 05bd
00000110: ac72 e33e bcda 573e a1a0 8ebb 1fd8 46bd
00000120: 301e 6ebd 47e6 96bd 0ce2 493f b0ea 8d3e
00000130: 9a3d 153d 1030 5fbb d3e7 43bd 4afc a6be
00000140: 5681 afbd a598 9bbd 79fb a83c c4dd eabd
00000150: fdf9 af3c 48d4 0d3d 965d 1fb9 91d8 963e
00000160: f1b8 0dbd 6040 363d b7e9 073d aa7b 423c
00000170: 8190 353c 1c27 153e ce84 5f3e 773d 5d3d
00000180: 2b13 cbbc 0995 7b3a 5bb9 5bbd ddcb 423e
00000190: 2069 78b7 f297 e93c 45ca bb3c 6b14 bbba
000001a0: 85e5 b7bd 2591 893b c7ca f3bc 1416 7d3d
000001b0: 34d7 e63e e8dd c0bb 35f0 11be 490a b03d
000001c0: fc51 4f3f b162 043d eab1 d2bd 0684 cb3d
000001d0: ba72 4e3e 5772 f33d c90b 22bb b584 913d
000001e0: 9066 cf3c 96ee f83d b2d2 84bd 2b57 1bbc
000001f0: 0ddf ffbd a3f1 04bd 57dd 81bc 05c6 113e
00000200: 718e 9a3d a06c 813e 785b 913d ffc4 e43c
00000210: 6846 c93c 9a7c 053e 0e97 33bc 0849 d43e
00000220: 211f 8d3c e88c dfbd 71ea 8e3d d064 5dbd
00000230: a265 513d c180 3cbe 2a3e 7bbd f09f 903c
00000240: 3168 1ebe 2744 c4bc 07cf cabd 0c0b 983c
00000250: 0e90 433d 4348 ac3d 3172 3b3d 7c20 de3b
00000260: 5d23 c13c ea30 eb3d ed09 033c e754 553c
00000270: 57f3 a4bd e04b 55bc 64ad af3d a424 89bd
00000280: eeda 3e3d 1778 89bf 3ad6 0ebc 2db7 a23c
00000290: 0461 08bd bef8 05be 7c9a cfbc 7c12 a3bc
000002a0: ed88 57bd f8b1 13bc f03d 0a3c f8f9 a3bd
000002b0: a4f3 ffbc e975 04bd 8b92 e6bd fe79 ad3d
000002c0: f531 503d 8fa5 4abc f657 cbbd c28f d23c
000002d0: a8c0 ff3c 6e04 a83d d2fd 233d c25a 62bb
000002e0: 8527 9ebc 8bba 723b 368c 683c c634 1bbd
000002f0: d635 00bd 6815 153e cd33 99bd 6d36 2abd
00000300: 7e0a 6ebd 0f66 26bd 84de 863c 635a de3d
00000310: f2e8 cfbd 6a2a 9a3e 0bca 4b3d 076a febc
00000320: 6d28 dcbd 3ba4 9bbe 025b 0dbe 7d1a 2d3d
00000330: e904 103e 8aa4 41bd 7825 37bc 0bb4 84be
00000340: 8db9 d8bd 071f 0b3d bd32 2c3c 834c b83d
00000350: 575f d6bb bf93 a6bd 559e 36bd ed58 043f
00000360: 01a9 97bd ca6c a03d ea10 b63d 9e4c c7bc
00000370: 2b84 05bd a955 acbd 4c1b 803e 864b 9dbc
00000380: beca 43bc 033f 80bc c7cc 89bc 7633 ebbd
00000390: 354e 1dbd 1dd9 5fbb 0a2d acbc b437 88bc
000003a0: 447d 8e3e 655d 013e 310b be3d b40c ca3d
000003b0: 2e55 1f3e 4c28 a5bc ab3d 22bd 262f f4bd
000003c0: f789 80be 63f3 8c3f eff1 7cbb 2565 97bd
000003d0: 8ce1 933d db8d 20bd a960 233e d166 ddbb
000003e0: 20df 84bc c242 ed3b 2611 673d 574f fabc
000003f0: c351 143d 99ef f8bc 3387 adbb 8ec5 923d

p_conv1.bias f4 [4]
-0.45266178 0.16316353 -0.42033643 -0.018014822
00000000: 49c3 e7be 5714 273e 5636 d7be d293 93bc

p_fc1.weight f4 [81, 324]
0.01930314 -0.06439271 0.032704625 0.0071940734 0.024189932 -0.0006845461 0.06958839 0.052379806
0.057575572 0.04839058 -0.009826746 0.010803341 -0.019795753 -0.025532473 -0.049507298 -0.013832621
0.0112764565 0.013500753 0.021349145 0.019259298 -0.0011282947 -0.022536423 0.03840949 0.026480986
-0.012257907 -0.011933636 0.035793267 -0.027390251 -0.045087587 -0.013597355 0.076189674 0.0143183675
0.054078955 0.021615556 0.004301663 -0.008660478 -0.036502916 -0.0075656013 -0.0070769815 0.064038076
0.0144208465 0.03843742 0.027364548 -0.0017408155 -0.025226094 0.027319813 -0.007547957 0.061099205
-0.058584955 0.028194342 0.06836169 0.026285712 0.05377869 -0.011328164 -0.0058884183 -0.10137286
-0.092679024 0.18542905 0.022677163 0.022481836 0.016700469 -0.01121308 -0.02046576 0.0815947
0.0680309 0.2524504 0.03396131 0.0063329353 -0.015176663 0.015550247 0.0457021 0.0021182722
0.0913365 0.15245031 0.0011477652 -0.07377636 0.030325456 -0.0040366203 -0.036930114 0.036121994
-0.014113129 0.021682741 0.050397247 0.06498913 -0.014943263 -0.009605404 0.00674386 0.042633347
0.013081295 0.03360204 0.035587605 0.03552318 0.001985242 0.0022054054 0.015694087 0.013295233
-0.024124142 0.032456636 -0.00095403363 0.06679533 -0.012208505 0.012307624 -0.030559966 -0.002863002
-0.008428484 0.036617626 -2.277513e-05 0.005348675 0.05816191 0.05497898 -0.032805044 -0.025210897
-0.10473968 -0.01888135 -0.0035103078 -0.0050734063 0.014832528 0.049377136 -0.013159148 -0.014811343
-0.026093801 -0.011574341 -0.021093605 -0.015462182 0.0004733167 0.02213817 0.07796208 -0.022138955
0.12104888 -0.0413745 -0.015665775 -0.0144955795 -0.022217916 0.060898565 0.015520832 0.054076415
0.18159576 -0.04227711 -0.021460835 0.054895334 -0.0055823424 0.041126 0.04117098 0.007666517
-1.430777 0.087493174 0.11256815 0.092664175 0.055316523 0.05850922 0.0060179303 0.0139936125
0.009521385 -0.01914685 -0.03784369 0.00076576165 -0.012121389 -0.025128813 -0.011409388 -0.052894007
0.009764281 -0.019130033 -0.022540491 -0.0042334707 0.002420641 0.016350709 0.027231019 0.0069991834
-0.009018057 0.041581497 -0.007734772 -0.03236863 0.035316035 -0.05639948 -0.039203413 -0.022256821
-0.007702434 -0.0353205 0.01276133 0.023430824 -0.0050029857 -0.011973092 -0.0026341132 -0.04677896
-0.029514007 -0.025088249 0.0014554007 -0.01589273 -0.022627303 -0.049365394 0.039762158 -0.009329559
-0.002522651 0.02727951 -0.028563147 0.012353428 0.0250264 0.040615283 -0.034177966 -0.034475323
0.03235482 -0.052262455 0.03518021 -0.018980194 -0.016284334 -0.0026510202 0.031187441 -0.029525908
-0.020389678 0.42209476 -0.025563328 0.018428985 0.032914583 0.00384841 -0.02154865 0.012406012
0.016520148 0.33076045 -0.09911597 0.016726764 0.03213992 0.0013713348 0.005945885 -0.00097051385
-0.026391475 0.05826064 -0.0012201683 -0.06746326 -0.08857475 0.014655701 0.018033065 -0.016710423
0.031984895 -0.0037938878 0.0047596563 0.037326515 0.014244866 -0.019829025 -0.012599401 -0.03034728
-0.05618936 -0.055279955 -0.0307875 0.026130682 -0.048740402 -0.03000737 -0.0038516182 -0.0140226465
-0.036365144 -0.03862704 -0.015950382 -0.033325702 0.010716081 -0.03549152 -0.02716668 -0.013819635
00000000: 9e21 9e3c 53e0 83bd 49f5 053d 43bc eb3b
00000010: f729 c63c 1c73 33ba 5c84 8e3d 358c 563d
00000020: 5dd4 6b3d 3335 463d 5c00 21bc 7f00 313c
00000030: b42a a2bc 7a29 d1bc 2ac8 4abd 38a2 62bc
00000040: e3c0 383c 4332 5d3c 67e4 ae3c adc5 9d3c
00000050: 4ae3 93ba 4e9e b8bc 4553 1d3d a7ee d83c
00000060: 63d5 48bc 4c85 43bc f69b 123d 8561 e0bc
00000070: c3ad 38bd 71c7 5ebc 5509 9c3d 9697 6a3c
00000080: e581 5d3d 1b13 b13c f7f4 8c3b ade4 0dbc
00000090: 1584 15bd dde8 f7bb 06e6 e7bb 6526 833d
000000a0: 6a45 6c3c 8e70 1d3d 9e2b e03c 132c e4ba
000000b0: f4a6 cebc cdcd df3c da54 f7bb 2943 7a3d
000000c0: c7f6 6fbd d2f7 e63c 3701 8c3d 2255 d73c
000000d0: 0b47 5c3d c399 39bc a2f3 c0bb 939c cfbd
000000e0: 80ce bdbd 1de1 3d3e 75c5 b93c d42b b83c
000000f0: 6ccf 883c 11b7 37bc cfa7 a7bc 1f1b a73d
00000100: c953 8b3d 2e41 813e 041b 0b3d 8384 cf3b
00000110: 8aa7 78bc 77c6 7e3c 2032 3b3d b6d2 0a3b
00000120: a20e bb3d ef1b 1c3e 9c70 963a 0f18 97bd
00000130: 176d f83c a045 84bb 0844 17bd a8f4 133d
00000140: c13a 67bc 01a0 b13c 586d 4e3d 0519 853d
00000150: 96d4 74bc fc5f 1dbc 99fb dc3b 4ea0 2e3d
00000160: ee52 563c 4ba2 093d 4fc4 113d c180 113d
00000170: d51a 023b 9088 103b e390 803c 40d4 593c
00000180: fe9f c5bc 40f1 043d 1d18 7aba fdcb 883d
00000190: 2e06 48bc eba5 493c e558 fabc 34a1 3bbb
000001a0: a017 0abc 5dfc 153d 380d bfb7 f043 af3b
000001b0: 2f3b 6e3d a431 613d 955e 06bd 1587 cebc
000001c0: c281 d6bd 10ad 9abc 310d 66bb d13e a6bb
000001d0: 2204 733c ae3f 4a3d 7899 57bc 46ab 72bc
000001e0: abc2 d5bc 4ea2 3dbc 7fcc acbc 1855 7dbc
000001f0: 7e27 f839 1c5b b53c 95aa 9f3d c15c b5bc
00000200: 7ae8 f73d 4f78 29bd 8355 80bc de7e 6dbc
00000210: 5902 b6bc c670 793d 164b 7e3c 3b7f 5d3d
00000220: 3df4 393e c32a 2dbd a2ce afbc eed9 603d
00000230: 15ec b6bb bd73 283d e7a2 283d 6837 fb3b
00000240: b323 b7bf 9f2f b33d 218a e63d b7c6 bd3d
00000250: 9493 623d 5da7 6f3d 0f32 c53b 7745 653c
00000260: 95ff 1b3c dbd9 9cbc fc01 1bbd 65bd 483a
00000270: ca98 46bc f1da cdbc 71ee 3abc 63a7 58bd
00000280: 5dfa 1f3c 96b6 9cbc d6a6 b8bc edb8 8abb
00000290: 9ea3 1e3b ecf1 853c 9613 df3c 6859 e53b
000002a0: 79c0 13bc 5c51 2a3d f873 fdbb f894 04bd
000002b0: 8ca7 103d 2403 67bd c293 20bd f053 b6bc
000002c0: b364 fcbb 3bac 10bd e614 513c 00f2 bf3c
000002d0: 16f0 a3bb ca2a 44bc 16a1 2cbb 4b9b 3fbd
000002e0: 5cc7 f1bc df85 cdbc 25c3 be3a 7831 82bc
000002f0: e55c b9bc 5e33 4abd a5dd 223d 02db 18bc
00000300: 1053 25bb 4779 df3c 43fd e9bc 0866 4a3c
00000310: 2a04 cd3c 365c 263d 32fe 0bbd ff35 0dbd
00000320: 7d86 043d 2811 56bd 2019 103d 5a7c 9bbc
00000330: b966 85bc bdbc 2dbb ce7c ff3c 51e0 f1bc
00000340: 4108 a7bc ce1c d83e 2f6a d1bc 62f8 963c
00000350: 71d1 063d 9b35 7c3b cb86 b0bc 9642 4b3c
00000360: 4355 873c 6f59 a93e 50fd cabd 9106 893c
00000370: 26a5 033d 5cbe b33a b3d5 c23b 156a 7eba
00000380: ef32 d8bc b5a2 6e3d 0eee 9fba 2d2a 8abd
00000390: ae66 b5bd 771e 703c 14ba 933c 4ce4 88bc
000003a0: 9802 033d e0a2 78bb e4f6 9b3b b0e3 183d
000003b0: 4c63 693c 7b70 a2bc b86d 4ebc dc9a f8bc
000003c0: d026 66bd 3c6d 62bd 1136 fcbc 0310 d63c
000003d0: 04a4 47bd 04d2 f5bc 6e6b 7cbb 3ebf 65bc
000003e0: 9ef3 14bd 6337 1ebd 60aa 82bc 8880 08bd
000003f0: 8092 2f3c 8e5f 11bd a88c debc c06b 62bc

p_fc1.bias f4 [81]
-0.06258837 -0.06298596 -0.08853068 -0.10331541 -0.120572194 -0.09180632 -0.058983985 -0.054616522
-0.052511122 -0.047962688 -0.04402066 -0.05284123 -0.061680086 0.09905194 -0.03625332 -0.030986262
-0.043168228 -0.056589987 -0.04668706 -0.03142551 -0.04566123 0.0652866 0.1319358 0.10213846
-0.034140732 -0.019397138 -0.056051023 -0.066008106 -0.025437033 0.104182534 0.16093114 0.19152014
0.15348235 0.11322078 -0.04901308 -0.07343845 -0.03846022 0.1045839 0.10253322 0.20189185
-0.006188378 0.19698839 0.117475875 0.12648664 -0.063253604 -0.035540458 -0.0523545 0.08680408
0.12300431 0.18601732 0.13877258 0.07667777 -0.03951736 -0.04761439 -0.03675076 -0.0061798645
-0.048147224 0.10563985 0.07972308 0.10832996 -0.04529553 -0.008266766 -0.055407815 -0.032308903
-0.0478945 -0.020848319 -0.06679252 0.068043455 -0.06803062 -0.009495252 -0.04935218 -0.047999494
-0.045775205 -0.029709876 -0.029806117 -0.04434514 -0.06361775 -0.05586448 -0.027493646 -0.04188629
-0.06425836
00000000: 552e 80bd c8fe 80bd 934f b5bd 0897 d3bd
00000010: 8eee f6bd f404 bcbd 3199 71bd 93b5 5fbd
00000020: e715 57bd 8674 44bd 024f 34bd 0c70 58bd
00000030: 42a4 7cbd bedb ca3d 5c7e 14bd e7d6 fdbc
00000040: 2bd1 30bd e7ca 67bd ee3a 3fbd 09b8 00bd
00000050: 4507 3bbd fbb4 853d 2e1a 073e f82d d13d
00000060: 27d7 0bbd bfe6 9ebc c295 65bd 422f 87bd
00000070: 5361 d0bc a75d d53d 22cb 243e db1d 443e
00000080: 7a2a 1d3e 4ce0 e73d f0c1 48bd e666 96bd
00000090: 7788 1dbd 1530 d63d f0fc d13d bdbc 4e3e
000000a0: e1c7 cabb 53b7 493e 3197 f03d b785 013e
000000b0: 1b8b 81bd df92 11bd ac71 56bd 56c6 b13d
000000c0: afe9 fb3d 537b 3e3e 661a 0e3e 3c09 9d3d
000000d0: f5dc 21bd 4e07 43bd f787 16bd 7680 cabb
000000e0: 0636 45bd b559 d83d db45 a33d 19dc dd3d
000000f0: ce87 39bd 5471 07bc 4ef3 62bd 5756 04bd
00000100: 062d 44bd 18ca aabc 84ca 88bd 5e5a 8b3d
00000110: a353 8bbd f991 1bbc 8325 4abd 1e9b 44bd
00000120: c87e 3bbd 2062 f3bc f52b f4bc 40a3 35bd
00000130: 064a 82bd 27d2 64bd 5b3a e1bc f590 2bbd
00000140: e399 83bd

value_conv1.weight f4 [2, 128, 1, 1]
0.24484365 0.40470386 -0.19926254 -0.4810731 0.19750145 0.22250733 -0.49372563 0.37435827
-0.27294216 0.0028882711 -0.53893846 0.268959 0.34131324 -0.26205516 0.2901995 0.23017
0.083008856 -0.26799813 0.18785195 -0.25635794 -0.39906543 -0.5829263 0.14915802 -0.38087723
0.20517454 -0.2523191 0.102105156 -0.4136061 -0.26345125 -0.5167125 0.3518548 0.4567833
-0.5000613 0.09011941 0.028258871 -0.15580474 -0.06412642 0.068640746 -0.52362365 0.22158958
0.116647765 0.49404672 -0.44808728 -0.31313303 -0.48081788 -0.31258392 -0.3260402 0.2750181
0.03139295 0.39812765 0.24432766 0.16461997 0.38502398 0.13525511 -0.4119147 0.12049461
-0.43020362 0.30553082 0.16106215 -0.3978822 0.27083912 0.18007128 0.15242457 -0.051624633
0.030871887 0.04192019 -0.2538752 0.11940252 0.16453716 0.13706833 -0.009198341 0.12954548
-0.20489137 0.21373641 0.10081596 -0.33013296 -0.015539282 0.4110724 -0.47662994 -0.40798953
-0.36981174 0.15397355 0.26467562 0.35248554 -0.43660054 0.19339034 -0.1716495 0.51253223
0.18306938 -0.5666115 0.05595723 -0.21412648 0.01792189 0.072232105 -0.1944936 0.33275032
-0.5888472 -0.548047 -0.14863802 -0.21758185 -0.40659392 -0.30768034 0.12982608 -0.33095595
0.44512013 -0.008306589 -0.46923417 0.28763962 -0.05888181 0.2539387 -0.53536415 -0.076577686
0.47133783 -0.0041135377 0.34824383 -0.24777852 0.32885012 -0.395224 0.3428542 0.10636114
0.041870415 0.24897052 -0.51782227 -0.45456514 -0.40710866 -0.3790483 -0.13364545 -0.46543628
0.3418672 0.24634297 -0.39146167 -0.038085446 -0.3794743 0.23832943 0.17963693 0.06530937
0.15161033 -0.025866333 -0.034118466 0.2057334 -0.26713443 -0.03535673 -0.32861885 -0.33824918
-0.3797663 0.068031505 -0.5330386 -0.27891943 -0.2332186 0.07557329 -0.5118624 0.13605818
0.3371267 0.44705954 -0.56805855 0.29776144 -0.31585506 0.13535093 0.39915082 -0.05553414
0.21911596 0.19979708 -0.33313903 0.50884753 -0.33669832 -0.3942523 -0.08753262 0.36547512
-0.27897838 -0.042147137 -0.081354044 -0.3374984 -0.09167673 -0.09422553 -0.28988433 -0.27722752
0.05928797 -0.36002338 0.3782679 0.384647 -0.23583704 -0.18588887 0.22017063 0.4291932
0.07061892 -0.425905 -0.15112221 0.28875697 -0.44560868 0.24492535 -0.31854662 -0.43011138
-0.56542385 -0.0062459228 -0.40209612 -0.44248086 0.04776871 0.08737186 -0.4522555 -0.51589596
-0.38053143 0.16758426 0.10561415 0.21363348 -0.36322758 0.051390387 0.13225754 0.43729812
-0.28644907 -0.15524456 0.36214665 0.0021718994 0.22822478 0.4038772 -0.3342307 -0.3223396
-0.35097468 0.10090575 -0.2658808 -0.3227203 -0.5039958 0.3557368 -0.09106993 -0.23411809
-0.13127834 -0.08110792 -0.09090756 0.22184731 0.22287549 -0.22896855 -0.4469949 -0.5287499
-0.0069617606 -0.41876316 0.03632291 0.35354227 -0.25444314 0.3154847 -0.051788077 -0.32038537
0.10391882 0.08749913 -0.36247963 0.3408308 -0.14475335 0.113293216 -0.36339748 -0.31644586
-0.54760057 -0.21572818 0.04547254 0.045711815 -0.053779498 0.17337774 -0.43131986 0.15773697
00000000: 4bb8 7a3e 5835 cf3e 7b0b 4cbe 374f f6be
00000010: d23d 4a3e f6d8 633e 9bc9 fcbe e3ab bf3e
00000020: 13bf 8bbe 2649 3d3b dff7 09bf feb4 893e
00000030: 9cc0 ae3e 182c 86be 0795 943e afb1 6b3e
00000040: 8c00 aa3d 0d37 89be 435c 403e 5941 83be
00000050: 4e52 ccbe a83a 15bf e1bc 183e 5702 c3be
00000060: 4619 523e f82f 81be 821c d13d 2ec4 d3be
00000070: 15e3 86be 4547 04bf 5026 b43e 80df e93e
00000080: 0404 00bf 8690 b83d 267f e73c 478b 1fbe
00000090: b654 83bd 8593 8c3d 330c 06bf 61e8 623e
000000a0: 06e5 ee3d b1f3 fc3e b26b e5be f952 a0be
000000b0: c32d f6be 000b a0be beee a6be 2ccf 8c3e
000000c0: e595 003d 63d7 cb3e 0831 7a3e 2392 283e
000000d0: dd21 c53e 5180 0a3e 7ce6 d2be e1c5 f63d
000000e0: a643 dcbe 896e 9c3e 7aed 243e 37b7 cbbe
000000f0: 6dab 8a3e 9b64 383e 3015 1c3e 5a74 53bd
00000100: 0ae7 fc3c 81b4 2b3d eefb 81be 4f89 f43d
00000110: 6e7c 283e a45b 0c3e a3b4 16bc 92a7 043e
00000120: 0bcf 51be b8dd 5a3e 9978 ce3d 3007 a9be
00000130: 7998 7ebc 1578 d23e d708 f4be 01e4 d0be
00000140: f757 bdbe 3eab 1d3e 9083 873e fc78 b43e
00000150: 1b8a dfbe 1e08 463e e3c4 2fbe 5035 033f
00000160: 8a76 3b3e 740d 11bf 6933 653d f943 5bbe
00000170: edd0 923c 6dee 933d 5529 47be 405e aa3e
00000180: b1be 16bf cf4c 0cbf 9134 18be c7cd 5ebe
00000190: 142d d0be 4788 9dbe 21f1 043e 0f73 a9be
000001a0: c9e6 e33e 5c18 08bc 763f f0be 8045 933e
000001b0: 0e2e 71bd 4104 823e a00d 09bf c3d4 9cbd
000001c0: 3153 f13e dbca 86bb 044d b23e a7b9 7dbe
000001d0: 0b5f a83e cd5a cabe 968a af3e dfd3 d93d
000001e0: 5080 2b3d 21f2 7e3e 0090 04bf c3bc e8be
000001f0: 8c70 d0be 9e12 c2be 5ada 08be aa4d eebe
00000200: 3809 af3e 5541 7c3e aa6d c8be 7cff 1bbd
00000210: 754a c2be a10c 743e bef2 373e ebc0 853d
00000220: bd3f 1b3e a2e5 d3bc cebf 0bbd c7ab 523e
00000230: d8c5 88be 38d2 10bd bb40 a8be ff2e adbe
00000240: ba70 c2be 1a54 8b3d 3875 08bf 87ce 8ebe
00000250: dbd0 6ebe 2bc6 9a3d 6a09 03bf d652 0b3e
00000260: df9b ac3e fde4 e43e 496c 11bf 3074 983e
00000270: c1b7 a1be 6f99 0a3e 7f5d cc3e c477 63bd
00000280: ef5f 603e 9b97 4c3e 3391 aabe d543 023f
00000290: b963 acbe 70db c9be 4d44 b3bd 8e1f bb3e
000002a0: 41d6 8ebe 7aa2 2cbd f39c a6bd 97cc acbe
000002b0: 02c1 bbbd 51f9 c0bd b86b 94be c4f0 8dbe
000002c0: f1d7 723d fc54 b8be 55ac c13e 74f0 c43e
000002d0: 447f 71be a759 3ebe 6974 613e 36bf db3e
000002e0: a7a0 903d 3810 dabe c8bf 1abe f4d7 933e
000002f0: d226 e4be b6cd 7a3e 8b18 a3be 8f37 dcbe
00000300: 9ebf 10bf 99aa ccbb 8bdf cdbe da8c e2be
00000310: 1fa9 433d 05f0 b23d 088e e7be c211 04bf
00000320: 04d5 c2be 359b 2b3e 3b4c d83d bcc2 5a3e
00000330: f7f8 b9be ba7e 523d 856e 073e 8ae5 df3e
00000340: 74a9 92be 6ef8 1ebe 496b b93e 6d56 0e3b
00000350: c2b3 693e fec8 ce3e 4920 abbe b209 a5be
00000360: f4b2 b3be ada7 ce3d 8721 88be 983b a5be
00000370: de05 01bf 2223 b63e df82 babd a7bc 6fbe
00000380: d46d 06be e91b a6bd be2d babd f12b 633e
00000390: 7939 643e bb76 6abe 84dc e4be 275c 07bf
000003a0: 7b1f e4bb 2068 d6be 55c7 143d 7e03 b53e
000003b0: 5f46 82be 3687 a13e bc1f 54bd 8d09 a4be
000003c0: 64d3 d43d be32 b33d ee96 b9be 6081 ae3e
000003d0: 393a 14be 4606 e83d 3c0f babe 3105 a2be
000003e0: 8d2f 0cbf d9e7 5cbe 6a41 3a3d 503c 3b3d
000003f0: e447 5cbd ef89 313e f5d5 dcbe cd85 213e

value_conv1.bias f4 [2]
0.17045395 0.21575673
00000000: 7b8b 2e3e 55ef 5c3e
