model/cnn/8x8/1/_8.pt (torch_old, 478657 bytes, 15 tensors)

conv1.weight f4 [32, 4, 3, 3]
-0.19117542 -0.77694726 0.6652347 0.9773274 0.009584545 -0.48487982 0.3770704 -0.23139511
-0.2253328 -0.75042975 -0.48347446 0.24878287 -0.48447284 -0.52594614 -0.68729675 -0.59230715
-0.6357256 -0.13232996 -0.3396213 -0.049311675 -0.38501456 -0.04014725 -0.026894052 0.16573404
-0.046055425 -0.1849587 -0.32014453 0.2842858 0.07018728 0.30168685 0.21508819 -0.012058878
0.21537201 -0.0056796577 -0.17577596 -0.06874582 -0.018932283 -0.02535708 0.06520679 -0.03781896
0.12216908 -0.18901992 -0.74190396 0.12430197 -1.0802768 0.08027959 -0.046932753 -0.0053289533
0.1538586 -0.05722595 0.24525079 1.5711288 0.37212434 0.4018 0.008229212 -0.045965295
0.055902176 -0.33913746 0.008261767 -0.0653166 -0.2820188 0.07508837 0.24140474 0.09294018
0.013037766 0.30552122 -0.11709282 -0.18142015 0.08158506 -0.081222296 -0.036419783 0.21283032
0.37850207 0.027133627 0.3560237 -0.25400797 0.23832561 -0.30989346 0.43432316 0.87990147
-0.40100902 0.2974874 -0.11470155 0.37567183 -0.17400779 0.116180725 -0.41328534 -0.6695699
0.32531166 1.0292122 -0.0029383753 -0.17719902 0.39299324 -0.20970006 0.14639595 0.3175911
-0.15938407 -0.040833637 -0.5422036 -0.3163393 0.058383644 0.09897687 -0.41848758 -0.075576775
-0.040656142 -0.30675095 -0.13557968 -0.10786029 -0.4200637 0.1086682 -0.3704355 -0.62245
-0.21863857 -0.61316687 -0.3284894 -0.6285925 -0.02362494 -0.021745251 -0.08169973 0.42821783
-0.16804598 0.18781146 -0.14102776 0.8813084 0.2316745 1.1614723 0.087846264 -0.27922735
0.29990318 0.037756816 -0.020121215 0.33284694 0.40513226 0.20750082 0.4803205 -0.09190058
0.21699953 0.10213825 -0.058016516 0.016014133 0.03267672 -0.2159039 -0.15358545 -0.0816606
-0.4205406 -0.8214859 -0.5980366 -0.04714672 -0.22510543 -0.6461421 -0.67569906 -0.80553865
-0.62051004 0.32983097 -0.34215432 -0.27795646 -0.5741298 -0.35071787 -0.07496219 -0.7222763
-0.44351566 -0.4238042 -0.52470875 0.24662301 0.6158749 -0.06031778 0.055753607 0.0763571
-0.2786115 0.12986332 -0.031376977 -0.10201429 0.13908377 0.26200718 -0.10560246 0.19412994
0.14902239 -0.18490624 0.0025013695 0.12648255 0.35521448 0.32836726 0.28920096 0.075103685
0.35384262 1.3671049 0.23290288 -0.28659144 0.4107598 0.22319682 -0.018339816 -0.04055164
-0.2052024 -0.102157675 0.03235612 -0.18967962 -0.22089045 1.4616417 -0.11618669 0.13321914
-0.110033676 -0.013910639 -0.022648249 0.4462535 0.116632156 0.19133931 -0.18534407 0.21501052
-0.29466596 -0.08287883 -0.0035514387 -0.010556874 -0.042047594 0.048871107 -0.106812246 0.08819788
0.6756008 1.3631877 0.5482464 0.2862556 -0.72777027 0.09592928 -0.32427415 -0.58404183
-0.5822988 -1.1955298 -0.60504097 -0.96235037 -0.26409233 -0.15746419 -0.35881346 0.114718944
-0.1541168 -0.05374317 0.53076804 0.2365332 0.28086832 0.08139398 0.026936417 0.22547475
0.15764937 0.33130404 0.2078378 0.08787635 0.031811144 0.12798351 0.106402114 -0.039459303
0.05721595 -0.050257165 -0.19796613 0.063716106 0.18645687 -0.40295509 0.22900212 -0.07229553
00000000: 7dc3 43be 04e6 46bf d24c 2a3f 2132 7a3f
00000010: 7f08 1d3c 2b42 f8be 5f0f c13e d7f2 6cbe
00000020: a4bd 66be 2a1c 40bf f789 f7be f0c0 7e3e
00000030: d30c f8be 68a4 06bf aef2 2fbf 71a1 17bf
00000040: eabe 22bf 8181 07be d8e2 adbe 0afb 49bd
00000050: a120 c5be 7171 24bd ea50 dcbc 2fb6 293e
00000060: 9da4 3cbd d065 3dbe fce9 a3be e98d 913e
00000070: 59be 8f3d b376 9a3e 1440 5c3e 9a92 45bc
00000080: 7b8a 5c3e 6c1c babb 9dfe 33be 9cca 8cbd
00000090: e017 9bbc a7b9 cfbc 238b 853d 0ee8 1abd
000000a0: c833 fa3d 708e 41be 6bed 3dbf 0892 fe3d
000000b0: 8346 8abf a069 a43d 8f3c 40bd 809e aebb
000000c0: 1c8d 1d3e c265 6abd 0623 7b3e c01a c93f
000000d0: 1587 be3e bbb8 cd3e d1d3 063c 1b46 3cbd
000000e0: aef9 643d 6da3 adbe 5d5c 073c b6c4 85bd
000000f0: c564 90be eec7 993d ce32 773e 6c57 be3d
00000100: 5b9c 553c 476d 9c3e 5cce efbd 34c6 39be
00000110: 1116 a73d e057 a6bd e92c 15bd 31f0 593e
00000120: 06cb c13e 5747 de3c bd48 b63e 550d 82be
00000130: a10b 743e 5baa 9ebe 9b5f de3e 3941 613f
00000140: 0e51 cdbe 4550 983e a5e8 eabd 0f58 c03e
00000150: 192f 32be 29f0 ed3d 239a d3be ef68 2bbf
00000160: 408f a63e 3abd 833f c291 40bb a973 35be
00000170: 6936 c93e 9dbb 56be d2e8 153e 4d9b a23e
00000180: 9435 23be 2c41 27bd dbcd 0abf 3af7 a1be
00000190: b023 6f3d 63b4 ca3d 0144 d6be ffc7 9abd
000001a0: 0e87 26bd 760e 9dbe 66d5 0abe dbe5 dcbd
000001b0: 9712 d7be 6f8d de3d b9a9 bdbe e258 1fbf
000001c0: cae2 5fbe 81f8 1cbf c32f a8be 70eb 20bf
000001d0: 1789 c1bc 1923 b2bc 3052 a7bd 5e3f db3e
000001e0: 3f14 2cbe a651 403e 9569 10be 6d9d 613f
000001f0: 153c 6d3e 20ab 943f bee8 b33d e3f6 8ebe
00000200: e98c 993e e4a6 1a3d 3fd5 a4bc ea6a aa3e
00000210: 7f6d cf3e 187b 543e 92ec f53e 5f36 bcbd
00000220: 2035 5e3e dc2d d13d baa2 6dbd 1230 833c
00000230: 06d8 053d e915 5dbe 8145 1dbe ac3d a7bd
00000240: 1951 d7be e64c 52bf ed18 19bf eb1c 41bd
00000250: 0a82 66be 9269 25bf 9dfa 2cbf c837 4ebf
00000260: bfd9 1ebf 9bdf a83e da2e afbe 4f50 8ebe
00000270: 2cfa 12bf 4b91 b3be c785 99bd 19e7 38bf
00000280: 7c14 e3be ddfc d8be 5053 06bf be8a 7c3e
00000290: faa9 1d3f c70f 77bd e55d 643d 1c61 9c3d
000002a0: 2ba6 8ebe e4fa 043e 2585 00bd deec d0bd
000002b0: fa6b 0e3e ce25 863e 1a46 d8bd 00ca 463e
000002c0: 5399 183e 1058 3dbe 04ee 233b a484 013e
000002d0: acde b53e c11f a83e 2612 943e f6cf 993d
000002e0: dc2a b53e 4bfd ae3f 187e 6e3e 1dbc 92be
000002f0: 1c4f d23e b58d 643e 623d 96bc 7a19 26bd
00000300: 9420 52be 0b38 d1bd da87 043d 603b 42be
00000310: 1b31 62be 1317 bb3f 4af3 edbd 996a 083e
00000320: 5659 e1bd 73e9 63bc d288 b9bc 577b e43e
00000330: d7dc ee3d 74ee 433e d6ca 3dbe b82b 5c3e
00000340: 75de 96be 60bc a9bd 41bf 68bb bdf6 2cbc
00000350: 193a 2cbd 122d 483d 61c0 dabd 17a1 b43d
00000360: 2df4 2c3f ef7c ae3f e059 0c3f 1890 923e
00000370: 274f 3abf 9276 c43d 4307 a6be c483 15bf
00000380: 8911 15bf 1f07 99bf f7e3 1abf 985c 76bf
00000390: 1c37 87be 4b3e 21be 66b6 b7be c4f1 ea3d
000003a0: cbd0 1dbe cc21 5cbd 6ae0 073f c235 723e
000003b0: f9cd 8f3e e3b1 a63d c3a9 dc3c dae2 663e
000003c0: d66e 213e afa0 a93e 6fd3 543e 84f8 b33d
000003d0: 674c 023d 1c0e 033e 5ae9 d93d 14a0 21bd
000003e0: 465b 6a3d 75da 4dbd a2b7 4abe 977d 823d
000003f0: 8dee 3e3e 2150 cebe 887f 6a3e ae0f 94bd

conv1.bias f4 [32]
-0.62787616 -0.52824867 -0.39411858 -0.2745366 0.23062539 -0.4421629 -0.20820057 -0.13230586
-0.38703436 -0.24187225 -0.37221032 -0.44402158 -0.38926965 -0.3223197 -4.372923e-05 -0.2920946
-0.3319925 -0.124065876 -0.5617621 -0.5842703 -0.5120469 -0.08846917 -0.79621017 -0.4333135
0.31825733 -0.3882505 -0.3014896 -0.5308456 -0.3797825 -0.41066432 -0.6429195 -0.11288412
00000000: 7ebc 20bf 4e3b 07bf e9c9 c9be 1090 8cbe
00000010: 1029 6c3e 2d63 e2be 8832 55be 307b 07be
00000020: 5e29 c6be 5cad 77be 5a92 bebe cc56 e3be
00000030: 5a4e c7be 1607 a5be e769 37b8 6c8d 95be
00000040: ecfa a9be 4016 febd a4cf 0fbf bd92 15bf
00000050: 8115 03bf 532f b5bd 6ed4 4bbf 44db ddbe
00000060: a0f2 a23e c5c8 c6be d85c 9abe 7fe5 07bf
00000070: da72 c2be 9842 d2be 5f96 24bf ca2f e7bd

conv2.weight f4 [64, 32, 3, 3]
-0.48678237 -0.1047917 0.16866334 -0.054208614 -0.24566674 0.081757806 0.1147563 0.23798783
-0.43561423 0.5888541 -0.3228958 -0.45317847 0.22514492 0.02561567 0.044883348 0.30854353
0.2830738 0.39494017 -0.09828952 -0.1443042 0.004212107 0.11033319 0.037875984 0.0794101
-0.027317142 0.09568973 0.05529925 0.2360034 -0.252181 -0.29898566 -0.023103548 0.0010485107
0.16102289 0.08100468 0.043621596 -0.11665702 0.50131345 -0.24701266 -0.21652639 -0.23019117
0.14348523 0.23988 -0.17862415 -0.016737066 0.24821445 -0.45367 0.42005163 -0.41945836
0.15057984 0.6417603 0.32132027 0.23376489 -0.33073464 0.10572212 0.35206956 -0.41004065
-0.006863118 -0.044931617 -0.3373216 -0.30521646 0.023402276 0.18060581 0.39606723 0.20125946
-0.030823225 0.22227578 -0.110931486 0.17347349 0.20265222 -0.1892436 -0.022217609 -0.010056075
-0.041729707 0.13383935 0.047609348 -0.22180052 -0.39413053 -0.20356523 -0.2837983 -0.16545473
0.17284979 0.1881036 -0.121334255 -0.38569057 -0.22656122 -0.10054369 0.1371819 0.45256573
-0.12425578 -0.0531284 -0.29744652 0.6586409 0.3671944 0.24116711 0.24747096 0.3125293
0.34900355 -0.12129694 -0.6491588 0.12910914 -0.009122776 0.22352788 -0.01983484 0.03596378
-0.2999383 -0.72261167 -0.03861936 0.36971575 -0.2130592 -0.30384833 0.076254986 -0.13651326
0.26682004 0.6277576 -0.0786582 0.06824082 -0.38050765 0.08872198 0.17309499 0.21004792
-0.05409983 -0.14696206 -0.18048729 -0.79306847 0.14506216 -0.083334155 1.23992e-40 3.62565e-40
-3.48919e-40 -4.40973e-40 1.212843e-39 -1.272584e-39 1.51407e-40 -1.210032e-39 -1.504906e-39 0.30499837
-0.047757894 -0.13189225 0.54022914 -0.055473253 0.22843508 -0.041775744 -0.10248621 -0.39428738
-0.35813054 0.34597117 0.36462393 0.30081996 0.23866946 -0.4645278 -0.19338074 -0.58477634
0.5149601 0.055745933 -0.38922593 -0.0097610345 0.62556404 0.15034041 -0.15534887 -0.33651516
-0.07195657 -0.32157966 -0.38828197 0.23357393 0.28531477 0.34650037 0.2009372 -0.052265745
-0.289554 -0.695577 0.80818784 0.03565682 -0.6389045 -0.20298599 0.97001946 -0.28853706
-0.7298616 0.59738714 -0.12442111 -0.38419086 0.26094985 0.13847338 -0.18285231 0.12973803
0.45343181 -0.040505983 0.01989104 0.6537467 -0.06806344 -0.09192296 -0.018926162 -0.4797806
-0.5394168 -0.2234261 0.3562746 -0.0806349 -0.15954305 -0.110189915 0.1679275 0.3122778
-0.21923092 0.27245042 -0.11338721 0.18582956 0.2453207 0.038004793 -0.8625883 0.28467742
0.15686828 0.20012066 -0.3543122 0.50873965 -0.1384849 0.5793996 -0.16260448 -0.22798337
0.068779334 -0.31141147 0.256883 0.037117373 -0.1973106 -0.31405 -0.21557961 0.082013875
0.2699732 -0.29347113 -0.14860027 -0.17643799 -0.3116329 0.074024215 -0.13454847 0.0066934335
0.06115489 0.049847584 -0.030437956 0.22607432 0.65164465 -0.068889916 0.46500474 0.13367774
0.16734363 -0.22351575 -0.011014359 -0.2576498 -0.3788446 0.13628967 0.38577554 0.6263284
0.30358264 -0.36389333 0.6511538 -0.046857014 -0.28984874 0.027673023 0.18439086 0.1949001
00000000: 8a3b f9be 089d d6bd 15b6 2c3e da09 5ebd
00000010: 1090 7bbe a370 a73d 5a05 eb3d 15b3 733e
00000020: d408 dfbe 24bf 163f 9952 a5be 0207 e8be
00000030: 648c 663e f4d7 d13c 9ad7 373d 6bf9 9d3e
00000040: 0def 903e 9935 ca3e 044c c9bd 7bc4 13be
00000050: b705 8a3b 5ef6 e13d d923 1b3d c3a1 a23d
00000060: 33c8 dfbc faf8 c33d 7781 623d e0aa 713e
00000070: de1d 81be a614 99be a743 bdbc 2e6e 893a
00000080: 2fe3 243e c8e5 a53d 8fac 323d e0e9 eebd
00000090: 1456 003f e3f0 7cbe 18b9 5dbe 3cb7 6bbe
000000a0: cbed 123e 1aa3 753e 40e9 36be 2c1c 89bc
000000b0: ee2b 7e3e 6f47 e8be 0211 d73e 3fc3 d6be
000000c0: 9a31 1a3e 674a 243f 1784 a43e 1060 6f3e
000000d0: 0d56 a9be d784 d83d 7642 b43e d9f0 d1be
000000e0: 02e4 e0bb 370a 38bd 6bb5 acbe 5545 9cbe
000000f0: 21b6 bf3c bbf0 383e 53c9 ca3e f616 4e3e
00000100: fd80 fcbc 439c 633e 0c30 e3bd 09a3 313e
00000110: 1084 4f3e 13c9 41be b401 b6bc 3cc2 24bc
00000120: c5ec 2abd 2f0d 093e 0502 433d ad1f 63be
00000130: 7acb c9be 6773 50be 034e 91be f76c 29be
00000140: 89ff 303e 3b9e 403e 187e f8bd 3c79 c5be
00000150: aaff 67be dae9 cdbd 6979 0c3e b2b6 e73e
00000160: d079 febd 2a9d 59bd e94a 98be b19c 283f
00000170: e800 bc3e 83f4 763e 0769 7d3e d703 a03e
00000180: 98b0 b23e 886a f8bd 452f 26bf 3035 043e
00000190: b277 15bc 7ee4 643e ad7c a2bc c24e 133d
000001a0: 8391 99be 14fd 38bf 562f 1ebd 624b bd3e
000001b0: 312c 5abe 0292 9bbe 932b 9c3d 22ca 0bbe
000001c0: a39c 883e b9b4 203f 8d17 a1bd d8c1 8b3d
000001d0: e6d1 c2be dfb3 b53d d03f 313e cd16 573e
000001e0: c997 5dbd 397d 16be a9d1 38be 8906 4bbf
000001f0: 2d8b 143e 19ab aabd a459 0100 aff2 0300
00000200: a5cc 0380 41cd 0480 ea34 0d00 72db 0d80
00000210: 10a6 0100 142d 0d80 1163 1080 bf28 9c3e
00000220: c89d 43bd c30e 07be 754c 0a3f ec37 63bd
00000230: e3ea 693e 0b1d 2bbd 4ae4 d1bd 09e0 c9be
00000240: e35c b7be 2223 b13e fdaf ba3e 1305 9a3e
00000250: c465 743e 96d6 edbe 9a05 46be e7b3 15bf
00000260: 6dd4 033f d955 643d 9f48 c7be bfec 1fbc
00000270: f724 203f d6f2 193e c613 1fbe b74b acbe
00000280: f75d 93bd 17a6 a4be e5cc c6be 012e 6f3e
00000290: c714 923e 7f68 b13e 7bc2 4d3e 9b14 56bd
000002a0: 6c40 94be 5611 32bf 66e5 4e3f e30c 123d
000002b0: 3f8f 23bf 8fdb 4fbe 3253 783f 21bb 93be
000002c0: 36d8 3abf 5dee 183f 7fd0 febd aab4 c4be
000002d0: 389b 853e f7cb 0d3e a33d 3bbe 0cda 043e
000002e0: 3728 e83e 9ae9 25bd 89f2 a23c f25b 273f
000002f0: d864 8bbd 1b42 bcbd 0a0b 9bbc cea5 f5be
00000300: 3817 0abf d0c9 64be a069 b63e e923 a5bd
00000310: 415f 23be 40ab e1bd 30f5 2b3e e0e2 9f3e
00000320: 127e 60be 9f7e 8b3e 8e37 e8bd 1b4a 3e3e
00000330: 5935 7b3e eaaa 1b3d 96d2 5cbf 3dc1 913e
00000340: 14a2 203e 6eec 4c3e 6968 b5be c33c 023f
00000350: fcce 0dbe 8853 143f ca81 26be 7974 69be
00000360: 2edc 8c3d 5371 9fbe 2b86 833e 6308 183d
00000370: ca0b 4abe 29cb a0be e7c0 5cbe e4f6 a73d
00000380: ed39 8a3e d941 96be ab2a 18be 29ac 34be
00000390: 598e 9fbe 029a 973d 13c7 09be 9754 db3b
000003a0: 8d7d 7a3d fb2c 4c3d 0559 f9bc 0780 673e
000003b0: 2fd2 263f 2816 8dbd 1a15 ee3e d1e2 083e
000003c0: 215c 2b3e 50e1 64be 9275 34bc adea 83be
000003d0: ebf7 c1be 858f 0b3e 5f84 c53e 0f57 203f
000003e0: 2f6f 9b3e 3a50 babe 04b2 263f 24ed 3fbd
000003f0: 0e67 94be 89b2 e23c f5d0 3c3e e493 473e

conv2.bias f4 [64]
-0.14278731 -0.15549846 -8.659087e-06 -1.0783851e-16 -5.0376196e-12 -6.989312e-14 -3.9799105e-19 -1.7581387e-07
-6.076263e-09 0.250737 -1.3102917e-05 -0.30954006 -1.8627088e-30 -1.7637818e-10 -6.4254255e-07 -1.10744764e-07
0.12577145 -1.6283395e-27 -0.22467445 -9.241277e-15 -0.5404265 0.32736698 -0.078023456 -1.0211181e-33
0.7385767 -0.3987856 0.33916867 -2.8585975e-16 -0.3566554 -0.11907823 -6.215419e-15 -1.1652813e-10
-3.7499677e-07 -0.1014446 -0.05954209 -2.3756795e-36 0.13462177 0.043506205 -0.120970994 -6.7084244e-18
-1.7550895e-14 -8.424651e-10 -1.2938092e-29 -8.4680095e-20 -0.65306246 -0.20079783 0.13542153 -0.26742807
-2.7081548e-09 -2.8530533e-06 -3.7410297e-20 -4.5738813e-07 -0.44053388 -0.054966804 0.016606372 -0.43027085
0.17297505 0.11507607 -8.1463805e-30 -0.21448721 -1.7954852e-17 -4.915194e-36 -0.64507157 -2.6899184e-27
00000000: d636 12be fd3a 1fbe 7f46 11b7 9fa8 f8a4
00000010: d83e b1ac a462 9da9 b5ee eaa0 59c7 3cb4
00000020: 60c7 d0b1 9a60 803e 9ad4 5bb7 097c 9ebe
00000030: f31e 178e 0bee 41af 307b 2cb5 94d2 edb3
00000040: 3bca 003e a602 0193 0f11 66be de79 26a8
00000050: 6459 0abf a59c a73e c3ca 9fbd 8fa9 a988
00000060: 5d13 3d3f a02d ccbe 84a7 ad3e 74c9 a4a5
00000070: 899b b6be 49df f3bd 1fef dfa7 c11f 00af
00000080: 2a53 c9b4 30c2 cfbd 68e2 73bd b819 4a84
00000090: 4ada 093e 9033 323d a4bf f7bd 477f f7a2
000000a0: 9c15 9ea8 3693 67b0 3535 838f faf1 c79f
000000b0: 1a2f 27bf f29d 4dbe f1ab 0a3e 55ec 88be
000000c0: 5d1a 3ab1 1577 3fb6 46aa 309f f28e f5b4
000000d0: a88d e1be df24 61bd 160a 883c 764c dcbe
000000e0: 5f20 313e 01ad eb3d 6d3a 258f 89a2 5bbe
000000f0: b29a a5a3 b911 d184 6923 25bf 071e 5593

conv3.weight f4 [128, 64, 3, 3]
0.30633453 0.18811426 0.30727938 0.09499981 -0.21534756 -0.090929694 0.20514935 0.35878763
-0.6446024 0.09770374 0.30654794 -0.36004367 0.07218766 -0.40586033 0.20718695 -0.022278838
0.1879652 0.0034938224 -1.54835e-39 -1.505959e-39 -5.94244e-40 5.62602e-40 -4.7221e-41 -6.2492e-40
-1.072388e-39 3.48307e-40 9.1955e-40 7.70882e-40 1.2985e-40 6.31498e-40 2.82957e-40 6.79787e-40
5.65423e-40 -2.88365e-40 -7.0452e-40 -3.03367e-40 4.64379e-40 4.1654e-41 -3.60729e-40 3.17241e-40
9.5123e-41 -6.15285e-40 -7.48246e-40 7.165e-42 1.44482e-40 -8.78278e-40 -7.0087e-41 6.5953e-40
2.70158e-40 9.04743e-40 -2.3271e-40 5.81041e-40 -6.24979e-40 -2.12405e-40 6.41206e-40 -8.12837e-40
-1.73367e-40 6.26794e-40 -7.72976e-40 -1.036098e-39 9.02557e-40 5.59567e-40 -2.43548e-40 1.139351e-39
-4.88417e-40 -3.64654e-40 1.092773e-39 -1.135915e-39 6.67866e-40 1.50437e-39 1.067177e-39 -7.7122e-40
-4.64543e-40 -9.59193e-40 -4.08449e-40 -6.6133e-41 6.46998e-40 -1.066332e-39 -9.87e-41 1.78441e-40
-2.04465e-40 0.4592796 0.23483159 -0.34531698 -0.5863422 -0.13117255 0.15320264 0.16852716
-0.20005071 -0.43030664 -6.49987e-40 7.903e-42 2.8609e-41 7.66227e-40 8.87644e-40 -1.02829e-40
-4.06721e-40 -6.073e-41 -2.68099e-40 -0.35881495 0.34394515 -0.0058174087 -0.046763837 0.34202957
0.4020905 0.33178562 0.5791181 0.17101973 -1.35766e-40 8.30192e-40 3.0348e-40 -5.36828e-40
-8.93262e-40 7.49508e-40 6.48803e-40 -5.40304e-40 -6.25555e-40 1.016006e-39 5.64837e-40 9.45735e-40
-8.96802e-40 -9.57113e-40 8.16891e-40 8.07357e-40 -8.96904e-40 2.68433e-40 3.23497e-40 -7.42538e-40
-1.44706e-39 -2.81405e-40 -1.113606e-39 1.9047e-40 -1.147062e-39 7.9777e-41 -7.60538e-40 3.98888e-40
2.9609e-40 -5.5285e-41 -9.12161e-40 -6.90532e-40 -2.62703e-40 -3.49865e-40 -2.41721e-40 -5.61974e-40
0.5322005 0.043019515 -0.34744123 -0.49530998 0.057819612 -0.2526064 0.24819481 -0.21240729
-0.29134524 -1.00556e-40 7.85862e-40 -7.8916e-40 -8.4871e-40 2.47224e-40 6.56217e-40 7.3557e-41
8.49927e-40 5.61649e-40 0.13045374 -0.14474176 -0.31745875 0.025540946 -0.031241363 -0.121712044
0.06360914 0.075622045 -0.12018203 -8.6689e-40 3.43556e-40 5.1907e-40 -2.50266e-40 -2.95432e-40
-5.28829e-40 1.3011e-40 6.35755e-40 -2.21042e-40 0.17574514 0.514638 0.48956233 -0.016703973
0.23746614 -0.02002736 0.02439687 0.19065633 -0.0012108278 -0.18986817 -0.06260392 -0.16732514
0.031777944 0.005487527 0.053069048 -0.38787848 -0.12586819 -0.26291713 0.0035918239 0.020605605
0.025891244 0.029845126 0.016662698 0.017060952 0.017357932 0.012884517 0.0051232367 -5.72073e-40
-1.577e-41 -8.01866e-40 4.5326e-41 -1.030121e-39 5.6353e-41 -1.002782e-39 6.83447e-40 9.5e-40
0.23127703 0.24059373 -0.09118685 -0.19489133 0.030315248 -0.12059357 -0.02537658 0.010466625
0.5207017 0.328783 -0.10694695 0.055127222 -0.2967321 -0.29315537 -0.09727459 -0.011446215
0.05054879 0.10643811 0.21155038 -0.31938854 -0.41107222 -0.28356618 0.27106524 -0.10715906
-0.40196154 -0.24560206 0.32228068 9.44369e-40 8.85011e-40 -7.95098e-40 -2.80593e-40 4.06584e-40
8.16027e-40 1.39457e-40 3.8837e-40 2.58988e-40 -0.31386027 -0.14979047 -0.38192672 -0.098056905
00000000: e1d7 9c3e 06a1 403e b953 9d3e 438f c23d
00000010: 1284 5cbe 5939 babd ac12 523e 03b3 b73e
00000020: aa04 25bf e618 c83d daf3 9c3e a557 b8be
00000030: 20d7 933d edcc cfbe d128 543e 1c82 b6bc
00000040: f379 403e 9df8 643b 2bdc 1080 0066 1080
00000050: 8378 0680 4e20 0600 a283 0080 06ce 0680
00000060: 62ad 0b80 f0ca 0300 5503 0a00 e864 0800
00000070: f869 0100 5ce0 0600 c514 0300 f866 0700
00000080: 2b28 0600 d823 0380 eaab 0780 aa4d 0380
00000090: 800e 0500 1d74 0000 91ed 0380 5774 0300
000000a0: 2a09 0100 2ab3 0680 ce25 0880 f913 0000
000000b0: c292 0100 4890 0980 60c3 0080 802e 0700
000000c0: 17f1 0200 0eda 0900 b388 0280 b553 0600
000000d0: 30ce 0680 1950 0280 6cfb 0600 dcd9 0880
000000e0: 47e3 0180 3fd3 0600 be6a 0880 3848 0b80
000000f0: f6d3 0900 d817 0600 eaa6 0280 0c68 0c00
00000100: 8251 0580 82f8 0380 35e6 0b00 785e 0c80
00000110: bd45 0700 9261 1000 db9e 0b00 d965 0880
00000120: f50e 0580 d771 0a80 9772 0480 5ab8 0080
00000130: 910b 0700 809c 0b80 2313 0180 6cf1 0100
00000140: f739 0280 b226 eb3e b177 703e 63cd b0be
00000150: 861a 16bf 1952 06be 27e1 1c3e 6292 2c3e
00000160: 18da 4cbe 2751 dcbe e613 0780 0816 0000
00000170: c04f 0000 ee57 0800 64aa 0900 a51e 0180
00000180: c66d 0480 4aa9 0080 5aeb 0280 98b6 b7be
00000190: 9419 b03e f69f bebb 708b 3fbd 801e af3e
000001a0: cede cd3e cedf a93e 1541 143f cc1f 2f3e
000001b0: 767a 0180 3d0a 0900 fb4d 0300 75d8 0580
000001c0: 0dba 0980 5329 0800 9910 0700 26e2 0580
000001d0: cbcf 0680 3610 0b00 8926 0600 534c 0a00
000001e0: ebc3 0980 0b6c 0a80 29e5 0800 95ca 0800
000001f0: 34c4 0980 48ec 0200 c785 0300 e515 0880
00000200: d1c1 0f80 7110 0380 4820 0c80 f412 0200
00000210: 8b7d 0c80 63de 0000 1248 0880 f057 0400
00000220: 6139 0300 1d9a 0080 bcee 0980 ec84 0780
00000230: 4fdc 0280 48cf 0380 d2a1 0280 8e1e 0680
00000240: 4b3e 083f 3b35 303d d1e3 b1be 4599 fdbe
00000250: 42d4 6c3d a055 81be c826 7e3e 4c81 59be
00000260: 342b 95be 4f18 0180 aa8e 0800 db97 0880
00000270: dc3d 0980 29b1 0200 4425 0700 0ccd 0000
00000280: 4041 0900 a61d 0600 aa95 053e 2f37 14be
00000290: f489 a2be 3f3b d13c e3ed ffbc 2a44 f9bd
000002a0: 8245 823d bbdf 9a3d ff21 f6bd 8970 0980
000002b0: b2bd 0300 f5a6 0500 a4b9 0280 8b37 0380
000002c0: 29c2 0580 b26a 0100 3aec 0600 2d68 0280
000002d0: 89f6 333e 51bf 033f eaa7 fa3e c5d6 88bc
000002e0: 532a 733e 6b10 a4bc f2db c73c 6a3b 433e
000002f0: a4b4 9eba cd6c 42be 7c36 80bd 4857 2bbe
00000300: 9729 023d b7d0 b33b ee5e 593d 0298 c6be
00000310: 97e3 00be 139d 86be ce64 6b3b 16cd a83c
00000320: e019 d43c c47d f43c 3680 883c 69c3 8b3c
00000330: 3932 8e3c 9519 533c d3e0 a73b b53a 0680
00000340: f62b 0080 47bb 0880 5a7e 0000 8f37 0b80
00000350: 179d 0000 59eb 0a80 2c71 0700 3758 0a00
00000360: e3d3 6c3e 345e 763e 2cc0 babd 9891 47be
00000370: af57 f83c c3f9 f6bd 8ce2 cfbc 357c 2b3c
00000380: b54c 053f 3f56 a83e 0107 dbbd 15cd 613d
00000390: 45ed 97be 7618 96be e637 c7bd e888 3bbc
000003a0: 3f0c 4f3d 39fc d93d aaa0 583e e586 a3be
000003b0: 0f78 d2be 962f 91be 10c9 8a3e 3676 dbbd
000003c0: e7cd cdbe 1b7f 7bbe f901 a53e 8448 0a00
000003d0: 0da3 0900 69a8 0880 2e0e 0380 646d 0400
000003e0: c0e2 0800 c084 0100 9e3a 0400 f4d1 0200
000003f0: 4bb2 a0be ac62 19be e68b c3be 0fd2 c8bd

conv3.bias f4 [128]
-0.41998824 -0.26042882 -0.23108442 -0.1690198 -0.46571591 -0.07930696 -0.07324362 -0.5466135
-0.2241397 -0.3307146 -0.37529457 -0.12305472 -0.3087159 -0.13025962 0.6606243 -0.4043915
-9.249179e-23 0.14624487 -0.13291012 -0.25614563 0.04587809 -0.43119934 -0.11537124 -0.40563306
-0.43016446 -0.16122377 -0.6290709 -0.078930944 -0.19508247 -0.5366189 -0.42293707 0.12547885
0.3431458 0.028881224 -6.377519e-11 -0.03162252 -0.16223845 0.044178966 -0.09649706 -0.4428285
-0.2226252 -0.2993296 -0.05250978 -0.29880288 -0.21375105 -0.08380568 -0.25524017 -0.4128846
-0.22597791 -0.059593763 -0.06489496 -0.055879906 -0.24340716 0.12257302 -0.15506898 -3.2798118e-17
-0.20687796 -0.22849913 -0.5879924 -0.06568532 -9.331874e-25 -0.5927382 -0.43759 -0.098002985
-0.25518727 -0.2956934 -0.26489002 -0.17048556 -0.3267753 -0.058209024 -0.6260686 -0.14459486
0.23080577 0.04098499 -0.43753588 -0.008932964 -8.795895e-05 -0.45027494 -3.12466e-28 -0.20998056
-0.06030325 -0.35091293 -0.20136501 -0.1460284 -3.920336e-25 -0.4107347 -0.119700044 -3.1943307e-07
-0.048722655 -0.43155473 -0.22089888 -0.30927983 -0.09013456 -0.34649235 -0.5330248 -0.21258377
0.115722634 -0.25248596 -0.069574505 -0.04777641 -0.35648295 0.37721527 -1.1650727e-11 -0.20592311
0.030421713 -0.21590652 -0.12107032 -0.013570909 -0.05208954 0.017324205 -0.00061126985 -0.13938698
-0.30984396 -0.05450845 0.0017389618 -0.055943117 -2.131625e-18 -0.45802003 -0.15399018 -0.16697699
-0.3331211 -3.365834e-12 0.03063163 -0.48818246 -0.08990097 0.2715054 -0.00035869557 -0.36807084
00000000: b308 d7be ed56 85be 65a1 6cbe 8713 2dbe
00000010: 5172 eebe b06b a2bd c000 96bd ddee 0bbf
00000020: e184 65be 6d53 a9be 9c26 c0be 1d04 fcbd
00000030: 0310 9ebe c762 05be ad1e 293f 670c cfbe
00000040: a5a1 df9a 37c1 153e 9719 08be 8525 83be
00000050: aaea 3b3d 29c6 dcbe c247 ecbd 23af cfbe
00000060: 843e dcbe d817 25be ca0a 21bf 8ca6 a1bd
00000070: b3c3 47be db5f 09bf 358b d8be 877d 003e
00000080: ceb0 af3e 5198 ec3c 3e3e 8cae 9e86 01bd
00000090: d621 26be 01f5 343d 40a0 c5bd 6bba e2be
000000a0: dcf7 63be bb41 99be 7f14 57bd b1fc 98be
000000b0: 8ee1 5abe 50a2 abbd d7ae 82be 9c65 d3be
000000c0: c166 67be 9718 74bd a6e7 84bd 54e2 64bd
000000d0: ba3f 79be 9007 fb3d 67ca 1ebe 2f41 17a4
000000e0: d1d7 53be adfb 69be ac86 16bf 0686 86bd
000000f0: 5d67 9097 b1bd 17bf cc0b e0be cab5 c8bd
00000100: e8a7 82be 2065 97be aa9f 87be c493 2ebe
00000110: 184f a7be 966c 6ebd 0846 20bf ad10 14be
00000120: 5958 6c3e e0df 273d b404 e0be 915b 12bc
00000130: 9a76 b8b8 708a e6be 820c c691 2505 57be
00000140: 8a00 77bd dcaa b3be a132 4ebe 7888 15be
00000150: 34a8 f296 d24b d2be 4c25 f5bd 8c7e abb4
00000160: 6891 47bd bef4 dcbe 5133 62be ed59 9ebe
00000170: 7898 b8bd 7267 b1be 5074 08bf 8faf 59be
00000180: fdff ec3d d745 81be 147d 8ebd 32b1 43bd
00000190: ef84 b6be 5c22 c13e 36f6 4cad 82dd 52be
000001a0: f536 f93c 9916 5dbe b7f3 f7bd 8558 5ebc
000001b0: d75b 55bd 7eeb 8d3c a03d 20ba 76bb 0ebe
000001c0: dea3 9ebe 4144 5fbd e0ed e33a 9c24 65bd
000001d0: 4249 1da2 9a81 eabe 9aaf 1dbe 04fc 2abe
000001e0: d98e aabe 7ad9 6cac 2fef fa3c 0df3 f9be
000001f0: 001e b8bd c102 8b3e 4e0f bcb9 c873 bcbe

p_conv1.weight f4 [4, 128, 1, 1]
-1.2213471e-34 -0.0004458833 7.66977e-40 -5.481489e-09 4.0402e-41 6.2864e-41 2.7627008e-38 4.81049e-40
-1.152205e-39 9.45952e-40 -3.288862e-05 -3.16586e-40 -5.3429903e-06 5.70725e-40 -6.728404e-10 -4.18019e-40
-6.650093e-06 -9.23191e-40 -3.1116915e-18 2.19575e-40 -2.3897658e-06 4.59818e-40 -0.00036013772 -4.8140853e-18
3.63435e-40 4.5158368e-38 -6.87061e-40 6.12334e-40 -2.7550607e-14 -8.99522e-40 -0.001825407 -9.18551e-40
8.29221e-40 7.2904e-41 -9.728539e-28 5.50616e-40 3.7021375e-09 1.355919e-39 -1.361412e-39 -3.0269527e-38
-9.82072e-40 6.96546e-40 -4.92746e-40 1.04179e-39 9.47293e-40 -4.27432e-40 -0.00041782478 -4.6136614e-10
-0.0003947593 -0.00021722776 -7.078738e-14 -2.857396e-08 -8.364851e-21 -1.5332797e-17 -8.3467755e-24 -4.400244e-30
-4.8170956e-13 8.32298e-40 -1.44182e-40 7.05582e-40 -2.7715965e-05 -8.560094e-06 -8.11177e-40 -1.280016e-39
-3.7227008e-16 -6.145e-40 4.83061e-40 -4.870836e-06 -3.368587e-27 -2.3998904e-05 -0.00010620355 -8.62105e-40
-6.242111e-10 -4.1386482e-08 -6.8545e-40 -5.13726e-40 -2.122481e-17 -4.826142e-09 -1.5246696e-06 -9.6764e-41
9.73171e-40 1.51123e-40 -1.544528e-39 1.32472e-39 -1.5576313e-07 -1.5089663e-05 1.036522e-39 -5.2894976e-33
-2.524764e-13 -2.57458e-40 8.09866e-40 -9.3196e-41 9.15558e-40 -8.6820336e-11 9.5203e-41 -0.000111079804
-1.1385545e-07 -7.03606e-40 -0.0002525436 -1.6307647e-18 -4.0048387e-15 -0.00013455858 7.82669e-40 -1.7588748e-17
-2.408138e-06 3.42686e-40 -8.832873e-14 1.351636e-39 6.46656e-40 -1.262096e-39 -5.392e-40 -3.05574e-40
-5.40709e-40 -5.4857e-41 -9.060584e-15 8.96367e-40 -2.5639469e-05 -0.00012769166 1.12087e-40 -1.0343004e-17
2.44594e-40 -9.189298e-27 -1.301649e-05 -1.6157e-41 -3.5534048e-38 6.2186016e-38 -1.06604e-40 -4.35239e-40
0.002908293 -0.01682139 -0.071701854 -0.11172228 -0.012007705 0.0073427083 -0.013558921 -0.03022953
0.023423057 0.013794686 -0.01569907 0.078123055 0.00822611 0.016055463 -1.056575 -0.06667185
-2.521331e-12 0.04224539 -0.036372833 -0.005474846 -0.004414156 -0.033646584 0.09258189 -0.05441344
0.025735054 0.039171543 0.24091576 0.055192396 0.021638205 -0.050402164 0.19820042 -0.031487446
0.085003115 -0.012276453 -1.0951387e-22 -0.05825737 0.106428914 0.012239432 -0.031920947 -0.018632375
-0.021145657 0.044673715 0.0056978697 -0.15322079 -0.020687146 0.013632628 0.034235865 -0.009714394
-0.028412815 -0.056638487 -0.050704133 0.041203137 0.007171207 -0.04822467 -0.040184304 -5.34035e-40
-0.07003295 -0.014653406 -0.027856003 -0.008335767 -3.7099068e-09 0.19148341 -0.062983364 0.12871467
0.011236298 0.00031143636 0.010945626 0.022241106 -0.106677644 0.10703052 -0.0114597045 -0.03858399
0.008311775 0.009761953 -0.015101847 0.053287487 0.01942284 -0.017814593 -4.8832324e-14 -0.032538336
0.007335081 -0.004340847 0.023654502 3.8852682e-05 -2.8293736e-19 0.10344812 -0.018864764 0.012254934
0.017672015 0.014530578 -0.011897687 -0.00502183 -0.0017796721 0.0015988172 -0.0028412049 -0.029231368
0.035116553 0.017382931 0.009488013 -0.052757267 0.03809518 -0.2513427 7.6034966e-16 -0.05581632
0.014303964 -0.027462482 -0.063405134 -0.0047958987 -0.007647124 0.003539409 0.045615535 0.08109713
0.019547505 0.056698088 -0.00073388475 0.018578727 -8.5072234e-11 -0.041894022 -0.010693628 0.014717553
0.027229032 9.6945724e-26 0.011656038 0.19931364 -0.04991923 -0.1367649 -0.019073667 -0.0033681511
00000000: 4a58 2287 72c5 e9b9 055a 0800 b057 bcb1
00000010: a070 0000 3daf 0000 6e6a 1601 f83c 0500
00000020: e18b 0c80 ee4c 0a00 e3f1 09b8 8372 0380
00000030: f047 b3b6 f336 0600 eff2 38b0 448d 0480
00000040: dd23 dfb6 7b0d 0a80 319a 65a2 1664 0200
00000050: dd5f 20b6 c901 0500 ded0 bcb9 c09b b1a2
00000060: 1cf5 0300 94dd 7501 3f7b 0780 f0aa 0600
00000070: 6027 f8a8 80cb 0980 7f42 efba 8c00 0a80
00000080: 8807 0900 3acb 0000 a427 9a92 e5fe 0500
00000090: b168 7e31 c0c3 0e00 10d3 0e80 90cd 2481
000000a0: 9eb1 0a80 b095 0700 935d 0580 1658 0b00
000000b0: ab50 0a00 82a7 0480 7e0f dbb9 83a3 fdaf
000000c0: b2f7 ceb9 a2c7 63b9 2566 9fa9 cd72 f5b2
000000d0: f001 1e9e 8b6b 8da3 3b73 2199 bf7e b28e
000000e0: d596 07ab 1c10 0900 ec91 0180 e0ae 0700
000000f0: 957f e8b7 539d 0fb7 3bd5 0880 2af0 0d80
00000100: 5e99 d6a5 fab0 0680 9442 0500 2a70 a3b6
00000110: 8871 8593 4151 c9b7 99b9 deb8 3363 0980
00000120: f494 2bb0 ebc0 31b3 c176 0780 0f98 0580
00000130: aac3 c3a3 32d3 a5b1 40a3 ccb5 bd0d 0180
00000140: ce98 0a00 45a5 0100 84d1 1080 c86c 0e00
00000150: d83f 27b4 9c29 7db7 6749 0b00 96b7 db89
00000160: af21 8eaa b0cd 0280 94d1 0800 cb03 0180
00000170: 34f8 0900 81eb beae 6309 0100 84f3 e8b8
00000180: b280 f4b3 5ea9 0780 d467 84b9 8ca8 f0a1
00000190: 1e4a 90a7 4b18 0db9 c385 0800 423a a2a3
000001a0: 7f9b 21b6 45bb 0300 0ce6 c6a9 d0b7 0e00
000001b0: 9d0a 0700 36be 0d80 12df 0580 d153 0380
000001c0: 47e3 0580 eb98 0080 9238 23a8 b5c2 0900
000001d0: 5714 d7b7 f8e4 05b9 7438 0100 75cb 3ea3
000001e0: d4a9 0200 4703 3694 6661 5ab7 0a2d 0080
000001f0: 3c77 4181 5449 a901 2b29 0180 45bd 0480
00000200: 0f99 3e3b 03cd 89bc 6cd8 92bd a7ce e4bd
00000210: f7bb 44bc 1a9b f03b 3d26 5ebc eba3 f7bc
00000220: b6e1 bf3c 1b03 623c 569b 80bc fbfe 9f3d
00000230: cec6 063c bf86 833c d93d 87bf 408b 88bd
00000240: 436c 31ac 8109 2d3d aefb 14bd 5666 b3bb
00000250: a0a4 90bb 00d1 09bd 939b bd3d a1e0 5ebd
00000260: 52d2 d23c 5772 203d 9fb2 763e 6c11 623d
00000270: 9b42 b13c 8072 4ebd 0df5 4a3e fbf8 00bd
00000280: 1d16 ae3d 2d23 49bc e764 049b 489f 6ebd
00000290: 67f7 d93d e687 483c 8abf 02bd eca2 98bc
000002a0: a839 adbc c9fb 363d 32b5 ba3b e9e5 1cbe
000002b0: 1778 a9bc 635b 5f3c e83a 0c3d 1f29 1fbc
000002c0: fec1 e8bc c2fd 67bd 23af 4fbd 9fc4 283d
000002d0: 72fc ea3b 3b87 45bd 4c98 24bd acd0 0580
000002e0: 6f6d 8fbd d714 70bc 4632 e4bc be92 08bc
000002f0: 5ff1 7eb1 3a14 443e 6cfd 80bd c7cd 033e
00000300: 7318 383c 4848 a339 4855 333c fb32 b63c
00000310: cf79 dabd d132 db3d 7cc1 3bbc 3f0a 1ebd
00000320: 1c2e 083c 99f0 1f3c bd6d 77bc fb43 5a3d
00000330: a61c 9f3c e9ef 91bc d6eb 5ba9 eb46 05bd
00000340: 1f5b f03b aa3d 8ebb 16c7 c13c c0f5 2238
00000350: 4904 a7a0 9cdc d33d 478a 9abc ebc8 483c
00000360: e7c4 903c a911 6e3c 84ee 42bc 2a8e a4bb
00000370: e343 e9ba 678f d13a 8233 3abb 9f76 efbc
00000380: 60d6 0f3d a666 8e3c 9c73 1b3c 0118 58bd
00000390: b109 1c3d feaf 80be e727 5b26 a79f 64bd
000003a0: 2c5b 6a3c 00f9 e0bc 8dda 81bd ea26 9dbb
000003b0: ba94 fabb 6ef5 673b 5bd7 3a3d 4116 a63d
000003c0: 1722 a03c 413c 683d 2c62 40ba 6a32 983c
000003d0: 6913 bbae 1199 2bbd 5434 2fbc e421 713c
000003e0: 6b0f df3c a706 f015 f8f8 3e3c e018 4c3e
000003f0: 1b78 4cbd 190c 0cbe 6140 9cbc 33bc 5cbb

p_conv1.bias f4 [4]
-0.00011376724 1.1076065 -0.005552612 -0.00019939289
00000000: 5296 eeb8 0dc6 8d3f aff2 b5bb 1f14 51b9

p_fc1.weight f4 [64, 256]
-8.8809e-41 -5.28189e-40 -7.44797e-40 1.200375e-39 -3.22135e-40 5.1802e-40 -5.93799e-40 8.76278e-40
-5.23332e-40 6.1481e-40 -5.96684e-40 8.5832e-40 3.55076e-40 9.52662e-40 -1.61585e-40 2.14117e-40
5.54368e-40 -1.406593e-39 4.62295e-40 -1.094634e-39 7.38647e-40 3.94485e-40 -3.61797e-40 9.34299e-40
2.47544e-40 -6.44524e-40 -1.44695e-39 -1.39928e-40 -4.04751e-40 -8.75673e-40 -1.140646e-39 -7.2614e-40
6.4916e-40 3.41757e-40 1.2117e-41 -8.08535e-40 -8.50508e-40 -1.147064e-39 -1.00767e-39 -2.40038e-40
-9.867e-40 -5.4941e-40 2.6507e-41 8.15428e-40 7.59596e-40 9.2417e-40 3.8991e-41 -8.9208e-41
7.53037e-40 -9.27688e-40 5.9626e-40 1.305567e-39 -9.51448e-40 7.81124e-40 7.75673e-40 1.12334e-40
4.96675e-40 8.16883e-40 1.030045e-39 -7.97741e-40 1.575072e-39 3.07557e-40 7.17489e-40 -4.14758e-40
0.049308028 0.065553606 0.0790907 0.062025975 -0.04217458 0.17498137 0.14800209 0.17906049
-0.032560267 0.039420083 0.001129684 0.1447672 -0.07681575 0.079297334 0.102541625 0.03323678
0.041132685 -0.0396841 0.0095432745 0.06895743 0.2559693 -0.021740124 -0.025011055 0.1143921
0.015829878 0.048285812 -0.013660554 0.06438195 0.055333003 0.13656883 0.038887296 0.3855149
0.11550163 -0.006311127 0.14514334 0.005891772 0.0035895735 0.029947799 0.02922915 0.07866324
-0.07736576 0.20211008 0.0065893205 0.04938336 -0.015196183 0.009039143 -0.018213449 -0.01748715
0.29092404 -0.017809156 0.015985247 -0.002446076 0.11013979 0.058173183 0.12259835 0.04828085
-0.0072730402 -0.009596785 -0.007779489 0.11440817 -0.08595675 0.006497545 0.037321266 -0.18068886
-8.69581e-40 -9.58543e-40 6.83808e-40 -8.89165e-40 3.32644e-40 6.54753e-40 8.10688e-40 6.12488e-40
-1.414501e-39 2.2712e-41 -6.83223e-40 -1.89493e-40 -7.55233e-40 4.14414e-40 8.28644e-40 7.1845e-40
4.497e-42 -1.196657e-39 9.63309e-40 -4.33097e-40 -1.495016e-39 -4.93783e-40 7.75868e-40 4.42737e-40
-7.07772e-40 1.010071e-39 -2.60961e-40 -1.02409e-39 -1.3199e-40 -9.87534e-40 -6.66644e-40 6.54598e-40
-7.13058e-40 3.59709e-40 -1.9435e-40 -7.63276e-40 -4.82023e-40 -4.27203e-40 -1.73243e-40 6.76865e-40
-3.433e-41 -4.98034e-40 -5.37408e-40 -3.51834e-40 -6.82266e-40 2.5599e-41 8.86084e-40 -9.04659e-40
2.03809e-40 -6.2093e-41 8.99104e-40 3.89271e-40 -4.01092e-40 -5.04266e-40 -6.40741e-40 -7.22994e-40
-8.60215e-40 9.2099e-41 -5.03494e-40 -9.37511e-40 -6.91946e-40 -3.19116e-40 2.83272e-40 3.20024e-40
4.22451e-40 5.63242e-40 6.41806e-40 -8.036e-41 -2.17891e-40 -1.5818e-41 -9.26e-40 -7.7923e-40
-1.248293e-39 -8.58155e-40 -1.846015e-39 1.949935e-39 2.062351e-39 2.164307e-39 8.75443e-40 -1.450946e-39
8.9132e-41 2.291286e-39 -6.6786625e-38 2.5334066e-34 6.2936307e-34 3.8193955e-35 7.85981e-40 -3.09234e-40
1.167884e-39 5.52032e-40 7.877611e-34 7.669175e-32 1.199342e-31 8.221358e-33 -1.838136e-39 1.130111e-39
9.00833e-40 3.71044e-40 1.4359984e-33 8.551967e-32 9.783482e-32 8.811387e-33 -1.42555e-39 5.72083e-40
2.75648e-40 2.000152e-39 4.5393486e-36 1.1529466e-33 1.897413e-33 2.1210912e-34 4.8531e-41 3.99486e-40
-7.08628e-40 -9.68433e-40 2.250254e-39 5.40304e-40 4.62536e-40 7.7117e-40 7.85624e-40 1.312326e-39
-6.2739e-41 -1.78155e-40 1.59021e-40 -2.58025e-40 -1.9653e-40 -3.14577e-40 -1.033298e-39 4.75769e-40
00000000: 90f7 0080 60c0 0580 311c 0880 2812 0d00
00000010: fb81 0380 07a4 0500 4577 0680 b58a 0900
00000020: d6b2 0580 d7b1 0600 507f 0680 a658 0900
00000030: cfdd 0300 a25f 0a00 6fc2 0180 df54 0200
00000040: 5a09 0600 0251 0f80 b108 0500 65eb 0b80
00000050: 0c0b 0800 aa4b 0400 8bf0 0380 722c 0a00
00000060: 0db2 0200 ac04 0780 82c1 0f80 1086 0180
00000070: 4868 0480 0589 0980 a86b 0c80 2fe8 0780
00000080: 9811 0700 aeb8 0300 c721 0000 decd 0880
00000090: df42 0980 8c7d 0c80 f9f8 0a80 219d 0280
000000a0: 85be 0a80 88fb 0580 e449 0000 15e1 0800
000000b0: 7245 0800 3610 0a00 b16c 0000 adf8 0080
000000c0: 2933 0800 041a 0a80 217e 0600 6437 0e00
000000d0: 405c 0a80 7581 0800 4372 0800 2439 0100
000000e0: 8768 0500 23e5 0800 5937 0b00 c7af 0880
000000f0: a926 1100 5859 0300 11d0 0700 2d84 0480
00000100: 37f7 493d f840 863d 4efa a13d f30e 7e3d
00000110: 41bf 2cbd 512e 333e dc8d 173e a25b 373e
00000120: ea5d 05bd f476 213d e811 943a da3d 143e
00000130: 9351 9dbd a466 a23d 5801 d23d 4a23 083d
00000140: bf7a 283d cb8b 22bd 655b 1c3c 8e39 8d3d
00000150: 680e 833e 5818 b2bc fce3 ccbc 6846 ea3d
00000160: a9ad 813c 58c7 453d 84d0 5fbc afda 833d
00000170: dca4 623d b3d8 0b3e 4948 1f3d 3562 c53e
00000180: 1e8c ec3d 92cd cebb 75a0 143e c40f c13b
00000190: 0d3f 6b3b 1655 f53c f871 ef3c 311a a13d
000001a0: f171 9ebd f2f5 4e3e 3aeb d73b 3546 4a3d
000001b0: 69f9 78bc ea18 143c 5f34 95bc 3641 8fbc
000001c0: fff3 943e 82e4 91bc 7ef3 823c 584e 20bb
000001d0: f890 e13d 0147 6e3d d814 fb3d 24c2 453d
000001e0: af52 eebb d53b 1dbc 15eb febb d54e ea3d
000001f0: 180a b0bd 5ce9 d43b 2fde 183d 8006 39be
00000200: 0a78 0980 0770 0a80 2e72 0700 a1ae 0980
00000210: 479f 0300 2f21 0700 ded3 0800 5eab 0600
00000220: 0e67 0f80 503f 0000 8c70 0780 3b10 0280
00000230: 4839 0880 3883 0400 ec05 0900 bfd2 0700
00000240: 890c 0000 cb07 0d80 507d 0a00 4cb7 0480
00000250: 7f47 1080 7760 0580 ce72 0800 2cd2 0400
00000260: fbb4 0780 abff 0a00 74d7 0280 bf26 0b80
00000270: ef6f 0180 d8c0 0a80 5542 0780 c120 0700
00000280: b7c3 0780 b9ea 0300 c51d 0280 b44f 0880
00000290: af3f 0580 dea6 0480 eee2 0180 d35e 0700
000002a0: b35f 0080 516c 0580 13da 0580 c5d4 0380
000002b0: e16d 0780 5c47 0000 0ba6 0900 d2d9 0980
000002c0: 2338 0200 17ad 0080 56ca 0900 213d 0400
000002d0: 155e 0480 b07d 0580 20fa 0680 6adf 0780
000002e0: ee5d 0980 bc00 0100 897b 0580 6635 0a80
000002f0: dd88 0780 9179 0380 a615 0300 197c 0300
00000300: 9f99 0400 1722 0600 18fd 0600 03e0 0080
00000310: 645f 0280 182c 0080 5015 0a80 2d7c 0880
00000320: bc97 0d80 3058 0980 f019 1480 a03b 1500
00000330: ff74 1600 3591 1700 6188 0900 a6cc 0f80
00000340: 77f8 0000 2cf3 1800 7ccf b581 ae5f a807
00000350: 4a24 5108 eb12 4b06 ff8e 0800 055e 0380
00000360: 96b7 0c00 d702 0600 a7e3 8208 691a c70b
00000370: f9ae 1b0c 3dc0 2a0a fa03 1480 4a4e 0c00
00000380: 28cf 0900 520a 0400 9e98 ee08 9205 de0b
00000390: 64fe fd0b 5e01 370a da85 0f80 bc3a 0600
000003a0: 6500 0300 9cc7 1500 2115 c104 ed90 bf08
000003b0: 83a1 1d09 7ff8 8c07 4987 0000 9b59 0400
000003c0: 5eb7 0780 998b 0a80 cb80 1800 26e2 0500
000003d0: 5d09 0500 b565 0800 008e 0800 3b4a 0e00
000003e0: e4ae 0080 a0f0 0180 49bb 0100 45cf 0280
000003f0: d823 0280 ea6c 0380 6a40 0b80 402e 0500

p_fc1.bias f4 [64]
-0.79965436 -0.7766115 -0.561575 -0.9670624 -1.0225124 -0.6698413 -0.6555367 -0.725274
-0.71664834 -0.32034704 -0.010375894 -0.2853312 -0.31262285 0.041386925 -0.26865327 -0.67048323
-0.5769897 0.04298749 0.8702527 0.7507951 0.8194433 0.9632713 -0.030798707 -0.6035766
-1.030304 -0.36366665 0.6503514 2.4599407 2.5876489 0.7508732 -0.17495887 -0.9365417
-0.98928607 -0.26763472 0.7554197 2.4757757 2.5411384 0.813914 -0.20315592 -0.9137098
-0.5937622 -0.011462691 0.9813569 0.74454784 0.7562248 0.904692 -0.09541492 -0.5928157
-0.6644918 -0.2720491 -0.028990887 -0.26271933 -0.25233573 -0.049159463 -0.23302637 -0.7561916
-0.7558335 -0.21811654 -0.6194261 -1.0261651 -1.0348017 -0.61299294 -0.72915953 -0.7348784
00000000: 26b6 4cbf 03d0 46bf 61c3 0fbf 6791 77bf
00000010: b0e1 82bf b87a 2bbf 41d1 27bf 8fab 39bf
00000020: 4476 37bf 8704 a4be a7ff 29bc ee16 92be
00000030: 1a10 a0be 5685 293d ec8c 89be caa4 2bbf
00000040: 99b5 13bf a613 303d e2c8 5e3f 1c34 403f
00000050: 09c7 513f f398 763f 924d fcbc ff83 1abf
00000060: 00e1 83bf 8432 babe 6e7d 263f ab6f 1d40
00000070: 0a9c 2540 3a39 403f 6b28 33be 32c1 6fbf
00000080: da41 7dbf 6b07 89be 2f63 413f 1c73 1e40
00000090: 03a2 2240 ab5c 503f 1b08 50be e3e8 69bf
000000a0: cd00 18bf 03ce 3bbc 353a 7b3f b09a 3e3f
000000b0: f397 413f e599 673f e668 c3bd c5c2 17bf
000000c0: 221c 2abf 054a 8bbe 4c7e edbc 2683 86be
000000d0: 2632 81be 6f5b 49bd 779e 6ebe c695 41bf
000000e0: 4e7e 41bf f159 5fbe b592 1ebf 6159 83bf
000000f0: 6274 84bf 1bed 1cbf 33aa 3abf fe20 3cbf

value_conv1.weight f4 [2, 128, 1, 1]
0.056571674 -0.5371407 0.29353398 0.24822855 -0.6227743 -0.2117555 0.15222728 -0.4815847
-0.49135393 0.2667278 0.27469334 0.3035136 -0.2767307 0.06323708 -0.013600097 -0.6053848
4.944585e-07 -0.20711116 -0.31274876 0.15958972 -0.22134867 -0.34364223 -0.03088178 -0.3731686
0.20704265 -0.6411579 0.18059018 0.059786316 0.14247945 -0.37510246 0.24012855 -0.6742118
-0.32533327 0.17046863 0.014738139 0.17082578 -0.12149104 -0.2979235 0.16781956 -0.2076271
-0.5219707 0.46269417 -0.43652686 0.4195481 -0.31236812 -0.32154974 -0.31731722 0.31405646
0.14089139 -0.6257779 -0.22972351 0.29429182 0.31392694 0.2535232 0.2608034 6.196987e-06
0.27781302 0.18019044 -0.32844093 0.10360211 5.1213123e-05 -0.44521907 -0.379905 0.042927206
0.43321028 -0.2579112 0.40635848 -0.43688425 0.2759025 0.0864092 -0.485365 0.2577948
0.13332829 0.11258764 -0.6847641 -0.33687574 -0.051766995 -0.6789088 2.7921176e-08 0.3079279
0.22354043 -0.8279464 -0.11800919 -0.24795347 -0.00020394771 -0.6883501 0.1662323 0.0057792417
0.23305567 -0.20330891 0.24881682 -0.3961666 0.18211974 -0.10174867 -0.67029274 0.48468637
0.15065 0.23703858 -0.61390996 -0.31403887 -0.30344266 0.036834363 0.0026253702 0.15751965
0.2334324 0.22036217 0.09347334 -0.3827151 0.15114754 0.09643939 0.045985546 0.5090266
-0.13487332 -0.40447468 0.12986422 0.44831282 -5.646107e-06 -0.43703404 0.14011206 -0.18654951
-0.41756684 0.011725081 0.2659173 -0.57446194 0.30486938 -0.14468275 -0.0070971493 -0.49488738
-0.088214815 -0.023509188 -0.00030927316 -1.1395e-40 -0.01727033 3.5045623e-38 -0.08252001 -0.037488658
-0.013956812 -0.08773153 1.684113e-39 -2.6301787e-08 -0.06815368 -4.5456705e-05 -0.13412257 -0.012579819
-1.90111e-40 -1.6471e-40 -0.002811267 -0.0032262069 -5.637515e-38 3.577e-40 -0.12915054 -0.046247434
-7.6733926e-17 -8.0588485e-05 -0.004600635 1.223383e-39 -0.044806782 -0.03702296 1.955044e-39 -0.098686434
1.4373e-41 -0.0028669245 4.027e-40 -0.007971388 -7.73071e-40 -0.08018682 7.05387e-40 -7.886648e-25
-0.00023098261 -1.1021626e-07 -0.03732335 -9.397453e-22 6.15104e-40 4.16801e-40 -0.011313471 -2.65309e-40
-0.0053438935 -4.876315e-05 3.5718677e-38 -7.6251355e-10 -0.04462831 -7.837222e-05 -7.70658e-05 2.94992e-40
-5.84714e-40 -1.3233e-39 -3.61375e-40 -0.00056609523 -6.03339e-40 -0.06287777 1.481172e-39 -6.0713e-40
-3.8309567e-11 -6.53533e-40 -0.011485771 -0.004496359 -1.8614577e-38 -4.71872e-40 -0.08145117 5.40882e-40
-9.7502e-40 -0.008600943 -0.018131647 -0.042641908 -7.6568e-40 -0.023817878 -2.13104e-40 -0.02218113
-0.054092426 -0.025551504 -0.11647466 -0.08243729 2.38578e-40 -2.585985e-15 2.40716e-40 -5.9523e-40
5.0196e-40 -0.016778214 -0.012268159 -0.046973992 -1.333264e-39 8.05863e-40 -0.032531742 -2.4457388e-06
-5.1068e-40 -0.036460973 -0.10890254 -1.724047e-39 -0.031357877 -0.0025686827 -9.51173e-40 -0.0987969
-0.0046267766 -0.038881678 -5.18223e-40 -1.469183e-05 -0.09677823 6.88887e-40 6.72082e-40 1.452608e-39
9.76257e-40 -0.011292172 -6.112479e-06 2.028478e-39 -5.39905e-40 -0.0048840097 -0.00056277035 -0.005035628
-0.032267794 1.25015e-40 -0.021362633 -0.030086294 -8.9153074e-11 -4.1518e-41 1.419777e-39 -3.30687e-06
00000000: b3b7 673d 0e82 09bf 164a 963e a02f 7e3e
00000010: 236e 1fbf 6fd6 58be 78e1 1b3e 4592 f6be
00000020: be92 fbbe 8c90 883e 9ba4 8c3e 2266 9b3e
00000030: a5af 8dbe 7182 813d f1d2 5ebc 80fa 1abf
00000040: eeba 0435 f314 54be 9b20 a0be 7d6b 233e
00000050: 3aa9 62be e0f1 afbe c9fb fcbc f40f bfbe
00000060: fd02 543e ed22 24bf a2ec 383e 7fe2 743d
00000070: 22e6 113e 6e0d c0be 42e4 753e 2599 2cbf
00000080: 1592 a6be 548f 2e3e 3c78 713c f4ec 2e3e
00000090: 4bd0 f8bd 6e89 98be e4d8 2b3e 339c 54be
000000a0: df9f 05bf 40e6 ec3e 7380 dfbe 02cf d63e
000000b0: b7ee 9fbe 2ba2 a4be 6777 a2be 02cc a03e
000000c0: d545 103e fb32 20bf a43c 6bbe 6bad 963e
000000d0: 08bb a03e cbcd 813e 0688 853e b7ef cf36
000000e0: 823d 8e3e d883 383e 6929 a8be 582d d43d
000000f0: accd 5638 c1f3 e3be e882 c2be 70d4 2f3d
00000100: bdcd dd3e f00c 84be 380e d03e 4baf dfbe
00000110: 1843 8d3e 4ff7 b03d c381 f8be aefd 833e
00000120: 3687 083e 5994 e63d b34c 2fbf fa7a acbe
00000130: a109 54bd f8cc 2dbf 51d7 ef32 baa8 9d3e
00000140: c8e7 643e 4cf4 53bf cdae f1bd 84e7 7dbe
00000150: ccda 55b9 b637 30bf cd38 2a3e cb5f bd3b
00000160: 25a6 6e3e 3630 50be d6c9 7e3e 59d6 cabe
00000170: 997d 3a3e 9b61 d0bd 4e98 2bbf d028 f83e
00000180: fe43 1a3e 3eba 723e 3429 1dbf b4c9 a0be
00000190: d65c 9bbe a1df 163d 670e 2c3b d54c 213e
000001a0: e708 6f3e 9fa6 613e f36e bf3d 3cf3 c3be
000001b0: 6cc6 1a3e 0482 c53d 575b 3c3d 914f 023f
000001c0: 3b1c 0abe 4e17 cfbe 20fb 043e 4289 e53e
000001d0: b173 bdb6 edc2 dfbe 8979 0f3e d606 3fbe
000001e0: 52cb d5be 8e1a 403c 5026 883e f00f 13bf
000001f0: d717 9c3e b727 14be 348f e8bb e161 fdbe
00000200: f8a9 b4bd 5796 c0bc f125 a2b9 a53d 0180
00000210: 827a 8dbc 78ce 3e01 4000 a9bd b58d 19bd
00000220: 1dab 64bc 97ac b3bd 9f56 1200 3eee e1b2
00000230: 2894 8bbd c4a8 3eb8 6d57 09be 961b 4ebc
00000240: f411 0280 25cb 0180 3c3d 38bb c56e 53bb
00000250: bf77 9981 1fe5 0300 0a40 04be f36d 3dbd
00000260: b7ef b0a4 9d01 a9b8 ecc0 96bb 4b52 0d00
00000270: 5187 37bd 63a5 17bd de49 1500 1d1c cabd
00000280: 1128 0000 03e3 3bbb 9062 0400 6d9a 02bc
00000290: 026b 0880 fd38 a4bd 55ae 0700 7714 7497
000002a0: ec33 72b9 08b0 ecb3 5ee0 18bd a302 8e9c
000002b0: a9b2 0600 df89 0400 235c 39bc 93e3 0280
000002c0: d41b afbb 0987 4cb8 9278 4201 1f99 51b0
000002d0: 2dcc 36bd c45b a4b8 639e a1b8 5136 0300
000002e0: f25d 0680 d268 0e80 5eef 0380 0266 14ba
000002f0: dd91 0680 0fc6 80bd e820 1000 6e9c 0680
00000300: bd7c 28ae c91d 0780 d12e 3cbc 3156 93bb
00000310: deb1 ca80 6323 0580 dfcf a6bd c2e3 0500
00000320: f69d 0a80 f8ea 0cbc d288 94bc 48a9 2ebd
00000330: 6856 0880 b61d c3bc 0c52 0280 33b5 b5bc
00000340: 0590 5dbd 6351 d1bc 448a eebd e2d4 a8bd
00000350: 0f99 0200 0157 3aa7 059f 0200 427b 0680
00000360: 4377 0500 7772 89bc 6300 49bc cd67 40bd
00000370: 9984 0e80 6bc6 0800 0140 05bd 7921 24b6
00000380: 918f 0580 1a58 15bd 4b08 dfbd f1c5 1280
00000390: 1e71 00bd 5857 28bb 7c5b 0a80 0756 cabd
000003a0: 379c 97bb 6542 1fbd 98a4 0580 ee7c 76b7
000003b0: aa33 c6bd 5680 0700 7e51 0700 48d1 0f00
000003c0: 68a1 0a00 cd02 39bc cb19 cdb6 9216 1600
000003d0: 09e1 0580 0b0a a0bb e186 13ba e901 a5bb
000003e0: 3c2b 04bd 7e5c 0100 b000 afbc 8877 f6bc
000003f0: b80c c4ae bc73 0080 c375 0f00 98eb 5db6

value_conv1.bias f4 [2]
0.3780456 -0.104061395
00000000: 318f c13e 241e d5bd
