model/cnn/8x8/4aw/other4/8.pt (torch_old, 478657 bytes, 15 tensors)

conv1.weight f4 [32, 4, 3, 3]
00000000: 47e5 a53d dfeb 83be 0517 f3bd dae8 363f
00000010: c8ea 65be f20d 13bf ad70 10be 3aff f2bc
00000020: 4195 6f3e 743c 49bc 11a2 bebd 3764 173e
00000030: 41f3 2d3f 6bd0 cebd 54cf f2be 0648 d4bd
00000040: 4094 893d b023 7d3e 90d1 bb3c a9d1 8c3e
00000050: 9b01 513d 008e 27be 4cca d0bc 7647 77bd
00000060: 8282 f43d 2aa4 3b3d 8374 98bd a9d6 cabe
00000070: b4a3 c1be a466 abbe 50bf 623d 473a 523d
00000080: 18eb 8e3e 1bdb 313d 149c 453d 9bb1 553e
00000090: ac59 6e3f 7cba 9f3d bad1 2e3d 2081 bdbd
000000a0: 0c94 a0bd 3fa5 e4bd 21d3 f93d 86e2 6abe
000000b0: 0a52 d3be d823 13bf 7077 973e 7b84 91be
000000c0: b629 ca3d a760 943e a9ac 033c 2c6f 5f3e
000000d0: 2e3a 853d d15e 593e 71be dbbd dd4f 623d
000000e0: d0eb 213b 33d1 debd 8e2c 343d 9d3b b0bd
000000f0: f1a1 743b d3f3 503e a8f1 bfbb 247b 24bd
00000100: 0a3a f33c 33ed 8f3d a5f1 2cbd 41f8 d73d
00000110: 6136 edbc f062 5d3d 307a d13d 5751 b63d
00000120: 0b22 063e 1e4a 293f 3a2f 033e 7bb3 f9bc
00000130: 9126 6c3c 6c3a 15be 5b9c 2b3d b8d9 e03e
00000140: 1c1f fc3d c7ba c8be 39fa bcbd 5853 8dbe
00000150: b037 dc3e 9ae6 d8ba 7002 f23e df51 d1bd
00000160: 60dd 54be a520 38bc 382f ee3c 95ba 083b
00000170: f67a 443e ea31 973d 73c8 193e 4b74 aebd
00000180: c0eb 18bd 9a9b a0be 186f 75bd 3b25 71bd
00000190: 1be0 543e 77e4 1dbe c7e1 fe3d 3cae ee3d
000001a0: 07da 80be ca6b 96bc 63fe c43d 0a45 1bbe
000001b0: 6d87 8d3d b531 0a3e 3318 b53d 5d00 6b3e
000001c0: e9aa 303f 06d0 20bc d866 143f e025 ce3e
000001d0: 2ab2 6a3d 2142 b83d 6d53 0c3e 2a6c 59bc
000001e0: 7f62 7cbc 36b3 ef3d a512 2fbd 768b bfbe
000001f0: 2fd8 3a3d 67c0 093e 9e52 403c bbf8 483c
00000200: 1ca4 173e 828b 13be b4da eb3c 03de 763d
00000210: 721c 62be ad2d 02be d760 e2bd 3424 053c
00000220: 74d4 e3bd 6e34 41be 988c a53d 59b2 8d3d
00000230: fe53 ad3d a09d 2c3d 8847 a33d 4ed8 8f3c
00000240: 07f8 01be 7b77 b2bd 2de1 88bd 4d4d 74bd
00000250: c677 07be 1153 34be 4adb 89be 5726 1c3f
00000260: 6cbc 20be 3430 d0bd d6ec 94bd 1f04 a3be
00000270: 1ce7 fd3b 88b1 1e3e 2162 603d b100 b03d
00000280: 92f8 c8bd 5ffc 833d 6e80 8e3e 1f9b 063c
00000290: 9f59 07be 765c e13d a393 28be 80df 603d
000002a0: 9fe0 01bd a7ae e2bd 015a 023e 78a1 a0be
000002b0: 01fc f43d 2ad2 6d3e 16f3 eebe a9f2 9f3d
000002c0: 2f37 013e 3046 bebe 4b41 f73d 69a5 943d
000002d0: 15aa 9b3e 6ea6 b7be c58a babd bad7 a3be
000002e0: 0668 f13d dd85 a73d 8102 ddbd 0314 77bc
000002f0: 891f efbd be39 e6be 4bf1 e7bd 250d 5b3c
00000300: cc95 3fbe 0146 473e 3179 4bbe 68d8 9e3c
00000310: 914a aa3d 31df 093f 17b6 b6be e124 a0ba
00000320: dee1 41be daa4 90be c2d7 a2bd 932a 68bd
00000330: 68d3 bfbd c935 033e db45 8bbe ea77 cfbe
00000340: a394 fabe 6e86 1abf 1792 963e 7f87 953d
00000350: c844 3cbe 7809 843e 63b7 af3d 1178 ccbb
00000360: b18c 0bbe 7e48 273e 0f28 ccbc 0724 c1bc
00000370: e19e 083f 7b19 7bbe 3066 2fbe c1d0 19bd
00000380: 25cb 79be 19f1 88be 2970 8dbd c9fd 8cbe
00000390: 2529 3b3f f918 79be 3a32 07bf 86c1 98bd
000003a0: 99e8 2bbd a32e f83d 28d4 853d 2e7d 833c
000003b0: c6dc 5b3e ea0f 84be f6c4 18bd df0d 82be
000003c0: 31d2 fb3d 58bd f3bc 64b7 3e3d 6cf9 95bb
000003d0: f3bf f73d 4900 9e3d c0e5 62bd 4f68 4abd
000003e0: aa41 a03d 2238 b7bd 728a 2bbd 55bf c13c
000003f0: 565d 823e 81c7 cf3c bf09 013f 5cc8 9cbd
0.08100372 -0.25765893 -0.11869625 0.71449053 -0.22452843 -0.57443154 -0.14105482 -0.029662717
0.2339678 -0.01228248 -0.093082555 0.14784323 0.679493 -0.10098346 -0.47423804 -0.103653
0.067177296 0.24720645 0.022927076 0.27503708 0.05102692 -0.16362762 -0.025487088 -0.060370885
0.11938955 0.045810856 -0.07444098 -0.39616898 -0.37820208 -0.33476746 0.05535823 0.05132511
0.27913737 0.043421846 0.04824455 0.20868532 0.9310558 0.07799241 0.04268048 -0.09253144
-0.07840738 -0.11164331 0.12198473 -0.22937974 -0.41273528 -0.5747657 0.2958331 -0.28421387
0.09871237 0.2897999 0.008036771 0.21819752 0.065052375 0.21227576 -0.10729683 0.055251945
0.0024707206 -0.10879745 0.043987803 -0.0860512 0.003732797 0.20405512 -0.005857665 -0.0401565
0.029690761 0.07027664 -0.042222638 0.105453975 -0.028956594 0.054049432 0.102283835 0.08902233
0.13098924 0.6612872 0.12810984 -0.03048109 0.014413492 -0.14573067 0.04189716 0.43916106
0.12310621 -0.39205 -0.09227414 -0.2760265 0.43011236 -0.0016548217 0.47267485 -0.10220694
-0.20787573 -0.011238252 0.02907525 0.0020863165 0.19187531 0.07382567 0.15017872 -0.08518275
-0.037334204 -0.31368715 -0.0599204 -0.058873396 0.20788614 -0.15419184 0.12445407 0.11654326
-0.25166342 -0.018361945 0.09618833 -0.15163055 0.06910596 0.13495524 0.08842506 0.22949357
0.6901079 -0.009815222 0.5796943 0.4026327 0.057298817 0.08996988 0.137037 -0.013270417
-0.015404343 0.11704104 -0.04274239 -0.37411088 0.045616325 0.13452302 0.0117384475 0.012266333
0.14808697 -0.14408687 0.02879081 0.06027032 -0.22081164 -0.12712736 -0.11053627 0.008126307
-0.111245066 -0.18867657 0.08083457 0.06918783 0.08463286 0.04214251 0.07972628 0.017559197
-0.12692271 -0.08714195 -0.06683574 -0.059644032 -0.13229284 -0.17609812 -0.26925117 0.60996
-0.15696877 -0.10165444 -0.07271735 -0.31839082 0.0077484977 0.1549741 0.054781083 0.08593882
-0.09813036 0.0644462 0.2783236 0.008215695 -0.13217781 0.11003964 -0.16462569 0.054900646
-0.031708356 -0.110684685 0.12729646 -0.3137319 0.119621284 0.23224702 -0.46669835 0.078099556
0.12618707 -0.37162924 0.120730005 0.07258112 0.304032 -0.35869163 -0.091084994 -0.32000524
0.11787419 0.08179829 -0.10791493 -0.015080455 -0.11675937 -0.4496593 -0.1132532 0.013369833
-0.18709487 0.19460298 -0.1987045 0.0193903 0.08315004 0.5385619 -0.356858 -0.0012218022
-0.18933818 -0.28250772 -0.07951309 -0.056681227 -0.093664944 0.12813486 -0.27201733 -0.40521175
-0.48941526 -0.60361373 0.29408333 0.073012345 -0.18385613 0.25788474 0.085799 -0.006239899
-0.13627888 0.16336247 -0.024921445 -0.02357675 0.5336743 -0.24521439 -0.17128825 -0.0375526
-0.243939 -0.26746443 -0.069061585 -0.27537373 0.73109657 -0.24325933 -0.52811015 -0.07458787
-0.04196987 0.1211827 0.06534606 0.016050901 0.21470937 -0.2579339 -0.03729721 -0.25401208
0.1229595 -0.029753372 0.046561614 -0.0045768525 0.12097158 0.07714898 -0.055394888 -0.049415883
0.078250244 -0.08946253 -0.04188008 0.023650805 0.25461835 0.025363686 0.50405496 -0.07655403

conv1.bias f4 [32]
00000000: 1d57 e33a 2ff6 58be cff8 8bbe dd5c e3be
00000010: eb23 fe3d 76fa 263e e8f7 b6be 6cc7 37be
00000020: 31f8 8c3d 2939 0d3e aced 57be dc0e 93be
00000030: a9cd c1be 957f aabe 861f 8bbe af49 5ebe
00000040: a642 15be e0d8 25be 3d84 60bd a573 613e
00000050: 6e44 a9bc bd54 0f3f 3881 89be d629 d3be
00000060: 163d 2b3d 8a80 1fbe 95dd 4ebe c37f 96be
00000070: 0fd5 0abe b4a6 7fbe 0c75 4fbe 2075 77be
0.0017344687 -0.21187662 -0.27338263 -0.44406787 0.124091946 0.16306481 -0.35736012 -0.17947167
0.06883276 0.13791336 -0.21086758 -0.28722274 -0.3785222 -0.33300462 -0.27172488 -0.21707796
-0.14576206 -0.16196012 -0.054813612 0.22016771 -0.020662513 0.55988675 -0.268564 -0.41242856
0.041806303 -0.15576378 -0.20201714 -0.2939435 -0.13557838 -0.24965936 -0.20259494 -0.24165773

conv2.weight f4 [64, 32, 3, 3]
00000000: f098 f63e cf2a 8bbd a4f9 7c3b cd79 18be
00000010: 3e9b b4bc 734c 093d 111e 7bbe acfd 263d
00000020: acae afbd b440 acbe afcd c63a 76b0 193b
00000030: 0e7c aa3d 2985 06be 268f 42be fa64 25bd
00000040: 0b2d f63d 16f1 733d ee60 b63d d69f 0e3e
00000050: 9e6c ebbc 385b fc3d ffa8 4f3b 48bd fdbc
00000060: 3204 77bc 1ad8 773e 880c 40be d66b 97bc
00000070: 12af f6bd 1c1d bcbd 1d80 043e 8195 05be
00000080: d69c c5bd ed5a f93d 7293 d1bb 0b76 dd3d
00000090: 8e61 4e3e a458 623e 755e 18bd a428 273e
000000a0: 230b 91bd 0ddb 31bd d25c ec3d baca 0bbe
000000b0: 6c4a d8bc 05fb 1e3e b878 8d3e 925b bebd
000000c0: 05cd c1bd b934 bbbd 4c94 99be 2a84 2a3d
000000d0: 4fef a1bc 51aa fbba 3964 013d a54b 353d
000000e0: 60c2 0cbe b793 d03d 1cdb 92bd 6c59 5bbd
000000f0: 7c01 7cbe b6e1 673d 8e36 293c f112 ea3d
00000100: b9c3 553d 00da dbbc 66bc d73c 7653 f23d
00000110: fa9a 86be 71e5 a43e d2ad 70be cc21 98be
00000120: 6b73 21bd 8155 1b3e 6616 71be 6262 0dbd
00000130: 3cfa 0bbc b27f d53d 54e6 c93d be20 5f3e
00000140: d4c4 73be 3116 5bbd 9460 34be 92f2 a93d
00000150: d197 fa3d 26ae 68bd e3c8 7dbe 4bad 233e
00000160: 9146 d8bc 6eb4 083e 1a87 363e 77fc 5d3e
00000170: e92e 773d c0b4 da3d feae 02be 8c90 183d
00000180: 451b 20bd ae33 443e e627 68bc 7dc9 333d
00000190: 12b0 8bbd f686 a8bd 52a3 14be 1c51 d53d
000001a0: 183b 64be 837d 59be 00e5 d5bd 1215 113d
000001b0: 5716 15be 7775 2bbe 5346 523c 2f5f 28be
000001c0: 1a83 c0be 0e3e f73c 1d00 32be 8b2d 80be
000001d0: 4a9e 93bc 671d a9be fd05 bf3e 21ad 0cbe
000001e0: a279 fc3d fba3 38bd 3c44 a5bd 8dce 88be
000001f0: 322c 573d eb7f 7fbd 3d84 d23d d887 5abb
00000200: 868b 11be 00c5 e33c 3891 6f3d d8f8 9abd
00000210: 17d7 953d 0ffa cebd ca7f fc3d fa0c 7d3d
00000220: a2d6 d6bd 0581 f7bd 717f 433e 6cb2 813d
00000230: eaef 953d b360 2ebd c30e 51be 3a20 25be
00000240: 727a 14be 9f78 72be 8602 b2bd ad56 4bbe
00000250: 935b 293d d17a 67be 9370 5cbd 4105 fcbd
00000260: af6b 90bd 3e01 533d 86bc fbbd 46ee 8c3d
00000270: 40c8 18bd de39 9dbb 020b 2bbd 43b2 113e
00000280: 7ed8 f3bd 2db0 85be e79a f7bd 0ddb 23be
00000290: c3cc 193e 3b9c 19bc 09d4 b8be 9e08 04bf
000002a0: 1bf9 81be 3f26 b7bd 2234 8a3d 42af 0cbd
000002b0: d935 783d 195c a6be 4f5e 883e 9ca5 6d3e
000002c0: a425 2bbe 643b 253e b5a6 053e 0f6e 97be
000002d0: 8ea1 7dbe f72c 803d 1e94 d83d bd4a a4be
000002e0: d4e8 783d 7617 06be 8ff4 68be 6017 82be
000002f0: 3e78 723d 6021 373e ab5e 003e bbe6 81bd
00000300: 1600 a83d 029f 9d3d 5a23 07be d9ba 823e
00000310: 7695 e93d f68f 8abd 98e6 dbbd 35ba 8cbe
00000320: 92a0 56be 1428 88be 7a14 8bbd 0e4c 4e3b
00000330: dcf2 cabd 44f0 f9bd 9d4d 4cbc e8ee 533e
00000340: 86b8 6bbe 077f 91be 5523 a0bd b44a 263d
00000350: 29c2 aabe ad2e 383d 06ac 1fbe 4ff1 123d
00000360: 8935 0dbc 4975 223e ca5a a3be 339b 083e
00000370: c22c 0ebd 997d af3d 1a55 883d 8542 b13e
00000380: 3363 f13d 83c0 883d 89a9 213e b02a 50bc
00000390: 975e 0b3e d6cf 0b3e f3e6 b0be 8264 553d
000003a0: 15a5 89bd 36d6 62bd a8be 483e 1df9 b3be
000003b0: 67fb 32be 2a60 06bf ca4d 84bc 52e2 67be
000003c0: c2f6 c7be 3244 a9be 8be8 0abe aab6 51be
000003d0: c03c e43d 3b99 823e 79fe 853e 1ebd ebbd
000003e0: d9c2 a23c 3b34 503e 7cce 5f3d 5762 6bbd
000003f0: 3693 6dbe 7bea 243e 8b5f 70be 72cb f4bd
0.48163557 -0.067952745 0.0038600946 -0.14890213 -0.022046681 0.033520173 -0.24523188 0.040769264
-0.08578238 -0.33643115 0.00151675 0.0023451126 0.08324443 -0.13136734 -0.1899992 -0.040379502
0.1202031 0.05955609 0.089052066 0.1392816 -0.028738316 0.12322086 0.0031686423 -0.030974045
-0.015076684 0.2420353 -0.1875478 -0.018484037 -0.12045111 -0.0918524 0.12939496 -0.13045312
-0.09649055 0.12175546 -0.0063957507 0.108135305 0.20154402 0.22104126 -0.037199456 0.16324097
-0.07082202 -0.043421794 0.115411416 -0.13651553 -0.026402675 0.15525444 0.27631164 -0.092948094
-0.094629325 -0.091409154 -0.29995954 0.041629948 -0.019767432 -0.0019200539 0.03158972 0.044261593
-0.13746023 0.10184424 -0.07170698 -0.053552076 -0.24609941 0.05661174 0.010327948 0.11429394
0.05218861 -0.026837349 0.026334953 0.11832325 -0.26290113 0.322063 -0.23503807 -0.29713285
-0.03941671 0.15169336 -0.235437 -0.034517653 -0.008543547 0.104247466 0.09858385 0.21789834
-0.23805553 -0.05348796 -0.17614967 0.0829822 0.12235988 -0.056806706 -0.24783663 0.15984075
-0.026400836 0.13350078 0.17824975 0.21678339 0.06034747 0.106790066 -0.12762067 0.037247226
-0.039088506 0.19160339 -0.014169669 0.043893326 -0.06820692 -0.08228867 -0.14515427 0.10415861
-0.22288167 -0.21239285 -0.10444069 0.035420485 -0.14559303 -0.16744028 0.012834149 -0.1644256
-0.37600023 0.030180957 -0.17382856 -0.25034747 -0.018019814 -0.33030245 0.37309256 -0.13737918
0.12327887 -0.04507826 -0.08069655 -0.26720086 0.052532382 -0.06237785 0.10279129 -0.003334513
-0.1421338 0.027803898 0.0584881 -0.075669944 0.07316416 -0.10106289 0.12329061 0.061779954
-0.10490157 -0.120851554 0.19091584 0.063328594 0.073211506 -0.04257269 -0.20415787 -0.16125575
-0.14499834 -0.23678826 -0.086918876 -0.19857283 0.041347098 -0.22605444 -0.053818297 -0.123056896
-0.07051789 0.051514857 -0.12291817 0.068813846 -0.03730035 -0.004798158 -0.041758545 0.14228158
-0.11906527 -0.26110974 -0.12090092 -0.1600153 0.15019517 -0.009375627 -0.3609927 -0.5157565
-0.25385365 -0.08942842 0.06748225 -0.034346826 0.060598228 -0.3249214 0.26634452 0.23207706
-0.16713578 0.16135937 0.13051875 -0.29576156 -0.2476866 0.06258576 0.10575126 -0.3208827
0.060768917 -0.13094887 -0.22749542 -0.2540846 0.059196703 0.17883825 0.12536113 -0.063428365
0.082031414 0.07696344 -0.1319708 0.25533178 0.114054605 -0.067657396 -0.10737342 -0.27485815
-0.2095969 -0.26593077 -0.06791015 0.0031478438 -0.09909603 -0.1220403 -0.012469676 0.20696604
-0.23019609 -0.28417227 -0.07819239 0.040598586 -0.33351257 0.04496639 -0.15592965 0.03587466
-0.008618721 0.15865053 -0.31905204 0.13340454 -0.034710653 0.08568878 0.06656857 0.34621063
0.11786499 0.06677344 0.15787329 -0.01270549 0.13610302 0.13653502 -0.345512 0.052097805
-0.0672094 -0.05538007 0.1960398 -0.35150996 -0.17478715 -0.52490485 -0.016150374 -0.22644928
-0.3905545 -0.3305984 -0.1356527 -0.20479837 0.111444 0.2550753 0.2617071 -0.115106806
0.019868301 0.20332424 0.05464028 -0.05746683 -0.23200688 0.16105072 -0.23473947 -0.119528666

conv2.bias f4 [64]
00000000: 22df 7bbd 5bb4 e3bb cb94 90be d4e6 19be
00000010: 4e9b c1be fd24 4abe 2eb7 273d a63c 80be
00000020: 751c 79be 79bc 0abe 5fb1 73be 5277 9ebe
00000030: b616 8bbe 8f27 f1bd f3d8 83be cc74 48be
00000040: e139 45bf 92c6 1b3d 377a 5fbe 2d26 68be
00000050: cb29 60bd 9042 53bc 7aec c6be ed37 663d
00000060: a959 7c3d cd97 0fbe 1f67 95be 7dfc 1c3d
00000070: 920b b2bd e612 36be 0bc4 5b3c 8e3f d4be
00000080: ae67 48be 3788 43be b0ad dbbd ba60 c8bd
00000090: b032 1fbf 1b7e 17bf 40cd 1dbd bc21 f4bd
000000a0: 3670 d6be e41a 1bbf b72c ddbe 9b46 2ebe
000000b0: e55a c9be a1ac d0bd 792d 44be 9483 19bf
000000c0: 3c45 0dbe 224b 5dbe cee3 40be 4645 923d
000000d0: c6db 7abe 4ce7 f5bd 8a0b 1bbe e050 5dbd
000000e0: b69e a9be f6d7 a4be 7bf7 7fbe 01ab 24be
000000f0: 28a4 20bf d35f 0cbe 8e3e 44be 5058 5bbe
-0.061492093 -0.0069489903 -0.2823852 -0.1502946 -0.378138 -0.19740672 0.04094618 -0.2504627
-0.24327262 -0.13548459 -0.2379813 -0.3095041 -0.27165765 -0.11775123 -0.25751457 -0.19575804
-0.7704144 0.03803117 -0.21823965 -0.22670813 -0.054727357 -0.012894288 -0.38852292 0.05620568
0.061608944 -0.14022751 -0.29180238 0.03832673 -0.08693613 -0.17780647 0.0134134395 -0.41454738
-0.195708 -0.1909493 -0.10726488 -0.09784074 -0.6218672 -0.59176797 -0.03852582 -0.11920497
-0.41882485 -0.60587907 -0.43198177 -0.17019121 -0.3932716 -0.10189176 -0.19157971 -0.599664
-0.13795942 -0.21610692 -0.188369 0.07142119 -0.244979 -0.12007007 -0.1514112 -0.054032207
-0.331289 -0.32196015 -0.2499675 -0.16080858 -0.6275048 -0.13708429 -0.19164488 -0.21420407

conv3.weight f4 [128, 64, 3, 3]
00000000: a538 673e 4441 3dbe 2529 41bc 574c ab3c
00000010: 7192 06be 20a0 a9bc 095f 863d 9f34 fdbd
00000020: d8c9 d5bd 0e98 3dbe 6733 3f3d 75dd 88be
00000030: 30d3 19bd 3b1f c4bd c10c 3b3e 8c50 153e
00000040: 2c2f 60bd df02 01be fbfa 483c f5dc 2fbc
00000050: d661 5dbc 0e8e a4bd c987 c0bd 24a5 563e
00000060: 585a 40bd 3bf4 3dbd 6643 07be 6a25 463d
00000070: 00e3 e93a 4304 7f3d de35 fe3c 9af1 543e
00000080: 7c39 d0bd 1b8a 723d 2ef8 52be 5442 99bd
00000090: 6fa3 103b bbd4 b1bc fd07 8a3c cede 733c
000000a0: 1b8f 2abd dc86 bcbd c417 9f3c 4a93 8e3c
000000b0: cf2f 7e3a 6656 18bd 9c8d 1a3c 196e 1ebe
000000c0: 5f86 e0bd 14f9 223c e7cf bfbd 16d5 9f3c
000000d0: 4117 4e3c 6e4f 653d 3de6 4cbd b5bd 6dbe
000000e0: d52c 2abe 6524 02be 4f92 9abe fcfb 88be
000000f0: 448b a2bd 002a 80be 5a0e 743d d268 3bbe
00000100: 1e3e 813d a4a2 cfbd c90f da3c bdd7 a3bd
00000110: 965a 993d 2d6b 38bd 7e1b 0dbe 40fa d13c
00000120: 5af6 c2bd d9cf e43c d591 683c bbdb b9bd
00000130: 51b5 3dbe 573f e63d 7eed 893c ba72 aebd
00000140: 95e6 89bd 141d ab3e 2532 863d ed62 953e
00000150: d753 03be 4cc0 56bd b71d 8bbe bb59 8bbe
00000160: 7f89 4d3d 73d5 34be 2bf0 40be 6416 59bc
00000170: 3442 523c 4070 e3bd e7b4 90bd 96bc 743e
00000180: 4707 13be 9e8d 38be e026 87be e666 833c
00000190: ea87 80bd 3e6a cbbd f59b 65bd 3cd1 69bd
000001a0: 1286 83bd 06a2 883d 6c79 163d d5b6 ca3c
000001b0: 0cca b4bd 4e1c 5f3d f837 3f3e 85f8 65bc
000001c0: 1a42 ecbd 6fd0 8ebb 0cb4 5d3d fe08 53bc
000001d0: c5db 5ebd b44e 40be 5ed3 623e a3ca c2bd
000001e0: 65d1 c23e eaca 95bd 8912 d53c 6b55 81bd
000001f0: 9fe0 12bd c2b9 74be d2a1 96bd f47d 24bd
00000200: 1d6e c6bd b20d 3dbe e98d c6be 1049 773e
00000210: 3aec 0bbd 251b dbbd 054d a6bb 48f5 423e
00000220: acf6 1dbc 294d e2bd 8298 92bc 57c0 c43d
00000230: c985 68bd b4d3 0a3e 7695 cd3d ede1 14bd
00000240: fcfa 4f3c ce1a 1d3e 705a 2e3d 921d cc3d
00000250: f510 a6bd 68f7 7e3e 4ccf 2f3e d725 aebc
00000260: a428 8c3d 30df 5bbd dadd debd f499 e3bd
00000270: 814e 06bd a204 1ebe 81bd d9bd a900 f8bd
00000280: 792e 453d a417 773e 15c7 45be ebb9 8abe
00000290: d69e 3e3d 15ce a03d b9fb 81be 16a1 83bd
000002a0: 091d 52be be85 2fbe cb1b 0ebd 5b29 8fbd
000002b0: d57b a5bd 80eb 103d 7c38 bebc 2840 3dbe
000002c0: 2a4d b63d f161 ddbd adcb 3abe 3774 143d
000002d0: 75f9 30bd 6a69 2dbe ed21 313e fe48 d93c
000002e0: 991d 6fbd a849 d53c 6afa af3c 9e6c 0cbd
000002f0: 8baa 9a3d a70d d9bd e508 52be 8117 9e3c
00000300: 3b0c 2bbd 4a18 ee3c ade3 153d 016f 6ebd
00000310: 33a0 653c 5dbe b93d 2032 08be 4f79 70bc
00000320: d678 563d 305f 673d 524b dbbd 9301 edbc
00000330: 8144 89be 2188 9f3d 1f5c 12bd 7cdd 50bd
00000340: bdae 15bc 41f9 08bd d58b 173d 6f01 04be
00000350: 174d 3fbe ce35 44be ff78 da3b 9e94 a9bd
00000360: c491 6fbd a42d fcbd a755 82bd c644 25be
00000370: 1499 a8bc 9966 c0bc 6537 01bd 7184 17be
00000380: ba61 0ebe 658e d1bd 4946 80bd 6512 72bd
00000390: 03c5 06bd 0a8c 1cbe b782 883e 3263 433c
000003a0: ba19 253d 4763 9e3d b7b2 e6bd f361 92bd
000003b0: 0316 b33c 0506 1cbe a126 7abe 234d 64be
000003c0: 3af7 4fbd 6378 bdbe d9c3 54bd 5100 013e
000003d0: c1c1 6dbd 70be 0dbe 8f0e d2bd 94f4 94be
000003e0: 674b 22be f02f 69bc 36cc b53d 8f3f 0a3d
000003f0: 7e62 133e 3bd6 9cbe c679 223e 0117 793d
0.22580202 -0.18481928 -0.011789595 0.020910425 -0.131418 -0.020706236 0.06561095 -0.12363552
-0.10438889 -0.18515036 0.04667988 -0.26731458 -0.03755492 -0.09576269 0.18266584 0.14581507
-0.054732487 -0.12598751 0.01226687 -0.010733833 -0.013512095 -0.08034907 -0.09400899 0.20961434
-0.04696116 -0.046375494 -0.13209304 0.048375525 0.001784414 0.062259924 0.031031545 0.20795289
-0.10167214 0.05921374 -0.20602486 -0.07483354 0.002207007 -0.021707883 0.016849512 0.014884664
-0.041640382 -0.0920541 0.019420512 0.017404217 0.0009696455 -0.03719177 0.009433176 -0.15471686
-0.10963129 0.00994708 -0.09365826 0.019510787 0.012578786 0.055983953 -0.05002426 -0.23216899
-0.16618665 -0.12709196 -0.3018975 -0.2675475 -0.07936719 -0.25032043 0.059584 -0.18301705
0.06310676 -0.10138443 0.026618855 -0.08000133 0.07487981 -0.045024086 -0.13780019 0.025632024
-0.09519644 0.02793114 0.014194925 -0.090751134 -0.18526198 0.1124255 0.016836878 -0.08517976
-0.06733433 0.33420622 0.06552533 0.29177037 -0.12824951 -0.052429482 -0.27171108 -0.27216896
0.050179955 -0.1765955 -0.18841617 -0.013249967 0.012833167 -0.11105394 -0.070657544 0.23900065
-0.14358245 -0.18022773 -0.26396847 0.016040277 -0.062759236 -0.099323735 -0.056056935 -0.057084307
-0.06422056 0.066715285 0.03673689 0.024745384 -0.088276 0.054470353 0.18673694 -0.014036302
-0.11536045 -0.0043583433 0.054126784 -0.012880562 -0.054408807 -0.18780023 0.22150943 -0.09511306
0.3805038 -0.073140934 0.026009815 -0.0631512 -0.035858747 -0.23898986 -0.073550835 -0.04015918
-0.09688971 -0.18462256 -0.38780144 0.24148965 -0.03416083 -0.10698537 -0.0050750994 0.1903888
-0.009641331 -0.110498734 -0.017894987 0.096069984 -0.056768212 0.13557321 0.10038273 -0.036348272
0.012694117 0.15342256 0.042566717 0.099665776 -0.08108703 0.24899065 0.17168921 -0.021258278
0.06843689 -0.053679645 -0.108821586 -0.111133486 -0.03278971 -0.15431455 -0.10631848 -0.12109501
0.048140023 0.24130112 -0.19314225 -0.2709497 0.046538197 0.07851807 -0.25387362 -0.06427209
-0.20518889 -0.17140862 -0.034694474 -0.0699031 -0.0808026 0.03538084 -0.023220293 -0.18481505
0.089014366 -0.108096965 -0.18241759 0.036243644 -0.04320665 -0.16934744 0.17298098 0.026524063
-0.058377836 0.026036099 0.021481711 -0.034283273 0.0755206 -0.10598307 -0.20511205 0.019298317
-0.04175971 0.029064316 0.03659408 -0.05821133 0.014015245 0.09069512 -0.13300371 -0.01467736
0.052361332 0.056487262 -0.107077256 -0.028931415 -0.26810077 0.077896364 -0.035732385 -0.050992474
-0.009135899 -0.033440832 0.03699859 -0.12891172 -0.18681751 -0.1916115 0.006667256 -0.082802996
-0.058488622 -0.12313393 -0.06363993 -0.16139516 -0.020580806 -0.023486422 -0.03154697 -0.14796616
-0.13904467 -0.10232238 -0.06263406 -0.059099574 -0.03290273 -0.15287796 0.26662228 0.0119255055
0.040307738 0.077337794 -0.11264556 -0.071475886 0.021861082 -0.15236671 -0.24428798 -0.2229505
-0.050772883 -0.3700591 -0.051944587 0.12597777 -0.058046106 -0.13842177 -0.10256683 -0.29092848
-0.15849076 -0.014232621 0.08876841 0.03375202 0.1439304 -0.30632195 0.15866765 0.060812954

conv3.bias f4 [128]
00000000: 3f78 dabe 5979 63be f7ba 31bf 2935 aebe
00000010: 8577 59be 337a 83be a37b 61be 2300 02bf
00000020: 548a f7be 65ad 9ebe 1212 3fbe 0dbc 8fbe
00000030: fdbe 82be 9af1 dabe 7563 84be ecb8 73be
00000040: 6b35 8dbe 66aa b5be 684b 6bbe b9ac 85be
00000050: b5cc d6be 360a aebe 865c 25be d3ae 53bd
00000060: 563a 99be 314c 2dbe ee05 dabd d5d9 8cbe
00000070: 2508 5bbe dca9 babe 3f06 58be ce1e 37bf
00000080: 6715 f0be e03e bebe 4bf4 bcbe 1e77 54bd
00000090: e950 a7be aa60 80be 33e3 dcbe 22f5 0cbe
000000a0: 5720 e3be 3cff 1bbe 58bf b3be b2ea 91be
000000b0: 6eea a9be 66aa a7be 8708 07bf 31f3 adbe
000000c0: 0f57 e1be c364 0abf 2695 4dbe a778 70be
000000d0: 996d 84be 67f3 57be f5d5 b2be 05c2 83be
000000e0: f549 62be 4dc3 88be e44c f8bd bdbf 89be
000000f0: 279c dcbe 0d03 14bf bae9 f4be 8bec cabe
00000100: 1d39 883d d758 733e 2fd5 d4bd b679 25be
00000110: 168e 61be c3ed b3be f0d4 4d3e 0425 1bbe
00000120: 8a2a 5ebe 9cb5 b7be 5fac e5be 44cc babd
00000130: 61b6 8dbe 19ef 94be ccdf a5be cd83 b9be
00000140: bddf 57be 9070 abbe 38b5 a1be b832 c0be
00000150: c964 69be 3ee4 88bf 9a09 5abe b197 48be
00000160: befc 6ebe 2b3a 433e a299 3fbe cd20 0d3d
00000170: afeb c1bd 8b05 88be 3683 9abe fccd 93be
00000180: e307 aabe 209d c4bd 0395 bcbe 8bbe c5be
00000190: 7a64 4bbf f73b 59be a396 b9be 0225 02bf
000001a0: a856 b2be 3fe9 89be c0da d6be 0a89 b7be
000001b0: c02e 06be b1cd 02bf 25c3 d3be 617b 9ebe
000001c0: 4e57 31be a0f4 06bf 041f 24be 5406 ecbd
000001d0: 5b1b 2ebe 53b3 3bbe d4d0 b6be da99 80bf
000001e0: 4bd4 edbe 7124 a4be bbe2 5dbe 27ea f6be
000001f0: 5b2a 0abf d527 81be f9fb d2be d36c d4be
-0.42669865 -0.22214259 -0.6942591 -0.34024933 -0.21237 -0.25679168 -0.2201982 -0.5078146
-0.48347723 -0.30991665 -0.18659237 -0.2807316 -0.25536337 -0.42762452 -0.2585713 -0.23801011
-0.27579817 -0.35481566 -0.22977984 -0.2610834 -0.41953054 -0.33992165 -0.16148576 -0.051680397
-0.2992732 -0.16923596 -0.10645662 -0.27509943 -0.21389826 -0.36457717 -0.21096133 -0.7153138
-0.4689133 -0.37157345 -0.3690513 -0.05187141 -0.32678917 -0.2507375 -0.4314209 -0.13765386
-0.4436061 -0.15234083 -0.3510692 -0.2849937 -0.33186668 -0.3274719 -0.52747387 -0.33974603
-0.44011733 -0.5406 -0.20076427 -0.23483525 -0.25864866 -0.21088944 -0.3492886 -0.25733963
-0.22098525 -0.26711503 -0.12124041 -0.26904097 -0.43087885 -0.57817155 -0.4783457 -0.39633593
0.066515185 0.23764358 -0.10392224 -0.1615971 -0.22026858 -0.35142335 0.2010076 -0.15150839
-0.21695915 -0.35880744 -0.4485807 -0.09120992 -0.27678207 -0.29088667 -0.32397306 -0.3623337
-0.21081443 -0.33484316 -0.3158357 -0.37538695 -0.22792353 -1.0694654 -0.21292725 -0.19589116
-0.23338601 0.19065158 -0.1871095 0.03445511 -0.09468781 -0.2656673 -0.3017823 -0.2886809
-0.33209142 -0.09600282 -0.36832437 -0.38621935 -0.7945019 -0.21214281 -0.3624774 -0.5083772
-0.34831738 -0.26935765 -0.41963768 -0.3584674 -0.13103771 -0.5109511 -0.4135982 -0.30953506
-0.1731846 -0.5271702 -0.16027457 -0.115246445 -0.17002623 -0.18330126 -0.35706198 -1.0046952
-0.4645103 -0.32059053 -0.21668522 -0.4822552 -0.5397088 -0.25225702 -0.41207865 -0.41489276

p_conv1.weight f4 [4, 128, 1, 1]
00000000: b11e 2bbd fcdf 13bd 0a26 8fbd 91ed 113e
00000010: f469 2c3d 75bd 09bd 3f95 af3d a7ed f33b
00000020: d85d 14bd ef06 cebc 1956 03bd 6533 893d
00000030: c66d bd3d a1fa c3bd ce65 473d 33e3 2ebd
00000040: d3d4 d0bc 3c28 ae3c 0012 68bd 0d88 a8bc
00000050: 1b84 9e3c a92f 2abc 5ed8 93bb 1231 4b3d
00000060: 716e 3dbd 6680 d53b c15e 6dbd c489 7bbd
00000070: cd20 93bc 6d15 41bd 2989 3ebd 9c06 00bb
00000080: a658 a2bd 8866 c53c 7d7c 95bd 2b38 8d3b
00000090: 430e 5cbc d407 ebbc 84b2 ae3c 3dba 5c3d
000000a0: 33c3 d5bc 7f21 20bd 8500 9cbc de50 23bd
000000b0: d04b 30bc 6cde 68bd 378b 83bd 70a8 4bbd
000000c0: 38aa c73d 8a5d d93b b750 0dbd 3931 3cbd
000000d0: 8a9e bdbc 802e 4fbd 5217 c3bd aa3a 023d
000000e0: 0a82 0f3d 54f9 07bd 2e16 efba cae7 c8bc
000000f0: c6d5 0b3d 9879 093d c5de d1bc a5b2 49bd
00000100: d611 34bf f519 afbd d386 42bd 1e34 193d
00000110: 1c12 233d 6492 1bbc efb9 733d 2271 64bc
00000120: d535 c1bc ed8e 983d e157 723d 35c7 743d
00000130: e62d 1cbd c3a0 9abb e277 283d c541 1e3d
00000140: f664 cabc 2b83 76bd 80b9 31bd 83d9 8abd
00000150: 14c5 bebd 1215 d53e 55e0 cabd 1344 c63c
00000160: 05bb 25bd 4b5e 8b3e ffe4 af3c 8731 023d
00000170: c880 243d fb17 30bd a047 513d c658 5fbd
00000180: 15a9 31bd e862 55bd a775 fbbc 53c9 1a3c
00000190: 1fa5 693f 4ae2 39bd 2068 80bd c303 533d
000001a0: d193 1b3a bd04 ccbd 4886 cabc d16d eb3c
000001b0: 2473 4a3c f7e1 383b c112 a33c 168b cbbc
000001c0: b706 89bc ac00 6abb f242 c33d d4b5 b3bd
000001d0: 9f86 3cbd 13f9 b5bc 92ff 5ebc e702 463c
000001e0: e76d 8a3d 9301 98bd 4160 50bd cf1a 8139
000001f0: 5f18 aabc 17e9 de3c ce72 033d 8a00 343d
00000200: c6f2 e3bd efc9 e9bd 72af 4cbe 1a05 083e
00000210: 79df 423c a2a6 083c 7713 71bd db2d 88bc
00000220: d3a5 9dbd 7302 2dbd 96c3 f6bc d027 3dbd
00000230: 69fa ab3c 6a43 b0bc d1d5 51bc ae24 1fbd
00000240: 2eed a3bd 5235 87bd 5699 ad3b 61c8 97bc
00000250: c5ee b5bc 5abc 3e3d 50f5 08bd 1883 623c
00000260: 691c cbbc 2a32 b03c c0a9 7cbb 7b8a 123c
00000270: 4cad 0c3d bbab c5bc 9f8a bebc 6593 4f3d
00000280: 428b f3bb 50ac 8e3d a8aa b13c a806 80bd
00000290: c409 c03c 0eb9 c6bc 46d0 c33b 07c5 24bc
000002a0: 6247 e6bc 75a5 8bbc b8cb 16b9 147e dc3c
000002b0: 545c b0bc 1039 2bbd f97e c8bd 2b3b a83c
000002c0: a38d 22bd 99e7 8b3c dd63 333d 9c97 223d
000002d0: 04c4 403d 5720 cbbc 786c 3fbc c599 d8bc
000002e0: d482 453d 0476 c8bc b0c4 5a3d 3667 8a3c
000002f0: e0c5 803c ec8a 6e3c 5804 04bd 5194 79bc
00000300: 2963 a63e ed3f 02be 198f f43c 1a9b 7ebd
00000310: 2002 70bd 90ad 89bd d7d3 f83e 4ae0 653c
00000320: aa43 ee3c c5ce 4dbc cd59 17bc 5f4f 8d3c
00000330: d5e2 dfbc 3bd4 31bb bbbb ca3b 3b62 363c
00000340: 2a1c 49ba 9c0b 5ebc cb2d bfbd b425 75bd
00000350: c812 8ebc e366 8abc fcf4 d53b 3ee8 403d
00000360: 0cd6 463b 6515 933d 1fdf b7bc 9d59 153d
00000370: 6a93 94bd 29ec cfbc 59c7 1e3d e258 1d3c
00000380: 01cf ff3c a527 a8bd 74c9 cdbb 86d6 b9bc
00000390: 6fc9 cebd ad96 bfbc 7b89 73bc 7c21 bb3d
000003a0: 0442 103c 0854 62bd ef1b e13d 2097 e73c
000003b0: 7a07 abbc 5914 31bd 1fbc a5bd 4612 23bd
000003c0: 5c35 8bb9 3361 0abc acf3 dcba e354 71bd
000003d0: 72ea 38bd 8617 28bc 6537 df3b 1531 cc3c
000003e0: 1657 8dbc 1103 2d3b bee6 cbbc 6572 adbc
000003f0: 5aa7 69bd 4bd1 323d 8fd4 103e b181 c73b
-0.041777316 -0.03610228 -0.06989677 0.1425078 0.042093232 -0.033627946 0.08573388 0.007444102
-0.03622231 -0.02514979 -0.03206453 0.06699256 0.09249453 -0.09569288 0.048681073 -0.042697143
-0.025492107 0.02125942 -0.05665779 -0.020572687 0.019350102 -0.01038734 -0.004511877 0.049607344
-0.046247903 0.0065155504 -0.057951692 -0.06141068 -0.017959977 -0.047139574 -0.046517525 -0.001953519
-0.079270646 0.024096742 -0.07299135 0.0043096743 -0.013431135 -0.028690256 0.021325357 0.05388855
-0.026094055 -0.039094444 -0.019043216 -0.039872043 -0.010760263 -0.056852743 -0.064230375 -0.04972118
0.097492635 0.006633465 -0.034500804 -0.04594538 -0.023146886 -0.050581455 -0.09525932 0.031794228
0.035036124 -0.033196762 -0.0018240863 -0.024524588 0.034139417 0.033563226 -0.02561892 -0.049242634
-0.70339715 -0.08549873 -0.04749186 0.03740322 0.039812192 -0.009495351 0.059503492 -0.013942989
-0.02358524 0.07449136 0.05916584 0.05976029 -0.03812971 -0.0047188713 0.041129954 0.03863694
-0.024706345 -0.060183685 -0.043389797 -0.06779768 -0.093149334 0.41617638 -0.09906069 0.024202382
-0.04046156 0.27220377 0.021471499 0.031785514 0.040161878 -0.04299162 0.051093698 -0.05452802
-0.04337414 -0.052096277 -0.03069575 0.0094474135 0.9126758 -0.04538182 -0.0626986 0.05151726
0.0005934807 -0.09961841 -0.024722233 0.028738888 0.012356553 0.0028210857 0.019906403 -0.024846595
-0.016726835 -0.0035705967 0.09534253 -0.08774915 -0.046026822 -0.022213494 -0.013610737 0.012085653
0.067592435 -0.07422175 -0.050873045 0.0002462477 -0.020763574 0.027210755 0.03209191 0.043945827
-0.1113029 -0.11415469 -0.19988802 0.13283196 0.0118941 0.00834051 -0.058856454 -0.016623428
-0.07697644 -0.042238664 -0.03012256 -0.046180546 0.020993428 -0.02151652 -0.012807325 -0.03885334
-0.08004223 -0.06601967 0.00529782 -0.018528165 -0.02220858 0.046566345 -0.033437073 0.0138252005
-0.02479382 0.021508295 -0.0038553327 0.008944149 0.034344956 -0.024129739 -0.023259459 0.050677676
-0.0074323723 0.0696646 0.02168782 -0.062512696 0.023442157 -0.024258163 0.005975756 -0.010056741
-0.02811021 -0.01704667 -0.00014381006 0.026915587 -0.0215284 -0.041802466 -0.09789843 0.020536026
-0.039685857 0.017078208 0.04379641 0.039695367 0.047061935 -0.024795694 -0.011683576 -0.02644051
0.04822047 -0.024470337 0.053410232 0.016894918 0.015719354 0.014559489 -0.032230705 -0.015233115
0.32497528 -0.12719698 0.02985339 -0.062159635 -0.058595777 -0.067225575 0.4859912 0.014030525
0.029085 -0.012561505 -0.009237719 0.017249761 -0.027329842 -0.0027134556 0.00618693 0.011131818
-0.0007671738 -0.013552573 -0.09334906 -0.05985041 -0.01734294 -0.016894763 0.0065294486 0.047096483
0.0030339984 0.07181815 -0.02244526 0.036462415 -0.072546795 -0.025381165 0.03876433 0.009603711
0.031226637 -0.082106866 -0.0062801186 -0.0226853 -0.10097014 -0.023387277 -0.014864321 0.09137246
0.008804802 -0.05525592 0.10991656 0.028270304 -0.020877589 -0.043232296 -0.08092522 -0.03981235
-0.00026551902 -0.008446026 -0.0016857288 -0.058918845 -0.04514546 -0.010259515 0.0068120235 0.024925748
-0.01725344 0.0026399533 -0.0248903 -0.021172712 -0.057044365 0.04365663 0.14143585 0.0060884585

p_conv1.bias f4 [4]
00000000: b0e7 043e 6bd3 043d c9c0 11be c77a fe3d
0.12979007 0.032428186 -0.14233698 0.12425762

p_fc1.weight f4 [64, 256]
00000000: b9d4 22bd 95f5 4b3d c6fc 3e3c 7c44 c63b
00000010: 3137 803c 3185 1fbd e3a7 82bd 6796 1e3d
00000020: 4964 65bc ee4b babb 06e3 953c 7ead d73c
00000030: 8db7 953d a45b f73d 7e8f c8bc afc7 ccbc
00000040: 7a27 babc 2e0b 91bc 1b1c e93c 5cb8 663d
00000050: d07d 0ebc fe71 913d d76e 553c f6e5 dd3c
00000060: 54c1 863d 1d3a 513c fe32 163d 7875 203c
00000070: 1135 cf3c 5b7f 7a3d 97b5 37ba ec26 4d3b
00000080: 846b 923d d7ac 9abd 93df 6c3e e7ca aabc
00000090: 1293 663d 691b 16bd 7343 6e3b e8b4 1a3d
000000a0: 6f87 bb3d fa34 9b3e 89fe 71bd 64fb 813b
000000b0: c331 17bd bef0 453a 7bb5 0c3d 2e1b f73d
000000c0: b1ad 70bf b9d0 1d3d 471e 293d ceae 503d
000000d0: e086 893c 8036 a0bc 6640 57bd 9953 293c
000000e0: 92b0 b43d 7826 86bc 9c16 923c fb54 a03d
000000f0: 1809 10bd 35d6 9d3d cf2d bfbc 446d cebc
00000100: 0e41 10be c22b fd3c ec67 ddbc 3b99 1a3c
00000110: 17e0 a2bd eebd 6e3d d1f6 563d c174 31bc
00000120: 3598 aabb dc0e 81bc fd09 0abd 81ef 0abd
00000130: 85d8 38bd c0a5 adbd f503 b9bc ba14 9abc
00000140: 3e23 0ebc b8bd 9cbd 932e 803c 46ea 7cbd
00000150: 43de 7cbd d3f9 ba3c 48f1 fabc bcba 2fbd
00000160: d83d a3bd 009d d43c e794 fcbd 2eee 28be
00000170: 1efd cb3a 4b44 e93c 7484 55bd c547 36bd
00000180: 5950 983d 39ba c43c ad74 42be cd6d 1abe
00000190: 18ea 80bd c802 0abd 6517 25bd cda0 69bc
000001a0: a857 fc3d c486 5d3d 20fa 70be d36d 14be
000001b0: 4515 9ebd 464e 453c 8238 61bc a0a0 f4bd
000001c0: c272 c03e e07c 81be 01cd 0bbe d9b7 fe3d
000001d0: d01d 8e3c f5b8 ddbc cdb9 14bd 3ba0 823c
000001e0: 17b4 2cbe ee00 8bbe f3bf a6bd 1d91 50bd
000001f0: 85ce c93d 973c 473b cc11 89bd d54b 813d
00000200: 13a9 dfbd 5be1 853d 284e 983d 092e 953d
00000210: a837 c93d e973 02bd 7253 373c d24f f53b
00000220: 9216 22bd 8cfd 2f3d 901a 2abd cc57 a1bb
00000230: eefc be3c 4117 173c 3f6d 1d3d 8560 883b
00000240: 7464 7dbc e002 763d ee02 083d 416c c63d
00000250: e66d b13c 3786 843c a365 533d 72fc 0dbc
00000260: f3a7 77bd 02f5 42bd 4f86 213d 186d 843d
00000270: 71a5 2d3d 0571 23bd eb14 4a3d cb46 c63a
00000280: af43 263d 63d8 623b f587 b1bc 2eac 5dbd
00000290: 4817 dcbc 26ea 113d efbc 4c3d eed4 a93d
000002a0: bc22 87bc 72f3 35bd a095 06b8 65bb 953e
000002b0: 6e4c 553d 47da 9c3d f990 473d bec3 263d
000002c0: 58bc 233e 48d4 bf3e 40e1 953e f9b7 c13d
000002d0: d64a b7bb cea7 4fbd 5949 c63d 9ba7 433d
000002e0: 0a50 0a3e a21f 8f3d 3380 88ba 39ab a03c
000002f0: 185d b9bd 5664 41bd 44e1 313a ed7d e43b
00000300: b55e 863c ac63 e93d 68ae 5abd cbc3 e1bd
00000310: e55a 053c 4579 0dbd 20ca 113b 8a02 59bd
00000320: 4e2f bf3c ffac bbbb 2d10 10bd bedb 0b3d
00000330: 2249 b0bd 8fae a3bd f44d 30bd b1c2 70bd
00000340: 1099 30bd e3d8 8dbd 39d4 103c 43b0 91bd
00000350: 1614 81bd 9a16 b13d 2654 98bd 7aa3 5c3d
00000360: 8424 a43c 9a8a d33b f716 cebd 8823 eebd
00000370: 59b0 273c 264b 00be 6deb 90bd 6b00 d1bd
00000380: 45b1 97bd c8c6 56bc cb67 79bd 4765 16be
00000390: 5fa7 05be 157b cbbd a913 35bc 5a7d da3c
000003a0: e807 b3bd 2f5b 1dbd bcc5 97be 8c05 97bc
000003b0: 4441 49be 53dc 43bd 8027 86bd d945 9abc
000003c0: b1d8 89be 1e0d adbe 4880 b73c 5e89 92bb
000003d0: 3ed1 c43c ed7a 10bd a417 89bd 7490 3c3c
000003e0: 56cf 91be 4f93 843e 7815 3a3d 129c 043d
000003f0: 6e5c e0bd 4554 13bd efac 55bd 797d e0bc
-0.03975365 0.049794752 0.011656946 0.0060506444 0.015651317 -0.03894538 -0.06379678 0.038717654
-0.014000961 -0.005685321 0.01829673 0.026327845 0.073104 0.12078026 -0.024482485 -0.02499756
-0.022723902 -0.017705526 0.028455785 0.056328163 -0.008696988 0.071018204 0.013026915 0.027087193
0.06579843 0.012770203 0.036669724 0.009793632 0.025293859 0.061156612 -0.0007007955 0.0031303717
0.07149413 -0.07552498 0.23132162 -0.020848705 0.0562926 -0.036647234 0.003635612 0.037770182
0.09156691 0.30313855 -0.059080634 0.0039667357 -0.03691269 0.0007550827 0.03435276 0.12065731
-0.9401503 0.03852913 0.04128864 0.050947957 0.016787946 -0.019557238 -0.05255165 0.010334873
0.088227406 -0.016375765 0.017833047 0.07828709 -0.035164922 0.077068724 -0.023337273 -0.025198586
-0.14087316 0.030904654 -0.027027093 0.009435947 -0.07952898 0.0582866 0.052481476 -0.010831059
-0.005206133 -0.015754156 -0.03370093 -0.033919815 -0.045128364 -0.0847888 -0.022584895 -0.018808711
-0.008675395 -0.076533735 0.015647208 -0.061746858 -0.061735403 0.022824204 -0.03063263 -0.042902693
-0.0797078 0.02595377 -0.12333088 -0.16497108 0.0015563106 0.028474947 -0.05212827 -0.04450204
0.074372 0.02401458 -0.18989821 -0.15080948 -0.0629465 -0.03369406 -0.040305514 -0.014259529
0.123214066 0.0540836 -0.23532915 -0.1449502 -0.077189006 0.012042588 -0.013746383 -0.11944699
0.37587553 -0.25290585 -0.13652422 0.1243741 0.0173482 -0.027065733 -0.036310006 0.015945544
-0.16865574 -0.27149147 -0.0814208 -0.05091964 0.098538436 0.0030401105 -0.066928476 0.06313292
-0.1092092 0.06537124 0.07436782 0.07284171 0.09825069 -0.03184882 0.0111893285 0.007486322
-0.039572306 0.04296641 -0.04152924 -0.0049237963 0.023313966 0.009221853 0.038434263 0.0041618966
-0.015465844 0.060061336 0.03320592 0.096886165 0.021658849 0.01617728 0.0516106 -0.008666145
-0.060462903 -0.04759694 0.039434727 0.064661205 0.042394105 -0.039902706 0.049336355 0.0015127299
0.04059189 0.003461384 -0.021671275 -0.05411928 -0.02686657 0.035623692 0.04998487 0.08292566
-0.016496055 -0.04442162 -3.208744e-05 0.29244533 0.052074842 0.076588206 0.04872224 0.040714018
0.15989816 0.37466645 0.29273415 0.09458918 -0.005593638 -0.05069714 0.09681959 0.047767263
0.13507095 0.06988455 -0.0010414183 0.019612895 -0.09050959 -0.04721483 0.00067855814 0.0069730193
0.016402582 0.11395964 -0.053388983 -0.11023673 0.008139347 -0.03453948 0.002224572 -0.052980937
0.023337986 -0.00572741 -0.035171676 0.03414511 -0.08607699 -0.07992279 -0.043043092 -0.058779422
-0.04311472 -0.069261335 0.00883966 -0.071136974 -0.06302659 0.08646889 -0.07437925 0.05386684
0.020036943 0.0064557316 -0.10062974 -0.11627871 0.010234916 -0.12528667 -0.07076154 -0.10205158
-0.07406858 -0.013108917 -0.06089 -0.14687072 -0.13052128 -0.099355854 -0.011052051 0.0266711
-0.08741742 -0.038417038 -0.29643047 -0.018435262 -0.19653803 -0.04781754 -0.06550503 -0.018832134
-0.26923135 -0.3379907 0.022400036 -0.004471942 0.024025556 -0.03527348 -0.06693962 0.01150905
-0.28478497 0.25893638 0.04543063 0.032375403 -0.109551296 -0.035969038 -0.052166875 -0.02740358

p_fc1.bias f4 [64]
00000000: c2cb 8dbd 3677 23bd fe10 93bd 0d6c 18be
00000010: 415f 24be 419d f2bd c4bb a8bd abd5 96bd
00000020: c088 06bd 1d9f 2abe f440 543d a82c 1a3d
00000030: 48ad 0dbd 9eb5 7dbd df2d 49be be8d 2bbd
00000040: 60e9 58bd 3957 603c b3f2 c93d 5931 3d3e
00000050: d790 3f3e ca6a 393d 32f1 1abd ddea 4abd
00000060: d6d0 8cbd dfb0 58ba 2961 373e fba2 3f3e
00000070: a361 423e 9f17 273e eced 7dbd ac52 62bc
00000080: c454 22be 4b4b 24bd 150b 4d3e 92e7 313e
00000090: 6227 293e 6697 4e3e bcb1 c7bb ff9b 4bbc
000000a0: 4859 d2bd 24bd 5abb 99b3 5a3d 5fce 0a3e
000000b0: b15c ed3d 8969 d93d d453 813d 4579 1e3c
000000c0: 0770 38bd 00f4 4abe fc83 ae3c 544c 623d
000000d0: e0f7 f2ba cccd d23c 150b 5fbe e41a 1c3c
000000e0: d778 99bd d8f6 a4bd dac1 1abd 2fe1 bfbd
000000f0: 40e3 b2bd 7862 79bd 0909 08bd 427c 873d
-0.06923629 -0.03990861 -0.071809754 -0.14884968 -0.16051961 -0.118464 -0.082389385 -0.07364973
-0.03284526 -0.1666226 0.051819757 0.037640244 -0.034589082 -0.06194078 -0.19646405 -0.041883223
-0.05295694 0.0136926705 0.09860744 0.18475856 0.18707596 0.045267858 -0.037827678 -0.04954039
-0.0687577 -0.0008266102 0.17908157 0.18714516 0.18982558 0.16317604 -0.061994478 -0.013813656
-0.15852648 -0.040110867 0.20023759 0.17373493 0.1651893 0.20174941 -0.0060941856 -0.012427329
-0.10270935 -0.0033376897 0.053393934 0.13555287 0.11589945 0.10615832 0.06314817 0.009672468
-0.045028713 -0.19819641 0.02130317 0.055248573 -0.0018537007 0.025732897 -0.21781571 0.009527896
-0.074937515 -0.08054894 -0.037782528 -0.09369122 -0.08734751 -0.060884923 -0.03321174 0.06615497

value_conv1.weight f4 [2, 128, 1, 1]
00000000: 9192 5abf 4ae2 5bbf 7674 833e 17e4 96bc
00000010: 925d ef3d 8e50 9d3d c4a1 f0be 5dfa 013e
00000020: 4de1 893e 0d43 b33c 312c 49bf c6f0 c3bd
00000030: b9f9 7d3e 574d 8b3e ec79 44bd 7018 23be
00000040: d19e 3abf 9f9e 8b3e 9d76 513d 668d 38bf
00000050: 9026 2bbf 6f08 083e 7c3b 17bf df0d 6ebf
00000060: dd07 76bc 8470 39bf 7ee9 103e c3ef 61bf
00000070: 2540 b73d 4f6c 34bf 20c1 d53c 789e 8b3e
00000080: 9815 733e a580 08bf 5143 4abf 8ba7 8d3d
00000090: 706e 423d 812d 2b3e 1529 ce3e 5e3e 313d
000000a0: f545 233e ac91 2dbf 4cb6 9d3e 7bab 36bf
000000b0: cfa5 2a3e 6a5b 353e 0743 953e 3886 2fbf
000000c0: 9d34 34bf 324f dc3e 58ce a53d 3945 113c
000000d0: 08c0 0bbf 44a1 e73d 4a05 6fbf 6a41 36bf
000000e0: 5843 f53d 5648 25bf eae8 db3c d6fc 88bf
000000f0: ee8e 9f3e fb53 bd3e 1847 31bf 7c91 1ebf
00000100: 1205 683d d015 123d d628 e4bc 6a4b 23bf
00000110: 1386 3cbf 055f 753e cccf 373d 5551 6dbf
00000120: 67bf 3cbf d5d5 813e 7de1 af3e 9794 753d
00000130: aec6 243d 0cb6 65bf 3e17 a53e ddf4 6f3d
00000140: f6c6 d5be f5be cdbe 3a09 0dbe 14f0 173e
00000150: 839f 3b3d a703 aa3e db67 84bc 4682 0dbf
00000160: ef09 e63d c4de 05bc 5b3b 98bd 35a9 a0bd
00000170: 2c1c 9d3c 8c72 3f3e ece4 3abf c1db 7fbd
00000180: 887c 5dbf 9fb6 9fbd 4a2a 093e 6eb6 0dbf
00000190: 8b3a 0bbd 3105 0ebf 5ef6 40bf 6b50 bb3e
000001a0: 99ef be3d 8a30 af3d 6cc3 32bf aa39 423e
000001b0: ac94 76bf d9f9 30bf 1a83 60bf faf3 40bf
000001c0: 65ed d03d 19e9 27be 4c36 2e3c 8b37 363e
000001d0: 6956 65be eaed 2abf 2fb2 44bf 75e2 e63d
000001e0: 4227 3dbf 81a7 2a3e 15d1 b6be 57d3 b83e
000001f0: 7652 94bc be6d 15bf e1a9 40bf f5bc 4dbf
00000200: c18b cfbc d34f 34be c8c2 df3e 8132 6f3e
00000210: ef00 6dbf 4f9d 40bf 1ec1 35bf 01a8 a23e
00000220: 99ac 523e 8538 46bf cba0 82bc 0baf 2bbf
00000230: 72cd e8be 98b9 a7be 69c6 7ebf 8f6d 47bf
00000240: 0f18 d13d 72be 39bf 9f4f 54bf 959a 673d
00000250: 0d46 1f3e 5a13 19bf 252a 20bd b66e 87bc
00000260: e699 80bf 8601 b63c ea6d 39bf a021 0c3e
00000270: 2663 5abf 0958 373d 6113 50bf 81c4 d53e
00000280: 83a7 c7be 67cb 0bbf 8964 2d3e 00d4 163d
00000290: 4314 58bf fb43 02bf 7d7b 893e 9f27 36bf
000002a0: 5c8b 44bf 238a 3cbc 32c4 be3e 8d8b 26bd
000002b0: 4549 76bf 3ddf 1cbf ccec c93e 55ae 0a3d
000002c0: 7ee3 463e 2fdd 933e c56c 32bf 7a3b 2cbf
000002d0: 2317 8d3d ea37 613e ea65 bdbc b83f 653d
000002e0: 0acb 23bf 2301 093e 423e 2cbf f75f 5abd
000002f0: 5577 533e 424d 713e 8fbb 393e 9796 e73d
00000300: cc83 873d 2437 433d f08b 39bf 1d8a 023d
00000310: 5c62 533d 813a babc e504 383d db44 ff3d
00000320: b40f 773d 4078 cf3e cef3 3c3e d159 cabe
00000330: 5cb9 67bf 2ce5 673e dc65 22bf 2206 71bf
00000340: 5d11 e43d 815e 8b3d 387a 80bf ab03 2c3e
00000350: ca96 3bbf 698e 133f 2f79 2dbf 4994 50bd
00000360: b078 7cbf 99b5 53bd 328f 49bf 34ba aabd
00000370: 3976 05bf d8ad f9be fe1e 8f3e 7a54 3ebf
00000380: a67d 7fbc 978a 6bbf 22fa 40bf c536 09bf
00000390: 2df0 0ebc 2193 d23d 4d7b cdbc 2f17 9f3e
000003a0: c496 13bf 1cde 4cbf 6fa5 a1be ba33 8f3e
000003b0: a655 903d e995 213e 2720 413c e41b 423e
000003c0: 8ae5 10bf aa56 dbbe b519 05bf 0db7 53bf
000003d0: 577b 173d eceb db3d b20c 933d d4d2 e43e
000003e0: 8310 a23e 30c3 1fbf a710 2ebf 8873 283e
000003f0: 1da3 183f 8756 963d 3ed5 ab3a 4e92 4c3e
-0.8537989 -0.85892165 0.2567479 -0.018419309 0.11687769 0.0768138 -0.46998417 0.12693162
0.26929703 0.021882558 -0.78583056 -0.09567408 0.24802293 0.27207443 -0.047967836 -0.15927291
-0.72898585 0.27269456 0.05113851 -0.72090757 -0.66855717 0.13284467 -0.5907514 -0.92989916
-0.015016523 -0.7243731 0.1415157 -0.8825647 0.089477815 -0.70477766 0.026093066 0.2726934
0.23738706 -0.53321296 -0.79008967 0.06916722 0.047468603 0.16716577 0.40265718 0.04327237
0.15944655 -0.678004 0.30803144 -0.7135541 0.16664813 0.17710653 0.291527 -0.68564177
-0.7039278 0.4302917 0.080959976 0.008866602 -0.5458989 0.11310056 -0.93367445 -0.71193564
0.119757354 -0.645635 0.02684446 -1.070216 0.31163734 0.36978135 -0.69249105 -0.6194074
0.05664546 0.035665333 -0.027851503 -0.6378695 -0.7364208 0.23962028 0.044875905 -0.9270223
-0.73729557 0.25358453 0.3435172 0.05995616 0.04022854 -0.89730906 0.32244295 0.05858313
-0.41753358 -0.4018475 -0.13773051 0.14837676 0.04580642 0.33205912 -0.016162803 -0.55276906
0.112323634 -0.008170787 -0.07433196 -0.07844774 0.019178472 0.1869604 -0.7300556 -0.062465433
-0.86518145 -0.07798504 0.13395038 -0.5535649 -0.033991378 -0.5547667 -0.75375926 0.36584792
0.093230434 0.0855418 -0.6982944 0.1896731 -0.96320605 -0.6913124 -0.87700045 -0.7537228
0.102015294 -0.16397513 0.010633063 0.17794625 -0.22396244 -0.6676928 -0.76834387 0.11273662
-0.7388803 0.1666546 -0.35706392 0.3609874 -0.018105727 -0.5837058 -0.75259215 -0.8036645
-0.025335195 -0.17608576 0.43703294 0.2335911 -0.9257955 -0.75240034 -0.709978 0.31768802
0.20573653 -0.7742999 -0.015945813 -0.6706397 -0.45469242 -0.32758784 -0.995215 -0.7790155
0.10209667 -0.7255622 -0.8293399 0.056543905 0.15554066 -0.59795153 -0.039102692 -0.016532283
-1.0046966 0.022217523 -0.7243334 0.13684702 -0.8530754 0.04476169 -0.8127957 0.41751483
-0.3899499 -0.5460724 0.16932882 0.036823273 -0.84405917 -0.5088498 0.26852027 -0.71154207
-0.76775146 -0.011507544 0.3725906 -0.04066043 -0.9620555 -0.61278135 0.39438474 0.033857662
0.19422719 0.28879687 -0.6969722 -0.67278254 0.068891786 0.21993986 -0.023119885 0.05596897
-0.6398169 0.1337934 -0.672825 -0.053314175 0.2065099 0.23564628 0.18137954 0.113080196
0.06616935 0.047660008 -0.7247915 0.031869996 0.051607475 -0.022732975 0.044926543 0.12464305
0.06031771 0.4052143 0.18452379 -0.3952165 -0.9051721 0.22646016 -0.63436675 -0.9414998
0.11136124 0.068051346 -1.0037298 0.16798274 -0.7327696 0.57639176 -0.67763036 -0.050922666
-0.98621655 -0.051686857 -0.78734124 -0.08336297 -0.5213352 -0.48765445 0.27953333 -0.7434765
-0.015593922 -0.92008346 -0.7538167 -0.53599197 -0.008724255 0.10281969 -0.025083208 0.31072375
-0.57651925 -0.8002641 -0.31571528 0.27969152 0.07047586 0.15779842 0.011787451 0.18955952
-0.5660025 -0.42839557 -0.5199235 -0.8270119 0.03698286 0.10738358 0.07180156 0.446921
0.31653222 -0.6240721 -0.6799416 0.16450322 0.5962389 0.073407225 0.0013109816 0.19977686

value_conv1.bias f4 [2]
00000000: 9860 e63d d776 433e
0.112488925 0.19088303
