model/cnn/8x8/4aw/other4/_8.pt (torch_old, 478657 bytes, 15 tensors)

conv1.weight f4 [32, 4, 3, 3]
00000000: adec 413d 100c 8abe a7b1 0bbe 2a6f 2c3f
00000010: a125 8cbe 4971 0dbf e1af 18be 2a8e c0bd
00000020: 873c 893e a73a 2fbd 3c2a 26be 6994 e93d
00000030: e47b 223f bd53 acbd 9f17 f2be e44d 19be
00000040: ee27 a63d 0f80 763e 603a 443d a94d 4c3e
00000050: 9198 58bb 72c3 51be 98f1 51bd 8c83 65bd
00000060: 769a b73d 610d e93d b1c1 89bd af8a d3be
00000070: 8cc2 c4be 501f b6be 1834 523d a4a9 353d
00000080: 39be 863e f9a1 183d 03da 203d b07c 443e
00000090: 52a2 6c3f f8be 0f3d 709f ba3d 7a45 6cbd
000000a0: 6edb 0abd 2d1d d5bd 9c5e ad3d fcaa 5bbe
000000b0: 6b7e d6be 7bba 18bf 16a7 9f3e 2dc7 85be
000000c0: e377 013d 585f 8c3e d440 9a3d 2482 653e
000000d0: aea4 8c3c 51e4 3c3e 9f47 e5bd 6043 2b3d
000000e0: 2b48 813b f9d2 c3bd 9189 783c 1b91 46bd
000000f0: 8d2c d13d d3c7 293e 1293 52bc bc7d 2abd
00000100: 7608 fc3b 662b 563d fe06 27bd 2507 c33d
00000110: 5c45 16bd fae1 823d 6b06 d03d 94ed b33d
00000120: d4f4 0b3e d684 223f 0ffe 943d bc7b 2ebc
00000130: 5a13 35bc d422 3abe e72e a33d 5ec7 d63e
00000140: d16f c03d 9a20 b4be ec42 c3bd 4920 97be
00000150: ebbe c03e cce8 02bc 7a8d 043f aaec 10be
00000160: cc81 8fbe 4664 143c 7314 453d 50bf f7bc
00000170: d51c d63d 7a5f 063d b328 143e f6d8 c9bd
00000180: f523 32bc 4752 9dbe 8d3a 933d 59ea 32bd
00000190: 1b17 5d3e 1e4e 1cbe 3836 053e 6528 ef3d
000001a0: 231e 84be c861 9fbb a8cf cf3d 23d9 1abe
000001b0: 8e28 993d 001f f13d 68c6 873d d81c 5e3e
000001c0: e325 323f 7f13 5abc 1636 163f 8c20 ce3e
000001d0: 97d4 523d 4397 9a3d 5da4 c83d d925 d7bb
000001e0: 42d6 05bd be9f cf3d 6ffe 82bc 6448 b9be
000001f0: db19 dd3c bf70 0f3e 4e47 ea3c f033 8b3d
00000200: 025e 183e e5ca a5bd 7963 993d 4d40 453d
00000210: cca3 35be 2a0c 8cbd fa95 a9bd afc8 513c
00000220: 5e37 d6bd b96a 36be 3827 a73d 776c 8f3d
00000230: d849 b73d 72d7 253d e89c a13d 49ab b03c
00000240: 45a1 2ebe f318 a2bd 4f79 bdbd 0e7c dfbd
00000250: e02e 03be 1b1d 5bbe cff0 8ebe 94a3 153f
00000260: 2564 f2bd 0020 d2bd 3359 65bd c47e 88be
00000270: 4986 1bbc 7580 0c3e 7146 883c dab6 9e3d
00000280: 7ef6 bfbd 0d7f ba3d 0b62 b33e 1bc9 3dbd
00000290: 5d2e 14be 7157 f93d 60b9 23be 7141 0abd
000002a0: 6b60 8cbd ccce 12be bcc6 303d 8dbb a9be
000002b0: 678f e73d bcec 663e 7763 f4be ad39 a63d
000002c0: c3c2 043e 238f babe 17aa 0d3e 2c66 ba3d
000002d0: 7732 913e a917 98be b99c 3dbd b50f aebe
000002e0: dfc0 283e 2e85 d13d 0ab4 a7bd 30d5 dbbc
000002f0: 1f51 35bd 3905 bbbe 27ea a3bd f19d 503d
00000300: bc1a 72be fd6c 2b3e c889 5ebe cd2d 4b3d
00000310: 32db a53d 9f67 1a3f 5486 afbe edd7 513b
00000320: cab1 52be 5962 65be 2a82 d8bd d2fb e6bd
00000330: e0ed 9fbd 1999 493d 297d 8bbe 14b1 c1be
00000340: b7f8 ebbe 3dcd 1bbf 4725 a33e e997 e23d
00000350: 8f25 21be 5c85 8f3e 1b32 f83d eb79 9d3c
00000360: 4ee1 0ebe b651 e43d bcd6 23bd e2c7 5fbd
00000370: a7a5 eb3e c8c8 93be 761f 29be 939f 99bd
00000380: 410a 85be e610 99be 458b 02bd 86bb a3be
00000390: 8462 323f 9da4 83be ed85 0bbf 55ee 19be
000003a0: 3074 2ebe 71d2 003e a297 9f3d 60a6 0c3d
000003b0: 7af1 fe3d ced7 94be 895e d4bd ef54 42be
000003c0: f9e6 f33d a8a9 91bd d0a0 873c fadb 4abc
000003d0: f856 053e 5220 b83d c6f3 7fbd a289 0ebd
000003e0: a879 c43d 5d28 a5bd 792e 44bc 0dac 663d
000003f0: 8365 8e3e 044e 07bd 7f5d f43e 7b20 32bd
0.047344852 -0.26962328 -0.13641988 0.6735712 -0.2737246 -0.55250984 -0.14910842 -0.09402116
0.2680399 -0.042780545 -0.16227049 0.1140526 0.6347029 -0.08414409 -0.47283646 -0.14971119
0.08113085 0.24072288 0.047907233 0.199515 -0.003304992 -0.20484713 -0.051255792 -0.056033656
0.08965008 0.11379505 -0.06726397 -0.41316745 -0.38429677 -0.35570765 0.05131921 0.044351235
0.26317003 0.037263844 0.039270412 0.1918819 0.9243518 0.03509423 0.091124415 -0.057683446
-0.03390067 -0.104059555 0.08465311 -0.21451944 -0.41893324 -0.59659547 0.31182164 -0.26128522
0.031608474 0.27416492 0.07531896 0.22412926 0.01716837 0.18446471 -0.11195301 0.0418123
0.0039453707 -0.09561724 0.015169517 -0.048478227 0.102135755 0.16580133 -0.012852447 -0.041623816
0.0076914383 0.05228748 -0.040778153 0.09522847 -0.03668724 0.06390758 0.10157474 0.08785549
0.13667613 0.6348394 0.0727502 -0.010649618 -0.011051977 -0.18177348 0.0796793 0.4194898
0.09396327 -0.35181123 -0.09534249 -0.2951682 0.3764566 -0.007990073 0.51778376 -0.1415278
-0.28028715 0.00905711 0.048115205 -0.030242592 0.10454718 0.032805897 0.1446865 -0.09855835
-0.010872831 -0.30726835 0.07188902 -0.043680523 0.21590845 -0.15264174 0.13008964 0.116776265
-0.25804242 -0.0048639514 0.10147029 -0.15121894 0.07478438 0.11773491 0.0662964 0.2169069
0.6958906 -0.013310312 0.5867628 0.40259206 0.051472273 0.07548382 0.09796975 -0.006565791
-0.032675035 0.1013789 -0.015990464 -0.36188042 0.026989868 0.14007853 0.028598454 0.06797016
0.14879611 -0.0809534 0.07489676 0.048157025 -0.17738265 -0.068382576 -0.08280559 0.012804194
-0.10459779 -0.17814149 0.08161777 0.0700311 0.089496315 0.040488668 0.078912556 0.02156605
-0.17053707 -0.07914915 -0.092516534 -0.109123334 -0.1281085 -0.21397822 -0.27918097 0.58452725
-0.11835507 -0.1026001 -0.05599327 -0.26659214 -0.009492465 0.13720877 0.016635152 0.0774972
-0.093731865 0.09106264 0.35035738 -0.046334367 -0.14470811 0.12174881 -0.15988684 -0.033753816
-0.06854328 -0.14336699 0.043158278 -0.33150902 0.11306649 0.22551244 -0.47732136 0.081164695
0.1296492 -0.3643733 0.13834415 0.09101519 0.28358814 -0.2970555 -0.04629204 -0.3399636
0.16479824 0.1023048 -0.081886366 -0.026835054 -0.044266816 -0.36527422 -0.080036454 0.050931875
-0.23643011 0.16740794 -0.21732247 0.049604226 0.08098449 0.60314363 -0.34282172 0.003201957
-0.20575634 -0.22400798 -0.10571702 -0.112785 -0.07809043 0.04921827 -0.27243927 -0.37830412
-0.46088192 -0.60860044 0.31864378 0.11064131 -0.15736984 0.28031433 0.12118932 0.019223174
-0.13953134 0.111483976 -0.03999971 -0.054633982 0.4602482 -0.2886412 -0.16515908 -0.075011395
-0.25984386 -0.29895705 -0.0318711 -0.31979007 0.6968157 -0.25711527 -0.5450123 -0.15032323
-0.1703651 0.12580277 0.077925935 0.034338355 0.12448402 -0.29070896 -0.10369594 -0.18977712
0.11909289 -0.071124375 0.016556174 -0.012381548 0.13021457 0.089905396 -0.06248834 -0.034799226
0.095935166 -0.08064339 -0.011973971 0.056316424 0.27811822 -0.033033386 0.47727582 -0.043488007

conv1.bias f4 [32]
00000000: 6c45 23bd 1987 68be 0ed5 a0be 4e9d debe
00000010: 0880 053e 2931 343e 0fc4 d3be 57e1 2dbe
00000020: b6ee 8d3d d30b 0c3e 5234 66be f1f0 a2be
00000030: 9761 cfbe cef0 a7be 2bdd 8cbe 6d66 6dbe
00000040: 49bc 15be 3027 06be b5d3 6cbd fbb3 863e
00000050: 8954 51bd fd2f 133f 5dfc 8ebe eb78 d5be
00000060: c4a8 663d ec86 26be 6709 49be c0d0 9dbe
00000070: dee3 01be 25a1 85be 837f 49be 0c7a 87be
-0.039861128 -0.22707786 -0.31412548 -0.4347939 0.13037121 0.17596878 -0.41360518 -0.16980492
0.06930296 0.13676386 -0.22480896 -0.3182445 -0.40504143 -0.32800907 -0.27512488 -0.23183604
-0.14622606 -0.13100886 -0.057819087 0.2630919 -0.05110601 0.574951 -0.27926913 -0.41693816
0.05631329 -0.16262406 -0.19632493 -0.30823326 -0.1268458 -0.26099506 -0.19677548 -0.26460302

conv2.weight f4 [64, 32, 3, 3]
00000000: 2107 fb3e e6fb a5bd d6d5 153d fc1e eebd
00000010: 9780 8cbd d23b 00bd 4996 96be 05ff 45ba
00000020: c233 0bbe b0cc 88be fbd4 f2bc 7dd2 553d
00000030: 4277 163e 02df ebbd 3554 48be 7d8a b13b
00000040: 6eab 0e3e 22aa f4bb c28b 153d ea82 223e
00000050: b2db 6abd 5ec1 513e f784 d53c 9f55 a7bc
00000060: 7249 78bd 655e 533e 8c46 f8bd 0ef9 05bb
00000070: 1d5e c8bd 33de 06be febf d53d 3d24 06be
00000080: 8a02 02be 65d0 c33d 7491 01bb 0808 9a3d
00000090: 60e1 593e d9ee 433e 49c1 91bd 746a 1d3e
000000a0: ee70 94bd 8d80 a0bc 461c d13d 7f52 22be
000000b0: 7b13 0c3c c75c 533e cfda 983e b1d4 49bd
000000c0: 8c64 9bbd 6e64 b7bd 6597 a2be 5a1d ad3d
000000d0: bc7f 1e3c 91e1 59bd 64e1 47bc 46e4 ac3d
000000e0: 2229 abbd 5fe6 313e c38c 9dbd 7f29 b6bc
000000f0: dce7 61be f7ba a2bc 0d94 b4bc c4c2 123e
00000100: 7653 323d 392d 9bbd b0b8 933c 4e0f cd3d
00000110: 061b 90be 1212 833e 8f66 81be d908 a5be
00000120: 4478 85bd ebb8 373e a306 34be b7ff 50bc
00000130: 9047 fd3c 3e1e e43d 9b59 a13d 3616 443e
00000140: a1b8 5dbe 4d35 f0bc b90a 5dbe 78c9 a13d
00000150: 6ce5 013e 8b91 6dbd 4a6f 96be aec4 f23d
00000160: 8abd 24bd e707 8a3d c4ce 1e3e 9c86 773e
00000170: 36a2 e03c 1ecf bc3d b3d5 1ebe 06f0 d83b
00000180: 9158 1abd d5db 033e 52d1 2c3b 30d6 523d
00000190: e221 b1bc efcf 54bc b92b 18be 7631 063e
000001a0: 7b79 74be 40da 0fbe d3b8 ecbd 76fc 763d
000001b0: f11a 84bd e344 25be b66d 7a3c ba30 09be
000001c0: 2f0d 8abe 0077 edbb d314 68be 7df5 1fbe
000001d0: e5f1 cd3b a3ad a6be ae0d b53e 4017 a4bd
000001e0: 746c 4c3e 0013 bd3b 7834 b6bd 1874 86be
000001f0: b108 803b 10f1 e5bd 515b 0b3e 4c1c 6dbc
00000200: 15ea 40be 84e2 043d d961 3b3d 4d70 d0bd
00000210: 61a5 ca3c 82bb b5bd 5a8d cf3d 691c ea3d
00000220: 011f 26be e716 dabd 9f06 2f3e 2a01 733d
00000230: 62d6 343d 5f38 fcbc 5e5f 66be 46bf 32be
00000240: 1b6b 00be 7c6b 3dbe 0ab0 4ebd 45d9 5abe
00000250: c687 a73d 5986 8cbe fc1b 1cbd b8ed acbd
00000260: be7c a6bd f93f 1c3d c1ca f5bd 5ddf a73d
00000270: 18ec c5bd 6610 21bd 5430 f6bc e331 d13d
00000280: a7d3 f6bd 217a 83be e3ab edbd ae85 18be
00000290: b23a 023e 9296 53bd 50eb c3be bc5c 04bf
000002a0: b06d 83be 38f7 edbd 7eb7 633d be4a 1fbd
000002b0: 6263 c43d 8831 bbbe 8870 6e3e a989 833e
000002c0: 9e37 3bbe 562e 4f3e 8047 343e 4507 a7be
000002d0: 9bb8 55be 6b2b da3d 5764 0b3e dd25 96be
000002e0: 33ab ea3c a130 39be 94e9 4fbe c1e5 99be
000002f0: 9b9c 323d 0a63 4c3e f9b0 0f3e 1658 c5bd
00000300: 7298 c33d 5afc d23d 5c99 1fbe ba16 8d3e
00000310: ece3 133e 55c5 efbd 211d 95bd 3332 6bbe
00000320: 3d3a 28be d923 9abe 3b63 4ebd 698e fbbc
00000330: 1c37 efbd c9a8 08be 61b0 34bb 2dea 8c3e
00000340: 7d8c 7fbe 0054 9bbe 83ac 9fbd 2bf2 2d3c
00000350: 6cb2 9ebe a1e6 283d f19f 14be df30 f83b
00000360: 1b50 433c 9c7d 403e 01f1 acbe 597a e03d
00000370: c4ee 05bd 7c8d 513d b343 843d 6e7b a13e
00000380: 3557 fc3d 1a5f a73d 8426 163e 3dea f9bc
00000390: 72ca ca3d d334 0a3e b0ca a6be 3c1c 003d
000003a0: a83a c6bc f3d1 f7bd 0ff9 7b3e d54c d4be
000003b0: a59b 1cbe 58f2 e4be 585e c4bd 5353 82be
000003c0: f009 bebe 8d81 bebe 2757 1bbe 9a41 2cbe
000003d0: f76a cc3d 8736 923e 110e 9c3e f9ac f1bd
000003e0: e1b3 9c3c 854e 523e 5ce2 cc3d f3c6 e6bd
000003f0: 8ce9 88be 8ea0 493e 9796 57be bb20 00be
0.49028876 -0.081046864 0.036580883 -0.116270036 -0.06860464 -0.03130705 -0.29411533 -0.00075529545
-0.13593963 -0.26718664 -0.029642573 0.05220269 0.14693931 -0.11517145 -0.19563372 0.0054181204
0.13932583 -0.0074665705 0.036510237 0.15870252 -0.057338424 0.2048392 0.02606438 -0.02042657
-0.060616918 0.20641477 -0.12122831 -0.0020442638 -0.09783576 -0.131707 0.1043701 -0.13099761
-0.12696281 0.095612325 -0.0019770535 0.07521063 0.2127738 0.19134082 -0.07116944 0.1537264
-0.07248102 -0.019592548 0.10210471 -0.15851782 0.008549566 0.2064086 0.29854438 -0.049275104
-0.07587537 -0.08954702 -0.3175613 0.08452864 0.009674009 -0.053193633 -0.012199733 0.08441977
-0.08357455 0.17373036 -0.07692864 -0.022236584 -0.22061104 -0.019864542 -0.022043252 0.1433211
0.043536626 -0.07576985 0.018032402 0.10012685 -0.28145617 0.25599724 -0.25273558 -0.32233313
-0.065170795 0.17941634 -0.17580657 -0.01275628 0.030917913 0.11138581 0.07878419 0.19149098
-0.21652462 -0.02932229 -0.21586122 0.07899755 0.12685174 -0.05800013 -0.29381782 0.1185392
-0.04021982 0.067397885 0.15508562 0.24172443 0.027421098 0.09219192 -0.15511207 0.00662041
-0.03768212 0.12876828 0.0026369882 0.051473796 -0.021622602 -0.012989028 -0.14860429 0.13104805
-0.23874466 -0.140481 -0.1155869 0.06029936 -0.06450451 -0.1613956 0.015284946 -0.13397494
-0.26963183 -0.007246852 -0.22664194 -0.1562099 0.0062849396 -0.3255435 0.35362 -0.08012247
0.19963247 0.0057700872 -0.08896726 -0.26260448 0.003907286 -0.1122762 0.13609053 -0.0144720785
-0.18839295 0.032442585 0.04574761 -0.1017767 0.024737062 -0.08873655 0.101343825 0.114312
-0.16222765 -0.106488995 0.1709237 0.059327282 0.044149764 -0.030788599 -0.22497317 -0.17455778
-0.12540857 -0.18498033 -0.050460853 -0.21371944 0.081801936 -0.2744625 -0.038112625 -0.08443779
-0.081292614 0.038146947 -0.12001563 0.081969 -0.09664172 -0.03932228 -0.030052342 0.10214593
-0.12052088 -0.25679114 -0.116050504 -0.14894745 0.12717703 -0.051657267 -0.38265467 -0.51704
-0.25669622 -0.11619419 0.055594914 -0.03888964 0.09589268 -0.36561227 0.23285115 0.25690964
-0.18282935 0.2023252 0.176054 -0.32622734 -0.20871203 0.106528126 0.13612495 -0.29325762
0.028646087 -0.18084957 -0.20303947 -0.300581 0.043606382 0.19959655 0.14032353 -0.09635942
0.09550561 0.103020385 -0.15585846 0.27556401 0.14442414 -0.1170756 -0.072809465 -0.22968368
-0.16428466 -0.30105475 -0.050387602 -0.030707555 -0.11680433 -0.13345636 -0.002757095 0.27522412
-0.24955936 -0.30337524 -0.07796576 0.010616819 -0.309955 0.04123557 -0.14514138 0.0075741853
0.011920954 0.18797916 -0.3377762 0.10960836 -0.032698408 0.05116032 0.06458225 0.31539482
0.12321321 0.08172436 0.1466313 -0.030507201 0.09901895 0.13496713 -0.32576513 0.031276926
-0.024197891 -0.121005915 0.24606727 -0.41464868 -0.15293749 -0.44716144 -0.09588307 -0.25454196
-0.37116957 -0.37208214 -0.15169965 -0.168219 0.099813394 0.28557226 0.30479482 -0.1180057
0.019128742 0.20537765 0.10004112 -0.11268415 -0.26740682 0.19690153 -0.21053539 -0.12512486

conv2.bias f4 [64]
00000000: 6ae1 25bd 3ab5 853b 8f94 64be 85d8 04be
00000010: 58a3 cbbe 4f2f 62be afe1 943d e9f9 77be
00000020: d30b 84be 5cff 13be b0d0 56be d93b 96be
00000030: e815 8ebe 441b e8bd ed07 85be 4eca 58be
00000040: 3f50 44bf d90f 1e3c a51f 64be 2e2f 83be
00000050: 92d2 aebd 0110 b3bc 3072 c3be 5a28 293d
00000060: 6056 5b3d de3b 03be 6898 87be dd46 df3c
00000070: f95d ccbd 47f9 26be 3ece d33c 88eb d0be
00000080: e1c3 4bbe fc8e 47be 2ae1 b2bd b62e bebd
00000090: c7e5 21bf c005 1bbf 16cb 3ebd a1a3 cdbd
000000a0: 4324 e3be 8d7f 1fbf 3d0a debe f8ba 3abe
000000b0: fcfc c8be dae3 dfbd a503 23be 5cc4 18bf
000000c0: ef06 26be 083f 88be 83be 48be 1a4b 6d3d
000000d0: 9cd5 71be d4d0 d9bd 1e2b 04be 9fcb adbd
000000e0: e88a b2be 5a49 acbe 62a5 74be 38f8 37be
000000f0: bc8a 20bf e067 0cbe 151e 41be b642 70be
-0.040498175 0.004080442 -0.22322296 -0.1297322 -0.3977306 -0.2208836 0.07269608 -0.24216427
-0.2579027 -0.1445288 -0.20978045 -0.29342535 -0.27751088 -0.113333255 -0.2598261 -0.21170923
-0.76684946 0.009647333 -0.22277696 -0.25621933 -0.08536257 -0.021858217 -0.38173056 0.041298248
0.05354917 -0.12815806 -0.26483464 0.02725547 -0.09978861 -0.1630603 0.02585518 -0.40804696
-0.1989894 -0.19488138 -0.08734353 -0.09286253 -0.6324124 -0.6055565 -0.046580397 -0.10040975
-0.44363603 -0.62304 -0.43367186 -0.18235385 -0.39255512 -0.10932131 -0.15919359 -0.5967462
-0.16213582 -0.2661059 -0.19603924 0.05793295 -0.23616642 -0.10635534 -0.12907073 -0.08486103
-0.34871602 -0.33649713 -0.23891214 -0.17965782 -0.6271169 -0.137115 -0.18859132 -0.23462948

conv3.weight f4 [128, 64, 3, 3]
00000000: 014c 6b3e 049e 9fbe 8c5c 8ebd d966 693d
00000010: 50e5 45be c2f8 1ebc f2b4 03bc 20dd d4bd
00000020: 9f46 83bd cc51 28be fd7e 133d 87c8 79be
00000030: 0bbb 1c3d a715 a0bd 0b38 863d 174f 3c3e
00000040: 8ed4 9fbd be71 24be 9c94 88bc 2662 9b3d
00000050: 1d0d 4e3d a412 b0bd 2afa 1ebd 3da6 373e
00000060: 9afa 6bbd f0cb 9cb8 ab48 b1bd aa23 393e
00000070: 60f2 6dbd 1ace 4a3d bf66 133e d45f 5e3e
00000080: 64e3 29bd a340 e83d 435b 2ebe c3a1 f3bd
00000090: 5dd6 23bd 4182 b4bd 8cc9 7f3b fd6c 69bc
000000a0: 2596 fdbc 6323 85bd 9644 bbbd 32aa c13c
000000b0: 0369 a53d e8af 3fbd d484 7b3d 61ef 92bd
000000c0: ae4b c7bd 1d94 7bbc 92de e7bd 7b0a b33c
000000d0: e6b7 683d ce12 fb3c 5dd6 06be b369 62be
000000e0: d024 15be cdb6 4bbe 8765 7fbe 58d3 21be
000000f0: c6d3 46bd ac9d 6fbe 46b7 343d 8bfe 0bbe
00000100: e5cf e23c b01f a2bd 0f35 f2bc 46c0 36bd
00000110: e906 373e 710a 09bb 2453 acbd e367 a93d
00000120: e07d f0bd 05e9 193e dcfd 8e3c 65ca d6bd
00000130: bf9f 2fbe 7267 fa3d 1f37 b4bc 106a aebd
00000140: cb1b cbbd 26b9 883e 87c9 f13d fbc2 c63e
00000150: eab4 07be 6883 efbd f8e4 77be 22e4 47be
00000160: 60d9 733d cff4 29be 0729 fcbd ff50 293e
00000170: 40a4 21bd 76bc 41be 6950 a2bd a1bd 943e
00000180: ece8 48be cebd 8dbe 488d cdbe 7b78 3e3d
00000190: af9e ddbc e6e7 92bd 366b 83bd 56ca 2ebd
000001a0: 87ef 98bc 6357 123d e84d b73c 435a 4a3d
000001b0: d6c3 3dbd 5e65 853d c4ad 7a3e 4857 8d3b
000001c0: 3f36 5dbc b8a0 eabb 54e5 8f3d 1a15 cabc
000001d0: 23f5 3cbd 4662 62be 06db 763e faad 9fbd
000001e0: 17ac aa3e 33de d9bd 979d 143b 64c6 5c3c
000001f0: dcb7 583d 6afa 90be fa4c 80bb 02b6 20bd
00000200: bc1f 87bd b8ba 81be 8bae cabe 09ee 713e
00000210: e1f2 7bbd 3149 19be 42e5 893b 458a 343e
00000220: a3cb 123d b34f 9bbd 0985 663c 0711 a23d
00000230: 6b7f 98bd 27f2 bb3d faea e43d be9d 93bc
00000240: 319a a83d a9bf 163e a4ad 8b3c fc4b 1a3e
00000250: 4fe3 3bbd 48a9 513e da77 263e 1197 1e3d
00000260: 8f89 ab3d a7af 62bc 8557 95bd a317 a9bd
00000270: 08ee adbc cfe6 adbd f6ed fbbd e858 b8bd
00000280: 658b cd3d 59b0 7d3e 8f24 3cbe 84ab 57be
00000290: 47db c13c 2989 0f3e d986 65be a1c4 cebd
000002a0: 1602 36be 5d82 bdbd ee54 0ebd f58a 23be
000002b0: 3d6d a3bd 9f22 3c3e 5da8 143b 51d6 39be
000002c0: 7ecf c63d 4971 8abd f3bd 31be 5db3 6e3d
000002d0: 2a9f 97bc c867 06be 2e44 033e 48d0 b23d
000002e0: 47ba ce3c c261 f13c a9d4 1c3d 5ad0 683d
000002f0: f0a6 df3d 0008 56bd 33db 45be 629d 193d
00000300: 10fe 123d 6716 08bd 4353 3b3d b703 b9bd
00000310: 0730 4cbd ca8a 13bd 139f bebd 4c55 32bc
00000320: 9b05 50bd c4c0 4b3d 80be 06be eb66 ebbc
00000330: 69b6 66be 9e52 673d 951b 18bd 2251 163d
00000340: b606 4c3d ad03 473d fc9b 81bb 83b4 33be
00000350: 87bf f3bd 3b16 d7bd 00b9 fc3d 2a0a 8f3c
00000360: 6d51 babc 5554 97bd 0f1e 8a3c d6e3 9cbd
00000370: 5583 813d d4bd b43c 19de ed3d d4a5 5cbd
00000380: f1df 45bd 2dbc adbb 51d9 15bd 48bb 1c3c
00000390: 203a 633d fae0 98bc aa44 a73e 3d18 0c3a
000003a0: 3b19 ae3d 16cf bb3d 3eca 78bd d2ba 01be
000003b0: 7735 1a3d 8955 e0bd ebc4 50be e758 52be
000003c0: 0cd0 1cbe bff1 99be 7a60 133c 184c 8a3d
000003d0: c5f9 44bc c03d 87bd a8a2 b1bc 0cd8 7dbe
000003e0: b5b6 14be 225c 7dbd f55f d53d ff16 393d
000003f0: 5e31 233e 4726 aebe 8460 183e 99fa 243e
0.22978212 -0.31175244 -0.06951246 0.05698285 -0.19325757 -0.009702863 -0.008038746 -0.10393739
-0.06409954 -0.16437453 0.036009777 -0.24392901 0.038264316 -0.0781663 0.06553658 0.18389545
-0.078042135 -0.16059014 -0.016672425 0.0758708 0.050305475 -0.085973054 -0.038812794 0.17934509
-0.05761204 -7.476646e-05 -0.086564384 0.18080011 -0.058092475 0.04951296 0.14394663 0.21716243
-0.041476622 0.113404535 -0.17027001 -0.11896088 -0.039999355 -0.088139065 0.0039030043 -0.014247176
-0.030955384 -0.0650089 -0.09143941 0.023640726 0.0807667 -0.046798617 0.06140597 -0.07174564
-0.09731232 -0.015355137 -0.11321749 0.021855583 0.056816004 0.030648615 -0.1316771 -0.22110634
-0.14564824 -0.19893952 -0.24941073 -0.15803277 -0.048541807 -0.23399991 0.044120096 -0.13671319
0.027687022 -0.079162 -0.029566316 -0.04461696 0.1787373 -0.0020910765 -0.08414295 0.08271768
-0.11742759 0.15030296 0.017455034 -0.104878224 -0.17150782 0.12226762 -0.02199894 -0.085163236
-0.099174105 0.26703757 0.118060164 0.38820633 -0.13252607 -0.11694986 -0.24208438 -0.1952062
0.059533477 -0.16597293 -0.12312513 0.16534804 -0.03946328 -0.18919548 -0.07925493 0.29050925
-0.19620103 -0.27683872 -0.40146852 0.046501618 -0.027053205 -0.07173137 -0.06416933 -0.04267343
-0.018668903 0.03572787 0.022376016 0.049402487 -0.04632934 0.06513475 0.24480349 0.0043133833
-0.013501703 -0.0071602724 0.07026163 -0.024668265 -0.046132218 -0.22107801 0.24106988 -0.07796855
0.3333442 -0.10638084 0.0022676939 0.013475034 0.052909717 -0.2831605 -0.0039154263 -0.039236076
-0.0659785 -0.25337768 -0.3958629 0.2362596 -0.061510924 -0.14969327 0.004208238 0.1763087
0.035838734 -0.07583561 0.014069804 0.07913404 -0.07446178 0.09177046 0.11177631 -0.018019553
0.08232535 0.1472155 0.017050572 0.15068048 -0.045871075 0.20474732 0.16256657 0.038718287
0.083758466 -0.013835824 -0.07292084 -0.082564615 -0.021231666 -0.08491289 -0.12301247 -0.090013325
0.10036353 0.24774303 -0.18373321 -0.21061522 0.02366413 0.14017166 -0.22414722 -0.10096098
-0.17774233 -0.092533804 -0.034748964 -0.15970977 -0.0797982 0.18372582 0.002268336 -0.18148161
0.09707545 -0.06759889 -0.17357616 0.058276523 -0.018508513 -0.13125527 0.12818977 0.08731133
0.025235308 0.02946556 0.038288746 0.056839325 0.10920513 -0.052253723 -0.19321899 0.037503608
0.035886824 -0.03322449 0.0457337 -0.09033912 -0.04985049 -0.03602103 -0.09307685 -0.010884594
-0.050786596 0.049744383 -0.13158607 -0.028735599 -0.22530521 0.056475274 -0.03713568 0.036698468
0.049811088 0.04858749 -0.0039553624 -0.17549329 -0.11901765 -0.10502287 0.123399734 0.017460901
-0.022743905 -0.07389132 0.016860036 -0.07660644 0.06323878 0.022063173 0.116146274 -0.053869084
-0.04830927 -0.0053019733 -0.036584202 0.009566136 0.055475354 -0.018661965 0.32669574 0.0005344188
0.08500906 0.09170358 -0.06073975 -0.12668923 0.037648644 -0.109538145 -0.20387618 -0.20541726
-0.15313739 -0.3006725 0.00899517 0.06752795 -0.01202244 -0.06603575 -0.021684006 -0.24789447
-0.14522822 -0.061855443 0.10418693 0.045187946 0.15936801 -0.34013578 0.14880568 0.1611122

conv3.bias f4 [128]
00000000: 6b04 d0be 4734 64be 00b3 32bf 1119 a5be
00000010: 98d1 60be d011 8fbe 9642 60be 194d 04bf
00000020: fe93 efbe dadd 90be 5113 53be 3f76 86be
00000030: 6360 79be 95aa d9be 4f92 9fbe 3887 5bbe
00000040: f2d6 95be ac88 c8be c0f4 60be cce8 84be
00000050: d62e d2be 9382 a4be b398 50be d532 80bd
00000060: 06da aabe e6e4 0dbe e24d e1bd 6426 92be
00000070: 76b6 48be bf12 b1be 4ebf 7dbe 32d0 37bf
00000080: ac19 f1be c1cf c6be 73b4 b7be 1f57 92bd
00000090: 3b2a a7be 5715 8dbe 6668 e9be 850b 09be
000000a0: aa6c edbe 8228 39be 1275 c2be 5727 acbe
000000b0: 7fb2 b0be 3163 a3be 9f9f 11bf 2d6f adbe
000000c0: d123 e2be c10a 14bf a756 5abe edc0 6dbe
000000d0: c16f 68be 1ced 49be f304 c6be 63c7 87be
000000e0: a476 5ebe e87d 72be 1239 14be 82b4 87be
000000f0: 701d f2be fbbd 1dbf 4fdb dfbe 963d b7be
00000100: e954 863d d775 783e 235e 0bbe 2ab6 05be
00000110: 2360 5fbe 3ca0 cbbe 7b49 4a3e 3343 2cbe
00000120: a955 86be ca63 b8be 90ac e9be 744b b9bd
00000130: 6eb7 89be 0d01 b0be 42f5 9fbe f4e0 cabe
00000140: 4c25 4bbe 1e77 b4be 060a 99be a085 c5be
00000150: 8435 78be 30d4 85bf af26 7bbe c647 3ebe
00000160: 1613 54be 7867 4f3e aade 63be 30c8 cf3c
00000170: 8088 cabd 0dcf 8bbe bd73 92be 71d2 8fbe
00000180: a176 a2be d168 0fbe 49e9 c0be 213d ccbe
00000190: b36a 48bf b69e 54be ffb7 cbbe 4eb4 08bf
000001a0: 0202 a5be 11f2 98be b3b2 ccbe 6611 c1be
000001b0: fcdd 25be 8134 dfbe 4300 bdbe 76ff 9dbe
000001c0: cfdb 51be c2ee f9be 6123 35be bf66 dbbd
000001d0: 2c1c 33be b2af 4cbe e7e7 b7be ba77 83bf
000001e0: 09d2 e8be c09b 9cbe afb7 53be c782 f2be
000001f0: 480c 1bbf bba8 91be 43da dbbe e9e2 e4be
-0.4062837 -0.22285567 -0.6980438 -0.32245687 -0.21954954 -0.27943277 -0.219004 -0.5168014
-0.46792597 -0.2829426 -0.20612837 -0.2626209 -0.24353175 -0.42512956 -0.31166312 -0.214383
-0.29265553 -0.39166772 -0.21968365 -0.2595886 -0.41051358 -0.3213087 -0.2037075 -0.062596954
-0.33369464 -0.13856849 -0.11001183 -0.28544915 -0.19600853 -0.34584615 -0.24780008 -0.71802056
-0.470899 -0.3883038 -0.3587986 -0.07145523 -0.32649407 -0.27555344 -0.45587462 -0.133833
-0.46371967 -0.18081859 -0.37979943 -0.33623764 -0.34511182 -0.31911615 -0.5688419 -0.33873883
-0.4416795 -0.5782891 -0.21322118 -0.23218127 -0.2269888 -0.19719356 -0.3867565 -0.26519307
-0.21724945 -0.23680842 -0.14474896 -0.26504904 -0.47288084 -0.6161801 -0.43722007 -0.35789174
0.06559164 0.24263702 -0.13610129 -0.13057771 -0.21814017 -0.39770687 0.19754593 -0.1682251
-0.2623723 -0.36013633 -0.45639467 -0.09047595 -0.26897758 -0.34375802 -0.31241804 -0.3962475
-0.19838446 -0.3524713 -0.2989046 -0.3857851 -0.24239165 -1.045538 -0.24526475 -0.18582067
-0.20710406 0.20254314 -0.22252908 0.025364012 -0.098893166 -0.27306405 -0.28603926 -0.28090242
-0.31731132 -0.14004828 -0.37677982 -0.39890388 -0.7828781 -0.20763668 -0.39788815 -0.53400123
-0.32228094 -0.29872182 -0.39980087 -0.37708586 -0.16197962 -0.43594745 -0.36914262 -0.30858964
-0.20494007 -0.4881497 -0.17689277 -0.10712957 -0.17491215 -0.19988897 -0.35919115 -1.0270913
-0.45472744 -0.30587578 -0.20675538 -0.473654 -0.60565615 -0.28449044 -0.42939958 -0.4470437

p_conv1.weight f4 [4, 128, 1, 1]
00000000: 57d6 87bd 9c40 3fbd bde0 70bd e004 123e
00000010: 901b ad3c d336 ff3c 6930 163d c06e 053c
00000020: 1bb7 b9bc 0986 39bd 64dc 56bd d727 8d3d
00000030: bbbf 313c 5ea1 67bd 6ce0 253d 43dc f5bc
00000040: 3ba2 4fbd 07f3 533d 91a3 e8bc a673 fabc
00000050: 500a ddbb 8cca 223c 252b 2e3d fa64 7d3c
00000060: 85d5 923c 024c 723d c839 57bc 0688 17bd
00000070: b2d4 a5bd 7d01 8abd eb36 16bc c6da 5c3b
00000080: 6661 1d3c f866 953c 00ea 3bbd 2dfd ac3c
00000090: be1b 193b 68b9 cdbc 2be5 853b 76ca 2cbc
000000a0: ae96 31ba 40ee 5fbc 573d b33c 8f23 c5bb
000000b0: 004d 823a cee6 3abc fbdc 7cbd 5ee6 8a3c
000000c0: 2734 133d 21eb f2bc 3567 b7bb 66e2 15bd
000000d0: edf8 acbc 243c 77bd d468 7cba 03ca 593c
000000e0: 0501 a13b edbd eabc c9bf 80bc 24dc d4bc
000000f0: 7952 a5bb 3181 dc3c 3a70 9d3c 1d72 c6bd
00000100: ee7d 37bf 2200 b4bd a48b b8bc afed b73d
00000110: 34bd cc3b c586 3fbd 41af 743d 3621 3d3c
00000120: fe1a 753c 9456 1e3c 2b3e 903c 17ad ce3c
00000130: fa14 b93c bf17 563a 8297 733d 0e16 cb3d
00000140: 7751 21bd 0712 5dbd b9d0 39bc 6867 73bd
00000150: 36f4 95bd 2639 a93e 6c96 e13c c02b 273d
00000160: 2d0b f5bb 3149 863e b7b3 4a3d dd87 923c
00000170: 7311 df3c f046 4dbd 0058 703d 0d8c e4bc
00000180: 6afe 85bc 784e 40bd 257a f73b 4362 2dbd
00000190: 26d2 603f 7005 cdbc f7f4 5cbc 4311 853d
000001a0: 8cf8 38bd c512 37bd 7fb6 1abc 43e6 993c
000001b0: 3de0 133d 4ecc 60bd 8ae7 0e3d b922 cdbd
000001c0: 481e c7bc 1fa0 183d 1610 453d f67d fcbd
000001d0: d54e 59bd b1c9 ed3b d8a2 8b3c 2753 633d
000001e0: 97db 153d e837 a6bd 6c28 e4bc 95ce ac3b
000001f0: 12cf ddbc 33ac 8e3c 5a5a 94bc dd33 9d3c
00000200: 5234 4cbd 4528 b4bd 7daf 5abe 0ffd 153e
00000210: cbf8 343c 552d 3e3c a6a4 6bbd 76c1 f0bc
00000220: 77ca 87bd 3aa2 0abd c5d7 9dbd 2c5d 05bd
00000230: 10d0 eebc 78ac e9bc 03b6 973c 7281 e73c
00000240: 9bd2 27bd 8b62 3fbd 2441 b13c a406 95bc
00000250: 2a30 09bd ae7f 183c 43e0 f43c 4955 2ebc
00000260: 29c9 8dbc 8639 303d ba82 123c 80ab 4ebc
00000270: fa8a ba3c 92af 47bd c845 17bd 7d69 043d
00000280: 2d41 01bc 0ac7 643d f7a9 b43c 845c 7dbd
00000290: 2196 573b 49af d13b 197b 9dbc f940 4bba
000002a0: 2527 c8bc f248 22bc f46c e9bb 46c2 17bc
000002b0: 4a40 84bd f6c5 e3bd c40b 35bd d715 74bd
000002c0: 766b ddbc ec14 803d 8e99 b3ba 51a3 a93c
000002d0: c9f9 3c3c 81d8 83bb 2863 f6bc 880f 313c
000002e0: 00c3 753c 0776 5ebc b7e9 0c3d 4c7f dbbc
000002f0: 05e7 aa3c aef9 b0bc 5b7b 8bbc 0acb 1bbc
00000300: 3e3e aa3e 43df 0dbe 9ac3 ab39 65b0 8abd
00000310: 98c6 26bd ad96 cabc 24d8 f13e 7bb8 00bd
00000320: 389d 0db7 d60d 2f3d 0e60 14bd fa78 c7bb
00000330: 32b9 b5bc 6503 18bd c808 39bc 4359 3b3d
00000340: 1cb6 ddbc 588e 0dbd 1dbe d1bc aec6 75bd
00000350: b40b 3dbc 3c22 59bc d264 efbc 0bf6 063c
00000360: 3163 07bc d5d4 953d 5d93 16bd 197c 123d
00000370: 598c fdbc 54ab 1dbd 3bea 2e3d 82a0 acba
00000380: fe18 253d a4b5 cbbd 6831 d23c 759e af3a
00000390: b5fe d3bd 27f3 3dbc 15c3 ae3c 3e35 a03d
000003a0: 6764 7abc fc35 43bd 53d6 943d 64eb c73b
000003b0: 15a6 67bd 8762 d13c 2ae2 bdbd 0d95 3abc
000003c0: 8b24 00bd 6b73 ceba 61d0 30bb 552e b6bd
000003d0: 95fd 0bbd d51d ba3a 6bc1 fc3b 970c a03d
000003e0: 2cb1 80bd 4ce7 2e3c 3cfd c33a 0293 45bd
000003f0: 1aac b0bc bc48 193d 9e4f 1d3e 540e 2bbd
-0.06632679 -0.046692476 -0.058808077 0.14259672 0.021131307 0.031154072 0.03666726 0.008144081
-0.02267032 -0.04529384 -0.052456275 0.068923645 0.010848935 -0.056550376 0.04049723 -0.030012256
-0.050691824 0.05174544 -0.028398307 -0.030572724 -0.006745614 0.009935986 0.042521615 0.015465969
0.01792408 0.059154518 -0.013136335 -0.036994956 -0.08097209 -0.06738565 -0.009168367 0.0033699735
0.009605741 0.018237576 -0.045877457 0.021116817 0.0023362483 -0.025112823 0.004086157 -0.010546317
-0.0006774467 -0.013667643 0.021879835 -0.006016202 0.0009941161 -0.011407567 -0.06173418 0.01695555
0.03593841 -0.029653134 -0.00559702 -0.036592864 -0.02111479 -0.06036009 -0.0009628658 0.013292792
0.0049134516 -0.028655017 -0.01571645 -0.025983877 -0.005045232 0.026917072 0.019218553 -0.09689734
-0.7167653 -0.08789088 -0.022527523 0.089808814 0.0062481407 -0.046759386 0.059737448 0.011543563
0.014960049 0.0096641965 0.017607769 0.02522902 0.02259301 0.00081669906 0.05947066 0.09916316
-0.03938433 -0.05397227 -0.011341267 -0.059424788 -0.0732197 0.33051413 0.027537547 0.040813208
-0.007478139 0.26227716 0.049487796 0.01788705 0.02723 -0.05011648 0.058677673 -0.027898813
-0.016356666 -0.046949834 0.0075524026 -0.042330038 0.8782066 -0.025027007 -0.013486139 0.06497433
-0.045158908 -0.044695634 -0.0094429245 0.018786555 0.036102522 -0.05488234 0.03488878 -0.100163884
-0.024306431 0.03726208 0.048111044 -0.12328713 -0.053053696 0.0072567095 0.017045423 0.055499222
0.03658637 -0.08116132 -0.027851306 0.00527365 -0.027076278 0.017416095 -0.01810949 0.01918977
-0.049854584 -0.08796743 -0.21356006 0.14647315 0.011045645 0.011607488 -0.057530068 -0.029389124
-0.06630414 -0.033846118 -0.077071704 -0.03255956 -0.029151946 -0.028524622 0.018519407 0.028259967
-0.040972333 -0.046724837 0.021637507 -0.018191643 -0.0334932 0.009307785 0.029892093 -0.010640451
-0.017307835 0.04302361 0.0089423 -0.012614131 0.022771347 -0.04875142 -0.036931783 0.032327164
-0.007889074 0.05585388 0.022053702 -0.061855808 0.003289588 0.0063990694 -0.019223737 -0.0007753517
-0.024432728 -0.009905087 -0.007123584 -0.009262627 -0.06457575 -0.111217424 -0.044200674 -0.05959114
-0.02702878 0.062539905 -0.0013702379 0.020707758 0.011534163 -0.004023612 -0.030076578 0.010806926
0.015000105 -0.013577945 0.034402575 -0.026794098 0.020862112 -0.021603432 -0.017026594 -0.0095088575
0.33250612 -0.13854699 0.00032761396 -0.06771926 -0.040716738 -0.024730051 0.47235215 -0.031425934
-8.44086e-06 0.042737804 -0.036224417 -0.0060874196 -0.022183035 -0.037112612 -0.0112935975 0.045739423
-0.027064376 -0.034559578 -0.025603348 -0.06000393 -0.011538435 -0.013252791 -0.02922288 0.008237372
-0.008263395 0.07315985 -0.03676163 0.03576288 -0.030950712 -0.03849347 0.04270385 -0.0013170394
0.040307038 -0.099467546 0.025658324 0.0013398664 -0.10351316 -0.011593617 0.021333257 0.07822655
-0.015282727 -0.047658905 0.072674416 0.006101059 -0.056554873 0.025559677 -0.09271653 -0.011388076
-0.03128485 -0.001575095 -0.0026979672 -0.08895556 -0.03417738 0.0014199564 0.007713487 0.07814901
-0.06283793 0.010675263 0.0014952789 -0.0482359 -0.02156644 0.03742288 0.15362403 -0.04176171

p_conv1.bias f4 [4]
00000000: d06b 0b3e db58 dc3c 3b2e 13be 4567 043e
0.13615346 0.026897838 -0.14373104 0.12930019

p_fc1.weight f4 [64, 256]
00000000: 8938 49bb 4a49 4c3d 0c0b f43c 5f5d a339
00000010: c659 63bb a720 29bc 7b75 3c3c 8f0b 7f3d
00000020: fb30 c33d 72fe 4bbd 1d12 d63c 93e6 d33c
00000030: 17f7 9a3d 02d3 ca3d 97e3 a63b 05f3 443d
00000040: c765 0dbd 64f8 9fbc d3fe d63c 9e2e ad3d
00000050: c38f 1dbd c4a6 2e3d 262e 913b cad2 603d
00000060: 3758 b93d 92b3 a13c 987a 6b3d c1a3 cb3b
00000070: 0a17 223d 2994 e03c 0c37 22b8 2bc6 8c3b
00000080: 5e73 c53d ae39 9ebd 9e66 5f3e 5cd0 c1ba
00000090: 91c8 613d 6f54 babc a1e2 6d3c d6ce 7c3d
000000a0: c21e 183e c45b a53e 8eda a2bd fdf1 a2bb
000000b0: 8fd7 36bc c740 1dbd fa6d 363d 2b70 863d
000000c0: 2669 56bf 6e91 7b3d 8f8f 453d 3398 693d
000000d0: baa0 34bc 7c1e ecba 02b0 2c3d 9242 623c
000000e0: aaa2 f93d a2da 893d 7e1a 133d 5d54 6b3d
000000f0: 0f0a f539 1a93 653d 4099 723b ca38 92bb
00000100: 4840 0dbe 6dbd 243b 3599 79bd 57a4 a93c
00000110: 8ab9 9cbb 3c2c b03d 6de2 783d 26d9 9b3d
00000120: 6b6b 8ebc 8736 f7bb c7dd ff3b 390d aebc
00000130: 3d21 74bd f8ff 10bd 986d 0aba b297 893b
00000140: f5e0 d0bc 4a62 97bd 50bc d13c b45b 97bd
00000150: 64f2 77bd 5967 ad3c 3ae4 94bc b4c4 64bd
00000160: 25d5 81bd 4e7c afba af01 e0bd 7ea5 0bbe
00000170: ec39 c1bc 3a2e a1bc e00c 5bbd 77fb 80bd
00000180: ff43 3d3d 5bd5 1cbc 0541 0dbe 98fd 2bbe
00000190: f670 8abd 39fb 97bd e1af d3bc 2bba ccbc
000001a0: 72e0 063e 14f8 993d 014c 62be 9160 29be
000001b0: a795 aabd ec2f 483d 5318 05bc ee66 c8bd
000001c0: f472 da3e 7c75 9bbe 7acb 18be a7c9 e53d
000001d0: 72f5 2f3c becd 61bd 81e7 bebd da1f a5bc
000001e0: f94e d8bd ef7e 7ebe c51e aebd eb9c a6bd
000001f0: 90a9 8e3d 1c71 213b 0492 cebc d906 1a3d
00000200: 2c6a c4bd 4628 b63d b895 713d d438 933d
00000210: f716 cd3d 14e5 fc3b cb28 2fba c80e 363d
00000220: 1e60 01be f8c9 363d 1818 3fbd 4541 43bd
00000230: 6220 4d3c 4f77 96bd a41a 5cbc 8321 04bd
00000240: 2ef0 813c baa7 b53c 1d50 493d 2b09 7e3d
00000250: 6234 2b3c 13cf 00bd d7ba 1f3c f8d6 97bd
00000260: 7e08 39bd 5d85 59bd f88f d3bb 0726 553d
00000270: 6e44 db3b a315 d5bc b7ab 5b3d a2c1 79bd
00000280: 681a 1d3c 2467 a73b 8150 133c 5d1f 52bd
00000290: d844 0cbd 09bc 7a3d 2413 e03d a3b5 7b3d
000002a0: 4eca 213d 0d93 cebc 6342 d2bb 9181 903e
000002b0: 25d8 073d 8fbb 373d 64bc 093d ba7e 37bb
000002c0: 3ea1 3a3e f532 bd3e e8dd 8d3e 0591 df3d
000002d0: e108 dbbb 1881 cfbc b7d2 623d 3b7c f93c
000002e0: cbe5 313e 4616 503d e7b6 71bc d32b 3ebd
000002f0: 7dd7 40bd 91db 10bd 8845 a6bd 2fb1 fcbc
00000300: c46a 743d f1b7 5e3d 58c8 a3bd 19cb f7bc
00000310: 7215 f93b 0013 83bd 4667 cd3c d653 2dbc
00000320: 147c 183d 4835 85bd ba0d 42bd 01a7 093d
00000330: 437a 9abd dfb3 b3bd 6929 66bc 5df0 8abd
00000340: 454c d0bc 81e4 c1bd 0514 6f3b 258d babd
00000350: 58f8 94bd ed4f 143d 192b 80bd a438 d53d
00000360: 128b 3d3c a3b4 ac3b dbc5 adbd f484 b4bd
00000370: 4b8e 1dbc 4564 0dbe b122 99bd 7931 96bd
00000380: dd37 3fbd 9b35 e33a ee91 c2bc 7b8d 37be
00000390: e4b9 c3bd 69e1 dfbd c674 0d3c 171e a23b
000003a0: 03b8 9abd 67a6 023b fb9f 8bbe 970f 993c
000003b0: f2e1 17be d652 cbbd 5b12 1cbd b96d 68bc
000003c0: 523b 53be e13d a8be 93ad 243d b2f2 99bc
000003d0: 806a aebc 5bf1 f6bc 5902 dcbc c879 42bb
000003e0: a62d 97be 3fb9 743e 3cf6 843c 8c29 623b
000003f0: 9a96 70bd 4d1a 63bd ac5c 44bd 93ca afbd
-0.0030703864 0.04987458 0.029790424 0.0003115935 -0.003469096 -0.010322726 0.011502619 0.062266883
0.09530827 -0.049803205 0.026131684 0.025866782 0.0756666 0.09903528 0.005093049 0.048083324
-0.03452089 -0.019527622 0.026244557 0.08456157 -0.03846718 0.04263951 0.00443055 0.054888524
0.09050029 0.019738946 0.05748996 0.0062145893 0.039572753 0.027414398 -3.8675076e-05 0.0042960844
0.09641145 -0.07725845 0.21816489 -0.0014786827 0.055122916 -0.02274534 0.014519365 0.06172069
0.14855483 0.32296574 -0.07951842 -0.004972695 -0.011159792 -0.038391855 0.044538476 0.06564363
-0.83754194 0.06141799 0.04823261 0.057029914 -0.011024648 -0.0018014456 0.04216004 0.013809817
0.12189229 0.06731154 0.035913937 0.057453502 0.00046737536 0.05604849 0.0037017614 -0.004462336
-0.13794053 0.002513732 -0.060937125 0.020708246 -0.00478286 0.08602187 0.06076281 0.07609777
-0.017385205 -0.007544342 0.0078084203 -0.02124654 -0.05960201 -0.03540036 -0.0005280613 0.0041989917
-0.025497893 -0.07391794 0.02560249 -0.07390538 -0.060533896 0.021167444 -0.018175233 -0.055851653
-0.06339482 -0.0013388486 -0.10937821 -0.13637349 -0.02358719 -0.019675363 -0.053479075 -0.06297963
0.046207424 -0.009572352 -0.13794334 -0.16795957 -0.06759827 -0.07420964 -0.025840702 -0.024991116
0.13171557 0.0751802 -0.22099306 -0.16540743 -0.08329325 0.048873827 -0.008123475 -0.09785257
0.42665827 -0.3036307 -0.1492137 0.11220103 0.010739671 -0.05512785 -0.093214996 -0.02015679
-0.10561938 -0.24853109 -0.085019626 -0.081353985 0.06965935 0.0024634069 -0.02521611 0.037604187
-0.09590563 0.088944 0.058980674 0.071885735 0.10014146 0.007717738 -0.0006681799 0.04444769
-0.12634322 0.044626206 -0.046653837 -0.047669668 0.012519928 -0.07346975 -0.013434086 -0.03225852
0.015861597 0.022174705 0.049148668 0.062020462 0.010449501 -0.03144748 0.009749136 -0.07414049
-0.045174114 -0.0531057 -0.0064563714 0.05203822 0.006691507 -0.026011294 0.053630557 -0.06097568
0.009588815 0.005108731 0.008991362 -0.05129944 -0.034245342 0.06121448 0.10941151 0.06145252
0.039499573 -0.025216604 -0.0064166053 0.2822385 0.033165116 0.044856604 0.03362693 -0.002799912
0.18225572 0.3695294 0.27708364 0.10916332 -0.006684408 -0.025330111 0.055376735 0.030454746
0.17372815 0.05080249 -0.01475308 -0.046428513 -0.047080506 -0.035365645 -0.08118731 -0.030846206
0.059672132 0.05437464 -0.07997197 -0.030248212 0.0076014334 -0.06400108 0.025073659 -0.01057907
0.037227705 -0.06504303 -0.047376372 0.033606533 -0.07542851 -0.08774542 -0.014047959 -0.06784127
-0.025426993 -0.09467412 0.0036480438 -0.091089524 -0.0727393 0.036209036 -0.0625822 0.10411194
0.0115688015 0.005270557 -0.084850036 -0.08814421 -0.009616445 -0.13807781 -0.0747732 -0.07333655
-0.046684135 0.0017334701 -0.023751225 -0.17925064 -0.0955694 -0.109316655 0.008633798 0.0049474346
-0.07554629 0.001993561 -0.27270493 0.018684192 -0.14832285 -0.09927909 -0.038103443 -0.014186316
-0.20628098 -0.3285971 0.040204596 -0.018792484 -0.021291018 -0.030144384 -0.026856588 -0.0029674638
-0.29527014 0.23898791 0.016230695 0.0034509627 -0.058737375 -0.055445004 -0.04793994 -0.0858356

p_fc1.bias f4 [64]
00000000: 37bb 82bd 9a56 57bd a459 6bbd 245e 15be
00000010: 0d7e 2dbe 83dd c8bd 4348 b7bd 837a 75bd
00000020: 2619 1bbd 37b5 04be 09f7 ca3c 08c5 8e3c
00000030: 65b8 1ebd d283 aabd e5aa 1bbe f433 1dbd
00000040: 1ca5 4cbd 8c3d c0bc 94ae ff3d c6c2 323e
00000050: b51a 3b3e 27d6 9b3d 5cb3 88bd 4b23 53bd
00000060: 59d2 6ebd d976 9bbc 8b32 3e3e c8ef 543e
00000070: 4b41 573e 91c0 1e3e 0fe8 78bd f4a9 0d3b
00000080: 0c12 0dbe a7f8 72bd 9811 3b3e 0a0a 403e
00000090: a2e1 413e 67b8 433e 8009 f1ba 20ef 98bc
000000a0: 6d46 bebd 16ef 12bd 6867 a83d fe12 083e
000000b0: c4d4 cc3d 094f fb3d 82b3 513d 60dd f73c
000000c0: 36b2 7cbd 7a8e 31be 7ac2 eabb 3f61 783d
000000d0: ae53 95bc 25d1 71bb 3cfb 37be 2826 46b8
000000e0: 3316 71bd eee1 c1bd 3d3b dbbc 42bf d8bd
000000f0: 64f1 dabd 3e55 6fbd a45f 50bd 0428 8a3d
-0.06383365 -0.052572824 -0.057458535 -0.14586693 -0.16942616 -0.09807875 -0.0894933 -0.05993129
-0.03786578 -0.12959753 0.024775999 0.017427936 -0.03875007 -0.08325924 -0.1520191 -0.038379624
-0.049962148 -0.023466848 0.1248447 0.17457113 0.18271907 0.07609206 -0.06674835 -0.05154733
-0.058306072 -0.01897757 0.18573968 0.20794594 0.21021001 0.15503146 -0.060768183 0.0021616193
-0.13776416 -0.059319165 0.1826843 0.1875383 0.18933728 0.19113313 -0.0018389672 -0.018668711
-0.092907764 -0.03587254 0.08222848 0.13288495 0.10001519 0.12270934 0.051196583 0.030256927
-0.061693393 -0.17339507 -0.0071642967 0.060639616 -0.018228378 -0.0036898341 -0.17966932 -4.7242414e-05
-0.05885906 -0.09466921 -0.026761645 -0.105833545 -0.10690573 -0.058430903 -0.05087246 0.067459136

value_conv1.weight f4 [2, 128, 1, 1]
00000000: 97a6 5abf 7c27 61bf 346d 6e3e 7478 84bd
00000010: 7c29 bf3d ad97 503d c1c5 febe f706 f63d
00000020: afd5 7d3e 680d 173d 6c44 55bf 6828 2ebd
00000030: 272a 7d3e 0298 543e 98ec 843d 0309 0dbe
00000040: a56b 35bf 8ea9 793e 3883 0f3d 75fb 2bbf
00000050: 3762 31bf 65ab 0a3e 3c3e 19bf e6b3 69bf
00000060: 623e 0fbc b819 44bf a99b d33d c691 5ebf
00000070: bcaa fa3c 133a 37bf 7361 aa3c 2d2a c73e
00000080: 77ad 563e 6518 01bf 4d1f 5bbf c55f 003e
00000090: 6c8d e13a 5715 283e 7277 dd3e 9ab1 953b
000000a0: a6f2 f93d 848e 29bf 64e5 b43e 41a2 2fbf
000000b0: 82e6 413e e6c8 713e ba55 693e 51c5 35bf
000000c0: 3b94 1dbf 96b1 d73e 03fc c73d d5a7 843d
000000d0: bbf1 0ebf 4832 ca3d 0bd1 6ebf 6166 3fbf
000000e0: c1c0 c03d 90a7 24bf 6291 dfbb 0e81 81bf
000000f0: 4c07 963e 988d b33e fcc0 28bf 385e 1bbf
00000100: a313 913d 9fb4 d03c e0fa 17bd 8ca1 29bf
00000110: 5bcb 3bbf 57bc 253e ebec 4f3d 4583 62bf
00000120: 28b2 37bf 2310 983e cd90 aa3e 2a62 783d
00000130: 0b44 1fbd 2963 62bf dc76 853e 9dd7 573d
00000140: 01bb e8be f39d d3be b063 babd 2571 4f3e
00000150: cfc8 1f3d 10d3 a23e 34ec 10be 5082 0bbf
00000160: 49a6 f63d 8f6d e1bc e1ae 0bbd ce6f 55bd
00000170: 4b6e acbc 003e 233e 6e6f 34bf c491 06be
00000180: 4c36 61bf 3fc4 d6bc 3f3e 213e 7f2c 12bf
00000190: 5ded 37bc 8c08 1bbf 3d09 3abf 0963 a53e
000001a0: 8e2b 0b3e 1e28 b63d 3d76 2cbf 21d1 873e
000001b0: 40f6 79bf 07b5 2cbf 1520 6fbf 5cc2 49bf
000001c0: ed49 da3d 642c 26be bcb9 9e3d 6795 0f3e
000001d0: d4d9 96be 34b5 22bf 0855 50bf 26ad b93d
000001e0: 413b 3fbf 3dac 433e 1c94 a8be 0dcb c93e
000001f0: f3cb ea3d 94a8 0fbf 7737 3cbf 5631 4abf
00000200: 1f09 9fbd 6e6d 29be 0d63 c73e 2f9a 853e
00000210: 0ad8 5abf de6d 38bf d6dd 29bf b7cc a13e
00000220: f577 663e 58c9 3dbf aa49 1fbd 8e02 2abf
00000230: 0d8f ecbe a603 bbbe b547 80bf 9552 50bf
00000240: 155d b93d a417 2ebf b7b4 5dbf cb46 413d
00000250: cd63 ee3d 2fea 20bf 82c5 84bd 5a28 b73c
00000260: 7508 78bf b0e4 9e3d c40d 2fbf 9adf ed3d
00000270: fc55 5abf cdb2 2f3d 1b22 4fbf cacc d13e
00000280: b700 debe 2770 1ebf 4952 043e 20af 07bb
00000290: c57e 5fbf 2b97 dfbe 4c28 6a3e 2114 3bbf
000002a0: dec5 3dbf 7f16 b2bd 766b c83e becd 733d
000002b0: 42c1 60bf 0bf5 1cbf fcb0 c23e 1852 633d
000002c0: 4693 193e 8e5b 913e 4f8a 37bf c377 2ebf
000002d0: cedc bc3c 3ac8 753e c6c2 54bd 76df e73d
000002e0: 3a17 33bf 3661 293e c505 35bf dc95 a5bd
000002f0: fa76 683e 20f0 6c3e 0b8e 733e d6c6 ed3d
00000300: 59bb 5d3d a99c 533d a698 40bf ddaf af3d
00000310: 1399 d63c fd45 2bbd bbf3 3b3d 529b d93d
00000320: 51cf 983d 7597 c83e 46ff 373e da4b f1be
00000330: 7dfe 60bf 8e1f 883e 186f 21bf a7c8 78bf
00000340: 84d1 263e 1c3b 793d 9b7c 79bf 47f5 463e
00000350: 517e 46bf 6f90 1d3f d061 33bf cf0f 013c
00000360: 58fc 81bf 8a0e 49bd 4d4d 4fbf 6ab2 96bd
00000370: b225 06bf dcee f8be 4b52 3b3e e59c 41bf
00000380: 29fe 1cbd c4f9 65bf 4912 47bf e2b8 18bf
00000390: f784 cebc c53a a63d cf48 97bc dc5b 8f3e
000003a0: 6f48 1dbf e407 52bf 9fcb d2be 6a27 8a3e
000003b0: 476f 003e 5eda 5b3e fe00 b4bc d4ed 323e
000003c0: 9bdd 09bf 6ba8 e3be d55e 06bf f171 4ebf
000003d0: b36b 133d 3ce9 193e 649d bc3c 5d87 dd3e
000003e0: 1920 9a3e 58fb 27bf 2ca8 43bf 93f6 533e
000003f0: 8f6a 083f e8c7 e53c c6e9 c0bc b6dc 143e
-0.85410446 -0.87950873 0.23283845 -0.06468287 0.093340844 0.0509259 -0.4976025 0.12013047
0.24788545 0.03687802 -0.8330753 -0.042519003 0.24723111 0.20761111 0.06490439 -0.13772969
-0.7086738 0.24381086 0.03503725 -0.6718057 -0.6929049 0.13541944 -0.5986059 -0.9129013
-0.008742901 -0.76601744 0.10332424 -0.8694118 0.03059899 -0.7157299 0.02079842 0.38899365
0.20964609 -0.5042785 -0.85594636 0.12536533 0.0017208285 0.1641439 0.43255192 0.004568291
0.12204485 -0.66233087 0.3533126 -0.68606955 0.18935588 0.23611793 0.22786608 -0.71004206
-0.61554307 0.42127675 0.09764864 0.06477324 -0.558376 0.09872872 -0.93287724 -0.7476559
0.09411765 -0.6431818 -0.006822751 -1.0117509 0.29302442 0.35068965 -0.6591947 -0.6069064
0.070838235 0.025476752 -0.037104487 -0.66262126 -0.7335717 0.16185127 0.050763052 -0.8848155
-0.7175622 0.2969981 0.333136 0.06064049 -0.03888325 -0.88432556 0.26067245 0.05269586
-0.45455173 -0.41331443 -0.09101045 0.20258005 0.039009865 0.31801653 -0.14152604 -0.54495716
0.12043435 -0.027518062 -0.034102324 -0.05210858 -0.021048686 0.1594162 -0.7048253 -0.13141543
-0.87973475 -0.026216624 0.15746401 -0.57099146 -0.011226025 -0.60559916 -0.72670346 0.3230212
0.13590834 0.088943705 -0.6736792 0.2652674 -0.9764137 -0.67463726 -0.9340833 -0.78812194
0.106586315 -0.16227871 0.0775027 0.14021836 -0.29463065 -0.63557744 -0.8137975 0.090662286
-0.7469979 0.19108672 -0.32925498 0.39412728 0.114646815 -0.56116605 -0.7352213 -0.7898153
-0.077654116 -0.1654565 0.38942757 0.26094195 -0.854859 -0.72042644 -0.6635412 0.31601498
0.22506697 -0.7413535 -0.03888861 -0.6641015 -0.4620289 -0.3652622 -1.0021883 -0.8137601
0.09050957 -0.6800482 -0.86603874 0.047186654 0.11640129 -0.62857336 -0.06482984 0.022358108
-0.96887904 0.077584624 -0.6838038 0.11614914 -0.8528745 0.042895127 -0.80911416 0.40976554
-0.4335992 -0.6188988 0.12922014 -0.0020703748 -0.8730281 -0.4367002 0.22866935 -0.7307759
-0.74130046 -0.08695697 0.39144486 0.059522383 -0.8779489 -0.61311406 0.38025653 0.055498213
0.14997587 0.28390163 -0.7169542 -0.6815149 0.023054507 0.24002162 -0.051943563 0.11321919
-0.69957316 0.1654099 -0.7071193 -0.08085224 0.22701636 0.23138475 0.23784654 0.116101906
0.054133747 0.051663075 -0.75232923 0.08578465 0.026196038 -0.041814793 0.045886736 0.10625328
0.074614175 0.39178053 0.17968473 -0.47128183 -0.8788832 0.26586574 -0.6306014 -0.9718117
0.16290861 0.060847387 -0.9745576 0.19429503 -0.77536494 0.61548513 -0.70071125 0.007877304
-1.0155134 -0.04908613 -0.80977327 -0.073582485 -0.5240127 -0.48619735 0.18293111 -0.7563003
-0.038328324 -0.8983424 -0.77762276 -0.5965711 -0.025209887 0.08116678 -0.018467335 0.2799977
-0.6143865 -0.8204329 -0.41170976 0.26983196 0.12542449 0.21470019 -0.02197313 0.17473537
-0.5385377 -0.4446443 -0.5248845 -0.8064261 0.03599138 0.15030378 0.023024268 0.43267336
0.30102614 -0.65617895 -0.76428485 0.2069953 0.53287596 0.028049424 -0.023548972 0.1453732

value_conv1.bias f4 [2]
00000000: 0b7d e13d 0fa5 4b3e
0.11010178 0.19887184
